experiments/annual_reviews/figure8/unsafe_ppo_model/unsafe_ppo_model_30000.pt (torch, 148320 bytes, 30 tensors)

actor.pi_net.fcs.0.weight f4 [64, 4]
0	0x3e9bc576	0.30424088
1	0xbebb3ffd	-0.36572257
2	0x3f5019e1	0.8128949
3	0x3edc2912	0.43000084
4	0x3ed0599a	0.4069336
5	0xbebddec6	-0.37084025
6	0xbf076781	-0.5289231
7	0x3e98e464	0.29861748
8	0xbef69d2a	-0.48166782
9	0x3f0510a7	0.51978534
10	0x3f04f12c	0.519305
11	0x3e345e48	0.1761409
12	0xbede43c1	-0.43411067
13	0x3e318125	0.17334421
14	0x3f167d03	0.587845
15	0x3e2ca58d	0.16860028
16	0x3ef3183c	0.47479427
17	0x3e27a807	0.16372691
18	0xbc6616f1	-0.014043556
19	0x3f0c4640	0.54794693
20	0x3e1c703c	0.15277189
21	0xbe631406	-0.22175607
22	0xbdca257f	-0.09870433
23	0x3ec6761d	0.38761988
24	0x3ee87572	0.45402104
25	0xbeccbbcb	-0.39987025
26	0x3ed830c0	0.42224693
27	0x3e8b656b	0.27225813
28	0xbe6a3e09	-0.22875227
29	0xbe0d31a0	-0.13788462
30	0xbf2938b3	-0.6610214
31	0xbe892d71	-0.26792482
32	0xbeee74b2	-0.46573406
33	0xbb495c3a	-0.0030725137
34	0x3f325e28	0.6967492
35	0x3eb76114	0.35816252
36	0x3eea7e50	0.45799494
37	0xbed51551	-0.41617826
38	0x3ebd35b3	0.36955032
39	0x3f1c5cbf	0.6107902
40	0x3dbf6c8c	0.093468755
41	0xbe1b1030	-0.15142894
42	0xbf57b2c1	-0.8425713
43	0x3e30f784	0.1728192
44	0x3eb8b4c4	0.36075413
45	0x3ecbc6c9	0.398001
46	0x3f54f685	0.8318866
47	0x3e436958	0.19083154
48	0x3eac80ad	0.33691922
49	0xbdf384d4	-0.11890569
50	0x3f59332d	0.84843713
51	0x3d942d42	0.07235195
52	0xbde5b1b3	-0.11215534
53	0xbe69127c	-0.22760957
54	0x3f38534b	0.72002095
55	0x3ea9dff7	0.33178684
56	0x3e9f0432	0.31057888
57	0xbe96c61d	-0.29448023
58	0x3dbf4822	0.0933993
59	0x3f0c1051	0.54712397
60	0xbe80a846	-0.25128382
61	0xbe8dc0a5	-0.2768604
62	0xbf0f4544	-0.55965066
63	0xbe92f220	-0.28700352
64	0xbeb14f19	-0.3463066
65	0x3ed9f724	0.42571366
66	0x3eb73184	0.35779965
67	0x3e87bae9	0.2650979
68	0x3ebd98e7	0.37030718
69	0xbeaf5d9d	-0.3425111
70	0x3e84a935	0.25910345
71	0xbe922b35	-0.2854859
72	0xbdd16720	-0.10224748
73	0x3ec5804b	0.38574442
74	0x3f651eb9	0.89500004
75	0x3f109d78	0.5649028
76	0x3e8c8d03	0.27451333
77	0x3ef50974	0.47858775
78	0x3e453294	0.19257575
79	0x3ca96bb8	0.020681247
80	0xbe40f323	-0.1884275
81	0xbd501b65	-0.050807375
82	0x3eb21d55	0.34788004
83	0x3ecc7126	0.39930075
84	0x3eb3e0bf	0.35132405
85	0xbebf4b48	-0.37362123
86	0xbf21c174	-0.6318581
87	0xbe658a49	-0.22416033
88	0x3d31f2c0	0.043444395
89	0xbe5df48b	-0.21675317
90	0xbf0e2a7f	-0.55533594
91	0xbcf63ab4	-0.030057289
92	0xbe52b926	-0.20578441
93	0x3c9c85a8	0.019106701
94	0xbf4fa53e	-0.81111515
95	0xbe834380	-0.25637436
96	0xbe49720a	-0.19672409
97	0xbd9058e3	-0.07048204
98	0x3f4e2c2b	0.80536145
99	0x3ee4dac6	0.4469816
100	0xbdfe9087	-0.1242991
101	0xbee37f01	-0.44432834
102	0xbf4e02c3	-0.80472964
103	0xbf06c61e	-0.5264605
104	0xbcdd0326	-0.02697904
105	0xbe716c84	-0.23576552
106	0xbf4aba79	-0.79190785
107	0x3a4cd8f0	0.00078143086
108	0x3cb35f1a	0.021895934
109	0xbd893739	-0.06699986
110	0x3d8ff625	0.0702937
111	0x3ee63827	0.44964716
112	0xbeef8496	-0.46780843
113	0x3c6b2756	0.01435264
114	0x3f1d65ed	0.6148365
115	0x3edec328	0.43508267
116	0xbee43e3a	-0.44578725
117	0xbd9d1737	-0.076704435
118	0x3f407111	0.75172526
119	0x3e103b7a	0.14085189
120	0x3dee2a4e	0.11629163
121	0xbe7762e9	-0.24158825
122	0x3f528f4b	0.822499
123	0xbdba8448	-0.09107262
124	0xbe8e27c5	-0.27764717
125	0x3ef4ac3b	0.4778765
126	0x3f03fba2	0.51555836
127	0x3d852ee6	0.06503086
128	0xbeab2677	-0.33427784
129	0xbdfa5211	-0.12222684
130	0xbf4ceae2	-0.800459
131	0xbee39840	-0.44452095
132	0xbdbddd42	-0.09270717
133	0x3dd7c151	0.10534919
134	0xbc2c234f	-0.010506465
135	0x3f1ed637	0.62045616
136	0x3eb515f6	0.35368317
137	0xbeeb0fb4	-0.45910418
138	0x3f2a0bbe	0.6642417
139	0xbe760d24	-0.2402845
140	0xbec8cde1	-0.39219573
141	0x3ee606c0	0.44927025
142	0xbf11ba0c	-0.5692451
143	0xbe66386e	-0.22482464
144	0x3d4eb969	0.05046979
145	0x3e959905	0.29218307
146	0x3ebb921b	0.36634907
147	0xbdb6a07b	-0.08917328
148	0x3d5642a7	0.05230966
149	0xbe86b101	-0.26306918
150	0xbf32ee99	-0.6989532
151	0x3e0319a3	0.12802748
152	0x3d9951d6	0.07486312
153	0x3e712709	0.23550047
154	0xbf243378	-0.64141035
155	0xbf22a24b	-0.6352889
156	0xbdb5e0db	-0.088807784
157	0xbee23bbc	-0.441862
158	0xbd80993c	-0.06279227
159	0x3e67c610	0.22634149
160	0x3cd6cd9f	0.026221095
161	0x3e9a5bad	0.30148068
162	0x3ee17cad	0.44040433
163	0x3e8ca20f	0.2746739
164	0x3ee386d0	0.4443879
165	0x3d5966b9	0.05307648
166	0xbea6519b	-0.32484135
167	0xbea41d50	-0.32053614
168	0x3e9cd292	0.30629402
169	0x3ee1f11e	0.4412927
170	0x3c839d91	0.016066344
171	0x3f10f7f3	0.5662834
172	0x3e246d2f	0.16057275
173	0xbdbc4602	-0.091930404
174	0xbf5773c9	-0.8416105
175	0xbf158d13	-0.5841839
176	0xbec88fc5	-0.39172187
177	0xbeddd0b9	-0.43323305
178	0xbf46af13	-0.7761089
179	0xbe8c25f9	-0.2737272
180	0xbed0fa4b	-0.40815958
181	0xbee234b6	-0.4418084
182	0xbef23f41	-0.47313884
183	0xbf079745	-0.52965194
184	0xbd830719	-0.06397838
185	0x3dc2f586	0.09519486
186	0x3ef433ec	0.47695863
187	0x3ecfa434	0.40554965
188	0x3e7d61e1	0.24744369
189	0xbe98c55b	-0.2983807
190	0xbe9e7e7a	-0.3095587
191	0x3d7fd4f4	0.062458947
192	0x3ed536e7	0.4164345
193	0x3e6c23a3	0.2306047
194	0xbf22bfb7	-0.63573784
195	0xbe045d9a	-0.12926331
196	0x3e037dd0	0.12840962
197	0x3e4f0380	0.20216179
198	0xbf1e1345	-0.6174815
199	0xbf140626	-0.5782188
200	0xbea29ed7	-0.3176181
201	0x3c32c444	0.010911051
202	0xbf21b54b	-0.63167256
203	0x3e1a8cd4	0.15092784
204	0x3e98f055	0.2987086
205	0x3bb917ff	0.0056486125
206	0x3f3186cd	0.69346315
207	0x3eefc164	0.46827233
208	0x3ea526b9	0.32256106
209	0xbedb3952	-0.4281717
210	0x3f52741d	0.82208425
211	0x3e1c065b	0.152368
212	0xbefee734	-0.4978577
213	0x3e0021f2	0.12512949
214	0x3d95e5a0	0.07319188
215	0x3f1c0970	0.609519
216	0x3ec00cd5	0.3750979
217	0xbeae8ec4	-0.34093297
218	0xbf1204d9	-0.57038647
219	0x3db20a6b	0.08693393
220	0xbe18d0df	-0.14923428
221	0x3e6d0c75	0.23149283
222	0xbe43a969	-0.19107594
223	0x3ef2966a	0.47380382
224	0x3d8d39e1	0.06895805
225	0x3c18883d	0.0093098255
226	0xbf369bf7	-0.71331733
227	0xbd99fdd8	-0.0751912
228	0x3ea73032	0.32653958
229	0x3ee68c6a	0.45029002
230	0xbf34c940	-0.70619583
231	0xbe948ff6	-0.29016083
232	0x3de8fa16	0.11375825
233	0x3e853505	0.26017013
234	0xbf5bf5d1	-0.8592196
235	0xbe991970	-0.2990222
236	0xbed2b9e7	-0.41157457
237	0x3ef59ce3	0.47971258
238	0x3e7cd49e	0.24690482
239	0x3edb4e5a	0.42833215
240	0x3e831aa1	0.25606254
241	0x3d67d873	0.056602906
242	0x3f0073ac	0.501765
243	0x3edf2767	0.4358475
244	0xbda5470f	-0.08070194
245	0x3e8f02c6	0.27931803
246	0x3ea61dee	0.3244471
247	0x3dce3ae9	0.1006983
248	0x3e48459d	0.19557805
249	0xbeeb2da5	-0.45933262
250	0xbf242448	-0.6411786
251	0xbf03909a	-0.5139252
252	0xbe0ac70f	-0.13552497
253	0xbd30bf2d	-0.04315107
254	0xbe42bef8	-0.19018161
255	0xbf016b1b	-0.50554055

actor.pi_net.fcs.0.bias f4 [64]
0	0xbeccdcab	-0.40012106
1	0x3e9b14e2	0.3028937
2	0xbd7731cc	-0.060350224
3	0xbe81420f	-0.2524571
4	0xbdf31c8c	-0.11870679
5	0x3ca31d20	0.019911349
6	0xbeb5f06b	-0.35534987
7	0xbeec47c0	-0.4614849
8	0xbea4d0f3	-0.32190666
9	0x3ebc8e2c	0.3682722
10	0x3e0fc690	0.1404059
11	0xbeef134e	-0.46694416
12	0xbe8563e9	-0.26052788
13	0x3eb076a9	0.3446553
14	0x3eeb182b	0.45916876
15	0x3dc6be0c	0.09704217
16	0x3e905e61	0.28197005
17	0x3da1e62b	0.07905229
18	0x3e867f91	0.262692
19	0xbebca923	-0.3684779
20	0x3d928150	0.07153571
21	0xbed945f4	-0.42436182
22	0xbee57fab	-0.44823965
23	0x3ec7fd39	0.3906038
24	0x3d2a5ee5	0.041594405
25	0x3e51fb39	0.2050599
26	0xbd80ce69	-0.062893696
27	0xbeccf7c8	-0.40032792
28	0x3eb88879	0.3604162
29	0xbee01081	-0.4376259
30	0xbea17f15	-0.31542268
31	0x3e182438	0.14857566
32	0xbe2bed8a	-0.16789833
33	0x3dffa311	0.12482274
34	0xbee71cf8	-0.4513929
35	0x3e35fd50	0.17772412
36	0xbea1a9da	-0.315749
37	0x3e72b702	0.23702624
38	0xbd28ce41	-0.041212324
39	0xbec07b3d	-0.37594023
40	0xbde1d319	-0.11026592
41	0xbd963df0	-0.073360324
42	0x3e96d66b	0.29460463
43	0xbe5b3fa7	-0.21411
44	0x3d41a74a	0.04727868
45	0xbe4ee591	-0.2020476
46	0x3c8c6ecd	0.017142678
47	0x3ed18631	0.40922692
48	0x3e5114f1	0.20418145
49	0x3ddb13d4	0.10697141
50	0xbeca7b15	-0.3954703
51	0x3e86ad87	0.26304266
52	0x3ee0bc31	0.4389358
53	0x3dd0fa8d	0.10204039
54	0x3ec7a507	0.38993093
55	0x3e525507	0.20540248
56	0x3ee7e282	0.4529
57	0xbd76d421	-0.060260896
58	0xbe22df0a	-0.15905395
59	0x3e765948	0.24057496
60	0xbe061899	-0.13095321
61	0xbd2b615e	-0.041840903
62	0xbd79cc19	-0.06098566
63	0xbe2de89d	-0.16983266

actor.pi_net.fcs.1.weight f4 [64, 64]
0	0x3d92fc08	0.071769774
1	0xbcfe3ce7	-0.0310349
2	0x3aae2f30	0.001328921
3	0x3e19415b	0.14966337
4	0xbd9194e2	-0.07108475
5	0xbd5a27c4	-0.05326058
6	0x3e0ef470	0.13960433
7	0xbdd3e82e	-0.10347019
8	0xbd860ca2	-0.06545378
9	0x3dcdce3c	0.10049102
10	0x3d85e207	0.06537252
11	0x3df8192f	0.121141784
12	0xbd1bf612	-0.038076468
13	0xbdb54da8	-0.088527024
14	0xbdccbaec	-0.0999659
15	0xbdb45f98	-0.088072956
16	0x3d506ef6	0.05088707
17	0xbb6094aa	-0.0034268298
18	0x3dd7d643	0.10538914
19	0xbd4ed7b2	-0.05049867
20	0x3d642b4d	0.055705357
21	0x3db5c704	0.0887585
22	0xbd63f13c	-0.05564998
23	0xbe0773de	-0.13227794
24	0x3e5b9477	0.21443354
25	0xbb965d5f	-0.0045887674
26	0x3c64663b	0.013940389
27	0x3df29277	0.11844342
28	0x3ced4cf6	0.028967362
29	0x3dbe1f6b	0.09283336
30	0x3d44fc17	0.048091974
31	0x3d9605d4	0.073253304
32	0xbda13900	-0.078722
33	0x3dc06435	0.09394113
34	0xbcc9c9c6	-0.024632346
35	0xbd78762c	-0.060659572
36	0x3d9b0648	0.075695574
37	0x3c9751c9	0.018471615
38	0x3c21e8d0	0.009882167
39	0xbcbd5ed2	-0.023116503
40	0x3d2fa807	0.042884853
41	0xbdfad8b5	-0.12248365
42	0xbd0ba7b0	-0.034095466
43	0xbe45158b	-0.19246499
44	0xbc374095	-0.011184831
45	0xbe12c27d	-0.14332004
46	0x3d9dc164	0.07702902
47	0x3d017caa	0.03161303
48	0x3d79b68f	0.060965117
49	0xbc6220f4	-0.013801802
50	0x3dc1fc41	0.09471942
51	0x3d528e47	0.051405217
52	0xbcd96197	-0.026535792
53	0xbdbddb91	-0.092703946
54	0x3be06315	0.006847749
55	0x3d1ea71e	0.038733594
56	0xbcefae84	-0.02925802
57	0x3c8cb8a3	0.017177885
58	0xbdabc9c8	-0.08388096
59	0x3d02ba35	0.031915862
60	0xbce37f6e	-0.027770724
61	0x3d8f481d	0.069961764
62	0xbd854887	-0.06507974
63	0xbda66841	-0.081253536
64	0x3d9bb307	0.07602506
65	0xbdeedc89	-0.116631575
66	0x3e2ef5ff	0.17086028
67	0xbdba6078	-0.09100431
68	0x3dfd5908	0.12370497
69	0xbcb8beee	-0.02255198
70	0xbddb77a3	-0.10716178
71	0xbd509e5e	-0.05093228
72	0x3dcfbd13	0.10143485
73	0x3cf2a238	0.029618368
74	0xbe05bdc5	-0.13060673
75	0xbd7ff3a2	-0.062488206
76	0x3e077b9f	0.13230751
77	0xbd97df3f	-0.07415628
78	0xbd35389d	-0.044243444
79	0xbe43c938	-0.19119728
80	0xbdbe3eb6	-0.09289305
81	0x3df9b0b8	0.121919096
82	0x3caa8d04	0.020819195
83	0xbb441cf4	-0.0029924484
84	0x3d044282	0.03228999
85	0xbe07d39f	-0.13264321
86	0xbd0c0d19	-0.03419218
87	0xbe06ee44	-0.13176829
88	0x3ce6bd74	0.02816651
89	0x3c67d39d	0.014149574
90	0xbe3adaf7	-0.18247591
91	0x3d591255	0.052996
92	0xbb7a3822	-0.003818043
93	0x3d721c11	0.059108797
94	0xbbb452c6	-0.0055030314
95	0x3de8a55c	0.11359665
96	0x3cbedd9c	0.023299031
97	0x3e0f8acb	0.14017789
98	0x3dc64620	0.09681344
99	0xbdaf5fce	-0.08563195
100	0x3d97dcc2	0.07415153
101	0xbdda4668	-0.1065796
102	0xbe50d3e4	-0.2039333
103	0x3ddc5a91	0.10759462
104	0x3d2baa64	0.041910544
105	0x3d67110b	0.056412738
106	0x3dc20124	0.09472874
107	0xbdd2682d	-0.10273776
108	0xbe0973b3	-0.13423042
109	0xbd9ea14a	-0.07745607
110	0x3b09e49a	0.0021040798
111	0x3dc7aff9	0.09750361
112	0xbdbfd1d2	-0.09366192
113	0xbd0ab7f7	-0.03386685
114	0x3dc0a7fe	0.09407042
115	0xbd245cbb	-0.040127497
116	0xbd27a45f	-0.04092824
117	0x3e09a0d2	0.13440254
118	0xbc900ec6	-0.01758517
119	0xbddaaa84	-0.106770545
120	0x3ce34bb3	0.027746057
121	0x3d087a37	0.03331968
122	0xbe1dc17b	-0.15405838
123	0x3df29e1a	0.11846562
124	0x3e46eb5d	0.19425721
125	0x3e1e69c2	0.15470031
126	0xbcda9c88	-0.026685968
127	0xbd0f2bf3	-0.034954023
128	0x3dd28f0e	0.10281192
129	0xbd5f13f5	-0.054462392
130	0x3dcb712a	0.09933694
131	0xbcba331f	-0.022729455
132	0x3e096c58	0.13420236
133	0xbd16822c	-0.036745235
134	0xbd1e9761	-0.038718585
135	0xbd1baaa9	-0.03800455
136	0x3d987bb6	0.07445471
137	0x3d1c307b	0.038132172
138	0xbe0b2b8e	-0.13590834
139	0xbd202e33	-0.03910656
140	0xbd3da596	-0.046300493
141	0xbccc8c92	-0.024969373
142	0xbbdad44f	-0.006678141
143	0x3c121413	0.008915919
144	0xbd4725cc	-0.04862003
145	0xbb212075	-0.0024585996
146	0xb9bbb63a	-0.0003580319
147	0xbd4a4918	-0.049386114
148	0xbcae3f7c	-0.021270506
149	0xbe0ff496	-0.14058146
150	0xbdb3ce85	-0.08779625
151	0xbd79509e	-0.0608679
152	0x3dfa4140	0.12219477
153	0xbd23dde7	-0.040006544
154	0xbe46a205	-0.19397743
155	0xbdd2852c	-0.10279307
156	0xbd45b665	-0.048269648
157	0xbd133aec	-0.035944864
158	0xbce9ed0d	-0.028555417
159	0x3dbffde5	0.093745984
160	0xbd43008a	-0.047607936
161	0x3c1a2715	0.009408732
162	0xbd8d2902	-0.06892587
163	0xbe081111	-0.1328776
164	0x3df3af56	0.11898677
165	0xbe0f0a90	-0.13968873
166	0xbdab7541	-0.08371974
167	0xbdc627bd	-0.09675548
168	0xbd600bec	-0.05469887
169	0xbc7165f4	-0.01473378
170	0xbd0049ae	-0.031320266
171	0xbe3df4ba	-0.18550387
172	0xbe4bd9c0	-0.19907284
173	0x3d875092	0.066071644
174	0x3d4ef70f	0.050528582
175	0x3da5c686	0.08094506
176	0x3daafbae	0.08348785
177	0xbe2567ec	-0.16152924
178	0xbce43001	-0.027854921
179	0x3e1ad1fa	0.15119162
180	0xbc92e84a	-0.01793303
181	0x3d86c3b8	0.06580299
182	0x3dc9860b	0.0984002
183	0xbe06f7b5	-0.1318043
184	0xbab774f4	-0.0013996647
185	0x3d92c8d1	0.07167209
186	0xbdeb9e4e	-0.115048036
187	0xbddf87e4	-0.10914591
188	0x3c72b824	0.01481441
189	0xbd0852f9	-0.033282254
190	0xbd9845f0	-0.074352145
191	0xbc576ae2	-0.013148041
192	0x3c6e84da	0.0145580415
193	0x3d12e3ff	0.035861965
194	0x3c062aaf	0.0081888875
195	0xbdfa48ae	-0.12220894
196	0xbd81bd29	-0.063349076
197	0xbd6f37c8	-0.058402807
198	0x3c126b51	0.008936719
199	0xbd5c2740	-0.05374837
200	0xbe0a4ee2	-0.13506654
201	0xbc91dff0	-0.017806977
202	0xbb0efcf1	-0.0021818245
203	0x3ca23c4f	0.019804148
204	0x3cad6e93	0.02117089
205	0xbdb41d2b	-0.08794626
206	0xbd333629	-0.043752823
207	0x3db0113e	0.08597039
208	0xbd95444d	-0.07288418
209	0x3bb66986	0.0055667786
210	0xbe2da81c	-0.1695866
211	0x3d96ed99	0.07369537
212	0x3d3090da	0.04310689
213	0x3d707336	0.058703624
214	0x3e015225	0.12628992
215	0x3d82646e	0.06366812
216	0xbe33de72	-0.17565325
217	0x3cf7b662	0.030238334
218	0x3dbd654b	0.09247836
219	0x3dc5ea23	0.09663799
220	0xb991d171	-0.000278126
221	0x3caee4be	0.021349307
222	0xbda91edc	-0.08257839
223	0x3d095d81	0.033536438
224	0x3e5881eb	0.2114331
225	0xbdfc30fa	-0.12314029
226	0xbe098b95	-0.13432153
227	0x3c58e844	0.01323897
228	0xbdab1bf8	-0.08354944
229	0xbd70096c	-0.058602735
230	0x3e013775	0.12618811
231	0xbda29cae	-0.079400405
232	0x3d0a8d9a	0.033826448
233	0x3c123d3b	0.008925731
234	0xbd179bcd	-0.037013818
235	0x3e2867de	0.16445872
236	0x3db4ba12	0.088245526
237	0xbca26f88	-0.019828573
238	0xbddf6cea	-0.109094456
239	0x3da50532	0.080576316
240	0xbd126934	-0.03574486
241	0xbb278a80	-0.002556473
242	0xbdbc4dd8	-0.09194535
243	0xbe31c5a2	-0.17360547
244	0x3d8ed417	0.06974047
245	0xbd4908ab	-0.049080532
246	0x3d73e74b	0.05954675
247	0xbcbae81a	-0.022815753
248	0x3e00fa7f	0.12595557
249	0x3dc3df81	0.09564114
250	0x3e03ace8	0.12858927
251	0xbb7c1dd5	-0.003846993
252	0xbd4e029e	-0.050295465
253	0x3cbcd115	0.023048917
254	0x3c17ffe4	0.009277318
255	0x3e16ee11	0.14739253

actor.pi_net.fcs.1.bias f4 [64]
0	0x3d805826	0.06266813
1	0xbd09928a	-0.033587016
2	0xbd523489	-0.051319633
3	0x3c8599a0	0.016308606
4	0xbdc1ecf8	-0.09469026
5	0xbd760b64	-0.060069457
6	0x3dd9ab1e	0.10628341
7	0xbda80e84	-0.08205894
8	0x3da1cdcd	0.079005815
9	0xbd381c92	-0.04494912
10	0xbd068aa8	-0.032847077
11	0xbd31f056	-0.043442093
12	0x3d61b281	0.055101875
13	0xbdb19eb9	-0.08672852
14	0x3c2800ef	0.010254129
15	0xbd8f991d	-0.07011626
16	0x3c4c9ee9	0.012489059
17	0xbdc3eaa8	-0.095662415
18	0xbde80c9e	-0.113305315
19	0xbd975d68	-0.07390863
20	0x3c0cc2aa	0.008591333
21	0x3db52496	0.08844869
22	0xbdb88a2e	-0.09010731
23	0x3d83c443	0.06433918
24	0x3bd58c80	0.006516993
25	0xbd92b6a3	-0.071637414
26	0x3de16c8c	0.11007032
27	0x3dbeecfe	0.093225464
28	0xbd63b1c3	-0.05558945
29	0xbb203714	-0.0024446892
30	0xbdd8ad4d	-0.105799295
31	0x3da82f20	0.082121134
32	0x3d55adb6	0.052167617
33	0x3da6494e	0.081194505
34	0x3dd1a258	0.10236043
35	0x3dd2aab1	0.10286463
36	0x3d49ec8b	0.04929785
37	0xbc821275	-0.015877942
38	0xbd6384de	-0.055546634
39	0xbc9300bf	-0.017944692
40	0x3cd57236	0.026055437
41	0xbd6c9879	-0.057762597
42	0x3cd3e986	0.025868189
43	0x3d23ad18	0.039959997
44	0x3d454687	0.048162963
45	0x3b0d950f	0.0021603738
46	0xbd590f9f	-0.052993413
47	0xbcf2f915	-0.029659787
48	0xbdaad8a2	-0.08342101
49	0xbdcaf9be	-0.09910916
50	0x3c58fd9e	0.013244061
51	0x3d927730	0.071516395
52	0x3dcca8e1	0.099931486
53	0x3d93760a	0.072002485
54	0x3d8f8a86	0.07008843
55	0xbb3cb447	-0.0028793977
56	0x3d242567	0.040074732
57	0x3ca00e58	0.01953809
58	0x3dc20490	0.094735265
59	0xbd1aa0ae	-0.037750892
60	0xbd88fde0	-0.06689048
61	0xbbcaf97a	-0.0061942907
62	0x3dd1300d	0.10214243
63	0xbdbf05e7	-0.09327298

actor.pi_net.fcs.2.weight f4 [1, 64]
0	0x3e5d9b26	0.21641216
1	0x3e0bc14f	0.1364796
2	0x3d8f0d5b	0.06984969
3	0xbe537ce4	-0.2065311
4	0x3e33b5d2	0.17549828
5	0x3dd34875	0.103165545
6	0xbe68914a	-0.22711673
7	0x3e285b52	0.16441086
8	0xbe0b6710	-0.13613534
9	0x3e51aeac	0.20476788
10	0x3e6132bb	0.21992008
11	0xbe42fd05	-0.19041832
12	0xbe3c5c5c	-0.18394607
13	0x3e296cda	0.1654543
14	0x3e7b8649	0.24562944
15	0xbe2fbc36	-0.1716164
16	0xbe262cc9	-0.16228022
17	0x3da7d66c	0.081951946
18	0x3e48ca30	0.19608378
19	0x3db3bc0c	0.087761015
20	0xbe327910	-0.17428994
21	0x3d84c3f3	0.06482687
22	0xbda3167c	-0.07963273
23	0x3e0fc763	0.14040904
24	0xbe571e24	-0.21007591
25	0xbe7586ce	-0.23977205
26	0xbe987b99	-0.29781798
27	0xbe366208	-0.17810833
28	0x3d979582	0.07401563
29	0xbe26716a	-0.16254202
30	0x3dbf9eea	0.09356482
31	0x3dfa298f	0.12214958
32	0xbe274bd4	-0.1633752
33	0x3e59a2dc	0.21253532
34	0xbdec510d	-0.11538897
35	0xbdd9c561	-0.1063335
36	0x3e478c5c	0.19487137
37	0x3dd5187b	0.1040506
38	0xbe038911	-0.12845255
39	0xbe64ccc3	-0.22343735
40	0x3e0535b6	0.1300877
41	0xbe40583f	-0.18783663
42	0x3e6dc575	0.23219855
43	0x3e80ec97	0.25180504
44	0xbe34fc7f	-0.17674445
45	0x3e61e0c7	0.22058402
46	0x3e495536	0.19661412
47	0xbe742a23	-0.23844199
48	0x3e08766a	0.13326421
49	0x3e6f5717	0.23373066
50	0xbe809974	-0.25117075
51	0x3e36f8af	0.17868303
52	0xbe0cd00a	-0.13751236
53	0xbe41309c	-0.188662
54	0x3d57c01f	0.052673455
55	0xbe34c197	-0.17651974
56	0xbeaa1059	-0.33215597
57	0xbe4fb9f9	-0.20285787
58	0xbdaeb2bd	-0.08530185
59	0x3e30db9a	0.17271271
60	0x3e228c4c	0.15873832
61	0xbdc2d0ab	-0.095124565
62	0xbd58d4ba	-0.052937247
63	0x3e2f948d	0.17146511

critic.v_net.fcs.0.weight f4 [64, 4]
0	0xbf3f3646	-0.7469219
1	0xbf2ceee2	-0.67552006
2	0x3f53364f	0.82504743
3	0x3e6a16b0	0.22860217
4	0x3ea8811f	0.32911012
5	0x3f48d408	0.78448534
6	0x3f96077a	1.1721032
7	0x3d75bee8	0.059996516
8	0x3f029d67	0.51021427
9	0xbf1cfa44	-0.61319375
10	0xbe063a76	-0.13108239
11	0xbef09083	-0.46985254
12	0xbc7777ab	-0.015104215
13	0x3de54511	0.11194814
14	0xbfe627c5	-1.7980887
15	0xbe723b11	-0.23655345
16	0xbd9c5c36	-0.07634775
17	0x3e0abd0b	0.13548677
18	0xc021a2a3	-2.5255516
19	0xbc77e3bc	-0.01512998
20	0xbecb67c7	-0.39727613
21	0x3f0ebff2	0.55761635
22	0xbfea6089	-1.831071
23	0x3ea8540c	0.32876623
24	0xbf64e0e9	-0.89405686
25	0xbebc8c3c	-0.3682574
26	0xbfa06789	-1.2531596
27	0xbe1b9b94	-0.15196067
28	0x3e211d35	0.15733798
29	0xbf47bfde	-0.7802714
30	0x3f35151d	0.7073534
31	0x3e261ffb	0.16223137
32	0xbf2834a9	-0.65705353
33	0x3e8d9b30	0.2765746
34	0x3f3c579c	0.7357118
35	0x3f00f49d	0.5037325
36	0x3e8f6e05	0.28013626
37	0xbe3917ee	-0.18075535
38	0xbfda3d7f	-1.7050017
39	0x3c5e5a24	0.013571296
40	0x3f05cc2c	0.52264667
41	0xbe29eb9c	-0.16593784
42	0xbfb93afb	-1.4471124
43	0xbebaf56c	-0.36515367
44	0x3e4ecf30	0.20196223
45	0xbee58264	-0.44826043
46	0xbf837c00	-1.0272217
47	0xbdaf67ad	-0.085646965
48	0x3ed66c55	0.41879526
49	0x3e94f949	0.2909644
50	0xbfe6516a	-1.7993596
51	0xbe702588	-0.23451817
52	0xbedff485	-0.4374124
53	0x3dc07862	0.09397961
54	0xbf9d37ed	-1.2282692
55	0x3d5d22ea	0.053988375
56	0xbebf8fe1	-0.37414458
57	0x3d3fbdf3	0.04681201
58	0x3fe7378c	1.8063827
59	0x3f375cea	0.7162615
60	0x3ebdc751	0.3706613
61	0x3ea6bf0c	0.32567632
62	0x3fbe8ccf	1.4886721
63	0x3e82c470	0.25540495
64	0xbf0847e9	-0.53234726
65	0xbef1a829	-0.4719861
66	0x3f8fca8f	1.1233691
67	0x3ef7808f	0.4834027
68	0x3f10b5ac	0.5652721
69	0xbeb027de	-0.34405416
70	0x3fff00d1	1.9922124
71	0x3eb4d8a3	0.3532153
72	0x3e7fe063	0.2498794
73	0xbea53fa1	-0.32275108
74	0x40046861	2.0688708
75	0x3e6cbef2	0.23119715
76	0x3f3a9931	0.7289
77	0xbe9f4892	-0.31110054
78	0x3fe89c1d	1.8172642
79	0xbe67b97e	-0.22629353
80	0xbe6a6cde	-0.22893092
81	0xbe791107	-0.24322902
82	0xc01f62d7	-2.4904077
83	0xbe4795de	-0.19490764
84	0xbec758a8	-0.38934827
85	0xbf2bd6d9	-0.67124707
86	0xbf83768d	-1.0270554
87	0x3e61ec68	0.22062838
88	0x3d937198	0.07199401
89	0xbeeb0c84	-0.45907986
90	0xbfdd7cf0	-1.7303753
91	0xbecfbdf5	-0.40574613
92	0x3da5e9e6	0.08101253
93	0xbf1a6b94	-0.603204
94	0xbe03a82b	-0.1285712
95	0xbed9668b	-0.42461047
96	0x3e02ee70	0.12786269
97	0xbf655746	-0.89586294
98	0x3e67dd52	0.22643021
99	0xbef3f3d2	-0.47646958
100	0xbf30ce73	-0.69065017
101	0xbf026e1d	-0.5094927
102	0xbe327030	-0.17425609
103	0x3ea9ecf3	0.3318859
104	0x3e3ef11d	0.18646665
105	0x3dcb0e0b	0.09914788
106	0xc01a2dc6	-2.4090438
107	0xbe59ee5e	-0.21282336
108	0xbee329a8	-0.4436772
109	0xbe9c57c8	-0.30535722
110	0x3fabc626	1.3419845
111	0x3e3f7924	0.18698555
112	0x3d63d832	0.0556261
113	0x3e4297b5	0.19003184
114	0x3ff692b8	1.9263525
115	0xbe72e71d	-0.23720975
116	0x3da312ba	0.07962556
117	0xbf6ee53b	-0.9331853
118	0x3fe8fda3	1.8202404
119	0x3dead988	0.11467272
120	0x3cb05902	0.021526817
121	0x3ecc2a53	0.3987604
122	0x400cef51	2.2021067
123	0xbe5ba7c7	-0.2145072
124	0xbc64ffd0	-0.013977006
125	0xbf4ed305	-0.8079074
126	0xbfbb4fd1	-1.4633733
127	0xbea078c6	-0.31342143
128	0xbddbf893	-0.10740771
129	0xbf448b4c	-0.7677505
130	0x3dd0b820	0.10191369
131	0xbeac5229	-0.33656433
132	0xbecca61c	-0.3997048
133	0x3ce5f372	0.028070185
134	0x3fdcc1f3	1.7246689
135	0xbe452314	-0.19251662
136	0xbf41426f	-0.75491995
137	0x3e888bcb	0.26669154
138	0xbfb1ad09	-1.3880931
139	0xbdc1aa7d	-0.09456346
140	0xbf6e51ed	-0.9309376
141	0xbeb58e5c	-0.35460174
142	0x3fd18d06	1.6371162
143	0x3eddb2f1	0.43300584
144	0x3e30327d	0.1720676
145	0xbf3dacbd	-0.740917
146	0x3ffb9401	1.9654542
147	0x3f2baf72	0.67064583
148	0xbf620872	-0.88294137
149	0x3eb907f2	0.36138874
150	0x3fa615fd	1.297546
151	0x3ed3d847	0.41375944
152	0xbecea27d	-0.40358344
153	0xbf03cf11	-0.51487833
154	0xbfb0677f	-1.3781585
155	0x3db8a063	0.09014966
156	0xbeec2abd	-0.46126357
157	0xbf223d46	-0.63374746
158	0xbfc47b36	-1.5350101
159	0xbe8e288b	-0.27765307
160	0xbed4b7d8	-0.41546512
161	0xbefd3902	-0.49457556
162	0xbf6e9894	-0.93201566
163	0xbeaefa82	-0.34175497
164	0xbf034a2f	-0.5128507
165	0xbe989a17	-0.2980506
166	0xbfb3e468	-1.4054079
167	0xbea1d2d9	-0.31606176
168	0x3e711435	0.23542865
169	0x3ef06bc1	0.4695721
170	0x3fe6ddd9	1.8036453
171	0x3eae8fd0	0.34094095
172	0xbcd52e05	-0.02602292
173	0xbf292b3a	-0.66081583
174	0xbf93c4ed	-1.1544472
175	0xbf281f3a	-0.6567265
176	0x3dbc83ff	0.09204864
177	0x3f6a9b56	0.91643274
178	0xbeff7e5c	-0.49901092
179	0xbe838ddf	-0.25694177
180	0x3f1c5865	0.6107238
181	0xbf3bbf43	-0.7333872
182	0x3f77de8f	0.9682397
183	0x3e97761f	0.29582307
184	0xbd86c14a	-0.06579836
185	0xbed30a63	-0.41218862
186	0x40063067	2.0967042
187	0xbe8e5438	-0.2779863
188	0x3e32e108	0.17468655
189	0x3e22ba8f	0.15891479
190	0x3fe7321a	1.8062165
191	0x3cfac6b8	0.030612335
192	0xbf8219c7	-1.0164117
193	0xbd832e64	-0.06405333
194	0x3f54a526	0.83064497
195	0x3f1a50e1	0.6027966
196	0xbe959ecf	-0.29222724
197	0xbee06760	-0.4382887
198	0xbfe91b5c	-1.8211474
199	0xbe4df00f	-0.20111106
200	0xbf14c8f8	-0.58119154
201	0x3ee6ccdc	0.4507817
202	0xc020d4d4	-2.51299
203	0xbdce77a1	-0.10081411
204	0xbee4e58d	-0.44706383
205	0xbf53a82b	-0.8267848
206	0x3fee8138	1.8633184
207	0x3dea849f	0.11451077
208	0x3e731bf7	0.23741136
209	0x3eff53db	0.49868664
210	0x3fc7b476	1.5601947
211	0x3ec900c6	0.39258403
212	0xbda73045	-0.081635036
213	0xbe7c59c9	-0.24643625
214	0x3fdcda31	1.7254087
215	0x3e4068cc	0.18789977
216	0xbee81fc1	-0.45336726
217	0x3f288905	0.65834075
218	0x3fabb636	1.3414981
219	0x3ed2b72e	0.4115538
220	0xbeb18201	-0.34669498
221	0xbde2cc54	-0.11074129
222	0xbfd8b946	-1.6931541
223	0xbeb5a9bc	-0.3548106
224	0xbe406304	-0.18787771
225	0xbec8685e	-0.39142126
226	0xc00a4cc1	-2.1609347
227	0xbea04014	-0.31298888
228	0x3f18d9a5	0.597071
229	0x3ece12c6	0.40248698
230	0xbf9a29bd	-1.2043988
231	0xbe5d1ce3	-0.2159305
232	0xbe1570c2	-0.14593795
233	0x3b24671d	0.0025085874
234	0xc01b80ba	-2.4297318
235	0xbda94005	-0.08264164
236	0x3f2f1749	0.68394905
237	0xbf08b411	-0.5339976
238	0x3f515ad5	0.81779224
239	0x3ea135b0	0.31486273
240	0x3f40f1a5	0.7536872
241	0xbef758bf	-0.48309895
242	0x3ffc6189	1.9717265
243	0x3d888356	0.06665675
244	0xbe9a39b0	-0.30122137
245	0xbe8effb6	-0.27929467
246	0x3f9947d9	1.1975051
247	0x3e9f4ed3	0.31114826
248	0x3e5bccec	0.2146489
249	0x3d9407d1	0.07228053
250	0x400be8c9	2.186083
251	0x3e124562	0.1428428
252	0x3dd22fa3	0.10262992
253	0x3f1a127d	0.6018446
254	0x3fd44a71	1.6585218
255	0xbe2f6c9f	-0.1713128

critic.v_net.fcs.0.bias f4 [64]
0	0x3f229f81	0.63524634
1	0x3f3c4719	0.73545986
2	0x3f1c038b	0.60942906
3	0x3dab1686	0.083539054
4	0x3e348d8a	0.17632118
5	0x3e831784	0.25603878
6	0x3f3c0002	0.7343751
7	0xbf0c1b12	-0.54728806
8	0x3e8b974d	0.2726387
9	0xbe85bc05	-0.2612001
10	0x3ebb5cf1	0.36594346
11	0xbe9e24ce	-0.30887455
12	0x3f0e0a5d	0.55484563
13	0xbebaad24	-0.3646022
14	0xbefe6920	-0.4968958
15	0x3ed9b937	0.4252412
16	0xbf55db82	-0.8353807
17	0xbecb85cf	-0.39750525
18	0x3efec0e6	0.49756545
19	0x3f288697	0.6583037
20	0xbe74766f	-0.23873304
21	0x3f16d27d	0.5891493
22	0xbd2bc6a9	-0.041937504
23	0x3eafbb77	0.34322712
24	0xbf0b750a	-0.5447546
25	0x3f20b9d4	0.6278355
26	0x3e6e5b66	0.23277053
27	0xbf1db8b5	-0.61609966
28	0x3d978b05	0.07399563
29	0x3f21d5fc	0.6321714
30	0x3ded2ab9	0.11580414
31	0xbf06a447	-0.5259442
32	0xbf0a5a9c	-0.5404451
33	0xbea4ebac	-0.32211053
34	0xbf2395da	-0.6390053
35	0x3f235a66	0.6380981
36	0xbf3419e4	-0.70352006
37	0x3f0615b4	0.52376866
38	0xbf19f03d	-0.601322
39	0x3f248339	0.6426273
40	0xbeeeed9a	-0.4666565
41	0x3f0d5132	0.5520202
42	0x3ea8b09c	0.32947242
43	0x3ed727f6	0.42022675
44	0xbf1f7972	-0.62294686
45	0x3f3b93d6	0.73272455
46	0x3e90ce49	0.28282383
47	0x3dba1f42	0.09087993
48	0x3f29b6dd	0.6629465
49	0x3ed941b5	0.42432943
50	0xbefe24a1	-0.4963732
51	0x3f2348d8	0.63783026
52	0x3eb2e534	0.34940493
53	0xbe3b902f	-0.1831672
54	0xbf22d53e	-0.6360663
55	0xbe54fb55	-0.20799
56	0xbe17f359	-0.14838924
57	0xbecc26be	-0.39873308
58	0xbe14744e	-0.14497492
59	0xbec3a02b	-0.38208136
60	0x3f34ed69	0.7067476
61	0xbebf0c5d	-0.3731412
62	0xbe361df0	-0.17784858
63	0x3ede8ff9	0.43469217

critic.v_net.fcs.1.weight f4 [64, 64]
0	0x3ed651b0	0.41859198
1	0x3d08ab31	0.033366386
2	0x3ef8f611	0.48625234
3	0xbdb20e3a	-0.0869412
4	0xbe3236b5	-0.17403682
5	0xbe2284dc	-0.15870994
6	0x3ec3981a	0.38201982
7	0x3e1890ec	0.14899033
8	0x3df87585	0.1213179
9	0xbe41b8f3	-0.18918209
10	0x3e4e3dff	0.20140837
11	0xbd44206f	-0.047882494
12	0x3de7ec45	0.11324362
13	0xbe53dc23	-0.20689444
14	0xbe6e9d73	-0.2330225
15	0x3e3a32c3	0.18183427
16	0xbc163813	-0.009168643
17	0xbd93ff55	-0.07226435
18	0x3eb6cf70	0.35705137
19	0x3ee292dd	0.44252673
20	0xbe996c27	-0.29965326
21	0x3ec8b545	0.39200798
22	0x3da199fb	0.078906976
23	0x3f2bd94c	0.67128444
24	0x3c8303fc	0.01599311
25	0x3ed4a952	0.4153543
26	0xbd4d6e19	-0.050153825
27	0xbe1c5eb2	-0.15270498
28	0xbd9baf58	-0.076018035
29	0x3f56c4e4	0.8389418
30	0xbdf9cae7	-0.12196904
31	0xbdaeb1dc	-0.08530018
32	0x3e0acff4	0.1355589
33	0xbd8aef7c	-0.06783959
34	0xbed7a373	-0.4211689
35	0x3e8f3331	0.27968743
36	0x3e13cfe9	0.1443478
37	0x3e91559b	0.28385624
38	0xbe4adf3c	-0.1981172
39	0x3eab86dd	0.3350133
40	0xbd407f07	-0.046996143
41	0x3ea2324b	0.31678995
42	0x3c317c81	0.010832907
43	0x3f1f7ac0	0.62296677
44	0xbf23fabf	-0.64054483
45	0x3eb4b950	0.35297632
46	0x3f14d970	0.58144283
47	0xbcc015d2	-0.023447905
48	0x3e87fc0e	0.2655949
49	0x3ea212e9	0.31655052
50	0xbef00e6c	-0.46886003
51	0x3ee2ce49	0.44298008
52	0x3da7fd24	0.082025796
53	0x3d9c3e0d	0.07629023
54	0xbe8a397f	-0.2699699
55	0xbe1c2c0f	-0.15251182
56	0x3dc2aeac	0.09505972
57	0xbea02020	-0.3127451
58	0xbe39b02c	-0.1813361
59	0xbd531687	-0.051535156
60	0x3f00ccba	0.5031239
61	0xbcba17bf	-0.022716401
62	0xbc2eeb53	-0.010676223
63	0x3e26d602	0.16292575
64	0x3e00ca04	0.12577063
65	0x3df08da0	0.11745763
66	0x3da91b8e	0.08257209
67	0x3f4c6f34	0.7985718
68	0x3f6f658d	0.9351433
69	0x3eb100ad	0.34570828
70	0x3ec2a471	0.38016084
71	0xbe83a1dc	-0.25709426
72	0xbde4ade2	-0.11165978
73	0x3e29eb03	0.16593556
74	0x3f267f1a	0.6503769
75	0x3dbda66c	0.09260258
76	0x3f132010	0.574708
77	0xbdf817ce	-0.121139154
78	0xbee9bd6e	-0.45652336
79	0x3cbd773a	0.02312814
80	0xbeb8c6cc	-0.3608917
81	0xbf09a606	-0.53768957
82	0xbe5c8bb5	-0.21537669
83	0x3e365b6c	0.17808312
84	0x3ea5466c	0.3228029
85	0x3ec4bdb7	0.3842599
86	0x3edfdd4c	0.43723524
87	0x3d63ed36	0.055646144
88	0xbe31cbaf	-0.17362855
89	0x3e0e9e74	0.13927633
90	0x3f3f666d	0.74765664
91	0xbf0289d4	-0.5099156
92	0xbeee5f8d	-0.46557274
93	0x3e108ba9	0.14115776
94	0xbebb7172	-0.3660999
95	0xbd0b9ecc	-0.034086987
96	0xbe626103	-0.2210732
97	0xbf33f6e2	-0.7029859
98	0xbe3e94d1	-0.18611456
99	0x3d369793	0.044578146
100	0xbf21370c	-0.6297462
101	0x3cc99320	0.024606287
102	0xbe59a261	-0.21253349
103	0x3ed97723	0.42473707
104	0xbd927c2e	-0.07152592
105	0x3e9a9ca5	0.30197635
106	0xbdd51e56	-0.10406177
107	0x3e2ac6aa	0.16677347
108	0xbe885c66	-0.26632994
109	0x3e6e8fb1	0.23297001
110	0xbe566e66	-0.20940551
111	0xbeb3a8ab	-0.3508962
112	0x3d57030c	0.05249314
113	0x3e948434	0.29007113
114	0x3e442a25	0.19156702
115	0x3e4b129d	0.19831319
116	0x3dcbeb3b	0.09956976
117	0xbf402e9e	-0.7507113
118	0xbe5b65f6	-0.21425614
119	0x3e6c13d6	0.23054442
120	0x3eaa81ba	0.333021
121	0x3e086159	0.13318385
122	0x3eff42fa	0.49855787
123	0xbe4b7d64	-0.19872051
124	0x3e4e698e	0.20157453
125	0xbf007332	-0.50175774
126	0xbf759234	-0.95926213
127	0x3d1f6d26	0.03892245
128	0x3dce2d0a	0.10067184
129	0x3ebdc063	0.37060842
130	0x3e8039a7	0.25043985
131	0x3e1ddb66	0.15415725
132	0xbd348a62	-0.044077285
133	0xbd8a8748	-0.06764084
134	0x3dc9e989	0.098589964
135	0xbe5ba443	-0.2144938
136	0xbd6c1b80	-0.057643414
137	0xbca51427	-0.020151211
138	0x3ee0aabc	0.4388026
139	0xbdf195bd	-0.117961384
140	0x3e17b35e	0.14814517
141	0xbee6f870	-0.45111418
142	0xbd28083a	-0.04102347
143	0x3e9fcfe3	0.31213292
144	0xbea1811c	-0.31543815
145	0xbd97e216	-0.07416169
146	0x3ee4cdeb	0.44688353
147	0x3ecea249	0.4035819
148	0xbe5c4663	-0.21511225
149	0x3e3e341c	0.18574566
150	0xbde54d93	-0.11196437
151	0x3e8b8abf	0.27254292
152	0xbe5d4f4f	-0.21612285
153	0xbd87389a	-0.06602593
154	0x3e9aee12	0.30259758
155	0xbddf1bd2	-0.10893978
156	0x3df8af30	0.12142789
157	0x3f048a43	0.5177347
158	0x3de121ba	0.10992761
159	0xbdec0eb5	-0.11526243
160	0xbe69cba5	-0.2283159
161	0xbedc4e44	-0.43028462
162	0xbefadee8	-0.4899819
163	0xbdd5b502	-0.10434915
164	0xbec7f6c7	-0.39055464
165	0xbd99c5c3	-0.07508423
166	0xbec10ff9	-0.377075
167	0x3dd6df8a	0.104918554
168	0xbe48d59d	-0.19612737
169	0x3e309d06	0.172474
170	0x3eb783a6	0.35842627
171	0x3e75f15a	0.2401785
172	0xbed893a8	-0.42300153
173	0x3f1b75e4	0.6072676
174	0x3dc7a160	0.09747577
175	0x3e0dd1f3	0.1384962
176	0x3ddc67a5	0.10761956
177	0x3e13bd85	0.14427765
178	0xbea467c0	-0.32110405
179	0x3d5aa5cc	0.053380772
180	0x3e7b104d	0.24517937
181	0xbe0acc0d	-0.13554402
182	0xbe72ec16	-0.23722872
183	0xbef0df0e	-0.47045177
184	0xbe719739	-0.23592843
185	0x3c409fef	0.011756881
186	0xbe675fd7	-0.22595154
187	0xbe2f62dc	-0.17127556
188	0x3f0d9d48	0.5531812
189	0xbe129e27	-0.14318143
190	0x3e02ef84	0.1278668
191	0x3e1a794b	0.15085332
192	0xbea1b5a6	-0.315839
193	0xbea855a7	-0.32877848
194	0xbe333d6d	-0.17503901
195	0x3e9b9839	0.30389574
196	0x3e3c947b	0.18416016
197	0x3e46f415	0.19429047
198	0xbd242403	-0.040073406
199	0x3e1b790e	0.15182897
200	0x3df7056c	0.12061581
201	0x3e83e072	0.25757176
202	0xbe23349e	-0.1593804
203	0x3e5e6cc6	0.21721181
204	0xbe486414	-0.19569427
205	0x3eb5b856	0.354922
206	0x3e961b09	0.293175
207	0xbeaf2edb	-0.34215435
208	0x3e6d36d2	0.23165444
209	0xbe6c1436	-0.23054585
210	0xbe0e0004	-0.13867193
211	0xbeefd45c	-0.46841705
212	0x3f1c9a7a	0.6117321
213	0xbe36ace3	-0.17839389
214	0x3e14e1f0	0.14539313
215	0xbec54cb5	-0.38535085
216	0x3de8a679	0.11359877
217	0xbe2de821	-0.16983081
218	0x3ddd5649	0.10807473
219	0x3ebfe4d0	0.37479258
220	0xbe841014	-0.25793517
221	0xbf225cc7	-0.63422817
222	0xbe94ecf4	-0.2908703
223	0x3e40d970	0.18832946
224	0x3dec0e1b	0.11526128
225	0x3ddc18e3	0.10746934
226	0x3ec5638b	0.38552508
227	0xbebc05af	-0.36723086
228	0xbd0654da	-0.032795765
229	0xbc382d3f	-0.011241256
230	0x3ef5f1cd	0.48036042
231	0x3ab2e90c	0.0013649776
232	0x3e984b1f	0.29744813
233	0x3d348453	0.044071507
234	0xbe800e36	-0.25010842
235	0xbe35a28f	-0.17737792
236	0x3e65dcc2	0.22447494
237	0xbe500c0e	-0.20317098
238	0xbee2921a	-0.44252092
239	0xbeb998e4	-0.3624946
240	0xbe011d8c	-0.12608927
241	0x3dbda61f	0.09260201
242	0x3f4e247f	0.8052444
243	0xbe9bb74b	-0.3041328
244	0xbebd8841	-0.37018016
245	0xbd3c11d9	-0.04591546
246	0x3e3d3314	0.18476516
247	0x3eef4fb4	0.46740496
248	0x3ea23353	0.31679782
249	0x3eacd67f	0.33757398
250	0x3f32acb4	0.69794774
251	0xbe888e47	-0.2667105
252	0xbf0dcb62	-0.5538846
253	0x3e2a74cb	0.16646115
254	0xbefb65f3	-0.4910122
255	0xbed3b58b	-0.41349444

critic.v_net.fcs.1.bias f4 [64]
0	0x3e114fde	0.14190623
1	0x3c93f70c	0.018062137
2	0x3e67c976	0.22635445
3	0xbdb42799	-0.08796615
4	0x3ba702d6	0.0050967736
5	0xbd4fdfb3	-0.050750446
6	0x3db33232	0.08749808
7	0x3df67476	0.12033932
8	0xbd3f753c	-0.046742663
9	0xbd0881f3	-0.033327054
10	0xbdd9df4e	-0.10638295
11	0xbcf3cac7	-0.029759778
12	0xbd97e3ff	-0.07416534
13	0x3bfb7e80	0.007674992
14	0x3e034b4c	0.12821692
15	0xbdeada00	-0.114673615
16	0xbd08aa3d	-0.033365477
17	0xbe9222aa	-0.28542072
18	0x3d4aafd6	0.049484096
19	0xbd8212e0	-0.06351256
20	0xbd0eb87e	-0.034843914
21	0x3e6baf73	0.23016147
22	0x3e5c97f5	0.21542342
23	0x3cffe23f	0.031235812
24	0xbe1877eb	-0.14889495
25	0xbd302b27	-0.043009903
26	0xbda3f6ba	-0.08006044
27	0xbd9a1ad6	-0.0752465
28	0x3e5a1d2e	0.21300194
29	0x3e2ab910	0.16672158
30	0x3d94fc1d	0.07274649
31	0xbe0c1794	-0.1368087
32	0x3e757dfb	0.23973839
33	0x3df22f80	0.11825466
34	0xbd6000f2	-0.0546884
35	0x3deeb8fe	0.11656378
36	0x3e1d2017	0.15344273
37	0x3e2e6074	0.17028981
38	0xbdac088d	-0.084000684
39	0x3cd2c472	0.025728438
40	0x3d2f207b	0.042755585
41	0xbd197f19	-0.037474725
42	0x3ce5c1f4	0.028046586
43	0xbda0cece	-0.07851945
44	0x3e11b70e	0.14229986
45	0xbdd5c9e4	-0.10438898
46	0xbdaf6282	-0.08563711
47	0xbe0ea3d6	-0.13929686
48	0xbe037daf	-0.12840913
49	0xbe14404d	-0.14477654
50	0xbdfd576b	-0.12370189
51	0x3da46fe9	0.08029158
52	0x3e5e8fbe	0.21734521
53	0xbdd8359f	-0.105571024
54	0x3d9abade	0.07555173
55	0x3d827a8e	0.06371032
56	0x3af11eeb	0.0018396055
57	0x3dbc4b57	0.091940574
58	0xbdebf040	-0.115204334
59	0xbe3d7b03	-0.18503956
60	0xbe19dbe9	-0.15025295
61	0xbdcc482b	-0.099747024
62	0xbe2f18c5	-0.17099293
63	0x3dbb97aa	0.09159787

critic.v_net.fcs.2.weight f4 [1, 64]
0	0x3fbb7483	1.4644932
1	0x3fe39504	1.7779851
2	0x3fb2e1b0	1.3975124
3	0xbfca56b3	-1.5807709
4	0xbfce36b6	-1.6110446
5	0xbfc7dfaa	-1.5615132
6	0xbfa0a82e	-1.2551324
7	0x3fd9d81b	1.7019075
8	0xbfc106f4	-1.5080247
9	0xbf81012a	-1.007848
10	0xbfc3e5d1	-1.5304509
11	0x3f86abf5	1.0521227
12	0xbfc8a7b0	-1.5676174
13	0xbfa21260	-1.2661858
14	0x3fc84823	1.5647014
15	0xbfc4dcdb	-1.53799
16	0x3fc7a129	1.5596057
17	0xbfc8c461	-1.568493
18	0xbfb66ca2	-1.4251902
19	0xbfc0cdce	-1.5062807
20	0x3fc630c6	1.5483634
21	0x3fdf72ec	1.7456946
22	0x3fa5ed29	1.2963
23	0xbff363a3	-1.9014782
24	0xbfc26ee5	-1.5190092
25	0xbfc238fa	-1.5173638
26	0x3f8884eb	1.0665563
27	0xbfce35f7	-1.6110219
28	0x3fbab332	1.4585936
29	0x3fbd9e50	1.4813938
30	0x3fc5f2d6	1.5464733
31	0x3fd4a216	1.6611965
32	0x3fb5daf7	1.4207448
33	0x3fc5bb8f	1.5447863
34	0xbfd57c5c	-1.6678576
35	0x3fa1c636	1.2638614
36	0x3feaf0f1	1.835478
37	0x3fc27bc4	1.519402
38	0xbfea8dd4	-1.8324533
39	0x3ff6cab6	1.9280612
40	0x3fbd4d19	1.4789153
41	0xbfc09663	-1.5045894
42	0x3fc5eab9	1.5462257
43	0xbfe51761	-1.789776
44	0x3fc35d0e	1.5262773
45	0xbfddd547	-1.7330712
46	0xbfec1f25	-1.8447005
47	0xbfbcf089	-1.4760906
48	0xbfcf89aa	-1.6213887
49	0xbfc3c360	-1.5293999
50	0xbfbc09a7	-1.4690446
51	0x3ff372ee	1.9019449
52	0x3fe193b8	1.7623205
53	0xbfccebc4	-1.600945
54	0xbff41a9f	-1.9070624
55	0xbfd2a3d9	-1.6456252
56	0xbfee762e	-1.8629816
57	0x3f995981	1.198044
58	0xbfb85cd7	-1.4403332
59	0xbfc05077	-1.5024556
60	0xbfba9f12	-1.4579794
61	0xbfbc9e3e	-1.4735792
62	0xbf9779e7	-1.1834077
63	0x3fdf5ea3	1.7450756

exp_avg f4 [64, 4]
0	0x3a8afb23	0.0010603409
1	0x3931dab1	0.00016961504
2	0x3880eba4	6.147407e-05
3	0x3b4fcf3a	0.003170921
4	0xb986ff12	-0.00025748514
5	0x393aa396	0.00017799283
6	0xb820a612	-3.8301638e-05
7	0xba2b7c03	-0.00065416115
8	0x3b161603	0.0022901304
9	0xbaa7dac0	-0.0012806281
10	0x3999fb0c	0.0002936948
11	0x3bc172f5	0.0059035965
12	0x3a9ae65a	0.0011817918
13	0xba4f0016	-0.0007896436
14	0x392abebb	0.00016283516
15	0x3b60c947	0.0034299658
16	0x3abf631c	0.001460168
17	0xba09d041	-0.00052571675
18	0x3941b5dd	0.00018473664
19	0x3b7f4db5	0.003895623
20	0x3a433eea	0.00074480346
21	0xb9bf19e1	-0.0003644964
22	0x38d93819	0.00010357815
23	0x3b02bc59	0.001994869
24	0x39fa2ea2	0.0004771846
25	0x375073f5	1.24247645e-05
26	0x3829233d	4.0325558e-05
27	0x3aafab36	0.0013402465
28	0xb9fc7367	-0.00048151167
29	0x39d81412	0.00041213684
30	0xb8bf46ca	-9.120775e-05
31	0xbacf0ccc	-0.001579666
32	0x3a396ae9	0.0007073121
33	0xba015ff0	-0.0004935255
34	0x38bf2dda	9.11613e-05
35	0x3b1db7e1	0.00240659
36	0x3aa7a338	0.0012789732
37	0xba84ecde	-0.0010141393
38	0x3956e249	0.00020492928
39	0x3b482971	0.003054228
40	0xbad91259	-0.0016561254
41	0x3a5c3793	0.0008400615
42	0xb97ce0d2	-0.00024116345
43	0xbb950ac6	-0.0045484034
44	0x3a62cd5c	0.0008651817
45	0xb8ffd459	-0.000121989004
46	0x38cb76ed	9.701946e-05
47	0x3af51888	0.0018699327
48	0x3aab6669	0.0013076785
49	0xb9b54fcb	-0.0003458246
50	0x3923ab63	0.00015608738
51	0x3b67c72d	0.003536652
52	0x3aaa6365	0.0012999593
53	0xba393fb5	-0.0007066683
54	0x395e5df9	0.00021206577
55	0x3b57f5dd	0.0032952942
56	0x3a6eeae0	0.00091139786
57	0xba3fab1e	-0.000731157
58	0x39237a09	0.00015590353
59	0x3b157ec7	0.002281116
60	0xbb00b581	-0.0019639435
61	0x3a60ecb3	0.0008580193
62	0xb993d920	-0.00028199796
63	0xbbb4d565	-0.0055186027
64	0x39ab27bc	0.00032645266
65	0xb8dafc80	-0.00010442082
66	0x38326f6e	4.2542284e-05
67	0x3a7c0593	0.0009613868
68	0x392fda57	0.00016770638
69	0xb8f570f4	-0.000117035495
70	0x37f0a2a1	2.868596e-05
71	0x3a01c623	0.0004950484
72	0x3aeeb9a2	0.0018213282
73	0xba8c11ef	-0.0010686497
74	0x39a5a2f1	0.00031592653
75	0x3bb722dd	0.005588873
76	0x399eb24b	0.00030268947
77	0xb8c0eb74	-9.19913e-05
78	0x382e829b	4.160647e-05
79	0x3a391ccc	0.0007061481
80	0x3ac2149d	0.0014807169
81	0xba40ebe1	-0.00073593674
82	0x3969766c	0.00022264727
83	0x3b8922cd	0.004185057
84	0xba5b4b74	-0.00083654304
85	0x399bae88	0.0002969394
86	0xb90b8fdc	-0.00013309665
87	0xbb2736d9	-0.002551487
88	0xb9664d94	-0.0002196341
89	0x38fd0107	0.000120641715
90	0xb81cf576	-3.74219e-05
91	0xba3de5d0	-0.00072440226
92	0xba52de4d	-0.00080439897
93	0x38fe82d0	0.000121360295
94	0xb8ada252	-8.279517e-05
95	0xbb0e2fbb	-0.002169593
96	0x3b3625d6	0.0027793548
97	0xbab5e460	-0.0013877265
98	0x39d860c1	0.00041270818
99	0x3c01c469	0.007920363
100	0xbb19f5fc	-0.0023492565
101	0x3a44f635	0.00075134943
102	0xb99535a2	-0.00028459454
103	0xbbc47c13	-0.005996236
104	0xbb23e6de	-0.0025009434
105	0x3a9f6009	0.0012159358
106	0xb9c49f67	-0.00037502797
107	0xbbef22c4	-0.0072978456
108	0x38f90989	0.00011875021
109	0xb7879b62	-1.616561e-05
110	0x37431374	1.1627435e-05
111	0x39bbfafe	0.00035854423
112	0x3a627926	0.00086392683
113	0xb9c4b579	-0.0003751924
114	0x3916ca47	0.00014380469
115	0x3b169288	0.0022975523
116	0x39d072c9	0.00039758373
117	0xb9a8f85a	-0.00032228493
118	0x3863f75a	5.435138e-05
119	0x3aba154e	0.0014197023
120	0x3a0ed593	0.0005448695
121	0xb96c19c8	-0.00022516318
122	0x38a054a6	7.6451615e-05
123	0x3ad7a9f3	0.0016453847
124	0x3a5134f6	0.0007980609
125	0xb9b14777	-0.00033813316
126	0x38e2e308	0.00010818808
127	0x3b13c98e	0.0022550556
128	0xbb275159	-0.0025530665
129	0x3ae7f505	0.0017696923
130	0xb9df20da	-0.0004255835
131	0xbbfad812	-0.007655152
132	0x3a8194cc	0.0009886264
133	0xb9ef46dc	-0.00045638427
134	0x39140980	0.00014117919
135	0x3b327b4f	0.0027234142
136	0x39f51b3b	0.0004675033
137	0xb8b48319	-8.607488e-05
138	0x38819c24	6.180283e-05
139	0x3ac7245c	0.0015193331
140	0xba968965	-0.0011485039
141	0x39a03045	0.00030553542
142	0xb8f3e3d0	-0.00011629576
143	0xbb46c473	-0.0030329495
144	0x39a7cea1	0.00032006673
145	0xb91b5f92	-0.00014817555
146	0x3847baed	4.7619385e-05
147	0x3a59ebd0	0.0008313032
148	0xba37972a	-0.0007003421
149	0x39a77e4f	0.0003194683
150	0xb8c74ba6	-9.50315e-05
151	0xbaeaaee1	-0.0017904901
152	0xbb35fa38	-0.002776755
153	0x3aa6cde8	0.001272616
154	0xb9ce8942	-0.00039393647
155	0xbbf6aa3a	-0.007527617
156	0xb81afce8	-3.6952e-05
157	0x38077184	3.2292228e-05
158	0xb707a639	-8.085329e-06
159	0xb922af91	-0.00015514928
160	0x3ac6389b	0.0015123071
161	0xba2c158d	-0.00065644906
162	0x395a7381	0.00020833129
163	0x3b881036	0.004152323
164	0xbaa52bd2	-0.001260156
165	0x3a2f61ad	0.0006690275
166	0xb94c8f8b	-0.0001950843
167	0xbb722507	-0.003694834
168	0x3a563af5	0.00081722374
169	0xba3bd0bc	-0.0007164588
170	0x392509ab	0.00015739228
171	0x3b4048c1	0.002934024
172	0xbb00919d	-0.0019618042
173	0x3a8b1e43	0.0010613877
174	0xb9a79b4c	-0.00031968427
175	0xbbb3d30b	-0.0054878048
176	0xbb5a9205	-0.0033351195
177	0x3ad91fda	0.0016565279
178	0xba08fed9	-0.00052259635
179	0xbc21dfc3	-0.009880009
180	0xba92fc9c	-0.00112142
181	0x3a7e69bb	0.0009705086
182	0xb963a1ce	-0.00021708684
183	0xbb81772d	-0.0039509744
184	0x3b4547ba	0.0030102567
185	0xbabb548f	-0.0014292168
186	0x39e28059	0.00043201706
187	0x3c0c29d1	0.008554892
188	0xb8f56975	-0.00011702153
189	0x383ca420	4.4975546e-05
190	0xb74eef2d	-1.2334244e-05
191	0xb9905639	-0.0002753006
192	0xba038014	-0.00050163385
193	0x39af129b	0.00033392463
194	0xb899f971	-7.3420706e-05
195	0xbae4a425	-0.0017443938
196	0xbb049f39	-0.0020236506
197	0x3a4db5d1	0.0007847222
198	0xb9861a83	-0.00025578224
199	0xbbc47b21	-0.0059961234
200	0xb9ae6627	-0.00033263976
201	0x3990d923	0.000276276
202	0xb87bab1b	-6.0002418e-05
203	0xba8d83be	-0.0010796709
204	0x3acd3174	0.0015654997
205	0xba998a00	-0.0011714101
206	0x398cf18b	0.00026882844
207	0x3b93db05	0.004512193
208	0x3a38e175	0.00070526387
209	0xba102336	-0.0005498411
210	0x38f7143e	0.00011781648
211	0x3ae768b0	0.0017655101
212	0x3a68248a	0.00088555424
213	0xb9d0f325	-0.00039854008
214	0x3901c414	0.00012375443
215	0x3b222fa5	0.0024747637
216	0xb97e74d5	-0.00024266851
217	0x392ec8f9	0.00016668801
218	0xb81012aa	-3.4349658e-05
219	0xba291024	-0.00064492435
220	0xb7edf8e5	-2.8368502e-05
221	0x381f2a51	3.7947964e-05
222	0xb7282e00	-1.00242905e-05
223	0xb9159c20	-0.00014267908
224	0xba1af50f	-0.00059111504
225	0x398637d3	0.00025600064
226	0xb89d11ad	-7.489636e-05
227	0xbae2ab9a	-0.0017293573
228	0xbab4b77a	-0.001378759
229	0x3a4aab32	0.00077311986
230	0xb96ea40b	-0.0002275856
231	0xbb857c89	-0.0040736836
232	0xbb032fbc	-0.0020017466
233	0x3a893419	0.0010467797
234	0xb9a33c7f	-0.00031134856
235	0xbbb13c3d	-0.0054087923
236	0x3a438c6d	0.0007459585
237	0xb998b4f1	-0.0002912651
238	0x38d652fa	0.00010219771
239	0x3b08b6dd	0.0020860948
240	0x3b29cefb	0.0025910723
241	0xba6470cb	-0.0008714317
242	0x39a72f91	0.00031888162
243	0x3be587b2	0.0070047015
244	0x3a851b80	0.001015529
245	0xba0080f6	-0.0004902029
246	0x391abde2	0.00014757321
247	0x3b3bbd72	0.0028646854
248	0xbb321764	-0.0027174586
249	0x3aab2004	0.0013055806
250	0xb9cb854e	-0.00038818497
251	0xbbfc51c7	-0.0077001783
252	0xbac34aa8	-0.0014899569
253	0x3a5e48e3	0.0008479489
254	0xb96f0c9d	-0.00022797515
255	0xbb880067	-0.0041504386
