walkthroughs/tutorial_models/tutorial_results/ppo/seed222_Feb-03-22-21-39_v0.5.0-53-g59b8ae6/checkpoints/model_200000.pt (torch, 147370 bytes, 30 tensors)

actor.pi_net.fcs.0.weight f4 [64, 4]
000000 da 76 8a 3e bd b1 a3 be cf 94 80 3f 17 76 c5 be
       0.27043802 -0.3197154 1.0045413 -0.38566658
000010 de 1b bf 3e 6b f2 db 3e f9 ea 8e be 41 78 aa 3e
       0.37325948 0.42958388 -0.27913645 0.3329487
000020 70 f9 5a 3e ab 8c 0f bb 5d 15 6a 3e 23 bd 55 be
       0.21384215 -0.0021903913 0.22859712 -0.20872931
000030 c8 c3 c6 3e 96 d4 b0 be 6b 32 0b bf b0 81 4d be
       0.38821244 -0.3453719 -0.54373807 -0.20069003
000040 1e de 32 be bd b2 9e 3e fc b9 bc 3f 56 9a 62 3f
       -0.17467543 0.3099574 1.4744258 0.8851675
000050 a4 59 d9 3e d5 57 a4 bc eb b1 a2 bf a8 e8 31 bf
       0.42451203 -0.020061413 -1.2710546 -0.6949563
000060 c9 ff b5 3e 0f de b3 bd 47 10 a0 3e ee 54 7e bd
       0.3554671 -0.08782589 0.3126242 -0.062092714
000070 94 21 77 3d 2f 19 15 3e d3 18 06 bf cd 3b 83 3e
       0.060334757 0.14560388 -0.5238163 0.25631562
000080 b7 85 cd be 3b 3d 8d be 73 06 34 bf bd 3f f0 3e
       -0.4014108 -0.27585778 -0.7032234 0.46923628
000090 ed d6 d9 3e 80 b6 ee be 7a 71 60 3f e5 61 b0 be
       0.42546788 -0.4662361 0.8767315 -0.34449688
0000a0 88 da 51 3e 20 a3 40 3d f9 57 26 3f 5e 4c 7a 3b
       0.2049352 0.047030568 0.64977986 0.003819249
0000b0 5a ae 7c be a8 c6 85 3e a7 d3 35 3f 6c 22 65 3e
       -0.24675885 0.26128125 0.7102608 0.22376412
0000c0 45 bf a2 be 6e d6 40 3c 16 b7 47 3f 1b a3 72 bd
       -0.31786552 0.011769874 0.7801374 -0.05923758
0000d0 79 7a bb bd e8 f8 1b bf 70 4f 66 bf fc 12 2f bc
       -0.09154219 -0.60926676 -0.8996496 -0.010685679
0000e0 8a 65 a6 bc 6c c5 3e 3e 13 bc 8b bf 38 8d 3b bf
       -0.02031209 0.18629998 -1.0916771 -0.7326236
0000f0 d9 4b fb be 53 c7 cd be b9 5d 5b 3f 5d f9 71 3e
       -0.49081305 -0.40191135 0.85689884 0.23630281
000100 b2 e3 b0 3e 2a 93 c0 be 91 13 51 bf 57 db c1 be
       0.34548718 -0.37612277 -0.8167048 -0.37862656
000110 0f e7 28 bd 43 81 5b be 37 78 86 bf e2 25 38 bf
       -0.04123598 -0.21436028 -1.0505437 -0.71932805
000120 82 30 88 be e8 ae 07 3e b7 64 2d bf b5 6f bb 3e
       -0.2659951 0.13250315 -0.67731804 0.36608663
000130 f1 7c 19 be d5 fa 28 bf 10 fb 79 bf 4f 19 e5 bc
       -0.14989068 -0.6600774 -0.97648716 -0.02796617
000140 33 d0 02 bd 46 d8 ea 3e 31 69 68 bf bd ce 0b 3f
       -0.031936835 0.4586813 -0.9078551 0.5461233
000150 fe 4c a2 3e 5a f1 8d bc 8d b6 1a be 2f a6 a2 3e
       0.31699365 -0.017327 -0.151087 0.31767413
000160 d2 f1 f8 bd df 7c f4 3e a2 95 c5 3f c1 f2 6e 3f
       -0.121554986 0.4775152 1.5436289 0.93339163
000170 93 01 a4 3e fd c4 ad 3e 0e 59 95 3f fc 78 fc bd
       0.3203245 0.33939353 1.1667802 -0.123277634
000180 cf da ad be 72 7e 67 3e 5d 55 88 3f 9e 29 b8 bc
       -0.33956 0.22606829 1.0651051 -0.022480782
000190 c2 e9 02 bf 55 f1 4f be b2 f0 a2 be ea bf b4 bd
       -0.51137936 -0.20306905 -0.3182426 -0.08825667
0001a0 51 5c 41 be cf da 0f 3d 34 3a 67 3f 1f 4e a8 be
       -0.18882872 0.03512078 0.90323186 -0.32872102
0001b0 56 33 b7 bc 15 cb 18 3e e6 ae 89 bf 33 23 d8 be
       -0.022363346 0.1492122 -1.07565 -0.42214355
0001c0 04 14 2e bd cc 4f 3c 3d 4d a3 11 3f ed b7 9d 3e
       -0.042499557 0.045974538 0.568898 0.30804387
0001d0 6d 04 45 3d 31 dd 1b be 2c f4 a4 bf 22 a8 2c bf
       0.048099924 -0.15221097 -1.2887015 -0.6744405
0001e0 94 b1 c5 be c9 2e 8f 3e 3c 02 40 bf fe cc 52 bf
       -0.38612044 0.27965382 -0.7500341 -0.82344043
0001f0 51 21 bf bd 0f 01 ba be 1d 11 49 3f 28 c1 5f be
       -0.093325265 -0.36328933 0.7854174 -0.21851027
000200 a6 79 f5 be 28 48 d0 bd 25 f5 af bf 79 14 b5 be
       -0.47944373 -0.10170013 -1.3746687 -0.35367182
000210 91 d4 87 be f1 92 7a bb 10 5c 0d bf ba 5b 52 3e
       -0.26529363 -0.0038234557 -0.552186 0.20542803
000220 ce a3 f6 3e 81 23 41 3f 67 14 83 3f 8a 16 b5 3d
       0.48171848 0.754448 1.0240601 0.088421896
000230 17 00 73 3e 4f 03 10 bf e1 0e d6 be 51 c0 dd bd
       0.23730503 -0.5625505 -0.41808227 -0.10827697
000240 b5 1a c8 be 29 fa 8f 3e 19 f6 8c be 3c 3e 4e 3e
       -0.39082876 0.28120545 -0.27531508 0.20140928
000250 11 ad 13 3c e6 00 40 3f 10 a2 94 3f 96 71 3f 3e
       0.00901343 0.7500137 1.1611958 0.18695673
000260 d3 93 3c be 93 1a 3d 3d 9f 8e 19 bf f0 e3 d5 be
       -0.18415765 0.04616792 -0.5998325 -0.41775465
000270 45 a3 84 3d e6 c6 f6 be e8 ad 09 bf 4a 00 9a bd
       0.06476454 -0.48198622 -0.53780985 -0.075195864
000280 7b 69 05 be 5b f7 cb be 3a 6c 6a bf 6b 35 97 38
       -0.13028519 -0.39837155 -0.9157139 7.210191e-05
000290 a0 d6 2e be c5 aa 2f bd 34 8b b8 bf 00 43 17 bf
       -0.1707406 -0.042887468 -1.4417481 -0.5908661
0002a0 3b 2b a1 3e 8b 47 95 be d4 7a 85 bf c8 2e 11 bf
       0.31478295 -0.29156145 -1.0428109 -0.5671201
0002b0 a5 17 17 3c 9e 9c b0 3e b1 f8 a2 bf 73 b6 de be
       0.009221946 0.3449449 -1.2732145 -0.43498573
0002c0 61 2a 08 bf ad d6 67 be d8 96 48 bf 3d 68 6c be
       -0.53189665 -0.22640486 -0.7835517 -0.23086639
0002d0 85 d9 df 3c e3 25 ab be 46 d5 92 bf 16 4e 52 bf
       0.027325401 -0.33427343 -1.1471336 -0.821504
0002e0 1d ec 30 be bd 60 12 3f 27 dd 84 3f 43 1d ae 3c
       -0.1727757 0.5717886 1.037999 0.021254187
0002f0 3f 8e cc be dd 83 8c 3d 5d d2 2b 3f 84 71 ab 3d
       -0.39952275 0.068610884 0.67117864 0.08371261
000300 88 09 83 be 1a 9c fd 3d a6 c9 19 bd 27 34 23 be
       -0.2559321 0.1238329 -0.037545823 -0.15937863
000310 2a 6a 50 3e 0c 5e 73 3e 4f f9 99 be 34 3d ec be
       0.20352998 0.23766345 -0.3007302 -0.46140444
000320 b6 95 9e 3e 00 6e 10 3f 24 ba 98 3f c8 39 1c 3f
       0.30973595 0.56417847 1.1931806 0.6102567
000330 1c 62 f3 3e f9 d3 ad be 4a 8d 04 3e b9 fa 0c 3f
       0.4753579 -0.33950785 0.12944523 0.5507007
000340 28 49 67 3e 55 5f 1a 3d e9 e8 5e bf 96 75 99 3e
       0.225865 0.037688572 -0.8707414 0.29972523
000350 87 63 b3 be 3d 28 e1 be 68 6c 75 3f 17 a5 01 bf
       -0.3503687 -0.43976012 0.9586854 -0.5064253
000360 31 5f 10 3f 1a 3d 07 be db 1a bf 3f ed 4d 2e 3f
       0.5639525 -0.13206902 1.4930071 0.68087655
000370 0b 8e dc 3e c0 46 33 be c2 1f 42 3f f7 00 2a be
       0.4307712 -0.17507458 0.7582971 -0.1660193
000380 11 c5 13 bf cd cd 5c be d3 d8 9b bf ec 1c e2 be
       -0.57722574 -0.21562882 -1.2175545 -0.4416269
000390 da c9 c4 bb de 43 3e bd 87 83 8c bf 11 85 47 be
       -0.006005508 -0.046451442 -1.0977639 -0.19484355
0003a0 b9 08 f4 bc 27 54 ec bd 8d af c6 bf bc e0 09 bf
       -0.029789316 -0.11539488 -1.5522324 -0.5385854
0003b0 d4 43 7e 3e 35 6e 08 3f 82 81 ac 3f 7d e0 2e 3f
       0.24830562 0.5329316 1.3477023 0.6831129
0003c0 31 ae 11 3e 17 5e cf 3d be 0a d3 3e 65 2d 88 be
       0.14226605 0.10125368 0.41219133 -0.26597133
0003d0 01 41 e3 3e 11 e3 19 3d 20 86 aa 3f 93 ac bd 3e
       0.44385532 0.037570063 1.3322182 0.37045726
0003e0 33 99 1c 3e 38 61 26 3f d1 c3 a2 3f 3d 7a 08 3f
       0.15292816 0.64992094 1.2716008 0.5331152
0003f0 a2 bf bf be 89 80 12 3f 82 d5 f5 3e 4b 1b cd 3e
       -0.37450892 0.5722738 0.48014456 0.40059885

actor.pi_net.fcs.0.bias f4 [64]
000000 7d 88 ca 3e 2f 30 94 be 0c b7 8a 3e c0 ba 9e 3e
       0.39557257 -0.2894301 0.2709278 0.31001854
000010 93 5d 91 be 34 f9 df 3d 57 a4 29 be 58 47 cc be
       -0.28391704 0.109362036 -0.16566597 -0.3989818
000020 c1 82 d2 be 3b e0 03 3e a9 9d 5a 3e 8f bd 13 3e
       -0.41115382 0.12878506 0.21349205 0.1442778
000030 93 ae 02 be 94 8e 95 3b de e0 85 3c 1d ef e5 3e
       -0.12761907 0.004564116 0.016342577 0.4490899
000040 06 4a 80 be a4 fb 28 3e 9a 69 de be 5d 70 65 3c
       -0.25056475 0.16502243 -0.43439943 0.01400384
000050 29 63 27 be 33 0d 81 be d7 8f f4 bd 35 70 3c 3e
       -0.1634642 -0.25205383 -0.11941498 0.18402179
000060 99 21 64 be 51 0e 16 be 46 b2 2e 3e 9d ef b3 3e
       -0.22278441 -0.14653899 0.17060193 0.35143748
000070 5e 3b 63 be 63 78 5d 3d 10 f3 1d 3d ee 54 c0 be
       -0.22190616 0.054069888 0.03856188 -0.37564796
000080 2e 61 35 be 46 25 c9 bd 0a 4f 08 be 23 fa 73 3d
       -0.17712852 -0.098215625 -0.13311401 0.05956472
000090 c5 52 47 be 9b 4d 56 bd f1 3f ed be a2 4e ee 3c
       -0.19465168 -0.052320104 -0.46337846 0.02909023
0000a0 aa 22 38 be e8 e6 91 bd c0 7c c5 bd 8a 36 99 3d
       -0.17981973 -0.0712412 -0.09642935 0.074811056
0000b0 b0 81 b0 3d be 3c 1e be 8b e7 9e 3e 88 d6 9c 3e
       0.08618486 -0.15452859 0.31036028 0.30632424
0000c0 69 69 10 be 4b d1 a2 be 7c f5 01 3e f3 fe 70 3e
       -0.14102711 -0.31800303 0.12691301 0.23534755
0000d0 5a 55 16 3d 7d 78 d1 be 68 fc 34 be 07 6c c8 3e
       0.03670249 -0.40912238 -0.1767441 0.39144918
0000e0 d5 c0 de 3c 89 20 9e bd da 66 ff 3d d3 06 35 be
       0.027191559 -0.07721049 0.12470789 -0.17678384
0000f0 8c 4c cb bc 64 c7 0d 3c d2 9a 3e be e7 9e 10 3e
       -0.024816774 0.008653495 -0.18613747 0.14123116

actor.pi_net.fcs.1.weight f4 [64, 64]
000000 82 00 74 bd cf 38 ba 3c d1 2e c5 bd 0a ff f5 3c
       -0.059570797 0.022732167 -0.0962807 0.030028839
000010 fc b0 0a be 39 51 61 3d 4c 1b da 3d 86 75 1a 3d
       -0.13544077 0.0550091 0.10649738 0.037709735
000020 3b 15 95 bc 3d 37 67 bd b4 4d 0a be 94 54 d2 3b
       -0.0181986 -0.056449164 -0.13506204 0.006418774
000030 0d 19 ca bc 80 05 e4 3d 16 28 3f 3e 30 f9 66 3d
       -0.024670148 0.111338615 0.18667635 0.056389987
000040 82 f3 71 3c 98 2e a1 3c c6 0d 16 3e c6 7d 7d 3e
       0.014767529 0.019675538 0.14653692 0.2475501
000050 20 97 d7 bb e1 92 8d 3d 5d e4 cc bd 3a 22 52 bd
       -0.006579295 0.069127806 -0.10004494 -0.051302172
000060 39 16 8a bd ca ab 8b bd 07 6d 03 3c d0 be f2 3d
       -0.0674252 -0.068198755 0.0080216 0.11852801
000070 19 e6 e9 bd 56 82 05 3e ce bd b5 3d 06 0e c1 bd
       -0.11420841 0.13038 0.08874093 -0.09426503
000080 d8 2e a8 3d 56 97 24 3c 76 c2 8a 3c 8c 8c b2 3b
       0.0821206 0.010045847 0.01693843 0.0054488834
000090 65 4d c8 3d a5 85 1e bd 38 91 f6 bc ea 05 51 bd
       0.09780387 -0.038701672 -0.030098543 -0.05103103
0000a0 50 51 ba 3c 9b 5f 1c 3e 12 cf a5 3d 4d 20 44 3e
       0.022743851 0.15270846 0.08096136 0.19152947
0000b0 0e c2 6a bd 5b 03 71 3d e6 68 e8 bd 18 c4 9b 3d
       -0.05731397 0.05884109 -0.11348133 0.07605761
0000c0 80 08 59 3d d6 4b 81 bd 01 00 d8 bd ec 43 74 bd
       0.05298662 -0.06313293 -0.10546876 -0.059635088
0000d0 a7 8f ec 3d 8a e0 a1 bd 7c 86 5a 3b 24 dc 2f bc
       0.11550837 -0.079041556 0.003334432 -0.010733638
0000e0 65 72 1e 3e 82 68 53 3e 26 33 60 3e 91 c8 8b bd
       0.15473326 0.20645335 0.21894512 -0.068253644
0000f0 6c 0f a4 3d 6a 9a 4d be bc 4e c8 bc ec b1 62 bd
       0.08010754 -0.20078436 -0.024451606 -0.05534546
000100 ce f6 99 3c 15 7e 5b 3b 9f 9b d6 bd f0 38 b6 3d
       0.018794443 0.0033491899 -0.10478901 0.08897579
000110 32 56 c1 3d a0 04 9b be de ea af 3d 99 de ce 3c
       0.094402686 -0.30276966 0.08589719 0.025252627
000120 c4 62 c5 bc b0 29 39 be d0 96 9d 3d cf 6e 2c 3e
       -0.024094947 -0.18082309 0.07694781 0.16839145
000130 eb 0a 83 bd 4c 95 eb be fc 13 12 bf 86 2a 27 3c
       -0.06398567 -0.46012342 -0.57061744 0.0102030095
000140 65 c9 2f be 36 b1 92 be d8 30 7b bd 33 69 a1 be
       -0.1716667 -0.28650826 -0.061325878 -0.31525573
000150 a0 c0 4b 3d 09 f3 49 bd ec 52 04 3f 14 59 76 3e
       0.04974425 -0.049304042 0.5168903 0.24057418
000160 6d 1e ef 3d 50 a3 2a be 3c 9e cd bd a5 dd cf bc
       0.11675725 -0.16663861 -0.100399464 -0.025374243
000170 5c e5 00 bd f4 05 24 bf 45 45 c6 be 50 d6 03 be
       -0.031468734 -0.64071584 -0.38724723 -0.12874722
000180 e8 72 68 be 96 46 4e bd aa 8d 8f 3e 7f 04 b9 bd
       -0.22700083 -0.050360285 0.2803777 -0.09034061
000190 d1 40 a4 3d a2 59 d8 3e 9a e5 8a 3d 6e 19 88 be
       0.08020175 0.42255884 0.06782074 -0.265819
0001a0 c3 cb 93 bd a7 29 19 bf 61 6f 73 be fa 15 ae be
       -0.07216599 -0.5982918 -0.23772956 -0.34001142
0001b0 ac 20 91 be 9d e4 f1 be 12 0c 07 3e ee b6 3c 3e
       -0.2834524 -0.4724473 0.13188198 0.18429157
0001c0 15 7e e4 3c e4 7f bc bd 57 b8 98 3e 6c e1 5d 3c
       0.027892152 -0.09204081 0.2982814 0.013542514
0001d0 51 d5 1b bd 3b fd a6 3c 39 31 ad 3e c1 13 45 3d
       -0.03804523 0.020384422 0.33826616 0.048114542
0001e0 60 64 09 bf cb 1d ac be 42 0f aa be 08 94 b7 3e
       -0.53668785 -0.3361648 -0.33214766 0.35855126
0001f0 35 13 12 bc 8a e5 29 3f be 70 b7 3e 9a b8 e2 3d
       -0.008915712 0.66365874 0.35828203 0.11070366
000200 4a 06 e7 bd 6c d1 fe bd bf c3 ef 3d bb 0b 6c bc
       -0.112804964 -0.12442288 0.117072575 -0.014407094
000210 9c 7c 65 be 3d 65 91 3e 29 fc c9 3d 4e ad b6 3d
       -0.22410816 0.2839755 0.09862549 0.08919774
000220 1d be 04 3c cf 94 9d bd 17 a3 0a 3d 56 4f a2 3c
       0.008101967 -0.076943986 0.03384694 0.019813221
000230 c9 e5 90 bd fa 5b e0 3e b8 11 9b 3e b5 e5 83 bc
       -0.07075078 0.43820173 0.30286956 -0.016100744
000240 d1 14 87 3d 46 d2 72 3e a9 cf f3 3d 3d d4 6f 3e
       0.06595767 0.23713025 0.119048424 0.23420806
000250 37 23 d4 bd 0c 42 b5 bd 06 1b e0 be 95 74 67 be
       -0.10358279 -0.08850488 -0.43770617 -0.22603066
000260 fb 00 19 be 2c 02 9f 3d da b0 23 be ed b1 1d 3e
       -0.1494178 0.07764086 -0.15985432 0.15399905
000270 91 6b 07 be e4 4c 8c 3e ec 17 5e 3e 84 b9 0b 3c
       -0.13224627 0.27402413 0.21688813 0.008528117
000280 9b 02 3c 3e 31 c7 ee 3c e3 62 15 be ac e0 12 3e
       0.18360369 0.029147716 -0.14588504 0.14343518
000290 9a b5 c8 bd 76 9c 33 be e4 4c d3 3d 46 6e a8 3d
       -0.09800263 -0.17540154 0.103174 0.08224158
0002a0 47 98 24 3d 94 dc 07 3f 61 72 7a 3e 8b ea 30 3e
       0.040184285 0.5307095 0.24457695 0.17276971
0002b0 a3 e8 1d 3e 91 af 92 3e 0f d7 b8 bd 57 2e 8a 3d
       0.15420775 0.28649572 -0.09025394 0.0674712
0002c0 8a 64 af 3c 08 a4 a9 3c 7e 72 81 be b2 dc 84 bd
       0.021410245 0.020708099 -0.25282663 -0.06487407
0002d0 0d 0a fb bb 0d af 09 3d fe f7 8d be 45 c0 e8 bd
       -0.0076611103 0.033614207 -0.27728266 -0.113647975
0002e0 1d 9f 66 3e 54 47 3c 3e a0 3a 7a 3e ef 60 86 be
       0.22521634 0.18386585 0.24436426 -0.2624583
0002f0 44 2b b8 3d 70 a7 f3 be 4c 9c 74 be 61 59 78 be
       0.08992627 -0.47588682 -0.23887748 -0.24252845
000300 fb 69 8d 3d 26 20 8c bc b0 e3 d4 3d 2d dc 9e bd
       0.0690498 -0.017105173 0.103949904 -0.07756839
000310 46 da 2c 3e 22 00 0a be 2e 7a 75 3d 8d 9e 03 be
       0.1688014 -0.13476613 0.059930973 -0.12853451
000320 bb 05 fc bd 29 69 82 3d b4 4a 44 bd cb 10 e1 3d
       -0.123057805 0.06367714 -0.047922805 0.10989531
000330 23 b7 fd 3d 8c 3e 6e 3c c8 98 37 be 67 8e a0 3d
       0.12388446 0.0145412795 -0.17929375 0.07839661
000340 da 54 ca bd 82 6a d9 3c 79 dc 90 bd 77 ef 30 be
       -0.098794654 0.026540045 -0.07073302 -0.17278849
000350 ce 98 20 be 14 1d ff bd e9 c2 9f 3e 03 73 42 3d
       -0.1568329 -0.12456718 0.31203392 0.047472965
000360 69 99 92 3d 12 19 62 3d da 24 54 3d ec 1d d9 bc
       0.07158167 0.05519969 0.051792957 -0.026503526
000370 32 65 24 3d 4a 14 84 be 07 82 8f bc b0 e1 79 bc
       0.04013557 -0.2579673 -0.017518057 -0.015251562
000380 fa 03 02 bc f5 e3 a1 3d 30 00 0d bc 62 47 c3 3d
       -0.007935518 0.079048075 -0.008606002 0.095350996
000390 7d be 66 bc cb 26 38 3e ab 3e c1 bc d0 74 98 3d
       -0.014083502 0.17983548 -0.023589453 0.07444155
0003a0 60 cf 81 bd 92 b3 97 be 52 14 8a bd 98 e9 b9 bd
       -0.06338382 -0.2962919 -0.06742157 -0.090777576
0003b0 e7 dd c3 bc 3f 7a 9d bd 53 8d 24 3c 1f 0f 7b 3d
       -0.023909522 -0.07689332 0.01004346 0.061293717
0003c0 78 1f e8 3d 20 79 05 3e 17 5a 51 3e 83 44 dc bd
       0.11334127 0.13034487 0.20444523 -0.10755255
0003d0 82 a6 08 be 14 16 85 3d 1a 85 bb 3d bb 35 32 3d
       -0.13344768 0.06498352 0.091562465 0.043508273
0003e0 00 67 2f be 39 b8 3c be 83 3f a6 bd 6a c6 62 3e
       -0.17129135 -0.1842965 -0.08117583 0.22146001
0003f0 fb 0d d7 3d b6 53 1c 3e 6f 15 d0 3d 63 f8 c5 bd
       0.105007134 0.15266308 0.10160338 -0.09666517

actor.pi_net.fcs.1.bias f4 [64]
000000 19 db 80 3c e1 a4 d5 3d f7 88 e7 bd 77 cd fe 3b
       0.015729474 0.10431839 -0.11305421 0.007775958
000010 4c 45 3f bc 78 b2 2e bd 3a 15 76 bb 7b 23 e1 3d
       -0.0116742365 -0.04265067 -0.0037549273 0.109930955
000020 88 61 f6 3d f3 68 a9 3c 2d d0 9f bd de 33 7e 3d
       0.12030321 0.020679926 -0.07803378 0.062061183
000030 b7 97 c7 3d c8 1b d1 bd 40 97 e1 bc 24 42 f6 bd
       0.09745734 -0.10210377 -0.027537942 -0.12024334
000040 58 46 cd bc 55 bb c0 bd c0 10 89 bd 58 5f 4c bc
       -0.025057957 -0.09410731 -0.06692648 -0.012473904
000050 d0 f2 a6 3d 92 35 bd 3d 90 78 1f bd a4 b0 87 bc
       0.081517816 0.09238733 -0.038933337 -0.016563721
000060 a2 4d 36 bd de e9 e9 3c 3e 46 c9 bc 89 c0 37 bd
       -0.04450763 0.0285539 -0.024569627 -0.04486135
000070 b9 2e b8 bd 4a 3d d7 3c 1f f2 19 3c 9e e1 9e bd
       -0.08993287 0.026274342 0.009396105 -0.07757877
000080 1a 71 9b bd 07 4b d4 3d 2d f4 89 bd 2d ac 97 bd
       -0.07589932 0.10365873 -0.06736026 -0.07405887
000090 04 46 7b bd 84 73 17 3d 16 7c 71 bd e1 f3 89 bd
       -0.06134607 0.0369754 -0.05895623 -0.06735969
0000a0 1e 97 50 bd 18 b2 3c bd 17 42 8a 3d 64 0f 8e 3d
       -0.050925367 -0.04606828 0.06750887 0.06936529
0000b0 80 86 31 bd 87 0a 84 3d a8 fb b0 bb 7a 35 8b 3d
       -0.04334116 0.064473204 -0.0054010935 0.06797309
0000c0 c5 cf 68 bd ba 5b d1 3d f4 7d d8 3c f4 15 8a bd
       -0.05683877 0.102225736 0.026427247 -0.067424685
0000d0 5e 73 3a bd e3 a7 0c bd ef 37 8c bd 72 51 16 3c
       -0.04552018 -0.034339797 -0.06846606 0.0091746915
0000e0 1d 52 9d bc 10 f9 a6 bd 55 7f 80 3d e5 27 d0 bc
       -0.019204194 -0.08152974 0.06274287 -0.025409648
0000f0 97 13 81 3d 6b 11 8e 3d ff 4c d0 3c 22 42 a4 bd
       0.063025646 0.06936916 0.02542734 -0.08020426

actor.pi_net.fcs.2.weight f4 [1, 64]
000000 6c 9b bf bd c0 04 1f 3f f7 66 02 bf ae 9a f9 3e
       -0.09355816 0.6211662 -0.5093836 0.48750824
000010 20 e8 dc be bf 9e 58 be bc d7 fa bd 33 04 bc 3d
       -0.43145847 -0.21154307 -0.12248179 0.091804884
000020 7d 2d e8 3d 2e fc 48 3e e5 81 19 be 1c 5e 78 be
       0.11336801 0.19627449 -0.14990957 -0.2425465
000030 ae 17 8a be 4e 46 0a bf 4b 82 83 3e b7 4f c3 bd
       -0.2697119 -0.54013526 0.25685343 -0.09536689
000040 8c f7 90 be c2 08 6b be 80 f7 cb 3e 35 36 f1 be
       -0.28313863 -0.2295256 0.39837265 -0.4711167
000050 8a 95 8b 3d bf 3f 97 be 0c 4c 5a 3e 3c 76 57 be
       0.06815632 -0.29540822 0.21318072 -0.21041197
000060 35 c9 0f bf 9c 61 e1 3d a5 24 14 3e a2 eb 8f 3e
       -0.5616639 0.11004946 0.14467104 0.2810946
000070 bc eb e3 3e bf df 84 3e 80 b4 ff 3d 92 dc f4 3e
       0.4451579 0.25951955 0.124855995 0.47824532
000080 fa 49 14 be 1b 80 ac be d2 0b 45 be f7 28 8f 3e
       -0.14481345 -0.33691487 -0.1924279 0.2796094
000090 64 6e e9 bd e6 c5 1d be ee a0 ab bd 4e 1c c5 3d
       -0.113980085 -0.15407524 -0.08380304 0.09624539
0000a0 c7 f1 e6 be ec 44 0b 3e da 0b c3 be f2 36 93 3e
       -0.45106336 0.1360051 -0.3809498 0.28752857
0000b0 f9 4b bd 3d 82 93 03 3e 2e 34 a7 be 02 72 00 3f
       0.09243006 0.12849239 -0.32656997 0.5017396
0000c0 ba ac 80 3e 06 e8 9c 3e 25 d4 13 be 49 ea f6 3d
       0.2513178 0.3064577 -0.14436395 0.12056405
0000d0 62 fb 47 3e 9f c6 10 3f c6 82 b9 bd a8 97 e4 3e
       0.19529489 0.5655307 -0.09058146 0.44646955
0000e0 82 c9 12 bf e5 0b 66 bd ed b3 7a be 6a dc 71 3d
       -0.57338727 -0.056163687 -0.24482699 0.059048094
0000f0 3f e4 7d 3e b7 da bb 3e 26 2a b7 3e 8a 13 b5 3c
       0.247941 0.36690304 0.35774344 0.022104044

critic.v_net.fcs.0.weight f4 [64, 4]
000000 9d 8b 91 bd ea c0 e9 bc f0 a1 02 c0 d5 74 2c be
       -0.07106707 -0.028534371 -2.0411339 -0.16841443
000010 17 3e ed 3e 6c bd e0 be 4e 23 cb bf f4 73 23 be
       0.46336433 -0.43894517 -1.5870149 -0.15962201
000020 58 b8 8b bf 1a ce 29 bf 2f aa 8f bf e2 44 a1 bc
       -1.0915632 -0.6633011 -1.1223811 -0.019686166
000030 d9 5d a6 be 84 a0 af be 80 9f 23 c0 32 2b 0b bf
       -0.32493475 -0.3430215 -2.55661 -0.54362786
000040 6f 91 d0 be 78 4b f5 bd 8d 31 25 c0 08 2d bf be
       -0.40735957 -0.11977285 -2.5811493 -0.37339044
000050 6e f4 e7 be 8b 9e 8b bf fd 73 a7 bf 8d 89 b1 bc
       -0.45303673 -1.0907758 -1.3082272 -0.021672035
000060 54 16 c5 3e 7c 40 62 3f 93 ae f7 3f d0 d9 07 3f
       0.38493598 0.88379645 1.9350151 0.5306673
000070 fe 96 65 be bf 06 a4 3e 37 a5 1a 40 06 0e 1b 3f
       -0.2242088 0.32036397 2.416334 0.60568273
000080 71 17 5e 3f 13 f5 4f 3e ad 73 02 40 03 7c 02 3f
       0.8675452 0.20308332 2.0383103 0.50970477
000090 cc c9 d2 be 3b 16 23 bf 53 3a 07 c0 17 ad b5 be
       -0.41169584 -0.63705796 -2.1129348 -0.3548362
0000a0 22 f8 a8 3d 64 f7 4d 3f d5 31 0a 40 d1 46 95 bd
       0.082504526 0.80455613 2.1592915 -0.07288898
0000b0 03 f4 29 bf 5e 00 ec be 5e b1 fa 3f 6c ef cc 3e
       -0.6638796 -0.4609403 1.9585378 0.40026414
0000c0 9d 16 22 3f b2 52 00 3e 9d db 21 40 88 ac 24 3f
       0.63315755 0.12531546 2.5290291 0.6432576
0000d0 6f 17 c9 3e 59 7e 86 3e f3 2f 33 40 3b 4c 12 3f
       0.3927569 0.2626827 2.7998016 0.5714757
0000e0 2f d3 21 3e 27 46 f7 3e fa b3 0a c0 c9 07 81 be
       0.15803216 0.4829571 -2.167235 -0.25201252
0000f0 9c ad 43 3f 2b 24 9d be f4 26 d0 bf 80 9e 63 be
       0.7643678 -0.30691656 -1.6261888 -0.22228432
000100 e3 f0 f9 be 86 78 22 3e 45 95 b4 bf 9c 28 02 be
       -0.48816594 0.15866289 -1.4108053 -0.12710804
000110 f2 b5 93 bf 81 5d c5 bd 24 07 07 40 d2 45 89 bb
       -1.15399 -0.09636975 2.1098108 -0.0041892314
000120 33 04 2d bf 07 1f 10 bf 88 3c 4c bf b9 37 ef be
       -0.6758453 -0.56297344 -0.79779863 -0.467222
000130 04 ea 43 3f 21 92 26 3f d4 97 5e 3f b8 99 f3 3e
       0.76528955 0.65066725 0.8695042 0.47578216
000140 b2 92 1d be 37 83 3f be 56 05 f3 3f 9e 16 24 3f
       -0.15387991 -0.18702398 1.8986003 0.6409701
000150 d9 73 af 3d 2f 56 b9 be ea 99 ff bf 3d 58 2a bf
       0.08567018 -0.36198565 -1.9968846 -0.6654089
000160 83 b0 10 bf b8 49 6e be eb 79 01 40 a7 b7 02 3f
       -0.56519336 -0.23270309 2.0230663 0.5106148
000170 41 70 9a bf e9 1d 64 be 12 52 22 40 6a 0a 0f 3e
       -1.2065507 -0.22277035 2.5362592 0.13968816
000180 2f f8 13 3f 10 34 59 3f 8a 82 e9 3f 11 ce ff 3d
       0.57800573 0.84845066 1.8242962 0.12490476
000190 8e e7 1c 3f 0d ad 5d 3f 98 3d b2 3f 89 b5 08 bd
       0.61290824 0.8659218 1.3925047 -0.03337625
0001a0 5a b4 09 bf 75 1a 32 bf 6f 6a 0a c0 63 6b 32 bf
       -0.5379082 -0.6957162 -2.1627462 -0.6969511
0001b0 4c e4 37 bf 52 8b 51 bf b3 ef a8 bf d9 9f 2c bf
       -0.7183273 -0.8185321 -1.319815 -0.6743141
0001c0 c7 9a 0a 3f fa 7c 15 3e 56 c5 fb 3f 83 17 05 3e
       0.5414242 0.14598456 1.9669597 0.1299725
0001d0 b4 4f 90 bd d5 97 d7 3c 07 af 07 40 63 88 2c 3f
       -0.07046452 0.026317516 2.1200578 0.6739561
0001e0 35 7f 31 3f f5 5d 30 bf 87 62 de bf 8c 33 28 be
       0.6933473 -0.6889337 -1.7373818 -0.16425914
0001f0 58 de 5e bf 79 82 2c bf 73 b9 5c bf e8 6b fe be
       -0.8705802 -0.67386585 -0.86220473 -0.496917
000200 6f e2 21 3f 7e 8a 0c 3f 50 ac 08 40 b1 9a fb 3e
       0.63236135 0.5489882 2.1355171 0.49141458
000210 82 5f 1e bf 71 23 cc be 18 df 1b c0 61 78 7a be
       -0.61864483 -0.3987079 -2.4354916 -0.24459983
000220 ac e5 8b bf d5 38 49 be 1b 41 20 40 7a 91 cb 3e
       -1.0929465 -0.19650586 2.5039737 0.39759427
000230 5e 54 28 bf 33 cc ad be b0 2c 14 c0 ad f0 30 bf
       -0.65753734 -0.33944854 -2.3152275 -0.6911724
000240 a5 4b 01 3f 92 a7 53 3f c4 aa 0f 40 73 9a ef 3e
       0.5050605 0.82677567 2.2447977 0.46797523
000250 bf 92 83 be a6 69 8d bf 57 bb fa bf 99 9d e6 bc
       -0.25697896 -1.1047866 -1.9588422 -0.02815132
000260 af 99 1c be 4f 3f 01 bf ad 8e 2f c0 9e 5b 3a bf
       -0.15293 -0.50487226 -2.7430832 -0.72796047
000270 2f 17 6c bf ab f8 3b 3c 73 3d 11 40 8b b2 f7 3e
       -0.92222875 0.011472861 2.2693756 0.48378405
000280 5a 3a 4e bf c4 cd 06 bf e4 1b aa bf 0d c7 69 be
       -0.8055779 -0.52657723 -1.3289762 -0.22829838
000290 fc f8 82 bf 85 2c 4a bf 72 bf e9 bf fa 8d c8 be
       -1.0232234 -0.7897418 -1.826155 -0.3917082
0002a0 1a 62 ec 3e 70 19 87 3f 6d 4a 86 3f 19 0e 02 3f
       0.46168596 1.0554638 1.0491463 0.5080276
0002b0 de 2f b8 3e 5e 0d 25 3f 1b 8a de 3f 25 20 b5 3e
       0.3597402 0.6447352 1.7385896 0.35376087
0002c0 79 35 81 bf 6c 1d e0 be d6 03 ea 3f 2c f3 63 3f
       -1.0094444 -0.43772447 1.8282421 0.89042926
0002d0 e9 63 2a bf 93 cf 49 bf b7 1c c0 bf 7d 78 37 bf
       -0.665587 -0.7883236 -1.5008763 -0.71668226
0002e0 dd 48 a5 3f 95 6c 03 be 8c 17 e6 bf d9 87 97 be
       1.2912861 -0.1283439 -1.7975936 -0.2959583
0002f0 e1 d2 96 bf 22 dc 07 be fa ab a9 3f 88 59 38 3e
       -1.1783105 -0.13267568 1.3255608 0.18002903
000300 6d aa 60 3e 8d 0e 55 3e e6 f8 06 40 7f af 94 3c
       0.21940012 0.20806332 2.1089416 0.01815009
000310 98 11 14 bf ef 8e c6 be cc 9b 24 c0 af 2f a0 be
       -0.57839346 -0.38780925 -2.572009 -0.3128638
000320 a3 39 69 be 26 38 0c bf d8 7b 02 bf b7 2d 82 be
       -0.22775893 -0.54773176 -0.5097022 -0.25425503
000330 d1 ac e3 3e 3a 3e f5 3d f1 9f f6 bf c2 93 e0 be
       0.44467786 0.119747594 -1.926756 -0.4386273
000340 ab de 09 be bd 95 fe be 6a 69 0e c0 c1 15 0a bf
       -0.13463847 -0.49723616 -2.225184 -0.53939444
000350 ba 4c f4 3e ed f6 37 3d d0 4d 3b 40 05 64 80 3e
       0.47714788 0.04491322 2.9266243 0.2507631
000360 55 05 73 bf 46 eb 3d 3f 2c a5 fd 3f f8 99 0c 3f
       -0.9493001 0.74187124 1.9816031 0.5492244
000370 d0 3f 20 3f 30 3f ca 3e 35 31 f9 3f 7d 2a 5b 3f
       0.6259737 0.39501333 1.9468142 0.85611707
000380 76 6e 4e bd 81 9b 01 3f ca ab c8 3f ba 13 85 3e
       -0.050398313 0.50627905 1.5677426 0.25991613
000390 53 0f 49 3f 8d 73 c4 3e 17 1e 2b 40 c9 2a 40 3f
       0.7853901 0.38369408 2.6737115 0.75065285
0003a0 32 fe c5 be 2d 97 6f bf 6d 6c 05 c0 ab bf ed be
       -0.38670498 -0.9359005 -2.0847428 -0.46435294
0003b0 81 2b c6 3e 78 5a 23 bf e8 3f fe bf c8 21 a6 be
       0.38705066 -0.6380992 -1.9863253 -0.32447648
0003c0 30 e0 2f 3e 7a 46 b2 3e 5d fc ae 3f d1 75 ee 3c
       0.17175364 0.34819394 1.3670765 0.029108914
0003d0 ae a1 2d bf c7 b1 c3 be 1f bc 05 c0 b3 b6 61 be
       -0.6782483 -0.3822157 -2.089607 -0.2204235
0003e0 44 38 56 3f 22 67 8f bd 85 8f 81 bf a4 3a f3 be
       0.83679605 -0.07002093 -1.0121924 -0.47505677
0003f0 ad f0 3e 3f 82 fe 24 3f 11 3b e7 3f de b2 27 3f
       0.7458599 0.6445085 1.8064901 0.65507305

critic.v_net.fcs.0.bias f4 [64]
000000 9f c8 a2 be 57 a8 bc 3e aa cb d9 3e f7 4c 56 be
       -0.31793687 0.36847183 0.42538196 -0.20927797
000010 ef a5 3c 3e 1d a5 12 3f bd 3e 91 3e af b6 3d 3e
       0.18422674 0.5728319 0.28368178 0.1852672
000020 bc ba ef 3e 23 3e 60 3e 48 7c 7d 3e 5b fb 75 be
       0.46822155 0.21898703 0.24754441 -0.24021666
000030 4f eb 86 3e d0 6f 69 3e bf c8 ca 3e 81 45 49 3e
       0.263514 0.2279656 0.39606282 0.1965542
000040 6a c7 f8 3e 37 7d b8 3e 0b fa 07 3f 7d e6 00 3f
       0.4858964 0.3603303 0.5311591 0.503517
000050 a4 4c 53 3e 04 64 dd be 55 be e9 3e 21 db 8d be
       0.20634705 -0.43240368 0.45653024 -0.27706245
000060 c3 74 a8 be fc 32 ca 3e 22 55 ce 3e 67 b9 02 bf
       -0.32901582 0.39492023 0.40299326 -0.5106415
000070 cf c2 b4 be 54 b2 cc be cd b8 40 3e 63 54 08 bf
       -0.35304877 -0.39979804 0.18820496 -0.53253764
000080 c4 69 e7 be bb 17 a2 3e 2e f3 b5 be b3 99 fe 3e
       -0.4519788 0.3165873 -0.35537094 0.49726638
000090 16 83 db be e8 c1 81 3e 53 7d 48 be 44 a4 b2 be
       -0.42873448 0.2534325 -0.19579057 -0.3489095
0000a0 38 0a de be 28 44 0b bf 55 a4 0b 3f 1d e0 b2 3e
       -0.4336717 -0.54400873 0.54547626 0.3493661
0000b0 7d 5c d0 3e 59 55 2d be 96 eb 64 3e c0 1d 57 be
       0.40695563 -0.16927089 0.22355494 -0.21007442
0000c0 6c cf 97 be c6 d9 29 be 5d c0 ba 3e 96 89 8f be
       -0.29650438 -0.1658698 0.36474887 -0.28034657
0000d0 62 b7 ff 3e 42 a9 3d be 0f d3 af be fa 61 4e be
       0.49944597 -0.18521598 -0.34340712 -0.20154563
0000e0 07 ed 9d be ac 46 5e 3d 23 ea 81 3e d3 96 98 be
       -0.308449 0.054266617 0.25373945 -0.2980257
0000f0 a9 cd d2 3e 98 e5 9f 3e 35 c4 06 bf 5e 67 15 3e
       0.4117253 0.31229854 -0.5264314 0.14590213

critic.v_net.fcs.1.weight f4 [64, 64]
000000 5c 78 6d 3e 75 ac c8 3e 7a e0 05 3e 7d f7 07 3f
       0.23190445 0.39194074 0.13073912 0.5311201
000010 0c 91 1d 3e 90 d0 a2 3e 3c 11 68 bf 42 08 5c bf
       0.15387362 0.31799746 -0.906513 -0.859501
000020 88 f8 38 be a8 6d 30 3f a2 68 66 bf 9e 14 01 3e
       -0.18063557 0.6891732 -0.90003407 0.12605521
000030 29 6e b2 be 53 6f 71 be 87 11 03 be 4f 14 1c 3f
       -0.3484967 -0.23577623 -0.12799655 0.6096849
000040 ee 20 88 3d 05 f1 df be d5 7a 4d 3e 84 51 a7 be
       0.06646906 -0.4373857 0.20066388 -0.3267938
000050 10 3a 14 be b3 ee de 3e b8 37 7b be 25 b3 52 be
       -0.14475274 0.43541488 -0.24532974 -0.2057615
000060 c3 9d da be 60 81 0b bf 89 6f 35 3e d0 7f dc 3e
       -0.42698488 -0.54494286 0.17718329 0.43066263
000070 00 95 be bc 7a 78 27 be f3 58 41 3f 1a d2 44 3e
       -0.023264408 -0.16354552 0.7552635 0.19220772
000080 bc 84 0d be 09 f1 a0 3e ee 52 81 3d 21 9a 52 3d
       -0.13820165 0.31433895 0.06314646 0.05141652
000090 c6 93 cd be c4 21 5c 3f 8e 17 02 3f 0d c4 1f be
       -0.40151805 0.8598902 0.5081719 -0.15602131
0000a0 28 02 47 3e 8d 3a 14 3f ac ae 17 bf fa 12 fa be
       0.19434416 0.5790184 -0.59250903 -0.48842603
0000b0 d7 30 d0 be c9 05 6d 3f 22 4e 94 3e da 09 d3 bd
       -0.40662262 0.9258695 0.2896586 -0.103046134
0000c0 e2 ce 33 be ab 6b 54 3f 55 a1 32 3e 53 da d9 3e
       -0.17559388 0.8297679 0.17444356 0.4254938
0000d0 ba 51 de 3d 00 a0 8b be 39 54 b4 be b5 e0 b0 be
       0.10855432 -0.27270508 -0.35220507 -0.34546438
0000e0 98 30 61 be 3e 4e 10 bf 44 14 43 3f 90 99 54 3f
       -0.21991193 -0.5636939 0.762028 0.8304682
0000f0 cf 0d e7 bd 71 05 b9 3e 8b 12 0c 3e df bf 7a bf
       -0.11281931 0.36136964 0.13678949 -0.9794902
000100 60 df ec bd 3b 80 83 3e 07 78 71 3f 6a a4 9f 3e
       -0.11566043 0.2568377 0.9432377 0.31180125
000110 b1 75 45 3f ef 3c 05 3f 73 d0 3c be 30 cc b9 be
       0.7713271 0.520461 -0.18438892 -0.36288595
000120 2a a5 9f bd 97 ab 8a 3f 89 4f d4 bd 37 08 bc bd
       -0.077951744 1.0833615 -0.103667326 -0.09181254
000130 76 cb 89 be f7 df 87 be fa ae b9 3e a5 0c 76 3e
       -0.2691304 -0.2653806 0.3626631 0.24028261
000140 c3 21 ad 3e 84 75 87 3e 9e 2e e1 3e b0 e8 2f 3d
       0.3381482 0.26456845 0.4398088 0.042946517
000150 ab 0c 09 be 53 1e b5 3d 14 51 35 ba c3 70 ce bd
       -0.13383739 0.088436745 -0.00069166836 -0.10080101
000160 39 04 80 bf 77 d8 a0 3d c4 fb 27 3f 79 29 6b bc
       -1.0001289 0.078537874 0.6561854 -0.01435315
000170 4a 06 d2 be d0 19 ce be 80 84 95 3e 85 31 93 3c
       -0.41020423 -0.40254068 0.29202652 0.017967949
000180 ba 1e 19 bf 7d 51 92 3f f7 f4 b7 bd 18 b8 0e 3f
       -0.5981251 1.1431118 -0.0898227 0.55749655
000190 a1 f4 78 bf 43 e6 4c 3f c3 ec 6f 3e f7 29 36 be
       -0.97248274 0.8003885 0.23430161 -0.17789446
0001a0 8d 4d 21 be 1a e5 bb 3d c6 f6 d5 3d 56 a1 98 3c
       -0.1575224 0.09174557 0.10447459 0.018631618
0001b0 9c 0a 11 3e d9 ef fd 3e 24 7d 22 bb c9 0e e8 bd
       0.14164203 0.49597052 -0.0024793828 -0.11330945
0001c0 c1 9a 0e bf 62 b7 c9 3e 04 ad 73 3e 76 44 04 3e
       -0.55704886 0.39397722 0.23796469 0.12916741
0001d0 9d d0 f8 3e a7 d2 92 bf 9d e9 b1 be 6f 46 88 bf
       0.4859666 -1.1470536 -0.34748545 -1.0646495
0001e0 00 e4 85 be 0f bd 34 bf 2a 36 75 3f c7 40 a5 3d
       -0.26150513 -0.7060098 0.9578577 0.08068996
0001f0 e4 df 24 3e 21 97 61 3f 09 21 4a be 2f 0d 0b bf
       0.16101032 0.8812123 -0.19739164 -0.5431699
000200 2a e6 4a 3d f0 e6 ae be 0f 89 62 bf 87 dd 74 be
       0.049535908 -0.34160566 -0.88490385 -0.23912631
000210 a2 dd 35 bf 47 9e 2b bf 36 57 ea 3d 8b fd 58 3e
       -0.7104131 -0.6703839 0.114424154 0.21190469
000220 53 4f 01 be 43 49 9c bf b9 a5 35 3e 66 78 19 3e
       -0.12627916 -1.2209858 0.17739 0.14987335
000230 2d 5e 13 3e c2 fe b3 3c 27 ac 56 be 81 a8 1a be
       0.14391394 0.021972064 -0.20964108 -0.15103342
000240 ba 39 af be 32 d8 c1 be 72 98 15 bf 0a 66 15 3d
       -0.3422373 -0.37860256 -0.5843574 0.036474265
000250 58 5e af 3d 0c a2 1e bd a8 02 f6 bd db aa e3 bd
       0.085629165 -0.03872876 -0.120122254 -0.111165725
000260 e3 90 ac 3f 24 16 ec 3d 8c b9 46 bf 1b 81 68 3d
       1.3481716 0.115276605 -0.7762687 0.05676375
000270 73 fc 08 3f 61 c1 5c 3e ad f8 be be e7 32 22 3d
       0.53510207 0.21558143 -0.372991 0.039599326
000280 9a 4d 1f 3f f8 df 97 bf de 06 86 bb 05 90 16 bf
       0.62227786 -1.1865225 -0.004090174 -0.58813506
000290 d4 04 8b 3f b7 58 8b bf 92 1d 96 be c2 a4 5c 3e
       1.0860848 -1.0886449 -0.29319435 0.21547225
0002a0 23 52 af bd 63 9b ba 3d 41 22 38 bc 68 f9 55 3d
       -0.08560588 0.09111669 -0.0112386355 0.052239805
0002b0 e4 77 99 be 1c c0 b4 be c3 ea 43 3d 77 75 3a bd
       -0.29974282 -0.35302818 0.047831308 -0.04552218
0002c0 8c e0 10 3f 09 09 e2 be ea dd ea be 12 9c 01 3e
       0.5659263 -0.44147518 -0.45872432 0.12657192
0002d0 15 3b d4 be 17 ca 79 3f 62 75 6b 3e 8c 2c 88 3f
       -0.41451326 0.9757399 0.22993997 1.0638595
0002e0 8b 2b c2 3e 70 06 ee 3e 3b 5e 91 bf 39 fa 5c bb
       0.37923846 0.46489286 -1.1356882 -0.003371848
0002f0 92 05 c3 3b ac eb 8f bf 09 b9 40 3e 4f b0 dd 3e
       0.005951592 -1.1243796 0.18820585 0.43298575
000300 64 1a 13 bb 6f d8 c6 3e f9 40 a2 3c 23 9f 62 3e
       -0.002244615 0.38837 0.019806372 0.22131018
000310 13 a5 8a 3f c6 bd 31 3d 0b 94 09 3e 04 1e 0c bf
       1.0831627 0.043393873 0.1343538 -0.547333
000320 fc de 92 3d 23 ea e5 3e f0 cc f2 3d e2 fc 72 bf
       0.07171437 0.44905195 0.11855495 -0.9491712
000330 4a bc 95 bd d3 ec ef bd a1 9c 50 3f 30 ca 8a 3f
       -0.07311304 -0.117150925 0.81488997 1.0842953
000340 1b af cf 3e 78 ee c5 be 7a 94 61 3e 0d 72 c0 3e
       0.40563282 -0.386585 0.22029296 0.37587014
000350 26 1c d5 be 07 c4 08 3d ae 88 a4 bd 9d bd b5 bf
       -0.41623038 0.03339007 -0.08033882 -1.419849
000360 94 9c 97 3c 99 51 d6 3e e6 50 6f 3e b4 37 3e be
       0.01850728 0.4185913 0.23370704 -0.18575937
000370 07 97 ae be 7d d0 36 bf 8c 9d fd 3e dd 4a b2 be
       -0.340996 -0.7141188 0.4953426 -0.3482274
000380 52 7d 80 be 2e 3b bf 3e 9d 1d 93 bf cd 04 03 3f
       -0.25095612 0.37349838 -1.1493412 0.511792
000390 e3 c5 5b be a0 7b 13 bd d9 e3 19 3e 82 e5 62 bf
       -0.21462207 -0.03600657 0.15028323 -0.8863145
0003a0 c2 e5 b8 be bb 88 d5 be e7 c8 5b 3e d9 5a 73 3e
       -0.3611279 -0.4170588 0.21463357 0.23765124
0003b0 01 f3 1b bf b4 b2 ea bd 4f e3 a1 3f 8e ce 33 bf
       -0.6091767 -0.11459866 1.2647494 -0.7023705
0003c0 b5 9e 05 bf b2 c4 07 3e ed cb 1d 3e 1b fa 8e 3e
       -0.5219529 0.13258627 0.15409823 0.2792519
0003d0 a0 d6 05 3f 41 25 9e bf 4d 3d db be 8e aa 0b bf
       0.52280617 -1.2355119 -0.42820206 -0.5455712
0003e0 cc ac 22 be 6b f7 6d be 2b 78 7f 3e a5 cf 5c bd
       -0.1588623 -0.23238914 0.24948184 -0.053908963
0003f0 07 9f 52 3e 24 70 a9 3e 4b f4 a7 bc 34 d3 02 3e
       0.20568477 0.3309337 -0.02050223 0.1277588

critic.v_net.fcs.1.bias f4 [64]
000000 64 d0 7e bd 5c 13 5e 3e 1e 29 2a be 58 b5 3c 3e
       -0.062210456 0.21687073 -0.16617247 0.18428552
000010 1d 16 c1 be 35 ae a5 3e b9 03 28 be 96 e0 91 3e
       -0.37712184 0.32359472 -0.1640767 0.28491658
000020 80 e1 24 be 37 0f 08 3e f7 10 89 be 42 c8 28 be
       -0.16101646 0.13287054 -0.26770756 -0.16482642
000030 b8 94 ae be fb 87 24 be 60 1b 4d 3e 1b 11 a9 be
       -0.34097838 -0.16067497 0.20029974 -0.33020863
000040 2a 38 68 3e 3f 48 89 be e1 2c e4 3d 19 aa eb bd
       0.22677675 -0.26812932 0.111413725 -0.11507053
000050 38 87 77 be 38 96 99 3e cb 09 6a 3e b0 98 ba 3e
       -0.24172676 0.2999742 0.22855298 0.36444616
000060 f7 f3 29 be da 51 b4 3e b2 ef 94 be d8 5b 8f 3e
       -0.16596971 0.35218698 -0.29089123 0.2799976
000070 e3 6e 75 3e 1b 31 40 be 49 f1 9b 3e fb a6 46 3d
       0.23968081 -0.18768732 0.30457523 0.04849909
000080 cc 65 84 be 71 c6 c1 bc 25 17 37 3d 91 8c 5d 3e
       -0.25858915 -0.023654195 0.044699807 0.21635653
000090 64 a2 d5 3d eb 90 0f be c6 5d 14 be fa 03 97 3e
       0.10431364 -0.14020126 -0.14488897 0.2949522
0000a0 59 fd 81 3e c3 54 70 be 73 6e 87 3e 7b 6f 72 be
       0.253886 -0.23469834 0.26451454 -0.23675339
0000b0 30 8f 10 3e 93 da 93 3d 4c 4e 3e be c9 76 ee bd
       0.14117122 0.07219424 -0.18584555 -0.1164375
0000c0 ed 66 35 3e 5f 9d c9 be 64 14 86 be c9 10 24 be
       0.17715044 -0.39377877 -0.26187432 -0.16022028
0000d0 15 a6 59 be 9b e4 e9 bd 81 75 a3 3e a0 95 98 3e
       -0.21254762 -0.11420556 0.31925586 0.29801655
0000e0 db 4c b6 be f9 96 b0 3e 69 af 88 be 38 11 50 be
       -0.3560551 0.34490183 -0.26696327 -0.20319068
0000f0 a5 0a 22 be b6 1a c1 3e d7 52 83 3e cf a1 30 3e
       -0.15824373 0.3771569 0.2564914 0.17249225

critic.v_net.fcs.2.weight f4 [1, 64]
000000 c3 e7 69 bf 03 b7 f2 3f ba c9 f2 bf 45 35 a2 3f
       -0.91369265 1.8962101 -1.8967812 1.2672507
000010 16 5a 00 c0 cd a2 fe 3f a9 6f a9 bf e2 e9 c7 3f
       -2.0054984 1.9893433 -1.3237201 1.561825
000020 1e 20 c6 bf 2c dc be 3f 8e 88 c3 bf 08 e5 e0 bf
       -1.5478551 1.4910941 -1.5276048 -1.7569895
000030 ec 78 a1 bf d2 c3 b6 bf 2d 32 b0 3f d3 1c a5 bf
       -1.2615027 -1.427851 1.3765312 -1.2899421
000040 da e2 e2 3f 62 a4 03 c0 de ab be 3f 98 ab e9 bf
       1.772548 -2.0569081 1.48962 -1.8255491
000050 78 5c c4 bf 51 6e fc 3f 67 40 c3 3f 92 48 ff 3f
       -1.5340719 1.9721166 1.5254029 1.9944022
000060 7e 67 b4 bf 02 db ed 3f a3 40 a0 3f a1 92 a6 3f
       -1.4094083 1.8582461 1.2519726 1.3013498
000070 5b 3f bf 3f 23 aa fc bf 8c f8 a8 3f 6e 09 c3 3f
       1.494121 -1.9739422 1.320085 1.5237253
000080 9e 66 e7 bf 1d da c0 bf b8 a7 bf 3f 6d 91 a0 3f
       -1.8078191 -1.5066563 1.4973059 1.254438
000090 0e 58 d0 3f 88 52 bd bf 74 be f6 bf e0 7c ff 3f
       1.6276872 -1.4790812 -1.9276872 1.9959984
0000a0 14 e2 ac 3f 22 df a5 bf 99 0c b8 3f 74 c6 c4 bf
       1.3506494 -1.295872 1.4378844 -1.5373063
0000b0 bb 90 ba 3f b9 23 9a 3f d0 af aa bf 7d 4d bf bf
       1.4575418 1.2042152 -1.3334904 -1.4945523
0000c0 ad 0d ca 3f 25 ae ab bf ce 2d cb bf 89 54 b1 bf
       1.5785424 -1.341252 -1.5873353 -1.3853923
0000d0 8c 2a 9e bf 4a e1 f8 bf ab 17 b5 3f 9e 1a a6 3f
       -1.2356734 -1.9443753 1.4147848 1.2976873
0000e0 a2 0f aa bf 3b 88 e9 3f b9 45 da bf 01 b7 b4 bf
       -1.3286021 1.8244699 -1.7052528 -1.4118348
0000f0 fa 27 f1 bf 46 f5 9a 3f 25 ea cc 3f 96 a8 01 40
       -1.8840325 1.2106102 1.6008955 2.0259147

exp_avg f4 [64, 4]
000000 1f 54 e7 39 e1 62 d2 39 fa 4f cc b9 61 9a a5 39
       0.00044122429 0.00040127992 -0.000389695 0.00031586274
000010 55 63 a5 b7 5f 91 ed 35 7d 77 24 37 c4 c9 39 b7
       -1.9715788e-05 1.7700185e-06 9.802982e-06 -1.10738365e-05
000020 fb f6 7f 39 0e 79 53 39 f8 07 57 b9 bc 8b 2f 39
       0.00024410702 0.00020167624 -0.00020506966 0.00016741356
000030 16 16 1f b9 b8 28 41 b9 6b 71 21 39 41 69 f8 b8
       -0.0001517165 -0.00018421083 0.00015396408 -0.000118451666
000040 c1 a4 c9 3a fa 08 c4 3a 74 bd b5 ba a6 cd 91 3a
       0.0015384183 0.0014956289 -0.0013865666 0.001112391
000050 15 87 0d bb d4 f3 04 bb 56 3a fa 3a 52 a6 c7 ba
       -0.0021595408 -0.0020286934 0.0019090872 -0.0015232062
000060 06 09 40 38 94 f5 32 38 29 6f 22 b8 2f 84 fb 37
       4.578477e-05 4.266722e-05 -3.8727336e-05 2.9983084e-05
000070 65 de c8 b9 5b a5 a1 b9 6e 3d a7 39 fe 2e 89 b9
       -0.0003831267 -0.00030831512 0.0003189849 -0.00026165688
000080 fe cf fc b9 ea e9 d8 b9 fc 49 d5 39 d2 eb ad b9
       -0.00048220152 -0.0004137301 0.00040681649 -0.0003317283
000090 d8 43 1f 3a 53 e0 0b 3a 92 b2 09 ba cb 41 df 39
       0.0006075478 0.0005335856 -0.00052527443 0.00042582894
0000a0 8a af 03 3a 30 e4 e4 39 3a 06 e1 b9 2f 5a b5 39
       0.0005023411 0.00043657562 -0.00042919983 0.00034590202
0000b0 56 1a 4f 3a 09 d2 2c 3a 2f ce 2d ba ff 70 0c 3a
       0.00079003477 0.0006592577 -0.000663015 0.0005357414
0000c0 bb 3b 8e 39 9e 8a 8f 39 ea 4e 82 b9 bb 61 4c 39
       0.00027128853 0.00027378363 -0.00024854328 0.00019491363
0000d0 0f 87 36 bb 1d 6b 26 bb 95 5a 1f 3b 52 e7 fd ba
       -0.0027851497 -0.0025393434 0.0024315466 -0.0019371307
0000e0 9e 0e 3f bb 30 18 28 bb 1b c8 23 3b 4d 6a 03 bb
       -0.0029153 -0.0025649182 0.0024991098 -0.0020052374
0000f0 0f 3c 1e 39 f4 0b da 38 8c 69 fb b8 f3 78 d2 38
       0.00015090428 0.000103972765 -0.00011988272 0.00010036109
000100 bc e7 59 ba c6 78 2a ba 6d 3a 31 3a 2e d6 0f ba
       -0.0008312424 -0.0006502982 0.000676072 -0.00054869324
000110 7f a0 e0 ba b2 b3 ca ba 23 1a c3 3a ab 01 9d ba
       -0.0017137675 -0.001546493 0.0014885109 -0.0011978647
000120 2f fe bb b9 a6 6c a8 b9 b2 cb a3 39 37 df 84 b9
       -0.000358568 -0.00032124406 0.00031241548 -0.0002534331
000130 29 23 35 bb 22 8f 25 bb 33 71 1e 3b 41 91 fc ba
       -0.0027639365 -0.0025262316 0.0024176359 -0.0019269363
000140 b1 df 97 b9 08 ee 6d b9 6f fc 7a 39 22 69 50 b9
       -0.00028967627 -0.00022690755 0.00023935897 -0.00019875591
000150 47 1d 03 b8 26 11 68 b7 24 16 b9 37 30 4c a9 b7
       -3.12601e-05 -1.383227e-05 2.2064029e-05 -2.0181848e-05
000160 fb 38 7d 3b ef 4a 6c 3b c3 ee 5f bb 18 61 33 3b
       0.00386387 0.0036055406 -0.0034169413 0.0027371105
000170 eb b9 af 3a a7 0f 98 3a c7 23 95 ba 33 3a 70 3a
       0.0013406848 0.0011601344 -0.001137846 0.0009163946
000180 b7 73 1b 3a 73 d9 23 3a 50 8c 11 ba 26 78 e2 39
       0.00059300236 0.0006250359 -0.0005552219 0.00043195597
000190 32 c8 9f b9 fd c8 8a b9 56 c2 87 39 82 87 5a b9
       -0.00030476 -0.0002647116 0.00025893998 -0.0002084058
0001a0 76 d9 94 3a 06 df 75 3a 72 97 79 ba 65 d8 4b 3a
       0.0011356312 0.00093792414 -0.00095211633 0.0007776081
0001b0 f0 6a 58 ba 18 6e 3e ba 26 66 38 3a 1f de 14 ba
       -0.0008255681 -0.000726433 0.0007034264 -0.00056788506
0001c0 ce d0 22 39 4c eb 20 39 7b 64 12 b9 94 0e e6 38
       0.0001552731 0.00015346444 -0.00013961077 0.0001096997
0001d0 93 b0 82 bb 67 7f 6a bb af 53 62 3b 26 71 35 bb
       -0.0039883344 -0.0035781504 0.0034534743 -0.002768585
0001e0 8b 37 bb ba 91 77 a2 ba 55 1b 9f 3a e7 01 80 ba
       -0.0014283521 -0.0012395253 0.0012138883 -0.0009766192
0001f0 31 fe af 38 7d 42 b4 38 6e 67 a0 b8 0c f0 7a 38
       8.391997e-05 8.595453e-05 -7.64866e-05 5.9828206e-05
000200 a4 f3 a3 ba 52 bf 97 ba 49 0b 90 3a 5c c4 64 ba
       -0.0012508524 -0.0011577404 0.0010989691 -0.00087267696
000210 62 f3 b3 b9 d3 99 94 b9 3d 68 96 39 d0 71 75 b9
       -0.00034322875 -0.00028343368 0.00028687893 -0.00023407419
000220 b6 96 a6 3a 3f db 98 3a 5f b9 92 ba 0b 25 6a 3a
       0.001270971 0.001166202 -0.0011194161 0.00089319114
000230 f0 da 21 ba ee 6a 26 ba 7c 17 16 3a 92 09 ea b9
       -0.0006174287 -0.0006348331 0.00057255453 -0.00044639088
000240 88 2c a9 b8 a2 94 4e b8 7f 9b 7d 38 c3 33 5b b8
       -8.0668426e-05 -4.9252652e-05 6.0464718e-05 -5.2261876e-05
000250 04 36 21 3b a9 d6 17 3b 29 47 0f bb ad 5d e3 3a
       0.0024598846 0.002316872 -0.0021862483 0.0017346643
000260 a6 a1 00 ba aa fc f4 b9 9d 59 e6 39 18 12 b5 b9
       -0.00049069 -0.00046727556 0.00043935786 -0.0003453649
000270 7c 30 ac ba f3 10 a4 ba 7c ac 99 3a 85 3f 73 ba
       -0.0013137008 -0.0012517258 0.0011724378 -0.00092791795
000280 1e 6d 44 ba f2 a2 26 ba 40 6d 25 3a 70 ca 05 ba
       -0.00074930664 -0.0006356678 0.000631053 -0.0005103713
000290 8e f0 8b bb 04 52 79 bb a6 c3 71 3b 1c 32 41 bb
       -0.0042706197 -0.003804327 0.0036890297 -0.002947933
0002a0 f5 aa 11 bb e6 7d fa ba 5b 9e f7 3a 1a cb c6 ba
       -0.0022227142 -0.0019111007 0.0018891798 -0.001516673
0002b0 c7 b3 11 bb 79 a0 ff ba d7 ff f8 3a fc f8 c7 ba
       -0.00222324 -0.0019502781 0.0018997145 -0.0015256698
0002c0 1e 42 84 ba e6 f0 66 ba a2 ea 61 3a b7 72 35 ba
       -0.0010090505 -0.00088097004 0.0008618032 -0.0006921696
0002d0 91 9b 22 bb e5 f0 0c bb 02 5d 0a 3b b8 c2 dc ba
       -0.0024811963 -0.002150589 0.0021112566 -0.0016842699
0002e0 93 44 60 3a b3 a2 27 3a e9 fc 31 ba 31 40 12 3a
       0.000855514 0.00063947885 -0.0006789701 0.0005579023
0002f0 fb dd 64 39 b7 f4 27 39 df 19 36 b9 04 bd 15 39
       0.00021826469 0.00016017524 -0.0001736651 0.00014280161
000300 fa e1 8f b7 e3 9c 4c 36 f4 b0 e5 36 cf 2f 18 b7
       -1.7152157e-05 3.048969e-06 6.845332e-06 -9.071037e-06
000310 89 f7 b4 b8 24 00 84 b8 5b 51 90 38 20 2e 6d b8
       -8.629176e-05 -6.294277e-05 6.881609e-05 -5.654816e-05
000320 21 fd 1a 3b 36 b8 08 3b ce a4 04 bb c3 bb d3 3a
       0.0023649412 0.0020861751 -0.0020239833 0.001615398
000330 48 f6 13 38 b4 fd 65 37 1d 53 bc b7 79 bb ab 37
       3.52769e-05 1.37085335e-05 -2.2450049e-05 2.0472087e-05
000340 23 85 dd ba 79 38 c9 ba f4 48 c1 3a ad 41 9a ba
       -0.001690064 -0.0015351913 0.0014746473 -0.001176884
000350 02 47 9b 38 1d f3 a8 38 ee cf 90 b8 56 39 5a 38
       7.404202e-05 8.0561476e-05 -6.905185e-05 5.202865e-05
000360 5a 9a 0e 3b 98 46 eb 3a cd 0f ed ba ee d5 c0 3a
       0.0021759481 0.0017950116 -0.0018086374 0.0014712194
000370 5d 89 ed 39 3a c7 e9 39 0a 84 d8 b9 f9 64 ac 39
       0.00045306506 0.00044589659 -0.00041297107 0.00032881627
000380 24 df 5e bb 93 44 43 bb 26 cd 3e 3b 90 5a 19 bb
       -0.0034007514 -0.0029795512 0.0029113977 -0.0023399927
000390 dd 60 1d bb 89 4b 09 bb 51 b3 06 3b 93 72 d8 ba
       -0.0024014034 -0.0020949563 0.0020553658 -0.0016513638
0003a0 a4 0c 25 bb 94 fc 14 bb 23 32 0f 3b 7c a0 e5 ba
       -0.0025184536 -0.0022733556 0.0021849952 -0.0017519142
0003b0 18 38 12 3b 1b 6a 04 3b 0b 9f ff ba 6f d1 cd 3a
       0.0022311267 0.0020204845 -0.0019502355 0.0015702675
0003c0 04 d5 25 3a 91 28 14 3a dd 75 0f ba 05 a2 e5 39
       0.0006325992 0.0005651797 -0.000547258 0.00043798998
0003d0 60 c7 9f 3b 21 6a 8b 3b 7e 77 88 bb 78 53 5b 3b
       0.0048760623 0.004254595 -0.004164635 0.00334665
0003e0 54 86 06 3b d6 6a fd 3a 1a 02 f0 ba 87 df bf 3a
       0.0020526843 0.0019334208 -0.0018311173 0.001463876
0003f0 e5 da 5b 3a 0f 6d 39 3a 0e c2 38 ba 6d 5b 14 3a
       0.0008386805 0.0007073441 -0.00070479594 0.00056593755
