walkthroughs/tutorial_models/tutorial_results/ppo/seed222_Feb-03-22-21-39_v0.5.0-53-g59b8ae6/checkpoints/model_800000.pt (torch, 147562 bytes, 30 tensors)

actor.pi_net.fcs.0.weight f4 [64, 4]
000000 0b b9 90 3e 65 86 a5 be d3 2d 91 3f 21 5e c3 be
       0.28266177 -0.32329097 1.134211 -0.38157752
000010 1d 2c 7b 3e d8 ca d4 3e 0a e2 ca be 5d b5 c0 3e
       0.24528547 0.41561007 -0.3962558 0.3763837
000020 eb 17 67 3e 0f fb a0 bb 83 73 b6 3e ab 21 50 be
       0.22567718 -0.004912741 0.35635003 -0.20325343
000030 60 fb c0 3e 0d c5 ad be 34 d6 2c bf ce cf 53 be
       0.37691784 -0.339394 -0.6751435 -0.2068474
000040 29 b5 28 be ef 98 9c 3e ef 79 cd 3f 42 08 64 3f
       -0.16475357 0.3058543 1.6052836 0.890751
000050 9a c4 d3 3e bc 00 95 bc 89 67 b3 bf da ba 32 bf
       0.41360933 -0.018188827 -1.4015971 -0.6981636
000060 3b e8 b2 3e 91 97 d3 bd 95 9f ea 3e 6a f3 45 bd
       0.34942803 -0.103316434 0.45824876 -0.04832784
000070 d6 07 47 3d e8 b5 17 3e 5d 05 27 bf fd 62 81 3e
       0.048591457 0.14815485 -0.6524256 0.25270835
000080 26 b2 d2 be fb bc 89 be de 82 54 bf ff fe eb 3e
       -0.4115154 -0.26901993 -0.8301219 0.46092984
000090 1d 7f e0 3e b8 b7 ef be f4 19 81 3f 91 f6 ad be
       0.4384698 -0.46819854 1.0086045 -0.33977178
0000a0 81 3b 5c 3e 24 73 34 3d 7b 1c 47 3f 1b d9 09 3c
       0.21507074 0.04405512 0.7777783 0.008413578
0000b0 0f d5 71 be c0 a1 84 3e fc 7e 56 3f 7f 2a 69 3e
       -0.23616432 0.25904655 0.8378751 0.22770117
0000c0 f9 58 9b be a3 66 99 3b 55 cb 69 3f cb 3c 5f bd
       -0.30341318 0.0046814247 0.91325885 -0.054501336
0000d0 f1 c8 cd bd 3d aa 1a bf b6 98 83 bf db ea 87 bc
       -0.10048092 -0.60416013 -1.0280979 -0.01659148
0000e0 b0 67 01 bd fb 9f 3c 3e 2f 8f 9c bf 68 b1 3b bf
       -0.031593025 0.18420403 -1.2231196 -0.73317575
0000f0 d3 56 f3 be e0 49 ca be 75 a0 7c 3f 0e 1a 6f 3e
       -0.4752718 -0.39509487 0.9868234 0.23349783
000100 c3 c7 ab 3e 81 f0 bf be 70 7c 71 bf 84 83 c3 be
       0.33550844 -0.37488177 -0.943305 -0.38186276
000110 09 4d 50 bd c0 c4 58 be 9f 15 97 bf 71 3f 39 bf
       -0.050854716 -0.21168804 -1.1803473 -0.7236243
000120 9e 06 8e be 73 19 0c 3e 18 5e 4e bf 42 1f b9 3e
       -0.27739424 0.13681583 -0.80612326 0.3615666
000130 95 b8 22 be e2 c1 27 bf c7 7e 8d bf eb 0a 0a bd
       -0.15890725 -0.65530217 -1.1054314 -0.03370182
000140 14 63 45 bd 8c 37 ed 3e 4d 47 85 bf 98 5e 0a 3f
       -0.04819019 0.4633144 -1.0412384 0.5405059
000150 b5 2c 83 3e 2a a2 8f 3d 41 23 8d be ff fd 9e 3e
       0.25620046 0.07013352 -0.2756596 0.3105316
000160 bd 8c e4 bd 34 1d f3 3e 17 34 d6 3f 59 04 70 3f
       -0.11159656 0.47483218 1.6734647 0.93756634
000170 aa f4 a8 3e b6 94 ab 3e 89 cd a5 3f ff 3c f2 bd
       0.32999164 0.33511895 1.2953349 -0.1182804
000180 b5 34 a8 be 80 8f 63 3e bc 27 99 3f dc f1 9c bc
       -0.32852712 0.2222271 1.1965251 -0.019158296
000190 10 65 04 bf c7 72 4b be 8a 89 e2 be 63 4a c4 bd
       -0.5171671 -0.19868003 -0.4424556 -0.09584501
0001a0 10 fd 35 be 01 6c 00 3d d1 28 84 3f 63 ac a5 be
       -0.17772317 0.031353 1.0324956 -0.32358083
0001b0 57 82 02 bd 1d ff 1c 3e 29 67 9a bf 65 27 db be
       -0.031862583 0.15331693 -1.2062732 -0.42803493
0001c0 5a f1 03 bd 9d 22 37 3d 50 cb 32 3f 4b f1 9e 3e
       -0.032212593 0.044710744 0.6984148 0.31043467
0001d0 0b f0 1a 3d 24 46 1a be 72 8f b5 bf 8f 89 2d bf
       0.03782658 -0.15065819 -1.4184401 -0.6778802
0001e0 d9 0a cb be 98 85 8c 3e 6d de 61 bf 30 8b 52 bf
       -0.39656714 0.27445674 -0.8823002 -0.82243633
0001f0 f9 6d 9b bd 94 0f bd be 7f 82 6c 3f 31 20 59 be
       -0.07589335 -0.36925948 0.9238662 -0.21203686
000200 0b b9 fa be cf b1 cc bd a3 63 c0 bf 2a c4 b6 be
       -0.48969302 -0.09994852 -1.5030407 -0.35696536
000210 ae 18 8d be 65 41 58 3b 16 75 2e bf ac 28 49 3e
       -0.27557892 0.0032997963 -0.6814741 0.19644421
000220 b7 06 fb 3e 59 4a 40 3f af d4 93 3f 3d bb bc 3d
       0.4902856 0.75113446 1.1549281 0.092154
000230 8d 5e 6b 3e df 5e 0d bf 53 b7 0a bf c8 9d f0 bd
       0.22985287 -0.55222887 -0.5418598 -0.117488444
000240 b5 a9 d0 be 31 82 8e 3e 40 a5 cf be 61 88 46 3e
       -0.40754476 0.27833703 -0.40555763 0.19387962
000250 06 9d 97 3c b2 0c 3f 3f eb 2d a5 3f 78 44 44 3e
       0.018507492 0.74628747 1.2904638 0.19166744
000260 a2 31 48 be ce b6 36 3d 3b 78 3a bf 37 f2 d5 be
       -0.19550183 0.04460793 -0.7283971 -0.41786358
000270 00 a9 67 3d f3 e8 f2 be 61 02 2a bf 20 60 aa bd
       0.056557655 -0.4744335 -0.6640988 -0.08319116
000280 a2 ae 0e be ed 68 c9 be 93 8f 85 bf 4e 10 c5 bb
       -0.13933805 -0.39337865 -1.043444 -0.0060139066
000290 50 71 39 be 7b b4 2b bd 91 17 c9 bf 0c eb 17 bf
       -0.18109632 -0.041920166 -1.5710317 -0.5934303
0002a0 5c da 9b 3e c2 bc 94 be 85 e3 95 bf 46 e6 11 bf
       0.30440032 -0.2905026 -1.1710058 -0.56991994
0002b0 b6 ee f3 ba 2f d4 b0 3e d7 c7 b3 bf 78 f7 df be
       -0.001861057 0.34536883 -1.4045361 -0.4374349
0002c0 91 32 0a bf 41 85 64 be 82 9c 69 bf 88 b4 71 be
       -0.5398341 -0.22316457 -0.91254437 -0.23604023
0002d0 4c 0d 8d 3c cb 18 ab be 1a 3e a3 bf f1 c7 52 bf
       0.017218255 -0.33417353 -1.2753327 -0.82336336
0002e0 38 99 27 be 6a 3b 11 3f 3f 04 95 3f d9 a2 df 3c
       -0.16367042 0.56731284 1.1641921 0.027299332
0002f0 d1 28 c7 be e8 c3 88 3d 2f 20 4c 3f ac 8a ae 3d
       -0.38898328 0.06677991 0.7973661 0.08522543
000300 24 04 63 be 1d 85 f2 bc 9d 61 fa bd 8f 05 0c be
       -0.22169548 -0.029604489 -0.122256495 -0.13673995
000310 f7 65 3f 3e b1 cb 5e 3e c5 60 d7 be 32 d2 e5 be
       0.1869124 0.2175739 -0.42066017 -0.4488693
000320 57 6e a3 3e 06 e8 0f 3f cb 0b a9 3f 04 3c 1d 3f
       0.3192012 0.56213415 1.3206724 0.614197
000330 18 60 ef 3e ad f8 59 be da 7f 37 3e 49 fa 01 3f
       0.46753 -0.21286269 0.17919865 0.5077253
000340 c7 1b 5a 3e f4 81 2e 3d b8 2f 80 bf 21 d9 96 3e
       0.21299659 0.0426044 -1.0014563 0.2946253
000350 75 b7 a7 be f6 fc e4 be 3b 85 8c 3f 95 ee 00 bf
       -0.32757154 -0.44724244 1.0978159 -0.5036405
000360 33 ad 12 3f ea d2 09 be d4 c6 cf 3f 0c 8c 2f 3f
       0.5729553 -0.13459364 1.6232553 0.6857307
000370 77 4d e2 3e 5d f0 36 be 0a 44 63 3f 61 48 26 be
       0.44199726 -0.17865129 0.88775694 -0.16238548
000380 4f 19 16 bf 9f af 5a be b8 5d ac bf ef bb e4 be
       -0.5863237 -0.21356057 -1.3466101 -0.44674632
000390 f2 be 87 bc a3 e8 35 bd f1 08 9d bf 05 0e 4b be
       -0.016570542 -0.044411313 -1.2268354 -0.19829567
0003a0 c4 f6 22 bd d2 59 e7 bd fe 4e d7 bf f6 f4 0a bf
       -0.039786115 -0.11296429 -1.6820982 -0.5428003
0003b0 51 fb 83 3e 7d b4 07 3f f2 1f bd 3f 03 00 30 3f
       0.25777677 0.5300978 1.4775374 0.6875002
0003c0 f7 81 1b 3e dc f8 b0 3d 52 1d 0a 3f 5b f1 80 be
       0.15186296 0.08641216 0.5395099 -0.2518414
0003d0 d1 75 e8 3e 0d 42 15 3d fc 1e bb 3f ca ef bf 3e
       0.45402387 0.036439944 1.4618831 0.37487632
0003e0 1b 60 26 3e 20 b4 25 3f aa 70 b3 3f fb 6e 09 3f
       0.16247599 0.64727974 1.4018757 0.5368497
0003f0 16 29 bb be 26 cb 11 3f 70 f5 1a 3f 24 58 cf 3e
       -0.36554784 0.56950605 0.6053076 0.40496933

actor.pi_net.fcs.0.bias f4 [64]
000000 ab 2a c3 3e 60 33 11 bd 2c 74 78 3e eb 6a 86 3e
       0.3811849 -0.035449386 0.24263066 0.26253447
000010 6c 74 8e be 1a e4 d8 3d 20 47 e7 bc 1a 67 c3 be
       -0.27823198 0.10590382 -0.028232157 -0.38164598
000020 59 30 cb be f2 41 f3 3d 7b b3 4b 3e 9e ce 09 3e
       -0.39685324 0.118778124 0.19892685 0.13457724
000030 b4 e7 d0 bd 79 df 89 3b 42 ab 81 3c 43 7d cf 3e
       -0.10200444 0.004207548 0.015828732 0.40525255
000040 43 32 76 be cb 34 24 3e 0c 4f d5 be dd d4 52 3c
       -0.24042611 0.16035764 -0.4166187 0.012868133
000050 7b 26 12 be eb de 66 bc 0a 54 ef bd 69 33 36 3e
       -0.14272492 -0.014091234 -0.11685951 0.17793049
000060 f6 60 58 be 7b b6 f6 bd dc a0 28 3e ec b7 ae 3e
       -0.21130738 -0.12046524 0.16467613 0.34124696
000070 30 5d 35 be 5b 6b 55 3d 25 d7 14 3d ec 84 92 be
       -0.1771133 0.052104335 0.03633799 -0.28617036
000080 37 b9 2e be 64 2d a1 bd f8 a6 02 be 64 d3 46 3d
       -0.17062841 -0.07869986 -0.12759006 0.04854144
000090 a5 97 dd bd d6 b9 4b bd d4 a6 e6 be 82 3c ca 3c
       -0.108199395 -0.049737774 -0.45049155 0.024687055
0000a0 e1 ca 2d be bd b0 8d bd 23 f3 bd bd e7 11 92 3d
       -0.16971923 -0.06918476 -0.0927489 0.07132321
0000b0 2c f7 a1 3d cd 67 1a be 8c 01 9a 3e a8 7c 8b 3e
       0.079084724 -0.1507866 0.30079305 0.27243543
0000c0 5e 06 2c ba e4 10 64 be 70 aa fc 3d 28 aa 33 3d
       -0.0006562228 -0.22272068 0.12337196 0.043863446
0000d0 c0 d5 01 3d 2b 28 a4 be 24 7d 30 be b2 65 c1 3e
       0.03169799 -0.32061896 -0.17235237 0.377729
0000e0 2c 4e cd 3c 37 7b 97 bd 9a ef f7 3d 3e bd 30 be
       0.02506169 -0.07396548 0.12106247 -0.1725969
0000f0 1c a1 69 bc d3 2c 06 3c 7e 62 3a be cc 22 06 3e
       -0.014259603 0.008189398 -0.18201634 0.13099211

actor.pi_net.fcs.1.weight f4 [64, 64]
000000 af 1f 8c bd ee 41 ad 3c 37 9c d0 bd 50 57 c7 3c
       -0.06841981 0.021149602 -0.101860456 0.024333626
000010 67 6b 0b be 26 75 80 3d 2f ec e7 3d a1 de 35 3d
       -0.1361519 0.06272344 0.11324345 0.04440177
000020 d0 63 31 bc 21 e8 8f bd c3 82 13 be 72 f3 63 bb
       -0.01082702 -0.07026697 -0.1440535 -0.0034782556
000030 bf 6b b9 bc d5 d4 08 3e da 2b 60 3e ad c8 47 3d
       -0.022634385 0.13362439 0.21891728 0.048775364
000040 e0 2f c2 3c 21 1d b3 3c 1d a1 1d 3e 07 c9 89 3e
       0.02370447 0.021864476 0.15393491 0.26911184
000050 db 4c 91 3b 76 88 78 3d e9 3d e5 bd 1e f8 84 bd
       0.0044342107 0.060677014 -0.11193449 -0.06492637
000060 d7 1e 86 bd aa 4b 77 bd bd fb 0b bb 77 5d ed 3d
       -0.06548851 -0.060374893 -0.0021359765 0.11590093
000070 de 83 e1 bd 2f 0d 1f 3e 2e 4d d4 3d 8b 37 b7 bd
       -0.1101148 0.15532373 0.10366283 -0.08946141
000080 34 f4 cb 3d 53 aa a3 3c b1 da 61 3c 34 18 9a 38
       0.099586874 0.019978678 0.01378505 7.3478004e-05
000090 1d 96 d3 3d ba cf 5a bd 10 a6 b9 bc 32 2c 47 bd
       0.10331366 -0.05342076 -0.022662193 -0.048626132
0000a0 e9 05 0c 3d 0b f0 3e 3e 73 26 ca 3d ae 24 53 3e
       0.034185324 0.18646257 0.09870615 0.20619461
0000b0 12 47 54 bd 91 b2 98 3d ec 4d fb bd 20 a0 8c 3d
       -0.05182559 0.07455934 -0.12270722 0.06866479
0000c0 f4 00 92 3d be 4b 69 bd 2b fb ff bd 13 2d 93 bd
       0.07129088 -0.056957 -0.12499078 -0.071863316
0000d0 6f de ff 3d 07 fb 97 bd 44 7f 77 bb fd 98 9b bc
       0.12493598 -0.074209265 -0.0037765065 -0.018993849
0000e0 ec cb 51 3e 21 fb 6a 3e e4 5e 6b 3e 6c d6 94 bd
       0.20487946 0.2294736 0.22985417 -0.0726746
0000f0 a2 18 a8 3d 08 47 9f be 50 6c dd bc 6f d4 7f bd
       0.08207823 -0.3110888 -0.027029186 -0.06245845
000100 3c ad 8f 3c 94 4a 4a 3c c9 56 e0 bd fa 74 ae 3d
       0.01753866 0.012346882 -0.10954053 0.08518405
000110 52 ed d4 3d 3c 42 a3 be 1b 92 b3 3d d6 1a ea 3c
       0.10396828 -0.3188647 0.08768102 0.02857725
000120 94 9b aa bc e4 11 35 be 4a ea 99 3d 94 1c 2b 3e
       -0.020826139 -0.17682606 0.0751539 0.1671012
000130 67 39 67 bd 7c c7 f3 be 0a f0 19 bf 9b 52 04 3c
       -0.056451228 -0.47613132 -0.60131896 0.008076335
000140 e2 d2 2d be 8c 05 98 be bb b9 6f bd 1e 30 aa be
       -0.16974977 -0.29691732 -0.058526736 -0.33239836
000150 a4 83 44 3d c9 0e 01 bd 51 fd 08 3f ab 48 78 3e
       0.047977105 -0.03150824 0.5351153 0.2424647
000160 e9 55 fe 3d 17 83 26 be 17 ed cd bd 3c fe 04 bd
       0.1241873 -0.16260944 -0.10054987 -0.03246902
000170 b0 76 d6 bc e7 97 2b bf 2c 53 cf be 9c 9d fc bd
       -0.026179641 -0.6702866 -0.40493143 -0.12334749
000180 24 1c 6e be 3b 21 49 bd b5 1c 94 3e a2 59 b8 bd
       -0.23252922 -0.049103957 0.28928152 -0.09001471
000190 68 22 ad 3d ce b4 e0 3e db d5 90 3d 5f e1 89 be
       0.08453828 0.43887943 0.0707204 -0.26929757
0001a0 78 4d 93 bd 45 59 1e bf f9 2b 79 be 8d e7 b9 be
       -0.0719251 -0.61854964 -0.2433318 -0.36309472
0001b0 ea ef 96 be 05 bb f3 be 74 32 05 3e 1d e2 39 3e
       -0.29479915 -0.47603622 0.13007528 0.18152662
0001c0 32 4c 83 3c e5 14 b5 bd 96 9b 9b 3e 4e 3a 89 3c
       0.016027544 -0.08841876 0.3039214 0.016751435
0001d0 87 34 65 bd e3 c8 d4 3c ae 05 b5 3e 76 a1 3c 3d
       -0.055958297 0.025974697 0.35355896 0.04605242
0001e0 8d 5d 15 bf a7 a5 b1 be 00 96 b3 be 32 8e bd 3e
       -0.5834587 -0.34696695 -0.35075378 0.3702255
0001f0 ea 45 e5 bb 16 9e 41 3f c6 89 bc 3e 4e 24 d9 3d
       -0.00699686 0.75631845 0.36823863 0.10602628
000200 b0 cf e7 bd 59 57 07 be e0 0a f6 3d 25 2a 45 bc
       -0.1131891 -0.13216914 0.12013793 -0.012033974
000210 7d d8 6d be 88 d4 98 3e ec 9d c8 3d cc 18 b3 3d
       -0.23227115 0.29849648 0.09795746 0.08744964
000220 31 96 d9 3b da 60 a9 bd 60 be 0a 3d ba 5f 9e 3c
       0.0066402187 -0.08270426 0.033872962 0.019332755
000230 77 94 9d bd 21 d1 e9 3e 21 77 aa 3e 51 fa 7b bc
       -0.07694333 0.45667365 0.33294013 -0.015379504
000240 49 91 86 3d 89 1f 7c 3e 09 75 f1 3d 3e c6 81 3e
       0.0657068 0.24621405 0.11789901 0.2534656
000250 26 26 cd bd d7 f3 d4 bd c4 e7 e8 be e1 98 6b be
       -0.10017042 -0.10398071 -0.45489323 -0.23007537
000260 2e 46 1f be 62 f1 9a 3d a5 65 25 be 25 69 23 3e
       -0.15554115 0.07565571 -0.16152056 0.15958078
000270 55 57 0b be 28 f5 9a 3e 34 f9 6e 3e 34 8e 98 3b
       -0.13607533 0.30265164 0.23337251 0.004655624
000280 2b b4 43 3e 54 1e f6 3c a3 2d 1e be 0d 3e 12 3e
       0.19111697 0.030043758 -0.15447097 0.14281483
000290 df 46 ce bd 7d f4 44 be 63 8b d0 3d ba 0e b1 3d
       -0.10072111 -0.1923389 0.10182836 0.08645387
0002a0 db 11 2c 3d 9a 94 0d 3f 16 ff 80 3e 0c f1 46 3e
       0.042009216 0.55304873 0.25194615 0.1942789
0002b0 3d 04 29 3e 6e 6e 95 3e ea e7 b8 bd be a9 8c 3d
       0.16505523 0.29185814 -0.09028609 0.06868313
0002c0 f9 cf 0c 3d 37 e7 96 3c 4a 89 85 be 26 30 8d bd
       0.034378026 0.018420799 -0.26081306 -0.06893949
0002d0 16 06 1e 3c e6 21 f2 3c 24 27 95 be d4 eb e7 bd
       0.009645006 0.02955718 -0.29131424 -0.113242775
0002e0 76 d5 8b 3e 70 77 49 3e 21 0e 86 3e e2 da 8b be
       0.27311295 0.19674468 0.26182655 -0.27315432
0002f0 94 f2 b2 3d 52 59 12 bf 32 d9 7d be 4c 72 75 be
       0.08737674 -0.5716754 -0.24789885 -0.23969382
000300 a0 6d 94 3d fb d8 42 bc 75 c0 d4 3d 89 e2 9d bd
       0.07247472 -0.0118925525 0.10388271 -0.07709224
000310 75 95 32 3e a3 95 16 be 64 0d 6f 3d 9b d7 04 be
       0.17439826 -0.1470552 0.05836238 -0.12972872
000320 5c 35 ff bd f7 27 95 3d ae 7c 37 bd b5 60 e8 3d
       -0.12461349 0.07283013 -0.04479664 0.113465704
000330 68 6a 02 3e 99 f2 97 bb 45 dc 57 be 22 0f a5 3d
       0.12735903 -0.004637074 -0.2108012 0.08059527
000340 5c fc cf bd 56 62 a2 3c 9d a5 94 bd dd e2 44 be
       -0.101555556 0.01982228 -0.07258151 -0.19227166
000350 c0 38 27 be 8f 69 e4 bd a1 87 a7 3e 32 7e 60 3d
       -0.16330242 -0.11152946 0.32720664 0.05480785
000360 44 7b 99 3d b7 87 5c 3d 6c 38 67 3d 54 bc f0 bc
       0.07494214 0.053840365 0.056450292 -0.029386677
000370 41 21 29 3d 39 24 92 be e4 e8 0b bd 79 6b 68 bc
       0.04129148 -0.2854326 -0.03415765 -0.01418578
000380 da cd 9b bc e9 3c 99 3d e6 96 07 bb 30 52 c9 3d
       -0.019019056 0.07482321 -0.0020689308 0.09830129
000390 66 f6 6c bc 39 1f 48 3e 1d fa ce bc 85 97 92 3d
       -0.014463043 0.1954316 -0.025265748 0.07157806
0003a0 ba 1a 8c bd bb 4f a5 be ea 09 a0 bd e5 b8 e2 bd
       -0.06841035 -0.32287392 -0.07814391 -0.11070422
0003b0 b7 40 07 bd 54 76 af bd f4 7e 56 3c 9a 08 81 3d
       -0.0330207 -0.08567491 0.013091791 0.06300469
0003c0 6c 68 c6 3d 0a ce 04 3e 12 5b 5d 3e 83 ff cd bd
       0.09687886 0.12969223 0.21616772 -0.100585006
0003d0 bd 45 18 be 35 80 87 3d df 13 d4 3d 6d 1d 3d 3d
       -0.14870353 0.066162504 0.103553526 0.04617064
0003e0 d4 52 61 be fc b9 4d be b1 bf c5 bd c2 6c 6b 3e
       -0.22004253 -0.20090479 -0.09655703 0.22990707
0003f0 5b 15 da 3d ac 0d 82 3e 66 b6 dd 3d 57 af c5 bd
       0.106486045 0.25401056 0.10825805 -0.09652584

actor.pi_net.fcs.1.bias f4 [64]
000000 1c 65 1a 3c eb f5 cd 3d a3 fd e2 bd c8 a6 0a 3c
       0.00942352 0.10056671 -0.110835336 0.008462615
000010 90 d4 42 bc 89 6d 36 bd 93 1d fb bb 50 c7 da 3d
       -0.011891499 -0.044538055 -0.0076634376 0.10682547
000020 f1 e7 01 3e 3c a9 c7 3c 9e 38 9e bd 79 30 71 3d
       0.12686135 0.02437269 -0.077256426 0.058884118
000030 5c 98 c2 3d 65 57 d4 bd 81 d2 da bc e1 80 f0 bd
       0.095017165 -0.10368232 -0.026711704 -0.11743332
000040 66 3d cf bc 23 19 c2 bd 45 ec 84 bd 29 9a 4f bc
       -0.025297832 -0.09477451 -0.06490377 -0.012671032
000050 06 c1 9c 3d 7f 15 b9 3d b1 2d 10 bd 5a e8 8a bc
       0.07654004 0.09037303 -0.035199825 -0.016956497
000060 c3 69 33 bd 1f 53 e0 3c ef 98 d5 bc 49 10 2b bd
       -0.043802034 0.027383385 -0.026073901 -0.041763578
000070 ca ff b7 bd 59 18 e1 3c 1f d3 62 3c c4 42 a1 bd
       -0.08984335 0.02747743 0.0138442805 -0.07874063
000080 fc 41 a0 bd cb ea ce 3d ee 1a 8b bd bd 25 91 bd
       -0.078250855 0.10103377 -0.06792246 -0.07087276
000090 b4 25 7b bd 70 15 0f 3d 30 cf 73 bd 6e 29 79 bd
       -0.061315253 0.034932554 -0.05952376 -0.060830526
0000a0 fa 45 51 bd 01 37 3d bd db f2 84 3d 50 bf 90 3d
       -0.051092125 -0.046195034 0.064916335 0.0706774
0000b0 af 6a 0a bd 18 19 87 3d f3 90 ad bb ee 9c 8d 3d
       -0.033793148 0.06596583 -0.0052968203 0.069146976
0000c0 8d f4 61 bd 17 3e d4 3d c9 6e e2 3c b2 06 7d bd
       -0.055164862 0.10363405 0.027640717 -0.061773963
0000d0 38 ae 39 bd 8a 18 10 bd 85 4f 86 bd 4b e4 19 3c
       -0.045332164 -0.035179652 -0.06558136 0.009392808
0000e0 37 e8 96 bc 72 5d a2 bd b7 51 7c 3d 16 63 c0 bc
       -0.018421276 -0.079279795 0.061601367 -0.023484748
0000f0 e7 7f 81 3d f0 04 92 3d a0 f4 d6 3c 0a 16 65 bd
       0.063232236 0.07129848 0.026239693 -0.05592922

actor.pi_net.fcs.2.weight f4 [1, 64]
000000 f1 2c 73 bd 4a 18 37 3f 6d 0f 14 bf e6 83 fa 3e
       -0.05936903 0.7152144 -0.5783604 0.48928756
000010 55 05 e9 be 99 d8 3b be b2 ad 8b bd b7 15 a7 3d
       -0.4551188 -0.18344344 -0.06820239 0.08158439
000020 a6 7c a1 3d e3 08 38 3e 89 fb da bd 84 3a 5e be
       0.07885103 0.1797214 -0.10692508 -0.2170201
000030 b9 65 78 be 93 78 07 bf 55 69 63 3e 9d be 90 bd
       -0.24257554 -0.52918357 0.2220815 -0.070676066
000040 f1 ca 8d be 62 fd 4a be 7d c3 ce 3e 47 70 00 bf
       -0.27693895 -0.1982322 0.4038352 -0.5017132
000050 3b d2 7f 3d cc 35 8b be 26 46 32 3e 44 dd 2a be
       0.06245635 -0.2718948 0.17409572 -0.16685969
000060 4e 0d 19 bf 66 ba bb 3d bc 8d cd 3d e5 ad 8b 3e
       -0.59785926 0.09166412 0.10036799 0.27281108
000070 99 6e fc 3e 5e 1a 77 3e 87 bf 5f 3d f7 e7 08 3f
       0.4930313 0.24131152 0.054626014 0.5347895
000080 4b b3 cd bd 15 6a 9c be 5e 46 33 be 80 3f 7c 3e
       -0.10043963 -0.30549684 -0.17507312 0.24633598
000090 58 32 96 bd ba 43 b4 bd cd 14 03 bd f8 d6 72 3d
       -0.07333821 -0.0880198 -0.03200226 0.05928704
0000a0 00 dc fb be 69 ee bd 3d 3f 55 b8 be c4 17 88 3e
       -0.49191284 0.09273989 -0.36002538 0.26580632
0000b0 97 32 17 3d b7 21 9c 3d 94 86 aa be 64 f4 05 3f
       0.03691348 0.07623618 -0.333058 0.52326035
0000c0 1f c8 61 3e 02 6d 93 3e a4 a2 05 be 76 25 ac 3d
       0.22048996 0.28794104 -0.13050324 0.084055826
0000d0 04 d3 0e 3e 36 7c 21 3f c5 50 57 bd d5 37 f0 3e
       0.13947684 0.63080156 -0.052567262 0.46917596
0000e0 b4 e5 1f bf 3c 17 fb bc be fe 6c be e8 49 a5 3c
       -0.62459874 -0.030650727 -0.23144051 0.020176843
0000f0 bf 80 60 3e de 66 c1 3e 6d 51 b3 3e ae c8 93 3a
       0.21924113 0.37773794 0.3502306 0.0011275017

critic.v_net.fcs.0.weight f4 [64, 4]
000000 c9 b4 05 be 01 76 49 3d 9b e0 0d c0 59 2d 27 3e
       -0.13057245 0.049184803 -2.2168338 0.16325893
000010 21 fc 22 3f ea ea f1 be 29 45 b4 bf b0 7d 6a be
       0.6366597 -0.47249538 -1.4083606 -0.22899508
000020 96 b0 87 bf 6e ab 4a bf d1 4d a6 bf a0 d9 0c be
       -1.0600765 -0.7916783 -1.2992498 -0.13754892
000030 06 0c 93 be 16 bc 90 be e4 c3 2b c0 44 12 92 be
       -0.2872011 -0.28268498 -2.6838312 -0.2852956
000040 7a 74 02 bf 1e 24 4c be 26 d0 3a c0 fd 61 91 be
       -0.5095898 -0.19935653 -2.9189544 -0.28395072
000050 79 6a b4 be d1 d9 9a bf 41 54 ac bf 8e b4 86 be
       -0.35237482 -1.2097722 -1.3463212 -0.26309627
000060 89 51 c2 3e c1 43 5a 3f ed 13 fa 3f 0d be 0d 3f
       0.3795283 0.85259634 1.9537331 0.5536812
000070 5c 05 b3 bd f8 1b 8a 3e 42 ab 10 40 03 e0 ec 3e
       -0.087412566 0.26974463 2.2604527 0.46264657
000080 8b 84 80 3f 9e f6 dd 3d 39 bc 1c 40 cf 76 cb 3e
       1.0040449 0.10838054 2.4489882 0.3973908
000090 96 ae e3 be c2 da 32 bf 40 40 10 c0 17 dd cb be
       -0.44469136 -0.6986505 -2.2539215 -0.39817116
0000a0 54 aa ab 3d bc e1 34 3f 0e b4 0d 40 80 95 fb bd
       0.08382097 0.70656943 2.2141147 -0.12284374
0000b0 32 24 01 bf 93 49 02 bf a1 52 07 40 be ed bb be
       -0.50445855 -0.50893515 2.1144183 -0.3670482
0000c0 89 05 40 3f a6 c9 ee 3d 0d 20 33 40 d6 6e 03 3f
       0.75008446 0.11659555 2.7988312 0.51341
0000d0 66 8c 05 3f 81 f3 81 3e dd b5 4a 40 60 7c bf 3e
       0.52167356 0.2538109 3.16735 0.37399578
0000e0 3f e4 62 bf 17 67 6e 3f 63 01 25 c0 b7 98 c6 3f
       -0.88629526 0.9312605 -2.5782096 1.5515355
0000f0 73 1d 54 3f 0e 74 b3 be b5 66 af bf cf 33 9e be
       0.82857436 -0.3504948 -1.3703219 -0.30898902
000100 a0 44 e2 be 80 7c f5 3e 5a 87 9e bf 56 d0 49 3f
       -0.44192982 0.47946548 -1.2385056 0.7883352
000110 a9 b7 89 bf 8f df a6 be 69 01 f8 3f 7f 10 5f be
       -1.0759174 -0.32592437 1.937543 -0.21783637
000120 d0 b7 18 bf 99 18 2b bf ce 0a 17 bf 30 7f 28 bf
       -0.59655476 -0.6683441 -0.5900086 -0.6581907
000130 cd 1d 47 3f 2c 93 19 3f 12 e4 54 3f db 76 04 3f
       0.7777985 0.5999019 0.8316051 0.5174386
000140 69 fd a7 bd 0b 91 9e bd 79 4a 03 40 f8 47 ed 3e
       -0.08202631 -0.077425085 2.0514205 0.4634397
000150 28 46 96 3d e9 97 6a be aa 70 e1 bf 42 ae 0b bf
       0.073376 -0.22909512 -1.7612507 -0.5456277
000160 fd 98 e8 be e1 a9 e1 3d 65 99 ed 3f 25 32 56 be
       -0.4542922 0.1101873 1.8562437 -0.20917566
000170 d5 2f 9f bf da f1 81 be 45 a1 01 40 61 0e 99 be
       -1.2436472 -0.2537983 2.025468 -0.29893783
000180 35 8e 0a 3f 1f e5 75 3f a2 67 fc 3f 58 83 84 3e
       0.5412324 0.96052736 1.9719126 0.25881457
000190 ab f1 22 3f 63 46 51 3f d7 62 cc 3f 53 d6 26 bd
       0.63650006 0.81748027 1.5967664 -0.04073174
0001a0 b3 e7 f4 be c6 23 33 bf 9f 02 14 c0 ac 9e 3d bf
       -0.47833022 -0.6997646 -2.31266 -0.7407024
0001b0 d5 56 3b bf fa ef 44 bf 24 e0 94 bf 9e a9 36 bf
       -0.7317937 -0.76928675 -1.1630902 -0.71352565
0001c0 49 e8 13 3f 5c 3d 50 3e 1e 74 15 40 94 ad 87 3d
       0.57776314 0.20335907 2.3352122 0.06624904
0001d0 4d d3 21 3e 42 b0 9d be 74 aa bb 3f 6f 6b b0 3d
       0.15803261 -0.30798537 1.4661393 0.08614241
0001e0 ab f9 69 3f 40 fb 40 bf fe 63 c7 bf 70 96 ca be
       0.9139659 -0.7538338 -1.557739 -0.395679
0001f0 be a3 42 bf 3a 3d 2a bf 68 f4 93 bf eb 26 1b bf
       -0.760311 -0.66499674 -1.1558962 -0.6060626
000200 95 d4 14 3f 49 83 23 3f dd 1c 0f 40 18 13 1d 3f
       0.58136874 0.638722 2.2361367 0.6135726
000210 0a 62 1b bf aa ac e4 be 4b 3d 25 c0 0c 17 5b be
       -0.6069647 -0.44662982 -2.581866 -0.2139551
000220 42 e3 8b bf b0 fd 52 be 36 39 11 40 05 1a 00 be
       -1.0928729 -0.20604587 2.2691169 -0.12509926
000230 e9 e7 23 bf 64 54 b9 be 97 f0 14 c0 43 8e 1a bf
       -0.6402574 -0.36197197 -2.3271844 -0.60373324
000240 0a 69 fe 3e 23 6e 62 3f ef 39 13 40 59 0d 01 3f
       0.49689513 0.88449305 2.300411 0.5041099
000250 ed 4d b1 be 53 43 9b bf bd 8d ff bf 68 d8 2a be
       -0.34629765 -1.2129921 -1.996513 -0.16684115
000260 7e dc db bd 92 0a e8 be 5d 09 3a c0 bd 1e 25 bf
       -0.10735415 -0.45320565 -2.9068215 -0.6450003
000270 20 48 6a bf 65 af 05 3e 12 98 0d 40 81 31 72 3e
       -0.91516304 0.13055189 2.2124066 0.23651697
000280 c5 30 5e bf 1d 85 f4 be b6 68 e0 bf 6c 95 8b be
       -0.86793166 -0.47757807 -1.7531955 -0.27262437
000290 51 68 84 bf ab db 29 bf 09 b3 f5 bf ec 78 af be
       -1.0344335 -0.6635081 -1.9195262 -0.34271944
0002a0 5f af cf 3e 76 f7 7d 3f b7 b1 24 3f 68 6e 15 3f
       0.40563485 0.9920572 0.6433367 0.5837159
0002b0 95 bf 8c 3e 11 b8 01 3f be b6 e3 3f cc 8d ad 3e
       0.27489915 0.5067149 1.7790143 0.33897245
0002c0 1a 25 77 bf 56 09 11 bf 33 04 ac 3f c3 9c 08 3f
       -0.9654099 -0.5665487 1.3438781 0.533642
0002d0 59 74 22 bf a7 78 3c bf 45 83 b9 bf 71 60 38 bf
       -0.6345878 -0.736216 -1.4493185 -0.7202216
0002e0 6e c3 b4 3f cd 73 43 be 5c 73 c5 bf 6a 31 91 bd
       1.412214 -0.19087143 -1.542583 -0.07089503
0002f0 7a de a6 bf a5 5c be bd fe a6 90 3f f9 d9 81 bc
       -1.3036644 -0.09295014 1.1300962 -0.015851008
000300 54 6c 37 3f 0c 1b e9 3d 7d dd 02 40 cc 5f 77 be
       0.7164967 0.11382112 2.0447686 -0.24157637
000310 5c a2 1c bf 35 b7 a9 be 57 82 34 c0 f2 e7 27 be
       -0.6118524 -0.33147588 -2.8204553 -0.16397074
000320 41 46 de bd ed b8 26 bf cf 44 b4 be e2 45 22 bf
       -0.108532436 -0.65125924 -0.35208747 -0.6338788
000330 b9 c1 92 3e 5e d4 46 3e 8a bb e3 bf b8 8d 53 3e
       0.28663424 0.19416949 -1.7791607 0.2065953
000340 54 92 3e be b5 b5 06 bf 62 d6 0a c0 46 89 01 bf
       -0.18610507 -0.5262101 -2.169335 -0.5060009
000350 59 6c 07 3f c8 20 91 3d 16 46 4c 40 fc 38 88 3d
       0.528997 0.07086331 3.1917777 0.06651494
000360 aa 9d 9f bf 69 56 74 3f d7 0a fe 3f 9a 04 3d 3f
       -1.246999 0.9544435 1.9847058 0.73835146
000370 d9 fb 14 3f d7 83 eb 3e ae 18 07 40 9f 22 5c 3f
       0.5819679 0.45999023 2.1108813 0.8599033
000380 f4 68 8d be d9 02 06 3f 4f 6a cf 3f 3d 7b cf 3e
       -0.27619135 0.52348095 1.6204318 0.4052371
000390 60 77 55 3f 5c 32 c7 3e ed 13 3c 40 25 67 28 3f
       0.83385277 0.3890561 2.9387162 0.65782386
0003a0 4e c8 be be d5 7e 83 bf 12 0a 0a c0 22 77 16 bf
       -0.37262195 -1.0273081 -2.1568646 -0.5877553
0003b0 37 36 bc 3e 59 ac fa be 81 a2 db bf dc e9 a5 be
       0.36760113 -0.48959616 -1.7158967 -0.32404983
0003c0 eb 7c 58 3e cf 07 2a 3e 11 78 e7 3f 57 2d 00 be
       0.21141402 0.16604541 1.8083516 -0.12517296
0003d0 fe 4e 2d bf 61 e6 e3 be d7 73 0f c0 c1 33 5f be
       -0.6769866 -0.44511703 -2.2414453 -0.21797086
0003e0 22 73 21 3f 1d 51 37 3c 78 d6 6a bf 64 18 37 bf
       0.63066304 0.0111887725 -0.91733503 -0.7152159
0003f0 5e bf 46 3f f7 fb 19 3f 64 3b eb 3f a4 5a 25 3f
       0.77635753 0.6015009 1.83775 0.6459143

critic.v_net.fcs.0.bias f4 [64]
000000 8a 46 21 be 1d 5e 8a 3e b5 51 da 3e 2f 2b 18 be
       -0.15749565 0.27024928 0.42640463 -0.14860223
000010 28 28 25 3e 07 bc 0d 3f 58 dd 87 3e 2f 46 f6 3d
       0.161286 0.5536503 0.2653606 0.12025105
000020 f3 0d da 3e 6f 61 4e 3e 29 fa 79 3e ea 87 2a be
       0.42588767 0.20154355 0.24411835 -0.1665341
000030 32 f7 6e 3e 47 df fa 3d da f4 8d 3d ab 64 30 3e
       0.23336485 0.12249618 0.06931467 0.17225902
000040 b8 0a c4 3e 20 82 b9 3e 3e 62 ff 3e d8 d6 f9 3e
       0.38289428 0.3623209 0.4987964 0.48796725
000050 9f 0a 23 3e 1c fd b4 be 8d cc b5 3e 6a 12 84 be
       0.1592202 -0.35349357 0.35507622 -0.257953
000060 a6 43 a3 be ee 82 c7 3e 9e bc b3 3e d2 70 fe be
       -0.3188755 0.3896708 0.3510484 -0.4969545
000070 55 e2 a0 be 93 ea 31 be 12 55 45 3e 6c bf e4 be
       -0.31422678 -0.17374639 0.19270733 -0.44677293
000080 36 c9 dd be 26 8c 97 3e 6a 24 aa be 8b 16 df 3e
       -0.43317574 0.29599112 -0.33230907 0.43571886
000090 0d 50 cf be 5f 9e 5b 3e 84 c7 da bd db c2 95 be
       -0.4049076 0.21447133 -0.10682586 -0.29250225
0000a0 6f 03 cf be 41 69 0c bf 1c b2 0a 3f 62 c9 a1 3e
       -0.40432307 -0.54848105 0.54178023 0.31598955
0000b0 5f 79 c7 3e 71 f1 1a be 02 f6 65 3e fa 92 4f be
       0.38959786 -0.15131165 0.22457126 -0.20270911
0000c0 fc 09 e7 bc af d1 2b be 32 32 9e 3e fe 6b 17 be
       -0.028203003 -0.16779207 0.3089767 -0.1478729
0000d0 26 0e b9 3e aa ae 33 be fd 09 ac be c2 45 4a be
       0.36143607 -0.17547098 -0.3360137 -0.19753173
0000e0 21 85 3d be 67 cb 1a 3d 33 12 6a 3e 44 d4 8c be
       -0.18507816 0.037791636 0.22858505 -0.27505696
0000f0 7e 44 b3 3e 3a ae 99 3e 11 38 e1 be 18 24 05 3e
       0.35013193 0.30015737 -0.43988088 0.1300205

critic.v_net.fcs.1.weight f4 [64, 64]
000000 66 12 30 3e 27 ac ad 3e 9c 8e f9 3d 6d ac d6 3e
       0.17194518 0.33920404 0.12185404 0.41928425
000010 7e 6c 92 3d ed e4 9b 3e ba 22 52 bf 47 d0 39 bf
       0.071495995 0.30448094 -0.8208424 -0.7258343
000020 3f c8 1f be 7f 50 1e 3f f9 e2 44 bf 09 b0 1a 3e
       -0.15603732 0.6184158 -0.7690883 0.15106215
000030 49 4e 94 be 30 c0 05 be 30 85 34 be 96 3b 08 3f
       -0.28965977 -0.13061595 -0.17628932 0.5321592
000040 e6 8b 52 3d c0 40 cf be de bf 3f 3e f1 fe 9e be
       0.05140295 -0.40479088 0.18725535 -0.3105388
000050 af 16 01 be e3 3b cc 3e 51 fe 73 be e6 6d 11 be
       -0.1260631 0.3988944 -0.23827483 -0.14202079
000060 d6 92 ca be e9 9a f8 be 6c 6c 0b 3e 9e a4 d1 3e
       -0.39565152 -0.48555687 0.13615578 0.40945905
000070 1c 9f 44 3c b0 34 02 be bf 90 2d 3f b8 a9 31 3e
       0.012000825 -0.12715411 0.6779899 0.17349899
000080 d3 32 e5 bd 6b 46 88 3e 45 dc d4 3d e2 4c da 3c
       -0.111913346 0.26616225 0.103935756 0.026647989
000090 7f 33 bb be 78 96 4b 3f 86 89 b8 3e 0e c2 f1 bd
       -0.36562726 0.7952647 0.36042422 -0.11804591
0000a0 35 30 24 3e 90 85 0c 3f 38 3e 12 bf 7c 1a dd be
       0.16034015 0.548913 -0.5712619 -0.43184268
0000b0 39 4d c1 be fc d1 4f 3f 6e 40 77 3e ed 98 a7 bd
       -0.3775423 0.81179786 0.24145672 -0.08183465
0000c0 80 66 ae bd fd 91 2e 3f 0b 02 1e 3e ca ea b8 3e
       -0.08515644 0.6819151 0.15430467 0.3611663
0000d0 ea b7 9d 3d a7 70 3a be 30 3f 9f be 95 6a 99 be
       0.077010944 -0.18207036 -0.31102896 -0.29964128
0000e0 cd 13 2b be f4 0b 2f be 72 4e 33 3f c4 24 41 3f
       -0.16706772 -0.17094404 0.70041573 0.75446725
0000f0 d9 10 9a bd 93 d1 a3 3e 33 b6 f2 3d 3f 78 56 bf
       -0.07522745 0.3199583 0.11851158 -0.8377723
000100 3b 3d 9d be 98 95 e0 3e 77 30 8f 3f 21 4d d6 3d
       -0.30710778 0.4386413 1.1186665 0.1046393
000110 8a 11 4d 3f fa 01 3c 3f 99 68 ad 3c 4a 6b 26 be
       0.8010489 0.73440516 0.02116804 -0.16251865
000120 65 30 1c 3e a3 dd 95 3f cc f7 81 3d 2b 8d 59 be
       0.15252836 1.1708263 0.06346092 -0.21245258
000130 c1 46 23 bd f9 ec 59 bd 7a f2 f3 3e 17 2b c7 3e
       -0.039862398 -0.05320451 0.47645932 0.38900062
000140 13 09 02 3f 9d 92 dc 3e 41 26 1e 3f 30 2e 88 3e
       0.50795096 0.43080607 0.6177712 0.26597738
000150 52 00 b0 3d 8d a8 05 be 0c 7d 5a 3e e0 c0 94 be
       0.08593811 -0.13052578 0.21336764 -0.29053402
000160 9e 49 95 bf 69 b2 8b 3e 72 84 49 3f fc e6 77 be
       -1.1663091 0.27284554 0.7871772 -0.24209207
000170 db 1f 10 bf 1c 8f 04 bf bf 5f f1 3e 04 10 53 be
       -0.5629861 -0.5178087 0.4714336 -0.20611578
000180 04 bd 41 bf 29 b3 a3 3f c8 fb 8a be 2c 9a 34 3f
       -0.7567904 1.278905 -0.2714522 0.7054775
000190 0a 01 91 bf 5d cc 76 3f 6a 41 c5 3c ee b5 ac be
       -1.1328442 0.96405584 0.024079043 -0.3373255
0001a0 7f b2 bd be 24 56 07 be 32 99 a5 3e 01 30 63 3e
       -0.37050244 -0.13216454 0.3234344 0.22186281
0001b0 62 0d b5 3e 42 c7 90 3e c8 44 34 3e 51 21 92 be
       0.35361773 0.28277022 0.17604363 -0.28541043
0001c0 7c f4 2b bf 9c ee 4b 3e 1d 97 cf 3e d6 ee 81 bd
       -0.6716993 0.19915241 0.40544978 -0.063443825
0001d0 86 fa 25 3f ac 3d 98 bf 9a 2a 07 bf 1b eb 87 bf
       0.64835393 -1.1893821 -0.5279938 -1.0618623
0001e0 11 67 d4 be 37 b5 f4 be 14 b5 87 3f 8d e1 d8 bd
       -0.41484883 -0.47794506 1.0602136 -0.105898954
0001f0 75 d0 b5 3e 54 42 82 3f a0 b1 cf be 0f 49 a8 be
       0.35510603 1.0176492 -0.40565205 -0.3286824
000200 77 bf 51 3e bf 0b 01 bf db e3 85 bf 36 f2 a5 bd
       0.20483194 -0.5040855 -1.0460161 -0.08102839
000210 a9 9f 4d bf 05 a9 5d bf 62 71 73 bd 28 74 81 3d
       -0.8032175 -0.8658603 -0.059434302 0.06320983
000220 ac e7 a4 be f6 5e a9 bf a3 54 e1 3c 72 88 90 3e
       -0.32208002 -1.3232105 0.027506178 0.282291
000230 5b 33 07 bd a3 1e 0e be f6 1f a5 be f3 46 91 be
       -0.03300796 -0.13878874 -0.32250947 -0.28374442
000240 5c b0 02 bf f1 82 03 bf 9b fb 40 bf 53 64 25 be
       -0.51050353 -0.51371676 -0.7538392 -0.16151552
000250 b6 ab 99 bd 22 c3 16 3e ba 85 99 be b8 05 8e 3d
       -0.075034544 0.14722875 -0.29984838 0.069346845
000260 a2 ad c0 3f e4 cf 80 bd e1 e7 6a bf 57 ef 83 3e
       1.5052989 -0.06289652 -0.9176007 0.2576854
000270 e3 84 30 3f 36 72 b0 3e f7 e6 04 bf 87 94 74 3e
       0.6895277 0.34462136 -0.51914924 0.23884784
000280 a3 c2 48 3f ed 08 ab bf ab 2f 33 3e ec c8 3e bf
       0.7842199 -1.3362099 0.17498653 -0.7452533
000290 15 bf 9f 3f 5c 14 99 bf ba 80 09 be 9e 2f bf 3e
       1.2480189 -1.1959338 -0.13428012 0.37341017
0002a0 85 d9 d0 3d fc dc 94 3e f1 11 57 be bd 66 fc bd
       0.101977386 0.29074848 -0.21002938 -0.12324283
0002b0 5e 8b ed be e2 dd 3e be 4c a4 ee bd a6 6f e5 3d
       -0.4639539 -0.18639329 -0.11652431 0.11202936
0002c0 39 df 2b 3f bf 39 95 be 25 5f 1b bf 41 02 8b 3e
       0.67137486 -0.2914562 -0.60692054 0.27150157
0002d0 f7 2c 13 bf c5 d2 8a 3f 38 60 ca 3e c7 e9 8f 3f
       -0.57490486 1.0845572 0.39526534 1.1243218
0002e0 86 ab 04 3f 82 17 a4 3e 8e c1 9e bf 7f d5 1f 3e
       0.51824224 0.32049185 -1.2402818 0.15608786
0002f0 5b ad 2a be b6 7d a2 bf 24 a2 bf 3e 64 80 8a 3e
       -0.16667692 -1.2694614 0.3742839 0.2705108
000300 2c 18 d7 3d b8 d5 86 3d 4c 26 4e bd 4f 86 53 3e
       0.10502657 0.06583732 -0.05032949 0.20656703
000310 af b5 6e 3f b3 5d f2 bd 00 30 80 3e 2f f9 ae be
       0.9324598 -0.11834278 0.2503662 -0.34174487
000320 e0 8c a4 bd f4 85 39 3e 2a 71 28 3e 6f 3a 41 bf
       -0.08034682 0.18117505 0.16449419 -0.7547979
000330 fd a9 48 be f6 65 03 be cd ab 83 3f af 5b bd 3e
       -0.19596095 -0.12831864 1.0286804 0.36984012
000340 58 d0 df 3e 9d 6d c6 be 54 92 99 3d ba 9d 9d 3e
       0.4371364 -0.38755503 0.07498613 0.30784398
000350 dc 36 a9 be 4e d7 2c 3c c5 fc b9 bd 1d 77 85 bf
       -0.33049667 0.0105493795 -0.09081415 -1.0426975
000360 93 7d 4e 3e 07 d9 b7 3e 38 f8 80 3b 61 62 27 be
       0.2016509 0.35907766 0.00393584 -0.16346122
000370 68 f9 8e be 69 06 08 bf 71 3f 99 be 48 c8 92 be
       -0.27924657 -0.5313478 -0.29931214 -0.28668427
000380 e0 6c a6 bd d3 52 85 3e 42 86 4f bf d8 76 ba 3e
       -0.08126235 0.26039752 -0.81064236 0.36418796
000390 c6 ef 40 bc 57 d8 9d be 77 05 9a bd 3e 68 e3 be
       -0.011775916 -0.30829117 -0.075205736 -0.44415468
0003a0 78 5c 79 be 3f ef a2 be 44 33 6c 3e fe 61 6c 3e
       -0.2435168 -0.31823155 0.23066431 0.23084256
0003b0 e0 a8 10 bf c1 3f 9b be 5c 69 e2 3e 36 0f 0c bd
       -0.5650768 -0.30322078 0.44221008 -0.034194194
0003c0 19 98 f5 be 37 b6 89 3e 8f 3b 9d bd ea 61 97 3e
       -0.47967604 0.2689683 -0.076773755 0.2956689
0003d0 3a b0 98 3e 96 93 9a bf 2d 91 5b 3e 6e 02 63 be
       0.2982195 -1.207629 0.21442099 -0.22168896
0003e0 c6 0c 32 3e f2 f5 a8 be a7 fe cc bd 77 92 33 be
       0.17387685 -0.3300014 -0.100095086 -0.1753634
0003f0 36 9c e2 3d 7e 48 70 3e 5f 68 78 bd b3 7b 47 3e
       0.11064951 0.23465154 -0.06064641 0.19480781

critic.v_net.fcs.1.bias f4 [64]
000000 dc 66 90 bd dd 66 eb 3e de 13 cb be a7 f3 be 3d
       -0.07050869 0.45976916 -0.39663595 0.09323817
000010 04 79 14 bf 03 c1 0b 3f 49 7d d1 be d8 1c 0b 3f
       -0.57997155 0.5459139 -0.40915897 0.5434089
000020 1c c6 c7 be 6b c0 b8 3e e7 7f fd be d0 59 63 be
       -0.39018333 0.36084303 -0.49511644 -0.2220223
000030 ca 8a 14 bf eb d3 81 be 87 83 d2 3e d6 15 d4 be
       -0.58024275 -0.25356993 0.41115972 -0.4142291
000040 38 0d ed 3e 3e fe 52 be ef ff bc 3e 59 14 b2 be
       0.46299148 -0.20604798 0.36914012 -0.3478115
000050 06 52 f1 be 39 91 fa 3e c5 30 ec 3e 11 26 06 3f
       -0.4713289 0.4893892 0.46130958 0.52401835
000060 d6 0b 9c be 59 4d 0f 3f 13 03 8f be 35 1b 03 3f
       -0.3047778 0.559774 -0.27932033 0.5121339
000070 c3 ae d0 3e 57 45 c6 be 7e f3 d0 3e f8 0f 85 3d
       0.40758333 -0.38724777 0.4081077 0.064971864
000080 24 40 fb be d6 8d 80 be 40 de 8c 3e 5d 0d 9d 3e
       -0.49072373 -0.25108212 0.27513313 0.30674258
000090 4c bd a0 3e aa 46 b9 be ea 32 bf be 7b 91 df 3e
       0.31394422 -0.36186725 -0.37343532 0.4366568
0000a0 f8 ca c9 3e c9 c4 87 be 0c ea f4 3e 2e 6e f0 be
       0.39412665 -0.26517323 0.47834814 -0.4695906
0000b0 3b dc 91 3e 45 8a 56 3d 3c 1d dd be 67 06 b0 be
       0.28488335 0.052377958 -0.43186367 -0.34379885
0000c0 e3 6d ae 3e 2b 1c fb be ef 0f e0 be 72 d2 cf be
       0.34068212 -0.49044928 -0.43762156 -0.40590245
0000d0 1c 05 dd be 44 23 f7 bd a9 1e c9 3e 9a c9 dc 3e
       -0.4316796 -0.12067273 0.39281204 0.4312256
0000e0 24 f7 e7 be 99 71 d3 3e 1b 4d 06 bf 4a 6b 7d be
       -0.4530574 0.41297606 -0.52461404 -0.24747959
0000f0 b1 d4 c8 be 51 f4 f0 3e 26 78 9d 3e 55 ce c2 3e
       -0.3922477 0.470614 0.30755728 0.38048044

critic.v_net.fcs.2.weight f4 [1, 64]
000000 9c 9b 63 bf 40 d2 f2 3f 1d e5 f2 bf ec 33 a2 3f
       -0.88909316 1.8970413 -1.897617 1.2672095
000010 66 68 00 c0 40 be fe 3f cb 8a a9 bf 1f 05 c8 3f
       -2.006372 1.990181 -1.3245481 1.5626563
000020 67 3b c6 bf 77 f7 be 3f bd a3 c3 bf af 15 e0 bf
       -1.5486878 1.491927 -1.5284344 -1.7506617
000030 ff 93 a1 bf e9 de b6 bf b1 49 b0 3f 59 35 a5 bf
       -1.262329 -1.4286777 1.3772489 -1.2906905
000040 13 fe e2 3f 8f a5 03 c0 1f c7 be 3f d7 c6 e9 bf
       1.7733787 -2.05698 1.4904517 -1.8263806
000050 c7 77 c4 bf d8 89 fc 3f cf 5b c3 3f ec 63 ff 3f
       -1.5349053 1.9729567 1.5262393 1.9952369
000060 61 82 b4 bf 71 f6 ed 3f 8e 99 9e 3f b1 ad a6 3f
       -1.4102288 1.8590833 1.2390611 1.3021756
000070 5f 5a bf 3f 97 c5 fc bf 4f 13 a9 3f 13 1a bf 3f
       1.4949454 -1.97478 1.3209018 1.4929832
000080 c8 81 e7 bf e6 f2 c0 bf 10 c3 bf 3f 7f ac a0 3f
       -1.8086481 -1.5074127 1.4981403 1.2552642
000090 52 73 d0 3f 4c 6a bd bf db d9 f6 bf f5 97 ff 3f
       1.6285193 -1.4798064 -1.9285234 1.9968249
0000a0 18 fd ac 3f 1c f8 a5 bf a1 25 b8 3f ce e1 c4 bf
       1.3514738 -1.2966342 1.4386483 -1.538141
0000b0 74 ab ba 3f 5e 39 9a 3f db ca aa bf ba 68 bf bf
       1.4583573 1.2048757 -1.3343157 -1.4953835
0000c0 b6 28 ca 3f 1f c9 ab bf d0 48 cb bf aa 6f b1 bf
       1.5793674 -1.3420752 -1.5881596 -1.3862202
0000d0 7b 45 9e bf a6 e2 f6 bf f6 32 b5 3f 8b 35 a6 3f
       -1.2364954 -1.9287918 1.4156177 1.298509
0000e0 ba 2a aa bf b4 a3 e9 3f f2 60 da bf 52 ad b4 bf
       -1.3294289 1.8253083 -1.7060835 -1.4115393
0000f0 2d 43 f1 bf 0a 10 9b 3f 78 05 cd 3f e5 b6 01 40
       -1.8848625 1.211427 1.6017294 2.026788

exp_avg f4 [64, 4]
000000 f6 3d 8c 3b 14 0d d9 3b e3 37 ea 39 e0 8a dd bb
       0.0042798473 0.0066238735 0.00044673597 -0.00676094
000010 19 b1 92 3a 7a 59 ed 3a 6b b3 15 39 3d 43 ee ba
       0.0011191695 0.0018108331 0.00014276586 -0.0018177998
000020 0f 18 0b 3b 33 1a 4f 3b 53 dd 69 39 e2 37 58 bb
       0.0021224057 0.003160131 0.00022303061 -0.0032992293
000030 9e d7 c0 ba f4 99 19 bb 35 d9 38 b9 4a 3a 1f 3b
       -0.0014712696 -0.002343771 -0.00017628523 0.0024296218
000040 e0 95 79 3c 55 ca be 3c 5f 3c dd 3a 85 6b c6 bc
       0.015233487 0.023289839 0.0016878954 -0.024221191
000050 00 ab b4 bc b1 af 09 bd 80 ab 27 bb 44 bc 0f 3d
       -0.022054195 -0.033614818 -0.00255844 0.035091653
000060 60 80 75 39 0f f8 b5 39 0d 9d 11 38 ac 7d bd b9
       0.00023412844 0.00034707828 3.471696e-05 -0.00036142522
000070 46 e1 69 bb 86 4a b1 bb 9d bb ce b9 aa d4 b7 3b
       -0.0035687252 -0.005410495 -0.00039431165 0.0056100683
000080 2d 0c 82 bb 47 00 c1 bb b0 1b c1 b9 e1 6f c6 3b
       -0.0039687366 -0.0058899256 -0.00036832457 0.0060558175
000090 98 67 c9 3b a4 47 19 3c 9a 0b 34 3a 33 e8 1f bc
       0.0061463825 0.009355459 0.0006868184 -0.00975995
0000a0 10 d0 a4 3b 35 bd fa 3b 35 b9 18 3a db 85 02 bc
       0.005029686 0.0076519498 0.0005825938 -0.007966484
0000b0 a4 6e fc 3b 8c 29 3f 3c b5 42 71 3a 8e 4d 48 bc
       0.007703619 0.01166762 0.00092033605 -0.012225522
0000c0 0e 3b 3d 3b a4 0a 93 3b 1a 04 b6 39 98 52 99 bb
       0.002887431 0.0044873524 0.000347168 -0.0046790354
0000d0 19 4e e8 bc 5b 9b 32 bd 11 16 60 bb eb 68 3a 3d
       -0.028357552 -0.04360519 -0.003419284 0.045510214
0000e0 f9 a0 ff bc 1e b0 42 bd d3 17 75 bb ae 04 4c 3d
       -0.031204687 -0.04753124 -0.0037398234 0.04980915
0000f0 70 e6 d0 3a 34 bc 1f 3b 48 c8 59 39 e8 66 28 bb
       0.0015937816 0.0024373652 0.00020769343 -0.0025696103
000100 4e c5 fb bb 59 3a 3d bc 7c b9 76 ba c3 25 47 3c
       -0.0076834327 -0.011549556 -0.00094117946 0.012154999
000110 6e c1 87 bc 5a 4a cf bc 32 ee fc ba cf 49 d8 3c
       -0.016571727 -0.025304008 -0.0019297062 0.026402382
000120 3e fe 66 bb dc e3 b0 bb 52 26 c1 b9 be ff b4 3b
       -0.0035246755 -0.0053982567 -0.0003684038 0.005523651
000130 bb 2e e6 bc 54 f3 30 bd fb 4f 5d bb 35 d0 38 3d
       -0.028098455 -0.043200806 -0.0033769596 0.045120437
000140 fc 04 3d bb dd 2a 8e bb ea 54 a4 b9 6e fd 94 3b
       -0.0028842082 -0.004338606 -0.00031343783 0.0045468127
000150 cd 6a f2 3a 27 ad 33 3b ce c7 59 39 ed c5 3a bb
       0.0018494964 0.002741644 0.00020769166 -0.002849932
000160 23 bc 1b 3d 61 fa 6e 3d a5 ae 91 3b 55 f4 78 bd
       0.038021218 0.05834425 0.004445868 -0.06077989
000170 d2 b7 54 3c 17 1a a1 3c da 7a bc 3a 1e 1d a7 bc
       0.012983279 0.01966576 0.0014379874 -0.020399626
000180 0f 0a d6 3b bc 29 27 3c b1 5a 54 3a fa 10 2e bc
       0.006531961 0.010202821 0.0008100672 -0.010624165
000190 9a 3e 5b bb ea 93 a6 bb 3e cd d0 b9 70 44 ad 3b
       -0.0033454061 -0.0050835507 -0.0003982577 0.0052876994
0001a0 3e ee 25 3c 4f f7 7a 3c 45 5b 95 3a 4d f8 82 bc
       0.010127602 0.015317752 0.0011394998 -0.01598754
0001b0 44 6c f9 bb 69 62 3a bc e8 08 62 ba f0 52 44 3c
       -0.007611783 -0.011376002 -0.0008622543 0.0119826645
0001c0 1e c6 db 3a 9d 8b 2b 3b 23 28 5b 39 a4 99 31 bb
       0.0016767418 0.0026175745 0.0002090042 -0.0027099634
0001d0 61 7d 25 bd 6b b7 7c bd 87 7d 9d bb 22 1c 84 3d
       -0.040402774 -0.06169836 -0.004806224 0.064506784
0001e0 ed ff 81 bc c7 ac c5 bc d2 36 f8 ba 8b 2c cf 3c
       -0.015869105 -0.024130238 -0.0018937236 0.025289794
0001f0 b6 06 13 3a d2 ee 60 3a 1e 01 75 38 64 ae 6e ba
       0.0005608605 0.0008580509 5.8413592e-05 -0.0009104966
000200 ea 2e 5a bc b2 d3 a7 bc 44 17 cf ba db 40 ae 3c
       -0.013316849 -0.020486686 -0.001579978 0.02127116
000210 d5 c6 61 bb 9a 8f aa bb ed 4c d0 b9 4a b9 b2 3b
       -0.0034450789 -0.005205107 -0.00039730166 0.005454217
000220 ce 77 58 3c cc 03 a8 3c 62 97 d9 3a 98 dd af bc
       0.013212157 0.020509623 0.0016600902 -0.021467969
000230 60 2e bf bb cb 84 16 bc 65 4d 3f ba 3f e6 1b 3c
       -0.0058343858 -0.009186934 -0.00072976045 0.009515344
000240 ec 8f e1 b9 94 81 0e ba 44 11 13 b8 6c 17 20 3a
       -0.00043022574 -0.0005436179 -3.506361e-05 0.0006107006
000250 5a fb cd 3c 13 3c 1f 3d 9d 87 48 3b 92 24 26 bd
       0.025144268 0.03887565 0.003059841 -0.04056222
000260 b1 4c a8 bb f4 dc 02 bc 31 0d 29 ba 51 3b 08 3c
       -0.0051360955 -0.00798725 -0.0006448804 0.008314923
000270 35 d1 56 bc 90 8b a6 bc e4 ae d2 ba b6 78 ad 3c
       -0.013111402 -0.02033022 -0.001607385 0.021175724
000280 00 ec f9 bb 3e bd 3c bc 6a 61 64 ba 51 f4 44 3c
       -0.0076270103 -0.011519728 -0.00087120256 0.01202114
000290 fb 94 2f bd 9b 98 86 bd 77 a7 aa bb 29 9b 8c 3d
       -0.04286669 -0.06572076 -0.0052079516 0.06865532
0002a0 c9 10 b4 bc 2b 26 09 bd c5 c9 2f bb 7d a5 0f 3d
       -0.02198066 -0.033483665 -0.0026823145 0.03506993
0002b0 c8 f0 b8 bc 60 e2 0b bd d5 bf 2f bb 51 01 13 3d
       -0.022575751 -0.034151435 -0.0026817222 0.035889927
0002c0 52 8d 32 bc 04 b7 88 bc 24 bf ae ba c7 f6 8e 3c
       -0.010897951 -0.016688831 -0.0013332111 0.017451657
0002d0 2a 74 c3 bc 25 5b 15 bd 37 7e 42 bb c7 83 1c 3d
       -0.023859102 -0.036463875 -0.002967728 0.03821161
0002e0 96 c3 f1 3b 05 56 32 3c 72 21 57 3a 2c 0e 3b bc
       0.007378052 0.0108847665 0.0008206583 -0.011416953
0002f0 03 57 27 3b 92 cd 7c 3b 10 87 a6 39 38 50 84 bb
       0.002553404 0.0038574678 0.00031762617 -0.004037883
000300 7d 56 2f bb 9b d2 7e bb 03 0d 9d b9 e7 78 86 3b
       -0.0026754432 -0.0038882855 -0.00029955068 0.004103768
000310 08 da 94 ba 62 48 e1 ba 8c 06 20 b9 b0 73 ee 3a
       -0.0011356482 -0.001718771 -0.00015261228 0.0018192437
000320 f7 83 bf 3c 1d 81 11 3d ef e6 36 3b 94 17 18 bd
       0.023378355 0.035523523 0.0027908643 -0.03713186
000330 ce 64 cb 3a a7 1a 11 3b e5 58 3a 39 5d d0 1a bb
       0.0015517713 0.002214113 0.00017771458 -0.002362273
000340 6d 8c 85 bc b3 90 cc bc 07 55 fd ba f7 fd d5 3c
       -0.016302312 -0.024971342 -0.0019327708 0.026122076
000350 fa ea 03 3a 10 cd 4b 3a 64 9f 69 38 38 75 57 ba
       0.00050322677 0.0007774392 5.5699973e-05 -0.0008219066
000360 51 4e aa 3c 73 2e ff 3c 50 7e 20 3b 58 a6 06 bd
       0.020789297 0.031150078 0.002448935 -0.03287348
000370 c5 e7 9e 3b 00 ab f6 3b 41 d9 0a 3a 29 a3 fc bb
       0.0048494064 0.007527709 0.00052966556 -0.00770988
000380 8f f1 1a bd 5c 51 6c bd 33 34 94 bb 20 32 77 3d
       -0.037828024 -0.057694778 -0.004522824 0.060350537
000390 27 ba c5 bc 59 06 17 bd 9d 54 3d bb 36 b3 1d 3d
       -0.024136616 -0.036871288 -0.0028889545 0.038500987
0003a0 f8 ec cd bc 2b e0 1c bd 59 0c 44 bb 18 4c 24 3d
       -0.02513741 -0.03829972 -0.0029914586 0.04011163
0003b0 ea ed b1 3c 8d cb 08 3d 57 ac 2a 3b 81 d8 0e bd
       0.021719892 0.033397246 0.0026042664 -0.034874443
0003c0 06 0f a8 3b 84 54 01 3c 74 da 1e 3a cb 75 07 bc
       0.005128744 0.007893685 0.0006059774 -0.00826783
0003d0 c1 d5 6e 3d 2e 17 b6 3d d0 34 e4 3b be 77 be bd
       0.05830932 0.0889114 0.0069643036 -0.09300183
0003e0 57 0e aa 3c 9e d8 03 3d 71 3f 26 3b 2b 7e 09 bd
       0.02075879 0.032189004 0.0025367404 -0.03356759
0003f0 9c 24 03 3c 48 49 46 3c 7f a9 80 3a 64 3c 50 bc
       0.008004334 0.012102433 0.0009816139 -0.012709711
