walkthroughs/tutorial_models/tutorial_results/ppo/seed222_Feb-03-22-21-39_v0.5.0-53-g59b8ae6/checkpoints/model_400000.pt (torch, 147498 bytes, 30 tensors)

actor.pi_net.fcs.0.weight f4 [64, 4]
00000000: b886 893e 0f62 abbe a4cf 8a3f 659f c7be
00000010: 5239 923e d4b0 d73e 706f a6be 45dd b53e
00000020: cfaf 5a3e ca54 86bc 76b1 9c3e 11c2 59be
00000030: 0030 c73e 8f21 a9be 1aae 1fbf 3f58 4abe
00000040: 24d1 34be 0aa5 973e eb16 c73f 5885 613f
00000050: dc13 da3e edae e5bb 7704 adbf b1a2 30bf
00000060: f2e0 ae3e ad9e e6bd 9694 cb3e 8aa0 65bd
00000070: a344 7e3d 0216 243e e477 1abf 0692 853e
00000080: a7f6 ccbe 955e 85be 99a6 47bf 20d1 f13e
00000090: 459f d93e 21c4 f5be feef 743f 803b b2be
000000a0: c7d4 4f3e d209 083d 249f 3a3f e57c 00ba
000000b0: 267d 7ebe 657e 7d3e c91d 4a3f 7c78 603e
000000c0: ab88 a2be 191a 88bb f1ce 5c3f 3e53 81bd
000000d0: 0b4a b6bd 532a 18bf e3aa 7abf f388 e0bb
000000e0: 74c4 98bc e5a9 4a3e 6524 96bf 7404 3abf
000000f0: c70b fcbe 142a d3be 5e73 703f 55a6 6a3e
00000100: 7704 b23e 16a7 b9be 1f3e 65bf 9175 bfbe
00000110: 7d33 1fbd bf93 4dbe 55c7 90bf 0701 37bf
00000120: 763b 87be b5d3 163e cdcd 41bf aead bd3e
00000130: fbf6 16be 6636 25bf 2934 87bf b78e c4bc
00000140: 7b63 08bd 9896 f23e 1653 7dbf b2b3 0c3f
00000150: 06c7 963e 1dee 243c 6b19 5fbe dc56 a43e
00000160: 7466 fdbd ae86 ed3e 31e5 cf3f a2cc 6d3f
00000170: 76ee a23e b053 a63e 297c 9f3f 5392 02be
00000180: 1691 aebe 7968 593e 07c6 923f 235d dfbc
00000190: 24f8 01bf b2d6 41be 3b6a cabe 4c6b aebd
000001a0: 0ffe 42be cf39 a73c 979e 7b3f 7861 aabe
000001b0: 7330 aabc b3f5 263e dff7 93bf 0216 d6be
000001c0: 1111 39bd acd7 033d ef13 263f 3fdd 9b3e
000001d0: 3918 4d3d c152 0ebe f339 afbf ec76 2bbf
000001e0: 9d8b c4be f455 943e d505 55bf 5d11 51bf
000001f0: 7924 b6bd 1e47 c2be f6d1 5d3f f02b 61be
00000200: 9772 f4be c1c8 b4bd e213 babf 18ce b2be
00000210: 7517 87be 7215 413c 7f86 21bf 347c 543e
00000220: abe3 f43e 357f 3d3f 2799 8d3f 91e4 aa3d
00000230: 723e 763e ddbf 0bbf 34dd fdbe f255 d8bd
00000240: c368 cabe 85a7 953e df4a b3be 4b32 503e
00000250: 0a9c d93b 405e 3c3f 21e9 9e3f 92ec 3a3e
00000260: e8f6 3abe f4d5 6e3d 8edd 2dbf 73ff d2be
00000270: 786d 8a3d 45b8 eebe 3ac7 1dbf 1111 94bd
00000280: e505 03be 8b80 c4be d5ae 7ebf cbdc 823b
00000290: 91ac 2cbe c24d f3bc 36c9 c2bf 2f03 16bf
000002a0: 0a33 a23e 537a 8ebe 20ac 8fbf 51f3 0fbf
000002b0: 483b 2e3c 081a b73e 2853 adbf 7712 dcbe
000002c0: 9f49 07bf 152d 59be 9a18 5dbf abb2 68be
000002d0: e309 f13c 598c a4be 01fa 9cbf a702 51bf
000002e0: fa2f 33be 7e93 0e3f abd6 8e3f cb31 8e3c
000002f0: 5715 cebe e745 623d be9a 403f a2cc 9e3d
00000300: 5fe3 83be 4288 373d 538e adbd 0cda 0cbe
00000310: f75e 523e 1cab 753e 161d c4be d75a e6be
00000320: 818e 9d3e 7df7 0c3f c0c2 a23f d023 1b3f
00000330: dae6 f13e 1c15 9fbe 10fa 573e 5be4 073f
00000340: 9a80 673e 1231 583d 8f73 73bf d855 9b3e
00000350: c233 afbe 0103 eabe d62a 853f 297d 02bf
00000360: 4eba 0f3f 361d 15be 7b77 c93f e826 2d3f
00000370: 1f9e db3e 24c0 41be 8ea8 563f 14cf 2ebe
00000380: c325 13bf d6ca 4ebe f102 a6bf 1c42 e0be
00000390: 5d56 84bb 9130 06bd c6be 96bf e7e4 42be
000003a0: 2a1d e4bc b0bb d0bd 2cf8 d0bf 48c1 08bf
000003b0: 547d 7b3e 75e1 043f 53e1 b63f 6abf 2d3f
000003c0: 35de 0f3e ab16 a63d ff9d fa3e ccb8 87be
000003d0: b745 e23e 0f34 c73c 94b3 b43f ffc1 bb3e
000003e0: 93b7 193e 30de 223f 6e35 ad3f 0643 073f
000003f0: 4101 c1be e202 0f3f dcfe 0e3f d5c5 ca3e
0.26860595 -0.3347325 1.0844617 -0.38988796 0.28559357 0.42127097 -0.32506895 0.35520378
0.21356128 -0.016397852 0.30604142 -0.21265437 0.3890381 -0.33033416 -0.6237503 -0.19760226
-0.17657906 0.29618102 1.5553869 0.8809409 0.42593277 -0.007009378 -1.3516988 -0.6899825
0.34155995 -0.11260734 0.397618 -0.056061305 0.062077176 0.1602402 -0.6033919 0.2608797
-0.4003193 -0.26048723 -0.7798858 0.47229862 0.42504326 -0.48001197 0.956787 -0.3481102
0.20296012 0.03321249 0.7289908 -0.0004901423 -0.24852428 0.24755247 0.789517 0.21920961
-0.31744894 -0.0041535017 0.8625327 -0.06314705 -0.08900841 -0.5943958 -0.97917 -0.006852263
-0.018648364 0.19791372 -1.1729857 -0.72663045 -0.49227735 -0.4124304 0.93926036 0.22915013
0.3476903 -0.3626029 -0.89547914 -0.37394384 -0.038867462 -0.20075892 -1.1310831 -0.7148594
-0.26412553 0.14729197 -0.7570465 0.3704657 -0.14742653 -0.6453613 -1.0562793 -0.023993833
-0.033297997 0.4738052 -0.98954904 0.54961693 0.29448718 0.010066536 -0.2178704 0.32097518
-0.12373057 0.46391815 1.6241819 0.9289037 0.31822556 0.32485723 1.2459766 -0.12751131
-0.34095067 0.2123126 1.1466683 -0.02726609 -0.5076926 -0.18929556 -0.39534172 -0.08516559
-0.19042228 0.020413307 0.98288864 -0.33277488 -0.020775056 0.16304664 -1.1560019 -0.41813666
-0.04518229 0.032188103 0.64874166 0.30442235 0.05007193 -0.13898756 -1.368956 -0.66978335
-0.38387766 0.28971827 -0.83212024 -0.8166712 -0.08893675 -0.37944883 0.866485 -0.21989417
-0.47743675 -0.08827353 -1.4537318 -0.34922862 -0.26385084 0.011784898 -0.6309585 0.20750505
0.47829947 0.7402223 1.1062363 0.08344377 0.24047258 -0.54589635 -0.49582827 -0.10563268
-0.39533052 0.2922937 -0.3501806 0.20331685 0.0066409158 0.73581314 1.2414895 0.18254307
-0.1825825 0.05830951 -0.6791619 -0.41210517 0.06759161 -0.46624961 -0.6163212 -0.07229818
-0.12795217 -0.3837932 -0.9948552 0.0039936057 -0.16862704 -0.029700164 -1.5217655 -0.5859861
0.31679565 -0.278277 -1.1224403 -0.56230646 0.010634251 0.35762048 -1.3541002 -0.42982838
-0.5284671 -0.21208604 -0.86365664 -0.22724406 0.02942366 -0.32138327 -1.2263795 -0.8164467
-0.1749877 0.55693805 1.1159261 0.017357728 -0.40250656 0.055242445 0.7523612 0.07753874
-0.25759408 0.04480768 -0.08474412 -0.13755053 0.20544039 0.23991054 -0.3830344 -0.4499118
0.30772784 0.5506514 1.2715683 0.6060152 0.47246438 -0.31070793 0.21091485 0.5308282
0.22607651 0.052781172 -0.95098203 0.3033893 -0.34219176 -0.45705417 1.0403697 -0.5097223
0.56143653 -0.14561924 1.5739588 0.6763749 0.42894074 -0.18920952 0.83850944 -0.17071182
-0.57479495 -0.20194563 -1.2969648 -0.43800437 -0.0040386156 -0.03276116 -1.177697 -0.19032632
-0.027845938 -0.101920485 -1.6325736 -0.53419924 0.24559528 0.5190652 1.4287513 0.678702
0.14049609 0.08109792 0.48948666 -0.26508176 0.44193813 0.024316816 1.4117303 0.36671445
0.15011434 0.6362028 1.353193 0.52836645 -0.3769627 0.55863774 0.55857635 0.3960406

actor.pi_net.fcs.0.bias f4 [64]
00000000: 97a9 c63e 23e7 bfbd d089 833e 9e09 933e
00000010: a10b 90be 4a9e dc3d 7b3f a6bd 97b0 c7be
00000020: 45d7 cebe 6ff9 fc3d 58cb 523e f491 0e3e
00000030: 93bd e8bd ae4c 9a3b 9ad5 843c fe93 da3e
00000040: 544d 7bbe ffe9 263e f198 d9be bdf7 603c
00000050: e27b 1bbe 0030 abbd 9575 f2bd 21fe 383e
00000060: 3163 5ebe 5023 08be 6488 2b3e d85e b13e
00000070: eee4 4cbe 7c44 5a3d 6f8b 1a3d c12f a7be
00000080: a0c9 31be ec1e b3bd 76e0 05be ed30 603d
00000090: 1373 18be c269 52bd c5f4 e9be 507b df3c
000000a0: f67f 32be c368 8fbd 6f61 c1bd 62b3 953d
000000b0: 59e5 a93d f839 1cbe d15d 9c3e 0760 933e
000000c0: 6eda 29bb b8a6 8cbe 5907 003e 40b4 123e
000000d0: 436d 0b3d 3a4a b6be 2efc 32be 3fa3 c43e
000000e0: 1105 d83c 2752 9abd fd04 fc3d ca40 33be
000000f0: 8cdd 99bc ff0e 063c d5e8 3cbe 9646 0b3e
0.38801262 -0.09370258 0.2569108 0.28718275 -0.28133872 0.10772379 -0.08117577 -0.39001915
-0.40398613 0.12352263 0.20585382 0.13922864 -0.113642834 0.004708848 0.016215134 0.42691034
-0.24541217 0.163002 -0.42499498 0.01373094 -0.15183976 -0.08358765 -0.11838833 0.18065692
-0.21717526 -0.1329472 0.16751248 0.34642673 -0.20009205 0.053287968 0.03773063 -0.3265362
-0.1736207 -0.08746132 -0.13073906 0.05473416 -0.14887647 -0.05137039 -0.45694557 0.02728048
-0.17431626 -0.070024036 -0.09442412 0.07309605 0.08295698 -0.15256488 0.30540326 0.287842
-0.0025917548 -0.27470946 0.12502803 0.14326572 0.034039747 -0.35603505 -0.17479011 0.38405797
0.026369603 -0.075352006 0.12305639 -0.17505184 -0.0187824 0.008182286 -0.18448193 0.13601145

actor.pi_net.fcs.1.weight f4 [64, 64]
00000000: 27ad 84bd 1352 ec3c 7e07 cbbd cd55 dc3c
00000010: 6258 0abe 6928 723d 0a40 de3d 2804 2a3d
00000020: 0c36 71bc 325b 88bd 3fc7 0ebe f3bd 183b
00000030: be95 cfbc b463 ea3d 879b 513e 1e47 543d
00000040: 3643 963c 41e8 9f3c c02e 1a3e cc5b 803e
00000050: f751 273b a332 933d 4f26 d3bd 0106 6bbd
00000060: 652e 89bd 6351 87bd e865 e53a a3dd f03d
00000070: 945e e5bd 8e47 103e 0888 c53d 1de8 bebd
00000080: f88c b83d f7bb 803c 8597 963c bc0d d5ba
00000090: 04cf d03d 70a3 26bd a970 dabc 4c54 65bd
000000a0: 51d6 df3c 815d 2c3e 7532 b43d c123 4f3e
000000b0: 9fc0 69bd 4c1a 843d 471f f0bd e3d1 933d
000000c0: 45c8 593d f6ec 75bd 1148 e4bd 5b2d 7ebd
000000d0: 353a 033e ff8a a0bd 6f37 4fb9 2389 77bc
000000e0: 95d4 303e ce9b 5f3e 17a4 653e c2cb 8bbd
000000f0: 8ed7 9f3d ec29 7fbe d578 c1bc 9bec 65bd
00000100: 4b96 953c f407 dc3a a7e3 dcbd 5b82 b03d
00000110: 0726 cc3d 5121 a0be 97a1 b63d 3677 de3c
00000120: 34f6 b0bc 0376 34be d033 9a3d 78b9 2a3e
00000130: f3ad 68bd 7bfc ecbe 85c4 16bf d235 173c
00000140: 8078 2dbe e54f 95be 66d1 73bd 3940 a3be
00000150: 9c9b 3a3d a2ce 40bd aa5c 063f 6848 763e
00000160: 90c7 fa3d 5fe3 25be 938b cbbd cb31 f8bc
00000170: c1d5 e4bc fbd9 27bf 9dc5 cabe 7348 fdbd
00000180: c9f6 69be e72a 4dbd 9afc 903e 6b8a b4bd
00000190: 3fb0 a73d bc1f db3e ab23 903d 3049 87be
000001a0: 09a5 90bd df7a 1bbf 57b5 74be 5f78 b6be
000001b0: 104c 93be ac7d f1be cfe0 043e 4bf9 3a3e
000001c0: 955c 033d e526 b7bd 0d17 983e 63a1 213c
000001d0: cda2 6ebd 5580 d53c 278e b13e 68a5 3e3d
000001e0: 8402 0ebf 8e3f afbe 7b92 afbe 7f19 ba3e
000001f0: c81c 2fbb 50aa 343f 689a b93e 400d d83d
00000200: bd12 e9bd d7bb f8bd 8bdd f23d 6406 58bc
00000210: 6956 69be 28ac 953e d9f6 c53d 79d8 b53d
00000220: 18f0 ea3b 7a4d aabd 6efd 0a3d e050 a43c
00000230: 2a32 9cbd 5fb1 e13e 025b a43e 73b8 87bc
00000240: 1f6a 853d 7092 763e 7c46 f33d 152b 733e
00000250: b699 c8bd 6d0f b7bd 756d e3be 9f04 69be
00000260: 2834 1dbe 8c0b 993d c72c 26be 9a30 213e
00000270: 1d7e 09be 6f40 933e 99b0 663e df9e a33b
00000280: e03c 3f3e 9acd f93c c50f 17be 471c 0f3e
00000290: 7ae4 c8bd 3108 38be 9035 d13d 16dd a23d
000002a0: c8a6 243d 9e97 0a3f 6e17 7d3e d83e 403e
000002b0: 6328 213e 4712 933e 218c b7bd 83ba 8a3d
000002c0: 72ee 953c f32f a03c a1b1 81be 4f89 80bd
000002d0: cf1e 313c 0bcb f13c e9aa 91be 69be e8bd
000002e0: cde1 783e 3d12 443e d9e0 813e 2c32 88be
000002f0: de39 ad3d 3be8 04bf d47f 77be 6971 74be
00000300: c63b 933d 52b1 b1bc a57f d53d 4da2 9dbd
00000310: 56f1 2e3e 0ed3 10be 5198 773d 1104 05be
00000320: 57cf fdbd d176 933d 500f 3dbd 35f9 e33d
00000330: 73a8 023e 6465 483c b076 4abe 9d0e a53d
00000340: c818 ccbd 9ddd c83c c409 94bd 98b9 33be
00000350: 604c 28be 7536 00be 603b a23e 6556 503d
00000360: af53 973d 2bfc 653d 5429 653d bd42 e7bc
00000370: d1ad 253d c85a 8abe bf0e d3bc b2e8 5bbc
00000380: 70a1 56bc b81e 9b3d 9cf9 09bc 27ae ce3d
00000390: 8a5e 82bc b524 3b3e 8f9b c7bc ab08 a13d
000003a0: 9980 85bd a83a 9ebe 1ca5 92bd 722b d6bd
000003b0: b1c3 d3bc 78b1 a2bd 3d2d 363c 1973 803d
000003c0: 49ed ea3d 2ae1 043e b6d1 533e 48b6 dcbd
000003d0: 26f4 19be 5ce8 893d 3e86 c73d fcc8 393d
000003e0: eb8f 41be ab7a 46be 6128 b6bd dcc5 643e
000003f0: 141a e03d 52b9 4a3e 4677 d23d e8ab cabd
-0.06478339 0.02884773 -0.099135384 0.026896382 -0.13510278 0.05912057 0.10852058 0.04150787
-0.014722358 -0.06658019 -0.13943194 0.0023306578 -0.025339957 0.11444798 0.20469485 0.051825635
0.018342596 0.019519927 0.15056896 0.25070035 0.0025531033 0.071873926 -0.10310041 -0.057378773
-0.06698302 -0.0660732 0.0017501684 0.11761024 -0.1119968 0.14089796 0.096450865 -0.09321616
0.09011263 0.015714629 0.018382797 -0.0016254704 0.10195735 -0.04068321 -0.026665049 -0.055988595
0.027323874 0.16832544 0.087986864 0.20228483 -0.057068463 0.06450328 -0.11724716 0.07217767
0.053169508 -0.060040437 -0.11146558 -0.062054973 0.12815173 -0.078390114 -0.00019761709 -0.01510838
0.17268594 0.21836779 0.22425877 -0.06825973 0.07804786 -0.24918336 -0.023617188 -0.056133848
0.018260142 0.0016787038 -0.10785609 0.08618613 0.09968191 -0.31275418 0.089175396 0.027156454
-0.021601774 -0.17623143 0.07529414 0.16672313 -0.056806516 -0.46286377 -0.58893615 0.00922914
-0.16940498 -0.29162517 -0.05952587 -0.31884935 0.045558557 -0.04707206 0.52485144 0.24051058
0.12245095 -0.16200016 -0.09938731 -0.03029718 -0.027933957 -0.65566987 -0.39603892 -0.12367334
-0.22848047 -0.050089743 0.2831772 -0.08815464 0.08187913 0.4279765 0.07038053 -0.26423025
-0.07062728 -0.6073436 -0.238973 -0.3563871 -0.2876897 -0.47166193 0.12976383 0.1825916
0.032070715 -0.089429654 0.29705086 0.009865138 -0.058260728 0.02606217 0.34678766 0.046544462
-0.5547259 -0.34228176 -0.34291443 0.36347577 -0.0026720036 0.70572376 0.36250615 0.10549402
-0.11380527 -0.121452026 0.11858662 -0.013185117 -0.22786869 0.29232907 0.09666223 0.088791795
0.0071697347 -0.08315559 0.033933096 0.020058095 -0.076267555 0.44080636 0.32100683 -0.016567444
0.065143816 0.24079299 0.11878678 0.23746903 -0.09794943 -0.08938489 -0.44419447 -0.22755669
-0.15351927 0.074729055 -0.16228019 0.15741196 -0.13427015 0.28760096 0.22528304 0.004993304
0.18675566 0.030493546 -0.1475211 0.1397563 -0.098092034 -0.17971875 0.10215294 0.07952325
0.040198117 0.541376 0.24715969 0.18773973 0.15738063 0.28724882 -0.08962274 0.067738555
0.018302176 0.019554114 -0.25330833 -0.062761895 0.010810568 0.029515764 -0.28450707 -0.11364443
0.24304886 0.19147582 0.25366858 -0.26600778 0.08458303 -0.51916856 -0.24169856 -0.23871388
0.07189135 -0.021690998 0.10424737 -0.07696972 0.1708425 -0.14143011 0.060447995 -0.12989832
-0.123930626 0.07200397 -0.04615718 0.11131517 0.12759571 0.012231205 -0.19771838 0.08059428
-0.09965664 0.024519736 -0.07228425 -0.17551267 -0.16435385 -0.12520774 0.31685925 0.050863642
0.07389008 0.05614869 0.055947617 -0.028230065 0.040448967 -0.27022386 -0.025763867 -0.013422178
-0.013100013 0.075742185 -0.008421328 0.10091811 -0.01591422 0.18275721 -0.024366168 0.078629814
-0.06518669 -0.30904126 -0.07160398 -0.10457505 -0.025850149 -0.07944006 0.011119184 0.06271953
0.1147104 0.12976518 0.20685467 -0.10776955 -0.15034541 0.06733772 0.097424015 0.04535769
-0.18902557 -0.19382732 -0.088944204 0.22341102 0.10942474 0.19797257 0.10276656 -0.0989607

actor.pi_net.fcs.1.bias f4 [64]
00000000: 26b4 503c 99bd cf3d c6bc e4bd cec6 053c
00000010: 00cd 3fbc 455a 32bd 517c bfbb 7460 de3d
00000020: eca0 fc3d b2f5 b83c 4a3a 9fbd 5da7 773d
00000030: 3705 c53d fbb6 d2bd f776 debc 08d5 f3bd
00000040: 6414 cebc cd77 c1bd 4470 87bd b264 4fbc
00000050: e5b9 a23d 651f bb3d 0f00 18bd fdbc 89bc
00000060: 7053 34bd 19c4 e33c 71b2 cbbc f870 31bd
00000070: 2fb2 b8bd c1ff da3c 2f32 383c 10ef a0bd
00000080: 7b9c 9fbd 4ecc d13d bb95 8abd fbfe 94bd
00000090: 1b06 7cbd 4444 133d 5278 6bbd f813 83bd
000000a0: 17b2 4fbd feb7 3dbd 07ce 873d c2db 8f3d
000000b0: fbef 21bd 50d7 853d 2be0 b5bb 0b67 8c3d
000000c0: e037 64bd eef1 d23d 7d61 db3c 273c 84bd
000000d0: bc7c 39bd 2f5f 10bd df72 89bd fb5a 143c
000000e0: 919f 93bc dec7 a1bd 0601 7e3d ec8b c8bc
000000f0: 7dcb 813d 62ad 8f3d 17b0 d33c 19ca 87bd
0.012738263 0.10143585 -0.11168818 0.0081650745 -0.011706591 -0.04354312 -0.005843677 0.10858241
0.12335381 0.022578094 -0.0777479 0.060462344 0.09620135 -0.10288807 -0.027156336 -0.11905867
-0.025156207 -0.09446678 -0.0661321 -0.012658285 0.07945613 0.091368474 -0.03710943 -0.01681375
-0.044024885 0.027803468 -0.02486536 -0.043320626 -0.09018361 0.026733281 0.011242433 -0.078580976
-0.07793518 0.10244046 -0.0676684 -0.07275196 -0.06152926 0.035953775 -0.057487793 -0.06400293
-0.05070695 -0.046318047 0.066310935 0.07024337 -0.039535504 0.06535208 -0.0055504045 0.068555914
-0.05571735 0.10300051 0.026779884 -0.06456786 -0.04528497 -0.035247024 -0.06711363 0.009054895
-0.018020423 -0.0789945 0.062012695 -0.024480782 0.063376404 0.07015492 0.025840802 -0.06630344

actor.pi_net.fcs.2.weight f4 [1, 64]
00000000: 880d 9dbd ef29 263f d725 07bf ff9e f83e
00000010: 2422 dcbe 8b71 42be 619f c2bd c985 b03d
00000020: f207 ca3d 0d45 403e 6ee1 f8bd 1c47 6cbe
00000030: 2077 80be 88f4 07bf a612 6b3e 9bbd 98bd
00000040: 1981 8ebe b453 54be 1ed8 c93e 7a94 f0be
00000050: 9e36 853d c7c6 87be eeeb 473e fff7 3abe
00000060: 5680 11bf 20f8 c93d dc41 e43d 1a46 8d3e
00000070: 87ee e83e 6123 7c3e 5b27 a93d 3e79 fa3e
00000080: 42b3 e9bd d3a0 a5be d9b1 37be b4b6 823e
00000090: 9600 a6bd c93b e7bd 3acc 62bc 07f5 a73d
000000a0: abfa e9be 677a e53d 9712 bfbe ffe3 863e
000000b0: c717 7a3d 39c5 c23d d704 a4be 6d4b 003f
000000c0: 1913 623e daf1 953e f1c1 0abe b50f dc3d
000000d0: b6aa 233e a66e 153f c23f 86bd 074c e43e
000000e0: 884b 18bf 93bc 9ebb aafa 69be 0920 593c
000000f0: 9e23 693e 187a ba3e 9c7d af3e b7cc 2a3c
-0.076685965 0.64907736 -0.52792114 0.48558804 -0.42994797 -0.18988626 -0.09503055 0.086192675
0.09864797 0.18776341 -0.12152372 -0.23074001 -0.25090885 -0.531075 0.22956333 -0.074580394
-0.2783287 -0.20735055 0.39422697 -0.4698828 0.06504558 -0.26518843 0.19523594 -0.18258666
-0.5683645 0.09861779 0.11145374 0.27592546 0.45494482 0.24622871 0.082594596 0.48920625
-0.11411144 -0.32349262 -0.17938937 0.25530016 -0.081055805 -0.112907 -0.013842637 0.08201032
-0.45699057 0.11204987 -0.3731887 0.26345822 0.061057832 0.095102735 -0.32034943 0.5011509
0.22077598 0.2928608 -0.13550545 0.107451834 0.1598309 0.5837196 -0.065551296 0.44589254
-0.5949025 -0.004844257 -0.22849527 0.013252267 0.22767493 0.36421275 0.3427552 0.010424784

critic.v_net.fcs.0.weight f4 [64, 4]
00000000: 1f4a 38bb 951c 253d 8f8e 08c0 e26b 2d3c
00000010: a717 0c3f 5fd7 d0be 9870 b6bf 3417 34be
00000020: e2d2 84bf 5e13 3ebf c24f 94bf 539e 9cbd
00000030: 1d01 80be f62a 8fbe c66d 28c0 6f33 c4be
00000040: 8356 c7be 00c0 21be 4d4f 2ec0 2567 afbe
00000050: a781 c5be 7a26 96bf 4bd2 99bf 8429 04be
00000060: 9a08 cb3e 634e 543f c244 f33f 26fd 0a3f
00000070: 9e34 39be ea64 763e d147 1340 1146 0c3f
00000080: df13 6a3f 0bae 133e 23d1 0f40 7ad5 e83e
00000090: 98eb ccbe 4a38 27bf 1b0e 08c0 a472 bdbe
000000a0: f0ad 0c3e 2536 3a3f 639e 0840 e498 c9bd
000000b0: bae3 26bf b88f dfbe 784b 0740 6605 11bd
000000c0: 8a5a 293f ab3c d33d a3fe 2940 a70e 163f
000000d0: 1cdb c43e e2c7 753e 2887 3c40 b48e ea3e
000000e0: 0a05 7c3d 2c3e 0b3f 182c 2ac0 160f 4c3f
000000f0: 92ad 4b3f bae8 8bbe 27ef b0bf a81b 95be
00000100: 04d9 bebe 5fed c93e 0ba2 c2bf aea4 223e
00000110: b926 89bf fbe1 7ebe 679e fe3f 3cc6 cfbd
00000120: b093 1ebf 07b6 1cbf 8169 22bf fc5b 0cbf
00000130: daae 4e3f 65b8 193f 6074 4b3f 4d32 013f
00000140: 66b5 5abe 0787 18be 591d f93f 6473 133f
00000150: 8af7 ec3c 2ab0 62be 11af e4bf e342 1cbf
00000160: 427a 12bf c1ed dcbd 7de3 d93f 7a70 a73e
00000170: 22e2 9bbf e77c 5fbe 9540 1340 b681 14be
00000180: 6ac2 093f 7a5f 693f d8f8 e73f f64d 2f3e
00000190: 2756 233f 635e 533f 25b0 bc3f ff44 27bd
000001a0: dd0f f5be 741f 30bf 5919 0fc0 744e 28bf
000001b0: 2d61 43bf 03bd 43bf 7e59 99bf 9453 33bf
000001c0: 0c53 fe3e 019a 333e 5172 0940 33ca cc3d
000001d0: f245 0dbe 52b2 89be 34fb f23f 23a2 ef3e
000001e0: eca1 483f f959 2ebf 6209 c4bf 099f 67be
000001f0: 85b7 52bf b468 24bf 7caa 74bf 9a92 08bf
00000200: 3426 123f 44a5 183f 3def 0840 b5f2 063f
00000210: 0905 12bf e723 d1be bce0 1fc0 f326 5cbe
00000220: 8df3 8cbf bd81 1fbe afc0 1c40 a3e5 523d
00000230: 5e77 17bf 6960 afbe 9a4a 18c0 a0f7 1dbf
00000240: 1d05 f33e 8737 573f ec64 0f40 c0d6 ee3e
00000250: 5124 b6be 8f41 92bf 6325 ebbf 22e8 c9bd
00000260: cd54 04be d77c e4be 924e 32c0 bc38 25bf
00000270: 8228 76bf 77be 8f3d cc34 0b40 3b3f b83e
00000280: be49 58bf 5997 fcbe 3437 bfbf 34f7 7ebe
00000290: 5f72 87bf 9c08 36bf d64e eebf d15a bbbe
000002a0: 4292 fa3e 8d20 7d3f 22c1 513f c302 0a3f
000002b0: 33f8 c63e 57d5 0a3f 1468 da3f 3e5e 9e3e
000002c0: fe3b 75bf d7f5 0dbf 9b86 c63f 7788 3b3f
000002d0: 9cf7 27bf 760c 39bf 3efa bcbf 0fc4 32bf
000002e0: efdc ab3f 7c26 33be 293d cdbf e44e 04be
000002f0: 8ae7 9ebf 918f d0bd c6bf 9b3f 8fb8 9c3c
00000300: 39c6 b03e d7a7 293e cb20 0340 e768 c7bd
00000310: 7141 14bf 3918 afbe d4fc 2cc0 2056 5ebe
00000320: 7043 39be e546 1abf e804 9fbe 6c63 dcbe
00000330: 890d d13e 5527 623e 65de e7bf 5839 0ebe
00000340: 7075 afbd 4a31 00bf 45ee 09c0 1a0d febe
00000350: 3884 db3e 19d7 363d b046 4540 f7d2 283e
00000360: 2678 8ebf ad00 553f 21af f03f db43 153f
00000370: 98bd 0d3f 2a2e d43e 2f5d 0140 b047 543f
00000380: 1eb5 11be 74ef fe3e 8b95 c03f 2118 7a3e
00000390: 1c68 463f 5812 bb3e 3baf 3340 ceb8 313f
000003a0: 001b c4be 4e0d 78bf 82fe 00c0 542b 04bf
000003b0: 5d8f 963e f8f3 01bf c369 e2bf 6d01 acbe
000003c0: 1ad2 663e b6da 7d3e 8189 c43f 3fd7 a6bd
000003d0: 3b8e 22bf f5d0 ccbe 675e 09c0 4754 5bbe
000003e0: 83f9 303f 425d 813c d6a3 46bf 479c 26bf
000003f0: f4da 403f 314b 163f d6e1 e73f b0af 243f
-0.0028120351 0.04031046 -2.133701 0.010584803 0.5472359 -0.40789315 -1.4253111 -0.17586976
-1.0376856 -0.742483 -1.158684 -0.076473854 -0.2500085 -0.27962464 -2.6317 -0.3832049
-0.3893319 -0.15795898 -2.7235901 -0.3425838 -0.3857548 -1.1730492 -1.2017301 -0.12906462
0.39655 0.8293211 1.9005358 0.54292524 -0.18086478 0.24061933 2.3012583 0.5479441
0.9143657 0.14421861 2.2471397 0.4547537 -0.40023494 -0.65320265 -2.125861 -0.37001526
0.13738227 0.7273887 2.1346672 -0.09843615 -0.65191233 -0.43664336 2.1139812 -0.03540554
0.66153777 0.10314306 2.6561668 0.5861611 0.38448417 0.2400203 2.9457493 0.45812
0.061528243 0.5439174 -2.6589413 0.7971052 0.7956172 -0.27325994 -1.3822984 -0.29122663
-0.37274945 0.39438912 -1.5205702 0.15883133 -1.0714942 -0.24890892 1.989209 -0.10145232
-0.61944103 -0.6121525 -0.63442236 -0.54827857 0.8073555 0.6004699 0.7947445 0.5046738
-0.2135826 -0.14895259 1.9462081 0.5759795 0.02892663 -0.22137514 -1.7865926 -0.6103956
-0.572178 -0.107875355 1.7022549 0.32703 -1.2178385 -0.2182499 2.3008168 -0.14502606
0.5381228 0.9116131 1.8122816 0.17119583 0.63803333 0.825659 1.4741255 -0.040837284
-0.47863665 -0.68797994 -2.235922 -0.6574471 -0.76320153 -0.76460284 -1.1980436 -0.70049405
0.49672735 0.17539217 2.1476023 0.09999504 -0.13796213 -0.2689386 1.8982911 0.46803388
0.78372073 -0.6810604 -1.5315363 -0.22619261 -0.8231128 -0.64222264 -0.9557264 -0.53348696
0.57089543 0.59627175 2.139602 0.5271409 -0.57038933 -0.40847704 -2.4980917 -0.21499233
-1.1011826 -0.15576835 2.4492605 0.05148853 -0.59166515 -0.34253243 -2.3795533 -0.6170597
0.4746484 0.84069103 2.2405348 0.46648216 -0.35574582 -1.1426257 -1.8370785 -0.09858729
-0.12922974 -0.44626495 -2.7860456 -0.64539695 -0.9615556 0.0701875 2.1750975 0.3598574
-0.8448752 -0.4933422 -1.4938722 -0.24898988 -1.0581778 -0.71106887 -1.8617809 -0.36592725
0.4893971 0.98877794 0.8193532 0.53910464 0.38861236 0.5423178 1.7063012 0.30931276
-0.95794666 -0.55453247 1.5509828 0.73255104 -0.65612197 -0.7228464 -1.4763868 -0.6983041
1.3426799 -0.1749515 -1.603429 -0.1292072 -1.241441 -0.10183633 1.21679 0.019130973
0.34526232 0.16567932 2.0488765 -0.097368054 -0.57912356 -0.34198168 -2.7029314 -0.21712542
-0.18092132 -0.60264426 -0.3105843 -0.43044603 0.4083064 0.22085316 -1.8114744 -0.13889062
-0.08567321 -0.5007521 -2.1551678 -0.4961937 0.42874312 0.044638727 3.0824394 0.16486727
-1.1130416 0.83204156 1.8803445 0.58306664 0.5536742 0.4144147 2.0213125 0.82921886
-0.14229247 0.49792063 1.5045637 0.24423267 0.7750261 0.36537433 2.8075702 0.69422615
-0.3830185 -0.968953 -2.015534 -0.51628613 0.29406253 -0.5076289 -1.7688526 -0.33594838
0.22541085 0.24790463 1.5354463 -0.08146524 -0.63498276 -0.40003172 -2.1463869 -0.21418868
0.69130725 0.01579154 -0.77593744 -0.6508221 0.75334096 0.58708483 1.8115795 0.6433058

critic.v_net.fcs.0.bias f4 [64]
00000000: 1b25 84be 369b b13e 6771 d93e f648 43be
00000010: 88f1 2f3e 8891 103f 3c8e 8d3e 1438 233e
00000020: ab65 e83e a503 5a3e e519 793e 9bc9 51be
00000030: 7f58 823e 929f 483e ad8b a03e 7b8a 473e
00000040: e07b e63e 5a0f b83e 4e30 053f cc66 fd3e
00000050: 2b34 433e 78e7 ccbe cb07 dc3e e602 8ebe
00000060: 81c7 a5be b3f8 c73e 9947 c53e 5d0a 01bf
00000070: 6a9e abbe 110a a4be 6f94 4b3e 8be8 ffbe
00000080: 391b e3be 0a47 9e3e 49aa b3be c005 f13e
00000090: e8ee d8be 5b99 7e3e 658e 2cbe 06ab a7be
000000a0: b8c7 d7be 6616 0bbf 4c25 0b3f d5cc ab3e
000000b0: 79ba ca3e 5343 25be 49a7 6d3e 7bae 54be
000000c0: f8af 67be e461 2bbe d4fd ae3e a26e 5fbe
000000d0: 3ef6 e13e 001e 38be c548 b0be 5f91 4abe
000000e0: 63d3 8abe a420 553d 1c9a 7c3e 6e89 92be
000000f0: 5b30 c53e b082 9d3e 01e8 fdbe 81b5 0e3e
-0.2580956 0.3468873 0.42469332 -0.19070801 0.1718198 0.56472063 0.2764758 0.15939361
0.45390067 0.21290453 0.24326284 -0.20487063 0.25458142 0.19592121 0.31356564 0.1948642
0.45016384 0.35949212 0.5202683 0.4949249 0.19062869 -0.40020347 0.42974696 -0.27736586
-0.32378772 0.3905693 0.38531187 -0.5040644 -0.33519298 -0.3203893 0.19880842 -0.49982104
-0.44356707 0.30913574 -0.35090855 0.470747 -0.4236977 0.24863188 -0.16851194 -0.32747668
-0.4214456 -0.5433105 0.54353786 0.33554712 0.39595392 -0.16138963 0.23208345 -0.20769684
-0.2262572 -0.16736561 0.3417803 -0.21819547 0.4413318 -0.17980194 -0.3443052 -0.19782017
-0.271144 0.05203308 0.24668163 -0.28620476 0.38513455 0.3076377 -0.49591067 0.13936426

critic.v_net.fcs.1.weight f4 [64, 64]
00000000: f952 473e e178 b93e 8c0a 053e 2043 ec3e
00000010: 9de0 df3d faa9 9f3e df8f 56bf d686 47bf
00000020: fbe9 26be 3a8e 253f c3fa 48bf 5534 093e
00000030: 1d7d a1be 3cf0 32be 36ae 1bbe a355 0e3f
00000040: b25c 8b3d e659 cdbe 95ac 4d3e de56 9ebe
00000050: 0912 05be 40a7 d03e 7571 6dbe 8948 29be
00000060: db27 d0be 7b56 fabe 76a7 223e 0d5f d13e
00000070: b3c6 f7bb ca04 1ebe bc5f 313f 5e5a 323e
00000080: 05e0 02be d7cc 933e 8594 ae3d d2cf 373d
00000090: fa10 c4be 5002 513f d20f d73e f364 09be
000000a0: 312a 293e d7d5 0c3f 8deb 10bf 2253 e2be
000000b0: 92bc c4be c379 593f 032b 7f3e 241e a9bd
000000c0: 7ef6 08be eeee 393f 31e7 2a3e c143 c63e
000000d0: 131c c03d 1403 63be b7ec a3be 455b a9be
000000e0: 1db3 42be 641e b4be e341 393f 7629 443f
000000f0: d5bc a0bd e178 ae3e 546f f43d 7505 64bf
00000100: 52fa 77be e68b c83e 86b3 883f 5542 2c3e
00000110: 9782 4b3f 7b01 2b3f 9716 49bd 1fdf 5dbe
00000120: e4c4 8e3d 9377 943f 8de7 b3bb 4c62 38be
00000130: be8a e0bd fbb3 f2bd 1b53 f93e 4f40 b63e
00000140: 0b99 e73e 8677 bb3e b977 0c3f f7bf 3d3e
00000150: eee9 043d c2c8 6dbd 307b 0b3e a72e 74be
00000160: 465e 91bf bfdd 453e 5fd7 3d3f 89af 23be
00000170: 3a29 06bf 5c57 f5be f274 e23e 0847 ffbd
00000180: 2696 33bf 2fd0 9f3f a668 59be a7eb 253f
00000190: 25d3 8abf 6818 773f 8ca1 aa3d 8907 93be
000001a0: bbd1 94be e3db 36bd abc9 753e 1c7d 193e
000001b0: 652a 983e b58b ad3e 3e39 023e 0be7 71be
000001c0: 25d5 2fbf 59f0 863e a2b6 b33e c0b0 dcbb
000001d0: d07c 183f 12f1 97bf 1b6d f2be 4bcb 84bf
000001e0: d6f8 c3be 7118 07bf 609b 853f cd84 28bd
000001f0: 9ca4 8f3e ea17 7c3f 8a5c acbe 8f07 c5be
00000200: 6418 113e 3dd1 e7be e765 7cbf 233b 11be
00000210: 8ec9 49bf 4659 4abf 90bf 1e3c 4fdb ee3d
00000220: e008 75be 0edb a6bf 9336 c23d c2f0 793e
00000230: ddb1 103d 3284 9dbd 5e0e a6be 556b 7dbe
00000240: 7aa6 e5be 832a e5be 5517 2ebf 7131 a2bd
00000250: 9d84 97bc 94d6 953d f992 62be 571a 4a3c
00000260: 975a bb3f 6de6 8a3c c462 5dbf 5030 323e
00000270: bf7a 243f 2131 9a3e 4b09 f8be b9aa 1f3e
00000280: bdbc 383f a7ee a5bf 7aa2 e23d d84e 2ebf
00000290: 7d76 983f e2f7 97bf abbc 43be 0c29 a33e
000002a0: 94bb b43c 6852 4f3e f19a febd 202b 53bd
000002b0: 797f ccbe 15c4 76be e31a 83bd bd14 783d
000002c0: fe61 2e3f 4f30 b4be 1aa3 0cbf 4e5b 5c3e
000002d0: 8e05 04bf e63c 893f d14d ac3e 15fc 8b3f
000002e0: 483a f63e ba65 bb3e 207a 9bbf 64c0 ba3d
000002f0: 2c8d bcbd 4b28 9dbf 9894 993e eefc a53e
00000300: 8ddc e33d d93a 3c3e ea38 97bd af81 8e3e
00000310: 2b0e 803f 62dc cdbd 055b 343e 9ad4 06bf
00000320: f610 68bd 2db4 823e 8f3b 0a3e 3dd5 63bf
00000330: 4aac 52be 1966 4abe fba0 543f b316 2e3f
00000340: 0dcf c03e 0151 e5be 356e bf3d db71 9f3e
00000350: da5a f1be 98cc 9b3d 9777 1abe 913a 9dbf
00000360: bb41 333e c054 c33e 5af3 823d 6317 15be
00000370: ada3 8cbe 54a9 19bf b705 033c 4d05 91be
00000380: 3e94 efbd 4dbb 8c3e 3d38 75bf 581f ca3e
00000390: 7a75 5abd a0d0 83be 40b3 f83d 9271 24bf
000003a0: 740d 8abe 8313 adbe 9425 4f3e 0a84 4f3e
000003b0: 0520 28bf 4637 60be f6d7 473f 0041 b5be
000003c0: 615d ebbe 71d3 793e a35e 84bc 00d4 b53e
000003d0: 2c0d bb3e b6f2 9cbf 7844 0bbd 0efe adbe
000003e0: c7ca 353d 715a c9be 2f47 103b 5495 9abd
000003f0: 7fe0 f63d 6a42 743e b781 993c 65d6 203e
0.19465245 0.36225036 0.12992305 0.46144962 0.109315135 0.3118437 -0.8381328 -0.7794012
-0.16300194 0.64670146 -0.7850763 0.1339887 -0.31540766 -0.17474455 -0.15203175 0.5559942
0.068047896 -0.4010765 0.20085366 -0.3092565 -0.12995161 0.40752602 -0.23187812 -0.16531576
-0.40655407 -0.48894104 0.15884194 0.4089283 -0.0075615286 -0.15431514 0.69286704 0.17417285
-0.12780769 0.28867218 0.085244216 0.044875927 -0.38294202 0.81644154 0.42004257 -0.13417415
0.16520001 0.55013794 -0.5660942 -0.4420405 -0.38425118 0.8495142 0.24918751 -0.08257702
-0.1337528 0.726302 0.16689755 0.38723567 0.09380355 -0.22169143 -0.32016537 -0.33077446
-0.19013639 -0.35179436 0.7236616 0.76625764 -0.07848517 0.34076598 0.11935297 -0.89070827
-0.24216583 0.39169234 1.0679786 0.16822179 0.7949614 0.66799134 -0.04909381 -0.21667145
0.06971148 1.1598991 -0.0054902495 -0.18006247 -0.10963963 -0.11850735 0.48696217 0.3559594
0.4523395 0.36614627 0.5487018 0.1853026 0.032449655 -0.058052786 0.13621211 -0.23845921
-1.1356895 0.1932287 0.74156755 -0.1598493 -0.52406657 -0.47918212 0.44229847 -0.1246472
-0.70150983 1.2485408 -0.21231326 0.648127 -1.0845686 0.96521616 0.08331594 -0.28716686
-0.29066262 -0.044643294 0.24002711 0.14989132 0.29719844 0.3389565 0.12717149 -0.23623292
-0.6868461 0.26355246 0.35100275 -0.0067349374 0.5956545 -1.1870444 -0.47348866 -1.037454
-0.38275784 -0.5277167 1.0438042 -0.041142274 0.28055274 0.9847399 -0.33664352 -0.3848233
0.1416946 -0.45276824 -0.9859299 -0.14182715 -0.78823173 -0.7904247 0.009689227 0.116629235
-0.23929167 -1.30356 0.094830655 0.24408248 0.035325874 -0.0769123 -0.32432836 -0.24747975
-0.44853574 -0.44758996 -0.6800435 -0.079195864 -0.018495852 0.07316318 -0.22126378 0.0123353815
1.4637021 0.016955579 -0.8647883 0.17401242 0.64249796 0.30115607 -0.4844459 0.1559247
0.7216299 -1.2963456 0.11066146 -0.68089056 1.191116 -1.1872523 -0.1911494 0.31867254
0.0220621 0.20246279 -0.124318965 -0.0515548 -0.39941004 -0.24098237 -0.064016126 0.060566653
0.68118274 -0.35193107 -0.54936373 0.21519205 -0.51570976 1.072171 0.3365312 1.0936304
0.4809134 0.3660105 -1.2146645 0.09118727 -0.09206614 -1.2277921 0.2999618 0.32419533
0.11126051 0.18381824 -0.07383902 0.27833316 1.0004324 -0.100518 0.17612846 -0.52668154
-0.0566568 0.25528088 0.13499282 -0.8899725 -0.20573536 -0.1976551 0.83058137 0.68003386
0.37657967 -0.44788364 0.09347192 0.31141552 -0.47139627 0.076073825 -0.15084682 -1.2283498
0.17505543 0.38150597 0.06394072 -0.14559703 -0.27468625 -0.60024 0.007996968 -0.28324357
-0.11698197 0.2748665 -0.9578894 0.39477038 -0.05333469 -0.25745106 0.12143564 -0.64235795
-0.2696339 -0.3380395 0.20229179 0.20265213 -0.6567386 -0.21896085 0.78063905 -0.35401154
-0.4596968 0.24397065 -0.016158408 0.35513306 0.36533487 -1.226157 -0.034000844 -0.3398289
0.044382837 -0.39326814 0.0022015085 -0.07548013 0.12054538 0.2385346 0.01873861 0.15706785

critic.v_net.fcs.1.bias f4 [64]
00000000: 0dbc 6fbd 5628 b43e bcc6 90be cf8d bb3d
00000010: ea14 00bf a338 eb3e f167 9ebe 0e9d eb3e
00000020: 5831 8ebe 9c6e 7f3e 67f3 cbbe 9da9 33be
00000030: 259d f7be 81f3 96be b9ab 8f3e 8f24 92be
00000040: b8ff ac3e e09a 43be d89b 8b3e 46e8 65be
00000050: 85aa b6be d34d d43e 0583 a93e 41dd d33e
00000060: 3e61 90be 6ee1 f43e c816 95be 8796 d93e
00000070: ecf3 953e 1a0c a1be 0298 e03e c84f 573d
00000080: 299f bfbe 757a e5bd 5706 1d3e ffc0 b03e
00000090: e8d9 3c3e 4368 62be acc2 86be ffc4 a93e
000000a0: a824 c33e 02b3 48be 63f8 b73e bcda b0be
000000b0: 1194 883e 365d 493c 2ccf 95be 967d 77be
000000c0: 88bf 5e3e 4e37 03bf 16e5 a4be 4871 a3be
000000d0: 1310 a2be 007a eabd 2f8c e63e 8be7 da3e
000000e0: d313 f9be a3c4 cf3e 49f2 d3be 639f 4abe
000000f0: 684e 8cbe 94f1 023f 1153 c03e 3a0a 9c3e
-0.05852895 0.35187024 -0.28276622 0.09157907 -0.5003191 0.45941648 -0.30938676 0.4601826
-0.2777202 0.24944538 -0.3983414 -0.17545171 -0.4836208 -0.29482654 0.280607 -0.28543517
0.33788848 -0.19102049 0.27267337 -0.22451887 -0.3567697 0.41465625 0.33107772 0.4137974
-0.2819919 0.4782824 -0.29118943 0.42497656 0.2928766 -0.31454545 0.43865973 0.05256632
-0.37426117 -0.112049975 0.1533445 0.34522244 0.184425 -0.22110085 -0.26320398 0.3315811
0.38113904 -0.19599536 0.35931692 -0.3454188 0.26675466 0.01229029 -0.29259622 -0.24169001
0.21752751 -0.51256263 -0.3220603 -0.31922364 -0.3165289 -0.11449051 0.45028827 0.42754778
-0.48647937 0.4057971 -0.41395786 -0.19787364 -0.2740357 0.5114987 0.37563375 0.30476552

critic.v_net.fcs.2.weight f4 [1, 64]
00000000: 4614 67bf 54ee f23f 2e01 f3bf b366 a23f
00000010: 9f75 00c0 48da fe3f dda6 a9bf 2b21 c83f
00000020: 7a57 c6bf 8a13 bf3f c6bf c3bf 3374 e0bf
00000030: 0fb0 a1bf 03fb b6bf f865 b03f f651 a5bf
00000040: 281a e33f 28bb 03c0 2ee3 be3f eee2 e9bf
00000050: d993 c4bf e2a5 fc3f e177 c33f 0380 ff3f
00000060: 759e b4bf 7d12 ee3f 466e 9f3f c1c9 a63f
00000070: 9076 bf3f 9fe1 fcbf 622f a93f 6e04 c23f
00000080: df9d e7bf 260f c1bf 21df bf3f 97c8 a03f
00000090: 708f d03f 9d86 bdbf edf5 f6bf 14b4 ff3f
000000a0: 2b19 ad3f 9814 a6bf c541 b83f e2fd c4bf
000000b0: 8ac7 ba3f a158 9a3f f2e6 aabf cb84 bfbf
000000c0: f144 ca3f 3be5 abbf 0565 cbbf bb8b b1bf
000000d0: 9561 9ebf 7c03 f8bf 064f b53f a151 a63f
000000e0: d646 aabf b6bf e93f 067d dabf 27e4 b4bf
000000f0: 435f f1bf 262c 9b3f 8621 cd3f 1dc4 0140
-0.9026531 1.8978982 -1.8984735 1.2687591 -2.007179 1.9910364 -1.3254048 1.5635122
-1.5495446 1.4927838 -1.52929 -1.7535461 -1.2631854 -1.4295353 1.3781118 -1.2915637
1.7742357 -2.058298 1.491308 -1.8272378 -1.535762 1.9738123 1.5270959 1.9960941
-1.4110857 1.8599392 1.2455528 1.303032 1.4958057 -1.9756354 1.3217585 1.5157602
-1.8095053 -1.5082748 1.4989969 1.2561215 1.6293774 -1.4806706 -1.92938 1.997683
1.3523306 -1.2975035 1.4395071 -1.5389979 1.4592144 1.2058297 -1.3351729 -1.49624
1.5802289 -1.342933 -1.5890204 -1.3870767 -1.237353 -1.9376063 1.4164741 1.2993661
-1.3302867 1.826163 -1.7069404 -1.4132127 -1.8857197 1.2122848 1.6025856 2.0275948

exp_avg f4 [64, 4]
00000000: dd6d bd34 db8b db3a 27bd 71ba 2606 943a
00000010: c091 a637 9f0e 67b9 3855 da38 a7a3 09b9
00000020: 828a f737 0988 693a 5f59 f8b9 bda5 143a
00000030: 8346 8f37 8a7b 14ba 789b 9539 f09a b7b9
00000040: d382 e238 7c95 bd3b 0851 42bb 3f5a 6c3b
00000050: a8a8 64b9 faef 04bc 3605 8b3b 1194 a7bb
00000060: 44c0 8337 9699 1f39 eaf6 c3b8 fb00 e838
00000070: 2d7b 3cb8 c81f afba 5bf1 433a e930 6fba
00000080: 589f bcb8 477c ebba 1fa3 643a c5a9 7bba
00000090: f401 dc37 4289 1b3b b78e a8ba fb24 d13a
000000a0: 3b16 7c38 919e f03a 9cd2 81ba 6337 9d3a
000000b0: f6fa 0039 cb21 333b c146 c3ba f5a1 ec3a
000000c0: ee57 25b5 f86c 9b3a 5d00 1fba 9461 3d3a
000000d0: 10b9 83b9 4f70 21bc 0732 aa3b 833d cbbb
000000e0: b39d d2b9 a421 32bc a63b c13b 1b04 ecbb
000000f0: c123 b936 fb75 f639 1ed0 a3b9 c0c5 dd39
00000100: d898 3cb9 8700 2fbb 4270 c23a 694d eaba
00000110: c954 52b9 a8b7 c3bb 3a7b 503b 0d7f 7ebb
00000120: 2097 d0b7 51df b5ba 58c8 413a 3faf 66ba
00000130: 1313 6cb9 0052 20bc 1b18 a93b 4cce cabb
00000140: 0059 83b6 517b a4ba b714 313a 3acd 5aba
00000150: 6ec3 e437 fc39 00b9 f618 1638 1f36 05b8
00000160: 8892 a939 aa48 613c 4dd1 f0bb 1d0d 143c
00000170: 93df 5a39 bea5 a13b 7c67 28bb 7f62 443b
00000180: fc0b eab6 c796 1b3b d0f9 a2ba ed68 c73a
00000190: 044c 52b8 6e05 8cba 1f4a 173a 7954 36ba
000001a0: befa 1f39 1f34 7f3b 70f8 08bb f5eb 243b
000001b0: 013c 27b9 f523 45bb da5b c63a 81ad e9ba
000001c0: b0a8 b137 7441 133a ba8e 9eb9 f787 bb39
000001d0: e2b2 f2b9 f263 69bc 3c13 fb3b 5b73 19bc
000001e0: 0dd2 97b9 b674 aebb 9b76 3e3b 8404 69bb
000001f0: c080 2c36 6f7c b739 36d3 2cb9 136e 4a39
00000200: 54a2 f0b8 6682 98bb 7b8f 253b 0732 49bb
00000210: dda1 0bb8 c744 abba 052c 343a 4ebc 59ba
00000220: b6d4 fd37 38b6 8d3b aca0 1dbb ea93 463b
00000230: 90de 8db7 a18d 05bb 0949 8a3a 25a8 a3ba
00000240: ad48 43b7 db10 a7b9 c787 3839 219c 6ab9
00000250: 673f 1b39 e7ad 0f3c 5d48 99bb 821e ba3b
00000260: d4d6 08b7 1e73 e4ba 01f5 813a 1325 a3ba
00000270: 9a17 b4b8 08a0 93bb 9715 1b3b ea24 3abb
00000280: b396 04b9 8420 34bb 3f30 bc3a 6d8f ddba
00000290: d54a efb9 e00f 76bc ea17 073c 1fd8 25bc
000002a0: d794 a9b9 b67b f8bb ba57 893b 8714 a8bb
000002b0: b12c abb9 74d9 07bc 7fac 8f3b dbef acbb
000002c0: 314f 16b9 8eb6 64bb 091c fd3a 5c69 1cbb
000002d0: a1c9 b0b9 efc6 07bc d79b 963b 072f b8bb
000002e0: ee47 8139 2456 3a3b 62e4 c1ba 8da5 db3a
000002f0: be03 4938 cfaa 533a 9971 f5b9 a763 173a
00000300: 171c e2b8 3b38 bc38 db71 7638 a065 34b9
00000310: 06cd 43b7 815f 93b9 fe13 3d39 db0d 80b9
00000320: 0480 b539 7960 073c df05 91bb 178f ad3b
00000330: c3dc f237 671f cd38 6366 b8b8 c1c5 1039
00000340: eb38 dcb8 3220 d6bb dfe9 603b db07 87bb
00000350: 5a33 90b6 8155 c739 1dcd 37b9 d370 4b39
00000360: 05bd 003a 633d f53b 1ff6 81bb fde6 9c3b
00000370: 1511 08b6 a105 ef3a 3428 80ba e341 9c3a
00000380: 36c7 f9b9 910e 49bc 9ede db3b d280 07bc
00000390: 3dcb 91b9 52e7 0bbc 75f8 983b 260b bbbb
000003a0: 8d31 9eb9 2637 14bc e9b9 9d3b 9969 c0bb
000003b0: b517 2e39 aec8 f73b e605 88bb 4397 aa3b
000003c0: a89c b237 deb2 173b 2cd4 99ba 1ea5 b43a
000003d0: 8a29 323a 1ccf 983c 5cbe 26bc ccd8 4c3c
000003e0: b749 8738 bfdb e83b d0af 80bb adb6 a23b
000003f0: 1579 2e39 2ee2 343b 576a c3ba 0b48 e93a
3.528393e-07 0.0016750054 -0.00092216063 0.0011293336 1.9856612e-05 -0.00022035323 0.00010410923 -0.00013126303
2.9509192e-05 0.00089085154 -0.00047368833 0.0005670449 1.7079763e-05 -0.00056641607 0.00028535328 -0.00035019917
0.00010800888 0.005785642 -0.002965035 0.0036064533 -0.00021806604 -0.0081138555 0.0042425646 -0.0051140864
1.5705948e-05 0.00015220637 -9.344316e-05 0.00011062805 -4.493741e-05 -0.0013360912 0.00074746244 -0.00091244146
-8.994219e-05 -0.0017966115 0.00087218167 -0.0009600188 2.6226953e-05 0.0023732935 -0.0012859915 0.0015956456
6.0102186e-05 0.0018357803 -0.0009904685 0.0011994656 0.00012300521 0.0027333375 -0.0014898406 0.0018053638
-6.1595244e-07 0.0011858037 -0.0006065423 0.0007224318 -0.0002512415 -0.009853437 0.005193952 -0.006202401
-0.00040171816 -0.010872278 0.005897003 -0.007202638 5.517592e-06 0.0004700868 -0.00031244842 0.0004229974
-0.00017986016 -0.0026703195 0.0014834481 -0.0017875853 -0.00020058746 -0.0059728213 0.003181173 -0.0038833052
-2.4865905e-05 -0.0013875758 0.0007392219 -0.00087999174 -0.0002251382 -0.009785175 0.0051603443 -0.0061891433
-3.914465e-06 -0.0012548958 0.0006755101 -0.0008346621 2.7270722e-05 -0.00012228632 3.5786034e-05 -3.1760075e-05
0.00032343366 0.013750235 -0.0073491693 0.00903633 0.00020873388 0.004933088 -0.0025696447 0.0029965935
-6.9751386e-06 0.0023740993 -0.0012434069 0.0015213765 -5.0138697e-05 -0.001068277 0.0005771238 -0.00069553364
0.0001525683 0.0038940979 -0.0020900033 0.0025165055 -0.00015948714 -0.0030081247 0.0015133575 -0.0017828197
2.1178595e-05 0.0005617358 -0.00030242448 0.0003576872 -0.00046291115 -0.01424502 0.007662205 -0.009365882
-0.00028957464 -0.0053239716 0.0029062394 -0.003555567 2.570494e-06 0.0003499719 -0.0001648188 0.00019305227
-0.00011474328 -0.0046542166 0.0025262523 -0.0030699985 -3.329093e-05 -0.0013066762 0.00068730145 -0.00083059527
3.0259002e-05 0.0043247007 -0.0024052067 0.0030300566 -1.6912149e-05 -0.0020378607 0.0010550331 -0.0012486024
-1.1639827e-05 -0.0003186528 0.00017598188 -0.00022374142 0.00014805571 0.008769489 -0.004677816 0.0056799063
-8.15625e-06 -0.0017429327 0.0009914936 -0.0012446962 -8.587465e-05 -0.004505161 0.0023663992 -0.002840335
-0.00012644641 -0.00274852 0.001435764 -0.0016903706 -0.00045641387 -0.015018433 0.008245448 -0.010122328
-0.00032345086 -0.007583107 0.004191366 -0.0051294 -0.0003264896 -0.008291591 0.004384577 -0.0052776164
-0.00014334616 -0.003489885 0.0019310723 -0.002386651 -0.0003371956 -0.008287176 0.0045962143 -0.0056208405
0.0002465839 0.0028432691 -0.0014792795 0.0016757712 4.792562e-05 0.00080744637 -0.00046814678 0.0005775042
-0.00010781752 8.975012e-05 5.8757007e-05 -0.00017203996 -1.16706415e-05 -0.0002810918 0.00018031892 -0.00024424386
0.0003461839 0.008262747 -0.0044257487 0.0052965987 2.8951448e-05 9.781011e-05 -8.792875e-05 0.00013806579
-0.00010501019 -0.0065345997 0.0034319086 -0.0041208095 -4.2975125e-06 0.00038019943 -0.0001752865 0.00019401619
0.00049109786 0.0074841245 -0.0039661075 0.004788278 -2.0275522e-06 0.001823593 -0.0009777606 0.0011921491
-0.00047641405 -0.012271539 0.0067098876 -0.008270459 -0.0002780798 -0.008539038 0.0046682903 -0.005708116
-0.00030173027 -0.009046352 0.004813422 -0.005871963 0.00016602765 0.0075617647 -0.004151094 0.00520602
2.1292202e-05 0.0023147385 -0.0011736206 0.0013782119 0.0006796351 0.018653445 -0.010177221 0.01250286
6.451032e-05 0.007106274 -0.0039272085 0.0049656243 0.0001663904 0.0027600634 -0.0014909011 0.001779796

exp_avg_sq f4 [64, 4]
00000000: 3b1b 163a 1eaa 8c3a ca51 7038 80f3 583a
00000010: 8ee7 1337 0fdf 9037 bb41 8b35 0661 6537
00000020: a4b5 1b39 cc70 9239 739a 7e37 0548 6039
00000030: 195f 7438 28ce e338 dda7 c036 2226 ad38
00000040: 189c c53b 0245 393c 8d3e 193a d70b 0d3c
00000050: 3966 443c cef7 b63c 66ac 963a 79bf 8a3c
00000060: ef71 2d37 c43d a137 558a 7e35 4e65 7937
00000070: db54 c039 6c38 333a 336c 1838 6264 093a
00000080: 5375 043a c5b4 7d3a 66ec 5638 87e8 433a
00000090: 09e0 993a dfb6 0f3b c000 f638 2237 dc3a
000000a0: ce42 2b3a bc15 a03a 8c1b 8438 0ace 733a
000000b0: 5f56 be3a fbe7 303b d7d4 1139 d141 063b
000000c0: ad45 8639 ae1b fb39 cb26 cf37 2543 bf39
000000d0: 238d 973c 37b2 0b3d 5908 e53a ffa6 d33c
000000e0: 7435 bd3c 2a0a 2d3d 8d2f 0f3b 0277 023d
000000f0: ab68 8338 c7ae ec38 8d6c c736 4781 b338
00000100: a109 bb3a 526b 2d3b 4214 0e39 9772 033b
00000110: 9da1 e13b 5aac 513c 2730 2c3a 2318 1f3c
00000120: 811f bd39 ef2c 323a be59 1538 920e 093a
00000130: c023 963c 88fc 093d a33c e33a 8cd8 d03c
00000140: 1025 ad39 2b23 223a 1af0 0b38 ebda f939
00000150: db2b bc35 2477 6a36 9e8a 2e34 f531 4236
00000160: 1421 163d 50ca 8b3d ea2d 663b 4442 543d
00000170: e10c 903b 1c64 063c 3302 de39 9b87 cc3b
00000180: 3440 8b3a c58a 013b c7db d038 8296 c33a
00000190: 804d 6c39 0ce1 dd39 a83c b137 8864 a839
000001a0: 338d 423b 5500 b53b 2032 9839 850c 8a3b
000001b0: 9def cd3a c2f5 403b 9f00 1f39 8d7f 123b
000001c0: 8115 8338 6d17 f238 5e92 c336 a76b b738
000001d0: 31d0 213d 5512 963d 59ef 763b c474 633d
000001e0: 9c14 b93b cfae 273c a2f1 093a e82d fb3b
000001f0: febf bf37 2766 3238 4171 1e36 a9d2 0738
00000200: e4db 8a3b 989d 013c 3529 d539 f714 c53b
00000210: e8b8 b439 3ef4 293a 299e 0d38 2a3f 023a
00000220: 54f4 843b d44c f13b 65d1 c539 38d9 b53b
00000230: cf89 453a b865 b83a e5f6 9238 2523 8c3a
00000240: 3533 cc37 47ea 4038 f5d7 3136 2b31 1538
00000250: cd92 753c 9d6b e13c 2a35 b93a 286d aa3c
00000260: 7eb3 283a c5d1 9b3a c8d7 8038 8087 6b3a
00000270: e11e 7c3b 1161 ea3b e5cc bd39 e4f8 b13b
00000280: 4ab5 b33a 34bc 273b 877d 0939 5c19 ff3a
00000290: 5a86 3a3d 7aa8 ac3d e810 8e3b 3fe2 823d
000002a0: eb19 3d3c 084c af3c c0d2 8f3a 43c0 843c
000002b0: 8a75 543c c335 c43c a0a0 a23a edba 943c
000002c0: 9fdd 293b a446 9d3b 6bfa 7f39 7665 6e3b
000002d0: 1b87 643c 1138 d33c 6514 ad3a 8395 9f3c
000002e0: 8493 ba3a 3f76 2e3b c65a 1039 df0b 053b
000002f0: 194a 0d39 4514 8339 fc40 5137 9621 4739
00000300: 26dc 8537 af4a 0038 ca90 c735 93e7 b437
00000310: dfa8 9a37 13a2 0b38 1315 d535 2d37 cf37
00000320: fa2c 543c 6cce c53c c159 a23a cb03 963c
00000330: 260e a036 cce6 1137 5291 e234 8312 cf36
00000340: 5143 063c 673c 7a3c 26c3 503a 805e 3e3c
00000350: 8491 cd37 1813 4138 1119 2a36 b62f 1338
00000360: 68c0 303c d9b3 a33c a984 863a ef11 783c
00000370: 08e0 253a a6ce 9b3a 8980 8138 9a74 6e3a
00000380: 9c87 fd3c 3f47 6b3d 03c8 413b 995f 323d
00000390: 9b4a 6f3c 334e de3c c404 b73a 05da a83c
000003a0: 2b27 813c 2848 f03c 3842 c53a 6e34 b63c
000003b0: 7bea 423c 3c74 b43c bd54 943a 53ef 883c
000003c0: 7118 8e3a 9ce4 053b 6afd e138 983e ce3a
000003d0: b929 913d 50ab 063e 0076 de3b 3856 cc3d
000003e0: 37c2 2e3c e029 a13c d611 843a 7531 743c
000003f0: 93c5 b93a 9df8 2c3b bbee 0b39 def9 023b
0.00057261036 0.0010731851 5.729663e-05 0.00082760304 8.815796e-06 1.7270007e-05 1.0375437e-06 1.3672054e-05
0.00014849618 0.0002793133 1.517554e-05 0.00021389134 5.82627e-05 0.00010862603 5.7415878e-06 8.2563856e-05
0.0060305707 0.011307957 0.00058458076 0.00860878 0.011987262 0.02233496 0.001149547 0.016937004
1.0338131e-05 1.9221457e-05 9.4823673e-07 1.4865143e-05 0.00036684316 0.00068367156 3.6340392e-05 0.00052410935
0.0005052883 0.0009678121 5.124174e-05 0.0007473309 0.0011739741 0.0021929068 0.00011730334 0.0016801099
0.0006533087 0.0012213509 6.2993815e-05 0.00093004166 0.001452159 0.002699374 0.00013907567 0.0020486007
0.00025610384 0.00047895074 2.4694387e-05 0.00036480385 0.018499916 0.034105506 0.0017473801 0.025836466
0.023096777 0.04224602 0.002184841 0.031851776 6.266063e-05 0.00011285912 5.943299e-06 8.559465e-05
0.0014269837 0.0026461673 0.00013549722 0.0020057315 0.006885721 0.0127974395 0.00065684546 0.0097103445
0.0003607236 0.0006796857 3.5607947e-05 0.00052283064 0.018327594 0.0336881 0.0017336797 0.025493883
0.00033024745 0.000618505 3.3363795e-05 0.00047656088 1.4019855e-06 3.4938066e-06 1.6255441e-07 2.8937332e-06
0.03665264 0.068256974 0.0035122582 0.05182101 0.0043960665 0.008202579 0.00042344778 0.0062417514
0.0010623992 0.001976655 9.9591496e-05 0.0014922174 0.00022535585 0.00042320078 2.112829e-05 0.0003211836
0.0029686212 0.005523721 0.00029029045 0.004212918 0.0015711669 0.0029443358 0.00015163653 0.0022353858
6.250572e-05 0.000115438226 5.8284922e-06 8.746172e-05 0.039505187 0.07327715 0.0037679283 0.05553128
0.005648209 0.010234549 0.00052621413 0.0076653846 2.2858378e-05 4.2533644e-05 2.3609757e-06 3.23827e-05
0.004237639 0.007911108 0.00040657228 0.006014462 0.0003447004 0.00064832333 3.3764318e-05 0.00049685186
0.0040574465 0.007363895 0.0003773078 0.005549576 0.00075354887 0.00140684 7.00781e-05 0.0010691626
2.434254e-05 4.5994555e-05 2.6500759e-06 3.557016e-05 0.014988613 0.027517134 0.0014130224 0.020804003
0.0006435438 0.0011888078 6.143708e-05 0.00089847296 0.0038470554 0.0071526845 0.00036201547 0.0054312814
0.0013710645 0.0025594356 0.000131121 0.0019462514 0.045538284 0.08430572 0.0043355115 0.06390809
0.011541824 0.02139856 0.0010972843 0.016204959 0.012967477 0.023951417 0.0012407489 0.01815554
0.002591945 0.004799681 0.00024411983 0.0036376393 0.013948227 0.02578357 0.0013204931 0.019480472
0.0014234637 0.0026620773 0.00013766726 0.0020301265 0.00013474411 0.0002500137 1.2472501e-05 0.0001899063
1.595735e-05 3.0587133e-05 1.4868795e-06 2.1565507e-05 1.8436867e-05 3.3291126e-05 1.587587e-06 2.4702016e-05
0.012950176 0.024146281 0.0012386368 0.018312356 4.7700187e-06 8.69641e-06 4.2201515e-07 6.171236e-06
0.00819476 0.01527319 0.00079636497 0.01161921 2.4505665e-05 4.603257e-05 2.5346565e-06 3.5091965e-05
0.010788061 0.019983219 0.0010262924 0.015140994 0.0006327634 0.0011887148 6.175141e-05 0.00090963545
0.030948453 0.057440992 0.002956868 0.0435482 0.01460519 0.027136898 0.0013963212 0.020611772
0.015765747 0.029331282 0.0015049642 0.022241797 0.011896725 0.022028081 0.0011316758 0.016715681
0.0010841024 0.0020430451 0.00010776038 0.0015735207 0.07088036 0.13151288 0.006788969 0.099773824
0.010666422 0.019673288 0.0010076116 0.01490437 0.0014173262 0.0026393302 0.00013345007 0.0019985358

exp_avg f4 [64]
00000000: ae77 b23d b20b 42bc a9f4 363d 9366 dbbc
00000010: cb8a 8d3e c090 c8be b8f1 ef3b 0355 8fbd
00000020: b9f6 a5bd c536 f83d 87d7 bb3d 4bf8 0c3e
00000030: d140 683d affd f6be 48b6 0abf c0dc f33c
00000040: 85a4 0abe e83f 96be fcc7 8dbd 82f3 f5be
00000050: 4a3a 85bd bad8 b6bb b34d 2e3f 715e 723e
00000060: bf1d ec3d a203 58bd d3e4 473e ae27 0ebe
00000070: 165a db3c 93c0 34bf ff33 87be 0225 7b3c
00000080: 3bd4 6dbe 85a8 84bd 6656 663e f7c1 c8bd
00000090: def1 8bbc 19f9 de3e 94c0 bbbd 3627 61be
000000a0: 8bc4 07be 4c3e 42bf d1df c4be 2c91 cebe
000000b0: 5c8a 34be c4f1 d6be 3208 0a3e 6bde 303d
000000c0: 4a9d 66ba b33d 88bc db1c cf3e e74a ed3b
000000d0: 2963 a4be b318 863c e322 ba3e 2c82 bb3d
000000e0: 2bbd 1dbf a578 dcbe e126 e3be 5679 c53e
000000f0: 97c2 e33d 5a6f 6f3f 406f bb3e 0779 0b3e
0.08714233 -0.011843609 0.04466692 -0.02678231 0.27644953 -0.39172935 0.0073225163 -0.069986366
-0.08103699 0.121198215 0.09171968 0.13766591 0.05670244 -0.4824042 -0.5418439 0.029768348
-0.13539322 -0.29345632 -0.069229096 -0.48037344 -0.065052584 -0.005580035 0.6808731 0.23668839
0.11529111 -0.05273784 0.19520883 -0.13882324 0.026776355 -0.70606345 -0.26406857 0.015328648
-0.23225491 -0.06477455 0.22493896 -0.09802621 -0.017083105 0.4354942 -0.09167591 -0.21987614
-0.13258569 -0.7587631 -0.38452008 -0.40345132 -0.17630905 -0.41981328 0.13479689 0.043180864
-0.00087972416 -0.016630983 0.40451702 0.007241595 -0.32106903 0.0163692 0.3635474 0.09155688
-0.6161677 -0.43060794 -0.443656 0.38569134 0.111210994 0.93529284 0.36608315 0.13620387

exp_avg_sq f4 [64]
00000000: 7dfc d73e c855 d83b 10bc e03d 980e 303d
00000010: 7b80 8e40 6bc2 0d41 87c9 f23b 617f 893e
00000020: 7776 c03e 8369 5d3f 062f f63e 1f32 883f
00000030: 0de7 403e 062e 5941 8591 8741 1395 393d
00000040: ab5d 853f 5fa2 a140 4776 883e 7828 5741
00000050: 179d 783e fee0 963a 368a d741 1442 4f40
00000060: 5aa8 483f 5cbe 2a3e 151f 0b40 36ed 933f
00000070: 040a 3b3d fafb e741 dd63 8440 1704 893c
00000080: 33f3 4740 bf18 823e 3db2 3d40 92bc 0d3f
00000090: 3e1a 943c 52da 2f41 b55a f23e 94b8 3440
000000a0: f418 813f 058e 0542 7948 0741 bc6c 1841
000000b0: 33bc f23f 076e 2341 0656 853f 2f52 c93d
000000c0: e68d 463c d6e1 5e3c d76d 1841 02bf 6e3b
000000d0: 24a9 c040 0e2e 943c 7926 fc40 77da ef3e
000000e0: aead b541 0851 2b41 8834 3941 0b32 0b41
000000f0: d7c8 4b3f 951c 5042 77b0 f940 07f7 843f
0.4218482 0.006602023 0.1097337 0.042982668 4.4531837 8.859965 0.007409278 0.26854995
0.37590382 0.86489123 0.4808275 1.0640296 0.18838139 13.573736 16.946054 0.045308184
1.041921 5.0510707 0.26652738 13.44738 0.24278675 0.0011511145 26.942486 3.238408
0.78381884 0.16674179 2.173772 1.1556766 0.04566385 28.998035 4.1371903 0.016725583
3.1242187 0.25409505 2.9640038 0.5536586 0.01807892 10.990801 0.4733483 2.8237658
1.008574 33.38869 8.4551935 9.5265465 1.8963684 10.214362 1.0416877 0.098301284
0.012118792 0.013603648 9.526816 0.0036429767 6.020647 0.018088367 7.8796964 0.46846363
22.709805 10.707283 11.575325 8.6997175 0.7960333 52.027912 7.802791 1.0387887
