walkthroughs/tutorial_models/tutorial_results/ppo/seed222_Feb-03-22-21-39_v0.5.0-53-g59b8ae6/checkpoints/model_300000.pt (torch, 147498 bytes, 30 tensors)

actor.pi_net.fcs.0.weight f4 [64, 4]
00000000: 5a39 8c3e 8d01 a6be ea0b 853f fa33 c3be
00000010: 6581 9b3e d649 cf3e 85dc 92be 60c8 b03e
00000020: 134c 5f3e 7915 c8bb b42a 863e 44ea 50be
00000030: 83d6 c43e 7e6d aebe 9928 14bf 3269 53be
00000040: 5462 30be cb88 9c3e 0d3f c13f 61e0 633f
00000050: 84ef d73e db74 86bc 6f2d a7bf 8e12 33bf
00000060: 4fb0 b13e 9fe9 cfbd 8748 b13e b745 46bd
00000070: 5031 693d 9c08 193e d8e9 0ebf b524 813e
00000080: 37d1 cebe 1e5b 8abe 6383 3cbf 1034 ed3e
00000090: 6ce6 db3e 4fa0 f0be ff4b 693f 2bc6 adbe
000000a0: fdf4 543e 10cf 313d 1a03 2f3f f2f6 093c
000000b0: 2173 79be 161b 843e 0f84 3e3f ef90 693e
000000c0: 94e6 a0be f1f1 ea3b cf05 513f 2433 5ebd
000000d0: 88e6 c0bd 1ef6 1abf d708 6fbf c774 7ebc
000000e0: f745 bebc 6144 413e 6a40 90bf e27b 3cbf
000000f0: b7c8 f8be 72c7 cdbe eb95 643f c0b9 733e
00000100: be6c af3e 1c00 bfbe 18a1 59bf d506 c4be
00000110: e2d5 32bd a5b1 57be eae9 8abf 3954 39bf
00000120: 41b7 89be f54c 0c3e 914b 36bf a122 b93e
00000130: 7a40 1cbe dafe 27bf 2462 81bf 86e6 05bd
00000140: 0cc6 16bd 89db ec3e 249b 71bf f78e 0a3f
00000150: 0e51 993e 6a10 84bc 1a46 39be daec a23e
00000160: a066 f3bd 7b98 f23e 420a ca3f c01e 703f
00000170: c144 a53e 1397 ab3e cfb5 993f 19ba f2bd
00000180: 3f43 acbe bafe 633e 7bdd 8c3f 90d5 94bc
00000190: a183 03bf f4f5 4bbe 1239 b3be 0f58 c0bd
000001a0: 3835 3ebe d77c ff3c 3910 703f 6bfc a5be
000001b0: a2cc c7bc 051f 1d3e 301f 8ebf 57d5 dabe
000001c0: 9af2 24bd 1bed 2a3d e250 1a3f 21ad a03e
000001d0: 0d83 393d 4c60 18be 7f5e a9bf c1cf 2dbf
000001e0: 1007 c7be 6000 903e b820 49bf dd94 53bf
000001f0: 479a b5bd 1ad7 bcbe 8518 523f df5c 58be
00000200: c315 f7be 87ec c8bd df42 b4bf de79 b7be
00000210: a66c 89be 9369 473a b7e7 15bf 8708 4c3e
00000220: 45ce f73e ae4c 403f 8ea2 873f f6ee bc3d
00000230: 9b54 703e 54cb 0ebf 6ce7 e6be 5152 e9bd
00000240: 09da cbbe 2128 913e 4d37 9dbe b614 483e
00000250: 2f0f 433c 1c1e 3f3f 2512 993f c7e3 433e
00000260: a3c8 40be 5ba3 463d 0d3a 22bf 87b2 d7be
00000270: c84f 7e3d cf81 f4be f033 12bf 4b52 a5bd
00000280: 6be3 07be 8ae0 c9be 3718 73bf 5f86 9fbb
00000290: c1df 31be 6282 22bd 27ed bcbf 6559 18bf
000002a0: 2a9a 9f3e 2aae 93be 89d5 89bf 1645 12bf
000002b0: 435a d53b 8444 b23e 9072 a7bf eaf2 e0be
000002c0: c0b2 08bf 0cc2 63be ae3d 51bf afb0 71be
000002d0: 8766 c63c b3a9 a9be 4c24 97bf 2f5a 53bf
000002e0: 46bb 2ebe 1e4b 113f ab1e 893f e86b d63c
000002f0: d646 cbbe 00aa 873d 11b4 343f 329d b13d
00000300: a34e 86be 83b7 c03d b50d 98bd f371 1dbe
00000310: bc14 4c3e 76f0 6f3e ff41 acbe f438 ecbe
00000320: 7b14 a03e 7880 0f3f f0f9 9c3f ed77 1d3f
00000330: ab72 f73e a2d4 a7be 780f 293e 1136 0c3f
00000340: 9c68 633e 23e6 2a3d afd2 67bf 94e8 963e
00000350: 2ed8 afbe 1027 e4be 1fb7 7e3f e633 00bf
00000360: 35de 103f f6d5 0abe 258d c33f a378 2f3f
00000370: 5339 de3e 907b 37be fd0a 4b3f e691 25be
00000380: cc7c 14bf e306 59be 0025 a0bf 90c8 e4be
00000390: 832d 13bc 7310 30bd 79e5 90bf 1416 4cbe
000003a0: 1ef6 04bd 0af5 e4bd 821a cbbf 4e17 0bbf
000003b0: 2671 803e c784 073f 3bfa b03f 5e02 303f
000003c0: 1b79 143e f1c3 c03d f796 e33e b405 84be
000003d0: 3fdd e43e e6d8 0b3d f4d2 ae3f a85d c03e
000003e0: 5351 1f3e 1287 253f 4c48 a73f 9287 093f
000003f0: e45c bebe 1fad 113f 306e 033f e65f cf3e
0.27387506 -0.32423058 1.0394261 -0.38125592 0.30372158 0.4048602 -0.28683868 0.34527874
0.21806364 -0.0061060754 0.26204455 -0.20401865 0.3844491 -0.3406791 -0.5787445 -0.20645598
-0.17225009 0.30573115 1.5097367 0.8901425 0.42174923 -0.016413143 -1.306074 -0.6995019
0.34704825 -0.101519816 0.34625646 -0.04840633 0.056931794 0.1494469 -0.5582557 0.25223318
-0.40393993 -0.27022642 -0.7363798 0.46328783 0.42949235 -0.46997306 0.91131586 -0.33940253
0.2079658 0.04341036 0.6836411 0.008420693 -0.24360324 0.25801915 0.74420255 0.22809194
-0.31425917 0.007169955 0.8164949 -0.05424799 -0.0941897 -0.60531795 -0.93372864 -0.015530772
-0.023226721 0.1887374 -1.1269658 -0.7362653 -0.48590633 -0.40191227 0.89291257 0.23801327
0.3426265 -0.3730477 -0.85011435 -0.38286462 -0.043661006 -0.2106386 -1.0852635 -0.7239414
-0.26897624 0.13701232 -0.71209055 0.36159232 -0.15258971 -0.6562325 -1.0108075 -0.032690547
-0.036809966 0.46261242 -0.9437735 0.541244 0.29944652 -0.016121108 -0.18093148 0.31821328
-0.118848085 0.47381958 1.578438 0.9379692 0.32279018 0.33513698 1.2008609 -0.118519016
-0.33645055 0.22265139 1.100509 -0.01816824 -0.51372725 -0.19918042 -0.3500448 -0.09391796
-0.18574989 0.031187458 0.93774754 -0.32419142 -0.024389569 0.15343864 -1.1103268 -0.4274089
-0.040270425 0.041730028 0.6027967 0.31382087 0.045290995 -0.14880484 -1.3231963 -0.6789513
-0.38872576 0.28125286 -0.7856555 -0.8264902 -0.08867317 -0.3688286 0.82068664 -0.21129178
-0.4825879 -0.09810739 -1.4082907 -0.35835165 -0.26840705 0.00076069793 -0.58556694 0.19925128
0.4839956 0.75117004 1.0596483 0.09225266 0.23469774 -0.55779004 -0.45098436 -0.11392654
-0.39814785 0.28350928 -0.30706254 0.1953915 0.0119054755 0.7465532 1.1958662 0.19129859
-0.18826537 0.04849563 -0.6336983 -0.42128393 0.062087804 -0.47755286 -0.571105 -0.08072337
-0.13270347 -0.39429122 -0.94958824 -0.004868313 -0.17370512 -0.039675124 -1.4759873 -0.59511405
0.31172305 -0.28843814 -1.0768291 -0.57136667 0.006511004 0.34817898 -1.3081837 -0.4393533
-0.5339775 -0.22241992 -0.8173474 -0.23602556 0.02421881 -0.33137283 -1.1807952 -0.82559484
-0.17063627 0.56755245 1.0712484 0.0261745 -0.3970248 0.06624222 0.7058726 0.08672561
-0.2623187 0.09410002 -0.074244894 -0.153755 0.19929785 0.23431572 -0.336441 -0.46137202
0.31265625 0.560554 1.2263775 0.6151112 0.48329672 -0.32779413 0.16509807 0.5477
0.22207874 0.04172338 -0.9055585 0.29474318 -0.3434462 -0.44561052 0.9949817 -0.5007919
0.5658906 -0.13558182 1.5277449 0.6854345 0.4340311 -0.17918229 0.7931364 -0.16168937
-0.58002925 -0.21194033 -1.2511292 -0.44684267 -0.008983019 -0.042984437 -1.132003 -0.19930297
-0.03246128 -0.1117955 -1.5867465 -0.54332435 0.25086325 0.5293698 1.3826364 0.6875361
0.14499323 0.09412373 0.44451115 -0.257856 0.44700047 0.034142397 1.3658128 0.37571454
0.15558366 0.64659226 1.3068938 0.5372249 -0.37180245 0.56904787 0.5134001 0.40502852

actor.pi_net.fcs.0.bias f4 [64]
00000000: 867f c83e 966c 17be 14b2 863e 7ff0 973e
00000010: cd79 90be bad7 dd3d 3251 e5bd 3dc9 c9be
00000020: 8b84 d0be 860f 013e 6748 563e 5fee 103e
00000030: ae92 f3bd c054 933b 129c 843c 8a85 df3e
00000040: 02b3 7dbe e192 273e 00c3 dbbe 7760 603c
00000050: 3360 20be b616 0fbe b1e2 f2bd b194 3a3e
00000060: 17ad 60be 5e32 0ebe 522d 2d3e 0162 b23e
00000070: ac58 56be 15f7 5a3d fa8e 1b3d 87e1 b0be
00000080: 2375 33be a972 bcbd 2ac1 06be 1ef1 673d
00000090: d4cd 2bbe ea60 53bd 4c6f ebbe de36 e43c
000000a0: 13ff 34be b3c7 90bd 0e6e c3bd dbf8 963d
000000b0: 2e50 ac3d c631 1dbe 1a85 9d3e 9747 973e
000000c0: 2559 38bd 49d5 96be 86f5 003e 4a5e 453e
000000d0: 0a02 0f3d e0db bfbe 0797 33be d859 c63e
000000e0: 5917 d93c 4147 9cbd cc16 fd3d deba 33be
000000f0: 8286 a9bc 109b 0c3c 955e 3dbe d6b7 0d3e
0.39159793 -0.14787516 0.26307738 0.2967567 -0.28217927 0.10832162 -0.111971274 -0.39411345
-0.40726122 0.12603578 0.20926057 0.14153431 -0.11893211 0.004496187 0.016187701 0.4365657
-0.24775317 0.16364624 -0.4292221 0.013694874 -0.15661697 -0.13973507 -0.11859644 0.18220784
-0.21941029 -0.13886401 0.1691182 0.34840396 -0.20932263 0.053458292 0.03797815 -0.34547064
-0.17525153 -0.09201557 -0.13159624 0.05662643 -0.16777736 -0.051606096 -0.4598335 0.027858194
-0.17675428 -0.070693396 -0.09542476 0.07371684 0.084137306 -0.15351018 0.3076561 0.29546806
-0.04500689 -0.294596 0.1259366 0.1927425 0.034914054 -0.3747244 -0.17538081 0.3874042
0.02650039 -0.07630778 0.12357864 -0.17551753 -0.020694021 0.008581892 -0.18493111 0.13839659

actor.pi_net.fcs.1.weight f4 [64, 64]
00000000: c876 7ebd c65f c83c 9868 c8bd 2124 e63c
00000010: dffd 0abe 93dc 6a3d 59b7 dc3d 6213 223d
00000020: 1f41 85bc bd37 78bd 6fef 0cbe bbb1 803b
00000030: e661 c0bc ab02 eb3d 206a 4c3e 6e00 5e3d
00000040: 1777 8c3c 6491 a83c 5934 183e 1eaf 803e
00000050: 951e 6dbb ae0a 8f3d d968 d4bd 30e6 60bd
00000060: 3619 88bd 90aa 86bd d814 ba3b 9e5e f13d
00000070: d04d e7bd d2bd 0d3e 50e7 c63d a40b bebd
00000080: ca1a b33d 65f5 4f3c b05d 853c 1524 1e3b
00000090: 1382 cc3d 05dc 2abd 25f6 e3bc e851 56bd
000000a0: 9067 d23c 49e9 263e 20da af3d 8d4d 493e
000000b0: 1c21 63bd 874c 823d 4f22 edbd ffc4 973d
000000c0: d977 603d 342d 7bbd 020a e4bd 6960 7dbd
000000d0: dc45 ef3d 3891 9ebd a083 113a c909 58bc
000000e0: 1388 2e3e f0f9 593e d6a4 633e 71ac 8ebd
000000f0: e0ad a63d 772d 6ebe a6e7 cdbc b6fd 68bd
00000100: 5b72 923c 545f 913b 57a9 dabd dcdd b23d
00000110: 0eb7 c83d 7cf1 9dbe 1aac b33d 3ba7 db3c
00000120: f0fe b7bc 0376 38be 4966 9b3d 9379 2b3e
00000130: 3cf0 7abd 4f68 edbe 5c37 15bf 7e2c 143c
00000140: eaa9 2ebe e3b7 94be 046f 75bd 48a9 a3be
00000150: 2203 4c3d 2984 40bd a9fc 053f 4c45 763e
00000160: 60b9 f43d fef0 28be 3736 cfbd 018b e6bc
00000170: 2555 f0bc 17ad 26bf 9887 cabe 0c9f 01be
00000180: 9fcd 69be c95e 4abd 013a 913e 2a61 b9bd
00000190: 3c5b a73d 2313 db3e f4aa 8d3d 09a6 88be
000001a0: 9659 92bd ceb7 1abf 7ce0 74be 5739 b2be
000001b0: 2e38 93be 8852 f2be 54d7 053e 9c4c 3b3e
000001c0: 685e f03c 7d15 b9bd a37b 993e 9078 433c
000001d0: f357 34bd b9ab b83c 4c08 b03e 6765 403d
000001e0: 773a 0dbf df8f adbe ad60 adbe 52c7 b93e
000001f0: d0ea f6bb e1e6 303f 0d57 b93e fab1 de3d
00000200: dc2d e7bd 5d52 ffbd e5c6 f13d 3bdc 61bc
00000210: b533 68be 34cf 933e 2de7 c73d f571 b53d
00000220: ef84 f43b a93a a1bd 29db 0a3d 0e98 a23c
00000230: 4343 94bd e71a e23e 6a70 a13e 5404 82bc
00000240: e4b7 863d f9f5 753e 4ff5 f23d 2810 743e
00000250: 5257 d2bd 3a41 b8bd 82f8 e2be ce6b 68be
00000260: 33bf 1abe 21ef 9d3d 18cd 23be ca8f 1f3e
00000270: 6ea0 08be f438 913e 67a3 663e fa92 f03b
00000280: ba82 3e3e 3093 ef3c 63f7 17be 9afc 113e
00000290: c8ab c9bd b84a 38be 3993 d23d 47f9 a83d
000002a0: b5bc 253d dcb5 093f 3cc8 7c3e e169 383e
000002b0: bc75 213e 18a3 933e 6157 b8bd 6225 8b3d
000002c0: b82d ab3c 2ac6 a33c cbc9 82be c9c0 83bd
000002d0: 8e03 3abb 66fd 043d ab6d 90be 447e e8bd
000002e0: 531e 763e ed30 403e f1f6 7f3e a024 88be
000002f0: c793 b63d c328 01bf 297f 77be 4e37 77be
00000300: dc08 903d d2eb 92bc d44a d53d 9cc0 9dbd
00000310: 726a 2e3e 04ac 0dbe 70d6 753d 882e 04be
00000320: a622 fdbd c2f8 883d 0296 3fbd c232 e33d
00000330: a8cd fe3d d9e7 353c 0355 44be 105a a23d
00000340: 042a ccbd 323e c93c 7a6d 92bd ac07 35be
00000350: d0cf 22be f742 febd 0e0d a23e 4b63 4b3d
00000360: d3cb 933d f712 5f3d 305f 593d cf25 dfbc
00000370: 41b1 243d 3c87 88be 1c75 d1bc bc11 78bc
00000380: cd2f 3fbc 0ffc 9e3d 0021 e4bb 0a6e c73d
00000390: 2a83 73bc 5207 3c3e 85b5 c7bc d197 993d
000003a0: dbca 84bd e30d 9cbe 13cc 90bd 9553 c7bd
000003b0: abd8 d9bc 858a a3bd 5fd0 323c ba9c 7d3d
000003c0: 2105 e73d 4617 053e 3d45 553e f0fe dabd
000003d0: a1cd 0cbe 8f34 853d fd81 c33d ca9d 363d
000003e0: 25ca 3ebe 35eb 41be 24af afbd 7f3b 653e
000003f0: b6ec d73d e1f8 3a3e b3ac d33d 2242 c6bd
-0.062124997 0.02445973 -0.09785575 0.0280934 -0.13573407 0.057339262 0.10777158 0.039569266
-0.016266404 -0.06060003 -0.13763212 0.003927437 -0.023484182 0.11475118 0.19962358 0.05419963
0.01714663 0.02057714 0.14863719 0.25133604 -0.0036181558 0.06984459 -0.103715606 -0.054907024
-0.066454336 -0.06575501 0.0056787543 0.11785625 -0.112941384 0.13841942 0.09712088 -0.09279564
0.08745344 0.012692784 0.016280025 0.0024130393 0.09985747 -0.041713733 -0.027827332 -0.052324206
0.025684148 0.16299929 0.08586526 0.1965849 -0.055451497 0.06362253 -0.115788095 0.07410621
0.054801796 -0.061322406 -0.11134721 -0.061859522 0.116832465 -0.07742542 0.00055509247 -0.013185927
0.17044096 0.2128675 0.22230849 -0.06966484 0.08138633 -0.23259531 -0.025134873 -0.056882583
0.017876795 0.004436413 -0.1067683 0.087337226 0.0980054 -0.308483 0.0877306 0.02681314
-0.02246043 -0.18013768 0.07587869 0.16745596 -0.06126426 -0.46368644 -0.58287597 0.009043811
-0.17057005 -0.29046544 -0.059920326 -0.3196509 0.049807675 -0.047001038 0.52338654 0.24049872
0.1194942 -0.16498181 -0.101177625 -0.028142454 -0.029337475 -0.65107864 -0.39556575 -0.12658328
-0.22832344 -0.0494068 0.28364566 -0.09051736 0.081716985 0.42788038 0.06917372 -0.26689175
-0.071459934 -0.60436714 -0.23913759 -0.34809372 -0.287538 -0.4732859 0.13070422 0.18290943
0.029341891 -0.09037302 0.2997714 0.0119306 -0.044029187 0.022542821 0.3438133 0.046971705
-0.55167335 -0.33898827 -0.3386282 0.36284882 -0.007535316 0.69102293 0.36199227 0.1087379
-0.11288044 -0.124668814 0.11805514 -0.013785417 -0.22675975 0.2886902 0.0976089 0.08859626
0.007462136 -0.07872517 0.033900414 0.019847896 -0.07239392 0.4416115 0.31531078 -0.015871204
0.06578043 0.24019612 0.11863195 0.23834288 -0.10270561 -0.08996816 -0.4433022 -0.22697374
-0.15111999 0.07711626 -0.15996206 0.15582195 -0.13342449 0.28363764 0.2252327 0.0073417397
0.18604556 0.02924499 -0.14840464 0.14256516 -0.09847218 -0.17997253 0.10281987 0.08250671
0.04046317 0.5379312 0.24685758 0.1800914 0.15767568 0.28835368 -0.09001041 0.067942396
0.020895824 0.019991953 -0.2554458 -0.06433255 -0.0028383466 0.032468222 -0.2820867 -0.11352208
0.24035005 0.18768664 0.24996544 -0.26590443 0.08914905 -0.5045282 -0.24169602 -0.24142191
0.0703294 -0.017934714 0.10414663 -0.07702753 0.17032793 -0.1383515 0.060018957 -0.12908375
-0.12360124 0.06688072 -0.046773918 0.11093666 0.124415696 0.01110264 -0.19173054 0.07927334
-0.09968951 0.02456579 -0.07149787 -0.17678708 -0.15899587 -0.12415116 0.31650585 0.04965524
0.07216611 0.054461446 0.053069293 -0.027239708 0.040208105 -0.26665676 -0.025568537 -0.015140947
-0.011669111 0.0776292 -0.0069619417 0.09737785 -0.014862815 0.18362167 -0.024378547 0.0749966
-0.06484004 -0.30479345 -0.07070174 -0.09732739 -0.026592573 -0.07985405 0.010913937 0.061917044
0.11280275 0.1299716 0.20827194 -0.10693157 -0.13750316 0.065041654 0.09546278 0.044584073
-0.186318 -0.1893738 -0.08578327 0.22385977 0.10543196 0.18259002 0.10335674 -0.096805826

actor.pi_net.fcs.1.bias f4 [64]
00000000: b775 633c e838 d23d 581a e6bd b060 063c
00000010: 4604 43bc 7e28 31bd 7a34 adbb 0030 e03d
00000020: 0372 fa3d 3437 b43c 2b19 a0bd db47 793d
00000030: 4b82 c53d 0f80 d2bd 54e9 ddbc ca90 f5bd
00000040: 4688 cfbc 16a0 c1bd 839b 87bd 2c4a 51bc
00000050: 7026 a53d 7062 bb3d e626 1abd fb3e 8bbc
00000060: c2bc 35bd b88c e83c 92b2 c7bc 5d10 33bd
00000070: 351c b8bd 2126 db3c 044d 2c3c b4de 9fbd
00000080: 9e92 9ebd 286e d23d dfda 8abd b9b8 95bd
00000090: 13ec 7cbd 82d7 133d 69b9 70bd 15a1 85bd
000000a0: acb0 50bd f93a 3cbd 5862 883d 3fb7 8f3d
000000b0: f007 28bd f897 853d 4e33 bbbb f558 8c3d
000000c0: 3e9a 64bd 15ca d23d 7bd3 d73c a840 86bd
000000d0: 949e 38bd c454 0ebd 2f60 8bbd 71d8 173c
000000e0: 39cf 98bc cabc a5bd 332b 7e3d 02a9 cbbc
000000f0: 2119 823d 8679 8f3d 4e21 d43c c7a0 95bd
0.013883046 0.1026476 -0.112354934 0.008201763 -0.011902874 -0.043251507 -0.0052857967 0.10946655
0.12228777 0.02199898 -0.078173004 0.060859542 0.09643992 -0.102783315 -0.027088799 -0.11990507
-0.025333535 -0.09454362 -0.066214584 -0.012774032 0.08063972 0.09149635 -0.037634753 -0.016997805
-0.044369467 0.028387412 -0.024377141 -0.043716777 -0.08989755 0.02675158 0.010516409 -0.07806149
-0.07742809 0.10274917 -0.067800276 -0.07310624 -0.061748575 0.036094196 -0.05877057 -0.065248646
-0.050949737 -0.04595468 0.066593826 0.07017373 -0.041023195 0.06523126 -0.005712903 0.06852905
-0.05581116 0.1029245 0.026345959 -0.06555301 -0.045073107 -0.034748808 -0.06805455 0.009267912
-0.018653499 -0.08092649 0.062052917 -0.024860863 0.06352449 0.07005601 0.025894787 -0.073060565

actor.pi_net.fcs.2.weight f4 [1, 64]
00000000: a77f aebd 6683 273f 53c5 08bf 7049 f93e
00000010: 5e46 e0be 01ed 51be 7c64 dfbd 7cfe b53d
00000020: 5711 da3d 4da3 453e eac0 0bbe d333 74be
00000030: e5f8 87be 80b7 09bf 25e1 7b3e 6acd afbd
00000040: 9749 8fbe 9218 61be 81b9 ce3e 31cb f7be
00000050: b3d5 883d 39a9 95be 5cb5 513e 233e 47be
00000060: 6f54 13bf 1072 d43d 758f 033e 20fc 8f3e
00000070: f56e ed3e cb36 823e 5575 d53d 4e1f 003f
00000080: 9923 08be 1c4f a8be a003 3ebe 0a08 8b3e
00000090: e476 cdbd e57d 09be 005e 59bd d523 b53d
000000a0: d425 f0be 332d fe3d 2e15 c1be 7eab 903e
000000b0: 00f5 a13d 1eb4 e33d ba37 aabe d5c1 023f
000000c0: ae3e 793e d2a5 993e 16d9 0fbe e609 ea3d
000000d0: 7fba 333e efcd 163f 4e92 a4bd 5bb6 e93e
000000e0: f72a 19bf 54d7 f2bc a25f 76be 1217 0d3d
000000f0: 3940 713e fa97 bf3e dbea b53e 58a3 893c
-0.085204415 0.65434873 -0.5342609 0.4868884 -0.43803686 -0.20500566 -0.10907838 0.0888643
0.106478386 0.19300576 -0.1364781 -0.23847894 -0.2655708 -0.53795624 0.24597605 -0.085841015
-0.27985832 -0.21982029 0.40375903 -0.4839721 0.06681385 -0.2923067 0.2047934 -0.19457297
-0.5755071 0.10373318 0.12847693 0.28122044 0.46373716 0.2543243 0.1042277 0.5004777
-0.1329483 -0.32872856 -0.1855607 0.2715457 -0.10032442 -0.13426931 -0.05306816 0.08844725
-0.4690386 0.12410965 -0.3771147 0.28255838 0.07908058 0.11118339 -0.3324564 0.51077014
0.24340317 0.30009323 -0.14047655 0.11427669 0.17551611 0.5890798 -0.08035718 0.4564694
-0.59831184 -0.029643692 -0.24059919 0.03444583 0.23559655 0.37420636 0.35530743 0.016801521

critic.v_net.fcs.0.weight f4 [64, 4]
00000000: 1a3f 3fbd b4b9 8a3d a63a 06c0 0644 9abd
00000010: e3ad 063f 6132 c1be 443d bcbf 7653 15be
00000020: e493 86bf b423 32bf e54e 99bf 1324 10bd
00000030: b428 98be d7a5 80be 4da0 26c0 ad1a e7be
00000040: dcbb c4be 8125 f2bd 9d6e 2ec0 435a acbe
00000050: abe4 cbbe 5a3f 91bf ec4a a2bf 275b 42bd
00000060: 6f05 cf3e b8d9 4f3f dcc1 f63f 50f3 003f
00000070: 5680 32be e146 593e fd5c 1540 672a 113f
00000080: 91cb 643f 18a7 083e 1cb6 0d40 eac1 ec3e
00000090: 5988 ccbe b023 1dbf 5366 0ac0 8a90 adbe
000000a0: 9141 0b3e 9003 3a3f 8c0d 0940 4dbb d8bd
000000b0: e1ad 2cbf fa5d dcbe 5a35 0140 c3db 663e
000000c0: 0ba9 263f 4892 903d e4af 2940 303b 183f
000000d0: bb8a c43e 6c66 553e 6b35 3a40 7155 f93e
000000e0: 6c5c 0f3e 8f4e 0c3f b151 23c0 fecf 343e
000000f0: 44bf 4b3f 8a76 81be 41b0 b7bf 4df2 63be
00000100: bec8 d5be 2707 c73e c486 bebf dbe4 a0bd
00000110: f6f4 8bbf 343e 3fbe e430 fb3f 9b2d 6dbd
00000120: f668 23bf f6f4 0fbf 59e9 39bf 3c34 ffbe
00000130: 6103 4d3f 47db 183f e4c3 593f cbb3 ee3e
00000140: b7cd 4dbe e98d 49be fee8 f93f c2c2 163f
00000150: 76c7 243d ca3b 6dbe bf3a eabf 034b 1bbf
00000160: 67e6 14bf fc16 45be ba25 dc3f d637 a23e
00000170: c090 9bbf 818d 59be ac5e 1440 c5d8 98bb
00000180: 38c3 0b3f 0842 5e3f 6fa5 ed3f 56f8 f63d
00000190: c5d3 213f e05c 513f 89f9 bd3f ec2e 80bd
000001a0: bb1d febe 548c 27bf c572 10c0 3dc4 28bf
000001b0: e7c9 41bf 8a8c 42bf 2d2a a2bf e9ff 28bf
000001c0: 7a2f 013f 7197 0d3e b2f7 0840 3296 d63d
000001d0: fa23 e5bd e3e6 8cbe 9234 fe3f 085d 233f
000001e0: 9cec 403f 07f2 29bf 7282 c8bf 9f13 12be
000001f0: 6ce4 58bf cf89 21bf 837f 74bf 40c3 edbe
00000200: 72db 153f fe33 0e3f 2b89 0b40 e144 fb3e
00000210: fcd0 15bf c481 bcbe 9b1d 21c0 8914 5fbe
00000220: e931 8dbf 81b8 1abe 9237 1b40 d090 693e
00000230: 1f4f 1cbf 52d9 9abe 9042 1ac0 d413 27bf
00000240: d34b f83e 67f0 4b3f ca14 1240 9794 e83e
00000250: 9e7c a3be e50e 8dbf 879f f3bf 9fbc a7bc
00000260: 6f2a 1fbe 861a dabe eda3 31c0 089e 28bf
00000270: fc34 77bf 9970 063d 37ca 0b40 6ce7 c93e
00000280: a3bd 53bf 8a33 fbbe ea76 bdbf b88a 49be
00000290: c404 87bf a3af 38bf d10e f0bf d8cd bcbe
000002a0: abbc fe3e e378 7b3f 3168 6a3f d787 023f
000002b0: 7f47 ca3e c63a 0e3f 168c db3f 78f3 983e
000002c0: 0a35 78bf 1ea3 03bf 62e8 c63f d17d 4d3f
000002d0: 0994 2cbf 583b 34bf d497 c1bf b018 30bf
000002e0: 6801 aa3f 0030 32be 4420 cdbf 7a6f 42be
000002f0: 48f6 9bbf d619 c5bd eebb 953f 493b e03d
00000300: 5ce9 933e fb8f 0d3e 1be8 0440 b73e 1ebd
00000310: 9cef 15bf 8953 a4be 7f61 2bc0 1381 7dbe
00000320: 6234 41be 8dcf 11bf a55e d4be 7c4e a0be
00000330: 254b d23e aa79 843e 9840 e8bf 9532 97be
00000340: 225f bcbd a91b efbe e337 0cc0 0240 fcbe
00000350: 2a5d e13e c5d1 043c 4294 4440 1d6c 4c3e
00000360: 0dc8 86bf 0af2 4a3f be3f f13f bde3 013f
00000370: f0e6 123f f7d5 be3e e08f 0240 91b9 523f
00000380: d9c2 f1bd 98a2 f33e acb5 c23f 68e3 593e
00000390: 2794 473f 114e a83e d283 3340 6624 363f
000003a0: a518 c3be fea8 6dbf bc7e 04c0 6b61 e9be
000003b0: d16d 9c3e e567 04bf f0c4 e9bf 4b44 a2be
000003c0: 1a76 583e c3fd 903e c984 be3f 1bf9 72bd
000003d0: ccbd 25bf f6a9 b7be 3502 0bc0 e579 52be
000003e0: 65bc 3e3f afe6 29bd f6c4 57bf d38e f4be
000003f0: ba30 423f 50e3 103f b4ab eb3f 7762 213f
-0.046691038 0.06773701 -2.0973296 -0.07532506 0.5260908 -0.3773375 -1.4706197 -0.14582619
-1.0513883 -0.6958573 -1.1977202 -0.035190653 -0.29718554 -0.25126526 -2.603534 -0.4513754
-0.38424575 -0.118235596 -2.7255013 -0.33662614 -0.39822897 -1.1347458 -1.2679114 -0.04745021
0.40433833 0.8119159 1.9277911 0.50371265 -0.17431769 0.21218444 2.3338006 0.56705326
0.8937312 0.13344991 2.21424 0.46241695 -0.39947775 -0.6138258 -2.1624954 -0.33899337
0.1359923 0.72661686 2.1414518 -0.105826 -0.6745282 -0.43040448 2.0188813 0.2254477
0.6510169 0.07059151 2.6513605 0.5946531 0.38387093 0.20839852 2.9095104 0.48698
0.140001 0.5480737 -2.551861 0.17657468 0.79588723 -0.2528575 -1.4350663 -0.22260399
-0.41754717 0.38872644 -1.4884877 -0.07856151 -1.0934131 -0.18676072 1.9624295 -0.05790482
-0.6383203 -0.56233156 -0.72621685 -0.4984454 0.8008328 0.5970959 0.8506453 0.46621546
-0.20098005 -0.1968304 1.9524229 0.58890927 0.040229283 -0.23167339 -1.8299178 -0.60661334
-0.58164066 -0.19247049 1.7199013 0.31683224 -1.2153549 -0.21245386 2.3182783 -0.004664513
0.54594755 0.86819506 1.8566111 0.12059085 0.6321376 0.8178234 1.4841777 -0.0625895
-0.49632058 -0.654485 -2.257005 -0.65924436 -0.75698704 -0.75995696 -1.2669121 -0.6601549
0.5046307 0.13827302 2.1401181 0.10477866 -0.111885026 -0.27519903 1.9859793 0.6381383
0.7536104 -0.6638493 -1.5664809 -0.14265297 -0.84723544 -0.63100904 -0.9550707 -0.46438026
0.5853797 0.55548084 2.180247 0.49075988 -0.5852201 -0.36817753 -2.517432 -0.21785177
-1.1030856 -0.15109445 2.4252667 0.22809148 -0.6105823 -0.30243927 -2.4103127 -0.6526463
0.4849535 0.796637 2.2825189 0.45425865 -0.31931013 -1.102017 -1.9033059 -0.020475684
-0.15543531 -0.4259836 -2.7756302 -0.65866137 -0.9656522 0.032822225 2.1842172 0.39434373
-0.8271124 -0.4906276 -1.4801915 -0.19681823 -1.0548329 -0.72143 -1.8754522 -0.36875796
0.49753317 0.98231333 0.91565233 0.50988525 0.39507672 0.5555843 1.7152126 0.29873252
-0.9695593 -0.5142077 1.5539668 0.80270106 -0.67413384 -0.7040305 -1.5124459 -0.6878767
1.3281679 -0.17401123 -1.6025472 -0.18987837 -1.2184534 -0.096240684 1.1697977 0.10948808
0.28888977 0.13824455 2.0766666 -0.03863403 -0.5856874 -0.32094982 -2.6778257 -0.24756269
-0.18867639 -0.5695732 -0.41478458 -0.3130988 0.41072956 0.25874072 -1.8144712 -0.2953078
-0.09197833 -0.4670079 -2.190911 -0.49267584 0.4401639 0.008106654 3.071549 0.19963117
-1.0529801 0.7927557 1.8847578 0.50738126 0.5738363 0.37272617 2.0400314 0.823144
-0.11804742 0.47584987 1.5211692 0.21278155 0.7796044 0.3287206 2.8049207 0.7114929
-0.3810474 -0.92835987 -2.0702353 -0.45582137 0.30552533 -0.5172103 -1.8263226 -0.31692728
0.21138802 0.28318605 1.4884273 -0.059319597 -0.6474273 -0.35871857 -2.1720097 -0.20554312
0.7450622 -0.041479763 -0.84284914 -0.47765216 0.758556 0.5659685 1.8411775 0.6304087

critic.v_net.fcs.0.bias f4 [64]
00000000: 6b03 94be f134 b93e 9381 d93e e51b 4fbe
00000010: d07c 333e d892 113f 7639 913e bed2 313e
00000020: 84a9 eb3e 10a6 5c3e 1d17 7c3e 897d 62be
00000030: 693a 843e ae7c 5a3e 380e b83e 45a5 4a3e
00000040: 7bd5 ed3e d779 b83e cbbe 063f 2d02 003f
00000050: ae05 4a3e 8be7 d5be c385 e33e 6c63 8fbe
00000060: c3b7 a6be cd46 c93e b3af c93e 396e 02bf
00000070: 3784 aebe 5c46 b9be 8ca0 483e d38d 05bf
00000080: dedd e4be 259a 9f3e 38b7 b5be 8aeb f53e
00000090: 8df1 dabe 0807 823e 8ca7 3dbe ffd7 adbe
000000a0: dff4 dabe 3c43 0bbf e51c 0c3f 2921 b03e
000000b0: c02f cd3e f228 2bbe 708b 6a3e 9a42 55be
000000c0: 9d3b 87be 5901 2bbe 9e5c b43e 744e 7bbe
000000d0: 4c6c f13e a508 39be 1f47 b1be 7c96 4bbe
000000e0: 4922 95be ab9d 593d 1e92 803e 97ed 95be
000000f0: 5863 cb3e 7e3a 9e3e 790c 03bf 86fa 123e
-0.28908858 0.36173204 0.4248167 -0.20225485 0.17528081 0.5686469 0.28364152 0.17365548
0.46027768 0.21547723 0.24618192 -0.221182 0.25825813 0.21336624 0.35948348 0.19789608
0.46451935 0.36030456 0.52634877 0.5000332 0.19728729 -0.41778216 0.4443799 -0.2800554
-0.32562074 0.3931183 0.3939186 -0.50949436 -0.34085247 -0.36186492 0.19592494 -0.5216953
-0.4470052 0.3117229 -0.35491347 0.48031265 -0.42762414 0.2539599 -0.18520945 -0.33953854
-0.42764947 -0.54399467 0.5473159 0.344003 0.40075493 -0.16714838 0.22904754 -0.20826188
-0.2641267 -0.16699733 0.3522691 -0.24541646 0.47152936 -0.18069704 -0.34624574 -0.19881624
-0.2912772 0.05312888 0.2511148 -0.2928283 0.3972423 0.30904 -0.51190907 0.1435338

critic.v_net.fcs.1.weight f4 [64, 64]
00000000: 6a2e 543e 886b bc3e c9c2 003e 73dc f43e
00000010: 93fe f53d fb08 9e3e e17e 58bf 9595 4cbf
00000020: 6b77 2bbe e289 263f 1e6a 4dbf c943 fa3d
00000030: a927 a6be 03f3 41be f7dc 09be 9cca 103f
00000040: f022 923d a9ae d2be 6fbd 4a3e 68e0 9ebe
00000050: 8f02 0bbe a297 d33e 27c3 71be b455 38be
00000060: 5646 cfbe 4117 febe 6c58 233e 98e3 d13e
00000070: 8f76 3abc 5a4b 23be c40c 333f ddd2 333e
00000080: 734c 02be 5eea 953e 11eb 9b3d 1e5a 393d
00000090: 951c c4be 3985 513f 7a2e e03e be96 0fbe
000000a0: a1cb 2d3e 72c8 0d3f ce17 11bf 1de4 e5be
000000b0: 128c c9be a8eb 5a3f 2872 833e aa35 b5bd
000000c0: 23d5 16be 9a81 3f3f b9d6 273e fd36 ce3e
000000d0: a2a9 c33d 288c 72be 3d94 a4be 830b a8be
000000e0: 863f 47be 8367 c8be 795b 393f 2ac5 463f
000000f0: ced4 afbd 4acf af3e 6e58 fc3d 2cbf 66bf
00000100: 5487 58be 2882 b53e 05e2 833f 6a28 533e
00000110: 1f0b 503f efc2 1e3f ef4a a7bd 1c31 84be
00000120: 7a1a e23c 60ff 913f 18ab 9ebc 218c 29be
00000130: 7a9f 21be 24cd 22be ed00 e83e 5a36 a73e
00000140: f52e db3e 8b84 b03e 8a77 063f f9b6 163e
00000150: a42e babc 51de 8bbc 5813 cc3d 1a4d 4cbe
00000160: 1945 8bbf aa5a 2e3e 792c 3a3f c6a0 f6bd
00000170: 6076 ffbe 2b9b f2be f1ea c63e ddac b0bd
00000180: 5d1e 2ebf 53d0 9c3f 0b40 39be f076 223f
00000190: 892d 87bf 3259 633f e096 ff3d f06a 86be
000001a0: eda6 83be e38b 1dbc 0624 533e cdb4 f23d
000001b0: 3df1 763e 6d88 c33e ca98 b53d 23d5 4fbe
000001c0: 1786 27bf a7e3 963e ad09 a63e 81cf ff3c
000001d0: 0860 123f 8974 99bf a15c dfbe 4b39 89bf
000001e0: a48e b3be c02f 15bf 7706 823f d935 6ebc
000001f0: 265e 823e bd39 763f 2252 98be 6cae dbbe
00000200: 5376 043e c65a dabe 6df1 75bf b703 23be
00000210: 8d60 4abf 554f 41bf 9b98 d53c 2954 0b3e
00000220: 0c7d 5bbe 793e a4bf 3d2c c33d 9db8 6d3e
00000230: 6c33 803d e431 6ebd 7f36 99be 9d92 66be
00000240: 3e5d debe 618b e4be 134c 2bbf df7e 62bd
00000250: 60ae 823c f374 4d3d 2bd8 4fbe dbbc a5bc
00000260: 4cf9 b53f 910c e53c d68d 5bbf f5f9 183e
00000270: d8ea 1f3f ec8c 993e d0f3 debe 95db 063e
00000280: 9e69 353f e47f a3bf 3357 af3d 758c 2cbf
00000290: 54f2 953f c464 8ebf fbb6 57be 59af 993e
000002a0: ddad 503b 9a14 3a3e 0721 d4bd ab17 13bd
000002b0: 37be b9be 5a69 88be b001 08bd 60ce 123d
000002c0: 38a9 273f 29e3 b9be e054 09bf 4657 4a3e
000002d0: f01c 00bf 8873 883f 24d7 9d3e 0f38 8f3f
000002e0: dfc4 ea3e a453 cb3e 601b 98bf 5792 a73d
000002f0: a846 a5bd 4f07 9bbf 7664 8e3e 59f2 b23e
00000300: 93ca ba3d 1a10 7e3e c4f9 6bbd bd43 953e
00000310: a7c6 863f f6c2 89bd fd9b 163e d415 14bf
00000320: aeee fcbc ca5e a43e bc0d 083e 8104 77bf
00000330: fad2 47be 46f4 51be 3f74 503f 8028 543f
00000340: 7931 c23e 1039 e4be 76be 043e 6e63 a53e
00000350: a519 00bf 7409 af3d 893e 1cbe 7d7c a8bf
00000360: 3a9a 0a3e 40af cc3e 8d3f fb3d 11be 15be
00000370: 97c5 95be 5408 28bf 111e 253e 0aa8 96be
00000380: 181a 24be 1640 9c3e b31a 85bf 4e9c df3e
00000390: f7e2 d1bd 5780 50be 895b 333e b6d0 3ebf
000003a0: 2051 96be 6b35 b7be 08bc 4a3e 5b04 503e
000003b0: 10a9 2cbf a954 24be fc67 733f c760 ffbe
000003c0: 3060 f0be 412d 693e f3d0 0f3d 88ad b63e
000003d0: 1282 d63e f3db 9fbf bef9 2cbe 9a2d e0be
000003e0: 7b68 b0bc a9fe e5be e07d ab3d 205f 45bd
000003f0: adae 123e f8af 873e 4b9c e33c 2c67 f03d
0.2072083 0.3680079 0.12574305 0.4782444 0.12011447 0.30866227 -0.845686 -0.79915744
-0.16744773 0.6505414 -0.80240047 0.1221996 -0.32452133 -0.18940358 -0.13463198 0.5655916
0.0713557 -0.4114888 0.19798826 -0.31030583 -0.13575195 0.41326624 -0.23609601 -0.18001443
-0.4048335 -0.49627116 0.15951699 0.40993953 -0.011380806 -0.15946713 0.69941354 0.17560907
-0.12724476 0.2928037 0.07613195 0.045251958 -0.38303056 0.81843907 0.4378546 -0.14022347
0.1697221 0.5538398 -0.5667695 -0.449006 -0.39364678 0.8551583 0.25673032 -0.08848126
-0.14729743 0.7480713 0.16390504 0.40276328 0.09553839 -0.23686278 -0.32144347 -0.32821283
-0.19457826 -0.39141473 0.724052 0.776446 -0.08585511 0.34337837 0.12321554 -0.90135455
-0.21145374 0.35450864 1.0303351 0.20620885 0.8126697 0.62016195 -0.08168589 -0.25818717
0.027600516 1.1406059 -0.019368693 -0.16557361 -0.15783492 -0.15898567 0.45313206 0.32658654
0.42809263 0.34476122 0.5252615 0.14718236 -0.022727318 -0.017073782 0.09964627 -0.19951287
-1.0880462 0.17026773 0.7272411 -0.12042384 -0.49895 -0.4738401 0.3885112 -0.08626721
-0.6801508 1.2251076 -0.18090837 0.63462734 -1.0560771 0.88807976 0.12479949 -0.26253462
-0.25713292 -0.009615871 0.2061921 0.11850891 0.24115463 0.38190022 0.08867033 -0.20296149
-0.6543898 0.2947056 0.32429257 0.031226875 0.5717778 -1.1988689 -0.43625358 -1.072061
-0.35069764 -0.58275986 1.0158223 -0.0145392055 0.25462455 0.9618185 -0.29750162 -0.4290651
0.12935762 -0.4264738 -0.9607151 -0.15919386 -0.79053575 -0.75511676 0.026073745 0.13606323
-0.2143442 -1.2831565 0.09529922 0.23214956 0.06259808 -0.05815305 -0.2992439 -0.22516866
-0.43430513 -0.44637588 -0.66912955 -0.055296775 0.01595229 0.05016036 -0.20297305 -0.020231655
1.4216704 0.027960094 -0.857633 0.14939101 0.6246772 0.29990327 -0.4354539 0.13169701
0.70864284 -1.2773404 0.08561554 -0.6740182 1.1714578 -1.1124501 -0.21065895 0.30016592
0.0031841912 0.18171921 -0.10357862 -0.035911243 -0.36277935 -0.26642877 -0.033204734 0.035841346
0.6549258 -0.36306122 -0.53645134 0.19759855 -0.50044155 1.0660257 0.30828202 1.1188983
0.45853326 0.3971225 -1.1883354 0.08182209 -0.08070117 -1.2111605 0.2781102 0.34950522
0.09120669 0.2481083 -0.057611242 0.29153243 1.0529374 -0.06726639 0.14707942 -0.5784581
-0.03087553 0.32103568 0.13286489 -0.9649125 -0.19514075 -0.20503339 0.8142738 0.828743
0.3792837 -0.44574785 0.1296328 0.3230242 -0.5003913 0.08546725 -0.1525823 -1.3162991
0.13535395 0.39977455 0.12267981 -0.14623286 -0.29252312 -0.6563771 0.1612475 -0.2942508
-0.16025579 0.30517644 -1.0398773 0.4367394 -0.10248368 -0.20361458 0.17515387 -0.7453722
-0.29358768 -0.35782942 0.1979829 0.20314161 -0.6744547 -0.1604792 0.9508054 -0.49878523
-0.46948385 0.22771169 0.03511138 0.3567927 0.4189611 -1.2488998 -0.16892144 -0.4378479
-0.021534195 -0.44920853 0.08373618 -0.04818642 0.14324446 0.2650144 0.027784487 0.117384285

critic.v_net.fcs.1.bias f4 [64]
00000000: 6ae8 71bd a1a0 a13e ad6f 84be a324 e53d
00000010: c3ae e6be 5210 d63e dad3 89be 01af d03e
00000020: d4ef 68be 2943 4d3e de0b acbe 229d 2bbe
00000030: 454c dfbe a4e8 82be 8cdf 6c3e f697 8fbe
00000040: a06f a43e 3ec5 49be 914e 683e 5e82 50be
00000050: 5343 9dbe 8fd0 bb3e c560 8f3e 6947 c23e
00000060: 6e47 7dbe 37d0 e23e 268f 95be 9c9e c13e
00000070: 6176 8c3e 1987 8abe 0d56 c73e 70fe 4a3d
00000080: 2114 b3be d53a 66bd 92b7 d83d 35e4 9e3e
00000090: c35e 153e 1781 28be 5ad2 72be ac38 9b3e
000000a0: c69c ad3e fd51 74be fb46 9c3e cf46 98be
000000b0: 0162 623e 7d93 813d 9c95 8abe 202f 3bbe
000000c0: 8096 503e b47a f7be f2fd 98be 9813 8abe
000000d0: 2d75 88be cf3c eabd 218b d93e a2d1 c33e
000000e0: bd3e e6be 35d3 ca3e a3a2 bfbe 4c99 46be
000000f0: 31fa 7fbe 8bd2 f23e 67fe b93e 69a4 823e
-0.059059538 0.31567863 -0.25866452 0.111886285 -0.45055208 0.41809326 -0.26919442 0.40758517
-0.22747737 0.20045151 -0.33602804 -0.1675916 -0.43612877 -0.25568116 0.23132151 -0.28045624
0.32116413 -0.19704148 0.2268622 -0.20362231 -0.30715427 0.36682555 0.28003517 0.37945107
-0.2473428 0.4429948 -0.29210776 0.37816322 0.27434066 -0.27056196 0.3893284 0.049559057
-0.34976295 -0.05620845 0.10581888 0.31033483 0.1458693 -0.16455494 -0.23713055 0.30316675
0.3390867 -0.23859401 0.30522904 -0.29741523 0.22107698 0.06326959 -0.27067268 -0.18279696
0.20369911 -0.48335803 -0.29881245 -0.26968074 -0.26651898 -0.114373796 0.4248896 0.38245875
-0.4496974 0.39614263 -0.3742877 -0.19394416 -0.24997784 0.47426257 0.36326906 0.2551606

critic.v_net.fcs.2.weight f4 [1, 64]
00000000: b6f6 67bf 23df f23f fbf1 f2bf 4c5c a23f
00000010: 3a6e 00c0 13cb fe3f aa97 a9bf f711 c83f
00000020: 4248 c6bf 5204 bf3f 94b0 c3bf 3daf e0bf
00000030: dba0 a1bf d2eb b6bf 5157 b03f 8244 a5bf
00000040: f90a e33f 91b6 03c0 fad3 be3f bdd3 e9bf
00000050: a184 c4bf ad96 fc3f a768 c33f eb70 ff3f
00000060: 468f b4bf 4803 ee3f 03d0 9f3f 8cba a63f
00000070: 6067 bf3f 6bd2 fcbf 3020 a93f b691 c23f
00000080: ae8e e7bf 6a00 c1bf e4cf bf3f 66b9 a03f
00000090: 3980 d03f 4478 bdbf b9e6 f6bf 0ea5 ff3f
000000a0: fa09 ad3f c005 a6bf d732 b83f a5ee c4bf
000000b0: 5ab8 ba3f 2949 9a3f c1d7 aabf 9675 bfbf
000000c0: b335 ca3f 0ad6 abbf d155 cbbf 887c b1bf
000000d0: 6b52 9ebf 0d81 f8bf d53f b53f 7142 a63f
000000e0: a437 aabf 82b0 e93f d56d dabf 5ada b4bf
000000f0: 1250 f1bf f41c 9b3f 5312 cd3f b8bc 0140
-0.90610826 1.8974346 -1.8980097 1.2684417 -2.0067277 1.9905723 -1.3249409 1.5630482
-1.5490801 1.4923193 -1.5288262 -1.7553478 -1.2627214 -1.4290717 1.3776647 -1.2911532
1.7737724 -2.058018 1.490844 -1.8267742 -1.5352975 1.9733483 1.5266312 1.9956335
-1.4106224 1.8594751 1.2485355 1.302568 1.4953423 -1.9751714 1.3212948 1.5200717
-1.8090417 -1.5078251 1.4985318 1.2556579 1.628913 -1.4802327 -1.9289161 1.9972246
1.351867 -1.2970505 1.4390515 -1.5385329 1.458751 1.2053577 -1.3347093 -1.4957759
1.5797638 -1.3424695 -1.5885564 -1.3866129 -1.2368902 -1.9414383 1.4160105 1.2989026
-1.329823 1.8256991 -1.7064768 -1.4129136 -1.885256 1.2118211 1.6021217 2.0271435

exp_avg f4 [64, 4]
00000000: fcf8 93b9 54e8 173a be09 a238 d781 12bb
00000010: c33c c337 c163 a1b7 e239 c837 bfdf 8838
00000020: e7e8 16b9 4424 b339 3280 de37 8741 9eba
00000030: f553 7a38 cec3 89b9 3826 c9b7 ae38 643a
00000040: c567 2fba 3343 1a3b 7fd3 9739 6dbc 04bc
00000050: dcba 8b3a 25c8 57bb 47b6 0aba 0250 393c
00000060: 7248 d2b7 0bce 5c38 d998 c637 a47d 58b9
00000070: abae 9b39 6448 00ba bb83 a5b8 ac52 f13a
00000080: 0b40 3e39 78d4 0dba 6ea2 8db7 7a64 0a3b
00000090: 9af0 c2b9 27b9 713a 8959 e538 ded3 52bb
000000a0: 4035 9db9 53b4 413a 4447 1039 0d94 29bb
000000b0: fa7c 14ba fb95 933a 4c2f 6c39 3664 81bb
000000c0: 69b5 21b9 3530 dd39 a674 8738 a032 bfba
000000d0: 5ade e23a 1b80 84bb e2cd 52ba ae9b 693c
000000e0: cb8c f53a f1f5 8ebb 106f 5fba 357d 7c3c
000000f0: 7a19 41b9 cc15 6239 ff5a 8c38 b9f3 4cba
00000100: a1e2 2a3a 0de9 92ba 68d4 87b9 4fac 813b
00000110: b103 823a 11ad 22bb a0e2 e3b9 dd32 0e3c
00000120: 699e 5239 f91c f6b9 441a 8db8 b036 ea3a
00000130: 9742 e13a 6c3c 84bb 20cb 49ba 8c19 693c
00000140: 66bf 5f39 53c2 d8b9 1cf7 22b8 090c c33a
00000150: 67f0 a537 696a e7b7 f8ad 4d36 22e2 b538
00000160: 074b 0ebb 7610 c03b a514 833a 4093 a5bc
00000170: a64a 43ba d2c1 e73a db5c 9a39 e521 d5bb
00000180: 9f58 8db9 8992 863a 01af 5539 f651 5ebb
00000190: 0ab4 1b39 23d8 feb9 22ab eab8 d662 d63a
000001a0: 8a21 54ba 0f73 c13a 00df 6539 b000 b1bb
000001b0: d3bf cf39 21d7 9aba b81a 1db9 c27c 843b
000001c0: 32cf bbb8 4d27 6d39 ee36 5538 b4fa 53ba
000001d0: dbc6 1c3b 8f06 c4bb bd7b 91ba 237f a93c
000001e0: 6b7f 803a ad15 0bbb 3e52 e9b9 4896 fa3b
000001f0: 0639 02b8 4330 fa38 135e 0fb7 bbab d0b9
00000200: ce8d 353a f7f9 fdba b444 cab9 b781 db3b
00000210: 85c0 4e39 1aad 06ba 95a7 a6b8 e041 e63a
00000220: db97 6eba 07a8 003b f079 ea39 898b dfbb
00000230: 78ed bc39 9787 72ba c308 5bb9 dec0 513b
00000240: bc6c 4638 c204 03b9 e255 5336 4943 d639
00000250: f8e1 ccba 2afc 723b 78bc 403a 87df 54bc
00000260: 8144 9b39 4952 56ba cb57 3db9 24be 333b
00000270: 381b 503a 23e6 01bb 03c5 d7b9 1810 e03b
00000280: 1441 eb39 40c6 88ba 5d51 45b9 3f53 743b
00000290: 7da2 313b b7ca d1bb 4c8b adba 64ae b53c
000002a0: 7583 cc3a 2909 56bb 055b 37ba cd6c 393c
000002b0: c5f6 a93a 590e 57bb b789 14ba c2bd 3a3c
000002c0: dde1 323a 2cb5 caba aaff b4b9 6032 ae3b
000002d0: ff75 d63a 9788 70bb 7a58 57ba 167c 4e3c
000002e0: 6e7f 20ba ba87 7f3a 5245 2e39 74e5 72bb
000002f0: 4bd2 58b9 d6bb a239 d158 d438 35d4 92ba
00000300: ff52 0636 1d54 90b8 7173 c6b7 9a5e 4139
00000310: eec1 9438 0f24 1bb9 3edd 84b8 253f 003a
00000320: 07bf aeba 9370 653b ff19 313a 1915 45bc
00000330: be08 95b7 6e31 ba38 bf58 0838 7732 8bb9
00000340: 6b27 8a3a cd2e 24bb 1035 cab9 e655 0e3c
00000350: 5e72 cdb7 1d75 d938 abf4 edb6 2cbe b7b9
00000360: 020e c7ba 32aa 463b ea77 0f3a 5812 2ebc
00000370: 4b5d 60b9 6c87 343a 5c2b e638 a900 22bb
00000380: f579 113b 6d25 aebb f611 87ba 6613 953c
00000390: e6d3 cc3a f1a6 67bb a674 39ba 9cf9 493c
000003a0: a13a bc3a 806b 7bbb 44db 32ba 287c 563c
000003b0: 982f bfba c881 5c3b 5307 293a 0f49 3ebc
000003c0: 5700 c2b9 d4c2 6b3a 16ba e638 1d9d 4abb
000003d0: cbdc 4fbb ce2e fe3b 6e9f c33a 8d5a dabc
000003e0: 386c aeba fdb6 533b d51d 2c3a 8d71 35bc
000003f0: 2d37 1cba d6b6 9c3a f016 8f39 a5b6 87bb
-0.00028223533 0.00057948125 7.7265766e-05 -0.0022355223 2.3274106e-05 -1.9239147e-05 2.3868812e-05 6.526661e-05
-0.00014391878 0.0003416856 2.6524158e-05 -0.0012073972 5.9682836e-05 -0.00026276562 -2.3978864e-05 0.00087059557
-0.0006691183 0.002353859 0.0002895854 -0.008101565 0.0010660547 -0.0032925692 -0.00052914437 0.011310579
-2.5067686e-05 5.264398e-05 2.3674615e-05 -0.0002064617 0.00029694042 -0.00048935995 -7.89235e-05 0.0018411479
0.0001814367 -0.00054103835 -1.6884147e-05 0.0021117018 -0.00037181826 0.000922101 0.00010936248 -0.003216974
-0.00029985048 0.0007389236 0.00013759459 -0.0025875599 -0.0005664375 0.0011259908 0.00022524333 -0.0039487137
-0.00015421737 0.00042188322 6.459029e-05 -0.0014587231 0.0017308698 -0.0040435917 -0.0008041543 0.014258308
0.0018733976 -0.0043628146 -0.00085233245 0.015410711 -0.00018415405 0.0002156116 6.6926696e-05 -0.00078183
0.00065187557 -0.001120837 -0.00025907462 0.0039573084 0.0009919313 -0.0024822394 -0.00043465663 0.008679119
0.00020086173 -0.00046942363 -6.728296e-05 0.0017869081 0.0017185983 -0.004035523 -0.00076978095 0.014227282
0.00021338239 -0.00041343513 -3.885395e-05 0.0014880906 1.9781479e-05 -2.7586897e-05 3.0648644e-06 8.672873e-05
-0.00217122 0.0058613373 0.0010000659 -0.020211816 -0.0007449783 0.0017681664 0.00029442352 -0.0065042847
-0.00026959644 0.001026706 0.00020378457 -0.0033923364 0.00014849022 -0.0004860769 -0.000111898655 0.001635636
-0.0008092156 0.0014759022 0.00021922216 -0.0054016933 0.00039625037 -0.0011813381 -0.0001498264 0.0040431926
-8.955448e-05 0.00022616722 5.0834315e-05 -0.0008086369 0.0023922238 -0.005982227 -0.0011099499 0.020690506
0.0009803599 -0.0021222637 -0.00044502498 0.0076473095 -3.1047522e-05 0.000119299184 -8.545368e-06 -0.000398008
0.00069257326 -0.0019376863 -0.0003857963 0.006698813 0.0001971741 -0.00051374885 -7.9467114e-05 0.001756724
-0.0009101608 0.0019631402 0.00044722809 -0.006822054 0.00036035082 -0.0009251772 -0.00020888732 0.0032005827
4.7308145e-05 -0.00012494906 3.149144e-06 0.00040867392 -0.0015631309 0.003707657 0.0007352303 -0.012992746
0.00029614943 -0.00081757136 -0.0001805715 0.0027426565 0.0007938626 -0.001982101 -0.0004115478 0.006837856
0.0004487118 -0.001043506 -0.00018817694 0.0037281064 0.0027104907 -0.0064023393 -0.0013240366 0.022177882
0.0015603142 -0.0032659268 -0.0006994459 0.011317444 0.001296722 -0.0032814948 -0.0005666273 0.011397781
0.00068238174 -0.001546537 -0.0003452276 0.0053160638 0.001636207 -0.0036702508 -0.0008214783 0.012602827
-0.0006122504 0.0009747703 0.00016619757 -0.0037063034 -0.00020677705 0.00031038997 0.00010125491 -0.0011202159
2.0015866e-06 -6.8821224e-05 -2.3657196e-05 0.00018441156 7.093312e-05 -0.00014795385 -6.33546e-05 0.0004892222
-0.0013332077 0.0035009726 0.0006755888 -0.012028956 -1.7766255e-05 8.878378e-05 3.2507578e-05 -0.00026549745
0.0010540312 -0.002505231 -0.00038567977 0.008687472 -2.449116e-05 0.000103691804 -7.0916335e-06 -0.0003504617
-0.001518667 0.0030313847 0.00054728857 -0.010624491 -0.00021397059 0.00068866345 0.00010975331 -0.0024719632
0.0022197936 -0.00531452 -0.0010305035 0.018197726 0.0015627115 -0.0035347308 -0.0007074572 0.012327578
0.0014360734 -0.0038363636 -0.0006822834 0.013091125 -0.0014586328 0.0033646692 0.000644793 -0.011614098
-0.00037002817 0.000899357 0.00011001916 -0.00309164 -0.0031717296 0.0077570444 0.0014924833 -0.026654506
-0.0013307398 0.0032305114 0.00065657246 -0.011074436 -0.00059591496 0.0011956345 0.00027292175 -0.004141646

exp_avg_sq f4 [64, 4]
00000000: 3df0 8e39 6c76 233a 280f a537 a496 e039
00000010: 15fa 8a34 b26c 3235 849e 0533 1819 e734
00000020: f42b 9838 a3c6 2e39 bf5c b436 d499 f038
00000030: 4050 2738 5eb9 bd38 a9fc 4736 e715 8438
00000040: cd7b 5d3b ecd9 fd3b 5712 7b39 0562 ae3b
00000050: 4488 d73b 4258 753c 733e f439 6a64 283c
00000060: c6c7 c435 6710 4536 f292 a833 c033 0436
00000070: f9f0 3e39 3517 db39 6f58 5e37 5ce9 9639
00000080: 1e96 8f39 141c 293a 600b a637 74ea e739
00000090: b196 f639 026a 8b3a 8f71 0d38 cb9c 3e3a
000000a0: e14f af39 f165 483a 16b6 c737 5511 0a3a
000000b0: 964e 523a 2d42 f13a 0ad7 7238 d0a5 a63a
000000c0: 0872 f238 ce61 8a39 ed4f 0a37 389d 3e39
000000d0: 476b 293c 6624 bf3c 0a6f 423a c172 843c
000000e0: 699d 423c 7e28 da3c 70fa 5a3a 0c31 953c
000000f0: 568e ec37 b09c 8438 362a 0b36 75e0 3638
00000100: 86ca 533a 4340 f33a 452c 7438 d505 a83a
00000110: da18 7c3b 65c1 0f3c 9fee 8e39 7cc5 c53b
00000120: 5182 3b39 be11 d839 de3d 5537 3c4c 9439
00000130: d56a 273c 7528 bc3c ed5b 403a 724e 823c
00000140: 9444 d738 bee7 7439 d352 f636 82a0 2639
00000150: de3e 5c35 8f26 1b36 b6a8 a233 3315 e235
00000160: b66f a83c ddf7 3f3d a1dd bf3a d53d 043d
00000170: b8a5 163b fc49 ac3b 99c7 2a39 88bb 6c3b
00000180: dd60 133a 7226 a63a 3269 2538 bb57 653a
00000190: be29 fe38 be28 9139 a5b7 0e37 eb1d 4939
000001a0: 7e2e cb3a 8b2f 693b c77d eb38 bf8e 203b
000001b0: fc6d 5c3a 7c63 fd3a 010b 7838 b59f ad3a
000001c0: f12f 1438 733b a838 03ab 2636 b077 6738
000001d0: 4693 af3c 2797 473d 3daf c73a 3a55 093d
000001e0: 1050 3b3b 8d21 d03b ae0d 4e39 a74c 8d3b
000001f0: 6656 fc36 d1c0 8c37 2c0d 1435 8167 3e37
00000200: 316c 113b a656 a53b 0841 2539 8ecf 633b
00000210: 21e1 0f39 1b31 a439 2bfa 2337 9549 6239
00000220: 746a 103b f765 9f3b 97a3 2439 1321 5d3b
00000230: 10ef 133a c7a5 a93a c555 2e38 757d 6e3a
00000240: 0fd1 a436 560f 3737 4021 c334 80dc f336
00000250: 84c2 0a3c 22be 9b3c 8b3b 1f3a b6bc 573c
00000260: e675 b739 116d 4d3a 2211 d337 92fe 0d3a
00000270: 0878 1d3b d987 b33b 45ca 3639 016a 7a3b
00000280: c113 403a 787f dc3a 1eb9 5a38 a419 983a
00000290: 12e7 c63c ec15 613d cd58 e23a 4d19 1b3d
000002a0: aa10 d33b 869e 703c 064d f239 5616 263c
000002b0: 1832 d43b 8590 6f3c ace9 ee39 3b13 243c
000002c0: 116a ae3a a638 453b 3dba c438 3e3d 083b
000002d0: e6f2 ff3b 36df 903c 7b5f 123a 5ce4 473c
000002e0: b49a 503a 59f1 f23a 1814 7038 0346 a73a
000002f0: 629b 8a38 41d0 1f39 b01e 9b36 d9b9 dc38
00000300: fba9 9f34 9a2a 1e35 b956 d632 67f4 d434
00000310: 4067 3037 0c4f c637 67e5 3e35 225c 8637
00000320: e9df ed3b edc0 873c ea1b 083a e361 3b3c
00000330: 01f2 d035 31e4 5e36 7999 cb33 67ef 0c36
00000340: dee2 793b 3042 0e3c c7f1 8f39 5d04 c43b
00000350: 70b3 dc36 37cf 7537 23f2 0035 15e6 2537
00000360: 7be5 b83b 2625 533c 2942 d039 02fa 103c
00000370: ef6a a739 63d7 3e3a 0551 bd37 ba28 033a
00000380: fedd 7e3c 8fc1 103d 533b 913a 209a c73c
00000390: 6221 f93b aac7 8d3c 8bea 0d3a ab63 433c
000003a0: f08d 0a3c f2c3 9d3c d526 1d3a 9837 593c
000003b0: 4d61 d83b 4771 753c a8f3 f639 d78e 293c
000003c0: 1540 e939 cfa1 843a a454 0938 0d01 393a
000003d0: f22b 073d c326 993d 421b 193b 177f 523d
000003e0: 1aa2 c13b 39fb 593c 6e8a dc39 d8cd 163c
000003f0: 99c4 6c3a 929e 083b 3bec 8838 c981 bd3a
0.00027263342 0.0006235603 1.967659e-05 0.00042836845 2.5886462e-07 6.646834e-07 3.1110645e-08 4.304536e-07
7.256112e-05 0.00016667931 5.375215e-06 0.000114727445 3.989064e-05 9.0467496e-05 2.9800378e-06 6.29833e-05
0.0033795715 0.0077469256 0.00023944057 0.0053217434 0.0065775234 0.014974656 0.00046585835 0.010277847
1.466128e-06 2.9364835e-06 7.849839e-08 1.9699655e-06 0.00018209581 0.00041788226 1.3252821e-05 0.00028784096
0.00027386931 0.00064510223 1.9794039e-05 0.00044234435 0.0004703305 0.0010636451 3.372278e-05 0.0007271289
0.00033438115 0.0007644585 2.3807439e-05 0.0005266865 0.00080225745 0.0018406563 5.7897567e-05 0.0012714211
0.00011560699 0.0002639428 8.24405e-06 0.0001817838 0.010340518 0.023332786 0.0007417059 0.016168
0.01187835 0.026630636 0.0008353358 0.018211864 2.8199673e-05 6.323436e-05 2.0737184e-06 4.3601223e-05
0.00080791896 0.001855858 5.8215363e-05 0.0012819121 0.003846696 0.008774136 0.00027262137 0.006035505
0.00017882256 0.0004121195 1.2710194e-05 0.0002828556 0.010218342 0.02296851 0.0007337917 0.015906546
0.000102647726 0.00023355984 7.3410133e-06 0.00015890787 8.204787e-07 2.3119244e-06 7.574401e-08 1.6844482e-06
0.02056108 0.04686724 0.0014638194 0.03228553 0.002298696 0.005257843 0.0001628682 0.003612252
0.0005622039 0.0012676253 3.9437036e-05 0.00087487296 0.00012119439 0.0002768691 8.506618e-06 0.00019179999
0.0015501527 0.0035581316 0.00011229101 0.0024499146 0.0008408723 0.0019332017 5.9138056e-05 0.0013246449
3.53306e-05 8.0219375e-05 2.483547e-06 5.518616e-05 0.02143253 0.048728134 0.001523472 0.033528544
0.0028581657 0.006351656 0.00019650787 0.004312116 7.5202433e-06 1.6779088e-05 5.5153464e-07 1.1348981e-05
0.0022189731 0.0050457297 0.00015759852 0.0034761163 0.0001372141 0.00031317104 9.773804e-06 0.00021580451
0.0022036107 0.00486445 0.00015701201 0.0033741638 0.0005643228 0.0012943082 4.1564712e-05 0.0009097674
4.9119185e-06 1.0911221e-05 3.6345773e-07 7.267634e-06 0.008469228 0.01901156 0.0006074241 0.013167551
0.0003499232 0.00078363816 2.5161138e-05 0.0005416657 0.0024027843 0.005478841 0.00017432224 0.0038210156
0.00073271623 0.0016822657 5.2147654e-05 0.0011604321 0.024280105 0.054952547 0.0017268896 0.037865926
0.0064411955 0.014686232 0.00046215224 0.010137161 0.006475698 0.0146218585 0.00045568997 0.0100143505
0.0013306757 0.003009358 9.380698e-05 0.0020788456 0.007810938 0.01768456 0.00055836857 0.012200441
0.0007957623 0.0018535062 5.7239173e-05 0.0012761954 6.609295e-05 0.00015241002 4.6229325e-06 0.00010525034
2.9739735e-07 5.892158e-07 2.4952316e-08 3.9665903e-07 1.0514457e-05 2.3640248e-05 7.111434e-07 1.6016947e-05
0.007259358 0.016571486 0.0005192148 0.011436912 1.556764e-06 3.3213403e-06 9.480841e-08 2.1000976e-06
0.0038129608 0.0086827725 0.00027455224 0.0059819655 6.5774e-06 1.4651384e-05 4.803607e-07 9.8883365e-06
0.0056425906 0.012887275 0.00039722145 0.008848669 0.00031932394 0.000728002 2.2568283e-05 0.0005003322
0.015555857 0.03534084 0.0011080302 0.024365485 0.0076028565 0.017307121 0.0005413673 0.011925618
0.008456692 0.019258473 0.0005994861 0.0132578835 0.006603396 0.014980621 0.00047102314 0.010348997
0.00044488968 0.0010119024 3.2742173e-05 0.00070573465 0.033000894 0.07478096 0.0023362194 0.051390734
0.0059092166 0.013304525 0.00042064808 0.00920435 0.0009031981 0.0020846468 6.528987e-05 0.0014458235

exp_avg f4 [64]
00000000: 556c 1d3c 6b2c f138 a00b a33b e704 2cbb
00000010: 2ecb 003d 3432 46bd 40b0 523a 78e4 03bc
00000020: 37f8 13bc 3053 513c 9c0c 413c e3e5 903c
00000030: 7df8 af3b e9fc 7dbd fad6 89bd 0010 833b
00000040: 5a4b 98bc 51f4 12bd c12f 05bc 1499 78bd
00000050: 2b60 bcbb 63ab 08ba 676e ab3d dc50 ee3c
00000060: e014 6a3c e728 0abc 0654 b53c f485 7fbc
00000070: e4a1 583b f48f b4bd 451f 0abd 6bc2 c639
00000080: b5f2 fcbc 38b7 fabb 512f ed3c fd0a 66bc
00000090: a530 d3ba f4cd 613d 2bf5 51bc b295 f2bc
000000a0: 1523 8abc a8b8 c9bd 2bc7 50bd ad9b 45bd
000000b0: 81d6 bebc 9c95 6cbd 0209 8a3c 96a3 ca3b
000000c0: e39b b3ba 7ebb 5dbb c299 5e3d 1b72 063b
000000d0: 024c 0dbd 0a77 ed39 8c4b 323d 94b1 363c
000000e0: 51bf 9fbd 7c7b 5ebd 106e 5fbd 9314 423d
000000f0: c036 393c 5b23 ec3d 3e11 3b3d 7785 a03c
0.009608348 0.00011500049 0.004975751 -0.002624804 0.031443767 -0.04838772 0.00080371276 -0.008050077
-0.009031347 0.012776181 0.011782791 0.017687744 0.0053701983 -0.062008772 -0.06730457 0.00399971
-0.018590618 -0.03587753 -0.008129061 -0.06069286 -0.005748769 -0.0005213527 0.08370667 0.029091291
0.014287204 -0.008432603 0.022134792 -0.015595902 0.0033055479 -0.088165194 -0.033721227 0.00037910356
-0.03087745 -0.007651236 0.028953226 -0.014040706 -0.001611252 0.055128053 -0.0128148 -0.029612396
-0.016862432 -0.098496735 -0.05097119 -0.048244167 -0.023295643 -0.057759866 0.016849998 0.0061840517
-0.0013703074 -0.0033833678 0.054345854 0.002051479 -0.034496315 0.00045292854 0.04352908 0.011150736
-0.078001626 -0.054316983 -0.054548323 0.047382902 0.011304557 0.11530181 0.04567074 0.019594891

exp_avg_sq f4 [64]
00000000: f463 1f3e 7c67 2a39 c236 2a3d 6e18 bb3c
00000010: ba2b f63f ba4c 7040 d076 503a cc79 d53d
00000020: a4f6 1f3e 7d09 893e feac 433e d192 eb3e
00000030: fa09 863d 6342 be40 90ba d840 b252 863c
00000040: 338c ed3e 3a70 0c40 68b3 d03d 0f16 bc40
00000050: 9a4d 6e3d 48d5 043a 09d7 3b41 5aff a73f
00000060: 1eac a33e bd61 8f3d 8631 633f 7ef2 f33e
00000070: ef64 a43c 6dc1 4341 ec08 d03f 8bc7 883b
00000080: 5f2d a23f 3d07 a13d d5ab a23f c399 a73e
00000090: 4253 373b b3b3 9b40 8016 4d3e f96c b13f
000000a0: b9d6 d63e dfdb 5d41 4e40 6c40 68a9 6b40
000000b0: 2a1e 433f 0308 8f40 cc48 e93e d13b 1b3d
000000c0: f5dd 3239 e067 c73b 94d7 8440 408b 673a
000000d0: b90d 0b40 a88c 6c3b 1fd0 4d40 e022 3a3e
000000e0: f593 0e41 1de5 8a40 673a 9a40 0dc0 7140
000000f0: ede2 823e f0b5 9641 2e75 5840 db1a 053f
0.15565473 0.00016251014 0.041556127 0.022838797 1.9232094 3.754683 0.0007952275 0.104236215
0.1562143 0.2676505 0.1910896 0.4601045 0.06544872 5.945604 6.7727737 0.016396854
0.46396026 2.1943498 0.10190469 5.8776927 0.058179475 0.0005067182 11.739999 1.3124802
0.31967252 0.07001064 0.8874744 0.47645944 0.02006766 12.234723 1.6252723 0.004174178
1.2670096 0.07862709 1.2708689 0.32734498 0.002797321 4.865686 0.20028114 1.3861381
0.41960695 13.866179 3.6914248 3.6822147 0.762179 4.469728 0.45563352 0.037898842
0.00017058088 0.006085381 4.1513157 0.00088327006 2.1727126 0.003609458 3.2158277 0.18177366
8.911122 4.340468 4.819629 3.7773468 0.25563756 18.838837 3.382152 0.51994103
