walkthroughs/tutorial_models/tutorial_results/ppo/seed222_Feb-03-22-21-39_v0.5.0-53-g59b8ae6/checkpoints/model_900000.pt (torch, 147434 bytes, 30 tensors)

actor.pi_net.fcs.0.weight f4 [64, 4]
000000 9a 40 8c 3e 11 ac a3 be eb fd 97 3f 1c ac ce be
       0.27393037 -0.31967214 1.1874365 -0.40365684
000010 eb 57 67 3e 14 1d d3 3e a6 1b d9 be 63 31 c5 3e
       0.22592132 0.41233122 -0.42403907 0.38514242
000020 03 d5 5d 3e 5f 6c b8 ba 90 b8 d1 3e 91 b8 66 be
       0.21663289 -0.0014070383 0.40961123 -0.22531344
000030 52 e6 c5 3e 8f bc af be ca a6 3a bf 77 56 3c be
       0.38652283 -0.34323546 -0.7291075 -0.18392359
000040 e6 16 32 be 4c 27 9e 3e d6 0d d4 3f d9 ab 5e 3f
       -0.17391548 0.30889356 1.6566722 0.8698097
000050 ba 75 d8 3e 9f ff b2 bc 6b 07 ba bf 33 2c 2d bf
       0.42277318 -0.021850405 -1.4533514 -0.6764557
000060 5f 35 b0 3e d9 d7 c6 bd 6e 4a fb 3e 1d 1f 81 bd
       0.3441572 -0.097091384 0.49080223 -0.063047625
000070 6b d3 6b 3d f7 17 14 3e 69 86 34 bf b7 94 8c 3e
       0.05757467 0.14462267 -0.70517594 0.2745721
000080 18 70 ce be dd c3 8a be 39 e2 61 bf f2 26 f6 3e
       -0.40319896 -0.27102557 -0.88235813 0.48076588
000090 e9 f4 db 3e 51 aa ed be a5 ef 87 3f 87 92 b9 be
       0.4296029 -0.46419004 1.0620009 -0.36244604
0000a0 b6 d3 52 3e 33 72 43 3d 1b 7d 54 3f 56 3d 5c bc
       0.20588574 0.04771633 0.83003396 -0.013442358
0000b0 6b 55 7b be 84 7b 86 3e 92 dd 63 3f 32 c7 52 3e
       -0.24544303 0.2626611 0.89009964 0.205838
0000c0 c8 ef 9f be 0c 3a 0b 3c c5 cf 77 3f f1 98 9e bd
       -0.31237626 0.008497726 0.96801406 -0.07744015
0000d0 8f ca ba bd f1 89 1b bf a6 5a 8a bf f8 dd b2 3b
       -0.09120666 -0.60757357 -1.0808914 0.0054585896
0000e0 e8 ea b7 bc 7f 78 38 3e 11 2b a3 bf 06 03 36 bf
       -0.02245088 0.18014716 -1.2747518 -0.71098363
0000f0 07 18 f8 be 36 b7 c7 be 9d 12 85 3f 06 8f 56 3e
       -0.4845583 -0.39006966 1.0396305 0.20952997
000100 a8 87 b0 3e a3 d2 c1 be c2 bb 7e bf 3b 62 b8 be
       0.34478498 -0.37856016 -0.99505246 -0.36012444
000110 8b 7d 2a bd 3f 44 5c be b2 a9 9d bf 6c c8 33 bf
       -0.041623633 -0.21510409 -1.2317412 -0.70227695
000120 73 95 89 be 02 c5 08 3e 8d dc 5b bf a7 1a c4 3e
       -0.26871833 0.13356403 -0.8588341 0.38301584
000130 39 34 19 be 55 a1 28 bf 63 41 94 bf 53 42 3e bc
       -0.14961328 -0.65871173 -1.1582454 -0.011612493
000140 16 e2 22 bd c3 5f eb 3e 5e 54 8c bf 37 3a 10 3f
       -0.039766394 0.45971498 -1.0963247 0.5633883
000150 23 5b 76 3e 13 4d 9a 3d ea cc 96 be e9 22 9f 3e
       0.24058203 0.07534232 -0.29453212 0.31081322
000160 9b 95 f7 bd e9 f3 f4 3e 2c d3 dc 3f d5 77 6a 3f
       -0.12089082 0.4784234 1.7251945 0.915891
000170 9c 61 a4 3e 18 39 ad 3e 19 7e ac 3f 5f f5 0e be
       0.3210572 0.33832622 1.3475982 -0.13960789
000180 b9 08 ad be ac da 67 3e 0f ec 9f 3f c1 da 2b bd
       -0.33795717 0.2264201 1.2493914 -0.041956667
000190 32 fc 01 bf 6a 16 4f be a6 a1 fc be 41 9f 98 bd
       -0.50775445 -0.20223394 -0.49342078 -0.0745225
0001a0 45 2c 3f be 0d 18 0d 3d ea e5 8a 3f c7 ad b0 be
       -0.18669231 0.034446765 1.0851414 -0.34507582
0001b0 83 a7 ba bc 50 05 1a 3e 3e f2 a0 bf 3b 9c d0 be
       -0.022784954 0.15041089 -1.2573926 -0.40744194
0001c0 e7 94 28 bd 75 96 49 3d d6 2d 40 3f e4 5e 93 3e
       -0.04115763 0.049215753 0.7506994 0.28783333
0001d0 07 ea 40 3d ca 24 1e be a2 2f bc bf e8 ef 27 bf
       0.047098186 -0.15443721 -1.4702036 -0.6560044
0001e0 34 63 c6 be bc 8a 8a 3e 61 c8 6e bf 37 00 4d bf
       -0.3874756 0.2705897 -0.93274504 -0.8007845
0001f0 2c d6 ab bd 9d d3 ba be 72 fb 7a 3f 1b ca 71 be
       -0.083904594 -0.36489573 0.98039925 -0.23612253
000200 33 f9 f5 be c2 39 d5 bd f9 10 c7 bf 98 55 ab be
       -0.48041686 -0.10411407 -1.5552055 -0.3346374
000210 ec 8c 88 be 34 43 81 b8 23 39 3c bf 77 d7 5f 3e
       -0.26670015 -6.163717e-05 -0.73524684 0.21859537
000220 1b 21 f6 3e 55 4d 41 3f 84 8b 9a 3f 75 62 8e 3d
       0.48072132 0.75508624 1.2073827 0.06952373
000230 84 31 75 3e 17 25 0e bf ee 68 18 bf dd 80 c3 bd
       0.2394467 -0.55525345 -0.5953511 -0.09546063
000240 ab 5d cd be 96 ed 8b 3e 57 43 eb be 73 f8 5e 3e
       -0.40110525 0.273297 -0.45949814 0.21774463
000250 d3 15 16 3c d0 f9 3f 3f 78 ee ab 3f da 6e 2d 3e
       0.009160477 0.7499056 1.343215 0.16936818
000260 8c 57 3e be c0 d8 21 3d 35 ec 47 bf d7 dd c9 be
       -0.18588084 0.03951335 -0.780948 -0.39427063
000270 8e 2e 87 3d 4e 92 f4 be 76 91 37 bf 3c d8 7a bd
       0.066006765 -0.47767872 -0.7170633 -0.061241373
000280 1e 55 05 be 3b f3 ca be 70 35 8c bf 19 e5 76 3c
       -0.13020751 -0.39638695 -1.0953808 0.01506927
000290 cf e5 2f be 53 a5 3c bd be bf cf bf 4b 33 12 bf
       -0.17177509 -0.046056103 -1.623039 -0.57109517
0002a0 25 a6 a0 3e 65 c8 96 be b6 89 9c bf a7 39 0c bf
       0.31376758 -0.29449764 -1.2229526 -0.5477547
0002b0 fa 8f ec 3b 91 dc ae 3e e9 69 ba bf ad bd d4 be
       0.007219312 0.34152654 -1.4563571 -0.4155096
0002c0 68 cc 07 bf fd 79 68 be 0e cc 76 bf e8 51 5b be
       -0.53046274 -0.22702785 -0.9640511 -0.21417964
0002d0 c8 59 da 3c c3 4f ad be 94 e5 a9 bf c8 03 4d bf
       0.02665414 -0.33849916 -1.3273187 -0.80083895
0002e0 55 97 30 be 63 db 11 3f 7d a0 9b 3f ba 35 e6 3b
       -0.17245229 0.5697538 1.2158352 0.0070254477
0002f0 8e f7 cb be 19 81 90 3d 31 57 59 3f 4b fd 81 3d
       -0.39837307 0.070558734 0.8489867 0.0634714
000300 bd c2 53 be 60 a4 0f bd 42 15 02 be 95 c7 03 be
       -0.20679756 -0.03506887 -0.12703422 -0.12869103
000310 ed 2b 49 3e 32 5d 59 3e fa 1e ef be 48 7e da be
       0.19645663 0.21226957 -0.4670332 -0.4267447
000320 2e a8 9e 3e 16 e9 10 3f b2 b0 af 3f 11 9c 17 3f
       0.30987686 0.5660566 1.3725798 0.59222513
000330 16 13 e9 3e be 16 50 be d7 da 41 3e a3 eb fc 3e
       0.45522374 -0.20321175 0.18931137 0.49398527
000340 0f 59 63 3e 7b 1c 1f 3d 6b 1e 87 bf 74 7c a2 3e
       0.22201942 0.03884552 -1.0556158 0.31735575
000350 4d b4 ab be 8d 16 e2 be ad 23 94 3f 28 a8 07 bf
       -0.33535996 -0.4415783 1.1573387 -0.5299096
000360 11 55 10 3f 23 c7 06 be 95 4a d6 3f 53 3c 2a 3f
       0.563798 -0.13161902 1.6741511 0.664983
000370 01 a6 dd 3e 63 11 33 be a1 af 70 3f d8 c1 3c be
       0.43290713 -0.17487101 0.9401799 -0.1843332
000380 47 b6 13 bf f5 9e 5e be db fc b2 bf fe 81 d9 be
       -0.5770001 -0.21740325 -1.3983415 -0.4248199
000390 50 fa ef bb 4d 03 46 bd 8a b6 a3 bf 74 62 34 be
       -0.0073235407 -0.04834299 -1.2790082 -0.17615682
0003a0 bd e7 f9 bc 16 ec ee bd c3 ee dd bf 90 62 05 bf
       -0.03050601 -0.116661236 -1.7338489 -0.5210352
0003b0 ed 56 7e 3e 10 a5 08 3f 43 be c3 3f 1b 6a 2a 3f
       0.24837847 0.53376865 1.5292438 0.66568154
0003c0 41 72 12 3e ea 92 b6 3d 93 84 18 3f 38 73 8c be
       0.14301397 0.089147404 0.5957729 -0.27431655
0003d0 c2 bc e3 3e a5 b6 25 3d 3d c9 c1 3f 6d 91 b4 3e
       0.44479948 0.040457387 1.5139538 0.352672
0003e0 24 a7 1c 3e 41 b5 26 3f 2f 17 ba 3f b1 bd 03 3f
       0.15298134 0.6512032 1.4538325 0.5146132
0003f0 b9 fe bf be 88 aa 12 3f 1a 25 28 3f 8f 5d c4 3e
       -0.37499025 0.5729146 0.6568161 0.3835263

actor.pi_net.fcs.0.bias f4 [64]
000000 1c be c1 3e 43 49 db bc 84 ac 74 3e aa f6 84 3e
       0.37840354 -0.026768332 0.23893934 0.2596944
000010 51 c9 8e be 9e 60 da 3d 40 ff 96 bc 24 f5 c1 be
       -0.27887967 0.106629595 -0.01843226 -0.3788234
000020 2a b9 c9 be e6 0c ef 3d 9c 7f 49 3e f7 fe 07 3e
       -0.3939908 0.11672382 0.19677585 0.13280855
000030 7a 1a cf bd fd 9a aa 3b b6 c7 89 3c 0c 34 cd 3e
       -0.10112472 0.0052064643 0.016818862 0.4007877
000040 db 58 74 be b9 e8 24 3e ac d5 d3 be 72 38 62 3c
       -0.2386202 0.16104402 -0.41373956 0.013807403
000050 79 e9 0e be 2a 24 21 bc cb ff f0 bd 2f 82 34 3e
       -0.1395625 -0.009835282 -0.11767539 0.17627786
000060 ab 2e 58 be 78 2e f1 bd 04 be 26 3e df d2 ae 3e
       -0.21111552 -0.11776441 0.16283423 0.34145257
000070 03 06 33 be 93 d5 58 3d c5 9e 18 3d 66 91 8e be
       -0.17482762 0.052938055 0.03726079 -0.27845305
000080 6e 3f 2d be ce a6 9b bd 91 1d 03 be f2 23 47 3d
       -0.16918728 -0.07600175 -0.12804247 0.048618264
000090 ff 89 c2 bd c0 e4 4e bd 87 c2 e5 be f6 71 cf 3c
       -0.09498977 -0.05051112 -0.44874975 0.025322895
0000a0 b6 e8 2b be 96 66 8b bd e9 76 bb bd 8c 9f 93 3d
       -0.16787991 -0.06806676 -0.0915354 0.072081655
0000b0 cc c9 a2 3d 49 3b 19 be 13 ec 98 3e 5d cc 89 3e
       0.07948646 -0.14964022 0.2986761 0.2691373
0000c0 7f 73 9d ba 70 cd 5d be e9 4d fa 3d 6e e0 23 3d
       -0.001201257 -0.216604 0.122218914 0.040008955
0000d0 87 bf 04 3d 7f 78 a0 be 83 4d 31 be 56 41 c0 3e
       0.032409217 -0.3134193 -0.17314725 0.37549847
0000e0 66 ea d3 3c 20 ed 94 bd b9 48 f9 3d 31 6a 31 be
       0.025868606 -0.072717905 0.12172074 -0.17325665
0000f0 b1 f2 71 bc 8a 31 eb 3b 8f fb 3a be ed 6b 04 3e
       -0.014767335 0.0071775364 -0.18260024 0.12931795

actor.pi_net.fcs.1.weight f4 [64, 64]
000000 60 a9 8e bd db 9b 18 3d 30 88 d1 bd 89 84 d7 3c
       -0.069658995 0.03725801 -0.10231054 0.026308315
000010 d4 22 0c be 9e 65 83 3d 2d 7a d8 3d 5f 2b 38 3d
       -0.13685161 0.06415866 0.10570178 0.044963237
000020 73 7a 1f bc 7d d8 99 bd 86 4b 14 be d8 86 9c bb
       -0.009733784 -0.07511995 -0.14481935 -0.004776817
000030 19 18 f3 bc 39 6a 19 3e cd 38 5a 3e f7 ce 48 3d
       -0.029674577 0.14981927 0.2131073 0.049025502
000040 0b 91 c2 3c 0d 1a b1 3c 26 4f 1e 3e 6e 8f 91 3e
       0.023750803 0.021618867 0.1545988 0.2842974
000050 b9 f3 31 3c 47 57 b0 3d bd 09 e6 bd 33 02 8c bd
       0.010861331 0.08610397 -0.11232326 -0.06836357
000060 ee 97 8f bd c5 1e 7b bd a4 da e4 bb a9 c3 ef 3d
       -0.070114 -0.06130864 -0.006984072 0.11707241
000070 46 81 e3 bd 3d 1a 20 3e c8 46 bf 3d b1 9c bd bd
       -0.11108641 0.15635009 0.09339672 -0.09258402
000080 a7 2d cd 3d 67 1e cf 3c a7 da 14 3c ab ea e1 3b
       0.10018473 0.025283052 0.009085334 0.0068944297
000090 f7 af d6 3d dc 56 83 bd b8 1e c4 bc 73 d4 19 bd
       0.104827814 -0.064130515 -0.02394043 -0.037556123
0000a0 7b 0f 16 3d 82 62 3f 3e 11 c5 ca 3d f2 2b 56 3e
       0.036635857 0.18689921 0.09900869 0.20915201
0000b0 ba 8f 4c bd e6 0f 94 3d 98 33 fe bd 8e 40 8b 3d
       -0.049941756 0.07229595 -0.124121845 0.06799422
0000c0 d7 e9 57 3d 75 b6 72 bd 6f 6b fe bd e3 6a 6f bd
       0.05271324 -0.059256036 -0.12422835 -0.058451544
0000d0 26 43 19 3e c9 dc a0 bd d1 c7 82 bb 9b d6 9d bc
       0.14967021 -0.078546114 -0.003991105 -0.01926737
0000e0 27 ac 54 3e 8e e5 6f 3e 3e 9b 6e 3e 0d e8 96 bd
       0.20768796 0.23427412 0.23301408 -0.07368479
0000f0 9b f2 79 3d be db a5 be 34 00 ee bc 3e 64 7e bd
       0.061022382 -0.32394212 -0.029052831 -0.062107317
000100 05 a8 96 3c f6 67 29 bb d8 16 e0 bd 3b 41 aa 3d
       0.018390665 -0.002584932 -0.10941857 0.08313223
000110 0e 97 d6 3d a3 17 a4 be d6 48 bf 3d d3 97 e7 3c
       0.1047803 -0.32049283 0.09340064 0.028270638
000120 3e 57 b0 bc 90 23 31 be 8f ae 9a 3d c3 2e 2c 3e
       -0.021525975 -0.17298722 0.07552826 0.16814713
000130 ea de 4b bd 66 fc fa be bd 87 18 bf d8 a0 fc 3b
       -0.049773134 -0.4902069 -0.5958212 0.0077096038
000140 dd bb 2d be 6d f3 97 be ac 22 71 bd 8c ee b0 be
       -0.16966195 -0.29677907 -0.058870956 -0.34556997
000150 2d da 2d 3d dd 01 62 bd e0 1c 09 3f f1 10 7b 3e
       0.042444397 -0.05517756 0.53559685 0.24518181
000160 b7 b7 03 3e 8d 0f 25 be 6d 4a c5 bd c4 ec 09 bd
       0.1286305 -0.16119213 -0.09633336 -0.033673063
000170 34 18 ce bc 88 d3 2b bf 44 52 ca be 71 7c f6 bd
       -0.025158025 -0.67119646 -0.3951589 -0.12035454
000180 4d 28 6e be bc 84 5a bd bd 35 96 3e 56 c5 c5 bd
       -0.23257561 -0.05334924 0.29337874 -0.096567795
000190 f4 6f ab 3d 0d a8 e5 3e c3 b4 93 3d 56 08 8f be
       0.08370963 0.44854775 0.07212212 -0.27936047
0001a0 0e 34 97 bd 88 48 1e bf 11 5e 79 be f4 42 bb be
       -0.073829755 -0.61829424 -0.2435229 -0.3657452
0001b0 b9 91 97 be 95 88 f2 be 0d 50 06 3e 18 62 3a 3e
       -0.29603365 -0.4736983 0.13116474 0.18201482
0001c0 63 ea 0f 3d 14 73 b0 bd 8d ff 9a 3e 3f 87 6f 3b
       0.035135638 -0.086156994 0.30273095 0.0036549119
0001d0 a1 fb a0 bd 82 cc f6 3c 1a 0b b5 3e e7 6c 3c 3d
       -0.078604944 0.030126814 0.35360032 0.046002295
0001e0 fb 8e 15 bf 01 ae b3 be bb 10 b5 be a3 05 be 3e
       -0.58421296 -0.35093692 -0.35364327 0.37113675
0001f0 c5 80 39 3c e1 e5 43 3f 39 81 bd 3e 95 69 d8 3d
       0.011322205 0.7652264 0.37012652 0.10567013
000200 07 9f e9 bd 90 68 ef bd ce bd f5 3d e8 fe 21 bc
       -0.11407285 -0.116898656 0.11999093 -0.009887435
000210 30 b7 6e be 82 a9 99 3e 54 27 bc 3d d3 bc b3 3d
       -0.23312068 0.30012137 0.09187189 0.0877625
000220 4d 8d f2 3b d9 8b b1 bd b2 0c 09 3d 4d 59 95 3c
       0.0074020983 -0.08669252 0.033459373 0.018231058
000230 3c c4 ab bd e6 83 f1 3e e7 75 a7 3e e4 25 75 bc
       -0.08387038 0.47170943 0.3270714 -0.014962647
000240 9e 64 86 3d 84 ff 7b 3e dd 33 f2 3d ca fd 88 3e
       0.0656216 0.2460919 0.118262984 0.26756126
000250 1a 70 c1 bd f0 cc a2 bd d4 2e e9 be 58 90 6e be
       -0.0944521 -0.07949245 -0.4554354 -0.2329725
000260 f7 03 24 be fd 22 98 3d 72 e4 29 be 2d b0 24 3e
       -0.16017137 0.074285485 -0.16591051 0.1608283
000270 8e 70 0c be 1e 72 9b 3e 15 82 64 3e 39 38 cc 3a
       -0.13714811 0.30360502 0.22315247 0.001558072
000280 97 cd 43 3e 7d 77 0d 3d db b7 22 be ff 65 19 3e
       0.19121395 0.03453778 -0.15890448 0.14980315
000290 ec 77 cc bd a4 81 4f be 35 8f cd 3d 8a 17 c7 3d
       -0.09983811 -0.20264298 0.1003708 0.097212866
0002a0 ea 71 34 3d ae 85 0d 3f 19 19 81 3e f5 a7 49 3e
       0.04405395 0.55282104 0.2521446 0.19692977
0002b0 55 80 2a 3e fa 32 94 3e 97 4a bb bd 2f a7 8b 3d
       0.16650517 0.28945142 -0.09145086 0.06818997
0002c0 91 79 74 3c 63 5c 83 3c 2c f6 84 be 1b 9c 62 bd
       0.014921562 0.016035264 -0.25969064 -0.055324655
0002d0 74 e8 07 3d 1d f7 ce 3c 56 2f 95 be dc d4 e7 bd
       0.03318067 0.025264317 -0.29137677 -0.113198966
0002e0 36 71 8c 3e 4e b7 4d 3e b5 99 87 3e 12 61 8c be
       0.27430123 0.20089456 0.26484457 -0.2741781
0002f0 48 53 8b 3d 4b d1 14 bf 39 f1 7f be 1e 1c 75 be
       0.06802994 -0.58131856 -0.24994363 -0.23936507
000300 f3 38 96 3d a5 5e e0 bc e6 f8 d4 3d f0 66 a2 bd
       0.07335081 -0.02738888 0.10399036 -0.0792979
000310 70 97 33 3e 54 87 18 be a9 d7 84 3d 31 21 05 be
       0.17538238 -0.14895374 0.064864464 -0.13000943
000320 2c 55 00 be d8 95 9d 3d 57 cd 35 bd dc a0 ea 3d
       -0.1253249 0.07694596 -0.04438528 0.11456463
000330 35 a8 09 3e 59 0f a1 bc 5c 9d 52 be 98 33 a4 3d
       0.13443072 -0.019660639 -0.2056784 0.08017653
000340 d8 c2 cf bd 04 fd a1 3c ac 54 95 bd a3 51 53 be
       -0.10144585 0.019773968 -0.072915405 -0.2063661
000350 3b 27 2d be c0 5e 0b be ed ec a7 3e 1e 5b 6c 3d
       -0.16909496 -0.13610363 0.32797948 0.057704084
000360 12 26 a3 3d 44 31 62 3d eb 30 79 3d 55 f0 fb bc
       0.07966246 0.055222765 0.060837667 -0.030754248
000370 42 02 2e 3d b6 dc 92 be d3 28 c8 bc 4a d6 33 bc
       0.042482622 -0.28684014 -0.024433529 -0.010976383
000380 2a 4e 9d bc 67 ef 8f 3d 64 46 1e 3b b3 1d bb 3d
       -0.01920231 0.07028084 0.0024150843 0.09136524
000390 de 54 7c bc 2d b9 52 3e 70 df c2 bc 04 33 79 3d
       -0.015401093 0.20578451 -0.023788184 0.060839668
0003a0 98 3f 90 bd f2 5f a5 be f5 a6 a0 bd e9 13 e9 bd
       -0.070433795 -0.32299763 -0.078443445 -0.11380751
0003b0 55 ff 0d bd cc b0 aa bd 21 d3 68 3c e2 fe 81 3d
       -0.03466733 -0.083345026 0.014210493 0.06347443
0003c0 38 49 ed 3d 09 3b 07 3e 30 44 5c 3e 74 51 e9 bd
       0.11586231 0.13206114 0.21510386 -0.11392489
0003d0 e3 9f 30 be 29 80 90 3d 8e b5 d4 3d ee df 3c 3d
       -0.17248492 0.070556946 0.10386191 0.046111993
0003e0 bb 40 63 be d6 29 52 be 43 77 cc bd 8e 9e 6c 3e
       -0.22192661 -0.20523772 -0.09983685 0.23107359
0003f0 8b f5 00 3e b3 be 87 3e 14 1e e2 3d 22 7e c6 bd
       0.12593667 0.2651268 0.11040893 -0.09692027

actor.pi_net.fcs.1.bias f4 [64]
000000 aa f9 28 3c 83 ec cb 3d bb dc e0 bd 37 82 f1 3b
       0.010313431 0.099572204 -0.10979601 0.007370259
000010 1c 35 33 bc 4d a7 32 bd 87 2b d6 bb 60 90 d7 3d
       -0.010937955 -0.04361658 -0.0065359506 0.10525584
000020 b1 50 01 3e a5 99 c1 3c f5 b8 9b bd 8f 80 74 3d
       0.12628438 0.023632834 -0.07603637 0.059692916
000030 39 64 c4 3d f5 7e d2 bd 39 38 e3 bc 89 af ed bd
       0.095894285 -0.102781214 -0.02773677 -0.11605746
000040 44 da c4 bc 13 e9 bf bd da 65 86 bd 4e 30 3f bc
       -0.024029858 -0.09370627 -0.065623954 -0.011669232
000050 b2 10 99 3d 71 e3 ba 3d f7 2d 13 bd 09 b8 81 bc
       0.074738875 0.09125412 -0.035932507 -0.015834825
000060 71 6c 2f bd da 77 d6 3c 82 6c e0 bc 47 06 2e bd
       -0.042828027 0.026180197 -0.02739549 -0.042486455
000070 94 b7 b9 bd cf 3d d9 3c 35 c9 51 3c a5 fe a2 bd
       -0.09068218 0.02651873 0.012804319 -0.07958726
000080 18 bb 9d bd bc 83 d0 3d 28 d9 88 bd 12 72 92 bd
       -0.07701701 0.10181376 -0.06682044 -0.071506634
000090 e7 ee 75 bd f2 90 13 3d ca 87 6e bd d6 1b 7d bd
       -0.06004229 0.036026902 -0.058234967 -0.061794125
0000a0 83 bf 4d bd a7 92 41 bd 74 76 86 3d 5a af 8e 3d
       -0.050231468 -0.047259 0.06565562 0.069670394
0000b0 0f 57 0d bd be 88 84 3d a6 77 8a bb 9d c0 8b 3d
       -0.034506854 0.06471394 -0.004225689 0.068238474
0000c0 2c 09 66 bd e9 3d d2 3d 03 eb ec 3c 62 40 80 bd
       -0.05616109 0.10265715 0.028920656 -0.0626228
0000d0 d0 6d 3e bd be 6f 13 bd f3 70 83 bd 5e 7d 0b 3c
       -0.046491444 -0.035995238 -0.06418028 0.008513777
0000e0 df 2f 90 bc fa 5b 9f bd 03 46 80 3d 01 e2 cd bc
       -0.017600952 -0.07781215 0.06263354 -0.025132181
0000f0 ea 37 7e 3d c2 71 90 3d 94 02 cf 3c 6e 99 6d bd
       0.062065043 0.070529476 0.025269784 -0.05800765

actor.pi_net.fcs.2.weight f4 [1, 64]
000000 c0 e2 ac bd 68 b6 3a 3f 36 98 17 bf 3d e8 00 3f
       -0.08441687 0.7293458 -0.5921663 0.5035437
000010 bc 06 f1 be 9d 8c 45 be ff 94 c1 bd aa d9 b5 3d
       -0.4707545 -0.19291921 -0.09452247 0.08879407
000020 6b 0a c7 3d d2 44 4b 3e ac 8d f0 bd 6a 26 75 be
       0.09718784 0.19850472 -0.11745772 -0.23940435
000030 27 89 83 be 32 89 0e bf b1 8c 75 3e 5c 29 a8 bd
       -0.25690576 -0.55678093 0.23979451 -0.08211014
000040 0b 60 93 be db de 5e be e3 ab d4 3e cf db 03 bf
       -0.28784212 -0.217647 0.4153739 -0.51507276
000050 bf af 84 3d 63 6c 90 be 52 c7 49 3e de 33 39 be
       0.064788334 -0.28207693 0.19704941 -0.18086192
000060 8a 3a 1c bf e3 df e9 3d fe a4 d9 3d 6e f6 8f 3e
       -0.61026824 0.11419656 0.10627173 0.28117698
000070 45 c9 02 3f 13 b2 88 3e 82 d2 9a 3d d7 16 0d 3f
       0.5108836 0.2669836 0.075596824 0.55112976
000080 99 35 ee bd ee fe aa be ad e8 46 be 92 66 82 3e
       -0.11631317 -0.3339762 -0.19424696 0.2546888
000090 17 c1 b2 bd 83 3a df bd a8 18 e4 bc e1 e5 b1 3d
       -0.08728235 -0.10899832 -0.027843788 0.08686424
0000a0 4e 99 01 bf 00 aa dc 3d 25 98 c6 be 66 19 90 3e
       -0.5062455 0.107746124 -0.38787952 0.28144377
0000b0 32 3f 15 3d 7e 7d c1 3d 37 39 ae be b2 64 0b 3f
       0.03643722 0.09447764 -0.34028026 0.54450524
0000c0 94 0b 70 3e 6c d4 a0 3e 97 c0 0a be 41 6f e2 3d
       0.23441917 0.31412065 -0.1355003 0.11056376
0000d0 b6 d2 1d 3e e4 05 27 3f da bf 81 bd 64 73 f8 3e
       0.15412411 0.65243363 -0.06335421 0.48525536
0000e0 e4 e0 21 bf 2a ae f3 bc 7b 8e 80 be 0e dd 00 3d
       -0.6323378 -0.029746134 -0.25108704 0.031460814
0000f0 cc 43 68 3e 19 46 c9 3e 86 39 bd 3e bb 5b 94 3c
       0.22682112 0.39311293 0.3695795 0.018110147

critic.v_net.fcs.0.weight f4 [64, 4]
000000 f9 55 24 be 6a 89 22 3d 28 1a 0e c0 19 5e 24 3e
       -0.16048421 0.03968183 -2.2203465 0.1605152
000010 ae d8 22 3f 14 ac fc be c9 b3 b3 bf d7 fc 79 be
       0.63611877 -0.49350035 -1.4039241 -0.24412857
000020 4d b9 86 bf d6 e3 4b bf 15 00 ae bf 7a e8 12 be
       -1.0525299 -0.79644525 -1.3593775 -0.14346495
000030 fb 06 93 be 53 6e 96 be ad 07 2c c0 f8 da 96 be
       -0.28716263 -0.29381046 -2.6879685 -0.29463935
000040 06 01 04 bf b6 52 51 be 46 aa 3d c0 91 9d 96 be
       -0.5156406 -0.20441708 -2.9635177 -0.2941709
000050 b1 2e b2 be e7 a3 9b bf 2f ac b0 bf 08 7a 91 be
       -0.34801248 -1.2159394 -1.3802546 -0.28413415
000060 0f 7e ba 3e 69 82 5e 3f b9 50 fb 3f c1 da 10 3f
       0.364243 0.8691774 1.963401 0.5658379
000070 cd af d1 bd dc 0f 93 3e 72 aa 10 40 bf 9b ed 3e
       -0.102386095 0.28723037 2.2604032 0.46407887
000080 ca 50 82 3f d3 03 eb 3d e2 6e 1e 40 e9 c5 d3 3e
       1.0180905 0.11475339 2.4755177 0.4136193
000090 db c7 de be d2 b0 36 bf ae f5 12 c0 b0 31 d3 be
       -0.43511853 -0.71363556 -2.296245 -0.41248846
0000a0 ec ec 7a 3d 1c ce 37 3f 64 c7 0d 40 4c 94 df bd
       0.061261103 0.7179887 2.2152948 -0.10916957
0000b0 b6 57 f0 be dc 87 07 bf 92 25 05 40 6d 97 cd be
       -0.46941918 -0.5294168 2.080418 -0.4015459
0000c0 7f 1f 41 3f e4 01 02 3e 56 ed 34 40 c8 53 06 3f
       0.75438684 0.12696034 2.8269858 0.5247159
0000d0 01 de 0c 3f 2d 97 83 3e 60 27 4c 40 ef 40 cb 3e
       0.5502625 0.25701275 3.1899033 0.39697978
0000e0 07 ba 81 bf 13 80 80 3f 48 d5 24 c0 79 09 cf 3f
       -1.0134896 1.0039085 -2.5755177 1.6174766
0000f0 e2 e9 52 3f 38 5f bb be 06 70 ad bf a6 fa a8 be
       0.82388127 -0.36596084 -1.3549812 -0.3300373
000100 27 c7 e9 be 9c 70 03 3f 5f 28 9c bf 58 b7 5b 3f
       -0.45659754 0.51343703 -1.219982 0.85826635
000110 b6 b9 88 bf 48 80 a2 be 22 37 f2 3f 0a 31 65 be
       -1.0681674 -0.31738496 1.8923075 -0.22381988
000120 5b 75 15 bf 77 1a 2e bf ce 13 1d bf 91 1a 2b bf
       -0.58382195 -0.6800913 -0.61358345 -0.6683741
000130 47 f0 43 3f d4 f6 1c 3f 21 3f 58 3f 80 d1 07 3f
       0.7653851 0.6131413 0.8447133 0.53054047
000140 19 6d 5e bd 02 59 99 bd a4 b8 04 40 fa 2c eb 3e
       -0.054303262 -0.0748768 2.0737696 0.45932752
000150 47 9c 99 3d 22 b1 79 be f0 d2 df bf cf e7 0c bf
       0.07500511 -0.24383977 -1.7486248 -0.5504121
000160 e6 6a d4 be e3 72 ed 3d 1c 65 ea 3f b4 6d 67 be
       -0.41487807 0.115941785 1.8312106 -0.22600442
000170 d5 5b 9e bf f0 51 8b be 11 3d fc 3f 69 11 9e be
       -1.2371775 -0.2721095 1.9706136 -0.30872658
000180 6b 59 07 3f 21 b1 78 3f 5a 19 01 40 40 a6 8e 3e
       0.52870816 0.9714528 2.0171723 0.27861214
000190 1d 59 22 3f 31 67 55 3f 1f 11 ce 3f 9d a9 ed bc
       0.63417226 0.8336058 1.6098975 -0.029011542
0001a0 5a 73 e9 be f2 91 37 bf 2a 78 17 c0 22 98 41 bf
       -0.4559582 -0.7170707 -2.3667092 -0.7562276
0001b0 e6 d0 36 bf eb ec 48 bf b6 39 96 bf 32 01 39 bf
       -0.71412504 -0.7848651 -1.1736362 -0.7226745
0001c0 1d 9d 14 3f 9c ed 53 3e 4e 97 19 40 c4 b8 8b 3d
       0.58052236 0.2069611 2.39986 0.068223506
0001d0 27 dd 2d 3e f1 a2 97 be 1b a7 b7 3f d5 0c 72 3c
       0.16978894 -0.29616502 1.4347872 0.014773567
0001e0 12 41 6b 3f 76 02 43 bf e3 59 c5 bf 63 63 e4 be
       0.91896164 -0.7617563 -1.5418056 -0.44607076
0001f0 b6 9f 41 bf af d5 2c bf fb 3a 96 bf 2c d4 22 bf
       -0.75634325 -0.67513555 -1.173675 -0.63605
000200 1f 7e 13 3f d7 c4 25 3f 31 f2 11 40 14 07 20 3f
       0.5761432 0.6475348 2.2804072 0.625108
000210 00 ed 18 bf 93 73 ea be da eb 27 c0 14 5e 65 be
       -0.59736633 -0.457913 -2.6237702 -0.22399169
000220 95 63 8a bf bc 26 66 be 4f bc 0e 40 3d 2e 19 be
       -1.081164 -0.22475713 2.2302434 -0.14959045
000230 fe 97 22 bf ff f5 b9 be 3b 0a 17 c0 12 2c 1b bf
       -0.6351317 -0.36320493 -2.3599994 -0.6061412
000240 60 80 f6 3e 82 57 66 3f 0b 39 16 40 08 8a 03 3f
       0.48144817 0.89977276 2.3472316 0.51382494
000250 a8 a6 a7 be f7 29 9d bf 85 e8 01 c0 50 b7 43 be
       -0.32744336 -1.2278432 -2.0298169 -0.19112897
000260 e7 e4 bb bd 1d fd eb be fa c6 3a c0 16 65 2c bf
       -0.09174519 -0.46091548 -2.9183946 -0.67341745
000270 6f 88 66 bf 5e be 02 3e fd 24 0d 40 35 4b 6f 3e
       -0.9005193 0.12767932 2.2053826 0.23368533
000280 c5 5f 60 bf d4 c6 f8 be 66 d8 e3 bf c3 88 98 be
       -0.8764613 -0.48589194 -1.7800415 -0.2979184
000290 8a c3 82 bf 29 69 2d bf e7 6f f7 bf 7f 93 b2 be
       -1.0215924 -0.67738587 -1.9331025 -0.34878156
0002a0 ba ac c0 3e 33 9c 81 3f c8 75 22 3f de cd 16 3f
       0.3763178 1.0125793 0.6346097 0.5890788
0002b0 a4 48 7d 3e 87 5c 04 3f 36 75 e4 3f af 22 b7 3e
       0.24734741 0.51703686 1.784827 0.3576865
0002c0 ac 2e 73 bf e6 c6 0e bf 3c 6b a3 3f 3e 30 03 3f
       -0.9499309 -0.55772245 1.27671 0.51245487
0002d0 6c da 1e bf ed 09 41 bf 45 c1 bb bf 3d c5 3a bf
       -0.62052035 -0.7540577 -1.4668356 -0.7295721
0002e0 7a b3 b4 3f d1 11 33 be 55 da c1 bf 58 27 76 bd
       1.4117272 -0.17487265 -1.5144755 -0.060096115
0002f0 b1 e6 a6 bf 5e 01 da bd 77 d2 8d 3f b8 5a 23 bd
       -1.3039151 -0.10644792 1.1079854 -0.039881438
000300 ad f8 4b 3f cc 38 9d 3d 1c e9 02 40 48 84 5c be
       0.79676324 0.07676849 2.0454779 -0.21534836
000310 87 6b 1d bf 3c f9 ae be 29 3d 35 c0 ce 61 37 be
       -0.614922 -0.34174526 -2.831858 -0.17908403
000320 ed 7e b7 bd de 84 2c bf dd 73 c2 be f0 f8 24 bf
       -0.08959756 -0.6739024 -0.37979022 -0.6444235
000330 75 2c 7d 3e fc fc 34 3e d5 17 e2 bf cb 25 72 3e
       0.2472399 0.17674631 -1.7663523 0.2364723
000340 82 11 46 be 1c 7e 08 bf 0a cd 0a c0 dd 6d 04 bf
       -0.19342616 -0.5331743 -2.1687646 -0.5173014
000350 ac a4 08 3f 53 4b 99 3d 50 ab 4e 40 16 96 8f 3d
       0.5337627 0.0748507 3.229206 0.070110485
000360 36 b6 a0 bf 79 17 76 3f b0 66 fe 3f 6b 19 44 3f
       -1.2555606 0.96129566 1.9875088 0.76601285
000370 86 85 13 3f 8d 22 f1 3e de bb 09 40 9d 9d 5e 3f
       0.57625616 0.47096673 2.1520915 0.8695925
000380 4b ba 8f be 49 89 09 3f 18 06 cf 3f 21 88 e6 3e
       -0.28071818 0.53725106 1.6173735 0.45025733
000390 14 e3 53 3f 77 4e cb 3e b0 e2 3e 40 f5 c9 2c 3f
       0.8276837 0.397083 2.982586 0.6749566
0003a0 da 27 b5 be aa 72 85 bf 56 0d 0c c0 37 e7 1b bf
       -0.35381967 -1.0425618 -2.188314 -0.6089968
0003b0 ea 93 c8 3e 92 e2 01 bf 54 02 db bf b2 20 a7 be
       0.3917535 -0.50736344 -1.7110085 -0.32642132
0003c0 d8 57 50 3e 1a 68 2a 3e 1b 6b ea 3f ed a4 ce bd
       0.2034601 0.16641274 1.8313936 -0.10090051
0003d0 57 1a 2b bf bd c1 ea be 84 a0 12 c0 bb 70 65 be
       -0.66837066 -0.45850936 -2.291047 -0.22406285
0003e0 29 2b 1d 3f 22 84 00 bc fa 4c 69 bf 49 39 40 bf
       0.6139398 -0.007844003 -0.9113308 -0.7508741
0003f0 5f 19 46 3f 7d 55 1e 3f 36 83 ee 3f 57 6d 27 3f
       0.77382463 0.61849195 1.8633792 0.65401214

critic.v_net.fcs.0.bias f4 [64]
000000 b5 a6 0f be dd 9d 7f 3e 62 e6 da 3e a8 09 13 be
       -0.14028437 0.24962564 0.42753893 -0.14359152
000010 17 d4 22 3e d4 4d 0d 3f 91 e5 87 3e 81 2e eb 3d
       0.15901218 0.5519688 0.26542333 0.11483479
000020 a3 c7 d6 3e 45 92 4b 3e 93 5c 7d 3e 19 34 22 be
       0.41949186 0.19880016 0.24742346 -0.15840186
000030 aa 3b 6a 3e 63 63 db 3d bf 81 3a 3d 2e 80 2a 3e
       0.22874323 0.10712316 0.04553389 0.16650459
000040 a4 3e bb 3e 1b 64 ba 3e fc 4a fd 3e 1d 38 f9 3e
       0.36571229 0.364045 0.4947127 0.48675624
000050 75 88 1a 3e 36 fd af be 22 2b ac 3e 23 4f 82 be
       0.15091117 -0.34372872 0.33626658 -0.25451002
000060 07 c4 a2 be b8 0e c8 3e 73 39 af 3e ed 9f fd be
       -0.31790182 0.3907373 0.34223518 -0.49536076
000070 24 4b 9e be cd f2 0d be a4 66 40 3e c5 6e df be
       -0.30916703 -0.13862152 0.18789154 -0.43639198
000080 1b 14 dd be 5d 56 95 3e e9 bd a8 be 7f 42 db 3e
       -0.43179402 0.29167452 -0.3295739 0.4282417
000090 01 67 cc be ee 71 53 3e 13 91 c2 bd 38 90 92 be
       -0.39922336 0.2064893 -0.09500327 -0.28625655
0000a0 9a d5 cc be 14 e3 0c bf 7a b9 0a 3f 87 74 a0 3e
       -0.40006715 -0.55033994 0.54189265 0.31338903
0000b0 63 a2 c6 3e 78 9b 1a be 3c c2 63 3e 0f ac 4c be
       0.38795766 -0.15098369 0.22242063 -0.1998751
0000c0 93 20 89 bc 9a b7 2d be eb ab 9b 3e 89 c6 08 be
       -0.016739165 -0.1696457 0.304046 -0.13356985
0000d0 e1 3e b1 3e 58 8c 31 be 5c d3 aa be 17 1f 4a be
       0.34618285 -0.17338693 -0.3336438 -0.19738422
0000e0 1e a8 25 be e2 85 0f 3d f0 40 65 3e 27 83 8c be
       -0.16177413 0.03503979 0.22388053 -0.2744381
0000f0 c7 f6 af 3e f2 83 98 3e 69 99 d9 be ff 5e 04 3e
       0.34367964 0.29788166 -0.42499855 0.12926863

critic.v_net.fcs.1.weight f4 [64, 64]
000000 03 df 2c 3e 36 51 ac 3e 88 20 f3 3d 93 74 d5 3e
       0.16881947 0.3365571 0.11871439 0.41690502
000010 be 1f 84 3d f5 c0 9a 3e 89 6e 53 bf 0c c5 38 bf
       0.06451367 0.3022534 -0.8259054 -0.7217567
000020 aa 9a 20 be ec 62 1d 3f 81 ec 46 bf 99 a6 1e 3e
       -0.15684 0.6147907 -0.77704626 0.1549324
000030 e7 fd 92 be 17 ab fe bd a1 95 3a be f0 55 08 3f
       -0.28709337 -0.124349765 -0.18221141 0.5325613
000040 e8 a2 39 3d 7d ec d1 be ba 32 3b 3e 01 ed a0 be
       0.045321375 -0.4100074 0.1828107 -0.3143082
000050 b5 83 04 be 33 5a cd 3e 40 d6 7a be f2 f7 0e be
       -0.12940867 0.4010788 -0.24495792 -0.13961771
000060 e8 e2 c9 be 54 d0 fb be 23 40 06 3e 9e cf d3 3e
       -0.39430928 -0.4918238 0.13110404 0.41369337
000070 ff 8c 8c 3c 99 86 ee bd 25 91 2e 3f 03 5c 35 3e
       0.017157076 -0.11646766 0.6819022 0.17710881
000080 5b b9 dc bd 62 db 85 3e ce 89 da 3d c8 d4 ac 3c
       -0.10777541 0.26143938 0.106708154 0.021097556
000090 f6 67 b9 be 9d 56 4b 3f 53 71 b6 3e 8b 33 ef bd
       -0.36212128 0.79429036 0.35633335 -0.11679753
0000a0 7f 07 27 3e 19 88 0d 3f 41 d2 13 bf 00 e6 de be
       0.16311453 0.55285794 -0.57742697 -0.4353485
0000b0 5a 60 c2 be 93 02 50 3f c4 a4 7a 3e 16 d3 ad bd
       -0.37964135 0.8125393 0.24476916 -0.08487527
0000c0 5b 65 8b bd 44 12 2e 3f 9b 8c 1b 3e 0a 50 b7 3e
       -0.068064414 0.6799662 0.15190355 0.35803252
0000d0 79 d5 96 3d e3 f5 32 be 85 82 a0 be 38 f2 95 be
       0.073649354 -0.17476611 -0.31349578 -0.2928636
0000e0 13 5a 29 be 56 fe 12 be 68 de 32 3f 0a 81 42 3f
       -0.16538267 -0.14354834 0.69870615 0.7597815
0000f0 d1 bf a0 bd bf 52 a1 3e d8 f1 f8 3d 4f 96 55 bf
       -0.07849086 0.31508443 0.12155503 -0.8343248
000100 47 25 94 be cf 94 dc 3e ad fb 8e 3f b0 76 f5 3d
       -0.2893469 0.43082282 1.1170555 0.119855285
000110 87 1c 4d 3f 6c ab 3a 3f 96 3a aa 3a 55 16 2d be
       0.80121654 0.7291782 0.0012987431 -0.1690305
000120 58 e4 08 3e 46 72 96 3f a1 9d 16 3d d7 cb 56 be
       0.13368356 1.1753623 0.03677142 -0.20976196
000130 f9 76 55 bd 8e 81 88 bd 9a b7 01 3f e9 b9 c2 3e
       -0.052115414 -0.066653356 0.5067078 0.38032463
000140 7c e7 00 3f 06 40 d2 3e 1e 23 19 3f 3b 89 7b 3e
       0.5035322 0.4106447 0.5981921 0.24564068
000150 5e f9 b3 3d 27 f5 ef bd fb 92 43 3e dd 15 92 be
       0.087877974 -0.11716681 0.19099037 -0.28532305
000160 64 52 96 bf 54 82 7c 3e 15 2b 46 3f c4 13 63 be
       -1.1743894 0.24659091 0.7740949 -0.22175509
000170 66 0e 0f bf 46 35 01 bf 9a e6 ef 3e 19 6f 3f be
       -0.55881345 -0.50471914 0.46855623 -0.18694724
000180 7e 35 3e bf 4a a4 a3 3f 9a d6 85 be 4e 3a 30 3f
       -0.7430037 1.2784512 -0.2614029 0.68838966
000190 91 38 90 bf b8 6f 7c 3f 15 4b 01 3d 3d 65 a6 be
       -1.1267263 0.9860797 0.031565744 -0.32499114
0001a0 d6 7b b2 be 65 9c dc bd b0 f8 99 3e 5f d7 4e 3e
       -0.34860104 -0.107720174 0.30072546 0.20199345
0001b0 4d 9f b6 3e 05 82 96 3e ce a2 2d 3e 86 0d 8d be
       0.35668412 0.29396072 0.16956636 -0.2754938
0001c0 c3 04 30 bf 15 9d 60 3e 5e 0a c7 3e 90 bc 47 bd
       -0.68757266 0.21934922 0.38875097 -0.04876381
0001d0 d6 da 22 3f 81 eb 98 bf 10 18 04 bf 8d f3 85 bf
       0.6361517 -1.194687 -0.51599216 -1.0464951
0001e0 af 20 d1 be d8 90 f7 be b7 45 88 3f ca eb b2 bd
       -0.40845248 -0.48352695 1.0646275 -0.087363794
0001f0 2c 0f aa 3e f6 fb 81 3f 24 b4 cc be f7 fe ad be
       0.332147 1.0155017 -0.39981186 -0.33983585
000200 46 f1 38 3e b8 80 fd be 23 70 85 bf f3 92 d0 bd
       0.18060789 -0.49512267 -1.0424846 -0.10184278
000210 f7 62 4e bf fb a7 5b bf 5d 9c 0f bd ad 1f 97 3d
       -0.8061976 -0.8580319 -0.03506123 0.073790886
000220 e7 a8 98 be 32 47 aa bf 1b f5 76 3d c3 5c 90 3e
       -0.29816362 -1.3302977 0.060292345 0.28195772
000230 8f 77 83 bc 9e ff f4 bd 2f 79 ba be 37 49 8c be
       -0.01604822 -0.119628176 -0.3642058 -0.27399608
000240 0d 84 01 bf 91 13 f9 be 7b 9c 3a bf 11 62 0c be
       -0.5059212 -0.4864774 -0.7289502 -0.13709284
000250 3a f7 98 bd d9 a6 04 3e 19 db 8a be 39 ca 84 3d
       -0.0746903 0.12954272 -0.27120283 0.064838834
000260 96 ff c1 3f 09 1a 00 bd 74 d3 66 bf 7c e0 6e 3e
       1.5156124 -0.03127483 -0.901664 0.23327821
000270 c5 72 2f 3f 82 24 a9 3e 79 21 04 bf d9 dc 5c 3e
       0.685345 0.33035666 -0.51613575 0.21568622
000280 78 65 44 3f c7 15 ab bf 14 41 28 3e 96 86 39 bf
       0.7671733 -1.3366021 0.16431075 -0.72470987
000290 98 bc 9e 3f b6 91 9c bf 3d 97 15 be cf 40 b8 3e
       1.2401304 -1.2231967 -0.14608474 0.35986945
0002a0 09 e8 99 3d a6 bb 85 3e 6c 79 3b be ab b4 c9 bd
       0.0751496 0.26119727 -0.18308038 -0.09848913
0002b0 61 1a ee be 57 ed 4c be 6f a0 e0 bd a6 e0 ce 3d
       -0.465045 -0.20012413 -0.109681 0.10101442
0002c0 5f 86 31 3f f9 9e a2 be 34 db 15 bf 62 42 80 3e
       0.6934566 -0.31761912 -0.585376 0.25050646
0002d0 5e 6e 0f bf 07 26 8c 3f 25 f1 c2 3e 26 8c 8d 3f
       -0.5602778 1.0949105 0.38074604 1.1058395
0002e0 82 da 02 3f a3 b6 a8 3e 8b 87 9f bf 46 a1 07 3e
       0.51114666 0.3295184 -1.246324 0.13245115
0002f0 1c 23 0d be 15 36 a2 bf 82 19 bb 3e ad c2 91 3e
       -0.13782924 -1.2672755 0.36542898 0.28468838
000300 ef b5 c6 3d e0 18 82 3d e7 b9 2a bd c1 1f 41 3e
       0.0970267 0.06352401 -0.041681197 0.1885977
000310 e1 c9 6d 3f e7 da e3 bd a4 37 88 3e 85 35 a1 be
       0.9288617 -0.11125737 0.2660495 -0.31486145
000320 07 36 92 bd 26 cf 39 3e 75 02 33 3e dd 9e 40 bf
       -0.07139211 0.18145427 0.17481406 -0.75242406
000330 2c c3 3a be a9 c8 d9 bd a7 5e 8a 3f 14 f5 b4 3e
       -0.18238515 -0.10633976 1.0810136 0.3534323
000340 4f 3a e7 3e 8f b8 c0 be 06 1b a5 3d 8e 72 a2 3e
       0.45161673 -0.37640807 0.08061795 0.31728023
000350 b1 ca 9b be 17 eb 93 bb 3f bc 9e bd 81 30 85 bf
       -0.3042808 -0.004514109 -0.07750749 -1.0405427
000360 d1 82 49 3e 23 b4 bb 3e 60 ff af 3b 76 d9 32 be
       0.19678809 0.3666087 0.0053710192 -0.17465767
000370 5a 14 92 be c6 67 07 bf c7 42 a1 be 76 45 98 be
       -0.28531152 -0.5289272 -0.3149626 -0.29740494
000380 ef 8a ad bd 21 9e 87 3e 22 57 4f bf fd 4f bc 3e
       -0.08473765 0.2648783 -0.8099233 0.36779776
000390 1f 4c 83 bc b1 00 9b be 0f b9 e4 bd 0f db df be
       -0.016027508 -0.30273965 -0.111681096 -0.43721816
0003a0 0e e1 80 be 05 53 a7 be fe 95 77 3e b2 e4 78 3e
       -0.25171703 -0.32680526 0.24178311 0.2430599
0003b0 a0 97 0c bf 2d 20 a5 be 59 e1 db 3e 7f f7 b7 bc
       -0.5491886 -0.3225111 0.42945364 -0.022456883
0003c0 11 c6 f3 be 75 8b 84 3e 32 c4 9a bd 60 da 91 3e
       -0.4761205 0.25887647 -0.075569525 0.2848692
0003d0 6f dc 98 3e 87 ad 9a bf a2 9e 65 3e e2 31 5c be
       0.29855677 -1.2084206 0.22423795 -0.21503404
0003e0 8d 07 3c 3e e3 de 92 be 63 87 d0 bd 71 3b 43 be
       0.18362255 -0.28685674 -0.10182073 -0.19065644
0003f0 e9 97 f2 3d 8a e9 75 3e 12 43 9c bd 8b 4b 59 3e
       0.11845381 0.2401487 -0.0762998 0.21220224

critic.v_net.fcs.1.bias f4 [64]
000000 82 50 9b bd 0c e2 dd 3e 4d af ba be 80 c6 d1 3d
       -0.07583715 0.43336523 -0.3646187 0.10242939
000010 41 17 1b bf ef 87 0a 3f d9 62 cb be 8e f1 05 3f
       -0.6058236 0.5411367 -0.39723852 0.5232171
000020 06 42 d0 be c9 09 c1 3e 84 56 00 bf fe 4f 69 be
       -0.40675372 0.37702778 -0.5013201 -0.22784421
000030 97 5b 17 bf b1 0c 7a be 81 6a d6 3e d4 c6 df be
       -0.5912413 -0.24418904 0.4187813 -0.4370638
000040 42 46 d7 3e 61 66 5d be b3 b8 b2 3e 05 cf 9f be
       0.4204579 -0.21621086 0.3490654 -0.3121263
000050 ea c5 fa be 32 58 04 3f 47 f8 f9 3e 09 31 0f 3f
       -0.4897912 0.51697075 0.48822233 0.55934197
000060 48 e2 9a be 86 9c 0c 3f 72 b1 8b be 08 dc 03 3f
       -0.30250764 0.54926336 -0.27283818 0.51507616
000070 c8 78 db 3e fc e7 ce be b5 fc c3 3e 37 d9 89 3d
       0.42865586 -0.40411365 0.38278738 0.067308836
000080 06 19 eb be 0f bb 85 be 5f cf 97 3e 10 ac 99 3e
       -0.4591753 -0.26119277 0.296504 0.30014086
000090 70 68 ac 3e 2f 79 bc be 30 d0 ae be 71 d6 f1 3e
       0.3367343 -0.36811206 -0.3414321 0.47233918
0000a0 5c d0 c5 3e 81 af 9d be e6 fc f7 3e 37 c3 fb be
       0.38635528 -0.3079796 0.48435134 -0.49172375
0000b0 9d 4e 8c 3e b3 66 af 3d 39 6e d8 be 75 31 b4 be
       0.27403727 0.0856451 -0.42271593 -0.35193983
0000c0 64 f4 b8 3e 7f 24 f9 be f7 eb ea be 84 8e cd be
       0.36123955 -0.48660657 -0.45883152 -0.40147793
0000d0 5f 08 e9 be 8c f7 fa bd b0 d9 c7 3e 8d 14 d6 3e
       -0.455142 -0.12254247 0.3903327 0.41812554
0000e0 2d c7 e2 be a2 13 d9 3e 3b c0 fa be c2 f6 84 be
       -0.44292584 0.4239779 -0.48974785 -0.2596951
0000f0 9d 67 b7 be fc 77 ee 3e 3e a1 a4 3e e4 6d cf 3e
       -0.35821238 0.46575916 0.32154268 0.40513527

critic.v_net.fcs.2.weight f4 [1, 64]
000000 83 ed 63 bf d8 ba f2 3f b6 cd f2 bf df 13 a2 3f
       -0.8903429 1.896327 -1.8969028 1.2662314
000010 c7 5c 00 c0 d8 a6 fe 3f 61 73 a9 bf b6 ed c7 3f
       -2.0056627 1.9894667 -1.3238336 1.5619419
000020 fc 23 c6 bf 0c e0 be 3f 53 8c c3 bf 63 f8 df bf
       -1.5479732 1.4912124 -1.5277199 -1.7497677
000030 97 7c a1 bf 60 c7 b6 bf 40 32 b0 3f e3 1d a5 bf
       -1.2616147 -1.4279594 1.3765335 -1.2899746
000040 ab e6 e2 3f 46 98 03 c0 b6 af be 3f 71 af e9 bf
       1.7726644 -2.056169 1.4897373 -1.8256665
000050 5b 60 c4 bf 6f 72 fc 3f 62 44 c3 3f 81 4c ff 3f
       -1.5341905 1.9722422 1.5255244 1.9945222
000060 e8 6a b4 bf 09 df ed 3f 07 45 9e 3f 48 96 a6 3f
       -1.4095125 1.858369 1.2364815 1.3014612
000070 f3 42 bf 3f 30 ae fc bf d3 fb a8 3f 5e 30 be 3f
       1.4942306 -1.9740658 1.3201851 1.485851
000080 60 6a e7 bf 7b db c0 bf a5 ab bf 3f fb 94 a0 3f
       -1.8079338 -1.506698 1.4974257 1.2545465
000090 e5 5b d0 3f db 52 bd bf 74 c2 f6 bf 89 80 ff 3f
       1.6278044 -1.479091 -1.9278092 1.9961101
0000a0 a2 e5 ac 3f 99 e0 a5 bf 33 0e b8 3f 63 ca c4 bf
       1.3507578 -1.2959167 1.4379333 -1.5374264
0000b0 f4 93 ba 3f 4b 20 9a 3f 71 b3 aa bf 4f 51 bf bf
       1.4576402 1.2041105 -1.3336011 -1.4946688
0000c0 47 11 ca 3f 97 b1 ab bf 64 31 cb bf 40 58 b1 bf
       1.5786523 -1.3413571 -1.5874448 -1.3855057
0000d0 10 2e 9e bf 98 7b f6 bf 7c 1b b5 3f 09 1e a6 3f
       -1.2357807 -1.9256468 1.4149013 1.2977916
0000e0 37 13 aa bf 44 8c e9 3f 8a 49 da bf c5 82 b4 bf
       -1.3287114 1.8245931 -1.7053692 -1.4102408
0000f0 c5 2b f1 bf 77 f8 9a 3f fc ed cc 3f 45 ab 01 40
       -1.8841482 1.2107075 1.6010127 2.0260785

exp_avg f4 [64, 4]
000000 af ac 95 3c 9c c5 dc 3a a7 68 94 bb b7 2b cd bb
       0.018270819 0.001684356 -0.004529077 -0.0062613147
000010 43 68 96 bb d5 82 d1 b9 92 3a a3 3a 74 72 e5 3a
       -0.0045900657 -0.00039961064 0.0012453368 0.0017505423
000020 a8 66 0a 3c a1 95 43 3a eb 18 13 bb 60 3b 4b bb
       0.008447327 0.0007460956 -0.0022445272 -0.0031010732
000030 86 1f d8 bb a6 aa 1c ba d7 fb d3 3a 15 68 1c 3b
       -0.0065955548 -0.00059763563 0.0016173077 0.0023865749
000040 13 81 75 3d 21 8c ef 3b b1 ae 5c bc 59 f4 ac bc
       0.059937548 0.007310406 -0.013469384 -0.021112608
000050 2e 66 b1 bd 3d fb 2d bc da 62 9f 3c 06 29 fd 3c
       -0.08662067 -0.010618982 0.019456316 0.03090335
000060 10 a7 8a 3b 07 4e ea 39 fe 80 70 ba 82 ee b8 ba
       0.004231341 0.00044690093 -0.0009174495 -0.0014109167
000070 39 98 70 bc 7e 9b b2 ba 37 09 6c 3b c5 36 a3 3b
       -0.01468473 -0.0013626663 0.0036016235 0.0049808943
000080 89 c2 89 bc 0e e3 13 bb cc 45 87 3b fd 6b cd 3b
       -0.016816394 -0.0022565755 0.0041281935 0.0062689767
000090 c5 68 dd 3c 1d b5 27 3b 8e c4 d9 bb 4f c6 1c bc
       0.027027497 0.002559013 -0.0066457456 -0.009568765
0000a0 a9 0f a5 3c 3c da 0c 3b e1 85 96 bb 86 50 e2 bb
       0.020149069 0.0021492383 -0.0045935963 -0.006906572
0000b0 5d 8b fd 3c 86 7a 56 3b 4f 58 e7 bb 6d c0 2c bc
       0.030950243 0.0032726838 -0.0070600878 -0.010543925
0000c0 a4 db 76 3c 59 7a c3 3a 14 03 68 bb a9 50 ad bb
       0.015067015 0.0014913782 -0.0035402225 -0.0052891565
0000d0 a1 e8 f5 bd be c6 5d bc 31 91 dd 3c a1 36 29 3d
       -0.12007261 -0.013536153 0.027046772 0.041311864
0000e0 34 11 f6 bd 72 aa 68 bc 90 c0 dc 3c 5d 0c 2b 3d
       -0.12015 -0.014200794 0.02694729 0.041759837
0000f0 f4 75 d3 3b 46 77 19 3a 67 5a be ba 2c 2e 07 bb
       0.00645327 0.000585426 -0.0014522792 -0.0020626886
000100 eb 6e f7 bc c6 de 59 bb 97 5b dd 3b 1b 23 27 3c
       -0.030204257 -0.0033244356 0.006755303 0.010201241
000110 e1 eb 84 bd 44 c2 f3 bb 36 3b 6c 3c af 49 b5 3c
       -0.06490303 -0.0074389298 0.014418414 0.022129862
000120 f5 50 72 bc ca f5 cd ba 12 2c 67 3b cc 09 a7 3b
       -0.0147898095 -0.001571351 0.003527407 0.0050976034
000130 6a 73 f2 bd 3e c7 59 bc af 02 dc 3c 3d 56 27 3d
       -0.1183842 -0.013292132 0.026856748 0.040853728
000140 d6 8b 7b bc 72 2b bd ba 4b 91 7a 3b 5b 03 b1 3b
       -0.015353164 -0.0014432503 0.0038233574 0.0054020113
000150 b0 2e d3 bb cf 73 64 ba 8b 47 bf 3a 19 37 21 3b
       -0.0064447746 -0.00087147666 0.0014593465 0.002459949
000160 36 be 18 3e e1 52 87 3c 7f 29 09 bd 0d b9 51 bd
       0.1491631 0.016519012 -0.03348684 -0.05120187
000170 d5 5d 5a 3d c9 99 cb 3b 6e c1 49 bc 7d 3a 98 bc
       0.05331214 0.006213401 -0.012314184 -0.018582577
000180 72 2d e0 3c 9b 92 36 3b bf a9 c6 bb d1 db 1a bc
       0.02736542 0.002785838 -0.006062716 -0.009451822
000190 a0 13 49 bc 54 31 c5 ba 1f 03 28 3b b0 da 88 3b
       -0.012272745 -0.0015044608 0.0025636626 0.00417646
0001a0 38 05 30 3d a7 ef 92 3b 11 c2 27 bc 0a 56 72 bc
       0.042973727 0.004484135 -0.01023914 -0.014791021
0001b0 c1 6b f9 bc b9 51 7f bb 74 ab df 3b af 99 31 3c
       -0.030446889 -0.0038958623 0.0068258587 0.010839864
0001c0 b8 3f ec 3b 2c af 42 3a a0 f9 d1 ba c0 9b 1d bb
       0.0072097443 0.00074266153 -0.0016019829 -0.0024049133
0001d0 58 a9 22 be 1f 37 91 bc 93 ff 11 3d e7 ff 5f 3d
       -0.15884912 -0.01772648 0.035644125 0.054687407
0001e0 0c 5f 68 bd 84 ca e6 bb 17 6c 4a 3c f3 a3 9e 3c
       -0.05673127 -0.0070431847 0.012354872 0.019365286
0001f0 60 fd 80 3b 65 09 8e 39 a6 93 90 ba df a9 c1 ba
       0.0039364547 0.0002709135 -0.0011030331 -0.0014775357
000200 41 87 54 bd 6b 7c b3 bb d4 1c 41 3c bf 85 93 3c
       -0.0518868 -0.0054774783 0.011786658 0.018008111
000210 6e 33 86 bc ee 6a ef ba 65 4d 79 3b dd 41 be 3b
       -0.016381945 -0.001826612 0.0038040516 0.0058061914
000220 64 78 5c 3d b7 dd bd 3b 11 44 42 bc 3f 65 93 bc
       0.05382575 0.0057942527 -0.011857049 -0.017992614
000230 3a 36 d8 bc 11 91 40 bb 0d a5 bb 3b fc 45 12 3c
       -0.026393045 -0.0029383341 0.0057264627 0.008927818
000240 f2 9c 27 bb 87 53 31 b9 01 ee 4b 3a d9 93 86 3a
       -0.0025575724 -0.00016911152 0.0007779301 0.0010267451
000250 e0 f3 d5 3d 81 71 36 3c 77 67 c1 bc fb ad 11 bd
       0.10446906 0.01113546 -0.023608906 -0.03556631
000260 c0 62 9a bc 45 23 d7 ba 3b 14 90 3b 95 7e d4 3b
       -0.018845916 -0.0016413709 0.004396943 0.0064848163
000270 d0 69 69 bd b4 5a d0 bb 0c fe 4d 3c ba 40 9f 3c
       -0.056985676 -0.006358469 0.0125727765 0.019440044
000280 72 1b fd bc 5b 9d 72 bb 8d 78 e3 3b 13 21 2f 3c
       -0.030896876 -0.003702006 0.006941861 0.010689038
000290 e3 db 2b be 6a 78 91 bc 5c 2d 1b 3d c1 81 6b 3d
       -0.16783099 -0.017757613 0.037885055 0.05749679
0002a0 50 97 af bd b0 27 13 bc 72 23 9e 3c 46 57 ee 3c
       -0.085737824 -0.00898163 0.019304011 0.02909435
0002b0 37 53 b9 bd 2b 02 32 bc e7 af a7 3c 8f 01 03 3d
       -0.09049075 -0.010864775 0.020469619 0.03198391
0002c0 c5 3c 30 bd 5f d3 98 bb 70 ff 19 3c f7 04 6c 3c
       -0.043026704 -0.0046638693 0.00939928 0.014405481
0002d0 2d 24 bb bd e1 ad 1c bc 66 2a a8 3c a7 09 00 3d
       -0.09137759 -0.00956294 0.02052803 0.031259205
0002e0 3d cb f9 3c b0 cb 79 3b 8a d1 e5 bb 32 fd 2c bc
       0.03049242 0.0038115792 -0.0070135044 -0.010558413
0002f0 bd 79 26 3c f4 20 99 3a c8 d4 09 bb 56 b3 55 bb
       0.010160861 0.0011682794 -0.0021031369 -0.0032608113
000300 6f 16 af 38 b7 ca e7 b7 6e 13 48 b9 45 0e 78 b9
       8.348829e-05 -2.7631742e-05 -0.00019080724 -0.00023656439
000310 2d 6e 41 bb 5d 12 0e ba 31 fd d0 39 02 dd 72 3a
       -0.0029515133 -0.00054196065 0.00039861494 0.00092645
000320 99 41 b8 3d 98 62 1f 3c 84 59 a7 bc 34 09 00 bd
       0.08996887 0.009728096 -0.020428427 -0.031258777
000330 66 f0 ae ba 28 d2 1f b9 65 98 ec 39 6b 99 31 3a
       -0.0013346791 -0.00015241711 0.0004512697 0.0006774875
000340 42 1f 9e bd b1 36 f5 bb ff da 96 3c e0 9c dd 3c
       -0.07720806 -0.0074833264 0.018414972 0.027052343
000350 0d cf 92 3b b2 36 a3 39 7e 35 a6 ba 7f c1 e9 ba
       0.004480249 0.00031130534 -0.0012680737 -0.0017834156
000360 fa 3f a8 3d 96 c2 27 3c cc 8b 93 bc 35 47 e6 bc
       0.082153276 0.010239264 -0.018010996 -0.028110126
000370 da 3a 9c 3c e2 46 fc 3a 00 b9 92 bb 5a 01 d8 bb
       0.019071031 0.0019247199 -0.00447762 -0.006591958
000380 9f 03 18 be 19 cb 7f bc ed df 08 3d b9 fa 4e 3d
       -0.14845131 -0.015612387 0.033416677 0.050532077
000390 61 a3 c6 bd 7b da 24 bc 23 81 b4 3c 1f 38 07 3d
       -0.09699131 -0.010061855 0.022034233 0.033012506
0003a0 d1 83 cc bd 96 e7 36 bc 96 03 b7 3c cd 06 0d 3d
       -0.099860795 -0.011163613 0.022340577 0.034430314
0003b0 82 da af 3d 8e 3e 11 3c 83 51 9c bc 45 be e9 bc
       0.08586599 0.008865012 -0.019081837 -0.02853311
0003c0 7a ab ff 3c 1a 80 51 3b b3 70 f7 bb a1 95 37 bc
       0.031209696 0.0031967224 -0.0075512766 -0.011205108
0003d0 a6 97 6f 3e f6 d5 c8 3c ec a9 59 bd b1 42 a4 bd
       0.23397693 0.024516087 -0.053140566 -0.08020533
0003e0 4c 2e a8 3d 4b 78 06 3c cc ea 94 bc 24 86 de bc
       0.082119554 0.008207391 -0.018178366 -0.027163573
0003f0 28 fc fb 3c 19 35 6c 3b 18 fc da bb db 19 2b bc
       0.030759886 0.003604239 -0.006682884 -0.010443176
