walkthroughs/tutorial_models/tutorial_results/ppo/seed222_Feb-03-22-19-44_v0.5.0-53-g59b8ae6/model_best.pt (torch, 147434 bytes, 30 tensors)

actor.pi_net.fcs.0.weight f4 [64, 4]
0	0x3e6fca1c	0.23416942
1	0xbec3db3d	-0.38253203
2	0x3f08d4ad	0.5344952
3	0xbeb4d091	-0.35315374
4	0x3ecbe2d3	0.3982149
5	0x3ef764a5	0.48318973
6	0x3d9e2d90	0.07723534
7	0x3e9f508b	0.31116137
8	0x3e3380ea	0.17529646
9	0xbd80392a	-0.06260903
10	0xbe48d6bb	-0.19613163
11	0xbe3538f2	-0.17697504
12	0x3edeafe4	0.4349357
13	0xbe8e2822	-0.27764994
14	0xbd557d30	-0.05212134
15	0xbe6cf615	-0.23140748
16	0xbe5a07ae	-0.21291992
17	0x3e77e174	0.24207097
18	0x3f7401db	0.9531533
19	0x3f6660ca	0.8999144
20	0x3eed39ad	0.46333066
21	0x3d501d34	0.0508091
22	0xbf3b67f5	-0.732055
23	0xbf34d500	-0.7063751
24	0x3e9f52b0	0.31117773
25	0xbdeb1168	-0.11477929
26	0x3e98c773	0.29839668
27	0x3b15b3b7	0.0022842714
28	0x3dbe5ec7	0.09295421
29	0x3e536ef2	0.20647791
30	0xbd687cd5	-0.056759674
31	0x3e696a6a	0.227945
32	0xbeb688d7	-0.35651276
33	0xbe57320c	-0.21015185
34	0xbe712f0d	-0.23553105
35	0x3eddbb07	0.43306753
36	0x3ec673ce	0.38760227
37	0xbf074196	-0.5283445
38	0x3ed8e05b	0.4235867
39	0xbe9b3d58	-0.3032024
40	0x3e2fd057	0.17169319
41	0xbca2e654	-0.01988522
42	0x3df97781	0.12180997
43	0x3cff3d28	0.031157091
44	0xbe8c61da	-0.27418405
45	0x3e43b306	0.19111261
46	0x3dff28bb	0.124589406
47	0x3e659d6a	0.2242333
48	0xbebb0a1a	-0.36531144
49	0xbd65198f	-0.055932578
50	0x3ea3dfc7	0.32006666
51	0xbc870675	-0.016482571
52	0xbd655c7d	-0.055996407
53	0xbf0826ef	-0.5318441
54	0xbea48d1b	-0.32138905
55	0xbcf17c70	-0.029478282
56	0x3c44108d	0.011966837
57	0x3e82d65b	0.25554165
58	0xbf0b4611	-0.5440379
59	0xbf3e4e3f	-0.74338144
60	0xbeffdd6b	-0.49973616
61	0xbeedc780	-0.4644127
62	0x3eb8d2e6	0.36098403
63	0x3e86160e	0.261887
64	0x3ec0033f	0.37502477
65	0xbe9e7d9e	-0.30955213
66	0xbe8b1e17	-0.27171394
67	0xbec61acb	-0.38692316
68	0xbbd9382a	-0.0066290097
69	0xbe16bcc4	-0.14720446
70	0xbf04f522	-0.51936543
71	0xbf3bd0a3	-0.7336523
72	0xbe69110d	-0.2276041
73	0x3e4a2bce	0.19743273
74	0xbe46f135	-0.1942795
75	0x3ead5def	0.33860728
76	0xbde8b2d6	-0.11362235
77	0xbf1552a3	-0.5832922
78	0xbecd7be9	-0.40133598
79	0xbd4b56e9	-0.04964343
80	0x3c2e18b8	0.010626011
81	0x3f04c32f	0.51860327
82	0xbeebb647	-0.46037504
83	0x3f00b539	0.50276524
84	0x3eb44379	0.35207728
85	0x3d13b648	0.03606251
86	0x3e69a1e5	0.22815664
87	0x3e993d29	0.29929474
88	0xbe207438	-0.15669334
89	0x3ed2277d	0.41045752
90	0x3f8181a2	1.0117686
91	0x3f71e8a5	0.9449561
92	0x3e906aaa	0.28206378
93	0x3e8ac2db	0.27101788
94	0x3f2008b3	0.62513274
95	0xbdd58576	-0.10425846
96	0xbec20e9c	-0.3790177
97	0x3e1b2a39	0.15152825
98	0x3f0b305f	0.54370683
99	0x3c055e90	0.008140221
100	0xbef7b784	-0.483822
101	0xbe24a3ae	-0.16078064
102	0xbe26117b	-0.16217606
103	0xbe092ede	-0.13396785
104	0xbe64edc4	-0.22356325
105	0xbcdd64e8	-0.027025655
106	0x3ecfcd86	0.4058649
107	0xbe9af158	-0.30262256
108	0x3c8ad36f	0.016946523
109	0x3e5cbaf6	0.21555695
110	0xbf1432e6	-0.57890165
111	0xbee5b6a6	-0.44865912
112	0xbdaeccf6	-0.08535187
113	0xbc206d47	-0.009791679
114	0x3e5d1353	0.21589403
115	0x3ebc445e	0.3677091
116	0x3da999a9	0.082812615
117	0xbdac2a55	-0.08406512
118	0xbf3e5eda	-0.7436348
119	0xbf2f988e	-0.68592155
120	0xbeb78bd5	-0.3584887
121	0x3eb3e76a	0.35137492
122	0xbe48ac62	-0.19597009
123	0xbf56aa9d	-0.83854085
124	0xbe1aa5b7	-0.15102278
125	0xbedb619f	-0.42847916
126	0x3ec83b02	0.3910752
127	0xbe2e53d6	-0.17024168
128	0xbee3df28	-0.44506192
129	0xbcdf3f5c	-0.027251892
130	0xbf488100	-0.7832184
131	0xbeb81360	-0.35952282
132	0xbe6c1abb	-0.23057072
133	0x3d764a83	0.060129654
134	0xbe0aa02d	-0.13537665
135	0x3e1cb4cd	0.15303345
136	0x3ee5e8cb	0.4490417
137	0x3f2df989	0.67958885
138	0x3ee4b1b6	0.44666833
139	0x3ddb1863	0.10698011
140	0x3e8c824a	0.27443153
141	0xbf003476	-0.5008005
142	0x3d6ad786	0.057334445
143	0xbe10f5d4	-0.14156276
144	0xbeb88f1c	-0.36046684
145	0x3eac13c2	0.33608824
146	0x3d8b00e3	0.067872785
147	0x3e305ff2	0.172241
148	0xbccad500	-0.02475977
149	0x3f2d139c	0.67608047
150	0x3f0f9265	0.56082755
151	0x3e3fa1b0	0.18714023
152	0xbe19393a	-0.14963236
153	0x3de02dd4	0.10946241
154	0xbdcc95da	-0.099895194
155	0xbee07f78	-0.4384725
156	0x3dbff9b6	0.093738005
157	0xbed75dfe	-0.42063898
158	0xbd3912a3	-0.04518379
159	0xbde75102	-0.11294748
160	0xbdde88bc	-0.10865924
161	0xbeadeee9	-0.33971336
162	0xbee2ad55	-0.44272867
163	0xbd3c0110	-0.04589945
164	0xbe0beaad	-0.1366374
165	0x3cc58d28	0.02411516
166	0xbf65d6c1	-0.89780813
167	0xbf1a41f9	-0.60256916
168	0x3eb14403	0.346222
169	0xbe639989	-0.22226538
170	0xbef472c5	-0.47743812
171	0xbf123756	-0.57115686
172	0x3d379bc1	0.044826273
173	0x3ed3a4b5	0.413366
174	0xbf3ce202	-0.7378236
175	0xbee6a9d4	-0.45051444
176	0xbf037e27	-0.5136437
177	0xbe256002	-0.16149905
178	0xbe8f6804	-0.28009045
179	0xbe92f73d	-0.28704253
180	0x3d79e7c7	0.061012056
181	0xbe897830	-0.26849508
182	0xbf1e0e7f	-0.6174087
183	0xbf552dfb	-0.83273286
184	0xbe52cc29	-0.20585693
185	0x3f01022f	0.50393957
186	0x3efb6dbe	0.49107164
187	0x3d1a0551	0.037602726
188	0xbedb3a15	-0.4281775
189	0x3c923d0b	0.017851373
190	0x3e9d37e6	0.3070671
191	0x3e052325	0.13001688
192	0xbe93480d	-0.28765908
193	0x3dd8bca6	0.10582857
194	0xbd8cfa59	-0.068836875
195	0xbe2f0e85	-0.17095383
196	0x3e59e533	0.21278839
197	0x3e9b965c	0.30388153
198	0x3e369b06	0.17832574
199	0xbef50794	-0.47857344
200	0x3e8b95e7	0.27262804
201	0x3efd4141	0.49463847
202	0x3f233792	0.6375667
203	0x3f1e2466	0.6177429
204	0x3ef9ed3c	0.48813808
205	0xbec7cbc9	-0.39022663
206	0xbe88b07f	-0.26697156
207	0x3f132df8	0.5749202
208	0x3e88bef1	0.26708177
209	0x3dcf22ff	0.10114097
210	0xbebc7798	-0.36809993
211	0x3e8c259e	0.2737245
212	0xbecfcf88	-0.4058802
213	0xbf00c1f5	-0.50295955
214	0x3f0dd54f	0.5540361
215	0xbeeeeecf	-0.46666571
216	0x3f08320d	0.5320137
217	0xbe4b5f69	-0.19860615
218	0x3f75ac36	0.959659
219	0x3f331530	0.69954205
220	0x3ec896b1	0.39177468
221	0xbe7763d6	-0.24159178
222	0x3e7f9cf8	0.24962223
223	0xbe130f21	-0.1436124
224	0xbf0b48e7	-0.54408115
225	0xbe0e26d8	-0.13882005
226	0xbf1c94f0	-0.6116476
227	0xbee67a38	-0.4501512
228	0x3ce05763	0.02738542
229	0x3cb2f598	0.021845624
230	0xbf0a0486	-0.5391315
231	0xbe52b103	-0.20575337
232	0x3bb33d09	0.0054699224
233	0xbd3e2bf9	-0.046428654
234	0xbf7f8046	-0.99805105
235	0xbf0c750f	-0.5486612
236	0x3e5cfc4a	0.21580616
237	0x3eef9791	0.46795323
238	0x3f50fdd9	0.8163734
239	0x3f31dd38	0.6947818
240	0x3da181a0	0.07886052
241	0x3cf1e603	0.029528623
242	0x3dd313bd	0.10306499
243	0xbe52cfe8	-0.20587122
244	0x3ed26a2c	0.41096628
245	0xbd128872	-0.035774656
246	0x3f3b89c2	0.73257077
247	0x3ec154b5	0.3775994
248	0x3df69725	0.12040547
249	0x3f159495	0.58429843
250	0x3f3b9f42	0.73289883
251	0x3f0ad08f	0.54224485
252	0xbecdefad	-0.4022192
253	0x3effd7bb	0.49969277
254	0xbda4180d	-0.080124
255	0x3ed1117c	0.40833652

actor.pi_net.fcs.0.bias f4 [64]
0	0x3ed3a133	0.41333923
1	0xbed2b15f	-0.41150948
2	0x3e9814ee	0.29703468
3	0x3ebb4044	0.36572468
4	0xbe985569	-0.29752663
5	0x3defe5fa	0.117137864
6	0xbeba17ec	-0.36346376
7	0xbed51b88	-0.41622567
8	0xbedc63fc	-0.43045032
9	0x3e123911	0.14279582
10	0x3e7009ac	0.2344119
11	0x3e21692a	0.15762773
12	0xbe26a163	-0.16272502
13	0x3b995de0	0.00468038
14	0x3c9d82f3	0.01922748
15	0x3efb5cad	0.49094144
16	0xbe86a7d4	-0.26299918
17	0x3e31faab	0.17380778
18	0xbee80308	-0.45314813
19	0x3c842325	0.01613004
20	0xbe49f01e	-0.19720504
21	0xbed0be5f	-0.40770242
22	0xbe01dea4	-0.12682587
23	0x3e47644b	0.19471852
24	0xbe78adfb	-0.24285118
25	0xbe4b8805	-0.19876106
26	0x3e34c10c	0.17651767
27	0x3ebb7d2c	0.36618936
28	0xbe92dd48	-0.2868445
29	0x3d6edfac	0.05831878
30	0x3d30e86b	0.0431904
31	0xbeeb2f0c	-0.4593433
32	0xbe42b508	-0.1901437
33	0xbe105162	-0.14093545
34	0xbe185559	-0.14876308
35	0x3d9e62d2	0.07733692
36	0xbe832bd6	-0.25619382
37	0xbd6d09e0	-0.057870746
38	0xbef44efa	-0.47716504
39	0x3d1d43be	0.038394682
40	0xbe4e102f	-0.20123361
41	0xbd971189	-0.073763914
42	0xbdce18b5	-0.10063306
43	0x3da6d2a6	0.08145647
44	0x3dd102bf	0.10205602
45	0xbe23d53d	-0.15999313
46	0x3ea72855	0.32647958
47	0x3eb3b1b6	0.3509652
48	0xbedec5c4	-0.43510258
49	0xbec24387	-0.37942144
50	0x3e07e910	0.132725
51	0x3ebc61c1	0.3679333
52	0x3d327da5	0.043576855
53	0xbef10c45	-0.47079673
54	0xbe3fe740	-0.18740559
55	0x3ed0b01f	0.4075937
56	0x3d0081ed	0.031373907
57	0xbda74470	-0.0816735
58	0x3e08b368	0.13349688
59	0xbe3fb482	-0.18721202
60	0xbdbfb3a8	-0.093604386
61	0x3c19844d	0.009369922
62	0xbe49f175	-0.19721015
63	0x3e1da5da	0.15395299

actor.pi_net.fcs.1.weight f4 [64, 64]
0	0xbd1d83fe	-0.038455956
1	0x3cc612a4	0.02417881
2	0xbdb83085	-0.08993629
3	0x3d03b7cd	0.032157708
4	0xbdcfaf7f	-0.10140895
5	0x3c15be41	0.009139598
6	0x3dd96514	0.10614982
7	0x3ce5e12a	0.028061468
8	0xbd27948f	-0.04091316
9	0xbcbd72a5	-0.023125956
10	0xbde1fff0	-0.11035144
11	0x3d286db8	0.04112026
12	0xbc60f757	-0.013730845
13	0xbd49620a	-0.049165763
14	0x3dbfc1b1	0.093631156
15	0x3d89d2b9	0.06729645
16	0xbc7faef2	-0.015605675
17	0xbcb0e5f7	-0.02159403
18	0x3e069390	0.13142228
19	0x3db2b25c	0.087254256
20	0xbcf84dd7	-0.030310554
21	0x3d89811e	0.0671408
22	0x3a2e0e58	0.00066397106
23	0x3c4ae10a	0.012382755
24	0xbd3faae1	-0.046793822
25	0xbdc65b63	-0.096853994
26	0x3d3b0661	0.04566038
27	0x3de237ad	0.110457756
28	0xbde8e071	-0.11370934
29	0xbbc4d425	-0.006006735
30	0x3d513298	0.05107364
31	0xbdcb7287	-0.09933954
32	0x3c1df0e3	0.009639951
33	0xbcaacbc7	-0.020849122
34	0x3db901d8	0.09033555
35	0xbcade789	-0.021228569
36	0x3dbe39b0	0.09288347
37	0x3dc54e08	0.09634024
38	0xbd358827	-0.044319298
39	0xbdfa5d3a	-0.12224813
40	0xbce8424b	-0.028351923
41	0xbbe52453	-0.0069928556
42	0x3b5e77b4	0.003394586
43	0x3e08e62f	0.13369058
44	0xbdfbed17	-0.12301081
45	0xbc4cfa6f	-0.01251088
46	0xbd9b31b1	-0.07577837
47	0x3dbcfd51	0.09228004
48	0x3d3639d0	0.044488728
49	0xbd848058	-0.06469792
50	0xbc67ba1c	-0.014143493
51	0xbd6bdc6e	-0.057583265
52	0x3d595e47	0.053068426
53	0xbdabef29	-0.083952256
54	0x3d856e01	0.06515122
55	0x3bff5a2d	0.007792732
56	0xbcfc2013	-0.030777013
57	0x3dca1a83	0.09868338
58	0x3e055350	0.13020062
59	0x3aaba509	0.0013095449
60	0x3df518cf	0.119676225
61	0x3d82cb77	0.06386464
62	0x3d1bc21a	0.038026907
63	0xbce5464b	-0.02798762
64	0x3c183ab5	0.009291341
65	0xbbb62852	-0.005559006
66	0xbdcdfb68	-0.100577176
67	0x3dc72d0b	0.09725388
68	0x3d5467b9	0.05185673
69	0xbe815c83	-0.25265893
70	0x3da1b1a7	0.078952126
71	0x3ccf40cb	0.02529945
72	0xbc4048bf	-0.011736094
73	0xbe48e5f9	-0.19618978
74	0x3d82d940	0.063890934
75	0x3e1011e9	0.14069332
76	0xbdaa9b2d	-0.08330379
77	0xbe9d6fe5	-0.3074943
78	0xbefbcbdf	-0.4917898
79	0x3bd77095	0.0065747
80	0xbe179eef	-0.14806722
81	0xbe734a71	-0.23758866
82	0xbd69edc3	-0.057111513
83	0xbe266318	-0.16248739
84	0x3d7a92a6	0.06117501
85	0xbd62177e	-0.055198185
86	0x3ecfd7f2	0.4059444
87	0x3e410820	0.18850756
88	0x3db1b20c	0.08676538
89	0xbe178021	-0.14794971
90	0xbe03771c	-0.12838405
91	0xbc2075e1	-0.0097937295
92	0xbd286781	-0.041114334
93	0xbeffb851	-0.4994531
94	0xbeb7c966	-0.35895842
95	0xbe06a25a	-0.1314787
96	0xbe2c9f32	-0.16857603
97	0xbd0605df	-0.032720443
98	0x3e55ba5c	0.20871872
99	0xbd4a27c4	-0.04935433
100	0x3d953414	0.07285324
101	0x3e927684	0.28606045
102	0x3d935ecf	0.07195818
103	0xbe3e2f30	-0.18572688
104	0xbcfb8651	-0.030703695
105	0xbee48343	-0.44631395
106	0xbe273993	-0.16330557
107	0xbe92e310	-0.2868886
108	0xbe62e9cc	-0.22159499
109	0xbed0ebb2	-0.4080482
110	0x3dd19e5a	0.10235281
111	0x3e336b87	0.17521487
112	0x3cda339e	0.026635941
113	0xbdc975d6	-0.098369285
114	0x3e5ad269	0.21369328
115	0x3cb7d546	0.022440564
116	0x3cca7d8b	0.024718067
117	0x3c8ef312	0.01744989
118	0x3e8d9ec8	0.27660203
119	0x3d293642	0.04131151
120	0xbeb92a58	-0.36165118
121	0xbe776eed	-0.24163409
122	0xbe74c477	-0.2390307
123	0x3e916081	0.2839394
124	0xbd51a3ac	-0.05118148
125	0x3ecef97e	0.40424722
126	0x3e946fdb	0.2899159
127	0x3dafab14	0.085775524
128	0xbdd232d1	-0.10263599
129	0xbdec44b0	-0.115365386
130	0x3de7c420	0.11316705
131	0xbcb6c8e5	-0.02231259
132	0xbe394332	-0.18092039
133	0x3e6ed0eb	0.23321883
134	0x3dd94831	0.106094725
135	0x3db66769	0.08906443
136	0xbb960d98	-0.004579257
137	0xbd70baab	-0.05877177
138	0x3d42f0c4	0.047592893
139	0x3d40aa02	0.047037132
140	0xbd5350eb	-0.05159084
141	0x3e92b174	0.2865101
142	0x3e6019cc	0.2188484
143	0xbc4a0fac	-0.012332838
144	0x3d2fd68c	0.042929217
145	0x3e3f74bb	0.18696873
146	0x3dea5d4e	0.11443578
147	0x3da7d0e7	0.08194142
148	0xbded980b	-0.116012655
149	0xbda85641	-0.082195766
150	0xbea67eab	-0.32518515
151	0xbe31cef5	-0.17364104
152	0xbdf4f5fc	-0.1196098
153	0x3d6f7266	0.05845871
154	0xbe071891	-0.13192965
155	0x3e0d2855	0.13784917
156	0xbdfac370	-0.12244308
157	0x3e0492bf	0.12946604
158	0x3e3ba4cd	0.18324585
159	0x3c3cb864	0.0115185715
160	0x3dfd3fae	0.123656616
161	0x3c2aa2a2	0.010414751
162	0xbd958735	-0.07301179
163	0x3dd7226c	0.10504612
164	0xbdbb82a2	-0.091557756
165	0xbd227ea9	-0.039671574
166	0x3dca0d04	0.09865764
167	0x3b8a8c03	0.0042281165
168	0xba938f82	-0.0011257979
169	0x3ec09418	0.37612987
170	0x3e2ef542	0.17085746
171	0x3deef5b6	0.116679594
172	0x3db6eba1	0.089316614
173	0x3e637bb7	0.22215162
174	0xbd7ab5fb	-0.061208706
175	0x3d9bfd87	0.07616716
176	0x3cb7d4f3	0.02244041
177	0x3cdc5518	0.026896045
178	0xbe2da159	-0.1695608
179	0xbd953e40	-0.07287264
180	0xbd91a925	-0.0711234
181	0x3d15feb0	0.036619842
182	0xbe5991e2	-0.21247056
183	0xbdd957bd	-0.10612438
184	0x3d3e03e0	0.046390414
185	0x3db2efac	0.0873712
186	0x3e188cc2	0.14897445
187	0xbe3e7af1	-0.18601586
188	0x3e080808	0.13284314
189	0xbe5c5341	-0.21516134
190	0xbe2d627f	-0.16932105
191	0xbe60d214	-0.21955138
192	0x3d68b3e7	0.056812193
193	0xbcc28013	-0.023742711
194	0x3dd68911	0.10475362
195	0xbd95ac15	-0.07308213
196	0x3e07a558	0.13246667
197	0xbdbb6280	-0.09149647
198	0x3d5e9bac	0.05434768
199	0xbe014863	-0.1262527
200	0xbddf314d	-0.10898075
201	0x3d262e5b	0.04057155
202	0xbd819d55	-0.06328837
203	0x3dae0651	0.084972985
204	0x3ddea222	0.10870768
205	0x3e1f0f17	0.155331
206	0xbdd385d7	-0.10328262
207	0x3d970884	0.07374671
208	0xbd9f7a8f	-0.07787048
209	0x3d8d53d8	0.069007576
210	0xbd82b5cb	-0.063823305
211	0xbd00d3c1	-0.031451944
212	0xbe114010	-0.14184594
213	0xbe03d8e7	-0.1287571
214	0x3e5f26c5	0.21792133
215	0xbb2f8c8f	-0.002678666
216	0x3d40c265	0.04706039
217	0x3d99d596	0.075114414
218	0x3cc8120b	0.024422666
219	0xbc5b2e43	-0.013377729
220	0x3d08daa9	0.033411656
221	0xbe0b3f67	-0.13598405
222	0x3c74303e	0.01490408
223	0xbc88e454	-0.016710438
224	0x3d4b5007	0.049636867
225	0x3dcd34c8	0.10019833
226	0xbd9c6e29	-0.07638199
227	0x3dffa0b2	0.12481822
228	0xbc850360	-0.01623696
229	0x3d6f4e2d	0.058424164
230	0xbc8e8624	-0.017397948
231	0x3e11f747	0.14254485
232	0xbcc81357	-0.024423284
233	0xbe27aeb8	-0.16375244
234	0xbb8ead48	-0.004354153
235	0xbd1ee7bb	-0.038795214
236	0x3d19bbf2	0.037532754
237	0xbcaa965d	-0.020823652
238	0xbc8c04ce	-0.017092135
239	0x3d5765be	0.052587263
240	0x3dea400d	0.11437998
241	0x3e01252a	0.12611833
242	0x3e04dfa7	0.12975942
243	0xbdd2fe97	-0.103024654
244	0xbd9b2fd3	-0.07577481
245	0x3d8229e8	0.06355649
246	0x3d05367a	0.032522656
247	0x3d09aa41	0.033609632
248	0xbb943107	-0.004522446
249	0xbdc40684	-0.09571555
250	0x3b217c06	0.0024640574
251	0x3e1e6559	0.15468349
252	0x3d84da9b	0.06487008
253	0xbda7eb3b	-0.081991635
254	0x3d27da95	0.04097994
255	0xbdec9849	-0.115524836

actor.pi_net.fcs.1.bias f4 [64]
0	0x3cca3170	0.024681777
1	0x3dd622ac	0.10455832
2	0xbde81558	-0.11332196
3	0x3bcb3d7f	0.0062023993
4	0xbc51c667	-0.01280365
5	0xbd2e9282	-0.04262019
6	0x3b2a2ea7	0.0025967748
7	0x3dee1b71	0.11626328
8	0x3de75223	0.11294963
9	0x3c4c80e6	0.012481904
10	0xbda32c27	-0.07967406
11	0x3d88f9cf	0.06688272
12	0x3dd009ad	0.101580955
13	0xbdce0a7c	-0.100605935
14	0xbcdf87b5	-0.02728639
15	0xbdfe2561	-0.12409473
16	0xbcc635a7	-0.024195505
17	0xbdc3d43f	-0.09561967
18	0xbd9257d0	-0.07145655
19	0xbc1d2ec3	-0.009593668
20	0x3db7b1d0	0.08969462
21	0x3dc6ff8d	0.09716711
22	0xbd358e90	-0.04432541
23	0xbc8b33cd	-0.016992474
24	0xbd3556b5	-0.044272143
25	0x3d036758	0.03208098
26	0xbcd7732e	-0.02630004
27	0xbd527ec0	-0.05139041
28	0xbdc1544e	-0.09439908
29	0x3ce7db63	0.028302854
30	0x3c3315f0	0.010930523
31	0xbd9f26d9	-0.077710815
32	0xbd8e0a52	-0.06935562
33	0x3ddb1f5f	0.10699343
34	0xbd8e2dd0	-0.06942332
35	0xbd96644d	-0.073433496
36	0xbd823d1f	-0.06359314
37	0x3d1bb535	0.03801461
38	0xbd7a530f	-0.061114367
39	0xbd9a0735	-0.07520906
40	0xbd57b1fc	-0.052659974
41	0xbd385c03	-0.045009624
42	0x3d9284fa	0.071542695
43	0x3d8477fa	0.06468196
44	0xbd47e374	-0.0488009
45	0x3d85f8ae	0.065415725
46	0xbb2c799a	-0.0026317597
47	0x3d856baa	0.06514676
48	0xbd7ed90b	-0.062218707
49	0x3dcc2e95	0.09969822
50	0x3cbd7345	0.023126254
51	0xbd9ab665	-0.0755432
52	0xbd398c9d	-0.045300115
53	0xbd08991b	-0.033349138
54	0xbd92e99e	-0.07173465
55	0x3c028ab9	0.007967644
56	0xbc8f2cdb	-0.017477443
57	0xbdabb4c9	-0.083840914
58	0x3d86d318	0.06583232
59	0xbcc195bd	-0.023630971
60	0x3d74b78a	0.05974535
61	0x3d837733	0.0641922
62	0x3cbf9ad2	0.023389254
63	0xbdc4d37b	-0.09610649

actor.pi_net.fcs.2.weight f4 [1, 64]
0	0xbc113514	-0.0088627525
1	0x3e71ece0	0.23625517
2	0xbe0a2066	-0.13488922
3	0x3e81c525	0.25345722
4	0xbe290b00	-0.16508102
5	0xbe09a442	-0.13441566
6	0xbd663b04	-0.056208625
7	0x3d86589d	0.065598704
8	0x3da287cc	0.079360574
9	0x3e00d386	0.1258069
10	0xbde6b775	-0.112654604
11	0xbce0c814	-0.027439155
12	0xbdbd32d9	-0.09238214
13	0xbe721acb	-0.23643033
14	0x3e054a20	0.13016558
15	0xbd090598	-0.0334526
16	0xbdb2cdac	-0.08730635
17	0xbe0b5df9	-0.13610066
18	0x3dcb09a1	0.09913946
19	0xbe210d79	-0.15727796
20	0x3d4fd581	0.050740723
21	0xbda8285c	-0.08210823
22	0x3e031081	0.12799264
23	0xbd935492	-0.07193865
24	0xbe5eea6f	-0.21769117
25	0x3d776b26	0.06040492
26	0x3caef75e	0.021358188
27	0x3e1fe130	0.15613246
28	0x3dcb7ed7	0.09936302
29	0x3df8e56b	0.12153133
30	0x3d47696d	0.048684526
31	0x3e089923	0.13339667
32	0xbdb1d068	-0.086823285
33	0xbe327956	-0.17429098
34	0xbd3c6c82	-0.04600192
35	0x3dff92ee	0.124791965
36	0xbcac2e54	-0.021018185
37	0xbd0056df	-0.031332847
38	0xbd9eb1eb	-0.07748779
39	0x3d1df05b	0.0385593
40	0xbe0769c1	-0.13223936
41	0x3df53d29	0.11974556
42	0xbe31a76a	-0.1734902
43	0x3e003416	0.12519869
44	0x3dca2c61	0.09871746
45	0x3d17fd68	0.0371069
46	0xbd597261	-0.053087596
47	0x3e2417df	0.16024731
48	0x3dee8362	0.11646153
49	0x3dc7f72a	0.0976394
50	0xbdf25e32	-0.118343726
51	0x3db2d58d	0.08732138
52	0x3dbfae96	0.093594715
53	0x3e583a72	0.21116045
54	0xbda1abd9	-0.078941055
55	0x3e0628f5	0.13101561
56	0xbe4fb740	-0.20284748
57	0xbd7c49e8	-0.06159392
58	0xbd0a826e	-0.033815794
59	0x3d82e951	0.06392158
60	0x3e295d1d	0.16539426
61	0x3da6634f	0.0812441
62	0x3dcd45b0	0.100230575
63	0x3cde1c33	0.027113056

critic.v_net.fcs.0.weight f4 [64, 4]
0	0x3c54817c	0.012970325
1	0xbe30e89c	-0.17276233
2	0xc0066402	-2.099854
3	0xbee223d1	-0.4416795
4	0x3f082024	0.5317404
5	0xbe971cf5	-0.2951428
6	0xbfc8b18a	-1.5679181
7	0xbeb4f96d	-0.35346547
8	0xbf791725	-0.9730094
9	0xbf37c7a5	-0.7178901
10	0xbf644b54	-0.8917744
11	0x3e84726e	0.25868553
12	0xbdc503ac	-0.09619841
13	0xbef8527f	-0.4850044
14	0xc0228588	-2.5394
15	0xbf3b2a9c	-0.7311189
16	0xbd884bf8	-0.06655115
17	0xbe21b876	-0.15793023
18	0xc008ed09	-2.1394675
19	0xbf0620b0	-0.5239363
20	0xbe8d9eff	-0.27660367
21	0xbf7ddf70	-0.99169064
22	0xbf99abb9	-1.200553
23	0x3dffa498	0.12482566
24	0x3e79f64b	0.2441036
25	0x3f6f924d	0.9358261
26	0x3ffeda79	1.9910423
27	0x3f34b43b	0.7058751
28	0xbecdaf9a	-0.40173036
29	0x3edcac0f	0.4310002
30	0x40206613	2.50623
31	0x3f76101d	0.96118337
32	0x3f1be9b4	0.6090348
33	0x3eb2689c	0.34845436
34	0x3ffda32d	1.9815422
35	0x3f3497bf	0.70544046
36	0xbe42302e	-0.18963692
37	0xbf2e3842	-0.6805459
38	0xbfe5da95	-1.7957331
39	0xbea0647d	-0.31326666
40	0xbda019ae	-0.07817398
41	0x3f4d643f	0.8023109
42	0x40148fb8	2.321272
43	0x3eaf27e7	0.3421013
44	0xbf3837b2	-0.71959984
45	0xbef9b8de	-0.48773855
46	0x3ff203d3	1.8907417
47	0x3f447765	0.7674468
48	0x3ec405a0	0.38285542
49	0x3e86b255	0.26307932
50	0x40181429	2.3762305
51	0x3f6ebd72	0.9325782
52	0x3e13166f	0.14364026
53	0x3ec5a9c7	0.38606092
54	0x402ca98f	2.697849
55	0x3f5e9ae5	0.869551
56	0x3e7fb3f4	0.2497099
57	0x3ed658d1	0.41864637
58	0xbfebd3cb	-1.8424009
59	0xbf209dec	-0.6274097
60	0x3f609094	0.8772061
61	0xbe07864b	-0.13234822
62	0xbfe57071	-1.7924939
63	0xbf0cd0e8	-0.55006266
64	0xbeb91127	-0.361459
65	0x3dbb1f2e	0.091368064
66	0xbf8ee7de	-1.116451
67	0x3d6125c5	0.05496766
68	0xbf8a86c8	-1.0822382
69	0xbe53ae0d	-0.20671864
70	0x40135aff	2.302429
71	0x3eed4d8e	0.46348232
72	0xbeecc6a2	-0.46245295
73	0xbf02749a	-0.5095917
74	0xbf215f45	-0.63035995
75	0xbea51d57	-0.32248947
76	0x3f0f39f7	0.5594782
77	0x3f292a7d	0.66080457
78	0x3f82180d	1.016359
79	0x3f338faf	0.7014112
80	0xbe3d8d2b	-0.18510883
81	0x3d797e33	0.06091137
82	0x3fe0396a	1.7517521
83	0x3f5e902a	0.86938727
84	0x3e10e097	0.14148174
85	0xbeb6df1d	-0.35717097
86	0xc0113b7e	-2.269256
87	0xbf8243b9	-1.0176917
88	0xbee7c913	-0.45270595
89	0xbe3d8d02	-0.18510821
90	0x400735e9	2.1126654
91	0x3f328e63	0.69748515
92	0xbfa57107	-1.2925118
93	0xbeb50db5	-0.3536202
94	0x402d5643	2.70839
95	0x3f1c0ed3	0.6096012
96	0x3edcd343	0.4312993
97	0x3f5f455e	0.8721522
98	0x3fc88c73	1.5667862
99	0xbd4b8342	-0.049685724
100	0x3eea8f18	0.45812297
101	0x3f642b5d	0.8912867
102	0x3fb954ca	1.4479
103	0x3e347321	0.17622043
104	0xbe9c0076	-0.30469102
105	0xbf30e75b	-0.6910302
106	0xbfedc8c7	-1.8576897
107	0xbf24fb62	-0.6444608
108	0xbf0553ee	-0.5208119
109	0xbf4d743c	-0.80255485
110	0xbfc248c7	-1.517846
111	0xbf6f852f	-0.935626
112	0x3ea828d2	0.32843643
113	0x3e1ede8f	0.15514587
114	0x3fc6c5bf	1.5529097
115	0x3d9c7629	0.07639725
116	0xbe679f75	-0.22619422
117	0x3db4877e	0.088149056
118	0x3ff61a25	1.9226729
119	0x3f41fd5e	0.7577723
120	0x3f557da4	0.8339484
121	0xbef0334e	-0.46914142
122	0xbff40cce	-1.9066408
123	0xbee40c84	-0.445408
124	0xbf2d531e	-0.6770495
125	0xbf35f580	-0.7107773
126	0xbf71d92a	-0.9447199
127	0xbf153054	-0.5827687
128	0x3ed21e34	0.41038668
129	0x3f08bca8	0.53412867
130	0x3fea0205	1.8281866
131	0x3ec76337	0.38942882
132	0xbececff2	-0.40393025
133	0xbedd4e67	-0.4322388
134	0xc006995c	-2.1031103
135	0xbe18ab3c	-0.1490907
136	0xbf9185a0	-1.1368904
137	0xbea5b5ea	-0.32365352
138	0x40237cb8	2.5544872
139	0x3f55c19f	0.8349857
140	0xbed9466b	-0.42436537
141	0xbe9f6751	-0.31133512
142	0xbff9cb16	-1.9515102
143	0xbf29aff7	-0.66284126
144	0x3e9eb2f8	0.30995917
145	0x3f552344	0.83256936
146	0x3ffac9c4	1.9592824
147	0x3eb66f01	0.35631564
148	0xbdb87793	-0.09007182
149	0xbf8adc90	-1.084856
150	0xbfe4d977	-1.7878865
151	0x3d5495b5	0.051900584
152	0x3dd369ce	0.10322915
153	0xbf1a3a11	-0.6024485
154	0xc02f1317	-2.7355402
155	0xbf7c7980	-0.98622894
156	0xbf6b089a	-0.9181
157	0xbde81b62	-0.11333348
158	0x40130765	2.2973263
159	0x3f48c053	0.78418463
160	0xbf1628e4	-0.58656144
161	0xbf0fcde7	-0.5617356
162	0xbfa5e584	-1.2960668
163	0xbedbe871	-0.42950776
164	0xbf4d3c63	-0.8017027
165	0xbf4ebe9c	-0.80759597
166	0xbffa03c5	-1.95324
167	0xbf2847c4	-0.65734506
168	0x3e954e40	0.29161263
169	0x3f82c0ab	1.0215048
170	0x3fae97e2	1.3640101
171	0x3f41fb86	0.7577442
172	0x3e2edb59	0.17075862
173	0x3f1b2e33	0.6061737
174	0x3ffc8272	1.9727309
175	0x3f2c94f9	0.67414814
176	0xbf73cc8a	-0.95233977
177	0xbed9bdbc	-0.42527568
178	0x3ffca7dd	1.9738728
179	0x3fa06b79	1.2532798
180	0xbf063148	-0.5241895
181	0xbf6969a9	-0.9117685
182	0xbfbc1ea5	-1.4696852
183	0xbf488a28	-0.7833581
184	0x3fb0976a	1.3796208
185	0x3dae0bc9	0.084983416
186	0xc0012076	-2.0176063
187	0xbf3cc053	-0.73730963
188	0xbf8ce128	-1.1006212
189	0xbec4e059	-0.38452414
190	0x3fc966a5	1.573445
191	0x3eeb1871	0.45917085
192	0x3b769f41	0.0037631544
193	0x3e51f596	0.2050384
194	0x3feb45e8	1.8380709
195	0x3dd07fbb	0.10180613
196	0xbeba9d15	-0.3644797
197	0xbf013890	-0.5047693
198	0xc01be399	-2.4357665
199	0xbefe17ae	-0.4962744
200	0xbda46c6a	-0.08028491
201	0xbedddf4b	-0.43334422
202	0xbecee8b9	-0.40411928
203	0xbdfd0e3d	-0.12356231
204	0x3ed29f29	0.41137055
205	0x3b0d6de9	0.0021580404
206	0xc00439cc	-2.0660276
207	0xbf391ec6	-0.7231258
208	0x3d860a00	0.06544876
209	0xbee26a93	-0.44221935
210	0xbff0dff5	-1.8818346
211	0xbf157620	-0.5838337
212	0x3e1cc507	0.15309535
213	0x3e0f1a2d	0.13974829
214	0x401fef11	2.4989665
215	0x3ea34fae	0.31896728
216	0xbf6dd158	-0.9289756
217	0x3ef7b190	0.48377657
218	0x4002f2ac	2.0460615
219	0x3f4f7e44	0.8105204
220	0x3ecb7130	0.39734793
221	0x3ef59209	0.47962978
222	0x3fcae45e	1.5850942
223	0x3f4158c0	0.75526047
224	0xbe6cb084	-0.2311421
225	0x3ec6dea6	0.38841742
226	0x3fb16145	1.3857809
227	0x3ec13f41	0.3774357
228	0x3f12abaf	0.5729322
229	0x3f0a399e	0.53994167
230	0x401adc23	2.419686
231	0x3f53f9a2	0.82802784
232	0xbe51596e	-0.20444271
233	0xbf754b2b	-0.9581782
234	0xbfe82cda	-1.8138688
235	0xbec84635	-0.39116064
236	0x3ef50b94	0.47860396
237	0xbf1f0d48	-0.6212964
238	0xc011c005	-2.277345
239	0xbf541c7a	-0.8285595
240	0x3d0f9ff3	0.03506465
241	0x3eb09f3d	0.3449649
242	0x3fc3581b	1.5261263
243	0x3ece7742	0.40325361
244	0xbef521fa	-0.47877485
245	0xbed0e13b	-0.40796837
246	0xbfe3c00f	-1.7792987
247	0xbdbcbf70	-0.09216201
248	0x3f380d7b	0.7189557
249	0xbd4881a3	-0.048951756
250	0xbf8c31b0	-1.0952663
251	0xbf4ab59c	-0.79183364
252	0x3f16e76a	0.5894686
253	0x3f437ad2	0.76359284
254	0x3fdd8bce	1.730829
255	0x3f40f4a8	0.75373316

critic.v_net.fcs.0.bias f4 [64]
0	0xbe9542d4	-0.29152548
1	0x3eaeafd0	0.3411851
2	0x3e963af6	0.2934186
3	0xbe2e060c	-0.16994494
4	0x3df9a749	0.1219011
5	0x3f00177e	0.50035846
6	0x3e6b886a	0.23001257
7	0x3dd92088	0.10601908
8	0x3edac3b6	0.4272744
9	0x3de8ca77	0.11366742
10	0x3e646470	0.22303939
11	0xbe6569a4	-0.2240358
12	0x3e6f79af	0.23386262
13	0x3e4dd266	0.20099792
14	0x3ea79871	0.3273349
15	0x3e01cfa7	0.1267687
16	0x3ef3049e	0.4746446
17	0x3e379a52	0.17929962
18	0x3eebb995	0.46040025
19	0x3ee78f24	0.45226395
20	0x3de5cceb	0.112207256
21	0xbebd6928	-0.3699429
22	0x3eb25e81	0.34837726
23	0xbe301cb3	-0.17198448
24	0xbe5e408e	-0.21704313
25	0x3eb06172	0.34449345
26	0x3ea54a67	0.32283327
27	0xbedf674a	-0.4363349
28	0xbea45606	-0.3209688
29	0xbebbde05	-0.36692825
30	0x3e07d5b1	0.1326511
31	0xbef1d6f4	-0.4723431
32	0xbec73560	-0.3890791
33	0x3e702507	0.23451625
34	0xbe810559	-0.25199392
35	0x3ee7a43e	0.45242494
36	0xbeace336	-0.33767098
37	0x3e0f41ce	0.13989946
38	0xbe1edf2a	-0.15514818
39	0xbe995266	-0.29945678
40	0xbeccf0da	-0.40027505
41	0xbef14336	-0.4712159
42	0x3efa44e3	0.4888068
43	0x3ea00831	0.3125625
44	0x3e3fe02a	0.18737856
45	0xbe090c56	-0.13383612
46	0x3e13965e	0.1441283
47	0xbe573bc6	-0.21018896
48	0xbe8232d9	-0.2542942
49	0xbdea703f	-0.114471905
50	0x3eb1c691	0.34721807
51	0xbe1c9e37	-0.15294729
52	0x3ee36148	0.44410157
53	0xbdea4d8f	-0.114405744
54	0xbe9bcb53	-0.30428562
55	0xbdf0bebe	-0.11755131
56	0xbe9a70d2	-0.301642
57	0x3d2609bd	0.04053663
58	0x3e125653	0.14290743
59	0xbe694d96	-0.22783503
60	0x3ecda447	0.40164396
61	0x3e6e1c73	0.2325304
62	0xbed79f69	-0.42113808
63	0x3ddd15b6	0.10795157

critic.v_net.fcs.1.weight f4 [64, 64]
0	0x3eef5285	0.46742645
1	0x3eabcd72	0.3355518
2	0x3df20915	0.118181385
3	0x3f7db228	0.9909997
4	0x3f1cd9e8	0.6127
5	0x3e390490	0.18068147
6	0xbf5bec5e	-0.8590754
7	0xbfa45e6f	-1.2841319
8	0xbeb7c854	-0.35895026
9	0x3f1ba2e2	0.60795414
10	0xbf3ed5eb	-0.7454516
11	0xbeb29123	-0.34876356
12	0xbf5ed73d	-0.8704718
13	0xbf4a84c7	-0.7910885
14	0x3e8c5fb9	0.2741678
15	0x3f233bf5	0.6376336
16	0x3e4e1f68	0.20129168
17	0xbedae53b	-0.42753014
18	0x3e731fea	0.23742643
19	0xbea34f64	-0.31896508
20	0xbf461315	-0.77372867
21	0x3f1e71d7	0.61892456
22	0xbeda09b5	-0.4258553
23	0xbf0ed43d	-0.557926
24	0xbe837c20	-0.25680637
25	0xbeb6faa4	-0.357381
26	0x3e706007	0.23474132
27	0x3edcf3b1	0.43154672
28	0xbe25a68d	-0.16176815
29	0xbeb85a15	-0.36006227
30	0x3f020b09	0.5079809
31	0x3e1be71f	0.15224884
32	0xbe582462	-0.21107629
33	0x3ecf6fe2	0.40515047
34	0xbe8f7bac	-0.28024042
35	0x3e6b27e1	0.22964431
36	0xbeb6536f	-0.3561053
37	0x3edfced1	0.43712476
38	0x3f818eeb	1.012174
39	0xbec24041	-0.37939647
40	0x3e53567e	0.20638463
41	0x3f0c077b	0.54698914
42	0xbef5f2b2	-0.48036724
43	0xbf0e5484	-0.5559771
44	0xbf2f045d	-0.6836603
45	0x3f78d4f7	0.9719996
46	0x3ef40981	0.476635
47	0xbe95c0e9	-0.2924874
48	0xbe7aaeee	-0.24480793
49	0x3fa282fd	1.2696224
50	0x3da9361e	0.08262275
51	0x3f38def4	0.722152
52	0x3e17c7fa	0.14822379
53	0xbf35d101	-0.7102204
54	0xbe9c9068	-0.30578923
55	0xbf3bedce	-0.73409736
56	0xbe19807c	-0.14990419
57	0xbfd5010e	-1.6640947
58	0x3f11696e	0.568015
59	0x3f4c7ba4	0.7987616
60	0xbe2fd10c	-0.17169589
61	0x3ee85981	0.45380786
62	0x3e0cc62e	0.13747475
63	0xbf9a05b0	-1.2032986
64	0xbd12f568	-0.03587857
65	0x3dca9134	0.098909765
66	0x3f2bb852	0.67078125
67	0x3ebe2a6a	0.37141734
68	0x3ebde5b3	0.3708931
69	0x3ea2fcb0	0.3183341
70	0xbe942e64	-0.28941643
71	0xbec7265d	-0.38896456
72	0xbe3dc37f	-0.18531607
73	0x3f5d1d19	0.86372524
74	0xbe51f252	-0.20502594
75	0x3da56f93	0.08077922
76	0xbea742e0	-0.3266821
77	0xbea2fda5	-0.3183414
78	0x3e32750d	0.17427464
79	0x3e086137	0.13318335
80	0x3e15b777	0.14620768
81	0x3e278292	0.16358402
82	0x3e778ac2	0.24174026
83	0xbdb41ce3	-0.08794572
84	0xbdfa7b31	-0.12230528
85	0x3e40bd3c	0.18822187
86	0xbd9b9131	-0.075960524
87	0x3d7b0a54	0.061289147
88	0xbf37338d	-0.71563035
89	0xbd3945f6	-0.045232736
90	0x3eb05d86	0.34446353
91	0x3de1dd76	0.110285684
92	0xbe2aa6b0	-0.16665149
93	0xbe56a20f	-0.20960258
94	0x3e767302	0.2406731
95	0x3e1c6495	0.15272744
96	0xbea9aa70	-0.33137846
97	0x3f311d72	0.69185555
98	0x3db25044	0.08706716
99	0x3ea1c083	0.31592187
100	0xbf283143	-0.6570017
101	0x3f430335	0.7617677
102	0x3e950c11	0.29110768
103	0xbb41f3bb	-0.0029594738
104	0xbd116972	-0.03550095
105	0x3e5bf01a	0.2147831
106	0xbcfb9cf6	-0.030714493
107	0xbdb0ad1a	-0.086267665
108	0x3d79749e	0.06090223
109	0x3f171812	0.59021103
110	0xbdfe7766	-0.12425117
111	0x3d0c70c9	0.034287248
112	0xbea51f18	-0.32250285
113	0x3ee0dea2	0.43919855
114	0x3d9a5fef	0.07537829
115	0x3e0f1401	0.13972475
116	0x3e928b76	0.28622025
117	0xbf1e968b	-0.6194846
118	0xbe53fdf2	-0.20702341
119	0xbf25df3f	-0.6479377
120	0xbda937b1	-0.082625754
121	0xbf33f6e1	-0.7029858
122	0x3f50d179	0.8156963
123	0x3e3a4c19	0.18193091
124	0x3d3d2bdd	0.04618441
125	0x3eeab0b5	0.45837942
126	0xbd525c6a	-0.051357664
127	0xbf1dc693	-0.61631125
128	0x3d693446	0.056934617
129	0xbe6ff1a7	-0.23432027
130	0xbf133cd1	-0.57514673
131	0xbe504a3f	-0.20340823
132	0xbea4f222	-0.32215983
133	0xbf027cea	-0.50971854
134	0x3dfa8580	0.12232494
135	0x3e0b6233	0.13611679
136	0xbdd5d95a	-0.10441847
137	0xbf5d93a4	-0.86553407
138	0x3e3adeb6	0.1824902
139	0x3ce95b34	0.028485872
140	0x3dd7f3d2	0.10544552
141	0xbc950404	-0.018190391
142	0xbdbebfc0	-0.09313917
143	0xbd428b5f	-0.047496196
144	0xbe6a5788	-0.22884953
145	0xbea72e1e	-0.32652372
146	0xbedbffc0	-0.4296856
147	0x3da56282	0.080754295
148	0xbc4f1732	-0.012639808
149	0xbd2b2721	-0.041785363
150	0xbe04db98	-0.12974393
151	0xbe7b7c7e	-0.24559209
152	0x3f6e10bd	0.9299429
153	0x3e1cd3fc	0.1531524
154	0xbee09955	-0.43866983
155	0x3caf224b	0.021378657
156	0x3eb55853	0.3541895
157	0x3da15f31	0.078794844
158	0xbe98dd0e	-0.2985615
159	0xbc2fa36d	-0.010720116
160	0x3ec4b01f	0.3841562
161	0xbf335eb0	-0.70066357
162	0xbe113834	-0.14181596
163	0xbecb0859	-0.39654806
164	0x3f3c6b4e	0.73601234
165	0xbf67d599	-0.905603
166	0xbe7d691e	-0.2474713
167	0x3daacebb	0.08340212
168	0xbdfcf675	-0.123516954
169	0x3d5297d8	0.05141434
170	0x3d0c73da	0.034290172
171	0x3d84152d	0.064493515
172	0xbea389af	-0.31940982
173	0xbeb40d44	-0.3516637
174	0x3e22c0fb	0.15893929
175	0xbe1b5804	-0.15170294
176	0x3ec87cab	0.39157614
177	0xbec91245	-0.3927175
178	0xbeb3133a	-0.34975606
179	0x3e5726b3	0.21010856
180	0xbe88ca4e	-0.26716846
181	0x3ef6d2bd	0.48207656
182	0x3de12f07	0.10995298
183	0x3f25e5f3	0.64804
184	0x3e77f56d	0.24214716
185	0x3ebb0f0f	0.36534926
186	0xbf55ca12	-0.8351146
187	0x3b83c22a	0.004020949
188	0x3d0bf99e	0.0341736
189	0xbf272460	-0.6528988
190	0x3e08baed	0.13352557
191	0x3ed2d358	0.41176867
192	0x3e3593cb	0.1773216
193	0x3ebb7ec1	0.36620143
194	0x3d5610b1	0.052262012
195	0x3ef65723	0.48113355
196	0x3f8ad9d4	1.0847726
197	0x3d9ae9f9	0.07564158
198	0xbe6d87a5	-0.23196276
199	0xbf4cc980	-0.79994965
200	0xbe060c97	-0.1309074
201	0x3f345a64	0.70450425
202	0xbe6ad5a9	-0.22933067
203	0xbf27ca37	-0.6554293
204	0xbe7a0445	-0.24415691
205	0xbeaa71aa	-0.33289844
206	0x3ef246de	0.47319692
207	0x3f9a1f71	1.2040845
208	0x3e738189	0.23779882
209	0xbee2af16	-0.44274205
210	0x3e294405	0.16529854
211	0x3dcbbe7e	0.09948443
212	0xbf08d4f2	-0.5344993
213	0x3e6c8896	0.23098978
214	0xbe302db8	-0.1720494
215	0xbf9f3bb0	-1.244009
216	0xbe14164b	-0.14461629
217	0x3d8e4152	0.069460526
218	0x3e91800b	0.28418002
219	0x3de6f38c	0.11276922
220	0xbe78a375	-0.24281104
221	0xbf0f75f5	-0.56039363
222	0x3f80c81d	1.006107
223	0xbd82ef85	-0.06393341
224	0xbe64d477	-0.22346674
225	0x3ecab601	0.39591983
226	0xbf72e75e	-0.9488429
227	0x3ed37d75	0.41306654
228	0xbe965c06	-0.29367083
229	0x3e95d729	0.29265717
230	0x3ee2224c	0.4416679
231	0xbf3af319	-0.7302719
232	0xbdbe61b4	-0.09295979
233	0xbdedf5c6	-0.11619143
234	0xbdd4187d	-0.10356233
235	0xbd25a93d	-0.0404446
236	0xbf15f684	-0.5857928
237	0x3e69a18c	0.22815531
238	0x3f9d6155	1.2295328
239	0xbf0ed917	-0.558
240	0xbeee0dfb	-0.4649504
241	0x3ecdf690	0.40227175
242	0x3e0f5528	0.13997328
243	0x3ec8ff83	0.3925744
244	0x3eee7577	0.46573994
245	0xbf9b4b06	-1.213227
246	0xbf15bb24	-0.5848868
247	0xbf2d2e54	-0.67648816
248	0xbe46b7c6	-0.19406042
249	0xbed8025d	-0.42189303
250	0x3f092e4b	0.5358626
251	0x3e6a9460	0.22908163
252	0xbbdc367a	-0.0067203613
253	0x3eb0f94d	0.345652
254	0x3df1b9bb	0.118030034
255	0xbe2f1ddb	-0.17101233

critic.v_net.fcs.1.bias f4 [64]
0	0xbd22ceac	-0.03974788
1	0x3d6f9cab	0.05849902
2	0xbdb232e0	-0.0870111
3	0x3ce4c745	0.02792705
4	0xbe98e55f	-0.29862496
5	0x3e7f8748	0.2495395
6	0xbc3d1d2b	-0.011542599
7	0x3dd3407e	0.10315035
8	0xbdd63d1c	-0.104608744
9	0x3d88eb30	0.066854835
10	0xbe3f5d25	-0.18687876
11	0xbdf7ec90	-0.121056676
12	0xbe3adcbb	-0.18248264
13	0x3db117d3	0.08647122
14	0x3dcaeec2	0.09908821
15	0xbe1e0a08	-0.15433514
16	0x3d6153e4	0.055011645
17	0xbe3f84c4	-0.1870299
18	0xbd75801b	-0.059936624
19	0x3d598391	0.053103987
20	0xbe2bfc32	-0.16795424
21	0x3e5d46ec	0.21609086
22	0x3e46e8bd	0.1942472
23	0x3e8e6648	0.2781241
24	0x3cbb44af	0.0228599
25	0x3e901b61	0.28145888
26	0x3dcd72d1	0.10031665
27	0x3e1630c2	0.14667037
28	0x3e583d91	0.21117236
29	0xbdd9e92f	-0.10640179
30	0x3da8e009	0.08245856
31	0x3e1ab137	0.15106665
32	0xbdb4b935	-0.08824388
33	0x3d6fbf57	0.058532085
34	0x3b2f2386	0.0026724054
35	0xbc937e13	-0.018004453
36	0x3da93056	0.082611725
37	0xbd785b6b	-0.060634058
38	0xbd913df6	-0.07091896
39	0x3e585706	0.21126947
40	0x3d8cae78	0.06869215
41	0xbde6495d	-0.11244462
42	0x3e1e502e	0.15460274
43	0xbe493eb0	-0.1965282
44	0xbd3af6e3	-0.045645606
45	0xbc85fba1	-0.016355338
46	0xbd956b3f	-0.07295846
47	0xbd1111fc	-0.03541754
48	0x3e2287ef	0.15872167
49	0xbe1d489a	-0.15359727
50	0xbe6e4f3f	-0.23272417
51	0xbc22d406	-0.009938246
52	0xbd52d71f	-0.051474687
53	0xbe1a8800	-0.15090942
54	0x3d171e27	0.03689399
55	0x3de1c987	0.110247664
56	0xbde904e1	-0.11377884
57	0x3e2e04a5	0.16993959
58	0xbdcf85ff	-0.101329796
59	0xbe07747b	-0.13228028
60	0x3c49c6ac	0.0123154335
61	0x3e1ee76d	0.1551797
62	0xbd15cac0	-0.03657031
63	0x3dcfb7ff	0.10142516

critic.v_net.fcs.2.weight f4 [1, 64]
0	0xbf801098	-1.0005064
1	0x3fa0b2b0	1.2554531
2	0xbfa17119	-1.261264
3	0x3f6926b8	0.91074705
4	0xbfa972e8	-1.3238192
5	0x3faba402	1.3409426
6	0xbf50fde6	-0.8163742
7	0x3f649bd0	0.8930025
8	0xbf929b4c	-1.1453643
9	0x3f8be7d2	1.0930121
10	0xbf8f61d1	-1.1201726
11	0xbf93f83a	-1.1560128
12	0xbf6c7b42	-0.92375576
13	0xbf8d64a3	-1.1046337
14	0x3f809527	1.0045518
15	0xbf6d7d91	-0.92769724
16	0x3f87e350	1.0616245
17	0xbfafd01c	-1.3735385
18	0x3f583ddb	0.84469384
19	0xbf96d7e0	-1.178463
20	0xbf91b17d	-1.138229
21	0x3fa939b3	1.3220733
22	0x3f8d5875	1.104262
23	0x3fa87254	1.315989
24	0xbf8745fe	-1.0568235
25	0x3f9cc1a1	1.2246591
26	0x3f7a7891	0.9784022
27	0x3f6277fd	0.8846434
28	0x3f892b1c	1.0716281
29	0xbfaa73f8	-1.3316641
30	0x3f7992ad	0.97489434
31	0x3f93910d	1.1528641
32	0xbf94fc14	-1.1639428
33	0xbf8f581f	-1.1198767
34	0x3f8a1948	1.0788965
35	0x3f7447bf	0.95421976
36	0x3f9bddfb	1.2177118
37	0xbf8a1e81	-1.0790559
38	0xbfa51ab1	-1.289877
39	0x3fa93cf0	1.3221722
40	0x3f7f3d03	0.9970247
41	0xbf709b6b	-0.9398715
42	0x3f886cff	1.0658263
43	0xbf8f4c00	-1.1195068
44	0x3f8cc239	1.0996772
45	0x3f619f39	0.8813358
46	0xbf6af75b	-0.91783684
47	0xbf8bf91b	-1.0935396
48	0x3f94119f	1.1567878
49	0xbf78b092	-0.97144425
50	0xbf94e245	-1.1631552
51	0xbf64b1e2	-0.8933393
52	0xbf60762d	-0.8768032
53	0xbfacd8c4	-1.3503652
54	0x3f787e9d	0.97068197
55	0x3f72379d	0.9461611
56	0xbf7a2699	-0.97715145
57	0x3f9c81f0	1.2227154
58	0xbf850075	-1.0390764
59	0xbf83fed8	-1.0312147
60	0xbf9e75a6	-1.2379653
61	0x3f80dec4	1.0067983
62	0x3f8511e4	1.0396085
63	0x3fac1338	1.3443365

exp_avg f4 [64, 4]
0	0x3abc23e4	0.0014353958
1	0xb8cbd2c2	-9.719051e-05
2	0xba0a0f5f	-0.00052665727
3	0xb7860c0b	-1.5979653e-05
4	0xba5f24ee	-0.0008512278
5	0x38ab6c10	8.1740436e-05
6	0x39a6048d	0.00031665378
7	0x37c9f86b	2.4076746e-05
8	0x3aa46887	0.0012543359
9	0xb7d0f01a	-2.4907338e-05
10	0xb9e61f35	-0.0004389227
11	0xb72902de	-1.00738525e-05
12	0xb9a32164	-0.0003111466
13	0xb8405bb1	-4.586176e-05
14	0x38c7f348	9.534374e-05
15	0x36cade39	6.0459392e-06
16	0x3b8adb43	0.004237564
17	0xba08d62e	-0.00052199035
18	0xbad7e13d	-0.0016470324
19	0xb729c853	-1.0119827e-05
20	0xbbaffeaa	-0.0053709345
21	0x3a7ced9d	0.0009648444
22	0x3b0d241f	0.0021536422
23	0xb83029c4	-4.2000567e-05
24	0xba1a729b	-0.00058917113
25	0xb70128eb	-7.698526e-06
26	0x394ec071	0.00019717381
27	0x375c6b7e	1.3138049e-05
28	0xbacef452	-0.0015789366
29	0x38dda0ba	0.00010568039
30	0x3a15a786	0.0005708862
31	0x37caaef1	2.416174e-05
32	0xbaa50f7b	-0.0012593115
33	0x390c2de0	0.0001336853
34	0x39f66c33	0.0004700139
35	0xb78eea12	-1.7036717e-05
36	0x3ac4c0af	0.0015011037
37	0x3793de9f	1.7627432e-05
38	0xba072784	-0.00051557296
39	0xb7d91d39	-2.5882024e-05
40	0x3a33b0f5	0.0006854677
41	0xb8f56d67	-0.00011702888
42	0xb98e0af4	-0.0002709251
43	0xb5a3ca24	-1.2203277e-06
44	0x3a8621c1	0.0010233448
45	0xb92058a5	-0.00015291812
46	0xb9cead7b	-0.00039420635
47	0xb6ef1e46	-7.1262793e-06
48	0x39da324a	0.00041617668
49	0xb5b31da7	-1.3345169e-06
50	0xb913c4da	-0.00014092345
51	0xb599ce50	-1.1459433e-06
52	0xba761226	-0.00093868596
53	0x39d191d8	0.00039972248
54	0x39e8ca02	0.00044400996
55	0xb6853113	-3.969422e-06
56	0xbbc49ff6	-0.006000514
57	0x3a808eb3	0.0009808153
58	0x3b1a46a6	0.0023540645
59	0x376389b4	1.3562316e-05
60	0x39bf277a	0.0003645977
61	0xb887bcab	-6.472444e-05
62	0xb91636ad	-0.00014325483
63	0xb71f7583	-9.504499e-06
64	0xbb0119e6	-0.0019699275
65	0x397cd4eb	0.00024111911
66	0x3a4117e8	0.0007365928
67	0x378902b9	1.633294e-05
68	0xbb834dba	-0.0040070685
69	0x3a16a9f6	0.0005747372
70	0x3acb8457	0.0015527111
71	0x37b1d751	2.1200309e-05
72	0xba9e371c	-0.0012070867
73	0x3922a72c	0.000155118
74	0x39f49a74	0.00046654383
75	0x33edca01	1.1072917e-07
76	0xba5a9914	-0.00083388505
77	0x399eaa12	0.0003026282
78	0x39c6d341	0.000379229
79	0xb54f569a	-7.723953e-07
80	0xba2d557f	-0.0006612166
81	0x361546c1	2.2243914e-06
82	0x396f0210	0.00022793585
83	0x372c46c7	1.0268478e-05
84	0xba354a7c	-0.0006915701
85	0x38808fa7	6.130273e-05
86	0x3984577e	0.0002524219
87	0x37503b8d	1.2411631e-05
88	0x3c1d51ac	0.009601992
89	0xba9b5c5e	-0.0011853089
90	0xbb729801	-0.003701687
91	0xb8898bfd	-6.558744e-05
92	0x3aefe2cc	0.0018301844
93	0xb9c0cbed	-0.0003677303
94	0xba407cba	-0.00073428045
95	0x36e6d46d	6.8792638e-06
96	0x3a2e772d	0.0006655332
97	0xb928bd0e	-0.00016092157
98	0xb9934c0f	-0.00028094693
99	0x36a7e6ba	5.003848e-06
100	0x3a98780c	0.0011632456
101	0xb7c4d5c8	-2.346457e-05
102	0xb9d441ae	-0.00040484726
103	0x35cb68ee	1.5155217e-06
104	0x3b496fa0	0.00307367
105	0xb9047f5f	-0.0001263595
106	0xba8deecd	-0.0010828614
107	0xb8368128	-4.3512468e-05
108	0xbb251a48	-0.0025192667
109	0x399fac06	0.0003045501
110	0x3a7a6e25	0.0009553156
111	0xb6e29880	-6.753078e-06
112	0xb9da0931	-0.00041587048
113	0x37afc34a	2.0952564e-05
114	0x391c24c2	0.00014891013
115	0x347d5d50	2.3596408e-07
116	0xbbfc2076	-0.0076942993
117	0x3a874983	0.0010321591
118	0x3b416756	0.0029511056
119	0x380651a5	3.2024127e-05
120	0xbb26b1dc	-0.0025435602
121	0x3a092899	0.0005232185
122	0x3a87b0da	0.0010352388
123	0x36403981	2.8643701e-06
124	0x39b476b4	0.00034420716
125	0x385858c9	5.15811e-05
126	0xb8d4f27e	-0.000101541154
127	0x3594b3df	1.1079209e-06
128	0xba8277cf	-0.0009953919
129	0x397d78e6	0.00024172998
130	0x39d9802f	0.0004148497
131	0xb69a1d22	-4.592949e-06
132	0xb98c3a83	-0.00026746475
133	0x3753672c	1.2600602e-05
134	0x38c9cf2b	9.623015e-05
135	0xb5b621cf	-1.3569896e-06
136	0x39e7298a	0.00044090702
137	0xb96a2f2b	-0.0002233355
138	0xb968cd5f	-0.00022201751
139	0x3503ab2c	4.905039e-07
140	0xb82ecfe3	-4.1678442e-05
141	0x38d048db	9.931783e-05
142	0x3832e252	4.2649284e-05
143	0xb65bf331	-3.27751e-06
144	0xba8d3cb3	-0.0010775536
145	0x3835a656	4.3308675e-05
146	0x39cc2b35	0.00038942104
147	0x37087153	8.132617e-06
148	0x3ac6e2e9	0.0015173826
149	0xb9d69d89	-0.00040934634
150	0xba2ae654	-0.0006519307
151	0xb70b16ae	-8.290326e-06
152	0xbac985bd	-0.001537494
153	0x38c00527	9.156233e-05
154	0x3a120e25	0.00055715657
155	0x37985105	1.815754e-05
156	0x3931e19e	0.00016964084
157	0x393252f7	0.0001700631
158	0xb6d6f76e	-6.4065016e-06
159	0xb723639e	-9.738751e-06
160	0x38ecd8ff	0.000112937756
161	0x38733024	5.798055e-05
162	0xb7ab8009	-2.044441e-05
163	0xb629cc4f	-2.5301886e-06
164	0xbc063e49	-0.008193561
165	0x3a868ce0	0.0010265373
166	0x3b4b87c8	0.0031056274
167	0x3848ba11	4.7857004e-05
168	0xbb81da05	-0.0039627575
169	0x3a01a1e5	0.00049450836
170	0x3ac46027	0.0014982269
171	0x37ea7618	2.7949965e-05
172	0xbba05269	-0.0048926366
173	0x3a54bb38	0.0008115056
174	0x3afc2192	0.0019236079
175	0xb6bab866	-5.5646988e-06
176	0x3a0463bd	0.00050502626
177	0x390ca2d4	0.00013412099
178	0xb906c1a0	-0.00012851367
179	0xb77dfee6	-1.5139323e-05
180	0xbbd3a6a2	-0.006459073
181	0x3a3fa720	0.00073109753
182	0x3b1e31fa	0.0024138675
183	0x38307486	4.207019e-05
184	0x3abbfe59	0.0014342769
185	0xb944027b	-0.0001869294
186	0xba0cd555	-0.0005372365
187	0xb63fe60a	-2.8595118e-06
188	0xb94d2211	-0.00019563014
189	0xb8f40303	-0.00011635388
190	0x38057798	3.182105e-05
191	0x375ae36f	1.3046766e-05
192	0x3a0c783d	0.0005358493
193	0xb68c0744	-4.173171e-06
194	0xb944c3da	-0.00018764977
195	0xb4d623f0	-3.9886754e-07
196	0xba1477f9	-0.0005663629
197	0x39122a95	0.00013939508
198	0x39785c2a	0.00023685457
199	0x36f48b0f	7.287955e-06
200	0x3b6af448	0.003585117
201	0xba413429	-0.0007370138
202	0xbabd1d50	-0.0014428291
203	0x3773e2ea	1.4536761e-05
204	0x3975172e	0.00023373656
205	0xb881bec8	-6.186735e-05
206	0xb8d5a156	-0.000101866826
207	0x35a17c8b	1.2031682e-06
208	0xbb814923	-0.003945486
209	0x394abbe2	0.00019334213
210	0x3ab84121	0.0014057496
211	0x3802492b	3.106256e-05
212	0x3a21e310	0.00061754975
213	0xb7b79ae7	-2.1887432e-05
214	0xb9656c75	-0.00021879545
215	0x3775360c	1.4615722e-05
216	0x3b8ff60d	0.004393345
217	0xba255261	-0.0006306526
218	0xbadd0f62	-0.0016865546
219	0xb80a7c63	-3.3017608e-05
220	0x3a990468	0.0011674287
221	0xb92017cd	-0.00015267656
222	0xb9ee7f2f	-0.00045489657
223	0x35bb9b86	1.3977849e-06
224	0xbab0b505	-0.0013481682
225	0x3a0ddd47	0.0005411696
226	0x3a24a069	0.00062800065
227	0xb74c500f	-1.2177988e-05
228	0xbb73c47b	-0.003719597
229	0x3a047496	0.0005052773
230	0x3aba3d1c	0.0014208886
231	0x37a5e7ed	1.9777532e-05
232	0xbb899c64	-0.0041995514
233	0x3a19da20	0.000586899
234	0x3ad49a6a	0.0016220335
235	0x378a4afd	1.6485801e-05
236	0x3b9e3fd3	0.004829386
237	0xba5fcea7	-0.00085375685
238	0xbafce86c	-0.0019295341
239	0xb85b114a	-5.222977e-05
240	0x389b096b	7.39273e-05
241	0x390a0b09	0.00013164816
242	0x377c1a98	1.5026562e-05
243	0xb6f5de36	-7.3274377e-06
244	0x3b35d870	0.0027747415
245	0xba2693f3	-0.00063544436
246	0xba9582ae	-0.0011406743
247	0xb60488bc	-1.9749123e-06
248	0x3b85450d	0.0040670694
249	0xba44f4fc	-0.0007513312
250	0xbad79428	-0.0016447352
251	0xb8458c3a	-4.7099056e-05
252	0x3a9aaf7b	0.0011801565
253	0xb961c788	-0.00021532003
254	0xb9f4cffb	-0.00046694264
255	0xb71ccc12	-9.345838e-06
