examples/rl/models/safe_explorer_ppo/safe_explorer_ppo_model_cartpole_stab.pt (torch, 139323 bytes, 102 tensors)

actor.pi_net.fcs.0.weight f4 [32, 4]
00000000: 74fb 56be 8eef 243e d60e 853e c777 0d3e
00000010: 3940 93be e60e 1a3e 6822 65bf 9ee1 b4be
00000020: 71c8 b23e b2f0 92be 1faf 633e f990 e53e
00000030: aad8 b13e 0d5e 83be 2f49 6dbe 1a24 06be
00000040: 3597 bc3d 8a4f 86be c63a 743f a416 413b
00000050: aef1 a4be 6249 1e3e f24c 803f 368a 8d3d
00000060: 3096 d6be a55e acbe 5f5d 32bf 8eb6 a9be
00000070: 180e 903e e1e0 dabe b5f7 8bbe c670 bfbe
00000080: 4960 bf3e 452e 47be 9293 803f feb4 113e
00000090: 4813 183e a466 93be b675 733f 7bf2 113e
000000a0: 579f 743d 4982 a33e dde9 a5be 813c dcbe
000000b0: b7c0 be3e a982 263e 54f8 18bf 6daa e0be
000000c0: cf17 d1bd ffab 0abe 20ca 49bf fc50 43be
000000d0: c76a 4ebd c57a de3e f166 e63e f80c c63c
000000e0: b641 e13e 552e ad3e fce7 913e 4544 e83e
000000f0: 3fbb cb3e 25bf bbbe 313a d63e b833 f83e
00000100: 7496 783e f5f1 b33d 3253 e0be ace9 383e
00000110: 9d42 05be 9aff 0f3e 4066 44bf 61e3 a0be
00000120: 93c1 913e 6d05 f63e 75ef 723e b339 603e
00000130: 7086 933e 9364 f7be 2681 e1be 486d fbbe
00000140: 75d6 9c3b 88ee 29be 1f15 863f 5e3e 273e
00000150: e213 a9be f81e 86be 45f8 abbe 0155 d5bd
00000160: 3216 a9be d313 883e 658d 3fbf 8d32 b0be
00000170: 3dd7 13be 5b16 d83e 99ae e6bd 2a24 85be
00000180: 797e 933d beff b23d 96ca 823e 0ffb 96be
00000190: feaf 213e aa5f 4fbe 3171 8abf 051e 203e
000001a0: 0919 13bd 446e 0b3e 1eb8 3e3f f0b4 883e
000001b0: ccdb febc bfc7 2b3e 1705 793e 55f7 bc3e
000001c0: f3f4 93bb 5d99 d23e a05a 363f f0fc ca3e
000001d0: ba96 d2be f784 533e 5461 0bbf ce39 0d3e
000001e0: fcb9 b63e 92e3 06be 25d8 86bf 72e2 6ebe
000001f0: 19bb c13e 7c2f cc3e a5da 373f 9edd 103e
-0.20994359 0.16107008 0.2598788 0.13815223 -0.28759935 0.15044746 -0.89505625 -0.35328382
0.3491855 -0.2869926 0.22234772 0.44837168 0.34735614 -0.25657693 -0.23172449 -0.13099709
0.09208528 -0.26232558 0.9540218 0.0029462958 -0.32215637 0.15457681 1.0023482 0.06911127
-0.4191146 -0.33665958 -0.69673723 -0.3314709 0.28135753 -0.42749694 -0.27337423 -0.37390727
0.37378147 -0.19451244 1.0045035 0.142292 0.14851105 -0.28789246 0.9510149 0.14252655
0.05972227 0.31935337 -0.32404986 -0.4301491 0.37256405 0.1626078 -0.5975392 -0.43880025
-0.10209619 -0.13542174 -0.78824043 -0.19073862 -0.0503948 0.4345304 0.45000413 0.024176106
0.43995446 0.3382441 0.28497303 0.45364586 0.39791295 -0.3666927 0.41841272 0.48476958
0.24276143 0.08786384 -0.43813473 0.18057889 -0.13013692 0.14062348 -0.7671852 -0.31423476
0.28467998 0.48051015 0.23724158 0.2189701 0.28813505 -0.4831892 -0.44043845 -0.49106812
0.0047863075 -0.16594899 1.0475196 0.16332385 -0.33022982 -0.26195502 -0.33587852 -0.10416604
-0.33024746 0.26577625 -0.74825126 -0.34413567 -0.14437576 0.42204556 -0.112637706 -0.26004153
0.07201857 0.08740185 0.25545186 -0.29488418 0.15789792 -0.20251337 -1.0815793 0.15636452
-0.035912547 0.13616282 0.7449969 0.26700544 -0.031110667 0.16775416 0.24318348 0.3690745
-0.004515284 0.41132632 0.7123203 0.396461 -0.4113062 0.20656191 -0.54445386 0.13791582
0.3568877 -0.13172749 -1.0534712 -0.2332857 0.37838057 0.39879978 0.71818 0.1414704

actor.pi_net.fcs.0.bias f4 [32]
00000000: 47d5 923a cb3f 04bd 56ce ebbd c8b2 a43e
00000010: 0086 7b3c a917 8d3d 0cda 8ebe 9e3b 0dbe
00000020: e82f 06be a2e6 cc3e 7682 79be 2d77 01bf
00000030: 66ae 8f3e 6a69 1e3e 0c90 d03e 6487 ec3e
00000040: b84f babd 3a3d 933d 7689 58be 673c 82be
00000050: 5cce 8dbe c8b5 4abe 0f9e 8b3e d3fc c4be
00000060: 0d87 4f3c 5f72 883d 11cb c7be 82a2 0dbe
00000070: c8b9 bcbd 6593 d7be cc35 2b3e a252 61be
0.0011202478 -0.0322874 -0.11513965 0.3216765 0.015351772 0.068892784 -0.27900732 -0.13792273
-0.13104212 0.4001971 -0.24366173 -0.5057247 0.28062743 0.154699 0.407349 0.46197045
-0.090972364 0.071894124 -0.21146187 -0.25436708 -0.27696502 -0.19795907 0.27269027 -0.3847414
0.012666476 0.066624396 -0.39022115 -0.13831523 -0.092151225 -0.4210464 0.1671974 -0.22004178

actor.pi_net.fcs.1.weight f4 [32, 32]
00000000: 700f 353e 0bc8 df3d adec a83d af09 f9bd
00000010: fe3c 7abb 39d0 19bc 804b 953d f61d bbbc
00000020: 7ead bb3d 858f b9bd ed22 15be 576c 1a3e
00000030: 6271 883d 0f42 223e 1dfb c9bc 581d ac3d
00000040: 3cfb a9bb 03b6 d33c a14e 953d 6fd9 b73c
00000050: f72d f23c 9186 f43d 8586 4ebe 56d3 8fbd
00000060: dca0 c23d c9ca 00bc 4b53 2a3e 53b5 03be
00000070: 0d75 6a3e c03f 8abd 8dc0 62be eb77 013e
00000080: 360c 49bc 6af2 283e 92e5 153c 3818 003d
00000090: dd6b 3abe 884b 09be ecf4 a3bd 9574 2a3e
000000a0: a5e4 8bba 323a a2bd abb2 973d 68ce 163e
000000b0: 9938 ae3b f1b3 023e 11df 3e3d c9b8 14be
000000c0: ee25 7b3c 9363 a63c 7f79 29be 8f5c 3d3e
000000d0: a2c4 1bbd f19a ce3d d247 2f3e 018c 4dbc
000000e0: 89f0 df3c 96c9 273d 2191 81bd 4a26 05bd
000000f0: 528c 81be 4850 1cbd eb57 fabc 6b0e 90be
00000100: 79b9 e63a 1b5c 423e 1497 0f3e c6ba 243e
00000110: 208a 96bc fca1 7fbe 6f41 763e b507 a5bd
00000120: a850 83be bcc9 c63d 0f76 153e 2ec4 253e
00000130: 8285 20bd cc9d a5bb 266c f53c db24 f73d
00000140: abaf 853b cc6d c83d 4ca3 d8bd 7711 343d
00000150: 5709 80be 5213 223e ed07 95bd 4bd0 c43c
00000160: 2f33 02bc b00f ba3c 2f9a 0a3c 7b81 d33d
00000170: 4cc1 b4bd 0918 6bbd cebd 1cbc fa8c d2bd
00000180: 1f5e c33d 3b89 043d 3102 f83d 2dee 8cbd
00000190: d3ca 803e 10e8 bd3d ccc8 8cbd f287 3b3a
000001a0: 4ca2 133e df86 f0bd ea8d 03bd b117 093e
000001b0: fc6e 94bc 318d ec3d c1cc 08be 0edf bb3d
000001c0: 3c23 d0bd 3d26 d93a 18bc 82bd 2186 51bd
000001d0: ac36 483e 877d b63d 7559 4bbe 4ed9 58bd
000001e0: 69da 2cbd 57e7 76be d9c2 593e 43fb 8bbd
000001f0: f17a 77bd 09a6 13be 1954 e83b 1b13 203e
00000200: e5d1 cf3d de53 94bd d502 983d ce00 243e
00000210: 8845 813d 009a 783d a985 bc3d bf29 bb3c
00000220: 1199 9c3d 9e0f 353b 3728 883d 4a89 183d
00000230: f7cf e6bc e6dc ecbb 2088 093e 2feb 91bc
00000240: 16c1 0abc 03a4 e4bd 92db 0e3d 8197 433d
00000250: 9908 903b 30a8 cabd 9f76 30be 14e4 49bd
00000260: 3157 77bd 4bd5 59be 2a82 043e 7db8 cdbd
00000270: e2b4 433e b8a8 0e3d b4c5 efbd cac3 883e
00000280: 318e 823d d9b7 2e3d b162 2b3e cb29 153e
00000290: a373 333c 432d 98bc a60e 093e cdfd 0abe
000002a0: b74b 7d3c b315 a13d d75e 10be 5942 8b3d
000002b0: 864c 2d3d 5350 873d badf d9bd 3ac3 19bd
000002c0: 9ee7 6ebd 9845 b33d 9b69 12bd 196b 0c3e
000002d0: 3410 40be 332f 6e3d 4555 093e 3a03 123c
000002e0: 8613 4ebe a95c 013d eaf6 453d 2f9b 05bd
000002f0: abb9 2abe 5149 2f3e da85 dcbb 95bf 13be
00000300: 4155 8d3d f20a dbbd b5fa 1cbe 9bd2 1e3e
00000310: 16e7 903e 7f73 bc3d 6910 c53c 8299 f2bc
00000320: 571d 20bd 419e d43d 529e d93d 4f14 1ebe
00000330: 4752 c4bd 5613 0dbe 687d 053d eb3b 1a3d
00000340: d399 e03d 604e 24be 1d26 413e 50b9 893b
00000350: aead c53d cf24 3dbe 259a 6f3d b316 3cbc
00000360: a76d b9bd 3c50 9fbe dc37 443e a37b 1fbd
00000370: ec97 123e 56ac f23d 510e a7bd 8a03 d0bc
00000380: 3f78 d0bd 747d 42bd 3892 a5bd 895d 76bc
00000390: 7507 2b3c eccf 2ebe 8196 2d3e e2ef fb3d
000003a0: f648 33be c234 7c3c 7023 f0bc 2198 1cbe
000003b0: a618 593e d92f 553d c965 aebd 929e 02bd
000003c0: fd18 0c3e 3d87 f1bb 14da 5cbd 6cd8 2c3e
000003d0: df77 e1bd bc45 b6bd cdd6 173e e2c0 053e
000003e0: d63c d23d 98e3 adbc 86fc 36be c64b 153e
000003f0: f618 10be d5bd 323e 4619 1b3e fa80 443d
0.1768167 0.10926827 0.08248267 -0.1216005 -0.0038183327 -0.009388023 0.07289791 -0.022841435
0.091639504 -0.09060577 -0.14564104 0.15080391 0.06662251 0.15845512 -0.024655873 0.084040344
-0.00518742 0.025843626 0.07290388 0.022442548 0.029562933 0.11939729 -0.20168503 -0.07022731
0.09503338 -0.007860848 0.16633336 -0.12862138 0.22896214 -0.067504406 -0.22143765 0.12643401
-0.012270978 0.16498724 0.009148972 0.031273097 -0.18205209 -0.13407719 -0.080056995 0.16646035
-0.0010673 -0.07921256 0.07407125 0.14727175 0.0053168056 0.12763955 0.04659945 -0.14523615
0.015328867 0.020311153 -0.16550253 0.1849234 -0.03802932 0.100881465 0.17117241 -0.012545587
0.027336376 0.04096373 -0.06326509 -0.03250722 -0.25302368 -0.0381625 -0.0305595 -0.28136
0.0017602883 0.18980448 0.14022475 0.16086873 -0.01837641 -0.24964136 0.24048398 -0.080581106
-0.25647473 0.097064465 0.14595817 0.16188118 -0.039189823 -0.0050542112 0.029958796 0.120675765
0.004079779 0.09786567 -0.105780214 0.04396197 -0.25007126 0.15827683 -0.07276902 0.024025103
-0.007946773 0.022712559 0.008459612 0.10327431 -0.08825931 -0.05739597 -0.009566737 -0.102807954
0.095394365 0.032357436 0.12109793 -0.06881366 0.25154743 0.09272778 -0.068742365 0.00071537413
0.1441738 -0.117444746 -0.03211776 0.13387944 -0.018119328 0.115503676 -0.13359357 0.09173404
-0.101629704 0.0016567182 -0.06383532 -0.051153306 0.19552106 0.08910661 -0.19858344 -0.052941613
-0.04220048 -0.24111687 0.21265735 -0.06835034 -0.06041998 -0.14418806 0.0070901033 0.15632288
0.10147456 -0.07242559 0.07422415 0.16015932 0.0631209 0.06069374 0.09205181 0.022847055
0.076463826 0.0027627717 0.066482954 0.037240304 -0.028175337 -0.0072284816 0.13430834 -0.01781234
-0.008468887 -0.11164095 0.034877367 0.047751907 0.004395556 -0.098953605 -0.1723275 -0.049289778
-0.060385887 -0.21272771 0.12940279 -0.10044954 0.1911197 0.03482887 -0.11707631 0.26711875
0.06374777 0.0426558 0.16736867 0.14566724 0.010952863 -0.01857627 0.13384494 -0.1357338
0.015459946 0.07865467 -0.14098679 0.06799764 0.042309307 0.066071175 -0.106383756 -0.0375397
-0.058326356 0.08753508 -0.035745244 0.1371273 -0.18756181 0.05815048 0.13411434 0.008911902
-0.20124635 0.03158251 0.04833118 -0.032618698 -0.16672389 0.17117812 -0.0067298235 -0.14428551
0.069010265 -0.10695447 -0.15330012 0.15510027 0.28301305 0.09201717 0.024055677 -0.029614214
-0.03909048 0.10381747 0.106259 -0.15437435 -0.09586006 -0.13776907 0.0325903 0.0376548
0.1096684 -0.16045523 0.18862195 0.004202999 0.096522674 -0.18471073 0.058496613 -0.011480021
-0.09054118 -0.311159 0.19161934 -0.03893627 0.14315766 0.11849277 -0.081570275 -0.025392313
-0.10179185 -0.047482923 -0.0808453 -0.015036949 0.01043879 -0.17071503 0.16951944 0.123016134
-0.17508301 0.015393438 -0.029313773 -0.15292408 0.21200809 0.052047584 -0.08515508 -0.031889506
0.13681407 -0.007370858 -0.053918913 0.16879433 -0.11009192 -0.089000195 0.14828034 0.1306186
0.1026551 -0.02122669 -0.17869768 0.14579687 -0.14072022 0.17455228 0.1514636 0.047974564

actor.pi_net.fcs.1.bias f4 [32]
00000000: 801c 8fbd 6af2 c43d 0992 6abd cb35 2abd
00000010: 6948 a5bc 849e 093e 87f2 d03c c9c7 2d3e
00000020: 3542 de3c e6bb 2bbe 2dd5 1dbe acc2 11be
00000030: b9c5 d2bd 4ccf c2bd 3dbd 9b3d bb6c 76bd
00000040: 2536 36be e855 32bc b5c3 85bd bd76 273e
00000050: 62c6 3f3d f7de bc3d 5674 de3b 213c d8bc
00000060: 66ac 853d a3c6 d2bd b730 35bd 9161 8ebd
00000070: c657 f5bd df0e 95bd c440 fdbd 9aeb 99bd
-0.06987858 0.09616549 -0.057268176 -0.041555207 -0.02017613 0.13439375 0.025506271 0.16970743
0.02713118 -0.16770896 -0.15413351 -0.14234418 -0.10291619 -0.09512195 0.07604454 -0.060162287
-0.17794092 -0.010884739 -0.06531469 0.16353889 0.046820052 0.09222215 0.0067887707 -0.02639586
0.06527023 -0.10291793 -0.04423591 -0.06952203 -0.11979632 -0.07278227 -0.12365869 -0.075156406

actor.pi_net.fcs.2.weight f4 [1, 32]
00000000: 8eb7 813d 7392 06be aa6b aebd 1312 403e
00000010: 52f9 243e a948 c2bd c794 933d 7f90 31be
00000020: 076c b4bd ae70 e13d d8ac 42be 6005 013e
00000030: ebd2 00be 21ce 053e c76c cc3c 3505 183d
00000040: f8a2 443e 7013 2cbe a557 1f3d 9be2 cfbd
00000050: 1ca4 2cbe cb6b a6bc d64c e7bd 1e6c 20bd
00000060: 8953 483e 52c2 36bc c19f 0dbe ef0c 6ebc
00000070: 5217 123e 65a1 c4bd a52b 073e b2f0 bd3d
0.063338384 -0.13141803 -0.08516629 0.18756895 0.16110733 -0.09486515 0.072061114 -0.17340277
-0.08809667 0.1100782 -0.19011247 0.12599707 -0.12580459 0.13066913 0.024954213 0.03711434
0.19202793 -0.1680429 0.038901944 -0.101506434 -0.16859478 -0.020315072 -0.11293952 -0.03916561
0.19563116 -0.011154728 -0.13830473 -0.014529451 0.14266708 -0.09601096 0.13200243 0.092744246

critic.v_net.fcs.0.weight f4 [32, 4]
00000000: 2c98 3e3f 4f20 1a3f a2fb 9b40 1a45 313f
00000010: cdc0 8e3f 9101 ed3f f295 e33e 23e7 ce3f
00000020: b3bf 9b3e 1897 243f 7c3c 4f40 cad3 e13e
00000030: 10cf d33e 9acb f73e b264 4240 5b11 d93e
00000040: a700 ce3e 8b1e 283f c22c 0c40 bd30 0a3f
00000050: a27f c2bf 7e84 8d3f 9dc7 4a40 bf6a 8c3f
00000060: 5e84 d33f d8ba fb3e 9541 e2bf 8a50 8c3e
00000070: 968d 2f3f c66f 903f 3da5 9f40 8e80 8e3f
00000080: 5119 80bd 964c e53e 0284 093f 3026 893f
00000090: 1f40 d1be 89ea 3cbf edd3 7cc0 c240 0abf
000000a0: 3e72 90bf 7616 ecbd 39eb 6440 2b1f 1b3f
000000b0: 5897 1b3f 38bb 6e3f 370f 8340 0f5a 853f
000000c0: 1064 b3be a6b7 14bf daf7 35c0 e6e9 eebe
000000d0: 7a94 053e 3b2b 1c3f 3b0f f140 5e95 613f
000000e0: c633 06bf 4412 64bf 3bfd 75c0 f5d2 74bf
000000f0: f8d6 123f 38ae 803f b7ff 8340 1c3a 913f
00000100: 42b6 05c0 0e35 fbbe 5557 a6be 8dbf f8be
00000110: 0699 f43e 0897 f73e b82a 2b40 9477 9b3f
00000120: 8cbc 34bf 3fa8 bebe 85a4 3a40 ceac c93e
00000130: ac05 72bf 653d 00c0 3c56 3bbf 2250 afbf
00000140: a956 d1be 3adb 10bf 5517 27c0 1406 e9be
00000150: b93c 0ebf 2178 babf c1f8 083f 6c6e 1fbd
00000160: aed1 fe3f df53 1ebe dde4 8d3f f2b6 49be
00000170: a8e7 183f 7ca3 363f 56cd 1f3f 3eb9 043f
00000180: cd01 f9be 262c 1abf a170 70c0 85ae febe
00000190: b407 8fbf f36a c4be af9e 5e40 6720 133e
000001a0: a689 5e3f 5a27 0b3e c3bd 1640 fa96 123f
000001b0: 8a6d 7a3f 5e8a b93f f0c0 ed3f 2d78 cb3f
000001c0: d36f a33f a200 8abc 1829 1140 a011 973e
000001d0: 6dd7 8abf 58b5 ddbf 2f6e 82be 23f0 aebf
000001e0: 8f63 dfbe e772 ad3f 4099 953f cb99 fd3f
000001f0: dfb7 38bf 35bd f0be 35a3 7bc0 b8bf f3be
0.74450946 0.6020555 4.874467 0.69246066 1.1152588 1.8516103 0.44450337 1.6164287
0.30419692 0.6429305 3.2380667 0.44106895 0.41368914 0.48397523 3.037396 0.42396054
0.40234873 0.65671605 2.1902318 0.5398062 -1.51952 1.1056058 3.1684334 1.0970076
1.652477 0.49165988 -1.7676264 0.27405196 0.6857542 1.128411 4.9889207 1.1132982
-0.06254829 0.44784993 0.5371705 1.0714779 -0.40869233 -0.7379537 -3.950435 -0.5400506
-1.1284864 -0.115277216 3.5768569 0.60594434 0.6077781 0.93254423 4.0956073 1.0418109
-0.3503728 -0.58092725 -2.8432527 -0.46662825 0.1304492 0.61003464 7.533109 0.8811854
-0.5242275 -0.8909037 -3.843581 -0.95634395 0.57359266 1.0053167 4.124965 1.1345859
-2.0892491 -0.49063915 -0.32488504 -0.48583642 0.47772998 0.48357415 2.6744823 1.2145867
-0.706002 -0.37237737 2.9162915 0.39389652 -0.94539905 -2.0037472 -0.7317846 -1.369633
-0.4088643 -0.56584513 -2.610799 -0.4551245 -0.55561405 -1.456791 0.5350457 -0.038923666
1.9907739 -0.15461682 1.1085469 -0.19698694 0.5972848 0.7134321 0.6242269 0.5184516
-0.48634186 -0.60223615 -3.7568743 -0.49742523 -1.1174226 -0.38362846 3.4784353 0.1436783
0.86928785 0.1358923 2.3553321 0.5726162 0.97823393 1.4495351 1.8574505 1.589605
1.2768501 -0.016846005 2.2681332 0.29505634 -1.0846993 -1.7320967 -0.25474688 -1.3667034
-0.43630645 1.355069 1.1687393 1.9812559 -0.72155565 -0.47019354 -3.9318364 -0.47607207

critic.v_net.fcs.0.bias f4 [32]
00000000: 2eb9 89bf 2929 1240 c9e2 f7be f27b 6cbf
00000010: 68cb efbd 8aca 1340 e134 4cc0 dfac bfbf
00000020: d9ec b3be 5031 2e3f 3a10 cdbe c98e a2bf
00000030: 7b5d d73e 3428 893f 1c4f 793f c733 bdbf
00000040: 9ccc c13d 2a08 62be 8d66 87bf ce81 f73f
00000050: 782b c23e 2b3c d6bf d33a 1940 5bc7 0e3f
00000060: aa61 103f 98eb 1940 753e b0bf b051 0ec0
00000070: fec1 cabf dd6c 1640 37c8 3d3f 9a2c 613f
-1.0759637 2.2837622 -0.4841521 -0.92376626 -0.117087185 2.309237 -3.1907275 -1.4974631
-0.35141638 0.68043995 -0.40051442 -1.2699825 0.42063507 1.0715394 0.97386336 -1.4781426
0.09462854 -0.22073427 -1.0578171 1.9336488 0.3792379 -1.6737112 2.3942153 0.5577294
0.56399024 2.4050045 -1.376906 -2.2237358 -1.5840452 2.3503945 0.7413363 0.8795868

critic.v_net.fcs.1.weight f4 [32, 32]
00000000: d653 6c3e 0d93 06c0 9587 b0bf f85e 5cbe
00000010: 2ef4 50bf c592 44c0 5f4f e43f e03f 463e
00000020: df28 5bbf 30f0 793f 7b88 bfbe 87d4 943e
00000030: 009c 833f dad9 80c0 f3bc 30bd 3408 d53e
00000040: 969f 483e c940 c7bf 4deb 1abf 4c9a 17bf
00000050: 889a a73f 9317 df3e f4da 26c0 fe5e 0fbf
00000060: 3aa2 323f 4463 aabf a5b2 06be b648 d5bc
00000070: ef8e f53e dc4a c8be b110 abbf 163d 0a3f
00000080: ab0c b4bf b099 8fbe bf78 cabf 283d e53d
00000090: 1d7f 9cbf cb34 3f40 3c19 41c0 2d1d adbf
000000a0: 2cf1 ee3e 1634 f53f 9e4e 06bf a121 e3be
000000b0: 2baa ba3f 7fd9 20bf 5dfb 393f f485 4cbe
000000c0: 4dfc f53e fc69 8abf c888 df3e f00e 303f
000000d0: 02ea 853f 4473 8d3f 8d29 c63b 21ed b3bf
000000e0: 240c 0140 eaef c33e 27c3 39bf 0ce7 d6bf
000000f0: 1d54 3dbf 8b62 d43f ae05 d03e 5779 293f
00000100: 408e 6dbe 7f18 7b40 8c92 8b3f 3166 b63c
00000110: 2ce4 af3f 05e6 ba3f c086 81be d914 acbe
00000120: c2ca 4abf 18d0 d4bc a864 eabe d162 00bf
00000130: af7b 25bf 2f99 1c40 c6fa bd3d 9adf f0be
00000140: 2072 e2bf 173c 153f 72c3 18bf f8fe 183f
00000150: 022e 4ebf 52db 23c0 2fc0 5040 b0b7 7b3f
00000160: 8e29 17bf 4e9c d33e 1e60 f83e c315 513e
00000170: 905b f43d 6b59 97be 54d6 9c3f 9a76 cbbe
00000180: 4501 6ebe 89ea edbe 53dc 07c0 8a0a c03e
00000190: ec56 bebf f148 5bbf 8087 c43d 2dca 22c0
000001a0: aca1 8bbf 29d8 333f 4c45 d1bf 7903 9abf
000001b0: 1699 933f 06ba ebbf 62ed f43f fbb6 d4bf
000001c0: 057f 4ebf 9230 efbe 55f5 d83f 47d5 0640
000001d0: 327c e03f 46cf bd3d d42c 103e f9ec fb3e
000001e0: 5ce0 433e 4a63 86bf aa5c 8a3f 2578 c33b
000001f0: 4fdc 8f3f 8f08 c8be 04d2 24c0 ac4e 1cbf
00000200: 6923 0c40 5fa9 f4be bbaa b23f e7d9 963f
00000210: b5d4 d9be 6ed1 55bf a7a5 0f40 1e6d f53f
00000220: 7649 66bf 5236 68bf ce79 8e3f c5a4 c23f
00000230: 1fa6 2abf 2907 3f3f f883 8abf a10c e93f
00000240: 6a71 de3e 9b88 1cbf 6318 f43f b87c 71bf
00000250: 72d7 d4be 461e 5a3f dc37 24bf a38e 9ebd
00000260: 6f65 8abf 7fd5 2b3e d7e3 be3f 18b9 9e3f
00000270: 6eb4 e03f 5770 86bf 2ee3 88bf 450c 13c0
00000280: f364 e3bf 7e98 a3bf 46d9 013d c361 c9be
00000290: 9de6 8cbf c3c9 89be 47eb 69bf 4f57 33c0
000002a0: e1c0 80bf 9635 953f 8bb7 943f 047e fdbf
000002b0: a02e 083e 5fff 03c0 496a 0440 3ecf c1bf
000002c0: ebbb bc3f 7bb8 a0bf cefc 6c3d 98a0 c03f
000002d0: 86f3 0c3e 8372 693f 4afc 98bf 0fa7 83bf
000002e0: b11e 253f be04 acbe f9f8 0abf 0e77 cbbf
000002f0: aa8b e5bf 69b8 9c3f ac50 1ebf 8ecf b23f
00000300: 1719 503f 566b 3840 df6f 753f 57bd 9b3e
00000310: 54d6 c53d 6316 2740 0f62 05c0 f25d 9a3f
00000320: 24ae 80bd 172c 9abf 5c7c acbe e1b6 803f
00000330: ad23 6ebf 3a4e 0940 7f23 97bf 5240 8b3f
00000340: 2c3c 08be 998b 5f3e 47c8 f23d caa9 c23c
00000350: 8504 4abf 8cde 5abf aa1d 4740 63ac fa3e
00000360: cc39 8fbf 11bc a23f 886c 26bd 7d22 edbe
00000370: f4f4 2bbf 715f 853f 3bff eabe 1cb9 25bf
00000380: 79e3 1dbf 7d51 d13e ee13 a8be 1833 39bf
00000390: 56bf 3dbf 4be0 3b40 74e1 5ec0 a6ec 4abf
000003a0: cc76 fcbd 5588 6b3f d55f 9dbf 0a1d fdbe
000003b0: c2bb 043f 36e7 873f ee3c 563e edf9 2dbf
000003c0: e9d7 e6be 86d1 9abe ea20 42bf 45f1 5c3f
000003d0: 21f8 453f 8f07 53bf 72f9 bc3e 94be 7d3e
000003e0: f7a0 8a3f 9aa2 a13f 4f7b 2bbf ad9a 3ac0
000003f0: 1a0b 87bf a4f4 2340 a52d 0b3f 34e1 823f
0.23078856 -2.1027253 -1.3791376 -0.21520603 -0.8162259 -3.071458 1.7836722 0.19360304
-0.8560924 0.9763212 -0.37408814 0.29068395 1.0281982 -4.026593 -0.043148946 0.4160782
0.19592127 -1.5566646 -0.6051529 -0.59219813 1.3094034 0.43572673 -2.6071138 -0.5600432
0.6977879 -1.3311543 -0.13154085 -0.026035648 0.47960612 -0.39119613 -1.3364469 0.5399946
-1.4066366 -0.28046942 -1.5818099 0.11193305 -1.2226292 2.9875972 -3.0171652 -1.3524529
0.46668375 1.915652 -0.5246371 -0.44361594 1.4583181 -0.6283187 0.72649175 -0.19972974
0.48044053 -1.0813594 0.43659043 0.6877279 1.0462039 1.1050801 0.0060474337 -1.4056741
2.016366 0.38268977 -0.72563404 -1.678926 -0.7395647 1.6592573 0.40629333 0.66200775
-0.23198795 3.9233701 1.0904098 0.022265526 1.3741508 1.4601446 -0.2529812 -0.33609655
-0.79215634 -0.025978133 -0.4577992 -0.5015078 -0.6464185 2.4468496 0.09276347 -0.47045594
-1.7691078 0.58294815 -0.59673226 0.5976405 -0.8053895 -2.5602612 3.26173 0.9832716
-0.5904778 0.4133019 0.48510832 0.20418458 0.11931527 -0.29560408 1.2252908 -0.39738923
-0.23242672 -0.46468 -2.1228225 0.3750804 -1.4870276 -0.85658175 0.09596157 -2.5435898
-1.0908713 0.7025171 -1.6349273 -1.203231 1.1531093 -1.8416145 1.9134943 -1.6618341
-0.80662566 -0.46716744 1.6949869 2.1067674 1.7537901 0.0926805 0.140796 0.49204233
0.19128555 -1.0499051 1.0809529 0.00596525 1.1239108 -0.3906903 -2.5753183 -0.61057544
2.1896613 -0.4778547 1.3958353 1.1785249 -0.42545095 -0.8352269 2.2444856 1.9173925
-0.8995584 -0.90707886 1.1130922 1.5206534 -0.6665973 0.746203 -1.0821524 1.8206979
0.43445903 -0.61145943 1.9069942 -0.9433093 -0.41570622 0.85202444 -0.64147735 -0.077420495
-1.0812205 0.16780661 1.4913281 1.2400236 1.7555063 -1.0503033 -1.069433 -2.2976239
-1.7765182 -1.2780912 0.03170135 -0.393324 -1.1007878 -0.26911744 -0.9137463 -2.802204
-1.0058862 1.1656978 1.1618513 -1.9804082 0.13299036 -2.0624616 2.0689871 -1.514137
1.4744848 -1.2556299 0.05785828 1.5049009 0.13764772 0.91190356 -1.1951993 -1.0285357
0.64499956 -0.33597368 -0.5428615 -1.5895708 -1.7933247 1.2243778 -0.61841846 1.3969591
0.81288284 2.8815513 0.95873827 0.30417892 0.096600205 2.6107414 -2.08411 1.205992
-0.06283215 -1.2044705 -0.3368863 1.005581 -0.93023187 2.1453996 -1.1807708 1.0879004
-0.13304204 0.21830596 0.11854606 0.023762602 -0.78913146 -0.8549583 3.1111856 0.48959646
-1.1189513 1.2713643 -0.040630847 -0.46315375 -0.67170644 1.0419751 -0.4589785 -0.6473558
-0.6167522 0.40882483 -0.32827705 -0.7234359 -0.7412008 2.9355648 -3.4825106 -0.79267347
-0.12327346 0.920049 -1.2294871 -0.49436218 0.51848996 1.0617435 0.2092168 -0.6795948
-0.450866 -0.3023798 -0.7583147 0.8630565 0.7733174 -0.8243341 0.36909062 0.24779731
1.0830373 1.2627747 -0.6698503 -2.9156907 -1.0550263 2.5618067 0.54366523 1.0224977

critic.v_net.fcs.1.bias f4 [32]
00000000: 5083 bbbf 6e5d 6ebe a73b 213f 3a32 d43e
00000010: 3245 b4be 1e7c b2bf 6885 32bd a92e 3abe
00000020: 76c0 06bf c5bf a83f 4f0f a3be 090b 9dbf
00000030: 7cdf 45bf 587c 52bf fdef e73e 4053 92bf
00000040: 68ca 3b3f 4736 163e 0509 6c3f 1271 563f
00000050: 8760 763f 3652 b93f 939c 493f 3204 063e
00000060: d898 ac3e f11a 04bf ac8a 1dbf 5406 77bf
00000070: c227 43bf 5764 113f 056e 863d 8946 793e
-1.4649448 -0.23277828 0.6298165 0.4144457 -0.35209042 -1.3944128 -0.043584257 -0.18181862
-0.5263742 1.3183523 -0.31847617 -1.2268993 -0.77294135 -0.82220984 0.45300284 -1.1431656
0.7335572 0.14669143 0.9220126 0.8376628 0.9624104 1.4478214 0.7875454 0.13087538
0.3371036 -0.5160361 -0.6153972 -0.9649403 -0.7623254 0.5679373 0.06563953 0.24343313

critic.v_net.fcs.2.weight f4 [1, 32]
00000000: 81df b2bf 3ea4 a73f 6013 d43f cd79 28bd
00000010: 5d17 63bf 3940 3a3f 655a 1240 8a51 783f
00000020: b86a d3bf d850 55c0 a919 143f ce6f adbe
00000030: 33e1 07bf fc4b 3ebe 3365 733f 7090 07bf
00000040: e6c2 2e3f 5be6 50c0 c434 9b3f 0f29 ffbe
00000050: 268b 7abf e6a0 993f e911 a9bf 159e 3140
00000060: 26ac d13f 2822 823f 166e 9abf 4645 c43f
00000070: e86a 97bf ad96 0f3f 91dc 3b40 fab1 87bf
-1.3974458 1.3096998 1.6568413 -0.041131783 -0.88707525 0.72754246 2.2867672 0.9699942
-1.6516943 -3.3330593 0.57851654 -0.33874363 -0.53078 -0.18583673 0.9507629 -0.5295477
0.6826614 -3.2640598 1.2125478 -0.49836013 -0.97868574 1.2002227 -1.3208591 2.7752736
1.638066 1.0166674 -1.2064846 1.533364 -1.18295 0.5608929 2.9353373 -1.0601189

exp_avg f4 [32, 4]
00000000: 8ce1 6b3b b50e 1d3a a905 75b8 878a 32ba
00000010: de27 12bd bcf9 93bb 27c0 e739 0753 0d3c
00000020: 75ea 913a 191b 8339 8c88 09b8 a5cd 44b9
00000030: 9c13 4dbc bbfd 7eba 0cf4 f938 9474 483b
00000040: 3804 713d 2692 f73b 04cf 2dba 04d7 53bc
00000050: 5267 463d 4595 683b 64cd f6b9 7bb6 07bc
00000060: 0581 c2bc e366 29bb cc72 1939 7983 ab3b
00000070: 649e ceba 7b52 bfb9 8583 4438 8fb0 8f39
00000080: da81 f63c 0256 923b 1c20 e6b9 61ec d3bb
00000090: d92a 543c a89a 253a 3616 93b8 7b26 44bb
000000a0: 7e36 6cbb 0955 8037 d7e6 f4b7 e016 343a
000000b0: cdb6 56bc 085b 27ba 203f d637 21f7 903a
000000c0: cdb3 30bd 9a69 b4bb 259a ed39 8d59 203c
000000d0: 207b 0f3c 8624 bf3a 32d6 11b9 6e91 f6ba
000000e0: 10bd 773c d49a 1d3b 050e eeb8 fcd2 84bb
000000f0: 0382 073c 36bb 5638 a726 93b8 4748 0ebb
00000100: 271b 2ebc cecd 78ba 2e38 8038 a9c1 083b
00000110: b883 05bd 4c9a 74bb e67e a539 b673 f33b
00000120: 852e 053c e246 963a 0d42 04b9 aa8c b8ba
00000130: 4745 bebc dd94 78bb 680a e039 b660 4b3b
00000140: 81d9 033d 905a 883b 39c0 bdb9 a179 ecbb
00000150: 683b 73bc 85c5 91ba d6bd aa38 ed7f 3c3b
00000160: 2a5a bebc 78c8 83bb ac7e c839 552b aa3b
00000170: 04de 1abc 0814 a5b9 e564 8238 db29 043b
00000180: 4663 0b3c 0896 833a 8217 46b8 3889 feba
00000190: 76ff 68bd 0607 debb 43c7 343a 5134 553c
000001a0: a691 e43c 46f3 603b db4e 9ab9 eb4c e2bb
000001b0: ed2a 803b fcfe 2a3a 1a65 a1b8 4833 6aba
000001c0: 5e7f 3a3d 0489 df3b 7ac8 29ba 7466 1ebc
000001d0: 46ba 3bbc 0070 6cba 85bc 7f38 2523 523b
000001e0: 619c 08bd df39 8fba f9fa 1d39 5699 c13b
000001f0: 4bc5 0d3d 4cff 4a3b 4fa4 74b9 185c a5bb
0.003599259 0.0005991266 -5.8417823e-05 -0.00068108033 -0.03568255 -0.0045158546 0.00044202918 0.008625752
0.0011132496 0.00025006456 -3.2790515e-05 -0.00018768625 -0.012516882 -0.000972714 0.000119187025 0.0030587064
0.058841914 0.007555264 -0.0006630274 -0.012929682 0.048438378 0.0035489362 -0.00047073804 -0.008283253
-0.023743162 -0.0025848679 0.00014633982 0.0052341786 -0.0015763757 -0.00036491812 4.685253e-05 0.00027406632
0.030091215 0.0044658193 -0.00043892942 -0.0064673875 0.012949669 0.0006317296 -7.013643e-05 -0.0029930163
-0.0036043222 1.5298387e-05 -2.919456e-05 0.0006869864 -0.013105107 -0.0006384109 2.5540183e-05 0.0011059978
-0.04314022 -0.0055057527 0.0004531901 0.009786976 0.008757383 0.0014583028 -0.00013908072 -0.0018811652
0.01512076 0.0024048584 -0.00011351336 -0.0040534716 0.008270743 5.119593e-05 -7.016706e-05 -0.002171056
-0.010626591 -0.00094911165 6.11398e-05 0.0020867384 -0.03259632 -0.0037323413 0.000315658 0.0074295653
0.008128767 0.0011465217 -0.00012613107 -0.0014080007 -0.023226393 -0.0037930526 0.00042732363 0.0031032986
0.03218985 0.0041611865 -0.00036192106 -0.0072166477 -0.0148457065 -0.0011121487 8.1415914e-05 0.0028762773
-0.023236353 -0.0040217005 0.0003824135 0.005193154 -0.009452347 -0.00031486177 6.217676e-05 0.002016655
0.008507555 0.001003922 -4.7228772e-05 -0.0019419556 -0.05688425 -0.0067757396 0.00068961474 0.0130129615
0.027901482 0.003432469 -0.0002943192 -0.006906142 0.003911367 0.0006522981 -7.69591e-05 -0.0008934033
0.045531623 0.0068217535 -0.0006476712 -0.009667981 -0.011457985 -0.0009019375 6.097231e-05 0.0032064405
-0.03335226 -0.0010927281 0.00015066181 0.0059081716 0.03461198 0.0030974923 -0.00023330863 -0.005046379

exp_avg_sq f4 [32, 4]
00000000: 1c7d 9e39 e128 a538 1732 5135 b7a2 b737
00000010: acda 7f3c 61d1 953b 81c7 3038 12f2 8b3a
00000020: ca11 a137 afb3 c536 2d3c f433 ba33 1a36
00000030: b3ef c43a c57b 2f3a 11c6 a636 7464 2039
00000040: f634 363d bc17 373c 29b8 e238 b61f 3f3b
00000050: 36a4 053d fc43 1d3c 7c83 a738 ac68 1d3b
00000060: a27b ca3b e6ee 113b 4459 9137 3d86 173a
00000070: fbc6 c039 91e3 a238 6131 8135 aaef f437
00000080: dc4b 313c 15f7 323b a77d ea37 53b1 403a
00000090: bbba 0a3b 9e3e 5d3a 7f4d da36 372d 2839
000000a0: 8c85 5b39 cb68 6c38 fe09 2835 937b 3e37
000000b0: cbe1 813b ccd3 833a 7b47 1e37 1b83 7a39
000000c0: 4e8e de3c 6a58 043c 0c7f 9338 50cf f93a
000000d0: 2178 b33a 6e1d 7e39 e131 5536 b5f8 be38
000000e0: 495c 153b f3e4 743a 4be7 ed36 94bc 7a39
000000f0: 95a1 613a 99f4 de39 6750 5836 4fbe b638
00000100: 5b84 cf3a 3354 e639 914a 7236 0854 d938
00000110: aa65 7a3c 761b 7d3b 2a8e 1e38 1ceb 783a
00000120: 334f dc3a 6d07 d439 643c 9136 f23b fd38
00000130: ac33 433c 3336 183b 1927 de37 925b 453a
00000140: fb71 5e3c 939b 543b 5f3d 0438 9528 733a
00000150: 5200 343b b545 623a f47c f336 7f0d 7439
00000160: 10ec d33b 874a 9d3a d938 8037 11f0 c039
00000170: 6c89 a13a 5103 dd39 f8b3 8036 053c b938
00000180: 4d3f 913a 1a0e a739 8dc6 4836 618e 9e38
00000190: 7ddb 1d3d ff0a 3a3c 1572 ce38 c16f 323b
000001a0: f156 263c 915a 503b a4e8 e337 ced1 4e3a
000001b0: af41 f139 6c10 2339 32b8 c935 f9f6 3438
000001c0: 7055 003d 6934 043c b7da a538 858c 0e3b
000001d0: 07ce 893a e0f8 0e3a b452 7d36 a718 f138
000001e0: d5fb 6c3c fe27 af3b 3455 2438 8364 a83a
000001f0: f492 a43c ca29 a43b c7ca 4538 0144 a23a
0.00030229322 7.8754274e-05 7.793146e-07 2.189107e-05 0.0156161 0.004572079 4.2147472e-05 0.0010677001
1.920098e-05 5.8919754e-06 1.1373081e-07 2.2977897e-06 0.0015025049 0.00066941633 4.9702435e-06 0.00015296211
0.0444841 0.011175092 0.00010810822 0.0029163188 0.032627307 0.009598728 7.9876714e-05 0.0024018688
0.006179289 0.0022267639 1.7326915e-05 0.0005780196 0.00036769346 7.7671495e-05 9.62562e-07 2.9198669e-05
0.010821309 0.0027307917 2.7953485e-05 0.0007350642 0.002116843 0.00084398116 6.505928e-06 0.00016038572
0.00020935218 5.636438e-05 6.259942e-07 1.1353654e-05 0.003963684 0.0010057627 9.434177e-06 0.00023890699
0.027167466 0.00807772 7.0331706e-05 0.0019058976 0.0013692417 0.00024234291 3.1768507e-06 9.106231e-05
0.0022790602 0.00093419774 7.0900765e-06 0.00023912109 0.00086071464 0.0004252538 3.2233309e-06 8.713884e-05
0.0015832292 0.00043931752 3.6104213e-06 0.000103630184 0.015283028 0.0038621104 3.7802536e-05 0.0009495483
0.0016808271 0.00040441324 4.328367e-06 0.00012075146 0.011914175 0.0023225665 2.6482669e-05 0.00075285987
0.01357698 0.0032441362 3.152841e-05 0.00092757615 0.0027466011 0.0008631603 7.256511e-06 0.00023274681
0.00646735 0.001200036 1.528526e-05 0.00036799957 0.001232428 0.00042154876 3.8356484e-06 8.832667e-05
0.0011081487 0.0003186323 2.9917894e-06 7.560547e-05 0.0385394 0.011355161 9.844095e-05 0.0027227255
0.010152564 0.0031792263 2.716884e-05 0.00078895397 0.0004601604 0.00015551009 1.5029275e-06 4.3145355e-05
0.03133148 0.008069136 7.908552e-05 0.0021751237 0.0010513671 0.00054539554 3.7748077e-06 0.000114963674
0.014464338 0.0053453436 3.918e-05 0.0012847338 0.020089604 0.0050098645 4.715731e-05 0.0012379886

exp_avg f4 [32]
00000000: 859e f13a 5006 59bc 579e 223a a1a0 1bbb
00000010: 9f43 c63c 0be0 b83c 7364 b1bb 46be 85ba
00000020: 8baa 5e3c 733d 9c3b a859 12bb 94ed 25bc
00000030: 3b4f 90bc 8a8c 673b 8182 123b 8da4 f13a
00000040: 8092 a6bb 63af 5dbc e00a 623b f34d 7abc
00000050: 324b 433c e8ce 97bb db94 30bc 0764 83bb
00000060: b329 6c3b 043e aabc e26d 123c 01c0 993a
00000070: 03cc 973c 0f41 b5ba 0a4a 44bc 04cf 983c
0.0018434083 -0.013246134 0.0006203404 -0.0023746865 0.024202166 0.02256777 -0.005413586 -0.0010203801
0.013590465 0.0047680675 -0.0022331271 -0.010127444 -0.017615905 0.003533157 0.0022355618 0.0018435881
-0.005083382 -0.013530585 0.0034491345 -0.015277374 0.011919783 -0.0046328194 -0.010777677 -0.004009727
0.0036035597 -0.020781524 0.008937331 0.0011730195 0.018529898 -0.0013828593 -0.011980543 0.0186534

exp_avg_sq f4 [32]
00000000: 7d03 f439 0974 cf3c da0d 1838 41b4 353b
00000010: e8fb 8c3d 7fa5 623d 3e15 3c3c 436b 163a
00000020: a55f 8f3c 94ef 5e3b ab34 a039 f109 cb3b
00000030: 4c38 2a3d 1157 0b3b d04b 8d3b ac57 cc3a
00000040: 88f4 263b bded c03c 1205 343b 2ed6 943c
00000050: f510 ae3c a3a6 a13b 6c63 223c 1b66 023b
00000060: a99e e53a cc0a 7d3d a29d 833c 03f4 3e3a
00000070: 3fe4 473d 8c95 013b c1a6 de3c 9026 0b3d
0.00046541906 0.025323885 3.6252524e-05 0.0027725848 0.06883985 0.05533361 0.011479674 0.0005738029
0.017501662 0.0034017311 0.0003055682 0.0061962535 0.041557595 0.0021261612 0.004312016 0.0015590093
0.0025475342 0.023550862 0.0027468842 0.018168535 0.02124832 0.0049331947 0.009911399 0.0019897285
0.0017518598 0.061777875 0.016066376 0.00072842854 0.048801657 0.0019772975 0.027179124 0.033972323

exp_avg f4 [32, 32]
00000000: 60e1 e8ba 20a9 c1ba d9a1 a93a ba30 5f3b
00000010: e85a e139 555f 1cbb 2d9e 60bb de03 013b
00000020: 5d40 063b c007 cf3a 33b1 1c3a c1e3 b83a
00000030: 692c 7839 6901 e039 3fb1 643b 27d4 303b
00000040: fc0e c03a 8c29 2fb8 6d42 d13a e83a d43a
00000050: d823 a3ba 8ac1 46bb 7378 54ba b187 afba
00000060: c951 a03a 5b8f 883a dbfd daba 9d60 99ba
00000070: 2749 29ba 4005 81bb 3b5b 633b ee99 133b
00000080: 9c89 7a3b 6832 573b e99b 36bb 3b56 f9bb
00000090: 5d20 79ba f2b9 a63b 3669 fa3b 1190 86bb
000000a0: 41b4 8ebb a139 77bb 3929 8fba aa7a 32bb
000000b0: 70bf 42ba e32d 8eba 479b 00bc aeba ccbb
000000c0: f6ff 4abb 6596 9538 32e3 59bb 8bdb 54bb
000000d0: 86d4 3e3b b97d dc3b 1378 d03a 2360 533b
000000e0: 6c16 2dbb e350 17bb 2ab9 803b fadf 2b3b
000000f0: a8bc bc3a 15ab 103c 3779 f9bb 6f81 9bbb
00000100: fdff 243b 269e 0f3b aaa5 f4ba 15de a2bb
00000110: d6c6 25ba 78ea 5c3b d55a a53b abef 31bb
00000120: 92a7 3ebb 4436 20bb dea2 39ba cdc2 f0ba
00000130: 3ff5 d9b9 314d 32ba 4a03 aabb 2b80 86bb
00000140: 8d8a 08bb de9e be38 883d 13bb 9dd2 0dbb
00000150: c3ad f23a 06eb 903b 1780 903a 1d96 093b
00000160: 6a79 dfba 300a c9ba 3e7c 233b 9e7b da3a
00000170: c696 6a3a 05be bc3b c156 a3bb 4652 50bb
00000180: 884f a8bb ad7f 91bb 60cd 6e3b 3a2e 2a3c
00000190: b642 933a 9b5b e2bb c591 30bc c30c ae3b
000001a0: dd08 be3b 5b7f a73b 7206 bc3a eb03 633b
000001b0: eb6a 833a 0c1c e13a d3b8 363c 8e31 0c3c
000001c0: b547 8e3b 2d2b 13b8 10ae 9a3b 84ec 853b
000001d0: e4c6 87bb 5a3c 1abc f710 01bb 0c0e 8fbb
000001e0: cf0b 693b 572b 503b c725 b0bb 7ee0 61bb
000001f0: d11d e0ba 35dd 45bc a6d8 2a3c dc47 d73b
00000200: f30c 99bb 98fc 86bb e590 623b 19ad 1a3c
00000210: e780 943a dc8e ccbb 538b 1dbc d25c a03b
00000220: f682 ae3b 9868 9c3b e2a3 a53a bcde 543b
00000230: f546 7c3a 9f3c bd3a 71c2 223c acc1 013c
00000240: abc5 7c3b 3941 ebb8 7a76 883b ccc2 773b
00000250: 0f07 71bb ddf6 09bc 1703 f9ba 015b 86bb
00000260: a8d6 513b 736b 3e3b 3bf4 a0bb 2cd1 4fbb
00000270: 96d7 d9ba d3aa 33bc a4fe 193c a3d4 c03b
00000280: 3641 2e3b cc02 223b 6dcf 08bb edb7 b2bb
00000290: a59c 3fba 1885 683b 12b9 b43b 2b36 35bb
000002a0: f873 4abb 188d 3dbb 4f66 17ba ae7c e8ba
000002b0: d710 17ba c182 48ba 2857 bbbb 8bd5 9bbb
000002c0: d663 0fbb ff15 2a39 059c 18bb 4719 09bb
000002d0: ee21 063b 8e33 9d3b be94 963a 3d70 253b
000002e0: 5dac e5ba d8ad e1ba 7b53 393b 8fe4 e93a
000002f0: 8fc9 7a3a 22a7 cf3b e133 afbb cf69 5abb
00000300: 415c 0bbb fda9 f4ba 7235 d13a 04eb 893b
00000310: f8c8 123a fdcb 39bb 2525 8bbb fce5 163b
00000320: 9a85 213b 0db7 093b b436 133a 1050 c63a
00000330: 9211 c139 2397 103a 472f 8f3b fe31 653b
00000340: d6e2 e33a 6a16 c0b8 c4d6 f23a bc5d f03a
00000350: 6590 cbba 06bb 73bb 81da 77ba 8a9d edba
00000360: 2881 bb3a f56e aa3a f614 0bbb fa01 baba
00000370: 43c7 4cba 2cdb 9fbb b0b7 893b 317e 2d3b
00000380: 5933 a53b fc44 8b3b 720f 6ebb f146 22bc
00000390: 90d7 a0ba bf3b dc3b 8043 233c 6354 b3bb
000003a0: 1c66 bcbb e152 9cbb e9fb ccba 4bd2 72bb
000003b0: 7f6c 66ba 17e1 b4ba 063f 27bc c891 02bc
000003c0: 3855 86bb b3fd 9938 4aa2 90bb 9900 90bb
000003d0: 9e07 763b a418 103c 7c65 0c3b 8580 843b
000003e0: 6cc6 65bb 8fc3 43bb c61b a53b 7fc3 603b
000003f0: c9ea f63a 1a2f 3c3c 1aad 23bc 67cb cdbb
-0.0017767362 -0.0014775135 0.0012941911 0.0034056143 0.00042983075 -0.0023860533 -0.0034273968 0.0019686143
0.002048514 0.0015795156 0.00059773325 0.0014105962 0.00023667667 0.0004272566 0.0034895686 0.0026981921
0.0014652903 -4.1761945e-05 0.0015965231 0.0016191872 -0.0012446595 -0.003032776 -0.00081051065 -0.001339188
0.0012231405 0.00104187 -0.0016707735 -0.0011701767 -0.0006457739 -0.0039373934 0.0034691829 0.002252217
0.0038228994 0.003283644 -0.0027863926 -0.0076091564 -0.00095034187 0.0050880844 0.0076419367 -0.0041065295
-0.004354984 -0.0037723558 -0.001092232 -0.0027233758 -0.0007429039 -0.0010847416 -0.007849521 -0.00624784
-0.0030975319 7.132887e-05 -0.0033246991 -0.003247949 0.0029118373 0.0067288545 0.0015904926 0.0032253347
-0.002641107 -0.0023088984 0.0039283233 0.002622603 0.0014399486 0.008829852 -0.007613327 -0.0047456543
0.0025176995 0.0021914332 -0.0018665094 -0.004970322 -0.00063238794 0.003370909 0.0050462284 -0.002715091
-0.002909158 -0.0024446407 -0.0007081459 -0.0018368602 -0.00041572188 -0.00068016635 -0.0051883804 -0.0041046343
-0.0020834536 9.089497e-05 -0.0022467095 -0.0021640428 0.001851492 0.004422548 0.0011024502 0.0020994016
-0.0017049734 -0.0015338119 0.002494588 0.0016668921 0.00089488586 0.005759957 -0.004984707 -0.003178732
-0.005136434 -0.004440269 0.003643833 0.010386998 0.0011235091 -0.006907893 -0.010776942 0.00531158
0.0057993964 0.0051116175 0.0014345183 0.0034639786 0.0010026371 0.0017174496 0.011152464 0.008556737
0.0043420442 -3.508774e-05 0.004720457 0.0040870328 -0.0041435827 -0.009413803 -0.001969395 -0.004365688
0.0035560017 0.0031764114 -0.005375597 -0.0034466083 -0.001709873 -0.012076666 0.01042763 0.0065698456
-0.004670733 -0.004119467 0.0034571227 0.009440684 0.001132992 -0.006242616 -0.009615737 0.0048938775
0.0053256704 0.0047732107 0.0012637342 0.0032481393 0.00096236105 0.0014437622 0.009934054 0.00791971
0.0038569968 -0.00011217822 0.004164514 0.0037805317 -0.003677789 -0.008420673 -0.0018998113 -0.004100204
0.0032018814 0.0029055744 -0.004911927 -0.003171037 -0.0016620036 -0.010966021 0.00939909 0.0058847233
0.0026589162 0.0024720905 -0.0020875589 -0.0054540546 -0.00073094136 0.003547972 0.005515226 -0.0027650695
-0.0030891877 -0.002892321 -0.0005775438 -0.0017737353 -0.0005762702 -0.00076488784 -0.005717177 -0.004755681
-0.0021879575 0.00016220658 -0.0023286354 -0.0020919607 0.0020467 0.0047974056 0.001148842 0.0025243901
-0.0017522682 -0.0017217947 0.0028278518 0.0017844605 0.0009566778 0.0063370625 -0.0053467606 -0.0033327227
-0.0021264704 -0.0018666383 0.0015961363 0.0042089242 0.00055994047 -0.0028350346 -0.0042463713 0.0023025265
0.0024646283 0.0021013648 0.00056157564 0.0015130062 0.0003682492 0.0005515685 0.0043696496 0.0034972425
0.0017386328 -9.1594484e-05 0.001852714 0.0018338482 -0.0015530704 -0.0037190332 -0.0009454862 -0.0018128615
0.0014305459 0.0013003038 -0.002122221 -0.0014191263 -0.0007811675 -0.0048784222 0.0042028055 0.002647292
0.0050415215 0.004250167 -0.0036325124 -0.009904609 -0.0012271274 0.0067209895 0.009964824 -0.005472706
-0.005749477 -0.004770622 -0.001563904 -0.0037051614 -0.0008789971 -0.0013799992 -0.010207897 -0.007969327
-0.0040995143 7.342864e-05 -0.0044138776 -0.0043946025 0.0037541161 0.008794937 0.0021422794 0.004043641
-0.0035060896 -0.00298712 0.0050387112 0.0034296212 0.0018838282 0.011485839 -0.009990001 -0.006280351

exp_avg_sq f4 [32, 32]
00000000: c1d1 3e38 5a94 c238 72f4 c538 7851 af39
00000010: 9ecc e337 e9bb 9338 bf20 d339 4fe5 8938
00000020: 32be 8f38 ae12 8d39 c31a b538 e2cb 0d39
00000030: 4a4a 7f38 f756 b438 3dd4 0f3a 0f3b 013a
00000040: 2642 0838 36c6 db37 63ef 4c38 aa2d bd38
00000050: 0758 1239 0715 8839 4023 a538 3593 8839
00000060: e77a b037 581e 6b38 2ce5 5939 b46b 1a38
00000070: 96e0 f237 0197 f739 c096 7139 55d2 6538
00000080: 74b4 7439 4833 fb39 414c f439 dad8 e83a
00000090: 5cba 0d39 703b b939 cdb5 093b dcd8 a239
000000a0: 0d9a b139 11b7 bb3a b303 e839 141b 313a
000000b0: 1bbf a539 dbcc db39 1224 3c3b 7568 2b3b
000000c0: ea2e 2739 8894 0239 0d27 7439 168a dd39
000000d0: 650b 3c3a 8b72 b13a 7304 c539 235b b53a
000000e0: 76bf d938 8c4a 9839 85c9 8f3a b5c7 4739
000000f0: 44c4 0f39 1589 243b 5adb 9e3a d5d4 8939
00000100: 6412 c738 8615 4d39 516b 4739 55d5 3d3a
00000110: 1464 6538 a492 1639 db7a 603a b535 0139
00000120: cb78 0f39 3324 183a 8676 3e39 0191 8e39
00000130: d11b 0939 1d19 3139 830c 993a 85ff 8a3a
00000140: 67a5 8c38 b13c 5c38 cac4 d238 1b46 2f39
00000150: d9bc 9939 d702 113a 8e4b 2039 9425 133a
00000160: 2586 3a38 d2e6 f738 3fcc eb39 57db a938
00000170: 64cb 7138 1607 863a 4627 023a aa9c ec38
00000180: 02e1 c539 57de 4e3a 7397 3c3a b9ba 3e3b
00000190: adc6 5739 a2af 153a 562d 5e3b 11f3 f739
000001a0: e1eb 0a3a b99e 1a3b 0ef1 3c3a 7f8b 8d3a
000001b0: 2a6e 053a 2c98 1f3a bb9a 973b 6ded 8c3b
000001c0: bf7c 8939 b0a2 4139 c149 c939 7550 253a
000001d0: 73a1 8f3a 8438 0e3b db8b 0d3a c873 153b
000001e0: 256f 2739 dbf9 f939 f096 e73a 27a3 a639
000001f0: eb78 7539 0a37 863b ae15 013b 9050 e439
00000200: 15e3 a739 adb5 2b3a da0a 253a 76ab 213b
00000210: ab72 4239 0f7b fc39 4f71 3f3b 7b75 dd39
00000220: 9c26 ed39 6938 013b 0dfd 1d3a 605c 6d3a
00000230: 144a e439 2dfa 173a b5b7 823b 0d99 6c3b
00000240: b17f 6139 1bc1 3339 458f a739 fe91 163a
00000250: f5df 823a 27dc f63a fac9 043a 4a5c f93a
00000260: 990d 1939 54df d139 57f2 c73a 0edc 8d39
00000270: 9e9d 4e39 ea44 643b d70a dd3a 07b8 ba39
00000280: 79cf 0239 1ae4 8539 ceb1 8239 4608 783a
00000290: c0d9 9338 efeb 4239 2d1a 923a 6ac3 2c39
000002a0: cda1 3b39 c88d 463a ae4b 6f39 b65c b439
000002b0: 5b61 3039 ac3d 6839 2ed3 c73a 7aa3 b53a
000002c0: 95e3 ac38 90c7 8d38 8be7 ed38 e789 6939
000002d0: f371 c839 e8f7 3b3a 8d1c 5239 bf6c 3f3a
000002e0: 5f76 6738 761e 2239 949f 193a 6b39 dd38
000002f0: 1dab 9c38 0541 af3a 1811 293a f188 0639
00000300: 538e 9c38 7d44 2339 298a 1f39 7891 153a
00000310: a8bc 3638 82e7 ea38 4471 313a fe76 cd38
00000320: 3464 e438 269d f139 2671 1839 de22 6439
00000330: e38a d838 7174 0d39 2621 723a cf4d 5c3a
00000340: f226 5b38 3477 3038 a1f9 a338 fd2b 0c39
00000350: da7a 7239 88be e439 682b 0039 00af e939
00000360: e564 1338 f10d c338 ced8 b939 7e90 8538
00000370: 63af 3e38 e3c7 533a 62ee cb39 25e2 b738
00000380: e405 ba39 b923 403a d9e4 383a bbfe 303b
00000390: 56c2 5739 47cf 0d3a 0bfd 513b 818f fb39
000003a0: 0ddc 063a 48f4 0e3b 00bb 313a 4837 883a
000003b0: 47b3 f939 ec0f 263a 9269 8f3b 4abc 823b
000003c0: 8073 7f39 1a39 4439 4b8e bc39 426f 2b3a
000003d0: ae83 8d3a 90ee 063b 9eb5 133a 7b3f 0a3b
000003e0: 93c5 2239 f472 e939 4b52 d93a 82bf 9639
000003f0: 1850 6239 86c1 793b 6738 f13a 9731 d439
4.549488e-05 9.2782735e-05 9.4392235e-05 0.000334393 2.7155791e-05 7.044507e-05 0.00040269454 6.575381e-05
6.854198e-05 0.00026907533 8.635737e-05 0.0001352276 6.0865925e-05 8.599267e-05 0.0005486643 0.000492976
3.2486532e-05 2.6199134e-05 4.8860336e-05 9.020728e-05 0.00013956438 0.00025955608 7.874379e-05 0.0002604962
2.1038066e-05 5.6056626e-05 0.00020780106 3.6816768e-05 2.8953229e-05 0.00047224018 0.0002303971 5.479374e-05
0.00023336877 0.00047912658 0.0004659612 0.0017764822 0.00013516232 0.00035330234 0.0021012903 0.0003106062
0.00033874848 0.0014321526 0.00044253244 0.0006756049 0.00031613637 0.00041923564 0.0028708023 0.002615479
0.00015943838 0.00012453098 0.00023284201 0.00042255287 0.0007173329 0.0013538165 0.00037578083 0.0013836365
0.00010383029 0.0002904724 0.0010970092 0.00019052516 0.00013710657 0.0025106121 0.0012119815 0.00026289248
9.492485e-05 0.00019558342 0.00019018097 0.0007241567 5.469106e-05 0.00014359743 0.0008563229 0.00012322406
0.00013682542 0.0005803734 0.00018163965 0.00027192387 0.000130757 0.00016889391 0.0011676702 0.0010604715
6.706529e-05 5.250861e-05 0.00010050235 0.00016715417 0.00029323137 0.0005531734 0.00015286935 0.00056132046
4.4470788e-05 0.000118208714 0.00044974868 8.099403e-05 5.76483e-05 0.00102255 0.00049649586 0.00011282538
0.00037742412 0.00078914076 0.00071941986 0.0029102995 0.0002057801 0.000571007 0.0033901534 0.0004729261
0.0005299431 0.0023593141 0.0007207551 0.0010799019 0.0005089963 0.0006088044 0.0046265996 0.0043007643
0.0002622362 0.0001846652 0.00038392658 0.00063062395 0.001095815 0.0021701166 0.0005399563 0.0022804607
0.00015967766 0.00047679138 0.0017668884 0.00031783545 0.00023410066 0.0040959166 0.001969676 0.00043547573
0.00032021911 0.0006550204 0.00062958675 0.002466885 0.00018543999 0.0004815687 0.0029211824 0.00042239935
0.0004523293 0.001971746 0.0006026782 0.00090545975 0.0004354274 0.0005797472 0.0039891847 0.0036101968
0.00021505241 0.00017142708 0.00031959466 0.00057438004 0.0009984957 0.0018833921 0.0005065497 0.0019024697
0.00014596283 0.0004002998 0.0015254718 0.0002705757 0.00019704408 0.0034831115 0.0016864192 0.00035613796
0.00012475056 0.00025537686 0.00024928007 0.0009461682 7.050065e-05 0.00018589174 0.0011146717 0.00016475996
0.00017893985 0.00075742276 0.00022821009 0.0003440135 0.00016820936 0.00022148219 0.0015245432 0.0013857924
8.2439896e-05 6.760575e-05 0.00011344169 0.00022271984 0.0003823187 0.0007170425 0.00020037797 0.0007302276
5.5184933e-05 0.00015460872 0.0005860266 0.00010548796 7.470532e-05 0.0013370818 0.00064493855 0.0001283025
7.4651696e-05 0.00015570405 0.0001521489 0.00057055755 4.356788e-05 0.00011201111 0.0006768892 9.797326e-05
0.000108905515 0.00046084187 0.00014538 0.00021756763 0.00010325552 0.00013490186 0.0009236507 0.00084039284
5.224994e-05 4.2072686e-05 7.818943e-05 0.00013367827 0.00023124684 0.00043629506 0.00012223201 0.00044571608
3.5141496e-05 9.3009214e-05 0.00035447482 6.368848e-05 4.546287e-05 0.00080787967 0.00038896786 8.768243e-05
0.00035481073 0.0007329542 0.0007053144 0.00270073 0.00020576394 0.000540961 0.0032041695 0.0004798137
0.00051444845 0.0021813083 0.00067798793 0.0010392452 0.00047626553 0.000633477 0.0043765986 0.003989731
0.00024361722 0.00018713289 0.0003596417 0.0006539711 0.001079669 0.0020588972 0.0005634668 0.0021094966
0.00015523126 0.0004452687 0.0016580311 0.00028752914 0.00021582877 0.0038109734 0.001840365 0.00040472738

exp_avg f4 [32]
00000000: 7fc5 333b 045c e1bb 311f 8ebb 5cdb 1d3c
00000010: c4f9 103c 1b7d abbb b1dd 723b 4c2c 0dbc
00000020: ab8b 91bb 9842 b83b e5c0 27bc 30d7 9b3b
00000030: 5e57 c7bb 46fe d93b 1f06 9b3a 494d f53a
00000040: 031c 233c b89f 04bc b20e fb3a b01c afbb
00000050: 4fc6 f5bb 7247 7fba 656f b3bb 424f 08bb
00000060: e1b0 2a3c 03ef 0aba 338d e3bb f582 3dba
00000070: 5393 ef3b 58c8 a2bb 49c0 de3b 71b4 983b
0.002743095 -0.006877424 -0.0043372144 0.009634819 0.008848611 -0.0052334196 0.0037058408 -0.008616518
-0.0044416985 0.005623173 -0.010238861 0.004755877 -0.006083413 0.006652626 0.0011827386 0.0018715049
0.009955409 -0.008094721 0.001915416 -0.005343996 -0.007500447 -0.0009738124 -0.0054759257 -0.0020799194
0.010418148 -0.0005299898 -0.0069443225 -0.0007229292 0.0073112636 -0.0049677305 0.0067978245 0.004660182

exp_avg_sq f4 [32]
00000000: 0b37 ba3a d3b5 f33b af73 453b d184 423c
00000010: e348 283c 2e2e 813b 5987 1c3b ecfa 383c
00000020: e468 613b 445f 9f3b f4e7 4a3c 11d9 973b
00000030: 673b ae3b faff d93b 31d0 9039 3265 473a
00000040: 1ca2 793c 4e5d 283c cd4e 863a 5872 753b
00000050: 7139 1a3c 6f8b 3639 3c4c 973b 9198 153a
00000060: b333 753c 5e4e 8838 b3ad ff3b 915a c038
00000070: 0e0e 0d3c f71f 673b 5b61 fa3b b33d 5b3b
0.0014207078 0.0074374466 0.0030128767 0.011872486 0.010271284 0.0039422726 0.0023884384 0.011290293
0.0034394795 0.0048636515 0.0123844035 0.0046340306 0.00531714 0.0066528292 0.00027620935 0.0007606327
0.015236404 0.010276152 0.0010246873 0.0037452187 0.009413109 0.00017408816 0.004617242 0.0005706633
0.014965939 6.4995824e-05 0.007802689 9.172143e-05 0.008609308 0.0035266855 0.007641 0.0033453524

exp_avg f4 [1, 32]
00000000: 495c a3bc 6871 bc3b 4dc4 45bb 7646 dbbb
00000010: 9fdd 883c b705 a4bc ff67 d2bb ceaa 043c
00000020: f7e5 2f3c 1345 e5ba 4ecb 15bb 651d e8bc
00000030: 9362 70bc 40fd 55bb 2a5a b2bc bc63 86bc
00000040: 0692 e8bb b53f 92bc 4a75 b93b 3ac1 493b
00000050: a7d9 eabc 3581 bf3b 7599 41bc 4c35 15bc
00000060: f5d3 3fbc 8b3f 683c d9ac e2bb 706d 80bc
00000070: a736 503b 27c9 d63c d5a5 e63a 2a99 593c
-0.019941466 0.0057508238 -0.003017682 -0.006691749 0.01670724 -0.020022256 -0.0064210887 0.008097364
0.01073598 -0.0017491899 -0.0022856775 -0.028334329 -0.014671939 -0.003265217 -0.02177151 -0.016404979
-0.0070974855 -0.017852644 0.005659734 0.0030785338 -0.028668238 0.00584426 -0.011816372 -0.009106945
-0.011708249 0.014175306 -0.0069175777 -0.015677184 0.0031770857 0.026218964 0.0017597029 0.013281146

exp_avg_sq f4 [1, 32]
00000000: 5558 023d 84b8 833b df9f 6b3b 14fb b63c
00000010: 86d3 793b 7794 703b 2fa7 0f3b ba6b 413c
00000020: 9a28 603b c8f8 ec3b aa86 ac3c 2f82 4a3d
00000030: 387d e83c c445 0e3c 909b 743c cace b83b
00000040: f1a0 1a3b 023b 203c fc02 3b3b d0f7 b13c
00000050: ecf5 bf3c 9de8 033c 6be1 833c 2bc4 703b
00000060: 19ff a13b 57e6 383c f8fe 703b 0381 cb3c
00000070: d77c 253b 748e 3f3c 68bb 2e3b e072 a73b
0.03182252 0.0040197987 0.0035953445 0.02233652 0.0038120463 0.0036709586 0.0021919718 0.011805469
0.0034203888 0.0072318055 0.021060307 0.04944056 0.028380021 0.008683626 0.014929667 0.0056398856
0.0023594464 0.009779694 0.0028535714 0.021724612 0.023432694 0.008051065 0.016098699 0.003673802
0.00494374 0.011285386 0.0036773067 0.024841791 0.0025251412 0.011691678 0.0026661996 0.0051101297
