examples/rl/models/safe_explorer_ppo/safe_explorer_ppo_pretrain_quadrotor_3D_stab.pt (torch, 992306 bytes, 300 tensors)

actor.logstd f4 [4]
0	0xbf000000	-0.5
1	0xbf000000	-0.5
2	0xbf000000	-0.5
3	0xbf000000	-0.5

actor.pi_net.fcs.0.weight f4 [128, 12]
0	0x3ca0bb64	0.019620605
1	0xbdcf1215	-0.10110871
2	0xbe84fc73	-0.25973853
3	0x3e15ca25	0.14627893
4	0xbd82adb6	-0.06380789
5	0x3e4a48f9	0.197544
6	0xbe69a2ae	-0.22815964
7	0xbe3c1144	-0.18365961
8	0x3dc02565	0.093821324
9	0xbe91f574	-0.28507578
10	0x3bd0198d	0.006350702
11	0xbd3bf27f	-0.04588556
12	0xbe7a2d26	-0.24431285
13	0xbc903410	-0.01760295
14	0x3e7ca85a	0.24673596
15	0x3d969c0c	0.07353982
16	0x3dca7697	0.098859005
17	0xbe86f5cf	-0.26359412
18	0xbe28bf3b	-0.16479199
19	0x3e7d80e0	0.24756193
20	0x3e07300b	0.1320192
21	0xbd7dde9f	-0.061979886
22	0x3d9bb006	0.07601933
23	0xbe47f0a7	-0.19525395
24	0xbbf332db	-0.007421834
25	0xbdda7a6d	-0.10667882
26	0x3d8db19a	0.069186404
27	0x3c244dfd	0.0100283595
28	0x3da097b4	0.07841435
29	0x3de016ad	0.10941825
30	0x3df80bf5	0.121116556
31	0x3de2239d	0.11041949
32	0x3e15a616	0.14614138
33	0xbdd9a416	-0.10627
34	0x3dde0155	0.10840098
35	0x3dc78b80	0.097434044
36	0xbdc423e6	-0.095771596
37	0x3e2801d5	0.16406949
38	0x3e5d64f6	0.21620545
39	0x3e2163a3	0.15760665
40	0xbe226f8b	-0.15862863
41	0x3e83e266	0.25758666
42	0xbd84e4d5	-0.06488959
43	0x3e6459ff	0.22299956
44	0xbe2ffeba	-0.17187014
45	0xbe03c604	-0.12868506
46	0xbe92f623	-0.28703412
47	0xbe894efa	-0.26818067
48	0x3e22b989	0.15891089
49	0x3e04feff	0.12987898
50	0xbccab25d	-0.024743253
51	0xbe26ffe7	-0.16308556
52	0xbe3adfb6	-0.18249401
53	0x3e2f3adc	0.17112297
54	0x3df6c1b2	0.12048663
55	0x3de7f176	0.11325352
56	0xbd47dd40	-0.048794985
57	0x3e88da97	0.2672927
58	0xbe9393e1	-0.2882376
59	0x3d4bf3a0	0.049792886
60	0x3e832f29	0.25621918
61	0xbd9dc231	-0.07703055
62	0x3e7cc217	0.24683414
63	0xbe8c6ce5	-0.2742683
64	0xbe0332c4	-0.12812334
65	0xbb88d421	-0.0041756784
66	0x3dfd87ee	0.12379442
67	0xbd9f3f51	-0.077757485
68	0x3d80c2cd	0.06287155
69	0xbc6c275b	-0.01441368
70	0x3dc46253	0.09589066
71	0xbe87e82f	-0.2654433
72	0x3c4eb271	0.012615786
73	0xbe8db25a	-0.27675134
74	0xbe86ceaa	-0.26329547
75	0xbe4aa96d	-0.19791193
76	0x3e4d7514	0.20064193
77	0xbd447206	-0.047960304
78	0xbe77f55f	-0.24214695
79	0x3d4a1c2e	0.04934328
80	0x3d6eb379	0.058276627
81	0xbd58b882	-0.052910335
82	0x3e2664b2	0.1624935
83	0x3c82e544	0.015978463
84	0xbe8c40f3	-0.27393302
85	0x3dade7e9	0.08491499
86	0xbda89157	-0.082308464
87	0xbd64f978	-0.055901974
88	0xbd759bc1	-0.05996299
89	0xbe570c8a	-0.21000877
90	0xbe82cd21	-0.25547126
91	0xbe235485	-0.1595021
92	0x3e4269f0	0.18985724
93	0x3e8feee4	0.28111947
94	0x3e92b35d	0.28652468
95	0x3e8ec71f	0.27886292
96	0x3dd8fa33	0.10594597
97	0xbe0a2403	-0.134903
98	0x3d6207fe	0.055183403
99	0x3d94b08f	0.072602384
100	0x3c187291	0.0093046585
101	0xbd9b5a93	-0.07585635
102	0xbe8306ea	-0.25591213
103	0x3e896bf3	0.2684017
104	0x3e24071e	0.1601834
105	0x3e5ce90c	0.21573275
106	0x3e884254	0.26613104
107	0x3daf540a	0.08560951
108	0xbe36bc95	-0.17845376
109	0x3d40c6b6	0.047064506
110	0x3e82856e	0.25492424
111	0x3e2be71b	0.16787378
112	0xbc96d07f	-0.018409966
113	0x3e39d490	0.18147492
114	0xbe679e06	-0.22618875
115	0x3dc02d02	0.093835846
116	0xbe74d751	-0.23910262
117	0x3bb4af48	0.005514059
118	0x3e791b39	0.24326791
119	0x3e8c75fc	0.27433765
120	0x3e4cbfc6	0.19995031
121	0xbe7f4caa	-0.24931589
122	0xbe88e44d	-0.2673668
123	0xbe1d8337	-0.15382086
124	0xbd89f283	-0.067357086
125	0xbd9d5cfa	-0.076837495
126	0x3e4692a3	0.19391875
127	0xbd8b5d65	-0.06804923
128	0x3de80701	0.11329461
129	0xbd2d35f1	-0.04228777
130	0x3e354700	0.17702866
131	0xbdc031aa	-0.09384473
132	0xbe1d8b86	-0.15385255
133	0x3e738473	0.23780994
134	0x3e847ca3	0.2587634
135	0xbe634525	-0.22194345
136	0x3d7bc8f8	0.061470956
137	0x3e49b2d8	0.1969713
138	0xbe89e773	-0.26934394
139	0x3e6dda28	0.23227751
140	0xbd2a9fd5	-0.041656334
141	0xbe04c29e	-0.12964866
142	0x3e776e63	0.24163203
143	0xbe6be9c0	-0.23038387
144	0xbd77b065	-0.060470957
145	0xbe5a2fa9	-0.21307243
146	0xbe93853c	-0.28812587
147	0x3e5805e9	0.21096005
148	0xbd6fac62	-0.058514006
149	0x3d22ce1f	0.039747354
150	0x3d3571ec	0.044298097
151	0xbcc06641	-0.023486258
152	0x3e44e604	0.19228369
153	0x3e88564d	0.26628342
154	0xbddf1c17	-0.108940296
155	0x3d3fc073	0.046814393
156	0x3e7b8bda	0.24565068
157	0x3e4fd280	0.20295143
158	0xbe709d82	-0.23497584
159	0xbe3a654e	-0.18202707
160	0xbe63df84	-0.22253233
161	0x3e63cb21	0.22245456
162	0x3d3dce4e	0.046339326
163	0xbca4a34a	-0.020097394
164	0xbde3eda7	-0.11129313
165	0x3db43883	0.08799841
166	0x3e5a9d57	0.21349083
167	0x3cd30436	0.025758844
168	0xbe34cba5	-0.17655809
169	0xbe02c497	-0.12770306
170	0x3e7ebe7d	0.24877353
171	0xbe89ffb1	-0.2695289
172	0xbe6c78cc	-0.23092955
173	0x3e446640	0.1917963
174	0x3e7a9c8a	0.24473777
175	0xbd228a92	-0.039682932
176	0x3e62eae4	0.22159916
177	0x3e36c16d	0.17847224
178	0xbe119091	-0.14215304
179	0x3e0893cd	0.13337632
180	0x3e85e0bb	0.26148018
181	0x3e739883	0.23788647
182	0x3e7c952e	0.24666283
183	0xbe782498	-0.2423271
184	0xbe867081	-0.2625771
185	0xbe3e999a	-0.18613282
186	0xbabde734	-0.001448846
187	0xbc40b797	-0.011762521
188	0x3e0af44f	0.13569759
189	0x3caeb45e	0.02132624
190	0xbe0e5c8a	-0.13902488
191	0xbe720010	-0.23632836
192	0x3cffc29f	0.031220732
193	0x3e86d6bd	0.26335707
194	0x3e6d81cd	0.23194046
195	0xbe742244	-0.23841196
196	0xbdf39480	-0.118935585
197	0xbd486cf0	-0.048932016
198	0xbe478266	-0.19483337
199	0xbe810882	-0.25201803
200	0x3e7f0f6d	0.24908228
201	0x3e833b9b	0.25631413
202	0xbe7f5826	-0.2493597
203	0xbdf96029	-0.12176544
204	0xbe3c0ef9	-0.18365087
205	0x3e2d5b92	0.16929463
206	0xbe112b39	-0.14176644
207	0x3e2dfa9f	0.16990136
208	0x3d3989fe	0.045297615
209	0xbd2805d2	-0.041021176
210	0x3e924d9c	0.28574836
211	0x3e31678b	0.17324655
212	0x3e077e2f	0.13231729
213	0x3def6797	0.1168968
214	0xbe921d9f	-0.28538224
215	0x3dec44a3	0.11536529
216	0x3df69ae3	0.12041261
217	0x3e85b338	0.26113296
218	0x3d9de31a	0.07709332
219	0xbc759137	-0.014988235
220	0x3d4aaaca	0.049479283
221	0xbd153755	-0.03642972
222	0x3e171e87	0.14757739
223	0x3da3610a	0.07977493
224	0xbdf5a507	-0.11994367
225	0xbe822c62	-0.25424486
226	0x3e88589c	0.26630104
227	0xbe1d8b7d	-0.15385242
228	0xbe4b0f9b	-0.19830172
229	0xbe6b0650	-0.22951627
230	0xbde52203	-0.11188128
231	0x3e8483d4	0.25881827
232	0x3e1f0e52	0.15532807
233	0xbdf8af4b	-0.121428095
234	0x3e86c383	0.2632104
235	0xbd960053	-0.073242806
236	0xbbbf0ece	-0.0058306223
237	0xbe836f69	-0.25670937
238	0xbe29c2e5	-0.16578253
239	0xbde58412	-0.11206831
240	0xbe415314	-0.18879348
241	0x3e531f41	0.20617391
242	0x3dbf76ac	0.09348807
243	0xbd4ea2f6	-0.05044838
244	0x3e920d1b	0.28525624
245	0x3cb231ac	0.021752201
246	0x3e2cad31	0.16862942
247	0xbe2abff7	-0.16674791
248	0xbe71e687	-0.23623095
249	0x3e7229b2	0.23648718
250	0xbe7c1574	-0.24617559
251	0x3d895c14	0.06707016
252	0xbe522bb2	-0.20524481
253	0xbc43cacf	-0.011950209
254	0xbe6741fc	-0.22583765
255	0x3e70f14c	0.23529547

actor.pi_net.fcs.0.bias f4 [128]
0	0x3e106d55	0.14104207
1	0xbdcf280a	-0.10115059
2	0x3dff2326	0.12457876
3	0x3e1d8983	0.15384488
4	0xbe6e5a7f	-0.23276709
5	0x3d9d117d	0.07669351
6	0x3e23912b	0.15973346
7	0xbdada4ab	-0.084786735
8	0xbe880f9c	-0.2657441
9	0xbe2296ec	-0.15877885
10	0xbe3bb653	-0.1833127
11	0xbe8ae49f	-0.2712755
12	0x3d8ee3cb	0.06977042
13	0xbb2b1c24	-0.0026109302
14	0x3e0f6e6e	0.1400697
15	0x3dde3ad5	0.10851065
16	0xbda1f950	-0.07908881
17	0xbe83c4ac	-0.25735986
18	0xbe82274b	-0.25420603
19	0x3e85a6f8	0.2610395
20	0x3e352d05	0.17692955
21	0x3e35c958	0.17752588
22	0x3e82f335	0.25576177
23	0xbe27c217	-0.16382633
24	0x3d94ebf4	0.07271567
25	0xbe0b543f	-0.13606356
26	0x3dd51056	0.104035065
27	0x3e34ddb0	0.17662692
28	0x3e81424a	0.25245887
29	0x3e117fe8	0.14208949
30	0xbd9b51ae	-0.075839385
31	0x3e71c70f	0.23611091
32	0x3e71b744	0.23605067
33	0x3e6df672	0.23238543
34	0x3e0c106b	0.13678138
35	0xbe44ca2d	-0.19217749
36	0xbdb3ff07	-0.08788877
37	0x3e080f07	0.13286982
38	0xbe3d0719	-0.18459739
39	0x3e4abfd3	0.19799738
40	0xbe48c631	-0.19606854
41	0x3e175de2	0.14781907
42	0x3e6492c8	0.22321618
43	0x3e88de26	0.26731986
44	0x3e5d8330	0.21632075
45	0xbd87b452	-0.0662619
46	0xbe7d3f62	-0.2473121
47	0xbe8d0300	-0.2754135
48	0x3d316bbf	0.043315645
49	0x3e20fe4d	0.15722008
50	0xbe17530a	-0.1477777
51	0xbccd8b6a	-0.025090892
52	0xbc9f53c6	-0.019449126
53	0xbdc54728	-0.096327126
54	0x3cb914d4	0.02259294
55	0xbe0bcb99	-0.13651885
56	0xbe816313	-0.252709
57	0xbca09fae	-0.019607391
58	0x3e4155c6	0.18880376
59	0x3e2e97c9	0.17050089
60	0x3e598349	0.21241488
61	0x3ded67d7	0.115920715
62	0xbe3ce2dd	-0.18445916
63	0xbdd8f497	-0.10593527
64	0xbe85bc16	-0.2612006
65	0xbe268ce9	-0.1626469
66	0xbe86ca32	-0.26326138
67	0xbe0a19a5	-0.13486345
68	0x3deffd11	0.117181905
69	0x3e100870	0.14065719
70	0x3e287cb6	0.16453823
71	0xbe2cd9bd	-0.16879936
72	0xbcd6f014	-0.026237525
73	0x3e066580	0.13124657
74	0xbdd91fdb	-0.10601779
75	0x3d458f32	0.048232265
76	0x3e67875f	0.22610234
77	0xbe83855d	-0.25687686
78	0x3c92bac5	0.017911324
79	0xbd1f0227	-0.038820412
80	0xbdcb8821	-0.09938074
81	0x3d3060cc	0.043061063
82	0xbe0c4d24	-0.13701302
83	0xbe916216	-0.28395146
84	0x3dd32bab	0.103110634
85	0xbd308be1	-0.04310215
86	0x3e816df8	0.25279212
87	0xbd946a72	-0.07246865
88	0xbda508ff	-0.080583565
89	0xbe45bf3c	-0.19311231
90	0x3e912d60	0.2835493
91	0x3e6c66d6	0.23086104
92	0xbe528b0e	-0.20560858
93	0xbd3be627	-0.045873787
94	0x3d0f9d8e	0.035062365
95	0xbd0c7ac9	-0.034296785
96	0x3d3531e8	0.044237047
97	0x3d33e9f9	0.043924306
98	0xbdd59fdd	-0.10430882
99	0xbe511af1	-0.20420434
100	0x3c80020a	0.015625972
101	0xbe249949	-0.16074099
102	0xbdda7667	-0.10667115
103	0x3cf7b24f	0.030236391
104	0xbe8bf368	-0.27334142
105	0x3e4e50d0	0.20148015
106	0x3e5888c0	0.21145916
107	0x3c943f2e	0.018096533
108	0xbe1bdeea	-0.15221754
109	0x3e88817b	0.26661286
110	0xbc87a6e5	-0.016559074
111	0x3e17e018	0.14831579
112	0x3e90c904	0.28278363
113	0xbda6ae10	-0.081386685
114	0xbe654e81	-0.22393228
115	0x3e6a49f6	0.22879776
116	0xbd7c41bf	-0.061586138
117	0xbdb40410	-0.08789837
118	0xbe3598a4	-0.17734009
119	0xbe0953ce	-0.13410875
120	0x3c293087	0.010326511
121	0x3df34837	0.11879008
122	0xbdb06b91	-0.08614267
123	0x3ddeb253	0.108738564
124	0xbe049ed9	-0.1295122
125	0x3e7d80b2	0.24756125
126	0xbe37cdb9	-0.1794957
127	0x3e8e1655	0.27751413

actor.pi_net.fcs.1.weight f4 [128, 128]
0	0xbd8ebd16	-0.06969659
1	0x3d34692d	0.044045616
2	0x3dab88ea	0.08375724
3	0x3dade34d	0.0849062
4	0x3c8fde63	0.017562097
5	0xbda16871	-0.07881249
6	0xbbef57f3	-0.0073041855
7	0xbd39e646	-0.04538562
8	0x3d9e6cef	0.07735621
9	0xbd21c55b	-0.039494853
10	0x3d92161d	0.07133124
11	0xbd1c7e18	-0.03820619
12	0x3d8b41b0	0.06799638
13	0x3c998b67	0.01874323
14	0xbc26cf1b	-0.010181214
15	0x3ca83722	0.020534102
16	0x3db00580	0.08594799
17	0x3dabb5ed	0.08384309
18	0x3d898c14	0.06716171
19	0xbcc38871	-0.023868771
20	0x3d1bf731	0.038077537
21	0x3d126468	0.035740286
22	0xbbdf417f	-0.0068132277
23	0x3d5fd96a	0.0546507
24	0xbc1634dd	-0.009167877
25	0x3cad5118	0.021156833
26	0xbd7c789f	-0.06163847
27	0x3da70aad	0.08156333
28	0x3c7e3c2f	0.015517279
29	0xbcaaf5ff	-0.020869253
30	0xbcab6bd2	-0.020925436
31	0x3d98927f	0.07449817
32	0xbd8ae1e0	-0.067813635
33	0xbd433cac	-0.047665283
34	0xbd9b312e	-0.0757774
35	0xbd04d642	-0.032430895
36	0x3b6ea661	0.0036415088
37	0xbd0d318b	-0.034471076
38	0x3c7c1729	0.015386381
39	0xbd115bba	-0.035487868
40	0xbc2a2309	-0.01038433
41	0x3da84c29	0.082176514
42	0xbbbb238b	-0.005711024
43	0xbc746ce5	-0.014918541
44	0x3da91144	0.08255246
45	0xbc76c70a	-0.015062103
46	0x3d6b8386	0.057498477
47	0x3d2af353	0.04173596
48	0x3d75c90c	0.060006186
49	0x3d8c9cb5	0.06865827
50	0x3da8ef56	0.08248775
51	0xbd1e8024	-0.038696423
52	0x3daef400	0.08542633
53	0xbd843ce1	-0.06456924
54	0xbd7fe963	-0.062478434
55	0x3d385e6d	0.045011926
56	0x3d9ba653	0.07600083
57	0xbc81e374	-0.015855528
58	0xbd548b61	-0.051890735
59	0x3d225b2c	0.03963773
60	0x3da79376	0.08182423
61	0x3d914c54	0.070946366
62	0x3c87c1e6	0.01657195
63	0x3c9f6fe7	0.019462539
64	0x3d111559	0.03542075
65	0x3d3a4c32	0.04548282
66	0xbaf2a152	-0.0018511212
67	0x3d11ddf7	0.035612073
68	0x3d4d6c62	0.05015219
69	0x3cdaa440	0.026689649
70	0xbd1c9d38	-0.038235873
71	0x3ce236f1	0.027614089
72	0xbccc0852	-0.024906311
73	0x3d811c2a	0.063042
74	0x3dafac24	0.08577755
75	0xbc8f9f08	-0.017531887
76	0x3d21390c	0.039361045
77	0xbb66b216	-0.0035201362
78	0xbd9ec37f	-0.07752132
79	0x3d8ce954	0.06880441
80	0xbca9bf18	-0.020721003
81	0x3c356063	0.011070344
82	0x3c1893df	0.009312599
83	0xbbae71f2	-0.005323642
84	0xbd2cd9e7	-0.042199995
85	0x3d770ae1	0.06031311
86	0xbd44c679	-0.04804084
87	0x3a93107c	0.0011220123
88	0x3d112e92	0.035444804
89	0x3c80ab4f	0.015706686
90	0x3ccd1aca	0.025037188
91	0x3d8d12ad	0.06888328
92	0x3c8de28d	0.017319942
93	0xbd461c07	-0.048366573
94	0xbdb069bd	-0.08613918
95	0xbd715632	-0.058920093
96	0x3c480074	0.012207139
97	0xbc2998c1	-0.010351361
98	0xbd2c457d	-0.042058457
99	0xbcb6d1bd	-0.022316808
100	0x3daf31fa	0.08554454
101	0x3d604b69	0.054759417
102	0x3cb8dce3	0.022566264
103	0x3aee6115	0.0018186892
104	0xbd09ad73	-0.03361268
105	0xbd3c310d	-0.045945216
106	0xbd07c5ca	-0.03314761
107	0x3dad5735	0.08463899
108	0xbb3ee481	-0.0029127898
109	0x3d609c14	0.054836348
110	0xbd016819	-0.031593416
111	0x3d53e0d8	0.0517281
112	0xbd1fe0ad	-0.039032627
113	0xbd2b2b27	-0.0417892
114	0x3ce2247d	0.02760529
115	0xbd856fe0	-0.06515479
116	0x3d9d0541	0.07667018
117	0x3c7f6761	0.015588612
118	0x3d9d704f	0.07687437
119	0x3c876200	0.016526222
120	0xbd10ccb4	-0.03535147
121	0xba0c14eb	-0.0005343693
122	0x3d830fe4	0.06399515
123	0xbd3be0a4	-0.04586853
124	0x3d96c30e	0.073614225
125	0xbc63585e	-0.013876049
126	0xbd09e366	-0.03366413
127	0xbd8b7fad	-0.068114616
128	0x3c32642e	0.0108881425
129	0x3d81625f	0.06317591
130	0x3d1f977b	0.038962822
131	0x3d576eb7	0.05259582
132	0xbd966c4d	-0.073448755
133	0xbcb1bde1	-0.021696987
134	0xbd94df15	-0.07269112
135	0x3d7291b2	0.059220977
136	0xbd3cddcc	-0.04610996
137	0x3c95c338	0.018281564
138	0x3da7a8e1	0.08186508
139	0xbd14b493	-0.03630502
140	0x3da7cd6f	0.0819348
141	0xbc3f769c	-0.0116859935
142	0x3d7f4edd	0.06233107
143	0xbd02adf9	-0.031904195
144	0x3d41f25d	0.047350276
145	0xbd8b96e9	-0.06815893
146	0xbdb2585c	-0.087082595
147	0xbd9ed964	-0.07756308
148	0x3d8a89d9	0.067645736
149	0xbd50a4b9	-0.05093834
150	0x3cb7be7d	0.0224297
151	0x3db2e4f4	0.087350756
152	0x3d9b5c7c	0.07585999
153	0xbda37acf	-0.07982408
154	0xbda06853	-0.07832398
155	0x3d79c964	0.060983077
156	0xbd7dc786	-0.06195786
157	0x3d9490da	0.07254191
158	0xb9ca94a0	-0.00038639177
159	0xbd0c9a33	-0.034326743
160	0x3d1891b5	0.037248332
161	0xbba97067	-0.00517087
162	0xbda9fa73	-0.082997225
163	0x3ce6b95c	0.028164558
164	0xbd32e07d	-0.04367112
165	0x3d9663da	0.07343264
166	0x3d54043c	0.05176185
167	0x3cd1718b	0.025566837
168	0xbda5e7d6	-0.0810086
169	0xbd8ce80d	-0.06880198
170	0x3d84a33f	0.06476449
171	0xbd42fcc1	-0.047604326
172	0x3d960b9d	0.07326434
173	0xbdaad5e8	-0.08341581
174	0xbcc451f8	-0.023964867
175	0xbd839d75	-0.06426517
176	0xbd108812	-0.035286017
177	0xbbc22bc0	-0.0059256256
178	0x3c0af323	0.00848082
179	0x3c281b23	0.010260376
180	0x3d152c70	0.036419332
181	0x3d441c32	0.04787845
182	0xbd628ff2	-0.05531306
183	0x3c18148c	0.0092822425
184	0x3d34b254	0.04411538
185	0x3c82338e	0.015893724
186	0xbd65ae81	-0.056074623
187	0x3d79ff79	0.061034653
188	0xbd8604c4	-0.06543878
189	0x3d23d952	0.040002175
190	0x3dafb726	0.08579855
191	0x3d6a8861	0.057258967
192	0xbcb668a5	-0.022266695
193	0xbd4d405d	-0.05011021
194	0xbd6ff964	-0.058587447
195	0xbd23a6ce	-0.039954
196	0xbd539db4	-0.05166407
197	0x3c447b61	0.011992306
198	0x3d60ffd0	0.05493146
199	0x3da2c21b	0.07947179
200	0x3c0ca0f9	0.008583301
201	0x3cebaef2	0.028769944
202	0xbc556432	-0.013024377
203	0xbd819a50	-0.06328261
204	0xbd36d620	-0.0446378
205	0x3d3d4845	0.0462115
206	0xbd80eedf	-0.06295561
207	0x3d33e788	0.043921977
208	0xbd691228	-0.05690208
209	0xbd8b319d	-0.06796572
210	0x3cb91fc1	0.02259815
211	0x3db0fc7c	0.086419076
212	0x3d92283d	0.07136581
213	0x3cf77cd5	0.030210892
214	0x3c690206	0.014221674
215	0xbda19b0d	-0.07890902
216	0xbd5d34c2	-0.054005392
217	0x3c6c5a1c	0.014425781
218	0x3c64d985	0.013967876
219	0x3ce3b58d	0.027796531
220	0x3d08f000	0.033432007
221	0xbd2318be	-0.039818518
222	0x3d645553	0.055745434
223	0xbd9ba97a	-0.076006845
224	0xbd4c5694	-0.049887255
225	0xbc912298	-0.01771669
226	0xbc9e065a	-0.019290138
227	0xbb5e7f38	-0.003395034
228	0x3d67421b	0.056459527
229	0xbdae8f46	-0.08523421
230	0xbd8a2090	-0.06744492
231	0xbd9de7a3	-0.07710197
232	0xbcc4d82a	-0.024028856
233	0x3d9b839c	0.07593462
234	0xbd711c50	-0.05886489
235	0x3db4baf5	0.08824722
236	0xbd8acbb2	-0.06777133
237	0x3ceb7984	0.028744467
238	0xbd256fa1	-0.04038966
239	0xbbc89ca2	-0.0061221877
240	0xbd28c042	-0.041198976
241	0xbd85ef55	-0.065397896
242	0xbb80ee82	-0.0039346823
243	0x3bf07326	0.0073379455
244	0x3ca232e1	0.019799652
245	0xbd114d9b	-0.0354744
246	0x3d8c7aa2	0.06859328
247	0xbd905f11	-0.070493825
248	0x3d882345	0.06647352
249	0xbae8f891	-0.0017774274
250	0xbda92c1c	-0.08260366
251	0x3a2f5723	0.00066887046
252	0xbdb4e557	-0.088328056
253	0x3afb523b	0.0019174287
254	0x3cdacde8	0.026709512
255	0xbd567cd1	-0.052365128

actor.pi_net.fcs.1.bias f4 [128]
0	0x391264a9	0.00013961144
1	0xbb5e3c0b	-0.00339103
2	0x3d6f5cdb	0.058438163
3	0x3d68376d	0.056693483
4	0xbb2d682a	-0.0026459792
5	0x3d015786	0.03157761
6	0xbd9859f4	-0.07439032
7	0x3da43f45	0.0801988
8	0xbcd95fab	-0.026534876
9	0xbd1b93b3	-0.037982654
10	0x3b867e00	0.004104376
11	0xbd58959f	-0.052877065
12	0x3d666c8f	0.056255873
13	0x3da1d549	0.07902009
14	0x3d60d971	0.05489487
15	0x3da271a7	0.07931834
16	0x3be72caf	0.0070548872
17	0x3d8e018d	0.069338895
18	0x3d4dd5f9	0.05025289
19	0x3d388491	0.0450483
20	0x3da54bb9	0.080710836
21	0x3b8e69b8	0.0043460988
22	0xbd8d6485	-0.06903938
23	0xbd596e5d	-0.053083766
24	0xbd32e49c	-0.04367505
25	0xbcab7db8	-0.02093397
26	0xbdb276e4	-0.08714083
27	0x3d88e47e	0.066842064
28	0xbc8e47ff	-0.017368315
29	0x3d90f5ba	0.070781186
30	0x3d1511f7	0.036394086
31	0xbd15f586	-0.036611103
32	0xbd520ec3	-0.05128361
33	0x3d8320e1	0.064027555
34	0xbd8be955	-0.06831614
35	0x3d80e37f	0.062933914
36	0x3d94ba29	0.0726207
37	0xbd11c6a2	-0.03558982
38	0x3d7a6943	0.06113554
39	0xba912ab4	-0.0011075349
40	0xbd64ac27	-0.05582824
41	0x3d59f4b6	0.05321189
42	0xbd05767b	-0.032583695
43	0xbdaee600	-0.08539963
44	0xbcdba8ff	-0.026813982
45	0xbdaf7c58	-0.085686386
46	0x3d5af217	0.05345353
47	0xbd235142	-0.039872415
48	0xbd4e1f47	-0.050322797
49	0x3dad8358	0.084723175
50	0x3cba2cda	0.022726465
51	0x3c943299	0.018090533
52	0x3d46c9fa	0.048532464
53	0x3d318ebc	0.043349013
54	0xbd9acd57	-0.07558697
55	0x3c73ddf8	0.014884464
56	0x3c2c84bd	0.010529694
57	0xbab5e6df	-0.0013878009
58	0xbdb4cae4	-0.08827761
59	0xbcea7421	-0.028619828
60	0xbcc300a2	-0.023804013
61	0x3bc714b8	0.006075468
62	0xbc7b9fcb	-0.015357922
63	0x3d9b72af	0.075902335
64	0x3d808b38	0.06276554
65	0x3d9589b9	0.07301659
66	0x3ca611d8	0.02027218
67	0xbcd4fc08	-0.025999084
68	0x3d9d1b1b	0.076711856
69	0x3cba47fd	0.022739405
70	0xbd2de725	-0.042456765
71	0xbc703634	-0.0146613605
72	0x3dacd0c2	0.08438255
73	0x3d41a0b1	0.047272388
74	0xbd720247	-0.059084203
75	0x3d9312de	0.07181333
76	0x3c6ac600	0.014329433
77	0x3d3d087a	0.046150662
78	0x3daecae0	0.08534789
79	0xbd9b0eda	-0.07571192
80	0x3c48633a	0.012230689
81	0x3da553db	0.08072635
82	0xbd15a8d8	-0.036537975
83	0x3cc70886	0.024296056
84	0x3c7bc720	0.015367299
85	0xbda90640	-0.08253145
86	0xbd67b95d	-0.05657326
87	0xbd55735e	-0.052111976
88	0xbdafed5b	-0.08590194
89	0xbbdeef35	-0.006803418
90	0xbd0d440f	-0.034488734
91	0x3dae7a46	0.085194156
92	0x3d3288f6	0.043587647
93	0xbcd6ea52	-0.02623478
94	0x3d0141c8	0.031556875
95	0x3daf98bd	0.085740544
96	0x3dac8dac	0.08425459
97	0x3c7d8653	0.01547392
98	0xbd96347c	-0.07334229
99	0x3d89453b	0.06702658
100	0xbd836427	-0.06415587
101	0x3aad2064	0.0013208506
102	0xbc3616a5	-0.011113797
103	0x3d8f4291	0.069951184
104	0xbd9fdf75	-0.07806293
105	0xbd6da22a	-0.05801598
106	0xbd9523b9	-0.07282204
107	0x3d3fec57	0.04685625
108	0x3d56499c	0.052316293
109	0x3d27f7ce	0.04100781
110	0xbd9669a6	-0.073443696
111	0xbda29340	-0.07938242
112	0x3d9f3f35	0.07775728
113	0xbd8fcd7b	-0.07021614
114	0x3cc22dd4	0.023703493
115	0xbd92ff36	-0.07177584
116	0x3d27e15a	0.040986396
117	0x3cf031f0	0.029320687
118	0xbd3c806a	-0.046020903
119	0xbd2d4896	-0.04230555
120	0xbd8d4cda	-0.06899424
121	0x3d4c2761	0.049842242
122	0xbc1bc6a8	-0.009507813
123	0xbc8bb34b	-0.017053267
124	0xbce39a5f	-0.02778357
125	0xbdaf61fb	-0.0856361
126	0x3d7b77af	0.061393436
127	0x3d0d6ec3	0.03452946

actor.pi_net.fcs.2.weight f4 [4, 128]
0	0xbce413b5	-0.027841428
1	0xbd36d445	-0.04463603
2	0xbd470001	-0.048583988
3	0xbda8e47e	-0.082467064
4	0xbc790a84	-0.015200261
5	0x3c13e718	0.009027265
6	0xbd1109e6	-0.03540983
7	0xbbd3ccf2	-0.0064636404
8	0xbd299ea4	-0.041411057
9	0x3da99a0c	0.08281335
10	0x3d333e4a	0.043760575
11	0x3d9a2bcd	0.075278856
12	0xbd875fc9	-0.066100664
13	0xbd19a585	-0.037511367
14	0x3caeac92	0.021322522
15	0x3d9ff762	0.078108564
16	0x3d8308f4	0.06398192
17	0xbd888cb2	-0.066674605
18	0xbd1d3ad9	-0.0383862
19	0x3d78dba3	0.060756337
20	0x3ca00657	0.019534273
21	0xbd3fd66f	-0.04683536
22	0x3d91110f	0.07083332
23	0xbd9b2377	-0.07575124
24	0xbcb16f9c	-0.021659665
25	0xbd6e161e	-0.05812656
26	0x3d02e3c2	0.031955488
27	0xbafb8250	-0.0019188616
28	0xbda04c43	-0.07827046
29	0x3c19a56f	0.009377821
30	0xbd83f571	-0.064432986
31	0x3cf2f31f	0.029656945
32	0xbdb0d64d	-0.08634625
33	0x3ca7aa5a	0.020466972
34	0xbd86f249	-0.06589181
35	0xbdb43eb0	-0.08801019
36	0xbd811e19	-0.06304569
37	0xbd45bdc6	-0.048276685
38	0xbc72f0bc	-0.014827903
39	0xbd1e1cdc	-0.03860174
40	0xbdafac06	-0.08577733
41	0xbd8b64df	-0.06806349
42	0x3db1be53	0.086788796
43	0xbd618ce4	-0.055066004
44	0x3d91e08a	0.071229056
45	0x3c858f7c	0.01630377
46	0x3d29fe5e	0.04150235
47	0x3d7b1d30	0.061307132
48	0xbda088a7	-0.07838564
49	0x3c394250	0.011307314
50	0x3d9ea61a	0.07746525
51	0x3c5f9615	0.013646622
52	0x3d9dd804	0.07707217
53	0xbc85ed7c	-0.016348593
54	0xbca68b77	-0.020330174
55	0xbb58c261	-0.0033074843
56	0x3d51a858	0.051185936
57	0xbda73df9	-0.08166117
58	0xbcce1f50	-0.025161415
59	0x3d0ded6c	0.03465025
60	0xbd96e9d4	-0.07368818
61	0xbc7403fa	-0.014893526
62	0x3d38e5ed	0.04514115
63	0x3d2b28a2	0.041786797
64	0x3d768991	0.060189787
65	0x3ce70f34	0.028205492
66	0x3da9fd77	0.08300298
67	0x3cc2eb17	0.02379374
68	0x3c7c5fe7	0.015403724
69	0x3bcbb728	0.0062169023
70	0xbd179f14	-0.037016943
71	0x3d8be168	0.06830102
72	0xbd76876c	-0.060187742
73	0x3d57d081	0.05268908
74	0xbd0d114d	-0.034440327
75	0x3d285b51	0.04110271
76	0xbd2d0c5f	-0.042248126
77	0x3d8588bd	0.065202214
78	0x3d4d8d79	0.050183747
79	0xbd22a9f8	-0.039712876
80	0xbb2a25f4	-0.0025962563
81	0xbda3765d	-0.079815604
82	0x3b8fe78e	0.004391617
83	0xbb755d5b	-0.0037439677
84	0x3d859618	0.06522769
85	0x3d6843cd	0.056705285
86	0x3d65480f	0.055976924
87	0x3c7b0013	0.015319842
88	0xbcd11977	-0.025524838
89	0x3b8f166e	0.0043666875
90	0x3d910806	0.070816085
91	0x3d0014aa	0.031269707
92	0x3d93c570	0.072153926
93	0x3d80c169	0.0628689
94	0x3d1b16e5	0.03786363
95	0xbd3a64bc	-0.045506224
96	0xbcadacb5	-0.021200517
97	0x3d6c72df	0.057726737
98	0xbd8d7279	-0.069065996
99	0x3d92082c	0.07130465
100	0xbd70084f	-0.058601674
101	0x3d37c003	0.04486085
102	0x3c3a4bf7	0.0113706505
103	0xbcd51276	-0.02600978
104	0xbc8b149e	-0.016977604
105	0x3d8a80aa	0.06762822
106	0x3d99e0de	0.07513593
107	0x3c36620a	0.011131773
108	0x3d14895d	0.036263812
109	0xbb7a3736	-0.003817988
110	0xbcdab582	-0.026697878
111	0xbd38ee7d	-0.045149315
112	0xbcb6bab1	-0.022305818
113	0x3c1c0bdd	0.009524313
114	0xbd161a20	-0.03664601
115	0xbdb2a330	-0.08722532
116	0x3cfbb4da	0.030725885
117	0x3d5b48ff	0.05353641
118	0xbd803227	-0.06259566
119	0xbd248bb3	-0.04017229
120	0x3bc353f0	0.005960934
121	0x3d05f2d0	0.032702267
122	0x3ba5595b	0.0050460524
123	0xbd33c712	-0.04389102
124	0xbd80fa45	-0.06297735
125	0x3dab4ffd	0.08364866
126	0x3cfbaf3d	0.030723209
127	0xbd6f29ef	-0.0583896
128	0x3d136f9d	0.035995115
129	0xbd485b21	-0.048915032
130	0x3c9d2fec	0.01918789
131	0xbae26b4f	-0.0017274412
132	0xbd97a88c	-0.07405195
133	0xbd77d5a4	-0.060506478
134	0x3dab60d1	0.08368076
135	0xbbcfb422	-0.006338612
136	0xbd29efb5	-0.041488368
137	0xbcda5e45	-0.02665628
138	0xbd780c5a	-0.060558654
139	0x3d97f07f	0.07418918
140	0xbda1890f	-0.0788747
141	0xbd1f20b2	-0.03884954
142	0xbd2f3037	-0.04277059
143	0x3dae3498	0.08506125
144	0x3dabbff9	0.08386225
145	0x3d8b0ebe	0.06789921
146	0x3d9e94aa	0.07743199
147	0x3daa086d	0.08302388
148	0x3d1d8bb9	0.038463328
149	0xbdaf7d29	-0.08568794
150	0xbd9486f3	-0.07252302
151	0xbcdf8764	-0.027286239
152	0x3d9266d4	0.07148519
153	0xbd9765dc	-0.07392475
154	0x3d8ccadb	0.06874629
155	0x3b852807	0.0040636095
156	0xbca5c6cd	-0.020236397
157	0xbd32c875	-0.043648202
158	0x3c7817cd	0.015142393
159	0x3d9c3aaf	0.076283805
160	0xbd594e41	-0.053053144
161	0xbc927f1c	-0.017882876
162	0xbd43951a	-0.047749616
163	0x3d40bcfe	0.047055237
164	0x3d900073	0.07031336
165	0x3d5d7832	0.054069705
166	0xbd83676b	-0.0641621
167	0x3c64b767	0.013959742
168	0x3d8cd7df	0.06877112
169	0x3d3b7490	0.04576546
170	0xbcf39e77	-0.029738648
171	0x3d048d31	0.032361213
172	0xbd3986e2	-0.04529465
173	0xbd3b15de	-0.04567515
174	0xbc7c310f	-0.015392556
175	0xbd49bd25	-0.049252648
176	0x3d83eb77	0.06441396
177	0x3c5afa3b	0.013365324
178	0x3d96aeee	0.07357584
179	0x3c742cd0	0.014903262
180	0xbbf2254f	-0.0073897014
181	0xbc670483	-0.014100197
182	0x3d157fab	0.036498707
183	0x3da2a32c	0.07941279
184	0x3c2bb529	0.010480204
185	0x3ce946c5	0.028476128
186	0x3c13a9d7	0.009012661
187	0x3da9bbf1	0.082878
188	0x3d6bd223	0.05757345
189	0x3d88bfab	0.06677183
190	0x3bad14fd	0.005282043
191	0xbd421e23	-0.047392022
192	0x3da48858	0.08033818
193	0xbbd9b99a	-0.00664444
194	0xbd9f9d63	-0.07793691
195	0xbd39e6bd	-0.045386065
196	0xbc28c1d6	-0.01030012
197	0x3a2a5691	0.0006497885
198	0x3ca17da9	0.01971324
199	0xbd03bada	-0.032160617
200	0x3be5438b	0.006996577
201	0xbda13441	-0.07871295
202	0x3d82d8bb	0.06388994
203	0xbc5fd47c	-0.0136615
204	0xbd52a7da	-0.051429607
205	0x3c8cc569	0.017183976
206	0x3d7efd04	0.062253013
207	0xbc7d2b82	-0.015452268
208	0x3ce0f672	0.027461264
209	0x3d7490fb	0.059708577
210	0x3d31a740	0.043372393
211	0xbbe27234	-0.0069105867
212	0xbd122bba	-0.035686232
213	0xbd9e0be4	-0.07717112
214	0xbd389dca	-0.045072354
215	0xbcf02c6a	-0.029318053
216	0x3db023d0	0.08600581
217	0x3d177d23	0.036984574
218	0xbca713fc	-0.020395271
219	0xbd38e4fd	-0.045140255
220	0xbc1f6da1	-0.009730727
221	0x3d730582	0.059331425
222	0xbcc00b80	-0.023442984
223	0xbd037717	-0.032095995
224	0xbd3e4017	-0.04644784
225	0xbd8581fc	-0.06518933
226	0x3bc21cb9	0.005923834
227	0x3da3c170	0.0799588
228	0xbdaaca5d	-0.08339379
229	0x3d3a62f5	0.04550453
230	0x3d7606eb	0.06006519
231	0xbd176dbf	-0.036969896
232	0xbd818052	-0.06323303
233	0x3d801f41	0.06255961
234	0xbd9afba6	-0.075675294
235	0xbb09efad	-0.00210474
236	0x3d7f425e	0.062319152
237	0x3d3f93bb	0.046771746
238	0x3d946f1e	0.072477564
239	0xbd389bd8	-0.0450705
240	0xbcf7537d	-0.030191178
241	0x3d16652b	0.036717575
242	0xbc970e25	-0.018439362
243	0x3d6620d5	0.056183655
244	0xbd93cb28	-0.07216483
245	0x3ce82135	0.028336147
246	0x3b823ac2	0.0039742896
247	0x3d2df807	0.042472865
248	0x3db11c88	0.0864802
249	0x3d6d3d25	0.05791964
250	0xbd5a646f	-0.053318437
251	0x3c17b270	0.009258851
252	0xbd88711a	-0.066621974
253	0x3d323a08	0.043512374
254	0x3d4833e8	0.048877627
255	0xbc755d9f	-0.014975934

actor.pi_net.fcs.2.bias f4 [4]
0	0x3c3533b5	0.011059691
1	0x3b781854	0.0037856298
2	0x3d067d6d	0.03283446
3	0xbcf1b31d	-0.029504353

critic.v_net.fcs.0.weight f4 [128, 12]
0	0xbdc7d4a9	-0.097573586
1	0xbe2b5224	-0.16730553
2	0x3e7a4bcb	0.24442975
3	0xbe6cf3bd	-0.23139854
4	0xbe7ddfbe	-0.24792382
5	0xbdf26383	-0.118353866
6	0xbe80ad1d	-0.25132075
7	0xbdb66853	-0.08906617
8	0xbdf8a2e6	-0.121404454
9	0x3e5b0c25	0.21391352
10	0x3e47d8d9	0.19516315
11	0xbc35618a	-0.011070618
12	0xbe8fd265	-0.28090206
13	0x3e2f514a	0.17120853
14	0x3e6a18c9	0.22861017
15	0xbd85023e	-0.06494568
16	0x3e0a8294	0.13526374
17	0xbe35df9a	-0.17761078
18	0xbd6aa320	-0.057284474
19	0xbd2d1df2	-0.042264886
20	0x3d89eecc	0.06735
21	0xbd9514a3	-0.07279327
22	0x3e582f5f	0.2111182
23	0x3e52a0f1	0.20569207
24	0x3e8de76e	0.2771563
25	0xbbdf9db9	-0.006824222
26	0x3e5effca	0.21777263
27	0x3e6f8627	0.23391019
28	0x3e58786c	0.21139687
29	0xbd7b94a6	-0.06142106
30	0xbdac638e	-0.08417426
31	0x3da2cb73	0.07948961
32	0xbd880bfd	-0.066429116
33	0x3e55cf7a	0.20879927
34	0x3d78628b	0.060640853
35	0x3dc917cc	0.09818992
36	0xbe87c036	-0.26513833
37	0x3e8cc413	0.27493343
38	0xbdef7b8b	-0.11693486
39	0xbe8b20bd	-0.27173415
40	0xbce13f25	-0.02749593
41	0x3da9c6c4	0.08289865
42	0x3e382488	0.17982686
43	0x3b9ec1b5	0.004844869
44	0x3e247413	0.16059904
45	0xbbda628f	-0.006664581
46	0xbdafc885	-0.08583168
47	0xbda60609	-0.0810662
48	0x3e90adbb	0.28257546
49	0x3e5c4bc1	0.21513273
50	0xbdc9bff8	-0.09851068
51	0x3e71b615	0.23604615
52	0xbcbbc3a8	-0.022920445
53	0xbc9b9adc	-0.018994741
54	0x3d671c1d	0.056423295
55	0xbe934ba6	-0.28768653
56	0x3dc8ee9b	0.098111354
57	0xbe2e6960	-0.17032385
58	0xbe902112	-0.2815023
59	0xbd189940	-0.037255526
60	0x3d70f81b	0.05883036
61	0x3e30ce0f	0.17266105
62	0x3d84b219	0.06479282
63	0x3e8d858d	0.27640954
64	0xbe829c9d	-0.2551011
65	0x3df48b76	0.119406626
66	0xbe52fa61	-0.20603324
67	0xbc9c7e68	-0.019103244
68	0xbce13aac	-0.027493797
69	0x3d12820b	0.03576855
70	0xbe0118a1	-0.12607051
71	0xbda73172	-0.08163728
72	0x3d0844bb	0.03326867
73	0xbd13e141	-0.03610349
74	0x3e8c192f	0.27362964
75	0x3d8c7d7e	0.06859873
76	0xbdad21b3	-0.08453693
77	0xbdadd89d	-0.08488581
78	0xbe14a378	-0.14515483
79	0xbdf5076d	-0.11964307
80	0x3d26897e	0.040658467
81	0xbdaafe5f	-0.08349299
82	0xbe8b6abc	-0.2722987
83	0xbbeac54c	-0.007164633
84	0x3e8ca64e	0.2747063
85	0xbddf93fb	-0.10916897
86	0xbe8c58ee	-0.27411598
87	0xbcbfb596	-0.023402017
88	0x3e8d87af	0.2764258
89	0x3db20ed5	0.08694235
90	0x3e048699	0.1294197
91	0xbde0ef1c	-0.109831065
92	0xbd20f9b6	-0.039300643
93	0x3e07d451	0.13264586
94	0xbe092ee4	-0.13396794
95	0x3e2c8e2e	0.16851112
96	0xbbfe7f61	-0.0077666496
97	0x3e559b68	0.20860064
98	0xbe05e418	-0.13075292
99	0xbe372ac1	-0.17887403
100	0x3e3e043b	0.18556301
101	0xbe06424b	-0.13111226
102	0x3c760d7e	0.015017865
103	0xbe70d76a	-0.23519674
104	0x3e1677b3	0.14694099
105	0x3deb90d0	0.1150223
106	0x3d29192e	0.04128378
107	0xbe12f7b2	-0.14352301
108	0x3d54bd61	0.05193842
109	0xbe3bc883	-0.18338208
110	0xbd44e6b8	-0.048071593
111	0xbd1256ec	-0.035727426
112	0xbe53e6cd	-0.20693512
113	0xbe8ff733	-0.28118286
114	0xbca280e7	-0.019836856
115	0x3d49c398	0.0492588
116	0x3dd2a51c	0.10285398
117	0x3e6f0dbf	0.23345087
118	0xbc60cdb2	-0.013720917
119	0x3dec63ec	0.11542496
120	0xbe656c68	-0.22404635
121	0x3e398e8c	0.18120784
122	0x3e903122	0.28162485
123	0xbe78c347	-0.24293242
124	0x3e848a81	0.2588692
125	0xbde8298e	-0.11336051
126	0x3e8cb67e	0.2748298
127	0xbe3aa922	-0.18228582
128	0x3e620303	0.22071461
129	0xbc19b87b	-0.0093823625
130	0xbe237672	-0.15963152
131	0xbe8ed0eb	-0.27893767
132	0x3e63a9fc	0.22232813
133	0x3d1048d9	0.035225723
134	0xbe79b9e0	-0.24387312
135	0x3e85d22a	0.26136905
136	0x3e8d0f79	0.27550867
137	0xbdd5b465	-0.10434798
138	0x3e79c3f2	0.24391153
139	0x3e1d035a	0.1533331
140	0x3e29caac	0.1658122
141	0xbe739022	-0.23785451
142	0xbc1728e7	-0.0092260605
143	0xbc96f7e6	-0.018428754
144	0x3de597cf	0.11210596
145	0x3d9bd699	0.07609291
146	0x3e1fd305	0.15607841
147	0x3d0c0ed3	0.034193825
148	0x3e0bcee4	0.13653141
149	0x3e870326	0.2636959
150	0x3e0471fa	0.12934104
151	0xbe8ff9b8	-0.28120208
152	0x3e76b008	0.24090588
153	0xbe1f89cb	-0.15579908
154	0xbe476640	-0.19472599
155	0xbe0b2057	-0.13586555
156	0xbe825a7d	-0.25459662
157	0xbe92aadc	-0.2864598
158	0x3dc7d3a7	0.09757166
159	0x3e1e1717	0.15438496
160	0x3e1db677	0.15401636
161	0x3d4a5fce	0.049407773
162	0xbddcc13a	-0.107790425
163	0xbe4c5462	-0.19954064
164	0x3e180ea9	0.14849342
165	0xbe31fa8b	-0.17380731
166	0xbe122e21	-0.1427541
167	0xbe277b59	-0.16355647
168	0x3e859f2d	0.26098004
169	0xbdb35e41	-0.08758212
170	0x3b1537cd	0.0022768856
171	0xbe821bda	-0.25411874
172	0xbe2f10e7	-0.17096291
173	0x3cc28059	0.023742842
174	0x3d86e233	0.06586113
175	0xbe701e50	-0.23449063
176	0xbdbbb2bc	-0.0916495
177	0xbe1b57d0	-0.15170217
178	0x3cf231ef	0.029564826
179	0x3d206527	0.039158966
180	0xbe584917	-0.21121632
181	0x3e809506	0.25113696
182	0x3e1eb4c7	0.15498649
183	0xbc6deab3	-0.014521289
184	0xbe8d95a4	-0.2765323
185	0xbe2447e6	-0.16043052
186	0xbe1191e7	-0.14215814
187	0x3d0497a6	0.032371186
188	0x3e90a79b	0.28252873
189	0xbd0cc037	-0.034362998
190	0x3d92aa88	0.071614325
191	0x3e33160f	0.17488883
192	0xbd1c6358	-0.03818068
193	0xbdd61beb	-0.10454544
194	0x3e69606e	0.22790691
195	0xbe6ef7dd	-0.2333674
196	0xbdd7f1f9	-0.105441995
197	0xbe1d1f2c	-0.15343922
198	0x3e3802e2	0.1796985
199	0x3e61171f	0.21981476
200	0x3e165bb3	0.14683418
201	0xbe6080dd	-0.21924157
202	0x3df4b27c	0.11948106
203	0x3c9c0471	0.019045087
204	0x3e52499e	0.20535895
205	0xbd44f72c	-0.048087284
206	0x3d09e074	0.03366132
207	0x3c0ea567	0.008706427
208	0xbb1789e5	-0.0023122963
209	0xb7974409	-1.8032284e-05
210	0x3e53229c	0.20618671
211	0xbc4728ca	-0.012155721
212	0x3e01df34	0.12682801
213	0xbe900836	-0.28131264
214	0x3e56dced	0.20982714
215	0xbe1654d5	-0.14680798
216	0xbe4e7f25	-0.2016569
217	0x3dc18dd7	0.09450882
218	0xbe630156	-0.22168478
219	0x3d0a604d	0.033783246
220	0x3d8d40d1	0.068971284
221	0xbaea5750	-0.0017878804
222	0xbe650a4b	-0.22367208
223	0xbdbc1da2	-0.091853395
224	0xbe165b36	-0.14683232
225	0x3e093416	0.13398775
226	0x3d764ad6	0.060129963
227	0xbe5f53e2	-0.21809343
228	0xbdd31633	-0.103069685
229	0x3e245629	0.16048492
230	0xbcc2e54f	-0.023790983
231	0xbdf3478c	-0.11878881
232	0xbe1a22c7	-0.15052329
233	0xbe49576e	-0.19662258
234	0x3e026337	0.1273316
235	0xbc80551b	-0.015665581
236	0xbe39eb62	-0.18156198
237	0x3c6d1f79	0.014472836
238	0xbd725244	-0.059160486
239	0xbd406265	-0.046968836
240	0xbe51765d	-0.20455308
241	0x3e18ee8e	0.14934751
242	0x3d8f1d70	0.06988037
243	0x3e406dc5	0.18791874
244	0xbdbc33ca	-0.091895655
245	0x3d8a331f	0.06748032
246	0xbe8789b4	-0.26472247
247	0xbe12596a	-0.14291921
248	0xbe82b6f4	-0.25530207
249	0x3df68fd4	0.12039152
250	0x3c84c4c1	0.0162071
251	0x3e6a83e2	0.22901872
252	0xbe443cd3	-0.19163828
253	0xbe28fee0	-0.16503477
254	0xbe344354	-0.17603809
255	0x3e8da8fd	0.2766799

critic.v_net.fcs.0.bias f4 [128]
0	0x3e184aee	0.14872333
1	0xbe5a81df	-0.21338604
2	0xbd1852f5	-0.03718849
3	0x3d8919fd	0.0669441
4	0x3e2fcf29	0.17168869
5	0x3d5b9624	0.053609982
6	0xbe2ad1d6	-0.16681609
7	0xbe4a1edf	-0.19738339
8	0x3e562458	0.20912302
9	0xbe8c4200	-0.27394104
10	0x3d18c1fd	0.037294377
11	0x3e8750b0	0.26428747
12	0xbdc677e3	-0.09690835
13	0x3e1765cd	0.14784928
14	0x3d407905	0.046990413
15	0xbe732c63	-0.23747401
16	0xbcdca5c9	-0.026934521
17	0x3e2d53a4	0.16926438
18	0x3caf81c2	0.021424178
19	0x3e8826c3	0.26592073
20	0x3e3fdec7	0.18737327
21	0xbdc20c07	-0.0947495
22	0xbe645dbb	-0.2230138
23	0xbe05b5ba	-0.13057604
24	0x3e8a9660	0.27067852
25	0xbe7f9345	-0.24958523
26	0xbe53453e	-0.20631883
27	0xbe2f8aa2	-0.17142728
28	0x3e06112a	0.13092485
29	0xbd08f76b	-0.03343908
30	0x3d0796b2	0.0331027
31	0x3e0156e2	0.126308
32	0xbe4f2452	-0.20228699
33	0x3d92c610	0.07166684
34	0xbe33a796	-0.17544398
35	0x3e6c0765	0.23049696
36	0x3d856de6	0.06515102
37	0xbe7a393a	-0.24435893
38	0x3e4072de	0.18793818
39	0x3dba2744	0.090895206
40	0x3d4e4499	0.05035839
41	0xbc446f5a	-0.011989439
42	0x3dab537a	0.08365531
43	0xbe925ba8	-0.28585553
44	0xbdefb7ce	-0.1170498
45	0xbe92c979	-0.28669336
46	0x3dd12ec1	0.10213996
47	0xbe5d83bd	-0.21632285
48	0x3de13055	0.10995547
49	0x3e79d5e3	0.24397998
50	0xbe70f46d	-0.23530741
51	0xbcd012c5	-0.025399575
52	0x3cce44f6	0.025179368
53	0xbd75e7bf	-0.060035463
54	0x3e8516dc	0.25994003
55	0xbd28d259	-0.04121623
56	0xbdd64136	-0.10461657
57	0xbe88c2d4	-0.26711142
58	0x3d7d8964	0.061898604
59	0x3e2a675c	0.16640991
60	0xbd5cd4a8	-0.053913742
61	0x3e8bdc72	0.27316624
62	0x3e066a87	0.13126574
63	0x3d971feb	0.07379135
64	0x3de395c0	0.11112547
65	0x3dd64451	0.10462249
66	0x3df19304	0.11795619
67	0xbe6a1eaf	-0.22863267
68	0xbe143bf1	-0.14475991
69	0x3e82a737	0.255182
70	0xbd8b7e37	-0.06811183
71	0x3e16727c	0.1469211
72	0xbe8e0878	-0.27740836
73	0x3e497bbe	0.1967611
74	0x3e939818	0.28826976
75	0xbc69eecf	-0.014278128
76	0xbe1cad68	-0.15300524
77	0xbd1948bb	-0.037422877
78	0x3e86ae78	0.26304984
79	0xbdd0c29b	-0.10193368
80	0xbe56e61e	-0.2098622
81	0xbdb26cf0	-0.087121844
82	0x3d4245ed	0.047429968
83	0xbe23939c	-0.15974277
84	0xbe5ef621	-0.21773578
85	0xbe0ac56f	-0.13551877
86	0x3d94ec47	0.07271629
87	0xbdc4a502	-0.09601785
88	0xbc6e7285	-0.014553671
89	0xbe70b713	-0.23507337
90	0x3e420b02	0.18949512
91	0xbda92a24	-0.08259991
92	0x3e4cf004	0.20013434
93	0xbdb11c1c	-0.086479396
94	0xbd1b7c42	-0.0379603
95	0x3dea91e5	0.114536084
96	0xbdae4912	-0.08510031
97	0x3e1c2a91	0.15250613
98	0xbe243bf2	-0.16038492
99	0xbe28ebff	-0.16496275
100	0xbd3eb821	-0.046562318
101	0x3d28c9b9	0.041208003
102	0xbd9f815e	-0.07788347
103	0x3e41b322	0.1891599
104	0x3cd08fb1	0.025459142
105	0x3e6eff06	0.23339471
106	0xbc911856	-0.0177118
107	0xbe614611	-0.21999384
108	0x3dd29f72	0.10284318
109	0xbde917bf	-0.11381482
110	0xbe68a9ae	-0.22720978
111	0xbe28eace	-0.16495821
112	0xbe3cdd50	-0.18443799
113	0xbe2e1764	-0.1700111
114	0xbcbd2ef4	-0.023093678
115	0x3e927f4d	0.28612748
116	0x3e91c4a0	0.28470325
117	0x3e4e3340	0.20136738
118	0xbe2b00d1	-0.1669953
119	0xbd8dbc5f	-0.069206946
120	0xbd95a163	-0.07306173
121	0xbcf0c286	-0.029389631
122	0x3e8169aa	0.25275928
123	0xbc87e4ac	-0.016588531
124	0x3dd4a907	0.10383802
125	0x3e73a1ae	0.23792145
126	0x3e671296	0.22565684
127	0x3ddb274a	0.10700853

critic.v_net.fcs.1.weight f4 [128, 128]
0	0x3da714de	0.08158277
1	0x3c58f7fd	0.013242719
2	0x3d877a5f	0.06615137
3	0xbcc6ea18	-0.024281546
4	0x3d8c3f30	0.068479896
5	0x3cc4de05	0.024031648
6	0x3bb168ac	0.005414089
7	0xbda8aca3	-0.08236053
8	0x3dadb701	0.08482171
9	0x3da7f5c9	0.08201177
10	0xbd6196fb	-0.055075627
11	0xbd878c30	-0.066185355
12	0x3d8622e5	0.06549624
13	0xbce467da	-0.027881552
14	0xbcc3538b	-0.023843547
15	0x3d3b9210	0.045793593
16	0xbda3d681	-0.07999898
17	0x3d8fcda0	0.07021642
18	0xbd785b62	-0.060634024
19	0xbc1923c4	-0.009346906
20	0xbdb11ff2	-0.08648671
21	0x3d9f66bd	0.07783268
22	0xbd1057b8	-0.035239905
23	0x3d6f86c1	0.05847812
24	0xbd6fe58f	-0.058568534
25	0x3cd4d9e4	0.025982805
26	0xbc827edd	-0.015929634
27	0xbd11c061	-0.035583857
28	0xbd9de941	-0.07710505
29	0xbd8869c6	-0.066608
30	0xbd595a96	-0.053064905
31	0x3da61dbc	0.0811114
32	0xbdb44902	-0.08802988
33	0xbca27487	-0.019830955
34	0xbcba1963	-0.022717183
35	0x3d44e6e7	0.048071768
36	0x3d1f2d51	0.038861576
37	0xbd5d15b9	-0.053975794
38	0x3d8d1e25	0.06890515
39	0x3c5dac47	0.013529844
40	0x3cd3da84	0.025861032
41	0x3cb58d4a	0.022162098
42	0xbd8399d2	-0.06425823
43	0xbc55395f	-0.013014167
44	0x3a750114	0.0009346169
45	0x3ca1f89c	0.019771867
46	0x3d463aee	0.048396043
47	0xbd12ea18	-0.03586778
48	0x3d21c04e	0.039490037
49	0xbc6a9864	-0.014318559
50	0xbcc297d9	-0.023754047
51	0x3d0a6f71	0.033797685
52	0xbcbc7f27	-0.02300985
53	0x3d246c9c	0.04014264
54	0xbc92b348	-0.017907754
55	0xbdb3e7ea	-0.087844685
56	0xbd23f9c5	-0.04003312
57	0xbbfe0064	-0.0077515114
58	0xbc2f8739	-0.010713392
59	0x3d9f1f7a	0.077696756
60	0x3dad09a6	0.08449106
61	0xbdacd8c5	-0.08439783
62	0x3daf0567	0.08545952
63	0xbd8b7fb0	-0.06811464
64	0xbd0132cf	-0.031542595
65	0xbdaed20b	-0.08536156
66	0x3c4f5451	0.01265438
67	0x3c29a263	0.010353657
68	0x3b726b67	0.0036990286
69	0x3c7e98fe	0.015539406
70	0xbd8dd755	-0.06925837
71	0x3d0aef87	0.033919837
72	0xbd8855b4	-0.066569716
73	0x3d88968c	0.066693395
74	0x3ce997cc	0.028514765
75	0xbda90f75	-0.08254901
76	0x3d3a306c	0.045456335
77	0x3d9872b1	0.07443751
78	0x3d8d4b45	0.06899122
79	0xbc6eaaf9	-0.01456713
80	0xbd4726bb	-0.04862092
81	0x3d561187	0.05226281
82	0x3d400238	0.046877116
83	0x3d23d848	0.040001184
84	0x3d382617	0.0449582
85	0xbd2f68f6	-0.042824708
86	0xbcd2e4bb	-0.025743833
87	0x3d253c8b	0.04034094
88	0xbc991146	-0.018684994
89	0x3c622ca4	0.0138045885
90	0xba6711b9	-0.00088145916
91	0xbd87e2a4	-0.06635025
92	0x3cc8e249	0.024521964
93	0xbcbb2cac	-0.02284845
94	0xbc5ea326	-0.013588702
95	0x3cb6befb	0.022307863
96	0xbd9c3042	-0.07626392
97	0xbd239a3b	-0.039942008
98	0x3d90fd5b	0.07079574
99	0xbd98f554	-0.074686676
100	0xbcb6b180	-0.022301435
101	0xbcc6b0f9	-0.024254309
102	0x3c1382d1	0.009003357
103	0xbda90f92	-0.08254923
104	0xbc74f684	-0.014951352
105	0xbbb2a55e	-0.005451842
106	0x3da7ed31	0.081995375
107	0xbd850af2	-0.06496228
108	0xbd072eca	-0.033003606
109	0xbc398bb8	-0.011324815
110	0x3d6be614	0.057592466
111	0xba77d5dd	-0.00094541704
112	0x3bed5325	0.0072425776
113	0xbd418c1c	-0.04725276
114	0xbd5fa5dc	-0.054601535
115	0xbbc298a5	-0.005938607
116	0xbd4df28e	-0.050280146
117	0x3c994fda	0.018714834
118	0xbbde8c7a	-0.0067916485
119	0xbd15501d	-0.036453355
120	0x3c54c612	0.012986677
121	0x39999e73	0.00029300488
122	0x3baf91bd	0.0053579495
123	0x3daf81d6	0.08569686
124	0xbd82ccfa	-0.063867524
125	0x3ce0f0da	0.027458597
126	0x3d9f27a3	0.07771232
127	0xbd24caf6	-0.04023262
128	0xbcb36caf	-0.02190241
129	0x3db4cbe1	0.08827949
130	0xbd193745	-0.037406225
131	0x3d7c780e	0.06163793
132	0x3c2e72d5	0.010647495
133	0xbd9fe2bd	-0.07806919
134	0xbdac6032	-0.08416785
135	0xbcb1c214	-0.021698989
136	0xbccf61cc	-0.025315188
137	0x3d7d1f6e	0.06179755
138	0xbcacfcf3	-0.02111671
139	0xbd9406a1	-0.07227827
140	0xbd495a92	-0.04915864
141	0x3d914de2	0.07094933
142	0xbd262b99	-0.04056892
143	0x3cbc0cf5	0.022955397
144	0x3d7ccd3d	0.061719168
145	0x3d1f6697	0.038916197
146	0xbb19b404	-0.0023453245
147	0xbd61ef06	-0.05515959
148	0x3bb68c11	0.0055708964
149	0x3d91045c	0.070809096
150	0xbc8519cc	-0.016247652
151	0xbda39e3e	-0.07989167
152	0x3c076cc8	0.008265682
153	0xbd714ca3	-0.058910977
154	0x3b02d368	0.0019962434
155	0xbdaa94ed	-0.083291866
156	0xbcf8affb	-0.030357352
157	0xbd4da274	-0.050203755
158	0xbc724a2b	-0.014788191
159	0x3d141ede	0.03616225
160	0xbd590451	-0.052982632
161	0x3d903b6d	0.070425846
162	0x3dad65cb	0.08466681
163	0xbd9f3da4	-0.07775429
164	0xbc2aa75b	-0.010415877
165	0xbd896c93	-0.06710162
166	0x3c689b73	0.014197218
167	0xbd9b0e20	-0.075710535
168	0x3d79dea0	0.061003327
169	0x3cb45dda	0.022017408
170	0x3d55248f	0.052036818
171	0xbd1c89dd	-0.038217414
172	0x3d6c2434	0.057651713
173	0x3cb094fb	0.021555414
174	0x3da94996	0.082659885
175	0xbbc3829c	-0.0059664976
176	0xbda26aa3	-0.079304956
177	0x3d03f7f8	0.032218903
178	0x3dafd908	0.08586317
179	0xbd305e64	-0.043058768
180	0x3da09400	0.07840729
181	0xbd247f8e	-0.040160708
182	0xbd2769b5	-0.040872294
183	0xbd94c0be	-0.07263325
184	0x3c42cf45	0.011890237
185	0xbd95df64	-0.07317999
186	0x3d94cdba	0.07265802
187	0xbb7b3b9a	-0.0038335086
188	0x3b05ef14	0.002043669
189	0x3d1091e4	0.035295382
190	0xbc86c829	-0.016452866
191	0xbd6c9bb4	-0.057765678
192	0x3afa3982	0.0019090625
193	0xbcdd8668	-0.027041629
194	0xbbe858ac	-0.0070906486
195	0x3b89e3d5	0.004208068
196	0xbd20d11d	-0.039261926
197	0xbd3a3c0e	-0.04546743
198	0xbad60192	-0.0016327372
199	0x3b35999e	0.0027709971
200	0xbdb38ae1	-0.087667234
201	0xbb71d08c	-0.0036897985
202	0x3d681d0b	0.056668323
203	0xbc0d2be0	-0.008616418
204	0xbd83bd24	-0.0643256
205	0x3da905a9	0.08253033
206	0xbced19ef	-0.02894303
207	0xbd9ae24b	-0.07562693
208	0x3d105481	0.03523684
209	0xbd1439a3	-0.03618778
210	0xbd80ab6b	-0.062826954
211	0x3ccfcf28	0.025367334
212	0x3d087b79	0.033320878
213	0x3b4ca5e5	0.003122681
214	0x3d384441	0.044986967
215	0xbd5bd6f6	-0.0536718
216	0xbd6dd3e2	-0.058063395
217	0xbd3e0e51	-0.046400372
218	0x3d51c723	0.051215302
219	0xbd6c8de5	-0.05775251
220	0x3bb55798	0.0055341236
221	0x3d8b1b5a	0.06792326
222	0x3d18fae3	0.03734864
223	0xbd673d6f	-0.056455072
224	0xbd988a3d	-0.07448242
225	0xbcde25ae	-0.027117576
226	0x3d24c0e6	0.040223025
227	0xbc24c80c	-0.0100574605
228	0xbda3fd2f	-0.08007275
229	0x3ca34b9f	0.01993352
230	0x3da103f9	0.07862086
231	0xbd6c71c7	-0.057725694
232	0x3b5d2dee	0.00337493
233	0x3d71fbe4	0.059078112
234	0xbd921c79	-0.07134337
235	0x3cf8668e	0.03032234
236	0xbda9218a	-0.0825835
237	0xbdaf9319	-0.085729785
238	0xbd9e5b17	-0.07732218
239	0xbcd5440c	-0.026033424
240	0x3db3a200	0.087711334
241	0x3da24fa3	0.07925346
242	0xbd80636c	-0.06268963
243	0xbd3e212d	-0.046418358
244	0xbd0eb96f	-0.034844812
245	0xbdaf966b	-0.08573612
246	0x3d969b88	0.07353884
247	0x3cce4130	0.025177568
248	0x3ce247f4	0.0276222
249	0x3d576857	0.05258974
250	0x3d52701d	0.05137645
251	0xbd5865cb	-0.052831452
252	0xbd5b5466	-0.053547285
253	0x3c129633	0.008946943
254	0xbd1918a4	-0.037377015
255	0x3d95f42d	0.073219635

critic.v_net.fcs.1.bias f4 [128]
0	0x3d718907	0.05896857
1	0xbd775030	-0.060379207
2	0xbd953c24	-0.072868615
3	0x3d8cddcf	0.06878244
4	0x3d84fe4a	0.06493814
5	0x3c0bbde7	0.008529163
6	0x3d69c573	0.057073068
7	0xbd1bfce8	-0.038082987
8	0x3d5dcfdb	0.054153305
9	0xbd937adb	-0.07201167
10	0x3c114dc0	0.008868635
11	0xbd761326	-0.060076855
12	0xbd9c8ca7	-0.07644015
13	0x3c1367f2	0.00899695
14	0xbd93a577	-0.07209294
15	0xbd0f4a78	-0.03498313
16	0xbd660ffc	-0.056167588
17	0xbc8b009e	-0.016968068
18	0xbdb37e9c	-0.08764383
19	0xbc947d27	-0.018126084
20	0xbc9f0ae6	-0.019414376
21	0x3d3f517f	0.04670858
22	0x3da1bf07	0.07897764
23	0x3d43e17b	0.047822457
24	0x3c1a082a	0.0094013605
25	0x3da6f953	0.081530236
26	0xbd8389e1	-0.06422783
27	0xbd39dd50	-0.045377076
28	0x3cbc6306	0.022996437
29	0xbc7608bd	-0.015016732
30	0x3d9b703d	0.07589767
31	0xbaa47414	-0.0012546801
32	0xbdb32c7f	-0.08748721
33	0xbd05308e	-0.03251701
34	0x3b23aa33	0.0024973273
35	0xbd23bc10	-0.039974272
36	0xbd7c1e82	-0.061552532
37	0x3daa99eb	0.08330139
38	0xbd2c8e41	-0.04212785
39	0xba182f76	-0.0005805412
40	0x3cac119d	0.021004492
41	0xbd0a18f1	-0.033715192
42	0x3d29cf9c	0.041457757
43	0xbda6c22a	-0.081425026
44	0x3b94dade	0.0045426926
45	0xbd0cbde8	-0.034360796
46	0xbd094614	-0.033514097
47	0xbd6512ac	-0.05592601
48	0x3c5622da	0.013069833
49	0x3d536750	0.0516122
50	0x3d62d9da	0.05538354
51	0x3cbe1e01	0.023207666
52	0xbdb250b1	-0.08706797
53	0xbd8a6f16	-0.06759469
54	0x3d275d09	0.04086021
55	0x3d8fffae	0.07031189
56	0xbdaafd10	-0.08349049
57	0xbda2427c	-0.07922837
58	0xbdadf1f2	-0.08493413
59	0xbce58098	-0.02801542
60	0x3cba3d94	0.02273444
61	0x3b381001	0.002808571
62	0x3d9bd817	0.07609575
63	0xba140a18	-0.0005647256
64	0x3c1f2614	0.009713668
65	0x3d8fed95	0.07027737
66	0xbcb45a5c	-0.022015743
67	0x3d0c6e3a	0.034284808
68	0xbccf644b	-0.025316378
69	0xbd7c59ba	-0.061609007
70	0xbd8c7c24	-0.068596154
71	0x3daf5c07	0.08562475
72	0x3c977f48	0.01849331
73	0xbdad9926	-0.08476476
74	0xbd2db72f	-0.042411026
75	0xbcf5cf22	-0.030005995
76	0x3d1fe27d	0.039034355
77	0x3b9f9288	0.004869763
78	0xbd6d1b67	-0.05788746
79	0x3c4b2770	0.012399539
80	0xbce1d56d	-0.02756759
81	0x3d19048e	0.03735786
82	0x3d88d821	0.06681848
83	0x3c9dcb27	0.01926191
84	0xbd0e765e	-0.034780852
85	0xbc4b69c6	-0.012415355
86	0xbd6a52f0	-0.057208
87	0x3d1da5e9	0.038488302
88	0xbc421229	-0.01184515
89	0x3c7ff4e3	0.01562235
90	0x3cc1e4aa	0.023668606
91	0xbc5602fc	-0.013062235
92	0x3da0d90c	0.078538984
93	0xbd928a5f	-0.071552984
94	0xbdaa9670	-0.08329475
95	0xbd44e202	-0.0480671
96	0xbbb555bc	-0.005533902
97	0x3da03e27	0.078243546
98	0x3d0044db	0.031315666
99	0xbd7b1a07	-0.06130412
100	0xbd91e841	-0.07124377
101	0x3afebc91	0.0019434859
102	0x3d19b171	0.037522737
103	0x3c1a7b06	0.009428745
104	0x3d5794e0	0.052632213
105	0x3d18f1ce	0.037339978
106	0xbcbdc2e6	-0.023164224
107	0xbcbfee87	-0.023429168
108	0x3d58420a	0.052797355
109	0x3cfe3a21	0.031033577
110	0xbcc9fc71	-0.024656506
111	0xbcac11bf	-0.021004556
112	0xbd409aee	-0.047022752
113	0xbc1a1b7a	-0.009405965
114	0xbc5d9508	-0.013524301
115	0x3d97fb50	0.07420981
116	0xbb82f953	-0.003997007
117	0xbc92c9ff	-0.017918585
118	0x3c9c6ca6	0.019094776
119	0xbd6dd141	-0.05806089
120	0x3d8e5abe	0.069509014
121	0xbc032fe7	-0.008007026
122	0x3d1b4427	0.037906792
123	0xbc0d32fd	-0.008618114
124	0xbd4f6e4e	-0.050642304
125	0x3d31a8cf	0.04337388
126	0x3d14d914	0.036339834
127	0xbb73d708	-0.0037207026
