examples/rl/models/safe_explorer_ppo/safe_explorer_ppo_model_quadrotor_2D_track.pt (torch, 832251 bytes, 180 tensors)

actor.logstd f4 [2]
0	0xbf15522e	-0.5832852
1	0xbf0f2820	-0.559206

actor.pi_net.fcs.0.weight f4 [128, 12]
0	0xbd50acde	-0.05094611
1	0xbc1be6c2	-0.009515466
2	0xbe45e850	-0.19326901
3	0xbe876e05	-0.26451126
4	0xbf56882e	-0.83801544
5	0x3d233023	0.03984083
6	0x3e3675aa	0.17818323
7	0x3d6d9e24	0.058012143
8	0x3e85c4e2	0.26126772
9	0x3e0dad82	0.13835719
10	0xbc57789f	-0.013151317
11	0xba325fc9	-0.0006804434
12	0x3e35d69b	0.17757647
13	0x3ea3837d	0.31936255
14	0xbea189a0	-0.31550312
15	0xbd873548	-0.066019595
16	0x3f1e7b80	0.61907196
17	0x3e999979	0.29999903
18	0xbd4719b9	-0.048608515
19	0x3dec2234	0.11529961
20	0x3cceeb7e	0.025258776
21	0x3ea81df4	0.32835352
22	0x3cae9297	0.021310134
23	0xbe7b6406	-0.24549875
24	0x3c7a4b7b	0.015276785
25	0x3d24c54e	0.040227227
26	0x3e05a192	0.13049915
27	0xbe3ba53c	-0.1832475
28	0x3c5b4872	0.0133839715
29	0x3e2d9758	0.16952264
30	0xbe54cfe7	-0.20782433
31	0xbe4cc57d	-0.19997211
32	0xbead5ca4	-0.33859742
33	0x3d2c3f81	0.04205275
34	0x3e042fa7	0.12908803
35	0xbd9e7162	-0.0773647
36	0x3e27576e	0.16341946
37	0xbeb3ebfe	-0.35140985
38	0x3e8744a8	0.26419568
39	0x3a8757ed	0.0010325887
40	0x3f1655a7	0.58724445
41	0x3ddb5456	0.10709445
42	0x3dd21332	0.102575675
43	0xbc33d791	-0.010976688
44	0xbdfa771a	-0.12229748
45	0xbe0bdc4a	-0.13658252
46	0xbe44a636	-0.1920403
47	0x3d3cfb07	0.046137836
48	0x3ded6894	0.11592212
49	0x3eefa4b1	0.46805337
50	0xbd8a418b	-0.067507826
51	0x3e7a7ed9	0.24462451
52	0x3ef2830a	0.473656
53	0xbde3cf96	-0.11123578
54	0xbe34d362	-0.17658761
55	0x3e791a18	0.2432636
56	0xbde309e5	-0.110858716
57	0xbd901c73	-0.07036676
58	0x3d6ed405	0.058307666
59	0x3e343a93	0.1760047
60	0xbcd8ae7d	-0.02645039
61	0xbe6e93c8	-0.23298562
62	0xbc33c76b	-0.010972838
63	0x3c6fbfd0	0.014633134
64	0xbe492d5a	-0.19646206
65	0xbc646e71	-0.013942347
66	0xbd8ba74f	-0.06819021
67	0xbd84aa9a	-0.06477852
68	0x3e02bd85	0.12767608
69	0xbe6f0789	-0.23342718
70	0xbda1dcbc	-0.0790343
71	0xbe0beee3	-0.13665347
72	0xbe1cc87f	-0.15310858
73	0x3d49500d	0.049148608
74	0x3d7df5d2	0.06200201
75	0x39569bc5	0.00020466659
76	0x3e0d4e98	0.13799512
77	0x3d1ed5ab	0.03877799
78	0xbea01b08	-0.31270623
79	0xbe6fc28b	-0.23414056
80	0xbe25d992	-0.16196278
81	0xbcd76a8c	-0.026295923
82	0x3e801226	0.25013846
83	0x3e32ce10	0.17461419
84	0xbe675d67	-0.22594224
85	0x3ca9e84f	0.020740656
86	0x3e294b09	0.1653253
87	0x3cd5dd60	0.026106536
88	0xbf13d525	-0.5774711
89	0xbd6d8a6b	-0.057993334
90	0xbd8bcac0	-0.06825781
91	0x3de4c25d	0.11169884
92	0xbd95dcc8	-0.07317501
93	0x3d938c30	0.07204473
94	0xbe6542fc	-0.22388834
95	0xbe51f30b	-0.2050287
96	0xbe0272f7	-0.12739168
97	0xbe627fc0	-0.22119045
98	0x3e3c987c	0.18417543
99	0x3efb29bb	0.49055275
100	0x3e261c34	0.16221696
101	0x3d411ff5	0.047149617
102	0x3da0a7f1	0.07844532
103	0x3e5d08fe	0.21585461
104	0x3e34a46c	0.17640847
105	0xbe58fb32	-0.21189573
106	0xbe4724fc	-0.19447702
107	0x3e27bef6	0.1638144
108	0xbdb2b391	-0.08725656
109	0xbdba7c79	-0.091057725
110	0x3e98a0fa	0.29810315
111	0x3e387ac5	0.18015583
112	0x3e24e805	0.16104133
113	0x3de68f5b	0.11257812
114	0xbdbcbe19	-0.09215946
115	0xbcb361f5	-0.021897295
116	0xbd9a76b8	-0.07542175
117	0xbd900014	-0.07031265
118	0x3e916e44	0.28404438
119	0xbe1078f1	-0.14108635
120	0xbe1c8622	-0.15285543
121	0x3ea864e4	0.32889473
122	0xbcafb6d7	-0.02144949
123	0xbe18a380	-0.1490612
124	0x3f029e27	0.5102257
125	0x3ec4b0d4	0.3841616
126	0x3dfcb3fe	0.12339018
127	0x3e63c492	0.22242954
128	0xbe9e783e	-0.30951113
129	0xbdfade7e	-0.12249468
130	0x3e0429fb	0.1290664
131	0xbe3ec63b	-0.18630306
132	0xbe62a03d	-0.22131439
133	0xbe71d8a2	-0.23617795
134	0xbe8217c9	-0.25408772
135	0xbede7b7a	-0.4345358
136	0xbe90e8fb	-0.2830275
137	0xbcc821a4	-0.024430104
138	0x3e8b396c	0.27192247
139	0x3e566c52	0.20939758
140	0x3d26dd32	0.040738292
141	0x3de0e2df	0.10980772
142	0x3e4344d6	0.19069228
143	0xbe29a602	-0.16567233
144	0xbe3055b4	-0.17220193
145	0xbe241f70	-0.16027617
146	0xbce2e51f	-0.027697144
147	0xbeb2c5fb	-0.34916672
148	0xbdf00b88	-0.117209494
149	0xbce2e3b6	-0.027696472
150	0x3da694f1	0.08133877
151	0x3dc326b1	0.09528864
152	0x3de4612b	0.11151346
153	0x3e923bfe	0.28561395
154	0x3dd5fd44	0.10448697
155	0xbe3c1add	-0.18369623
156	0x3e774b61	0.24149849
157	0xbc65bba0	-0.014021784
158	0xbe1c4555	-0.15260823
159	0xbe9c4414	-0.3052069
160	0xbee3ae0c	-0.44468725
161	0x3ce23a66	0.027615737
162	0x3e5d8f84	0.21636778
163	0x3e4f23b8	0.2022847
164	0xbe111854	-0.14169437
165	0x3da35b9a	0.07976456
166	0xbe404fe4	-0.18780476
167	0xbe5ab0e3	-0.2135654
168	0xbea4df0c	-0.3220142
169	0x3e1b5be1	0.15171768
170	0x3cdf7e2f	0.027281849
171	0xbe07d769	-0.13265766
172	0xbe8a67f4	-0.27032435
173	0xbe0a9390	-0.13532853
174	0xbe970b1b	-0.2950066
175	0xbd948c59	-0.07253332
176	0xbb9d0314	-0.0047916267
177	0x3e4d0ffa	0.20025626
178	0x3e5fe74c	0.21865577
179	0xbd981b10	-0.07427037
180	0x3da5d7a6	0.08097772
181	0xbda9ccff	-0.08291053
182	0x3e51f95c	0.2050528
183	0xbd490962	-0.049081214
184	0x3e901419	0.28140333
185	0x3e6def56	0.2323583
186	0xbdb6ce6d	-0.08926091
187	0xbe720e01	-0.23638155
188	0xbe85c097	-0.26123497
189	0xba651408	-0.00087386416
190	0xbda60d5d	-0.081080176
191	0xbe16d328	-0.14728987
192	0xbe3bb2c2	-0.1832991
193	0xbe7dd09c	-0.2478661
194	0x3e04e738	0.12978828
195	0x3e8ea67b	0.2786139
196	0xbeccd163	-0.400035
197	0xbdab0a28	-0.083515465
198	0x3ea4993a	0.32148153
199	0xbdb853c4	-0.09000352
200	0xbe8b76bb	-0.27239022
201	0xbe5584a4	-0.2085138
202	0x3d1e463a	0.038641192
203	0x3d9a229b	0.07526132
204	0x3dd6d082	0.104889885
205	0xbdfb8d38	-0.12282795
206	0xbe6021e1	-0.21887924
207	0x3e90f4c1	0.28311732
208	0xbedaf435	-0.4276444
209	0xbceea0bf	-0.029129384
210	0xbe069cf8	-0.13145816
211	0x3cf504c6	0.029909503
212	0x3e0b7282	0.136179
213	0xbe815cca	-0.25266105
214	0xbddc316e	-0.107516155
215	0xbd8e155b	-0.06937667
216	0x3ea36925	0.31916156
217	0x3ddd4357	0.1080386
218	0xbeb594c3	-0.3546506
219	0x3d88147a	0.066445306
220	0x3ed18628	0.40922666
221	0x3d548907	0.051888492
222	0xbda03c58	-0.0782401
223	0xbe56e441	-0.2098551
224	0x3d306a88	0.043070346
225	0x3cf595c8	0.029978648
226	0x3e39a83b	0.18130581
227	0xbe3c5431	-0.18391491
228	0xbc17100d	-0.009220135
229	0x3df6205f	0.12017893
230	0x3e50db95	0.20396264
231	0x3e9155c5	0.2838575
232	0x3f02f83c	0.51160026
233	0xbd32661c	-0.04355441
234	0xbe48c005	-0.196045
235	0x3d843875	0.06456081
236	0xbe9d5c02	-0.3073426
237	0x3e0321f6	0.12805924
238	0xbe14a29f	-0.1451516
239	0xbd2116e7	-0.039328482
240	0xbd8d5100	-0.06900215
241	0xbe8940c4	-0.26807225
242	0x3ea1af81	0.3157921
243	0x3eb72664	0.35771477
244	0x3f10fb37	0.56633323
245	0x3cf21c8d	0.02955463
246	0x3e2c3894	0.16818458
247	0x3e29d059	0.16583385
248	0xbdade88c	-0.084916204
249	0xbe731b2e	-0.23740837
250	0x3d7a8604	0.061162964
251	0xbdab5cf3	-0.08367338
252	0xbe1dfd26	-0.154286
253	0x3c446fab	0.011989514
254	0xbdb3e25e	-0.087834105
255	0x3e2df158	0.16986597

actor.pi_net.fcs.0.bias f4 [128]
0	0xbe11d316	-0.14240679
1	0xbdb794fa	-0.08963962
2	0x3e0d6fc5	0.13812168
3	0x3d8af310	0.06784642
4	0xbe47418c	-0.19458598
5	0x3cb7bc7b	0.022428742
6	0x3c9c4468	0.019075587
7	0xbdacd399	-0.084387966
8	0xbe774387	-0.24146853
9	0xbe9898b3	-0.29804
10	0xbdc36d23	-0.095423006
11	0x3e3901a2	0.18067029
12	0x3dd4bbd5	0.103873886
13	0x3da25a93	0.07927432
14	0x3d1d9d2f	0.03847998
15	0x3e3928dc	0.18081993
16	0x3d888b8a	0.0666724
17	0x3e268bf5	0.16264327
18	0x3e470bf3	0.19438152
19	0x3d45aecd	0.048262406
20	0xbe0ac959	-0.1355337
21	0x3d5919fd	0.0530033
22	0x3e815617	0.25260994
23	0xbde4c409	-0.11170203
24	0xbe48923f	-0.19587038
25	0x3e49932b	0.19685046
26	0x3e45a29d	0.19300313
27	0x3dba7461	0.09104229
28	0x3e2cd89d	0.16879506
29	0x3dbe9b17	0.09306925
30	0xbe1c606e	-0.1527116
31	0x3d5df8b5	0.054192264
32	0xbe895ef8	-0.26830268
33	0xbea960a2	-0.33081537
34	0xbe39fce3	-0.18162875
35	0xbe952d53	-0.29136142
36	0x3d7d8cc8	0.061901838
37	0x3d8fd39a	0.07022782
38	0x3e853b57	0.26021835
39	0x3e3b6eea	0.18304029
40	0x3d84a567	0.064768605
41	0x3da49aa0	0.08037305
42	0xbe4a014c	-0.19727057
43	0xbe9e0ec8	-0.30870652
44	0x3e4a5746	0.19759855
45	0xbddafae7	-0.10692387
46	0xbc849c1d	-0.016187722
47	0x3df3e7a6	0.11909418
48	0xbc1af658	-0.009458147
49	0xbe8b2ff7	-0.27185032
50	0x3cb80611	0.02246383
51	0xbe856254	-0.2605158
52	0xbd0e5fc9	-0.034759317
53	0xbe532955	-0.20621236
54	0xbe3ef9d1	-0.18649985
55	0x3e08d954	0.13364154
56	0xbe7c0626	-0.2461172
57	0xbdf5bbd7	-0.11998718
58	0x3ddcfc3c	0.107902974
59	0x3dac8d6f	0.08425414
60	0xbbecf34d	-0.007231152
61	0x3be5694d	0.007001078
62	0x3e400eee	0.18755695
63	0x3e090ca6	0.13383731
64	0x3ea97b7f	0.33102033
65	0xbdabc3c8	-0.08386952
66	0x3e458693	0.19289617
67	0xbe8417e8	-0.2579949
68	0xbe864805	-0.26226822
69	0x3e737b8e	0.23777601
70	0xbe9c56e3	-0.3053504
71	0xbc8c2f1e	-0.017112311
72	0x3c86b795	0.01644496
73	0x3db88b1d	0.09010909
74	0xbdfa425a	-0.12219687
75	0x3e4a2eff	0.1974449
76	0x3d57c5af	0.05267876
77	0x3d40286f	0.04691356
78	0xbb698846	-0.0035634204
79	0xbb33775b	-0.0027384374
80	0xbea97c5f	-0.331027
81	0xbeafe36b	-0.34353194
82	0x3e36477b	0.17800705
83	0xbcfcf8a9	-0.03088029
84	0x3e97f4b2	0.29678875
85	0x3e99fd7c	0.30076206
86	0x3ea097d6	0.31365842
87	0xbdbce76d	-0.092238285
88	0x3e31a791	0.17349078
89	0x3e03a76b	0.12856834
90	0xbe4c0285	-0.19922836
91	0xbe826e38	-0.25474715
92	0x3e3d34e9	0.18477215
93	0xbe04f602	-0.1298447
94	0x3d70c5e4	0.058782473
95	0xbcd10148	-0.025513306
96	0x3d825665	0.06364135
97	0x3e22d7a6	0.15902576
98	0x3e9ac6bc	0.30229747
99	0xbdc5aeaf	-0.09652459
100	0xbe17529c	-0.14777607
101	0xbd87c457	-0.06629246
102	0x3a5aaf82	0.0008342193
103	0x3e3fd318	0.1873287
104	0x3e3602d8	0.17774522
105	0xbe6b0734	-0.22951967
106	0xbe9746ef	-0.29546306
107	0x3dd78521	0.10523439
108	0x3e577d04	0.21043783
109	0xbea57c6a	-0.32321483
110	0x3e1751cb	0.14777295
111	0x3ecd196e	0.40058464
112	0xbe28982d	-0.164643
113	0xb9d396b4	-0.0004035734
114	0xbe9600ab	-0.29297385
115	0x3e82cd2d	0.25547162
116	0x3d0ad623	0.033895623
117	0xbe3824c5	-0.17982776
118	0xbe5acac2	-0.21366408
119	0xbdb71fdc	-0.089416236
120	0x3e1a5843	0.15072732
121	0xbe827bc4	-0.2548505
122	0x3e15f8c8	0.14645684
123	0x3cb5a0c2	0.022171382
124	0x3e2d11b1	0.1690128
125	0x3cc09a02	0.023510937
126	0x3e498bbc	0.1968221
127	0xbe31e062	-0.17370752

actor.pi_net.fcs.1.weight f4 [128, 128]
0	0x3d114518	0.035466284
1	0xbdda0949	-0.10646302
2	0xbd697407	-0.056995418
3	0xbdf5fc83	-0.120110534
4	0x3c820b40	0.015874505
5	0x3dc4ecbb	0.09615465
6	0xbcda3f8e	-0.026641633
7	0x393fdf73	0.00018298421
8	0xbdb36467	-0.087593846
9	0x3dab51ba	0.083651975
10	0xbd9dbe52	-0.07702316
11	0xbddf66a6	-0.109082505
12	0x3db13346	0.08652358
13	0x3c193c76	0.009352794
14	0xbdb38fc7	-0.08767658
15	0x3d33a01d	0.043853868
16	0xbdce4528	-0.10071784
17	0x3da68984	0.08131698
18	0xbdd78622	-0.10523631
19	0x3ccbd599	0.024882125
20	0x3cc9204f	0.024551539
21	0x3b8f064b	0.004364764
22	0x3d383368	0.0449709
23	0x3df226a3	0.118237756
24	0xbd8449a3	-0.064593576
25	0x3c3debf5	0.011591901
26	0xbda39a96	-0.07988469
27	0x3d05104d	0.03248625
28	0xbd460031	-0.048340026
29	0x3da06492	0.07831682
30	0x3d54e1df	0.05197322
31	0xbd140a43	-0.0361426
32	0xbd82d7e0	-0.06388831
33	0x3cc14b8a	0.02359559
34	0x3d061c94	0.032742098
35	0x3d14030c	0.03613572
36	0xbd95cb30	-0.073141456
37	0xbd12afe0	-0.03581226
38	0x3d816963	0.06318929
39	0x3c26aa0b	0.010172377
40	0xbdf9acc8	-0.121911585
41	0x3decca8a	0.11562069
42	0xbc384efe	-0.011249302
43	0xbc2aa8a3	-0.010416183
44	0xbde6410d	-0.11242876
45	0xbc8298ef	-0.015942065
46	0x3d252a47	0.040323522
47	0x3d26e43b	0.040745
48	0x3c8f09d9	0.01746075
49	0xbccbcad9	-0.024876999
50	0x3db7a16b	0.08966335
51	0xbcbae842	-0.022815827
52	0x3c41bcbe	0.011824785
53	0xbc3762f1	-0.011193023
54	0x3d29ff79	0.041503403
55	0x3da373ee	0.07981096
56	0x3ced0369	0.02893229
57	0xbe14d520	-0.14534426
58	0x3cf31acb	0.029675862
59	0x3d854e20	0.06509042
60	0xbc8d6577	-0.017260296
61	0xbcb8502f	-0.022499172
62	0xbe15e0b3	-0.14636497
63	0xbde24c68	-0.110497296
64	0x3cfea878	0.031086192
65	0xbd461833	-0.048362922
66	0xbd35ed97	-0.044416036
67	0x3d038e93	0.03211839
68	0x3cb42b8a	0.021993417
69	0xbda7d2bb	-0.081944905
70	0x3d6eefc4	0.058334127
71	0xbcd9c300	-0.026582241
72	0x3d07d18e	0.03315883
73	0x3da7f87c	0.082016915
74	0x3d622424	0.055210248
75	0x3b989db3	0.004657471
76	0xbe0b473e	-0.13601395
77	0xbcf74d36	-0.030188184
78	0xbc35daaa	-0.011099497
79	0x3c8b803f	0.017028926
80	0x3c2c7f6a	0.010528425
81	0xbc85ff5b	-0.016357115
82	0xbe0cd18f	-0.13751815
83	0x3d0957cd	0.033531
84	0xbd8d3f70	-0.06896865
85	0x3b8acddf	0.0042359675
86	0x3b023b9b	0.0019871953
87	0x3dd62925	0.104570664
88	0xbe40cf06	-0.18828973
89	0x3daf3441	0.085548885
90	0xbd9be6c5	-0.07612375
91	0xbdae7d2c	-0.085199684
92	0xbd705a74	-0.058680013
93	0x3d40aca2	0.047039635
94	0xbddcbb44	-0.107779056
95	0x3d7b0569	0.061284456
96	0x3dbad1c8	0.09122044
97	0xbd0261da	-0.0318316
98	0xbbf31119	-0.0074178097
99	0xbbf4e0c6	-0.007473084
100	0xbbe351ae	-0.006937227
101	0xbda18dda	-0.07888384
102	0xbc1e9256	-0.009678444
103	0x3bb87fcf	0.0056304703
104	0x3c939d8f	0.018019466
105	0xbd85fc51	-0.06542266
106	0xbc9af540	-0.018915772
107	0x3c33c487	0.010972149
108	0x3bf1dea3	0.0073812767
109	0x3c83e3fb	0.01609992
110	0xbcf6209e	-0.03004485
111	0x3d1ee155	0.038789112
112	0x3dba2ce5	0.09090594
113	0xbd1d6111	-0.038422648
114	0x3e281697	0.16414867
115	0x3c33344c	0.0109377615
116	0x3d607510	0.05479914
117	0x3dbb0f6c	0.09133801
118	0xbc4d5425	-0.012532269
119	0x3c7231ac	0.0147823505
120	0x3de7b1b7	0.11313193
121	0x3ca32c81	0.019918682
122	0xbdb8e190	-0.09027398
123	0xbc25f2f6	-0.010128727
124	0xbdc936fa	-0.09824939
125	0xbc800fa5	-0.01563246
126	0x3d0393fc	0.03212355
127	0x3dca7bff	0.09886932
128	0x3d4aeade	0.049540393
129	0xbe1aa3ac	-0.15101498
130	0xbd9d7496	-0.07688253
131	0xbde120d7	-0.10992592
132	0xbdcbfbb2	-0.099601164
133	0xbdce4d1b	-0.100733005
134	0xbd92ad50	-0.07161963
135	0xba91bf77	-0.0011119683
136	0xbd8288cf	-0.063737504
137	0xbe90b4ab	-0.2826284
138	0xbdf1bcc4	-0.11803582
139	0x3e06e3b4	0.131728
140	0x3dd7d21f	0.10538124
141	0x3c90ea68	0.017689899
142	0x3caf4336	0.021394353
143	0xbdf85b8a	-0.12126835
144	0x3c93927f	0.01801419
145	0x3da7d3d6	0.081947014
146	0x3d627025	0.05528273
147	0xbdc484e1	-0.09595657
148	0xbdaeca5d	-0.085346915
149	0xbd927705	-0.071516074
150	0x3c16f91e	0.009214668
151	0x3e615fb6	0.22009167
152	0xbda4972e	-0.08036648
153	0xbd77a74a	-0.060462274
154	0xbc9586fa	-0.018252838
155	0xbdedc54a	-0.116098955
156	0x3e00d041	0.12579443
157	0x3dd20d68	0.10256463
158	0xbe4e4562	-0.20143655
159	0x3d91405b	0.07092353
160	0xbdd9fb6c	-0.10643658
161	0xbdbae012	-0.09124769
162	0xbba3f045	-0.0050030076
163	0x3d0d7810	0.03453833
164	0xbd85be75	-0.065304674
165	0x3d5acc91	0.053417746
166	0x3e056e2f	0.13030313
167	0xbd4fefd6	-0.050765835
168	0x3df8abdb	0.12142154
169	0xbb3f96b2	-0.0029234109
170	0xbd5a1b3f	-0.05324864
171	0xbd92b458	-0.07163304
172	0xbc8c8805	-0.017154703
173	0xbd009a77	-0.03139731
174	0xbcd48d11	-0.025946172
175	0x3dac8007	0.08422857
176	0xbd3d08d3	-0.046150994
177	0xbe519968	-0.20468676
178	0xbc381c82	-0.011237266
179	0xbdbfd84f	-0.093674295
180	0xbe0ef765	-0.13961561
181	0xbe063e9f	-0.13109826
182	0x3c86b622	0.01644427
183	0x3d08b18e	0.033372454
184	0xbd57abc8	-0.052654058
185	0xbd4f478c	-0.05060534
186	0x3e5420a6	0.2071558
187	0x3d6f3510	0.058400214
188	0x3db90c30	0.09035528
189	0xbd35a0ee	-0.044342928
190	0xbdc38f88	-0.09548861
191	0xbe9623d2	-0.29324204
192	0x3e0d37b1	0.13790776
193	0xbd78b714	-0.060721472
194	0x3d859a87	0.065236144
195	0xbd6b804c	-0.0574954
196	0x3d91b6e0	0.07114959
197	0xbdb51b26	-0.08843069
198	0xbe1343bf	-0.14381312
199	0xbe590273	-0.2119234
200	0xbdadcd51	-0.084864266
201	0x3c5d0bc1	0.013491572
202	0xbce44c63	-0.027868455
203	0xbe57ff91	-0.21093585
204	0xbc483d6f	-0.012221678
205	0x3e0a80cd	0.13525696
206	0xbdccb042	-0.09994556
207	0xbdabbb45	-0.08385328
208	0xbe218892	-0.15774754
209	0xbdab6cfc	-0.083703965
210	0x3c0b4fbf	0.0085029
211	0xbe39055a	-0.18068448
212	0x3e89e714	0.2693411
213	0x3ca3863b	0.019961467
214	0x3c9e2a54	0.019307293
215	0x3d5d62ba	0.05404923
216	0xbd0a6af9	-0.033793423
217	0xbce373d8	-0.0277652
218	0xbd8be40d	-0.068306066
219	0xbe663976	-0.22482857
220	0x3d44f963	0.048089396
221	0xbd74eefe	-0.059798233
222	0xbe13d3c0	-0.14436245
223	0xb9393f20	-0.00017666491
224	0x3d4f985e	0.050682418
225	0x3cb3146f	0.02186033
226	0x3d3d4925	0.046212334
227	0x3d31b592	0.04338605
228	0xbd9f29df	-0.07771658
229	0x3cf17309	0.029473798
230	0xbd9aa0fe	-0.07550238
231	0x3dc39ea3	0.09551742
232	0x3d025421	0.031818513
233	0x3dcb31cf	0.099216096
234	0xbe1f8ce1	-0.15581085
235	0x3e375afc	0.17905802
236	0xbd8040b7	-0.062623434
237	0xbd17f3b0	-0.037097633
238	0x3e1894ba	0.14900485
239	0x3d9f1254	0.07767168
240	0xbda442d2	-0.080205575
241	0x3cfa0e22	0.030524317
242	0xbdbe4b64	-0.09291723
243	0x3db0411b	0.08606168
244	0xbde739e2	-0.11290337
245	0xbd88a80e	-0.06672679
246	0xbcb25967	-0.021771146
247	0x3d1f0fd3	0.03883345
248	0xbb9fb7f4	-0.004874224
249	0xbdc778c4	-0.09739831
250	0xbcb95e79	-0.022628056
251	0xbdeaf1f2	-0.11471929
252	0x3d9d1e4f	0.076717965
253	0xbbd68abe	-0.006547301
254	0x3d22c16d	0.039735246
255	0x3dfb9073	0.12283411

actor.pi_net.fcs.1.bias f4 [128]
0	0xbdf7a8cc	-0.12092742
1	0x3e0c22cc	0.13685149
2	0xbda4be98	-0.080441654
3	0x3b22cf52	0.002484281
4	0xbd1cc94c	-0.03827791
5	0x3dc7c6df	0.097547285
6	0x3e12642d	0.14296027
7	0xbd82e395	-0.06391064
8	0x3cb3aa5d	0.021931821
9	0xbddaec6a	-0.10689624
10	0x3e049db6	0.12950787
11	0x3db6bf6c	0.089232296
12	0x3d3ff481	0.046864036
13	0xbdbfc6d4	-0.09364095
14	0xbcb01b5a	-0.021497417
15	0xbe316de7	-0.1732708
16	0x3c857080	0.016288996
17	0x3ce553a7	0.02799399
18	0x3e04d431	0.1297157
19	0xbb573d17	-0.003284281
20	0xbd278c1b	-0.0409051
21	0x3ca14424	0.019685812
22	0x3db34022	0.08752467
23	0xbdbbbfd4	-0.09167448
24	0x3d8d7a9a	0.0690815
25	0x3ddd945e	0.108193144
26	0x3c200157	0.009765944
27	0xbb76c82e	-0.0037655937
28	0xbd73ea38	-0.05954954
29	0x3e041bca	0.12901226
30	0x3e1a45a7	0.15065633
31	0xbda8a6c7	-0.08234935
32	0x3e17f0c7	0.14837943
33	0xbc3f43a9	-0.011673846
34	0xbe19ce52	-0.15020111
35	0xbe764306	-0.24049005
36	0xb9724103	-0.00023103137
37	0x3df95bc1	0.12175704
38	0xbbde4b91	-0.0067839106
39	0xbdda6acb	-0.106649004
40	0x3c951189	0.018196838
41	0xbd18695c	-0.037209854
42	0x3d1a327a	0.037645794
43	0xbdbe97b3	-0.09306278
44	0xbdc26ed2	-0.094937935
45	0xbd14df33	-0.03634567
46	0x3e00f499	0.12593307
47	0xbb120488	-0.0022280533
48	0xbd279411	-0.04091269
49	0x3d90f909	0.0707875
50	0xbcd894da	-0.026438165
51	0xbc88c864	-0.016697116
52	0xbdb96a28	-0.09053451
53	0x3e132011	0.14367701
54	0x3c360559	0.011109673
55	0x3dc71706	0.09721188
56	0xbdcf6356	-0.10126369
57	0x3d399f53	0.04531796
58	0x3d0bb9f7	0.034112897
59	0x3dc55bad	0.096366264
60	0xbd10e851	-0.035377804
61	0xbdd44743	-0.103651546
62	0xbe3e7f62	-0.1860328
63	0xbe8ee673	-0.27910194
64	0x3c9f9216	0.019478839
65	0x3df506fa	0.11964221
66	0xbd2d2985	-0.042275924
67	0x3cc34e1d	0.023840958
68	0x3cee5d19	0.029097127
69	0xbc39c303	-0.011337998
70	0xbde52d1e	-0.11190246
71	0xbcdcab0e	-0.026937034
72	0x3c85af27	0.01631887
73	0x3d0e8fb1	0.034805004
74	0x3cdf98e2	0.02729458
75	0xbd943fbe	-0.0723872
76	0x3df5baf0	0.11998546
77	0x3ba913f1	0.005159848
78	0x3db726b4	0.08942929
79	0xbd3118cc	-0.04323654
80	0x3d9c479f	0.07630848
81	0x3dd8ec26	0.10591917
82	0x3d4244b6	0.04742881
83	0x3d611eba	0.054960944
84	0xbdace31e	-0.08441757
85	0xbdbb95fd	-0.09159467
86	0xbd23747a	-0.039906003
87	0x3d1b29fb	0.037881833
88	0x3e24d1b9	0.16095628
89	0x3cd331ec	0.02578064
90	0xbe270301	-0.1630974
91	0x3c9a5b3d	0.018842334
92	0xbd3bb702	-0.045828827
93	0x3cadd029	0.021217423
94	0x3c355f7e	0.01107013
95	0xbdfd0f7f	-0.12356471
96	0xbd9a655a	-0.075388625
97	0x3d8a71ef	0.06760012
98	0x3e0e07d2	0.1387017
99	0xbb907496	-0.0044084294
100	0x3d8b5913	0.06804099
101	0x3cba961e	0.02277666
102	0x3e021e36	0.12706837
103	0xbe2f15cc	-0.17098159
104	0xbe05f7b8	-0.13082778
105	0x3d855b05	0.06511501
106	0xbdf8a574	-0.12140933
107	0xbdd414fb	-0.10355564
108	0xbdd8426f	-0.10559546
109	0xbe03d718	-0.1287502
110	0xbdfe77cb	-0.124251924
111	0x3cc87b78	0.024472937
112	0x3da2c3d1	0.07947505
113	0xbd9f9423	-0.07791927
114	0xbd2b5646	-0.041830324
115	0xbc2151ae	-0.009846134
116	0xbe8353d1	-0.25649884
117	0x3dbc6a3d	0.09199951
118	0xbe0fb267	-0.14032899
119	0x3df1907a	0.11795135
120	0x3c728384	0.014801864
121	0x3ca7958c	0.020457052
122	0xbdb51a99	-0.08842964
123	0x3d3bd7d3	0.045860123
124	0x3d51ad9b	0.051190954
125	0x3deef377	0.11667531
126	0x3e06167d	0.13094516
127	0xbdcb8806	-0.09938054

actor.pi_net.fcs.2.weight f4 [2, 128]
0	0xbbb2eabc	-0.0054601114
1	0x3d250711	0.040289942
2	0x3d8e8c78	0.06960386
3	0xbc1304ee	-0.008973343
4	0x3b755998	0.0037437435
5	0x3d970e05	0.07375721
6	0x3caa2aa6	0.02077229
7	0xbdb65b03	-0.08904078
8	0x388c3b12	6.686723e-05
9	0xbd3185e9	-0.043340597
10	0x3c7f4c65	0.015582179
11	0x3e08a09b	0.13342516
12	0x3dc1da7a	0.09465499
13	0x3de1d631	0.11027182
14	0xbd2118c9	-0.039330278
15	0xbbdf115e	-0.0068074903
16	0x3ca5d433	0.020242786
17	0xbdc1b1e1	-0.09457756
18	0x3c18f11f	0.0093348315
19	0x3d9b8271	0.07593239
20	0xbc2ea568	-0.010659553
21	0x3ced5147	0.02896942
22	0xbb8881eb	-0.004165878
23	0x3daf1add	0.08550046
24	0xbe259d08	-0.16173184
25	0x3ccec54a	0.02524056
26	0xba78e7aa	-0.000949497
27	0x3b11d750	0.002225358
28	0xbb01f467	-0.0019829513
29	0x3ce97adf	0.028500972
30	0x3dbc11bc	0.0918307
31	0x3bb352bf	0.0054725106
32	0x3e0009a2	0.12503675
33	0xbda15b04	-0.07878688
34	0xbcc38b24	-0.023870058
35	0xbdbcdda3	-0.09221961
36	0x3c4f97ad	0.01267044
37	0x3b054596	0.0020335666
38	0x3e18b3b5	0.14912303
39	0x3dcf81c8	0.10132176
40	0x3d7d3141	0.06181455
41	0xbdd9ee84	-0.10641196
42	0xbd7f7f0e	-0.06237703
43	0xbb7b73c4	-0.0038368562
44	0x39d7863b	0.00041108005
45	0xbda85b07	-0.08220487
46	0x3cb7c9d2	0.022435103
47	0x3c48b072	0.012249099
48	0xbdb44806	-0.088028
49	0x3bd1dae6	0.0064042686
50	0x3b739d9c	0.00371728
51	0x3d68c9ed	0.056833196
52	0xbbe04566	-0.0068442104
53	0x3c5958cc	0.0132658
54	0xbda47fa9	-0.08032162
55	0x3df4c79d	0.11952136
56	0xbc93b12e	-0.018028822
57	0xbb8f6cdd	-0.004376991
58	0x3cde5b48	0.027143136
59	0xbba16dc3	-0.0049264147
60	0xbcb2061c	-0.021731429
61	0xbbef66ac	-0.0073059406
62	0xbccb9ff7	-0.02485655
63	0xbe771d63	-0.24132304
64	0x3b8de5fa	0.004330394
65	0x3c189275	0.009312262
66	0xbb56428a	-0.003269347
67	0xbc8fa440	-0.017534375
68	0x3db5072a	0.08839257
69	0x3c3e3147	0.011608428
70	0xbd99f6d1	-0.075177796
71	0xbd78e0ed	-0.06076138
72	0xbbcb15c0	-0.006197661
73	0xbc9b58af	-0.018963186
74	0xbb0637e2	-0.0020480086
75	0xbc16995c	-0.009191837
76	0xbabdba86	-0.0014475144
77	0x3d33b0f9	0.043869946
78	0xbbe91ab5	-0.0071137794
79	0xbd17648d	-0.036961127
80	0x3c32432a	0.010880271
81	0x3c64b371	0.013958798
82	0xbb43932b	-0.0029842358
83	0xbc52b894	-0.01286139
84	0xbcef319d	-0.029198462
85	0xbd81628b	-0.06317624
86	0x3c674c0c	0.014117252
87	0x3cab03c2	0.020875815
88	0x3dffb7f5	0.12486259
89	0x3bb4ac83	0.005513729
90	0xbd31916b	-0.043351572
91	0x3c0819e2	0.008306952
92	0x3dad62ed	0.08466134
93	0xbc63434a	-0.013871023
94	0x3d143db6	0.036191665
95	0xbdc71ee9	-0.097226925
96	0x39ce1db4	0.00039313512
97	0xbd3a1725	-0.04543223
98	0x3c64b04f	0.013958051
99	0x3c42f851	0.011900024
100	0x3d0efc80	0.03490877
101	0x3dc617a1	0.096724756
102	0x3d338a19	0.043832872
103	0xbd8be4a8	-0.06830722
104	0xbce8e82f	-0.028431026
105	0x3976e301	0.00023544954
106	0xbd32d363	-0.043658625
107	0xbd45269f	-0.048132535
108	0xbacb4f48	-0.0015511299
109	0xbd70ca1d	-0.0587865
110	0xbd9bd189	-0.07608325
111	0x3b49c40e	0.0030787024
112	0x3e471da0	0.19444895
113	0xbca2c93c	-0.019871347
114	0x3c14ebe0	0.00908944
115	0x3e5398dd	0.20663781
116	0xbd81cb6e	-0.06337629
117	0x3b9aff87	0.0047301683
118	0xbc33818f	-0.010956182
119	0x3b065511	0.002049748
120	0x3c15f5e7	0.009152866
121	0x3a3f162b	0.0007289375
122	0xbe60009c	-0.21875232
123	0x3b14115c	0.0022593355
124	0xbb2533c7	-0.0025207864
125	0x3c8a7305	0.016900549
126	0x3c1743e5	0.009232496
127	0xbdc7af68	-0.09750253
128	0xbcb93fe1	-0.022613468
129	0x3ddb4496	0.10706441
130	0x3e009dc2	0.1256018
131	0x3d11e38d	0.0356174
132	0x3c8ffacf	0.01757565
133	0xbc5c8f85	-0.013461952
134	0x3cff337a	0.031152476
135	0xbda5e4f3	-0.08100309
136	0x3cc51647	0.024058474
137	0xbdbd612a	-0.09247048
138	0x3dbe5b06	0.09294705
139	0x38131fc4	3.5077115e-05
140	0xbe2085c1	-0.15676023
141	0xbdbf4987	-0.09340196
142	0xbdf4360c	-0.11924371
143	0xbccaae18	-0.024741217
144	0x3da56d60	0.08077502
145	0xbe069b75	-0.1314524
146	0x3e39ba0f	0.18137382
147	0x3d2e16bd	0.042502154
148	0xbd9c27d3	-0.07624783
149	0x398a931f	0.00026431025
150	0x3c430d78	0.011905067
151	0x3da096b6	0.07841246
152	0x3e82eb24	0.25570023
153	0x3dfc7dfd	0.12328718
154	0x3cdc458e	0.026888635
155	0x3d349cd0	0.04409486
156	0x3cf26554	0.029589333
157	0xbd8ca6c2	-0.06867744
158	0xbdaa9f5b	-0.08331176
159	0xbcac6ec5	-0.021048913
160	0xbdc92a35	-0.098225035
161	0x3dc14bb2	0.09438266
162	0xbd0c151b	-0.034199815
163	0xbe038cb6	-0.12846646
164	0x3c8bf3c1	0.017084004
165	0x3bd42f94	0.0064753983
166	0x3bbefeda	0.0058287205
167	0x3db88ee5	0.0901163
168	0x3d1a9ca0	0.037747025
169	0xbdbb796e	-0.0915402
170	0xbd65ed99	-0.056134794
171	0xbccac119	-0.02475028
172	0xba311812	-0.0006755601
173	0xbdd7a88b	-0.10530194
174	0xbd0d8865	-0.034553904
175	0xbd4ee2c4	-0.05050923
176	0xbe846a32	-0.2586227
177	0x3de5fbc6	0.112296626
178	0x3c93e62d	0.018054092
179	0x3d84912e	0.06473003
180	0xba345551	-0.0006879168
181	0x3d756d92	0.059918948
182	0xbdda5f7a	-0.10662742
183	0x3d8e7ccd	0.069573976
184	0xbd535ea5	-0.051603932
185	0x3d0dca73	0.0346169
186	0x3dc04284	0.09387687
187	0xbcca6e0c	-0.024710678
188	0xbde9f1aa	-0.11423047
189	0xbd1a8b55	-0.037730534
190	0xbdbf385c	-0.093369216
191	0x3dd69b91	0.10478891
192	0xbcc47301	-0.02398062
193	0x3af18aff	0.0018428265
194	0xbcd49649	-0.025950568
195	0x3c88ec69	0.016714292
196	0xbb24cf18	-0.0025147852
197	0x3db31ed3	0.08746114
198	0xbe20879f	-0.15676735
199	0xbd86998d	-0.06572256
200	0x3bb85fbb	0.0056266463
201	0xbd823990	-0.063586354
202	0xbce23591	-0.027613433
203	0x3d3c5f56	0.045989357
204	0x3cb5ecf6	0.022207718
205	0xbd7ff125	-0.062485833
206	0x3ca6407f	0.020294426
207	0xbd80bb1b	-0.062856875
208	0xbdb40715	-0.08790413
209	0x3c66a4d5	0.014077385
210	0xbd8cb8d1	-0.068711884
211	0xbd0852e7	-0.033282187
212	0xbd9cb86e	-0.07652365
213	0xbd7a08f7	-0.061043706
214	0x3e0e80ab	0.1391627
215	0x3d69b36f	0.057055887
216	0xbd430489	-0.047611747
217	0x3d17d7df	0.037071105
218	0xbd8ae151	-0.06781257
219	0xbd2b6513	-0.04184444
220	0xbc71b0ff	-0.014751672
221	0x39ed4cc8	0.0004526137
222	0xbe1c7ecb	-0.15282743
223	0x3c6dac67	0.014506436
224	0xbd2fec87	-0.04295018
225	0xbda7bad2	-0.0818993
226	0xbc86d961	-0.016461076
227	0x3d51115d	0.05104195
228	0x3db5009e	0.08838008
229	0x3dcc6871	0.09980858
230	0x3d394943	0.045235883
231	0x3dfd5ab5	0.123708166
232	0xbe0bc51d	-0.13649411
233	0x3c3e3bcc	0.011610936
234	0xbbea9839	-0.0071592596
235	0x3d9b4701	0.07581902
236	0xbcda5858	-0.026653454
237	0xbb400f69	-0.002930606
238	0xbd762b39	-0.060099814
239	0xbce85bf7	-0.028364165
240	0x3e1597ab	0.14608638
241	0xbd3db076	-0.046310864
242	0x3d0b0140	0.03393674
243	0xbe026eef	-0.1273763
244	0xbdc7e97f	-0.09761333
245	0x3cbddce8	0.023176625
246	0xbc5db591	-0.013532058
247	0x3ca65728	0.020305231
248	0xbb71cf7f	-0.003689736
249	0xbc974d47	-0.018469466
250	0x3d1d4e56	0.038404785
251	0x3cd63a48	0.026150838
252	0x3cb89d25	0.02253587
253	0x3d6de211	0.05807692
254	0x3ca5dfad	0.020248258
255	0xbd863e83	-0.06554892

actor.pi_net.fcs.2.bias f4 [2]
0	0x3dda6827	0.10664397
1	0xbdc327aa	-0.0952905

critic.v_net.fcs.0.weight f4 [128, 12]
0	0xbf4ea519	-0.8072067
1	0xbe8553f6	-0.2604062
2	0x3efa129b	0.4884232
3	0xbe8736e4	-0.26409066
4	0xbec6f72d	-0.38860455
5	0xbe205274	-0.15656453
6	0x3e71f180	0.23627281
7	0x3e2cb33d	0.16865249
8	0xbef638d2	-0.48090225
9	0x3e7b99e8	0.2457043
10	0xbccb8507	-0.024843706
11	0xbd89d9e7	-0.06731015
12	0xbf53f5d7	-0.82796997
13	0xbf826ba2	-1.0189097
14	0xbdfa8264	-0.12231901
15	0xbe57aae1	-0.21061279
16	0xbf145e5f	-0.579565
17	0xbe30405f	-0.17212056
18	0x3ecb0f13	0.39659938
19	0x3f1cb60d	0.6121529
20	0xbe981aee	-0.29708046
21	0x3eaa7593	0.33292827
22	0xbc1d410c	-0.009598028
23	0xbe3b1b75	-0.18272193
24	0xbeeff90f	-0.46869704
25	0x3dc836de	0.0977609
26	0x3f4f0467	0.8086609
27	0x3f84dc5b	1.0379747
28	0xbe7b14d4	-0.24519664
29	0x3db246eb	0.08704933
30	0x3ef43ff8	0.47705054
31	0x3d45d0a2	0.04829467
32	0xbe729754	-0.2369054
33	0xbd6d44ae	-0.057926826
34	0xbe2a2744	-0.16616541
35	0xbe1b9dd4	-0.15196925
36	0xbfb611dc	-1.42242
37	0xbcd52eff	-0.026023386
38	0xbdf82cad	-0.12117896
39	0xbf083f5c	-0.5322168
40	0x3ea7fc82	0.32809836
41	0x3cac5c9a	0.02104025
42	0x3f07bd52	0.53023255
43	0xbf618a60	-0.8810177
44	0xbe66e2b2	-0.22547415
45	0xbeabca85	-0.33552948
46	0x3e61dbef	0.22056554
47	0xbe4acfbf	-0.19805811
48	0x3f026c6e	0.509467
49	0x3dfcfdc1	0.12353087
50	0x3eefce5c	0.46837127
51	0xbcb1c4ba	-0.021700252
52	0xbf16a9be	-0.58852756
53	0xbe1acc4b	-0.15116994
54	0x3ebcdf12	0.3688894
55	0x3f3a9365	0.72881156
56	0x3e60bfa0	0.21948099
57	0x3ede2e7e	0.43394846
58	0x3d18b033	0.03727741
59	0x3d398130	0.04528922
60	0xbd48f033	-0.049057197
61	0x3c919a9c	0.017773919
62	0x3f20ceda	0.6281563
63	0x3df04272	0.117314234
64	0x3e88d6a6	0.26726264
65	0x3e611e14	0.2198413
66	0xbdd51448	-0.10404259
67	0xbf292fd1	-0.6608859
68	0x3e903440	0.28164864
69	0xbe20ae59	-0.15691508
70	0xbd3bf93e	-0.045891993
71	0xbe8e977f	-0.27849957
72	0x3efa26ba	0.4885767
73	0x3ed948ab	0.42438254
74	0x3dec82a3	0.115483545
75	0xbe1eaa23	-0.1549459
76	0x3f1fa92d	0.62367517
77	0x3e23aec9	0.15984644
78	0xbf74d067	-0.95630497
79	0xbe3010cb	-0.17193906
80	0xbf19cdc2	-0.60079587
81	0x3e2c685b	0.16836683
82	0x3dd204ea	0.102548435
83	0x3dbd2a3a	0.0923657
84	0x3f1df696	0.61704385
85	0x3edd3a1d	0.432084
86	0x3f72fb80	0.9491501
87	0xbeac381f	-0.33636567
88	0x3f673ccf	0.9032716
89	0x3cde2442	0.027116898
90	0x3dc4fe45	0.096188106
91	0x3ecaf59a	0.39640504
92	0xbdb6d4b1	-0.089272864
93	0x3d82da96	0.06389348
94	0x3e802c7c	0.2503394
95	0x3e37ebcf	0.17961048
96	0x3e4660cb	0.19372861
97	0x3f900fd4	1.125483
98	0x3ee5081c	0.4473275
99	0xbea6404b	-0.32470927
100	0xbeeccb55	-0.4624888
101	0xbdecdb54	-0.11565271
102	0xbe1cb666	-0.15303954
103	0x3ddab2ed	0.10678659
104	0xbeb30185	-0.34962097
105	0x3dba56b7	0.09098571
106	0x3c85ec5b	0.016348055
107	0x3d5a97c8	0.053367406
108	0xbec1386f	-0.37738368
109	0x3d6d54cf	0.057942208
110	0xbf1bd935	-0.60878307
111	0x3dd6f8ea	0.10496695
112	0xbe4fc3b8	-0.20289505
113	0x3ceb3ce3	0.028715556
114	0x3e67eedd	0.22649713
115	0x3f3f710d	0.74781877
116	0x3d57a378	0.05264613
117	0xbdd728d6	-0.10505836
118	0xbe1072f3	-0.1410635
119	0x3df8cebe	0.12148808
120	0x3e1ea31e	0.15491912
121	0xbf66ae96	-0.90110147
122	0xbb2daf63	-0.0026502244
123	0xbea37a39	-0.31929186
124	0x3f969760	1.1764946
125	0x3eb93ad1	0.36177686
126	0xbeb0ce62	-0.34532458
127	0x3ecbeaa5	0.39827457
128	0x3e1094f1	0.14119317
129	0xbd716b56	-0.058940254
130	0xbe103cc7	-0.14085685
131	0xbe1cb4d0	-0.1530335
132	0x3e176c17	0.14787327
133	0x3f094098	0.5361419
134	0xbf4a027d	-0.78910047
135	0xbecf5cc7	-0.4050047
136	0xbe9cef7c	-0.30651462
137	0xbd51bdc8	-0.05120638
138	0xbebeda9a	-0.37276155
139	0x3f3123ab	0.6919505
140	0x3e2835aa	0.16426721
141	0xbe554cc5	-0.20830067
142	0x3e7075b5	0.23482402
143	0xbe2add66	-0.1668602
144	0x3e7131cf	0.23554157
145	0x3f1f91e5	0.6233199
146	0xbf5bac82	-0.858101
147	0x3e9d9298	0.30775905
148	0x3e92c9e6	0.2866966
149	0x3db6d877	0.08928006
150	0x3eba9875	0.3644444
151	0xbf5c890f	-0.86146635
152	0xbbff7f47	-0.007797155
153	0x3ed2fa48	0.41206574
154	0xbe265fd0	-0.16247487
155	0xbe851be1	-0.25997832
156	0xbf8928dd	-1.0715595
157	0xbe46a559	-0.19399013
158	0xbf00c619	-0.50302273
159	0xbf33660b	-0.7007758
160	0x3d875b89	0.06609256
161	0x3d409d27	0.047024872
162	0x3ed7e0a5	0.42163578
163	0x3f104fd6	0.5637182
164	0x3dfc1c37	0.12310069
165	0x3ba36132	0.004985952
166	0xbc940945	-0.018070826
167	0x3e5112d0	0.20417333
168	0x3ec4b15c	0.38416564
169	0x3ef01fe1	0.46899322
170	0xbfa3c3df	-1.279415
171	0x3c829670	0.015940875
172	0x3dcc21cb	0.09967383
173	0xbdbe5134	-0.09292832
174	0x3e9b4231	0.30323938
175	0x3e6e6a94	0.23282844
176	0x3f0271db	0.5095498
177	0x3e2b480c	0.16726702
178	0x3d28f952	0.041253395
179	0xbd50c612	-0.050970145
180	0xbee039e0	-0.43794155
181	0xbf874711	-1.0568563
182	0xbf55c09c	-0.83497024
183	0xbf58544d	-0.8450363
184	0xbfbce5e5	-1.4757658
185	0xbd7eb234	-0.062181666
186	0xbe417fa5	-0.18896349
187	0x3ef130b7	0.4710748
188	0xbdf25395	-0.11832348
189	0x3e3065a8	0.17226279
190	0x3e5709e3	0.20999865
191	0x3e05ed5a	0.13078824
192	0x3e97df2b	0.2966245
193	0x3e91a9e8	0.2844994
194	0xbe8d62bd	-0.27614394
195	0xbdfd8f1f	-0.12380814
196	0x3f14ba6a	0.58096945
197	0xbd646b76	-0.055766545
198	0xbeed37a5	-0.46331516
199	0xbe8a843b	-0.2705401
200	0x3e9e29fc	0.30891407
201	0xbd1de3a3	-0.03854717
202	0xbe5a9157	-0.21344505
203	0xbe1cecd5	-0.15324719
204	0xbe103127	-0.1408125
205	0xbf135824	-0.57556367
206	0x3f9c2593	1.2198967
207	0xbec151f6	-0.37757844
208	0x3ed8abaa	0.4231847
209	0xbdc71fe9	-0.09722883
210	0x3eae2a69	0.3401673
211	0xbe0406b2	-0.12893179
212	0xbe976043	-0.2956563
213	0xbe5a2ca6	-0.21306095
214	0xbe6ade1b	-0.22936289
215	0xbe4170f2	-0.18890741
216	0xbd4559e6	-0.048181437
217	0x3e19d865	0.15023954
218	0xbf550ee4	-0.83225846
219	0xbe302abf	-0.17203806
220	0x3f1f849c	0.6231172
221	0xbd66e818	-0.056373686
222	0x3f3c244e	0.73492897
223	0x3e759cb3	0.23985557
224	0xbcdb9b99	-0.026807593
225	0x3db8b129	0.090181656
226	0x3e7630f6	0.24042115
227	0x3e8c2a75	0.27376142
228	0xbf9d8e8a	-1.2309124
229	0x3f143ca8	0.57905054
230	0xbf271249	-0.65262276
231	0xbf3f1e3d	-0.74655515
232	0x3f3a5b13	0.7279522
233	0x3eec105d	0.46106234
234	0x3cef76d7	0.029231472
235	0x3ed22287	0.41041967
236	0xbebd01f5	-0.36915556
237	0x3ebf8525	0.3740627
238	0xbe06aa09	-0.13150801
239	0xbd6039ae	-0.054742508
240	0x3f9b0996	1.21123
241	0x3ef5b309	0.47988155
242	0x3eaf4f9e	0.3424043
243	0xbedc5579	-0.4303396
244	0x3f766eab	0.96262616
245	0x3e241146	0.16022214
246	0xbd9c32cd	-0.07626877
247	0xbe1dc9a5	-0.15408953
248	0xbe588abb	-0.21146671
249	0x3f2429dd	0.6412638
250	0xbe1c6441	-0.15272619
251	0xbdbe9ef1	-0.093076594
252	0x3f2e7af3	0.68156356
253	0x3fe55c20	1.7918739
254	0x3faec0cf	1.365259
255	0xbee975fe	-0.45597833

critic.v_net.fcs.0.bias f4 [128]
0	0xbd90be62	-0.07067563
1	0xbf83dc3e	-1.0301588
2	0xbebe78f5	-0.37201658
3	0x3ecacfd0	0.39611673
4	0xbf519441	-0.8186684
5	0xbeeef231	-0.46669152
6	0x3ede38a8	0.434026
7	0xbeeb8d4d	-0.4600624
8	0xbf85b197	-1.0444821
9	0xbd9ef46f	-0.07761466
10	0x3f8939d1	1.0720769
11	0x3ed5a960	0.41730785
12	0x3eb407c8	0.35162187
13	0xbf8b6fbd	-1.0893475
14	0x3ef5b06a	0.47986156
15	0xbed157af	-0.4088721
16	0x3f41fcdc	0.7577646
17	0xbf392007	-0.72314495
18	0x3e7495ba	0.23885241
19	0xbfa296a8	-1.2702227
20	0xbd233b8b	-0.039851706
21	0x3f1c3895	0.6102384
22	0x3f6eb3b0	0.9324293
23	0xbfb02e7d	-1.3764187
24	0xbf4bd52e	-0.7962216
25	0xbe4d8c37	-0.20073019
26	0xbe999c1b	-0.30001912
27	0xbe05c64d	-0.13063927
28	0xbfc4836c	-1.5352607
29	0x3f92fb2f	1.1482905
30	0xbf0d53c5	-0.5520595
31	0x3f455bc0	0.77093124
32	0xbde1ba25	-0.110218324
33	0x3d0476bf	0.032339808
34	0x3f19d74e	0.60094154
35	0xbf87c3e0	-1.0606651
36	0x3e850d1a	0.25986558
37	0xbed01d86	-0.40647525
38	0x3e21a23b	0.15784542
39	0x3fab1d2c	1.3368278
40	0xbf3e4569	-0.7432466
41	0xbf3ba5fa	-0.73300135
42	0x3e56cbf0	0.20976233
43	0xbb91977c	-0.004443107
44	0x3f8d799d	1.1052738
45	0x3e25c015	0.16186555
46	0x3ef4ebca	0.47836143
47	0xbe6176e5	-0.22018011
48	0xbdb440c6	-0.08801417
49	0xbec56576	-0.3855397
50	0xbee4404d	-0.44580308
51	0xbf8d11ad	-1.1021019
52	0xbf73c17b	-0.952171
53	0x3f2b9b2d	0.67033654
54	0xbdd89846	-0.10575919
55	0xbf3e0f30	-0.74241924
56	0x3e31c5df	0.17360638
57	0x3fbcb820	1.474369
58	0xbcc6cd24	-0.02426774
59	0xbeda258c	-0.4260677
60	0xbf4adecb	-0.79246205
61	0xbefb16bd	-0.49040785
62	0x3f0a3056	0.53980005
63	0x3eea26c1	0.45732692
64	0xbd8fb3e8	-0.07016736
65	0xbe9829f9	-0.29719523
66	0xbe3cb5a7	-0.1842867
67	0xbc9a14a7	-0.018808676
68	0xbe89e3f7	-0.26931736
69	0x3d956506	0.07294659
70	0xbeb4ca21	-0.35310462
71	0xbf1dd98a	-0.61660063
72	0xbf9c5951	-1.2214757
73	0xbf266a5d	-0.6500605
74	0x3ea7ffe4	0.32812417
75	0x3ebb61ed	0.3659815
76	0xbf8d4cb6	-1.1039035
77	0xbf8f1b94	-1.1180291
78	0xbe90496b	-0.28181013
79	0xbf912186	-1.1338356
80	0xbdaabe77	-0.083371095
81	0xbeff0f73	-0.49816474
82	0x3ef24ee2	0.47325808
83	0x3ee3508f	0.443974
84	0x3eff0a15	0.4981238
85	0xbf6f7fa6	-0.9355415
86	0xbdd3a8f8	-0.103349626
87	0x3f44c422	0.76861775
88	0x3f983b44	1.1893086
89	0xbf8d33e8	-1.1031466
90	0xbf99a6c0	-1.2004013
91	0x3f9bcc57	1.2171735
92	0xbf3a9e4f	-0.7289781
93	0xbe3a7065	-0.18206938
94	0xbf8aabbb	-1.0833658
95	0xbe93d2fd	-0.2887191
96	0x3f1cfb46	0.6132091
97	0xbdd1a0f0	-0.102357745
98	0xbf023b32	-0.50871575
99	0x3e779804	0.24179083
100	0x3f1939fa	0.5985409
101	0x3f2fef3b	0.6872441
102	0xbf9b5aa9	-1.2137042
103	0xbebac798	-0.36480403
104	0x3ecd406c	0.40088212
105	0x3f34f6de	0.7068919
106	0xbf69c146	-0.91310537
107	0x3f3dcd14	0.7414105
108	0xbf89bab0	-1.0760098
109	0xbe75aa55	-0.23990758
110	0xbe6d5035	-0.23175128
111	0x3e6c8b15	0.2309993
112	0xbf3e0802	-0.7423097
113	0xbf3db2a1	-0.7410069
114	0xbf44f627	-0.769381
115	0xbf278770	-0.65441036
116	0xbe06a480	-0.1314869
117	0xbe07d24d	-0.13263817
118	0xbde8e634	-0.11372033
119	0x3e0037c6	0.12521276
120	0x3e0beb02	0.13663867
121	0xbf2ad333	-0.66728514
122	0xbf0d8523	-0.55281276
123	0x3eb1a5da	0.34696847
124	0x3f8cb018	1.099124
125	0xbf02d214	-0.51101804
126	0xbef9b361	-0.48769668
127	0x3f7ad876	0.97986543

critic.v_net.fcs.1.weight f4 [128, 128]
0	0x3eb6fa60	0.35737896
1	0x3f10b39b	0.56524056
2	0x3e27b8fd	0.16379161
3	0xbdfa3f6b	-0.12219127
4	0x3f007462	0.50177586
5	0x3e586d9e	0.21135566
6	0xbe098fa7	-0.13433705
7	0x3f4271dd	0.7595499
8	0x3f60ed4a	0.87862074
9	0xbe8d5475	-0.27603498
10	0xbf2ce15e	-0.67531383
11	0x3cb89a3f	0.022534488
12	0xbf21fd49	-0.6327711
13	0xbd410183	-0.047120582
14	0xbee14987	-0.4400141
15	0x3f398044	0.7246134
16	0xbd9848b5	-0.07435743
17	0x3f1f251f	0.6216602
18	0xbf4c0045	-0.7968791
19	0x3d9bf0cf	0.0761429
20	0x3e80af69	0.25133827
21	0xbea6fac3	-0.3261319
22	0xbf319174	-0.6936257
23	0x3f21238d	0.6294487
24	0x3e5baf2b	0.2145354
25	0x3ed32a1d	0.41243067
26	0x3e0bba30	0.13645244
27	0xbe03a676	-0.12856469
28	0x3f4100db	0.7539193
29	0xbe94216c	-0.2893175
30	0x3edbaf5f	0.42907235
31	0xbf90ccea	-1.1312535
32	0xbcbf8ddf	-0.02338308
33	0xbeda86b6	-0.426809
34	0xbe13bb25	-0.14426859
35	0x3d882b31	0.06648863
36	0x3f0ba558	0.5454917
37	0x3ed927c1	0.42413142
38	0x3e795367	0.24348222
39	0xbf2e7702	-0.6815034
40	0x3f4689c7	0.7755398
41	0x3f231604	0.6370547
42	0xbe196e35	-0.14983447
43	0x3ea48ca8	0.32138562
44	0xbeb12bf7	-0.34603855
45	0xbf352422	-0.7075826
46	0xbf1ace14	-0.604707
47	0xbe34dd16	-0.17662463
48	0xbeae3606	-0.34025592
49	0xbe96a91e	-0.294259
50	0xbe87e2d5	-0.26540247
51	0x3e832410	0.2561345
52	0xbe031253	-0.12799959
53	0xbe2dfb0b	-0.16990297
54	0x3ea63f13	0.32469997
55	0x3e1b6353	0.15174608
56	0xbe75e662	-0.24013665
57	0xbf9450a2	-1.1587107
58	0xbe59cbde	-0.21269175
59	0x3e2935bc	0.16524404
60	0x3f3e268d	0.74277574
61	0xbe611714	-0.2198146
62	0xbe66f2be	-0.22553536
63	0xbe035e72	-0.12828997
64	0x3eeedd2a	0.4665311
65	0x3e49bf16	0.197018
66	0x3e9705f6	0.29496735
67	0xbdd3d7e5	-0.10343913
68	0x3f039762	0.51402867
69	0xbe52f810	-0.20602441
70	0xbd92aa65	-0.071614064
71	0xbd0883ea	-0.033328928
72	0x3f57d6a2	0.8431188
73	0x3e07aa90	0.13248658
74	0xbe51a84f	-0.20474361
75	0xbe0304f8	-0.12794864
76	0x3f898949	1.0745021
77	0x3eddffe9	0.43359306
78	0x3eef300b	0.4671634
79	0x3f763788	0.96178484
80	0xbe6e3e16	-0.23265871
81	0x3eda3c6e	0.4262423
82	0xbc047d17	-0.008086464
83	0xbe842633	-0.25810394
84	0xbecb6aa0	-0.39729786
85	0x3ec336e0	0.38127804
86	0x3e82c398	0.2553985
87	0xbf0070fa	-0.5017239
88	0xbf7ccca5	-0.9874976
89	0x3f968afc	1.1761165
90	0x3ecf61c7	0.40504286
91	0xbcc65ebb	-0.024215093
92	0x3f021aa1	0.5082188
93	0xbd8a1fa2	-0.06744315
94	0x3ea178d9	0.31537512
95	0x3f001239	0.50027806
96	0xbf04b769	-0.5184236
97	0xbec11fa0	-0.3771944
98	0x3d7cd469	0.061726008
99	0x3d813ebf	0.06310796
100	0xbdd2b6fc	-0.10288808
101	0xbec8ec1a	-0.3924263
102	0x3ebc017e	0.36719888
103	0x3eacb3e9	0.3373101
104	0xbed49401	-0.41519168
105	0xbefee4ba	-0.4978388
106	0x3ee3dee7	0.44505998
107	0xbe43f6db	-0.19137137
108	0x3e49894a	0.19681278
109	0xbe8c0c86	-0.27353305
110	0xbed8f3e2	-0.42373568
111	0xbe86a7e7	-0.26299974
112	0x3f920170	1.1406689
113	0x3ee4fee7	0.44725725
114	0x3e0ea20c	0.13929003
115	0x3f886053	1.0654396
116	0x3d534553	0.051579785
117	0x3f4539e7	0.77041477
118	0xbe34b53c	-0.1764726
119	0xbd33a00b	-0.0438538
120	0xbe04ee29	-0.12981476
121	0x3bc33d07	0.0059582028
122	0x3e1ae913	0.15127973
123	0xbd6b1165	-0.057389636
124	0xbe98e342	-0.29860884
125	0x3ee7b946	0.4525854
126	0xbbb55ddb	-0.00553487
127	0xbf8f7691	-1.1208059
128	0x3e829c08	0.25509667
129	0xbf1bdb5c	-0.6088159
130	0xbe0626e0	-0.13100767
131	0xbf25b492	-0.64728653
132	0x3ed7c95f	0.4214582
133	0x3f16e985	0.5895007
134	0x3ee9d94f	0.45673606
135	0x3f6297d3	0.88512915
136	0x3ed074ff	0.4071426
137	0xbf1790ba	-0.5920521
138	0x3eccd302	0.40004736
139	0xbdf8c412	-0.121467724
140	0x3cca5be0	0.024702013
141	0xbf1f691d	-0.62269765
142	0xbee2b7d2	-0.4428087
143	0xbf0b6b4c	-0.544606
144	0xbea7a247	-0.32740995
145	0xbdf877d9	-0.12132234
146	0xbf085c9e	-0.5326632
147	0xbf380460	-0.71881676
148	0x3eb655ae	0.35612243
149	0x3f145bad	0.57952386
150	0xbf310235	-0.6914399
151	0xbdd43bdd	-0.103629805
152	0x3f01bd9a	0.50679934
153	0xbdefc7a6	-0.11708002
154	0xbf85a723	-1.0441631
155	0x3ec09a1e	0.37617582
156	0x3e3fc178	0.18726146
157	0x3e18249e	0.14857718
158	0xbc0b255e	-0.008492796
159	0x3e0917c7	0.13387977
160	0x3d8df088	0.06930643
161	0xbf83254f	-1.0245761
162	0xbf3ff6ef	-0.74986166
163	0xbef95f2e	-0.4870543
164	0x3f14e5f0	0.58163357
165	0xbd72f0a6	-0.05931153
166	0x3f533dad	0.82515985
167	0xbe2bb5e9	-0.16768612
168	0x3e8d59b6	0.27607507
169	0xbe0a2f50	-0.13494611
170	0xbd344a49	-0.044016156
171	0xbf300251	-0.68753535
172	0x3e0d72a2	0.1381326
173	0xbe57fb0b	-0.21091859
174	0xbf4b88c8	-0.79505587
175	0xbf016b86	-0.5055469
176	0xbe5eebaf	-0.21769594
177	0x3ea9ea96	0.33186787
178	0xbfb28674	-1.3947282
179	0xbf80de21	-1.0067788
180	0xbef73bc6	-0.4828779
181	0x3e893a6d	0.26802388
182	0x3f6af139	0.91774327
183	0x3eb3b974	0.35102427
184	0x3d8f07b9	0.06983895
185	0xbe71f299	-0.236277
186	0x3e6aaa28	0.22916472
187	0xbefd9ce9	-0.49533775
188	0x3ec38a65	0.38191524
189	0xbead2da9	-0.33823898
190	0x3c869e49	0.016432898
191	0x3e82de47	0.2556021
192	0xbdf31ad5	-0.11870352
193	0x3eaabfeb	0.33349547
194	0x3d133c19	0.035945985
195	0xbe55fa44	-0.2089625
196	0xbc9a497a	-0.018833864
197	0x3f17b077	0.5925364
198	0x3ee90f10	0.45519304
199	0xbf3fbf81	-0.74901587
200	0xbecb1873	-0.3966709
201	0x3f113dcf	0.5673494
202	0xbe126b49	-0.14298739
203	0xbdada2e1	-0.08478332
204	0x3f37e251	0.71829706
205	0xbecb2130	-0.39673758
206	0xbeba3890	-0.3637128
207	0x3f34dd92	0.7065059
208	0x3cc16ee6	0.02361245
209	0xbf1c5dda	-0.61080706
210	0xbeac47de	-0.3364858
211	0x3f12d068	0.5734925
212	0xbf40fd00	-0.7538605
213	0x3ee76ebb	0.45201668
214	0x3f9fa7c3	1.2473072
215	0xbe79feb4	-0.24413568
216	0xbed7cc2b	-0.42147955
217	0x3d08cabb	0.033396464
218	0xbe7d1dd8	-0.24718416
219	0x3f808cd4	1.0042977
220	0x3eaa3de0	0.33250332
221	0x3db03852	0.08604492
222	0xbd5a8f31	-0.053359214
223	0x3eba48a4	0.36383545
224	0x3f062a83	0.5240862
225	0xbf4da123	-0.80324
226	0xbeed9b0b	-0.4640735
227	0x3f8568e8	1.042264
228	0xbeb85926	-0.36005515
229	0xbe2d2b7f	-0.16911124
230	0xbf046086	-0.51709783
231	0xbf1221db	-0.5708291
232	0x3ec81a51	0.39082578
233	0xbeec5f8c	-0.46166646
234	0x3f53823b	0.8262059
235	0xbe9c08ab	-0.30475363
236	0xbf7771f8	-0.9665828
237	0xbf6de8a1	-0.9293309
238	0xbe9d0795	-0.30669847
239	0xbf36dcee	-0.7143086
240	0x3f02a84c	0.5103805
241	0x3c702b7f	0.014658808
242	0xbec6b77c	-0.38811862
243	0x3efd8e85	0.49522796
244	0x3e9964eb	0.29959807
245	0x3f8af5ca	1.0856259
246	0xbe054f94	-0.13018638
247	0x3f59091e	0.84779537
248	0x3f607783	0.8768236
249	0xbea60c7b	-0.32431397
250	0xbef4bba7	-0.47799417
251	0xbe60e36f	-0.21961759
252	0x3f4864b3	0.78278655
253	0x3eb88a0c	0.3604282
254	0x3caaf554	0.020868935
255	0x3db48fef	0.08816516

critic.v_net.fcs.1.bias f4 [128]
0	0xbeee1b4e	-0.46505207
1	0xbc62f318	-0.013851903
2	0xbea872cd	-0.32900086
3	0xbcaa9503	-0.020823007
4	0x3e4567f6	0.19277939
5	0x3d4fce3d	0.050733794
6	0xbeaa5ae7	-0.33272478
7	0x3e81019b	0.25196537
8	0xbecb0163	-0.39649495
9	0xbd84ddc6	-0.064876124
10	0x3cb89640	0.022532582
11	0xbe843985	-0.25825134
12	0xbe366370	-0.1781137
13	0x3e70a950	0.23502088
14	0x3df71656	0.12064807
15	0xbe6dcef5	-0.23223479
16	0xbebf12ba	-0.37318975
17	0x3d55d9df	0.05220973
18	0xbefeec1d	-0.49789515
19	0x3ea8d99b	0.3297852
20	0x3ec066f3	0.37578544
21	0x3b825bac	0.0039782133
22	0xbef30bc8	-0.47469926
23	0xbe4939b6	-0.19650921
24	0x3e3c237a	0.18372908
25	0x3ec7dc58	0.39035296
26	0xbec80655	-0.3906733
27	0x3d6f3a6b	0.05840532
28	0x3e9b8d19	0.30381086
29	0xbe99f398	-0.3006866
30	0x3ea0a27b	0.31373963
31	0x3e150bb8	0.14555252
32	0x3e059c4b	0.13047902
33	0x3efc96e9	0.49333885
34	0xbebbfff8	-0.36718726
35	0xbe18dc57	-0.14927803
36	0x3ea7a2d9	0.3274143
37	0x3bded721	0.0068005477
38	0x3e85f47a	0.26163083
39	0x3f0ca0c2	0.54932797
40	0xbd91feae	-0.071286544
41	0x3d819c56	0.06328647
42	0x3e9c7451	0.30557492
43	0x3e5b1bc1	0.21397306
44	0xbe4bab11	-0.19889475
45	0xbed85adf	-0.4225683
46	0x3d0ef66d	0.03490298
47	0x3e23880b	0.15969865
48	0xbef7731e	-0.48330015
49	0x3d4c2081	0.049835686
50	0x3dde3e59	0.108517356
51	0xbe2f4986	-0.1711789
52	0x3da6fb4b	0.08153399
53	0xbe2f304f	-0.17108272
54	0x3f37d8a9	0.7181497
55	0xbee251a0	-0.442029
56	0xbf03638c	-0.5132377
57	0xbed512a6	-0.4161579
58	0x3e733396	0.23750147
59	0x3c864c30	0.01639375
60	0x3eb9c0ed	0.36280003
61	0xbedd3347	-0.43203184
62	0xbe68a249	-0.22718157
63	0xbea564c7	-0.3230345
64	0xbf5bdcf0	-0.85884
65	0x3e29fb89	0.1659986
66	0xbe2923d3	-0.16517572
67	0x3debbd8e	0.11510764
68	0xbe98979f	-0.29803178
69	0x3f02cf05	0.51097137
70	0xbcdbd799	-0.026836203
71	0xbe587ff6	-0.21142563
72	0xbc817c98	-0.015806481
73	0x3e58459f	0.21120308
74	0x3ea71713	0.32634792
75	0x3e309afd	0.17246623
76	0xbdf74037	-0.12072795
77	0xbe3a6cdf	-0.18205594
78	0xbec33c54	-0.38131964
79	0xbe62d43b	-0.22151272
80	0x3e3275c4	0.17427737
81	0xbdc7515e	-0.097323164
82	0x3efced05	0.49399582
83	0xbed2cf10	-0.411736
84	0x3eaeaa28	0.34114194
85	0x3d4dbca1	0.05022872
86	0x3ec39fb3	0.38207778
87	0x3ddb7343	0.10715344
88	0x3ada02f8	0.0016632965
89	0xbcdf19c0	-0.027233958
90	0xbeb1bd8e	-0.3471493
91	0x3ae578f3	0.0017507359
92	0x3e787276	0.24262413
93	0x3eacde4c	0.3376335
94	0xbec44588	-0.38334298
95	0xbe3cc96d	-0.18436213
96	0xbefa180b	-0.48846468
97	0xbd33f700	-0.04393673
98	0xbe933763	-0.28753194
99	0xbf2b4d75	-0.66915065
100	0x3e6c4640	0.23073673
101	0xbee17c85	-0.44040313
102	0xbdeb9f2d	-0.1150497
103	0xbc86c7e0	-0.01645273
104	0x3e716540	0.2357378
105	0x3c40b378	0.011761539
106	0x3e75bae3	0.23997073
107	0x3e8f72b7	0.28017208
108	0x3e6ea5ed	0.23305483
109	0xbec74a59	-0.3892391
110	0xbdf35f4e	-0.11883412
111	0xbeb03cb1	-0.34421304
112	0x3a9483eb	0.0011330819
113	0x3e806a89	0.2508128
114	0xbdbb0b32	-0.09132995
115	0xbdd644ea	-0.10462363
116	0xbe60c762	-0.21951059
117	0xbed51400	-0.4161682
118	0x3eddfdfa	0.4335783
119	0xbde8a4ac	-0.11359534
120	0x3e04111a	0.12897149
121	0xbeb709ca	-0.35749656
122	0x3e2c6401	0.16835023
123	0xbe627f48	-0.22118866
124	0x3e01cd64	0.12676007
125	0x3e2bb3f6	0.16767868
126	0x3d5d1d7f	0.053983208
127	0x3eb6c6ad	0.35698453

critic.v_net.fcs.2.weight f4 [1, 128]
0	0xbf2d053a	-0.675861
1	0x3f877007	1.0581063
2	0x3fec7d0f	1.8475665
3	0x3f2b5f7b	0.66942567
4	0x3fa34b1e	1.2757299
5	0xbfce79af	-1.6130885
6	0x3f89bb4f	1.0760287
7	0x3f846a1b	1.0344881
8	0x3fdbfd31	1.7186643
9	0x3fc2989d	1.5202824
10	0xbf7253d1	-0.94659144
11	0xbfe61c0d	-1.797731
12	0x3f9773d9	1.1832229
13	0xc0135317	-2.3019464
14	0xbf78fe12	-0.9726268
15	0xbf2e1f5f	-0.6801662
16	0xbff3a46c	-1.9034553
17	0xbf8e6269	-1.1123782
18	0xbee12192	-0.43970925
19	0x3f4b2039	0.7934604
20	0xbf5ac3c4	-0.85454965
21	0xbf654417	-0.8955702
22	0xbfdeecce	-1.7416017
23	0xbf80c7ac	-1.0060935
24	0xbfa2a156	-1.2705486
25	0x3f8f86f5	1.1213061
26	0xbf684f4f	-0.90746015
27	0x3dc4d382	0.096106544
28	0xbf855f97	-1.0419797
29	0xbf3cdb81	-0.73772436
30	0xbfccd92c	-1.6003776
31	0x3f4a333a	0.78984416
32	0x3f942894	1.1574883
33	0xbfcd840e	-1.6055925
34	0x3f42acba	0.7604481
35	0x3fb6fc6c	1.4295783
36	0xbfc84c56	-1.5648296
37	0x3ea7ec8d	0.3279766
38	0x3fb307fa	1.3986809
39	0x3f836261	1.0264398
40	0xbf66e602	-0.90194714
41	0x3f536fdf	0.82592577
42	0xbfdd983e	-1.7312086
43	0x3fa48ac5	1.2854849
44	0xbf87a37b	-1.0596765
45	0xbf8707c5	-1.0549246
46	0xbf1b6b21	-0.6071034
47	0xbf576eb2	-0.8415328
48	0x3ff82bd6	1.9388378
49	0x3f8c63ba	1.0967934
50	0xc00fd64b	-2.2474544
51	0xbf7383a4	-0.9512274
52	0x3f3cdc50	0.7377367
53	0xbfdc5a46	-1.7215049
54	0xbfe6f6d1	-1.8044072
55	0xbfbc22d0	-1.4698124
56	0x3fa4277c	1.282455
57	0x3fe9ccea	1.826566
58	0xbfd458d8	-1.6589613
59	0xbfbc743b	-1.4722971
60	0x3ef91e64	0.48656
61	0xbf182872	-0.59436715
62	0xbf344f66	-0.7043365
63	0xc003b385	-2.057832
64	0x3fde7afb	1.7381281
65	0x3fb2a86b	1.3957647
66	0xbf8cfad5	-1.1014048
67	0x3fd089d9	1.6292068
68	0x3ffe0d0b	1.984773
69	0xbfffa81d	-1.9973179
70	0x3f8c8c76	1.0980365
71	0x3fa6c3dd	1.3028523
72	0x3f8746c5	1.0568472
73	0x3f92c2f5	1.1465746
74	0x3f626e4f	0.8844957
75	0x3fae2e30	1.3607845
76	0xbfa49213	-1.2857078
77	0x3f6b30d3	0.91871375
78	0x401aa056	2.4160361
79	0x3e589981	0.21152307
80	0x3f65a603	0.8970644
81	0xbf9a4d24	-1.2054791
82	0xbf5f4855	-0.87219745
83	0xbfca7c46	-1.5819175
84	0x3f18e33b	0.59721726
85	0xbf85f69a	-1.0465882
86	0x3f758a1e	0.95913875
87	0xbfc5ab1d	-1.5442845
88	0xbf2776ba	-0.6541554
89	0xbff652b9	-1.9243995
90	0x401755e5	2.3646176
91	0xbee1fb6b	-0.4413713
92	0xbf339a5d	-0.70157415
93	0x3f5e54b0	0.8684797
94	0xbfa33e09	-1.2753307
95	0xbf6f5d67	-0.93501896
96	0x4004f115	2.0772145
97	0xbf7a78fb	-0.9784085
98	0xbf9bc999	-1.2170898
99	0x3f879d27	1.0594834
100	0xc00c2fb5	-2.1904118
101	0x400c3770	2.1908836
102	0xbd941509	-0.07230575
103	0x3f4dfcdd	0.80463964
104	0x3fe02834	1.7512269
105	0x3f5a2c0b	0.85223454
106	0xbfbd9f1c	-1.4814181
107	0x3fc3b096	1.5288265
108	0x3fc83299	1.5640441
109	0xbf8441d1	-1.0332586
110	0x3faade58	1.3349104
111	0x3fa36649	1.276559
112	0x3ee6e335	0.4509522
113	0xbfe0bb8c	-1.7557235
114	0x3f9c6a63	1.2219967
115	0xbf888d3d	-1.0668103
116	0x3fb504ef	1.4142131
117	0xbff97ed6	-1.9491832
118	0xbf8c3803	-1.0954593
119	0xbf34c23b	-0.7060887
120	0x3e8d09c1	0.27546504
121	0xbea9987c	-0.3312415
122	0x3f8658f7	1.04959
123	0x3f2d073a	0.6758915
124	0xbef5f3bc	-0.48037517
125	0x3f2d9909	0.6781164
126	0x3fa45d1b	1.2840914
127	0x3f72c39c	0.94829726
