examples/rl/models/safe_explorer_ppo/safe_explorer_ppo_model_quadrotor_2D_stab.pt (torch, 684795 bytes, 180 tensors)

actor.logstd f4 [2]
-0.7536332 -0.8831444
00000000: 1bee 40bf c015 62bf

actor.pi_net.fcs.0.weight f4 [128, 6]
0.30880064 -0.35686412 -0.18861014 0.2846092 0.18811293 -0.02110105 -0.27465376 -0.10729927
0.26773408 0.35603455 0.36786598 -0.07814339 -0.032406937 -0.22397453 0.16595258 -0.11568199
-0.8502572 -0.21899915 0.05424844 0.083469294 0.20693201 0.039668802 -0.116376214 -0.16856404
0.18531844 -0.27756676 -0.019407598 0.36330056 -0.5618772 0.0029807724 -0.113459915 -0.115880005
-0.11062476 0.21877149 0.19582355 0.31596205 0.07071459 -0.21798871 -0.06907955 0.26981848
-0.69253254 -0.45408237 0.083399355 0.46475813 0.09554389 -0.23374727 0.7149073 0.23914379
0.25324276 -0.056708068 0.1644913 -0.20422366 -0.56466436 0.0715496 0.15182243 -0.06601192
-0.27370447 -0.25525486 -0.2605038 0.08351134 0.16441917 0.060566388 0.28569838 -0.0058245123
-0.20037046 -8.920317e-06 -0.42221355 0.34587386 0.34569559 0.053264767 0.0923364 0.05876502
-0.40723446 0.28679064 0.19783832 -0.016029002 -0.1229517 -0.19434425 0.37065184 0.19780456
-0.34242302 -0.11324253 -0.21607913 -0.3138377 0.11996121 0.19578442 -0.13958307 -0.36937818
0.13139871 0.25395486 0.088158816 -0.41625503 -0.006777434 0.15770008 -0.8004089 -0.5817123
0.21265371 0.36400828 -0.08328851 -0.45287386 -0.22625978 0.10164128 -0.24672046 0.32830703
-0.13819328 0.19584551 -0.12869294 0.086810805 -0.22390984 -0.24644479 0.22346914 -0.01714273
-0.53087914 0.20241283 0.08255328 0.22066349 0.014017108 -0.10692288 0.671627 0.48745525
0.0315359 0.44541886 0.05624021 -0.4297745 0.057830762 0.20417152 0.043037828 0.40646088
-0.17307997 -0.11035677 0.4672838 -0.060729533 0.12204921 0.31378126 0.34535992 -0.18146291
0.3106857 -0.14340673 -0.10776892 0.21288845 0.09765133 -0.10705313 -0.43445984 0.013634799
0.21414158 -0.23781092 0.3530023 0.020521656 0.33828142 0.112440534 -0.04648151 -0.13281538
-0.18324745 0.39363417 -0.651919 -0.25699857 -0.4061174 -0.51468015 0.08803321 0.17532557
-0.85233027 -0.42396167 0.23239312 -0.2966123 0.17657872 -0.00016985417 0.2340375 -0.0077740643
0.30002865 -0.11413669 -0.29392284 -0.24686237 0.3513786 -0.0016192124 0.11205088 0.109873466
-0.4202346 0.35291886 -0.10736622 -0.28229448 -0.29949674 -0.035763998 0.07775397 -0.21439748
0.17452234 -0.31444573 0.28786203 0.3426651 -0.2577406 -0.31256357 0.3804026 -0.10979916
0.08805563 0.009720359 -0.10693997 -0.17153421 -0.5415668 0.048482105 -0.06229632 0.1559992
-0.18448864 -0.30717048 -0.04969731 -0.29318812 0.24928643 0.36495757 -0.32613403 -0.27511424
0.13382901 -0.077393614 -0.2944397 0.3408858 -0.045521755 -0.42681038 0.18797195 0.56167936
-0.16245729 -0.28823557 -0.23319846 -0.05727817 -0.32335445 -0.3379851 -0.016287304 0.40979138
0.006559903 0.2850608 0.43200034 0.30850133 0.13534157 0.35136777 0.06797194 -0.39730445
0.36792645 -0.15124926 -0.3078758 0.3367354 -0.06095633 -0.0064688204 -0.16053578 0.01048657
0.019525515 0.49996698 -0.21317872 0.33403957 0.3549804 0.29920253 -0.13053338 -0.09624428
0.23868294 0.07226617 -0.027565941 0.17422248 0.2001717 -0.4087887 0.3273682 -0.36431542
00000000: 1e1b 9e3e e5b6 b6be 0423 41be 4cb8 913e
00000010: ada0 403e 1cdc acbc 6b9f 8cbe b8bf dbbd
00000020: 7114 893e 294a b63e ee58 bc3e a409 a0bd
00000030: 23bd 04bd 9459 65be 79ef 293e aeea ecbd
00000040: 75aa 59bf 5041 60be 9d33 5e3d f3f1 aa3d
00000050: fce5 533e c17b 223d a756 eebd 0d9c 2cbe
00000060: 1ec4 3d3e 3b1d 8ebe affc 9ebc 8802 ba3e
00000070: 2fd7 0fbf 1059 433b ac5d e8bd 7f52 edbd
00000080: 3c8f e2bd a205 603e f885 483e c7c5 a13e
00000090: d0d2 903d 6f38 5fbe 9479 8dbd a625 8a3e
000000a0: d049 31bf 7c7d e8be 48cd aa3d c7f4 ed3e
000000b0: 84ac c33d 725b 6fbe 2a04 373f 1ce2 743e
000000c0: 09a9 813e b846 68bd 6870 283e 0220 51be
000000d0: d88d 10bf 9988 923d 5777 1b3e 4231 87bd
000000e0: fe22 8cbe c4b0 82be c160 85be fe07 ab3d
000000f0: 805d 283e 7614 783d 0f47 923e 8ddb bebb
00000100: ea2d 4dbe 78a8 15b7 602c d8be 6116 b13e
00000110: 03ff b03e 282c 5a3d de1a bd3d 97b3 703d
00000120: 0981 d0be 39d6 923e 2196 4a3e 414f 83bc
00000130: 1ace fbbd 2e02 47be 14c6 bd3e 478d 4a3e
00000140: 1252 afbe b3eb e7bd d943 5dbe 56af a0be
00000150: 39ae f53d b67b 483e ddee 0ebe 231f bdbe
00000160: 628d 063e 5f06 823e 9c8c b43d 611f d5be
00000170: 3d15 debb 217c 213e 99e7 4cbf 19eb 14bf
00000180: e5c1 593e 4b5f ba3e 2b93 aabd 15df e7be
00000190: a5b0 67be 4e29 d03d 4aa4 7cbe dc17 a83e
000001a0: 8a82 0dbe ba8b 483e 15c8 03be ddc9 b13d
000001b0: 9f48 65be 065c 7cbe 18d5 643e e96e 8cbc
000001c0: b2e7 07bf 4f45 4f3e b211 a93d 9cf5 613e
000001d0: 03a8 653c 62fa dabd bfef 2b3f bc93 f93e
000001e0: ca2b 013d f10d e43e 225c 663d 670b dcbe
000001f0: f3df 6c3d 5712 513e 6f48 303d a41b d03e
00000200: e03b 31be bb02 e2bd d23f ef3e 88bf 78bd
00000210: f0f4 f93d f0a7 a03e 04d3 b03e 6ad1 39be
00000220: 3212 9f3e 37d9 12be f4b5 dcbd 6eff 593e
00000230: 6cfd c73d ac3e dbbd 8571 debe 7e64 5f3c
00000240: ee47 5b3e b584 73be b8bc b43e 081d a83c
00000250: 3933 ad3e 3947 e63d 6563 3ebd c100 08be
00000260: 38a5 3bbe 6b8a c93e 2ae4 26bf 5195 83be
00000270: 9fee cfbe 14c2 03bf c14a b43d 8c88 333e
00000280: 5132 5abf 8111 d9be 76f8 6d3e 91dd 97be
00000290: 0dd1 343e e21a 32b9 87a7 6f3e 94bd febb
000002a0: 5b9d 993e 7fc0 e9bd 0e7d 96be 7dc9 7cbe
000002b0: e5e7 b33e c13b d4ba ef7a e53d 5705 e13d
000002c0: fd28 d7be c8b1 b43e d2e2 dbbd e788 90be
000002d0: a357 99be 457d 12bd 793d 9f3d 038b 5bbe
000002e0: fcb5 323e 08ff a0be a762 933e cd71 af3e
000002f0: 93f6 83be 5508 a0be 21c4 c23e 62de e0bd
00000300: 8356 b43d 2442 1f3c 5803 dbbd aaa6 2fbe
00000310: 1fa4 0abf 2c95 463d 6d2a 7fbd 41be 1f3e
00000320: 97ea 3cbe 7345 9dbe 688f 4bbd c11c 96be
00000330: f144 7f3e b8db ba3e 0afb a6be c6db 8cbe
00000340: 790a 093e 8b80 9ebd cdc0 96be 9588 ae3e
00000350: 0575 3abd e486 dabe b87b 403e 38ca 0f3f
00000360: 345b 26be 9d93 93be 94cb 6ebe 849c 6abd
00000370: b78e a5be 620c adbe f46c 85bc 2dd0 d13e
00000380: 74f4 d63b 7df3 913e 262f dd3e e3f3 9d3e
00000390: fb96 0a3e 7ae6 b33e df34 8b3d 7d6b cbbe
000003a0: db60 bc3e 16e1 1abe e6a1 9dbe 9568 ac3e
000003b0: 58ad 79bd 66f8 d3bb 7e63 24be ddcf 2b3c
000003c0: f9f3 9f3c acfb ff3e 864b 5abe 3c07 ab3e
000003d0: febf b53e 1331 993e 8baa 05be b91b c5bd
000003e0: 4d69 743e 4900 943d f8d1 e1bc 6167 323e
000003f0: cff9 4c3e c14c d1be ce9c a73e 8d87 babe

actor.pi_net.fcs.0.bias f4 [128]
0.3529877 -0.11121612 -0.03280912 0.25449064 0.23632565 -0.04604516 0.084405735 -0.14600858
0.15189238 0.33650503 0.2602335 -0.3901529 0.2748771 -0.24032693 0.017379142 0.31127778
-0.15458018 -0.14136563 0.07756685 -0.018657932 -0.29052025 0.17747448 -0.12507999 0.006996261
-0.12674385 0.3479019 0.088244885 0.24618675 0.33382758 -0.31140372 0.30792305 -0.032621864
0.22666503 -0.030976212 0.19018686 -0.34760588 0.29029244 -0.29795507 -0.06515921 -0.2957766
0.23159078 -0.12243933 0.20031926 -0.24696161 -0.28928402 0.31143573 0.28300312 -0.01348444
-0.18255466 -0.29992944 0.06003728 0.009454867 0.36466345 0.34462732 -0.13022058 -0.19717678
0.09101849 0.07437949 0.035580464 -0.153497 -0.3859949 0.12543616 0.23475318 0.14030762
-0.263644 0.25757474 -0.16428444 -0.12624027 0.02582138 0.09800222 0.20625766 -0.11463721
-0.31096363 -0.29741365 -0.25068113 0.10641561 -0.08002981 -0.2649633 -0.20806454 0.3647394
-0.06708678 0.31641915 0.08144586 0.17309068 0.2891165 -0.3633304 -0.18622473 -0.20843916
0.35512397 -0.267141 -0.3820837 -0.061374202 -0.11696207 -0.019941092 -0.03831766 -0.13845083
-0.09691507 0.32025474 -0.31730005 -0.18691903 -0.06753031 -0.0960476 -0.08688599 -0.25616616
0.21180636 -0.04594283 0.12535761 -0.28210646 0.3386548 0.041778695 0.36934286 -0.086378396
-0.29390103 0.029434916 0.0672519 -0.30770612 0.002424889 -0.2864671 -0.3445527 0.32745364
0.3376865 -0.10142779 -0.046087094 -0.030816492 0.060478494 -0.24637705 -0.12396217 0.11794561
00000000: ceba b43e 47c5 e3bd db62 06bd 994c 823e
00000010: 5aff 713e da99 3cbd eadc ac3d 4683 15be
00000020: ad89 1b3e 634a ac3e 533d 853e 1fc2 c7be
00000030: b1bc 8c3e 4318 76be b45e 8e3c cd5f 9f3e
00000040: 444a 1ebe 27c2 10be 5edb 9e3d 85d8 98bc
00000050: 12bf 94be dfbb 353e f814 00be e440 e53b
00000060: 24c9 01be 3320 b23e bcb9 b43d 6118 7c3e
00000070: 73eb aa3e 4f70 9fbe 17a8 9d3e 819e 05bd
00000080: e11a 683e d3c1 fdbc 58c0 423e 66f9 b1be
00000090: 36a1 943e 918d 98be 3172 85bd 0870 97be
000000a0: 2226 6d3e 79c1 fabd 7e20 4d3e 81e3 7cbe
000000b0: 091d 94be 8174 9f3e c9e5 903e d7ed 5cbc
000000c0: 9cef 3abe 5a90 99be a7e9 753d 96e8 1a3c
000000d0: 2bb5 ba3e fe72 b03e 8b58 05be b6e8 49be
000000e0: e767 ba3d 4654 983d d2bc 113d 512e 1dbe
000000f0: 20a1 c5be 5672 003e 2363 703e cdac 0f3e
00000100: 59fc 86be d6e0 833e 2e3a 28be 2145 01be
00000110: 5c87 d33c 63b5 c83d 3535 533e eac6 eabd
00000120: a036 9fbe 9a46 98be 4759 80be 6df0 d93d
00000130: abe6 a3bd 45a9 87be df0e 55be 1fbf ba3e
00000140: cb64 89bd b101 a23e 16cd a63d af3e 313e
00000150: 1407 943e 7106 babe b2b1 3ebe 1371 55be
00000160: cfd2 b53e b5c6 88be 7aa0 c3be 8463 7bbd
00000170: cf89 efbd 805b a3bc fbf2 1cbd 0ec6 0dbe
00000180: 697b c6bd 6ef8 a33e 2775 a2be b467 3fbe
00000190: 554d 8abd 9bb4 c4bd 48f1 b1bd 3628 83be
000001a0: c4e3 583e 8d2e 3cbd bf5d 003e 4270 90be
000001b0: 2964 ad3e 2320 2b3d 821a bd3e 28e7 b0bd
000001c0: 327a 96be 7e21 f13c 5dbb 893d a88b 9dbe
000001d0: e3ea 1e3b d1ab 92be 3669 b0be 01a8 a73e
000001e0: 3fe5 ac3e 60b9 cfbd d2c5 3cbd de72 fcbc
000001f0: 4cb8 773d 444a 7cbe e1df fdbd 788d f13d

actor.pi_net.fcs.1.weight f4 [128, 128]
0.0631643 0.06229977 0.014966678 -0.06933367 -0.020806134 0.06346649 -0.044428926 0.023752183
0.08767673 0.039449908 0.11413628 0.007021194 -0.03055396 -0.030257128 0.04096226 -0.013057417
-0.0024409452 -0.013163595 0.07662486 0.023967696 -0.087413356 -0.06962708 0.06770439 0.07393644
-0.059931584 -0.037941583 0.090258494 0.09604777 -0.008136648 -0.08719694 0.040630296 -0.021840146
0.022445707 -0.117508344 -0.049893863 0.064590774 -0.023565758 0.074436985 -0.0032675131 0.05445399
0.015811399 -0.029561315 -0.08960042 0.08810493 0.0023062013 -0.025500577 -0.06721095 0.034370936
-0.040712047 -0.09753083 -0.028512793 -0.05703953 -0.031083364 -0.041081138 0.09574759 0.12345105
0.043086726 0.043251004 0.033544213 -0.04127494 0.028809896 -0.033889875 0.0585112 0.043059744
0.02178857 -0.07976997 -0.079642296 -0.09439582 0.0075550806 0.03752561 0.017342392 0.020166129
-0.04502365 0.0878197 -0.045520883 -0.06289894 -0.029899124 0.08266899 0.031344943 0.056144696
-0.022393364 0.061495665 -0.039623465 -0.0040368815 -0.058849584 0.006287207 0.025422394 -0.08331956
-0.043351416 0.088280156 0.022999259 0.06596067 0.057580054 0.07965165 0.018293437 0.054549117
0.06252106 -0.07017546 0.038488448 -0.0073811286 -0.024964577 0.08857105 0.09304684 0.05138388
0.04871242 0.08951231 0.06355553 0.07073071 0.06555149 0.009269194 0.00898762 0.09678073
-0.015780399 0.030129286 0.0067507057 0.07139859 0.03972496 0.08082393 0.08211079 0.031595275
0.060293697 0.0010046345 -0.051517725 -0.054790657 -0.06895559 -0.00092485093 0.029822411 0.064836904
0.065417916 0.0598816 -0.080147624 -0.056803674 0.07876024 0.074650355 -0.008118475 -0.0502407
-0.058886666 -0.05002507 -0.08666305 0.04427857 -0.03819071 -0.025145965 0.026146276 0.09419992
-0.015500117 0.0865767 -0.052924875 -0.022711435 -0.004911076 -0.0061152875 -0.07107817 -0.029509867
0.066273205 -0.030340003 0.052688178 0.00313699 0.09487591 0.112897456 0.004500106 -0.06526192
-0.010620702 -0.08171455 -0.065519765 0.05006162 -0.0012714725 -0.054631684 0.04811431 -0.025126785
-0.057376206 -0.03443189 0.039128948 0.07692702 -0.058166236 -0.06394058 -0.013993824 0.07437323
0.07546361 -0.016350573 0.016183686 0.047488622 0.030189214 0.09276838 0.08701234 -0.039984964
0.056372486 -0.026555404 0.06582299 -0.046336748 0.08851925 -0.079025134 -0.029090023 -0.020595666
0.026449071 0.04482879 -0.06558195 0.006962126 -0.08878878 -0.054734636 0.10420316 0.047711056
-0.058178112 0.06814536 0.012743217 -0.06659866 -0.100639984 -0.053400394 0.091175005 -0.062543415
-0.009140938 0.018256178 0.08060338 -0.104733065 -0.0805115 0.045663 -0.015960384 -0.076487966
0.014817605 0.033448953 0.11273089 0.006100687 0.042966366 -0.012625869 0.04875493 0.041688208
-0.0142987445 -0.027653016 0.030654421 -0.06305733 0.013602962 0.054383565 0.039338227 -0.012903748
0.05457704 -0.04167169 -0.09808181 0.038069963 0.027410148 -0.043740075 0.028537422 0.047470137
-0.060130443 -0.032088034 0.023839591 -0.04418638 0.10701993 -0.06367272 -0.012285818 -0.024938174
0.05377235 0.04140099 0.03870442 -0.03330276 0.102551065 -0.10273626 0.06357643 0.049798664
00000000: 495c 813d 0b2e 7f3d cc36 753c d0fe 8dbd
00000010: a071 aabc b8fa 813d 1bfb 35bd f093 c23c
00000020: db8f b33d 3a96 213d 48c0 e93d 0b12 e63b
00000030: 4c4c fabc ccdd f7bc 0bc8 273d c7ee 55bc
00000040: 44f8 1fbb 1fac 57bc 7fed 9c3d e757 c43c
00000050: c605 b3bd a498 8ebd 99a8 8a3d fd6b 973d
00000060: d27a 75bd a268 1bbd 72d9 b83d b1b4 c43d
00000070: 934f 05bc 4f94 b2bd f46b 263d 1bea b2bc
00000080: 0fe0 b73c 37a8 f0bd 825d 4cbd 2b48 843d
00000090: fa0c c1bc 6b72 983d c623 56bb 260b 5f3d
000000a0: e886 813c 922a f2bc 6d80 b7bd 5c70 b43d
000000b0: a323 173b 96e6 d0bc e5a5 89bd 8ac8 0c3d
000000c0: adc1 26bd 3ebe c7bd a993 e9bc 48a2 69bd
000000d0: 8aa2 febc b244 28bd 5017 c43d e7d3 fc3d
000000e0: b57b 303d f727 313d a865 093d e90f 29bd
000000f0: bb02 ec3c 1cd0 0abd 71a9 6f3d 6a5f 303d
00000100: f17d b23c 705e a3bd 801b a3bd 9852 c1bd
00000110: 9c90 f73b 74b4 193d a211 8e3c 7033 a53c
00000120: b86a 38bd d1da b33d 1b74 3abd 29d1 80bd
00000130: 02ef f4bc 5c4e a93d 8e63 003d fbf7 653d
00000140: 4a72 b7bc e1e2 7b3d 374c 22bd d147 84bb
00000150: 430c 71bd ea04 ce3b a042 d03c 72a3 aabd
00000160: 4191 31bd 3acc b43d f168 bc3c 6316 873d
00000170: 10d9 6b3d 6720 a33d 1edc 953c e56e 5f3d
00000180: 0b0b 803d 27b8 8fbd 10a6 1d3d 65dd f1bb
00000190: 8382 ccbc bd64 b53d 578f be3d e777 523d
000001a0: ad86 473d 3b52 b73d 6729 823d 43db 903d
000001b0: dc3f 863d d1dd 173c cf40 133c fa34 c63d
000001c0: e545 81bc b1d1 f63c 0635 dd3b 6d39 923d
000001d0: a4b6 223d 0487 a53d b429 a83d 0c6a 013d
000001e0: 86f6 763d f1ad 833a 4004 53bd 2b6c 60bd
000001f0: 9738 8dbd b271 72ba 214e f43c 36c9 843d
00000200: d4f9 853d 6946 753d 7024 a4bd f8aa 68bd
00000210: 0c4d a13d 49e2 983d 5a03 05bc 31c9 4dbd
00000220: 2533 71bd 16e7 4cbd 667c b1bd 725d 353d
00000230: dd6d 1cbd e9fe cdbc b730 d63c e3eb c03d
00000240: 34f4 7dbc 204f b13d c1c7 58bd 550d babc
00000250: 17ed a0bb c062 c8bb 6e91 91bd adbe f1bc
00000260: 3fba 873d 998b f8bc 8fcf 573d f595 4d3b
00000270: 4d4e c23d c836 e73d a075 933b 0ba8 85bd
00000280: 7402 2ebc f559 a7bd 3a2f 86bd 6a0d 4d3d
00000290: 8aa7 a6ba 79c5 5fbd 8313 453d b0d6 cdbc
000002a0: 5003 6bbd 7408 0dbd ad45 203d ea8b 9d3d
000002b0: b83f 6ebd 47f3 82bd 5a46 65bc fe50 983d
000002c0: aa8c 9a3d a3f1 85bc a693 843c 6e83 423d
000002d0: 5f4f f73c 59fd bd3d 8733 b23d 46c7 23bd
000002e0: d6e6 663d b88a d9bc 34ce 863d 9acb 3dbd
000002f0: 9549 b53d eed7 a1bd 334e eebc 3eb8 a8bc
00000300: b9ab d83c 659e 373d d44f 86bd 8c22 e43b
00000310: e4d6 b5bd 6d31 60bd 7768 d53d ab6c 433d
00000320: 2c4c 6ebd cb8f 8b3d edc8 503c e164 88bd
00000330: 561c cebd 5fba 5abd f6b9 ba3d c316 80bd
00000340: dfc3 15bc fb8d 953c 6313 a53d 4a7e d6bd
00000350: 37e3 a4bd 2009 3b3d 5abf 82bc b9a5 9cbd
00000360: 8ac5 723c c501 093d 74df e63d 46e8 c73b
00000370: 80fd 2f3d bcdc 4ebc 40b3 473d 41c1 2a3d
00000380: 4845 6abc 9488 e2bc fb1e fb3c 3424 81bd
00000390: f5de 5e3c 4dc1 5e3d 1f21 213d 3e6a 53bc
000003a0: 2d8c 5f3d efaf 2abd 1edf c8bd 40ef 1b3d
000003b0: 3f8b e03c cb28 33bd 50c7 e93c 0c70 423d
000003c0: 574b 76bd be6e 03bd 3f4b c33c c7fc 34bd
000003d0: 442d db3d d866 82bd 754a 49bc 244b ccbc
000003e0: 6540 5c3d 1694 293d 8788 1e3d 7a68 08bd
000003f0: 4b06 d23d 6367 d2bd 5c34 823d aff9 4b3d

actor.pi_net.fcs.1.bias f4 [128]
-0.017531598 -0.09993751 -0.052935358 -0.053230725 -0.077174604 0.05208939 0.036595445 0.05271082
-0.0204106 0.00040972256 -0.06732066 0.056664884 -0.024178043 -0.074280806 -0.026051741 0.040564068
-0.04922637 0.08616868 0.013289166 -0.00802405 0.14468794 -0.07862852 0.049369812 0.035712108
-0.09017709 0.025967013 -0.02465903 -0.0158293 -0.10545501 -0.035074513 0.015724838 0.043476727
-0.075411305 -0.024475895 0.07432168 -0.060161464 -0.016303644 0.01591039 -0.058759093 -0.08463174
-0.0822004 -0.07567292 0.04849863 -0.0033957209 -0.010321415 -0.06256714 -0.10529653 -0.11368336
0.042801745 -0.0017748894 0.038324613 0.06685726 0.012266232 -0.042765398 -0.006781021 0.011318342
-0.058921535 0.025300892 0.09441364 0.06154714 -0.012493008 0.08441295 -0.08601016 -0.060917765
0.10244899 0.10482503 0.061887622 0.039126545 -0.09301263 -0.0591372 -0.054853152 0.10447132
0.025244253 -0.0307741 -0.021144744 0.07377811 0.061519638 -0.0041161445 0.024990406 -0.042632364
-0.090949334 -0.057170883 0.081169836 -0.056926407 -0.0581245 0.04323733 -0.020829681 -0.04098469
0.010099194 0.01766558 0.026131025 -0.022808298 -0.10264553 0.062217798 -0.056066927 0.046535634
-0.06715024 -0.078075975 0.079268396 -0.05060623 0.0045235944 -0.024682198 0.00023779232 0.027438816
-0.03344871 0.05043753 -0.072802946 0.046157736 -0.052729268 -0.038335178 0.061499152 0.020574141
-0.07757856 0.049470067 0.11681214 0.031855628 -0.02138472 -0.05401934 0.076033615 -0.048326578
-0.08610139 0.05148498 0.021082675 -0.050013054 -6.511349e-05 0.04782877 0.042848114 -0.064354
00000000: 6d9e 8fbc 0aac ccbd bfd2 58bd 7608 5abd
00000010: b80d 9ebd af5b 553d 1be5 153d 4de7 573d
00000020: 2134 a7bc 08d0 d639 6adf 89bd 7019 683d
00000030: 0811 c6bc 8920 98bd 766a d5bc 8226 263d
00000040: 97a1 49bd 3479 b03d cdba 593c 4e77 03bc
00000050: 1329 143e fd07 a1bd 0038 4a3d dc46 123d
00000060: c4ae b8bd c6b8 d43c bc01 cabc 73ac 81bc
00000070: ccf8 d7bd 4baa 0fbd 60d1 803c a714 323d
00000080: 3e71 9abd ac81 c8bc f735 983d de6b 76bd
00000090: 388f 85bc 8256 823c 60ad 70bd 6853 adbd
000000a0: af58 a8bd 67fa 9abd 80a6 463d be8a 5ebb
000000b0: 271b 29bc 3323 80bd b5a5 d7bd d2d2 e8bd
000000c0: e250 2f3d 68a3 e8ba 45fa 1c3d 76ec 883d
000000d0: 4ef8 483c c52a 2fbd 5433 debb 9170 393c
000000e0: b557 71bd d143 cf3c f05b c13d db18 7c3d
000000f0: 79af 4cbc b2e0 ac3d 1826 b0bd e884 79bd
00000100: c7d0 d13d 81ae d63d e07d 7d3d 2843 203d
00000110: 687d bebd d939 72bd b3ad 60bd 0ff5 d53d
00000120: 09cd ce3c f719 fcbc be37 adbc fa18 973d
00000130: 04fc 7b3d b9e0 86bb aeb8 cc3c 469f 2ebd
00000140: a543 babd 042c 6abd 5f3c a63d aa2b 69bd
00000150: f513 6ebd a019 313d 02a3 aabc 90df 27bd
00000160: 1777 253c 68b7 903c bb10 d63c 78d8 babc
00000170: d237 d2bd 17d8 7e3d 6fa6 65bd 269c 3e3d
00000180: 1186 89bd 4ce6 9fbd 7857 a23d 7a48 4fbd
00000190: a93a 943b 5232 cabc e457 7939 5ec7 e03c
000001a0: 8401 09bd 9597 4e3d b619 95bd e50f 3d3d
000001b0: a5fa 57bd 5905 1dbd 89e6 7b3d 1a8b a83c
000001c0: 82e1 9ebd 20a1 4a3d 343b ef3d 0c7b 023d
000001d0: 022f afbc 6243 5dbd 83b7 9b3d 17f2 45bd
000001e0: ed55 b0bd eae1 523d 93b5 ac3c 7dda 4cbd
000001f0: 8a8d 88b8 1ae8 433d 8181 2f3d 08cc 83bd

actor.pi_net.fcs.2.weight f4 [2, 128]
-0.020991266 0.011539576 -0.023475701 -0.018542863 0.022475442 0.109880425 0.010949731 -0.051626284
-0.05801468 -0.007014027 -0.0044993823 0.010711986 0.119646005 -0.030742459 -0.014847756 -0.060874466
-0.07085379 -0.08139404 -0.018237164 0.02151984 -0.023483213 0.001618154 -0.010097196 -0.06782202
0.020317635 0.03193773 -0.10086685 -0.0017771254 0.026820887 0.014650336 -0.045035627 -0.0036247016
0.018789383 -0.02406438 0.011481567 0.058686964 -0.0126970215 0.005175931 -0.021232951 0.008220981
-0.0900305 0.017831035 0.0076591503 0.03692604 0.022393208 -0.03231778 -0.04142886 0.002294895
0.002580864 -0.005175383 -0.015963236 -0.0054389248 -0.01912434 -0.02356139 -0.058245566 -0.012993979
0.08701218 0.01704084 -0.033149492 0.05320151 -0.020936195 -0.079485305 0.09685257 0.021022383
0.10642763 -0.006798398 -0.07553748 -0.07271567 -0.04251467 -0.117239445 -0.022690596 0.012902482
0.06278517 -0.038766056 -0.010171043 0.018793324 0.0034722663 -0.052678313 0.0030595313 -0.016657358
0.013164784 0.02219758 0.025390714 0.026427967 0.0018213936 -0.037031118 0.11484586 0.012360482
-0.12516871 0.07361617 -0.07981029 0.1147705 -0.11426407 -0.022039337 0.026693493 0.0034462712
0.055604354 0.060419545 0.07004447 -0.014333961 0.056305274 0.07964468 -0.01854784 5.372231e-05
0.020904768 -0.042724244 -0.05982506 0.0014210144 -0.063243575 -0.003354791 -0.0012920903 -0.018844197
0.14063779 0.008313715 0.00404348 -0.010151568 -0.0029551869 0.0059366957 0.10888828 -0.007333262
-0.019069098 0.012353136 0.0043887096 0.09399319 0.014805887 0.040907446 0.06356284 -0.0172526
-0.019498076 -0.0010462581 -0.012593014 -0.03426726 0.021351932 -0.0064612697 -0.0016272289 -0.058862843
-0.04815637 0.12162906 0.030763483 -9.238554e-05 -0.12612554 0.037600286 -0.037975594 0.0037205354
0.009796217 0.068584144 -0.009153092 0.021689324 -0.07997249 0.024435233 -0.002593005 0.13834225
0.0077311895 -0.00831515 0.009110561 0.05548574 0.064591 0.026700668 0.015562342 0.0022833745
0.02001104 0.008158008 -0.0032227577 -0.008391656 0.021507263 0.0045655775 0.038898487 0.0062424596
-0.0063120974 0.028419787 -0.014402382 0.00063424086 -0.02318629 0.027599685 0.053295612 0.04419283
0.046989072 0.031373248 0.023423763 -0.0011875522 0.014298619 0.00028208824 -0.017569255 -0.030893119
-0.0077652573 -0.023591278 -0.03230905 -0.0043282527 -0.033974912 0.088902146 0.0014865033 0.011164162
0.07594446 -0.0017878204 -0.031986184 0.023963472 0.06310981 0.06808462 -0.011898914 -0.046378553
0.020357242 0.03887327 -0.013480169 -0.00091002655 -0.004681737 0.003960807 0.0014865624 -0.022493128
0.0022095134 0.03566091 -0.005351312 0.07516516 0.005473937 -0.023515793 -0.13584588 0.0022799785
-0.14448664 0.040325034 0.032751486 -0.16331312 0.004435459 -0.016552094 0.014586018 -0.007286356
0.008991908 0.037319124 -0.026407538 -0.020122526 -0.0030380236 -0.118264064 0.028079417 0.039593533
0.047530256 0.058720194 0.009930524 -0.0052605597 0.067977585 -0.0064794826 -0.018710094 -0.010275561
-0.04055293 0.018491214 -0.0046035172 0.008166295 -0.031106107 0.027624782 0.009282669 0.02511391
0.041004438 -0.015271177 0.009314995 0.015339795 -0.036126673 -0.051318333 -0.06479198 -0.012268123
00000000: e0f5 abbc 7d10 3d3c 1d50 c0bc 34e7 97bc
00000010: 6b1e b83c fd08 e13d 8066 333c 1576 53bd
00000020: cda0 6dbd ecd5 e5bb 8e6f 93bb 5381 2f3c
00000030: f708 f53d 9cd7 fbbc 0144 73bc 8157 79bd
00000040: cb1b 91bd ebb1 a6bd 1b66 95bc 604a b03c
00000050: de5f c0bc 3d18 d43a b66e 25bc 45e6 8abd
00000060: 2b71 a63c 23d1 023d 4793 cebd 6fee e8ba
00000070: 7ab7 db3c f607 703c 4777 38bd 678c 6dbb
00000080: 31ec 993c aa22 c5bc 2f1d 3c3c be61 703d
00000090: 2b07 50bc db9a a93b baf0 adbc 4bb1 063c
000000a0: e961 b8bd 6412 923c 9cf9 fa3b c23f 173d
000000b0: f671 b73c a65f 04bd 4fb1 29bd f365 163b
000000c0: b623 293b 4296 a9bb 55c5 82bc 0239 b2bb
000000d0: a6aa 9cbc d103 c1bc e792 6ebd b3e4 54bc
000000e0: 7133 b23d 3b99 8b3c c3c7 07bd d4e9 593d
000000f0: 6282 abbc 31c9 a2bd a45a c63d 2237 ac3c
00000100: bbf6 d93d 19c5 debb 65b3 9abd f4eb 94bd
00000110: dd23 2ebd 3c1b f0bd a1e1 b9bc ef64 533c
00000120: 8395 803d 28c9 1ebd 72a4 26bc 75f4 993c
00000130: f68e 633b 37c5 57bd 6b82 483b 0375 88bc
00000140: 1bb1 573c b3d7 b53c 3000 d03c 777f d83c
00000150: d4bb ee3a f1ad 17bd 4e34 eb3d 9e83 4a3c
00000160: 3a2c 00be 13c4 963d 9473 a3bd cc0c eb3d
00000170: 4803 eabd d78b b4bc 50ac da3c d6da 613b
00000180: 64c1 633d 7c7a 773d 7a73 8f3d fdd8 6abc
00000190: 5ca0 663d c01c a33d a4f1 97bc e453 6138
000001a0: 7a40 ab3c 9eff 2ebd 1f0b 75bd 5541 ba3a
000001b0: d985 81bd 0edc 5bbb 5b5b a9ba 255f 9abc
000001c0: 5a03 103e 4036 083c 2b7f 843b c352 26bc
000001d0: cfab 41bb 9d88 c23b d200 df3d dc4b f0bb
000001e0: cc36 9cbc cf64 4a3c 2acf 8f3b 807f c03d
000001f0: 6494 723c 918e 273d 3c2d 823d 5355 8dbc
00000200: 6eba 9fbc 9922 89ba ee52 4ebc d45b 0cbd
00000210: 3fea ae3c 0fb9 d3bb be48 d5ba 2a1a 71bd
00000220: 9d3f 45bd a818 f93d b303 fc3c 1cbf c1b8
00000230: 0e27 01be c202 1a3d 4c8c 1bbd 3ad4 733b
00000240: 5080 203c d875 8c3d daf6 15bc cfad b13c
00000250: 9ec8 a3bd 662c c83c 68ef 29bb 97a9 0d3e
00000260: eb55 fd3b 443c 08bc 7644 153c 0445 633d
00000270: 4948 843d 5cbb da3c 31f9 7e3c aba4 153b
00000280: 31ee a33c 2aa9 053c e734 53bb 287d 09bc
00000290: 0030 b03c d79a 953b 0554 1f3d 8c8d cc3b
000002a0: b6d5 cebb 9dd0 e83c f8f7 6bbc 2f43 263a
000002b0: 2df1 bdbc bc18 e23c 804c 5a3d 8a03 353d
000002c0: 9d77 403d 3c81 003d 31e3 bf3c a4a7 9bba
000002d0: c144 6a3c 3ee5 9339 66ed 8fbc 9113 fdbc
000002e0: b373 febb 7f42 c1bc 7f56 04bd 04d4 8dbb
000002f0: 4729 0bbd 5412 b63d c6d6 c23a e4e9 363c
00000300: c588 9b3d 4c55 eaba f203 03bd 0b4f c43c
00000310: b73f 813d f36f 8b3d aaf3 42bc 70f7 3dbd
00000320: 3bc4 a63c 9439 1f3d eddb 5cbc d98e 6eba
00000330: 4269 99bb a8c9 813b c2d8 c23a 8243 b8bc
00000340: 7ccd 103b 2d11 123d 0f5a afbb 31f0 993d
00000350: b65e b33b 31a4 c0bc 2f1b 0bbe b16b 153b
00000360: 4ef4 13be dd2b 253d 6c26 063d 8e3b 27be
00000370: 5457 913b 4298 87bc 32fa 6e3c 62c2 eebb
00000380: cc52 133c f0db 183d 9f54 d8bc ffd7 a4bc
00000390: 9419 47bb 6e34 f2bd ce06 e63c d42c 223d
000003a0: 16af 423d 9684 703d a3b3 223c c660 acbb
000003b0: d537 8b3d d751 d4bb e945 99bc d45a 28bc
000003c0: d41a 26bd e37a 973c 1ad9 96bb eccb 053c
000003d0: 3cd2 febc 5e4d e23c 5616 183c b0bb cd3c
000003e0: 45f4 273d f533 7abc ec9d 183c c353 7b3c
000003f0: 90f9 13bd 2c33 52bd a8b1 84bd 3d00 49bc

actor.pi_net.fcs.2.bias f4 [2]
0.0048386594 0.022819526
00000000: 9e8d 9e3b 04f0 ba3c

critic.v_net.fcs.0.weight f4 [128, 6]
1.3168038 0.21448204 0.116374195 -0.21345663 -0.10708515 -0.07816632 1.0299538 0.07228443
-0.0069360724 -0.41010213 0.29810283 0.102198415 -0.09095633 -1.0050377 -0.29001227 0.35356826
-1.3006777 0.029108582 0.22805019 0.026275028 -0.024215395 -0.9605363 0.31824812 -0.4433878
0.5450961 0.4098972 0.27420068 0.7061625 0.319222 0.2581602 0.63647276 -0.07563353
-0.23020585 -0.46485418 -0.03394801 0.0997718 -0.23031552 -0.14177811 -0.8024903 -0.4858613
-0.62637407 0.030736264 -0.67207795 -0.25590757 0.024666164 -0.4126431 -0.011228386 0.019323336
-0.13866562 -0.23754005 -0.5405846 -0.3621685 -0.07349899 -0.014398638 0.8078805 0.06711042
0.2814307 -0.35368404 0.5487594 0.007866207 0.5829547 0.51603734 0.26957476 0.113022126
0.60678554 0.15908891 1.200309 0.1782994 0.2115136 -0.032451194 0.4278448 -0.052097775
-0.6979524 -0.3834203 0.4660011 -0.37476876 0.18897684 0.013363619 -0.72111315 0.2157089
1.0014884 0.8818828 0.8808721 0.7530723 -0.06420726 -0.08270051 0.3424416 0.7212104
0.06913529 0.056403667 0.3161623 0.051846888 0.3987935 0.5214822 0.88248587 -0.06577908
0.7703888 0.3368221 -0.27138504 0.29802588 0.10012314 -0.027749741 -0.12787522 0.14094155
-0.71644294 0.30199024 0.78984696 -0.16440643 0.41434702 0.0573379 0.090486914 -0.12942441
0.314425 -0.030833414 0.6549095 0.26902494 -0.38303408 -0.3549129 -0.3602124 0.04508645
-0.29288948 0.08125194 0.508171 0.3718942 -0.09602847 0.017936546 0.87472683 0.16790159
0.066595435 0.12967686 -0.7751334 -0.107370645 0.38480434 0.51530224 0.3717898 0.47789195
0.7080433 -0.025884045 0.5609703 0.07177088 -0.33254513 -0.83801395 0.8841634 0.41442552
0.1350464 0.2795923 0.5723372 0.46779162 0.5259789 -0.0076381634 -0.7896375 0.26025933
0.634922 -0.33161888 1.1418922 0.43532205 -0.7731558 -0.40485856 0.0841668 0.22102948
-0.15237054 -0.09480096 -0.7604634 -0.21813005 -0.22423345 0.16158041 -0.22386901 0.043338064
-0.6853195 0.40798864 0.03742746 -0.18789926 0.28453866 0.1307025 -0.6884069 -0.23180719
0.41397357 0.11277568 -0.27763376 0.04299301 -0.7005378 0.715509 -0.6142247 -0.47542268
0.74129945 -0.5992843 0.10139859 0.33869848 -0.08828852 0.45855233 -1.137324 0.10287551
0.5369885 -0.18120502 0.1705986 -0.36778316 0.7847051 -0.00037951855 -0.6407921 -0.43160054
0.015476857 -0.06351522 0.17592289 -0.02767599 0.34275264 0.37776428 0.49076754 0.2699302
0.4216396 0.03472949 -0.35917842 -0.11638671 -0.25059143 0.8372635 -0.39243022 -0.44680724
-1.1072832 0.42965993 -0.57511 0.030733928 1.2339203 0.41211843 -0.06515905 -0.3870053
-0.5832054 -0.839498 -0.31704375 -0.071699716 0.78680795 0.12831147 -0.011733462 0.057328533
0.08569734 -0.20595865 1.0009146 0.19021446 0.036080465 -0.32764626 0.3877161 0.5622309
-0.59956706 -0.40580365 0.43802258 -0.41953522 -4.8610214e-05 0.057791922 -0.9448303 -0.5031001
0.113847315 0.10253334 0.53833526 -0.24026409 -0.50374883 0.08968347 -0.0884105 1.0675066
00000000: 078d a83f 2ea1 5b3e 9855 ee3d 6094 5abe
00000010: 764f dbbd aa15 a0bd 87d5 833f dc09 943d
00000020: fe47 e3bb e8f8 d1be efa0 983e 674d d13d
00000030: 5047 babd 13a5 80bf 7d7c 94be e606 b53e
00000040: 9b7c a6bf 1f75 ee3c fd85 693e ba3e d73c
00000050: 5d5f c6bc b5e5 75bf 6bf1 a23e ba03 e3be
00000060: 6b8b 0b3f 0cde d13e 0864 8c3e 11c7 343f
00000070: 1171 a33e 932d 843e e1ef 223f c1e5 9abd
00000080: 15bb 6bbe 5e01 eebe 120d 0bbd 2855 cc3d
00000090: d5d7 6bbe 482e 11be 0170 4dbf d0c2 f8be
000000a0: 0d5a 20bf 9eca fb3c 4d0d 2cbf 5106 83be
000000b0: b210 ca3c f545 d3be 44f7 37bc f94b 9e3c
000000c0: 5cfe 0dbe b33d 73be c163 0abf 266e b9be
000000d0: a386 96bd 44e8 6bbc 42d1 4e3f 3071 893d
000000e0: af17 903e 1316 b5be 7f7b 0c3f 43e1 003c
000000f0: 853c 153f 061b 043f b405 8a3e 2578 e73d
00000100: 4c56 1b3f 34e8 223e baa3 993f 1e94 363e
00000110: 0597 583e 8beb 04bd 790e db3e 7a64 55bd
00000120: 02ad 32bf aa4f c4be b297 ee3e b1e1 bfbe
00000130: 2583 413e 15f3 5a3c df9a 38bf cbe2 5c3e
00000140: c630 803f 12c3 613f d580 613f 59c9 403f
00000150: 197f 83bd e35e a9bd 8154 af3e 3fa1 383f
00000160: ce96 8d3d 8807 673d 06e0 a13e 675d 543d
00000170: a92e cc3e dc7f 053f 98ea 613f 2fb7 86bd
00000180: 3338 453f f273 ac3e fbf2 8abe d996 983e
00000190: 5c0d cd3d 6d53 e3bc b9f1 02be fb52 103e
000001a0: ce68 37bf 779e 9a3e 6933 4a3f 295a 28be
000001b0: 4b25 d43e 25db 6a3d 3451 b93d d587 04be
000001c0: 50fc a03e 5b96 fcbc 26a8 273f a3bd 893e
000001d0: 0b1d c4be 25b7 b5be c26d b8be 92ac 383d
000001e0: 9cf5 95be 6b67 a63d 7f17 023f eb68 be3e
000001f0: 93aa c4bd aaef 923c 19ee 5f3f 65ee 2b3e
00000200: 3063 883d 03ca 043e 246f 46bf 24e5 dbbd
00000210: 1305 c53e d9ea 033f 3c5b be3e 41ae f43e
00000220: 5342 353f c70a d4bc c09b 0f3f 9cfc 923d
00000230: 5b43 aabe 1588 56bf 8858 623f 952f d43e
00000240: 9a49 0a3e b926 8f3e b184 123f 6282 ef3e
00000250: 8ea6 063f 8f49 fabb af25 4abf b640 853e
00000260: 408a 223f f3c9 a9be 8629 923f 88e2 de3e
00000270: 8aed 45bf 9f49 cfbe a55f ac3d 8d55 623e
00000280: 0607 1cbe 0127 c2bd bbad 42bf 7c5d 5fbe
00000290: 749d 65be 5675 253e eb3d 65be 4183 313d
000002a0: 1971 2fbf e3e3 d03e 894d 193d aa68 40be
000002b0: 0daf 913e e0d6 053e 6f3b 30bf dd5e 6dbe
000002c0: 58f4 d33e f0f6 e63d 0326 8ebe 7019 303d
000002d0: 7256 33bf 992b 373f d43d 1dbf 9a6a f3be
000002e0: cdc5 3d3f b26a 19bf 10aa cf3d e369 ad3e
000002f0: 9dd0 b4bd 5fc7 ea3e d593 91bf 65b0 d23d
00000300: 1478 093f cf8d 39be 66b1 2e3e 134e bcbe
00000310: 6fe2 483f 1efa c6b9 f30a 24bf bffa dcbe
00000320: a592 7d3c 4514 82bd 2125 343e c2b8 e2bc
00000330: 467d af3e 526a c13e e245 fb3e 4b34 8a3e
00000340: 25e1 d73e 8240 0e3d 3ce6 b7be 285c eebd
00000350: 854d 80be e756 563f 9dec c8be ebc3 e4be
00000360: 75bb 8dbf 63fc db3e 693a 13bf b8c5 fb3c
00000370: 1af1 9d3f 3001 d33e 1c72 85bd 8f25 c6be
00000380: f34c 15bf 57e9 56bf 8f53 a2be 4dd7 92bd
00000390: 3f6c 493f 1564 033e b53d 40bc 53d1 6a3d
000003a0: 1682 af3d d3e6 52be f81d 803f 94c7 423e
000003b0: 1cc9 133d 40c1 a7be ba82 c63e 5dee 0f3f
000003c0: 3a7d 19bf 7fc5 cfbe 7f44 e03e 52cd d6be
000003d0: d2e2 4bb8 39b7 6c3d 66e0 71bf 2bcb 00bf
000003e0: c828 e93d 00fd d13d 57d0 093f ca07 76be
000003f0: aff5 00bf f8ab b73d 9010 b5bd 0ea4 883f

critic.v_net.fcs.0.bias f4 [128]
0.6768215 0.37941134 -0.6472319 0.3542568 -0.48970005 0.39226553 0.47718608 -0.18922718
0.616586 0.023577996 -0.38645464 0.6010221 -0.30131152 0.52915806 -0.63557214 -0.4113127
0.376018 0.62406695 -0.2834192 -0.23048025 -0.63788635 0.54086447 -0.38417077 -0.5456151
-0.60211295 0.57271117 0.40385863 -0.066158764 0.94820255 0.039472755 -0.52759516 -0.13317825
-0.21465015 0.08898033 -0.37750944 0.7778756 -0.47518408 0.5478592 -0.68347925 0.55829066
-0.3816455 -0.5204553 -0.5220485 -0.519156 0.63018584 -0.7630643 0.059042707 0.2328752
-0.20092519 -0.26146176 0.44560435 -0.2664541 -0.018171815 -0.6970958 -0.66759104 -0.38354194
0.7197839 0.40682477 -0.6568107 -0.5495809 0.07279776 -0.3579815 -0.38812593 0.093858026
-0.5476854 0.49243456 -0.53130656 -0.5735882 0.44583097 0.41640562 -0.63434553 0.008075629
0.37698847 -0.3356477 -0.43997908 0.5700428 -0.51537085 -0.6472127 -0.33154234 -0.54966706
-0.60586673 0.6476708 -0.40518504 0.18458407 -0.62939495 0.41125667 -0.13106894 0.37450776
-0.87171364 0.7911248 -0.629041 -0.43588686 -0.6837825 -0.6155993 0.5822637 -0.4440445
-0.75841033 -0.6503653 -0.009125395 -0.45928356 -0.5475403 -0.5557519 0.480066 -0.12618028
-0.4816041 -0.59030837 0.5850025 -0.6324403 0.57581645 -0.5205642 0.043138936 -0.9136069
-0.46155563 -0.43394175 -0.32605502 0.18320449 0.5798393 -0.20990655 0.3199175 -0.0026500712
-0.51859313 -0.72433245 -0.22939816 -0.5898807 -0.01987693 -0.61870736 -0.45262128 0.4587555
00000000: 2c44 2d3f 3442 c23e fdb0 25bf 2661 b53e
00000010: f7b9 fabe 07d7 c83e bc51 f43e c5c4 41be
00000020: 95d8 1d3f a426 c13c 62dd c5be 96dc 193f
00000030: 8145 9abe e776 073f dbb4 22bf 9497 d2be
00000040: 6e85 c03e dac2 1f3f 521c 91be 0403 6cbe
00000050: 854c 23bf 1876 0a3f 08b2 c4be 6ead 0bbf
00000060: 1324 1abf 339d 123f 8fc6 ce3e 3f7e 87bd
00000070: 67bd 723f 2fae 213d 7a10 07bf e15f 08be
00000080: 40cd 5bbe 523b b63d eb48 c1be db22 473f
00000090: 544b f3be 8040 0c3f 7ff8 2ebf 23ec 0e3f
000000a0: 0a67 c3be 8f3c 05bf f8a4 05bf 68e7 04bf
000000b0: dc53 213f 2f58 43bf c4d6 713d d676 6e3e
000000c0: 55bf 4dbe 51de 85be 4126 e43e ac6c 88be
000000d0: 0fdd 94bc df74 32bf 3fe7 2abf 9c5f c4be
000000e0: c243 383f 564b d03e bf24 28bf 55b1 0cbf
000000f0: fe16 953d 5a49 b7be 71b8 c6be a338 c03d
00000100: 1c35 0cbf 6220 fc3e b503 08bf add6 12bf
00000110: f543 e43e 1e33 d53e 7864 22bf a54f 043c
00000120: a204 c13e 04da abbe f044 e1be 53ee 113f
00000130: 58ef 03bf bbaf 25bf ebbf a9be fbb6 0cbf
00000140: 151a 1bbf c1cd 253f 6a74 cfbe 9b03 3d3e
00000150: 0720 21bf 3c90 d23e f036 06be 7bbf bf3e
00000160: a028 5fbf 2887 4a3f d508 21bf 902c dfbe
00000170: 5f0c 2fbf ea97 1dbf 3c0f 153f cd59 e3be
00000180: 2e27 42bf 577e 26bf ae82 15bc 3727 ebbe
00000190: 9a2b 0cbf c245 0ebf 36cb f53e 6735 01be
000001a0: d094 f6be 731e 17bf b9c2 153f 9ce7 21bf
000001b0: b568 133f b243 05bf 74b2 303d 24e2 69bf
000001c0: 0551 ecbe 9d2d debe aff0 a6be f599 3b3e
000001d0: 5970 143f bef1 56be 3acc a33e d1ac 2dbb
000001e0: 85c2 04bf da6d 39bf 5ae7 6abe 6c02 17bf
000001f0: f2d4 a2bc 9b63 1ebf fabd e7be 00e2 ea3e

critic.v_net.fcs.1.weight f4 [128, 128]
-0.09575055 0.08277376 -0.35555613 0.23986174 -0.30941075 0.13371478 -0.14419194 0.30358368
0.28377435 -0.08443933 -0.27024445 -0.064501636 0.10370403 0.62842226 -0.07440926 -0.25740218
-0.07859121 -0.19864899 -0.27330646 -0.43941763 -0.059602126 -0.16196527 -0.13865101 -0.43105176
-0.010987549 0.4870739 0.52216524 0.1632755 0.37482938 0.17101401 -0.44576392 -0.03798032
-0.07968946 0.41268176 -0.04925576 0.34570253 -0.2399465 -0.21678658 -0.5951531 0.31743369
-0.23750511 -0.053010743 -0.41619772 -0.39666814 0.26289248 -0.45660034 0.1112385 0.27407965
-0.5960105 -0.54453355 0.57503027 -0.18659025 -0.11660199 -0.16922715 -0.15285827 0.11532239
0.4884422 0.105608374 -0.29688087 -0.2910122 -0.512764 -0.47909656 -0.39931893 0.2525342
-0.36158618 0.07836443 -0.05373563 -0.1730104 0.24237701 0.026478764 -0.35099846 -0.33794868
0.8369533 -0.43369168 -0.26302165 0.2017537 -0.09964688 -0.062481135 0.09830064 -0.099678434
-0.13197294 0.30954534 0.02963635 0.63763046 -0.43485236 0.07816497 -0.61409116 0.09028452
-0.63812554 0.06430713 -0.18959275 -0.26833132 0.19601801 -0.20889692 0.3881637 -0.06307839
-0.1644425 -0.14765584 0.37633413 0.07694421 -0.11152823 -0.67269015 -0.06441413 -0.047731746
0.036150407 -0.04428214 0.2797744 -0.26865205 0.33871663 -0.088675 0.07249174 -0.43131924
-0.37613747 -0.05289724 -0.104462154 -0.16839555 0.16145895 -0.4901817 0.27374494 -0.126708
-0.27763775 -0.32064897 -0.5201506 -0.05259695 -0.10140733 -0.11432718 -0.12765905 0.3730744
-0.11612416 -0.40096384 -0.0030017332 -0.011806736 -0.2903813 -0.25228944 0.4672159 -0.02304968
0.509233 -0.7827998 -0.11689301 -0.13063335 -0.22462603 -0.18300705 -0.3204784 -0.3544501
0.24938168 0.8901718 -0.55804455 -0.13037616 -0.23225427 -0.024080252 -0.19220708 -0.1539387
-0.3084761 -0.014438362 0.31842712 0.23261721 0.21452929 -0.009719512 0.35740685 0.010192165
-0.018652996 0.02374767 -0.18086489 0.5071218 0.3996103 0.22149737 -0.13950884 -0.24954073
-0.3513415 -0.070450515 0.41308558 -0.035372686 -0.6728554 -0.70857936 -0.5944892 0.25216213
-4.4898443e-05 0.10083561 0.01593549 -0.20950021 0.15356776 -0.39482245 -0.12624827 -0.09306306
-0.006264425 0.020745795 0.014830535 -0.23697814 -0.010226381 0.23559098 -0.61860305 0.34485593
-0.63778216 0.15997551 0.3870357 0.14388932 0.21606247 -0.31813735 0.31644657 0.020922879
-0.21944802 0.28698382 0.28877163 -0.1953075 -0.047726408 0.2858464 -0.02513118 -0.31648043
-0.6709067 -0.1133624 -0.16958994 -0.27454042 -0.48608875 0.1715712 0.12697625 0.09539811
0.06024197 0.119131334 -0.36803535 -0.10296099 -0.50607365 0.23852858 0.16590239 -0.31643432
0.13566959 -0.23895615 -0.3807991 -0.21109855 -0.4202606 0.20189415 -0.3053033 0.09125658
0.30850294 -0.51319665 0.4410289 0.1655562 0.39460328 -0.7528915 0.17148942 0.047115985
0.34440738 -0.27869576 0.23678458 0.32090205 0.31055492 0.4805165 -0.5461259 0.17753643
-0.14649403 -0.18398298 0.218052 0.1647754 0.4594661 -0.60580605 -0.40142658 0.79953074
00000000: dd18 c4bd 4a85 a93d 740b b6be 519e 753e
00000010: 166b 9ebe 87ec 083e 0da7 13be 526f 9b3e
00000020: df4a 913e 87ee acbd 7b5d 8abe 6f19 84bd
00000030: c762 d43d 48e0 203f e263 98bd 38ca 83be
00000040: 6ef4 a0bd a46a 4bbe d3ee 8bbe 59fb e0be
00000050: 5c21 74bd 39da 25be 88fa 0dbe d1b2 dcbe
00000060: 1f05 34bc c061 f93e 9fac 053f b131 273e
00000070: a3e9 bf3e 4c1e 2f3e 2b3b e4be 4191 1bbd
00000080: 3a34 a3bd 064b d33e 68c0 49bd ecff b03e
00000090: 89b4 75be 4dfd 5dbe f45b 18bf ab86 a23e
000000a0: 8a34 73be cb21 59bd de17 d5be 1618 cbbe
000000b0: d899 863e 85c7 e9be 03d1 e33d 2b54 8c3e
000000c0: 2594 18bf 8d66 0bbf 2f35 133f 8411 3fbe
000000d0: 06cd eebd e249 2dbe e186 1cbe 252e ec3d
000000e0: 1915 fa3e 3449 d83d c500 98be 8dff 94be
000000f0: 8044 03bf 254c f5be 8873 ccbe 2a4c 813e
00000100: d321 b9be 887d a03d e419 5cbd a329 31be
00000110: ae31 783e fee9 d83c 12b6 b3be 9c07 adbe
00000120: 9242 563f d60c debe c6aa 86be 8698 4e3e
00000130: aa13 ccbd 38ec 7fbd d951 c93d 3524 ccbd
00000140: ea23 07be ba7c 9e3e eec7 f23c c03b 233f
00000150: f8a4 debe f514 a03d 1435 1dbf 17e7 b83d
00000160: 325c 23bf 75b3 833d 9a24 42be b962 89be
00000170: f2b8 483e 13e9 55be 64bd c63e 3e2f 81bd
00000180: 9d63 28be 1833 17be deae c03e ed94 9d3d
00000190: ea68 e4bd 6c35 2cbf 8eeb 83bd 5d82 43bd
000001a0: 7312 143d 3061 35bd 973e 8f3e c38c 89be
000001b0: 446c ad3e 3d9b b5bd 8d76 943d e0d5 dcbe
000001c0: 1795 c0be c7aa 58bd 41f0 d5bd e26f 2cbe
000001d0: 7f55 253e 19f9 fabe 4c28 8c3e bebf 01be
000001e0: 8926 8ebe 1a2c a4be 9728 05bf e66f 57bd
000001f0: a5ae cfbd 5e24 eabd 0eb9 02be 9c03 bf3e
00000200: 81d2 edbd 224b cdbe bab8 44bb 0a71 41bc
00000210: dcac 94be 152c 81be ec36 ef3e afd2 bcbc
00000220: 185d 023f 9165 48bf 9a65 efbd c0c4 05be
00000230: 5e04 66be 3366 3bbe bf15 a4be 7c7a b5be
00000240: e95d 7f3e 4de2 633f 02dc 0ebf 5481 05be
00000250: 10d4 6dbe f343 c5bc efd1 44be 1ba2 1dbe
00000260: 94f0 9dbe e18e 6cbc e108 a33e 3533 6e3e
00000270: 91ad 5b3e 973e 1fbc 08fe b63e 0afd 263c
00000280: 2bce 98bc 798a c23c a534 39be bcd2 013f
00000290: b999 cc3e 35d0 623e 68db 0ebe 9b87 7fbe
000002a0: 08e3 b3be 5c48 90bd f47f d33e f3e2 10bd
000002b0: 4040 2cbf 7565 35bf 7230 18bf 651b 813e
000002c0: 5651 3cb8 e682 ce3d 258b 823c 3987 56be
000002d0: de40 1d3e 2b26 cabe 3a47 01be d897 bebd
000002e0: ce45 cdbb 16f3 a93c c6fb 723c 66aa 72be
000002f0: 8d8c 27bc c33e 713e c55c 1ebf f590 b03e
00000300: b145 23bf 9fd0 233e 8b29 c63e b957 133e
00000310: 7b3f 5d3e e6e2 a2be 4905 a23e 7566 ab3c
00000320: fbb6 60be 8bef 923e e0d9 933e b0fe 47be
00000330: c47c 43bd 765a 923e e8df cdbc b909 a2be
00000340: 8bc0 2bbf 8c2a e8bd fca8 2dbe 9090 8cbe
00000350: a0e0 f8be 5cb0 2f3e 1006 023e 1660 c33d
00000360: 49c0 763d 21fb f33d 216f bcbe 36dd d2bd
00000370: 0b8e 01bf d640 743e 51e2 293e ae03 a2be
00000380: f8ec 0a3e ecb0 74be 1af8 c2be 382a 58be
00000390: 662c d7be 57bd 4e3e b750 9cbe bbe4 ba3d
000003a0: 19f4 9d3e db60 03bf 8ace e13e 9187 293e
000003b0: 7109 ca3e 7fbd 40bf ec9a 2f3e b1fc 403d
000003c0: 2a56 b03e 36b1 8ebe a877 723e 464d a43e
000003d0: 0e01 9f3e 4206 f63e e8ce 0bbf 1ccc 353e
000003e0: 8802 16be 0966 3cbe 0649 5f3e e2ba 283e
000003f0: 243f eb3e 1b16 1bbf c987 cdbe 0cae 4c3f

critic.v_net.fcs.1.bias f4 [128]
0.17190747 0.19565207 -0.14136499 0.13390869 0.052339435 -0.030057847 -0.042388417 -0.08395615
0.23873171 -0.6947319 -0.033588067 0.18886928 -0.42092153 0.0355033 -0.2389981 0.08673478
0.042324755 -0.36281717 -0.061213266 0.20671345 -0.13378918 0.13071118 -0.0075345403 0.036781035
-0.17173362 0.1227961 0.24914968 0.20828067 0.07981272 -0.11713009 -0.09412428 0.021089891
-0.14932734 0.06831339 0.16085434 0.02988383 -0.011478373 0.04933688 -0.23100227 0.28220734
0.15087971 -0.11597274 -0.013300033 0.13347064 -0.07278052 0.23812777 -0.096384 -0.4326527
0.046477128 0.0021626716 0.0835636 0.015357954 0.16924392 0.1582647 0.14776666 -0.11625989
-0.109030485 -0.19799305 0.47417924 -0.025309697 0.16057433 0.36980867 0.040457778 -0.43301246
-0.2206796 0.008959523 0.056210905 0.08184205 -0.30493185 -0.12403514 -0.4898754 0.15982643
-0.3257715 0.27687085 0.0076806806 -0.043371722 -0.025019864 -0.24948971 0.20237926 -0.19545232
-0.0971561 -0.19503471 0.0009091305 0.05560431 -0.21088709 0.13631114 -0.26124182 0.086460255
-0.033324335 -0.12311412 -0.055632208 0.041014478 0.09749922 0.057884395 0.08276269 -0.10441614
-0.026955511 0.11273962 -0.058763776 -0.4008372 -0.3487423 0.0064822524 0.22834376 0.1065086
-0.16065912 -0.02238003 0.07290782 0.0022949574 0.18304881 0.068967775 0.14667723 0.20921293
0.18897022 -0.14915787 0.10841408 -0.39439744 0.14948735 -0.18148209 -0.1747857 0.07081612
-0.020662298 0.09606418 -0.061126605 -0.0703564 0.16256562 0.3158522 0.21218504 0.10821787
00000000: 8308 303e 0459 483e fcc1 10be 5c1f 093e
00000010: e061 563d e03b f6bc 7a9f 2dbd 34f1 abbd
00000020: 1676 743e f3d9 31bf a493 09bd f366 413e
00000030: 0783 d7be e96b 113d ebbb 74be 01a2 b13d
00000040: b95c 2d3d 2cc3 b9be c3ba 7abd b1ac 533e
00000050: 0800 09be 27d9 053e 4ee4 f6bb b6a7 163d
00000060: f0da 2fbe 867c fb3d 1821 7f3e 8747 553e
00000070: da74 a33d e7e1 efbd 3bc4 c0bd b5c4 ac3c
00000080: 44e9 18be e4e7 8b3d 00b7 243e efce f43c
00000090: c90f 3cbc 7815 4a3d dc8b 6cbe 7b7d 903e
000000a0: 3680 1a3e 1e83 edbd 62e8 59bc 87ac 083e
000000b0: f40d 95bd c4d7 733e f964 c5bd a884 ddbe
000000c0: cd5e 3e3d 9cbb 0d3b 6523 ab3d ee9f 7b3c
000000d0: 474e 2d3e 2410 223e 2550 173e aa19 eebd
000000e0: 604b dfbd b1be 4abe 9fc7 f23e 4856 cfbc
000000f0: 996d 243e 9057 bd3e 0eb7 253d cfb3 ddbe
00000100: d5f9 61be f7ca 123c 683d 663d ce9c a73d
00000110: 0720 9cbe 2306 febd f3d0 fabe 8aa9 233e
00000120: 86cb a6be 04c2 8d3e 38ae fb3b 8ca6 31bd
00000130: 75f6 ccbc 3b7a 7fbe 823c 4f3e a724 48be
00000140: c7f9 c6bd 2eb7 47be b752 6e3a 58c1 633d
00000150: c9f2 57be 2695 0b3e 7dc1 85be 1312 b13d
00000160: 197f 08bd 4123 fcbd 99de 63bd ccfe 273d
00000170: acad c73d 3018 6d3d 7c7f a93d 21d8 d5bd
00000180: ced1 dcbc 08e4 e63d 49b2 70bd 893a cdbe
00000190: 5a8e b2be 1369 d43b f2d2 693e 2e21 da3d
000001a0: d383 24be 5356 b7bc b250 953d ff66 163b
000001b0: 2671 3b3e fa3e 8d3d 8e32 163e ea3b 563e
000001c0: 6981 413e d7bc 18be 3408 de3d 76ee c9be
000001d0: 3613 193e 71d6 39be 06fb 32be 0b08 913d
000001e0: fb43 a9bc 4cbd c43d e45f 7abd 0417 90bd
000001f0: 9a77 263e 61b7 a13e 0947 593e 55a1 dd3d

critic.v_net.fcs.2.weight f4 [1, 128]
0.6054649 -0.8229822 -0.7288129 -0.6258835 0.9116412 -0.780438 -0.22894803 0.68024194
0.9326559 0.9852871 -0.77213514 0.61987305 0.6271076 1.2099733 -1.1228999 0.9056667
0.330856 0.6637554 -0.6862463 -0.7421692 -0.8120992 -0.7464776 -0.70914495 -1.2572302
0.5485425 -0.9445217 0.80506337 -1.2451223 0.63342184 0.5734446 0.66810733 -0.6123849
-0.5639557 0.7314603 -0.9159819 -0.39849973 -0.58946466 1.1679192 -0.61408925 -0.9896207
0.4491683 0.8979661 -0.17745477 -0.29518878 -1.0439643 1.079546 1.0378731 0.52853674
1.0574921 -1.0529803 1.2528232 0.63975906 -0.9203222 0.8744644 -0.9865975 -0.75646776
0.7425866 -0.9593587 -0.67709696 1.1726552 0.46045655 -0.4796635 0.872968 0.50846446
-1.1159421 0.7348678 -0.7706525 -1.1155652 0.8447367 0.5557888 0.5415005 0.78440946
1.5174314 -1.0864657 0.8991478 -0.71326995 0.6190942 1.2264999 -0.42167082 -1.3499107
-1.1035324 -0.65767455 0.68203396 -0.8454502 0.85850406 0.99456936 0.79474884 0.86472464
-0.8083544 -0.85055315 0.6967548 -0.72511 -1.3303329 -0.93284225 1.1708219 -0.768396
-0.66461325 -1.3851725 -0.9150468 -0.48921728 0.90064234 -1.0715668 0.8536818 0.93865615
-0.8646566 0.618014 -0.5985444 -0.67184967 -0.75700814 -0.7714603 -0.61349016 0.6005724
0.81417733 0.33856106 -0.8983409 0.45012456 -0.50677496 0.5346159 -0.69447076 -1.0141597
-0.86163986 0.5872414 -0.69161576 0.73682594 1.148233 -0.6591337 0.31334624 -0.9854559
00000000: bfff 1a3f f6ae 52bf 7b93 3abf e739 20bf
00000010: 5161 693f c9ca 47bf 5a71 6abe 5624 2e3f
00000020: 89c2 6e3f c63b 7c3f a6aa 45bf 00b0 1e3f
00000030: 208a 203f 68e0 9a3f 2fbb 8fbf c6d9 673f
00000040: f565 a93e e0eb 293f d6ad 2fbf cdfe 3dbf
00000050: bce5 4fbf 2819 3fbf 868a 35bf ebec a0bf
00000060: 486d 0c3f 2dcc 71bf a218 4e3f 2b60 9fbf
00000070: ef27 223f 44cd 123f 1509 2b3f 42c5 1cbf
00000080: 675f 10bf fb40 3b3f ca7d 6abf 2808 ccbe
00000090: 28e7 16bf 607e 953f f434 1dbf c857 7dbf
000000a0: 63f9 e53e 1be1 653f b4b6 35be fc22 97be
000000b0: 9fa0 85bf 902e 8a3f 07d9 843f 2f4e 073f
000000c0: e75b 873f 0fc8 86bf 835c a03f 40c7 233f
000000d0: 3c9a 6bbf e6dc 5f3f a791 7cbf dfa7 41bf
000000e0: 281a 3e3f 8898 75bf 3a56 2dbf 9119 963f
000000f0: f6c0 eb3e 7496 f5be d57a 5f3f ba2a 023f
00000100: 31d7 8ebf 4c20 3c3f 7b49 45bf d7ca 8ebf
00000110: aa40 583f 2d48 0e3f c79f 0a3f 0fcf 483f
00000120: 313b c23f 4f11 8bbf 8d2e 663f dc98 36bf
00000130: f57c 1e3f f3fd 9c3f 3de5 d7be e0c9 acbf
00000140: 8d40 8dbf 5c5d 28bf c799 2e3f 6d6f 58bf
00000150: ecc6 5b3f 199c 7e3f a974 4b3f 985e 5d3f
00000160: 50f0 4ebf dabd 59bf 865e 323f cfa0 39bf
00000170: 5948 aabf c0ce 6ebf 7edd 953f 9ab5 44bf
00000180: 1824 2abf 554d b1bf 8240 6abf b07a fabe
00000190: 7f90 663f 1a29 89bf e48a 5a3f c54b 703f
000001a0: 235a 5dbf 2a36 1e3f 353a 19bf 57fe 2bbf
000001b0: 49cb 41bf 6c7e 45bf b10d 1dbf 1dbf 193f
000001c0: ed6d 503f e057 ad3e abf9 65bf ba76 e63e
000001d0: 01bc 01bf 96dc 083f d6c8 31bf fccf 81bf
000001e0: 6e94 5cbf 7455 163f bb0d 31bf a0a0 3c3f
000001f0: 4df9 923f fcbc 28bf eb6e a03e d646 7cbf

exp_avg f4 [2]
0.07927938 -0.03459966
00000000: 3a5d a23d 60b8 0dbd

exp_avg_sq f4 [2]
0.005195162 0.005323649
00000000: 2d3c aa3b 0172 ae3b
