examples/rl/models/safe_explorer_ppo/safe_explorer_ppo_model_quadrotor_2D_track.pt (torch, 796411 bytes, 180 tensors)

actor.logstd f4 [2]
-0.8350631 -0.7422645
00000000: b2c6 55bf 0c05 3ebf

actor.pi_net.fcs.0.weight f4 [128, 12]
0.1516926 0.18748645 -0.03264446 0.07942861 0.06600747 -0.1380962 -0.12111917 0.088934705
-0.25367564 0.2051987 0.10758061 -0.019516163 0.27150697 0.20172192 0.160683 0.18486905
0.54065895 0.30453685 -0.095032275 -0.111368746 0.1598341 0.13174775 -0.0022747866 -0.012216494
-0.3901901 -0.42447332 -0.13046202 -0.3708441 -0.9588713 0.1837985 -0.0980544 0.308702
0.2524255 0.14671922 0.10669614 0.015437081 0.028893646 0.17209895 0.29351205 0.1055235
-0.36531267 -0.10775539 0.03189572 -0.0948923 -0.014160588 0.045519926 0.010250322 0.030664863
-0.26678312 -0.14827037 -0.099441715 0.24021377 -0.99426645 0.0008184531 0.22791821 0.14746961
0.060017113 0.10220145 0.09307429 -0.09487776 0.15704305 0.015053164 0.0886535 -0.23396589
0.09192718 0.003400908 -0.21523374 0.01754761 -0.028015038 0.063441135 -0.05572 -0.20564245
0.06336307 0.43192044 0.21065153 0.36902556 0.26460746 0.03732045 0.1626298 -0.22035693
-0.027065488 -0.09154366 0.09871761 -0.28022328 0.004767466 0.024921682 -0.2915736 -0.026864892
1.0287212 0.06134645 0.033440247 0.050471187 0.045728054 -0.0010876717 -0.009175955 -0.2788818
-0.1184583 -0.054778703 -0.04972782 0.20612745 0.7923287 0.11512383 0.07376002 -0.062618785
-0.16152765 -0.06531701 -0.12720937 0.15841146 -0.21562229 0.3014606 0.16654126 0.19359225
-0.32559183 -0.06795477 0.03778407 -0.21390213 -0.15308428 0.03631016 0.20963928 0.03367715
-0.007674 0.037951328 0.052993186 0.3271021 -0.106605045 0.106188685 0.06986426 -0.20780434
0.12140079 0.026783476 0.2206842 0.2810543 -0.0064187148 0.13574901 -0.0318048 -0.12152433
-0.042222634 0.015246921 0.10328318 -0.109323286 0.28635046 0.035916116 -0.04317366 0.24527596
-0.08573563 -0.14598992 -0.035884913 -0.41964802 -0.09159316 0.04076246 0.07039664 -0.01665542
-0.086737186 0.10066242 -0.16579922 0.27568513 0.08124457 0.045264702 -0.028075688 -0.16034818
0.77596414 0.22274244 -0.023323212 -0.27098092 -0.05571784 0.12555131 0.098690525 -0.18947099
-0.2971256 -0.2378619 -0.0059642056 -0.0032563994 -0.63629276 -0.1417038 0.31548774 0.14952353
-0.009224688 0.016752794 -0.10643305 -0.1248088 -0.25562322 -0.24009997 0.097860165 0.23599996
-1.0210526 -0.2384059 -0.07854072 0.04098614 0.08571736 -0.2416648 0.0076331627 -0.06586512
0.12597054 -0.29499593 -0.16095904 -0.33735627 -0.5832258 0.19855341 -0.11947581 0.056387335
-0.10687844 -0.11653035 0.24339437 0.042453367 -0.19357878 -0.15847573 -0.23334537 0.3010487
-0.83108217 -0.073402904 0.22934818 -0.016533932 0.17357671 0.0582403 0.15245938 -0.030391661
0.18826164 -0.08916881 0.0049940245 0.1046369 -0.13395436 -0.026800027 0.013417549 0.22584301
-0.095450565 -0.17595847 0.09482937 -0.11477116 0.05648941 0.2982216 0.081132665 -0.22654407
1.237159 0.17464685 -0.14273219 -0.09249427 0.07241874 -0.012619069 -0.109475374 -0.26945722
-0.08885624 -0.19236296 0.08638337 0.098697916 -0.6676194 -0.04019486 -0.050410282 0.18963511
0.00853531 -0.0993104 -0.26132646 -0.13753203 0.07048549 -0.41264322 0.08991093 -0.23939902
00000000: 4e55 1b3e 73fc 3f3e 33b6 05bd 78ab a23d
00000010: ed2e 873d 1769 0dbe 540d f8bd 6623 b63d
00000020: c6e1 81be 9c1f 523e 3953 dc3d 5ce0 9fbc
00000030: f602 8b3e 3190 4e3e 168a 243e 504e 3d3e
00000040: a068 0a3f 41ec 9b3e 48a0 c2bd 4c15 e4bd
00000050: 8dab 233e e2e8 063e 9614 15bb b127 48bc
00000060: ffc6 c7be 9154 d9be d697 05be 47df bdbe
00000070: 9778 75bf ad35 3c3e bfd0 c8bd 300e 9e3e
00000080: ea3d 813e 903d 163e 8183 da3d d0eb 7c3c
00000090: 5eb2 ec3c b53a 303e 3647 963e b41c d83d
000000a0: 430a bbbe dcae dcbd 16a5 023d e556 c2bd
000000b0: d001 68bc 1a73 3a3d f7f0 273c e134 fb3c
000000c0: cc97 88be 30d4 17be 19a8 cbbd 99fa 753e
000000d0: 3f88 7ebf 758d 563a 6463 693e 4602 173e
000000e0: 81d4 753d fe4e d13d bc9d be3d 454f c2bd
000000f0: e5cf 203e 8ca1 763c f78f b53d c194 6fbe
00000100: 5144 bc3d c5e1 5e3b 3c66 5cbe 01c0 8f3c
00000110: cb7f e5bc 6ded 813d a83a 64bd ef93 52be
00000120: 7fc4 813d ad24 dd3e 09b5 573e ebf0 bc3e
00000130: a17a 873e 54dd 183d 6d88 263e 3fa5 61be
00000140: 71b8 ddbc 3e7b bbbd 752c ca3d 6d79 8fbe
00000150: 6738 9c3b 8e28 cc3c 2349 95be c313 dcbc
00000160: 23ad 833f 6a46 7b3d a4f8 083d e0ba 4e3d
00000170: 574d 3b3d 3590 8eba bf56 16bc 98c9 8ebe
00000180: 449a f2bd a25f 60bd 66af 4bbd 1313 533e
00000190: 0ed6 4a3f 0bc6 eb3d 7e0f 973d 473e 80bd
000001a0: 8167 25be edc4 85bd 2c43 02be 9d36 223e
000001b0: 17cc 5cbe 0b59 9a3e cb89 2a3e 0c3d 463e
000001c0: f9b3 a6be df2b 8bbd 78c3 1a3d 2909 5bbe
000001d0: 20c2 1cbe f6b9 143d aeab 563e 0df1 093d
000001e0: 2e76 fbbb da72 1b3d 620f 593d ed79 a73e
000001f0: bf53 dabd 7479 d93d fe14 8f3d a9ca 54be
00000200: faa0 f83d 0569 db3c 0afb 613e 59e6 8f3e
00000210: 1554 d2bb ca01 0b3e c045 02bd bfe1 f8bd
00000220: a4f1 2cbd 39ce 793c 2286 d33d e3e4 dfbd
00000230: 879c 923e c71c 133d ddd6 30bd 9f29 7b3e
00000240: 2996 afbd 627e 15be 0ffc 12bd 1bdc d6be
00000250: 3295 bbbd 8af6 263d 1d2c 903d f370 88bc
00000260: 44a3 b1bd 1928 ce3d 45c7 29be 9a26 8d3e
00000270: 8e63 a63d 7b67 393d fcfe e5bc 5032 24be
00000280: 96a5 463f 9816 643e 5210 bfbc 03be 8abe
00000290: 6438 64bd 8690 003e 421e ca3d af04 42be
000002a0: d920 98be 1292 73be 626f c3bb 5169 55bb
000002b0: 15e4 22bf cd1a 11be 9c87 a13e b21c 193e
000002c0: 2523 17bc 283d 893c 92f9 d9bd c29b ffbd
000002d0: 0ce1 82be c4dc 75be e96a c83d f9a9 713e
000002e0: dab1 82bf ad20 74be f5d9 a0bd 15e1 273d
000002f0: 958c af3d fa76 77be 9c1f fa3b 4be4 86bd
00000300: 6cfe 003e b509 97be 72d2 24be f6b9 acbe
00000310: 494e 15bf 9651 4b3e bcaf f4bd 68f6 663d
00000320: 15e3 dabd 77a7 eebd 603c 793e 95e3 2d3d
00000330: 8439 46be 7647 22be 17f2 6ebe 0e23 9a3e
00000340: cdc1 54bf 4354 96bd 40da 6a3e 2b72 87bc
00000350: 18be 313e 618d 6e3d 501e 1c3e eff7 f8bc
00000360: a9c7 403e 239e b6bd eaa4 a33b df4b d63d
00000370: 552b 09be bb8b dbbc 48d5 5b3c 6443 673e
00000380: 967b c3bd 752e 34be e735 c23d 240d ebbd
00000390: 7161 673d 80b0 983e e228 a63d 2bfb 67be
000003a0: 3a5b 9e3f a0d6 323e 6328 12be a36d bdbd
000003b0: 4750 943d 36c0 4ebc a034 e0bd 4cf6 89be
000003c0: 43fa b5bd ccfa 44be c4e9 b03d 2222 ca3d
000003d0: 1be9 2abf 5ea3 24bd 037b 4ebd b52f 423e
000003e0: afd7 0b3c 4063 cbbd 95cc 85be 32d5 0cbe
000003f0: b25a 903d f945 d3be 3923 b83d 0425 75be

actor.pi_net.fcs.0.bias f4 [128]
-0.31895632 -0.28952017 0.22937106 -0.3086442 0.08125075 -0.07322825 -0.23190837 0.26976928
0.2196345 -0.035150588 -0.073664 -0.1984704 0.045840878 0.018047698 -0.09568509 -0.02545777
0.16060023 0.206166 0.092621714 -0.20198059 -0.12139848 -0.28203896 0.1045303 0.2431647
0.2231644 -0.038059413 -0.009044483 0.13630535 -0.17052035 0.2646683 -0.24174121 -0.21495955
-0.020736862 0.29604024 -0.12823446 0.17989911 -0.10608874 0.2456243 0.24516974 -0.14038928
-0.08791543 -0.16496192 -0.19222948 0.1057633 0.19199578 -0.16575277 0.00039378752 -0.08831794
0.087031916 0.07844809 -0.15612897 0.14593078 -0.09560471 -0.2707021 -0.06111008 0.115664475
0.23754793 -0.29919392 -0.0061709555 0.18937199 0.36709997 -0.10216526 0.04949945 0.11376191
-0.26538846 0.025675042 0.017956816 -0.05289017 -0.2454541 0.32580352 0.025202522 0.10718875
0.09353969 -0.11524538 0.056266505 -0.005262455 0.020254854 -0.14317313 0.26351428 0.3116149
0.07596992 -0.013218392 -0.19571598 0.036757417 0.24978402 0.003348099 0.1165736 -0.09518976
-0.29606104 0.20579542 0.110695444 -0.122294664 -0.16411866 0.10916991 0.39381695 -0.26151708
0.07415621 0.16658713 -0.0026190488 -0.3443597 0.007315277 0.16147216 -0.22576101 -0.17821914
-0.23290248 -0.036366854 0.09621951 -0.03771249 0.20877433 -0.33503485 0.04507879 0.3793302
-0.08448622 0.35519928 0.20198323 0.3318744 -0.068609394 0.16920291 0.3650056 0.112495065
-0.25265774 0.069623455 -0.12337726 0.119200915 0.20702367 0.019572586 0.33617198 0.102874465
00000000: 3e4e a3be fd3b 94be 3fe0 6a3e 9d06 9ebe
00000010: cb66 a63d b1f8 95bd 6379 6dbe 331f 8a3e
00000020: dee7 603e 10fa 0fbd 27dd 96bd d33b 4bbe
00000030: a5c3 3b3d c4d8 933c 8bf6 c3bd d08c d0bc
00000040: 6374 243e 2e1d 533e 74b0 bd3d 00d4 4ebe
00000050: c49f f8bd 6967 90be fb13 d63d 2b00 793e
00000060: 3585 643e 30e4 1bbd 502f 14bc a193 0b3e
00000070: e39c 2ebe 9a82 873e 028b 77be 5b1e 5cbe
00000080: 5ae0 a9bc 9692 973e e54f 03be 7937 383e
00000090: 0e45 d9bd f084 7b3e c70d 7b3e 35c2 0fbe
000000a0: 010d b4bd c7eb 28be ced7 44be 6e9a d83d
000000b0: 8b9a 443e 18bb 29be 4475 ce39 09e0 b4bd
000000c0: ca3d b23d 64a9 a03d 46e0 1fbe e16e 153e
000000d0: 67cc c3bd 7799 8abe 904e 7abd 7fe1 ec3d
000000e0: c43f 733e f22f 99be ba35 cabb bbea 413e
000000f0: 87f4 bb3e 053c d1bd efbf 4a3d 01fc e83d
00000100: ffe0 87be 7754 d23c 2c1a 933c 5da3 58bd
00000110: 5258 7bbe b8cf a63e 8575 ce3c c685 db3d
00000120: bd91 bf3d c505 ecbd b577 663d ac70 acbb
00000130: 82ed a53c fa9b 12be 58eb 863e fd8b 9f3e
00000140: 1e96 9b3d f491 58bc c569 48be f28e 163d
00000150: 62c7 7f3e c86b 5b3b 24be ee3d d9f2 c2bd
00000160: 5095 97be 09bc 523e 4bb4 e23d a075 fabd
00000170: b90e 28be 7994 df3d 60a2 c93e 91e5 85be
00000180: 36df 973d d195 2a3e 59a4 2bbb ea4f b0be
00000190: feb4 ef3b f558 253e e52d 67be 147f 36be
000001a0: fd7d 6ebe 69f5 14bd bc0e c53d 6978 1abd
000001b0: f0c8 553e b089 abbe 8aa4 383d 9137 c23e
000001c0: 1c07 adbd aedc b53e b1d4 4e3e 71eb a93e
000001d0: 1583 8cbd 8743 2d3e 04e2 ba3e d063 e63d
000001e0: 5b5c 81be be96 8e3d 38ad fcbd 9c1f f43d
000001f0: 03fe 533e b056 a03c bc1e ac3e d9af d23d

actor.pi_net.fcs.1.weight f4 [128, 128]
0.057580326 0.07455871 -0.045036286 -0.069196686 0.0012771399 -0.0049155336 -0.10237903 0.09241943
-0.06205841 0.08765712 0.06457863 0.078601226 -0.03799471 -0.02298228 0.058014385 0.049109437
0.07299582 0.07785004 -0.11788773 -0.03514357 -0.10080441 -0.10947339 -0.08251385 -0.0896698
0.011977611 -0.10527325 0.019090038 -0.030823823 0.052448142 0.062010936 -0.0015976146 -0.03666128
-0.050011292 -0.08409721 0.07355039 0.019545354 -0.044301357 -0.010563741 -0.04607932 0.059959408
-0.036570553 -0.023836752 0.021610871 -0.052639388 0.13447736 -0.06907982 -0.024357928 -0.0031379121
0.07697033 -0.073395565 -0.05778882 0.030134397 -0.026724655 -0.026032578 0.040119406 -0.006072015
-0.09273319 -0.0054616155 -0.00069940265 0.040240526 -0.06785217 -0.012850482 -0.050732847 -0.07253992
0.043446686 -0.032040574 -0.05647513 -0.0889341 -0.014786939 -0.033117022 -0.08880971 0.043672346
0.020578714 -0.025934562 0.013846053 0.058569103 0.068968974 -0.035255115 0.022844613 -0.10776251
0.0010034279 -0.09713958 -0.016997172 -0.09099278 0.07889939 -0.06841212 0.04158776 0.02222798
0.008102927 0.007419386 0.03367834 0.0415639 -0.013932712 -0.034785584 -0.015567807 -0.10097265
-0.052359506 0.004263501 0.026392162 -0.042059094 0.033888742 -0.01711379 0.0068822945 0.043678768
0.026679106 0.026975876 0.08294686 0.012562214 0.0001138255 -0.016490966 -0.013724983 0.07797944
-0.08594276 0.0058403863 -0.009064889 -0.13016053 0.049668025 -0.054845918 0.00031069084 0.052207746
-0.013780539 0.08227839 0.005317939 -0.029907582 0.03564546 -0.029213475 -0.044769105 0.035280634
0.03993342 0.1423264 -0.03957736 -0.0032430242 -0.028028278 -0.030197266 -0.068816975 0.06628959
-0.0068049203 0.12656012 -0.03611823 0.059101257 0.03389365 0.05644014 0.0807867 -0.034887195
-0.011625127 -0.077627115 -0.081118695 0.13458803 -0.07588545 -0.06912579 0.050902568 -0.08214995
0.008059952 -0.19805107 0.11484791 -0.04430938 0.06630545 -0.029219411 0.014969697 0.057166006
0.09021646 -0.02957574 0.13815789 0.07903828 -0.0064428276 -0.033467826 -0.048287004 -0.0945298
-0.14958838 0.04047724 0.13330849 -0.03231772 0.20277135 0.05223709 0.05656251 -0.046270184
-0.028343836 0.04473143 0.041621923 -0.2088694 -0.012797822 -0.19683163 0.00032519852 0.026387407
-0.09090152 0.031549618 -0.030535024 -0.20516014 -0.17133458 0.10172458 -0.014219074 -0.02340223
0.11958181 -0.048867725 -0.15513998 -0.020312456 0.026555626 0.069194585 -0.09187148 0.05147514
0.033826675 0.043169126 0.070573054 0.10818942 -0.03845934 0.0304483 0.05148664 0.005324123
0.102919586 -0.15539266 -0.15443385 -0.037611824 -0.0019924715 -0.025250137 -0.14475094 0.09113858
0.0028370488 -0.05645565 0.12589997 0.06667386 0.048654806 -0.03299597 -0.11733592 -0.006655759
-0.10785919 -0.120694935 0.14213103 -0.02889856 -0.036701534 -0.05349151 0.1124867 0.06278731
0.10086212 -0.084772505 -0.01454273 -0.0988862 -0.002785175 -0.040185474 -0.061448406 0.058120035
0.0700162 -0.16620515 -0.014495353 -0.07989468 0.11743314 -0.07736936 0.026532128 -0.040645573
0.04986771 0.020739201 0.093396306 0.020490823 0.073783286 -0.11086359 -0.033455644 0.23441514
00000000: 59d9 6b3d 3db2 983d f877 38bd feb6 8dbd
00000010: b465 a73a 7c12 a1bb 19ac d1bd 6646 bd3d
00000020: f630 7ebd 9385 b33d cd41 843d aef9 a03d
00000030: 57a0 1bbd 5645 bcbc 7ea0 6d3d fa26 493d
00000040: d57e 953d d76f 9f3d 1f6f f1bd b4f2 0fbd
00000050: 8b72 cebd 9633 e0bd 05fd a8bd cda4 b7bd
00000060: be3d 443c 8099 d7bd b662 9c3c 3e82 fcbc
00000070: ddd3 563d 2eff 7d3d 0d67 d1ba 232a 16bd
00000080: a4d8 4cbd 283b acbd 96a1 963d 941d a03c
00000090: 5775 35bd 8b13 2dbc abbd 3cbd ff97 753d
000000a0: 01cb 15bd 4b45 c3bc 4809 b13c 669c 57bd
000000b0: 6fb4 093e b879 8dbd 478a c7bc 6ea5 4dbb
000000c0: 9fa2 9d3d 6a50 96bd f8b3 6cbd 69dc f63c
000000d0: aaed dabc 4642 d5bc 3f54 243d c1f7 c6bb
000000e0: e6ea bdbd 5af7 b2bb 1e58 37ba 40d3 243d
000000f0: 14f6 8abd d48a 52bc 3fcd 4fbd cf8f 94bd
00000100: 27f5 313d fa3c 03bd 7752 67bd 1523 b6bd
00000110: eb44 72bc b7a5 07bd dee1 b5bd c6e1 323d
00000120: b194 a83c b874 d4bc 8eda 623c 28e6 6f3d
00000130: 9b3f 8d3d ab67 10bd a024 bb3c 97b2 dcbd
00000140: 7485 833a 1ef1 c6bd a73d 8bbc 6c5a babd
00000150: 0196 a13d a71b 8cbd ed57 2a3d 7417 b63c
00000160: 24c2 043c 521e f33b 4df2 093d e83e 2a3d
00000170: 0846 64bc 547b 0ebd 1d10 7fbc c0ca cebd
00000180: ec76 56bd d7b4 8b3b 6034 d83c 2846 2cbd
00000190: ecce 0a3d 3832 8cbc df84 e13b 82e8 323d
000001a0: 248e da3c 83fc dc3c 0be0 a93d bfd1 4d3c
000001b0: 9ab5 ee38 1018 87bc c0de 60bc afb3 9f3d
000001c0: c202 b0bd b660 bf3b e684 14bc cd48 05be
000001d0: b370 4b3d 1da6 60bd 38e4 a239 cad7 553d
000001e0: c5c7 61bc 9381 a83d 1b42 ae3b bf00 f5bc
000001f0: f900 123d 1951 efbc cf5f 37bd 6d82 103d
00000200: 3a91 233d 03be 113e df1b 22bd eb88 54bb
00000210: 8f9b e5bc 4260 f7bc eaef 8cbd d6c2 873d
00000220: cffb debb fa98 013e b6f0 13bd 2914 723d
00000230: 11d4 0a3d c72d 673d 7f73 a53d e0e5 0ebd
00000240: 5177 3ebc f7fa 9ebd 8f21 a6bd 72d1 093e
00000250: d569 9bbd d291 8dbd 367f 503d 3c3e a8bd
00000260: e40d 043c e6cd 4abe 6235 eb3d c17d 35bd
00000270: 27cb 873d 8c5d efbc 7643 753c e726 6a3d
00000280: 68c3 b83d d348 f2bc 4379 0d3e d2de a13d
00000290: 5b1e d3bb 8f15 09bd 98c8 45bd d798 c1bd
000002a0: b22d 19be 76cb 253d 0582 083e 965f 04bd
000002b0: 4ba3 4f3e 8ff6 553d 17ae 673d ce85 3dbd
000002c0: 5531 e8bc 4e38 373d c07b 2a3d dce1 55be
000002d0: f5ad 51bc 3b8e 49be 687f aa39 672a d83c
000002e0: 932a babd 2c3a 013d 9624 fabc 8015 52be
000002f0: 5572 2fbe fa54 d03d 1ef7 68bc 09b6 bfbc
00000300: 4fe7 f43d 8629 48bd 04dd 1ebe 4f66 a6bc
00000310: 2f8b d93c e4b5 8d3d 1d27 bcbd 99d7 523d
00000320: d78d 0a3d 1cd2 303d 9b88 903d 6a92 dd3d
00000330: 8a87 1dbd b76e f93c a8e3 523d fb75 ae3b
00000340: 81c7 d23d 411f 1fbe e823 1ebe db0e 1abd
00000350: 2094 02bb 60d9 cebc 9739 14be dda6 ba3d
00000360: c8ed 393b 0a3e 67bd eceb 003e 4e8c 883d
00000370: 434a 473d c826 07bd d14d f0bd 8e18 dabb
00000380: 47e5 dcbd e82e f7bd cc8a 113e acbc ecbc
00000390: 5954 16bd ea19 5bbd 6d5f e63d a296 803d
000003a0: cd90 ce3d 359d adbd a144 6ebc d984 cabd
000003b0: 7c87 36bb 8699 24bd 53b1 7bbd 460f 6e3d
000003c0: a764 8f3d af31 2abe eb7d 6dbc d29f a3bd
000003d0: c980 f03d d473 9ebd e859 d93c f97b 26bd
000003e0: 1542 4c3d 42e5 a93c 9046 bf3d 5fdc a73c
000003f0: b11b 973d 730c e3bd c908 09bd 860a 703e

actor.pi_net.fcs.1.bias f4 [128]
0.001999442 -0.09469694 -0.09401639 -0.04392114 -0.017861571 -0.07595033 -0.073408 -0.10688979
0.05952624 0.09915963 0.046408303 0.0793508 -0.0151389735 0.03717653 0.06809345 0.04673411
0.025834177 -0.036671627 -0.08545643 0.15431906 -0.014761934 0.014794908 0.0066615995 0.003151178
-0.010127697 0.07034719 -0.011997701 0.06478007 -0.066868745 -0.0024077257 0.06803701 0.01758592
0.05868685 0.05092772 0.0074912217 -0.0033383134 -0.038457185 -0.0018489498 -0.01442691 0.016869785
-0.06895582 -0.018969608 0.07139402 -0.06521071 0.03524954 0.0434881 0.06364259 -0.04801475
0.0064821653 0.119120434 0.09058003 0.035074793 -0.0008028818 -0.0036471144 -0.029059425 -0.07274913
-0.07319829 0.08335733 -0.054519888 0.066990726 -0.039895795 0.02988564 -0.049920388 -0.047683444
-0.06353034 -0.03247055 -0.035709944 -0.049969863 -0.101629004 -0.0353561 0.05143003 0.16113795
-0.019500354 -0.040740814 0.013495535 -0.06188054 -6.955795e-05 0.13766226 -0.051094964 0.05771954
-0.040092234 0.14949481 0.07738356 0.08333372 0.016241804 -0.013838677 0.14755002 0.030028978
-0.013143477 -0.07149329 -0.04244334 -0.16050875 -0.040035103 0.050505582 0.09487579 -0.07705756
0.06326066 0.0049852747 -0.05940074 -0.07246807 -0.09029083 -0.064982645 0.0752835 0.25011504
0.018066388 -0.04404824 -0.016982956 0.045265168 0.06581117 0.056224126 0.06416228 0.06553711
-0.060008626 0.013242718 0.06799004 -0.009584977 -0.0067456868 -0.07076024 0.015702322 0.034476914
0.10999597 -0.0563576 -0.099929154 0.05337743 -0.03127208 0.009273019 0.010047348 -0.046058018
00000000: 1209 033b 78f0 c1bd aa8b c0bd a7e6 33bd
00000010: 6e52 92bc d98b 9bbd ef56 96bd 09e9 dabd
00000020: c9d1 733d 3414 cb3d a216 3e3d ac82 a23d
00000030: 7509 78bc 6b46 183d 9474 8b3d 446c 3f3d
00000040: 32a2 d33c fd34 16bd c803 afbd d105 1e3e
00000050: 0adc 71bc 5866 723c 8c49 da3b fe83 4e3b
00000060: a4ee 25bc 3012 903d 0192 44bc 6aab 843d
00000070: 7bf2 88bd efca 1dbb fd56 8b3d 5910 903c
00000080: 9f61 703d 9699 503d ec78 f53b 9bc7 5abb
00000090: 4885 1dbd 7658 f2ba d95e 6cbc 8132 8a3c
000000a0: b538 8dbd 2766 9bbc 0737 923d 318d 85bd
000000b0: d261 103d 9420 323d 0c57 823d 1dab 44bd
000000c0: 5868 d43b 6af5 f33d 0682 b93d 96aa 0f3d
000000d0: 7c78 52ba 6d04 6fbb 080e eebc 7ffd 94bd
000000e0: fce8 95bd 3fb7 aa3d 3f50 5fbd 6f32 893d
000000f0: c669 23bd bbd2 f43c 5279 4cbd b74f 43bd
00000100: 321c 82bd d7ff 04bd 9744 12bd 33ad 4cbd
00000110: de22 d0bd 8fd1 10bd 4ca8 523d 5901 253e
00000120: 35bf 9fbc d7df 26bd 601c 5d3c 7376 7dbd
00000130: a4df 91b8 56f7 0c3e f448 51bd 536b 6c3d
00000140: c137 24bd 2b15 193e 467b 9e3d dfaa aa3d
00000150: 880d 853c 9ebb 62bc 5a17 173e 55ff f53c
00000160: bd57 57bc 136b 92bd 11d9 2dbd 685c 24be
00000170: d9fb 23bd f1de 4e3d 3d4e c23d 5bd0 9dbd
00000180: ce8e 813d 845b a33b 314e 73bd 246a 94bd
00000190: 66ea b8bd 9f15 85bd 3c2e 9a3d 140f 803e
000001a0: f6ff 933c ed6b 34bd d71f 8bbc f867 393d
000001b0: 02c8 863d 454b 663d 8367 833d 5238 863d
000001c0: 9bcb 75bd fcf7 583c 5d3e 8b3d 4f0a 1dbc
000001d0: ec0a ddbb bfea 90bd 28a2 803c aa37 0d3d
000001e0: 9145 e13d 3ad7 66bd a8a7 ccbd 4ba2 5a3d
000001f0: 2717 00bd dced 173c a29d 243c 55a7 3cbd

actor.pi_net.fcs.2.weight f4 [2, 128]
0.003019531 0.026779033 -0.00081917417 -0.0049717235 -0.0021842783 -0.0034569362 -0.02373427 -0.09565223
0.0055957204 0.16761097 0.0042637964 0.0007439682 0.0015450934 -0.002176499 0.0015985203 0.015599028
-0.004028564 -3.7110898e-05 -0.007055427 0.0038523285 -0.0042703343 -0.0010530761 0.00092396606 -0.0007430008
-0.031197062 0.006937228 -0.19102003 -0.1939342 0.00087670307 0.0036968589 -0.0005672789 9.170676e-05
0.010489342 -0.0006449595 -0.002758452 -0.0010992677 -0.00036301836 0.0045376588 0.00047444136 0.010167047
0.014343583 -0.16778344 0.0015409259 0.0058869272 0.015555028 -0.0037781575 -0.0074091903 -0.0023180314
-0.0010992668 -0.0006394691 -0.0012287502 0.007425639 0.00087149785 0.0034135992 -0.11373168 -0.0005105935
-0.00065397745 -0.0021606935 -0.0985805 0.0063395803 -0.0044874307 -0.21067561 -0.0011000262 2.2017717e-05
0.003086986 -0.0013091151 0.0019594396 0.0007910328 -0.08662621 -0.029851312 0.0018251027 0.033030603
-0.055551793 0.003109968 0.003589147 0.0023353796 -0.0013722208 0.002705849 -0.1574424 0.0011188657
-0.0009816838 0.03156049 -0.04840065 0.08342975 0.0012205977 -0.113450274 0.11235548 -0.001505758
0.000541687 -0.0077440958 0.010346166 -0.15854625 -0.0010989283 -0.00046606778 -0.10550734 -0.0016017945
0.003441925 -0.079757474 0.0021207305 0.01713896 -0.009938727 0.005824248 -0.0024858364 0.14775988
-0.0026817864 0.0032992826 0.0017717468 -0.0026973726 0.103315726 -0.002195333 0.0046137874 0.00016842778
-8.856702e-05 0.00059842377 0.002039499 -0.0020419483 -0.0033989956 0.00028600718 -0.0008476066 -0.0022206884
0.13381326 0.0436733 0.10002155 0.00044598567 0.0018215105 -0.0012178693 0.0010563987 -0.092638694
0.0030155694 -0.03811704 -0.003857155 -0.00448321 -0.0018342356 -0.001762306 -0.02981707 0.059815384
0.0016857992 -0.0763093 0.0044290386 0.0039364705 -0.0027162721 -0.0019513638 -0.0005484172 0.0009696208
-0.0025840271 -0.00049308845 -0.0031843667 0.14611563 -0.001317761 0.004320914 -0.0003402469 -0.0005755916
-0.014281459 6.0004037e-05 0.14079532 0.115183435 -0.002688828 0.001636176 -0.0008784423 0.001817218
0.0013625388 -0.002572419 0.00057294185 0.0001869948 -0.00083638565 0.00529977 -0.0032178217 -0.018751837
0.0049057608 -0.03960255 -0.0005582933 -0.017736597 -0.000752102 -0.0042419285 0.0012842912 -0.0031354968
-0.0018224323 -0.0014009138 0.0036622272 0.005274598 0.0025895925 0.0013886067 -0.10090865 -0.0016906622
-0.0020260026 0.0014249055 -0.042290002 0.0048234123 -0.0028063303 0.14723909 -0.0033191007 -0.0018623003
0.001008302 0.0015132386 0.0019822395 0.0021834143 -0.0059961556 -0.03271886 0.0039630313 0.12840182
0.13161072 0.0021183554 0.004420664 0.002706658 0.0012652487 0.0019130997 -0.028642142 -0.00050586363
-0.00028088083 0.13157248 -0.17333382 0.01996787 0.001785126 0.0038236016 0.03223315 0.0014687957
0.00052001147 -0.0017704577 0.005288916 -0.04779961 -0.0021547377 -0.0002697032 0.1484421 -0.0049657826
0.004452194 0.17961758 0.002275547 -0.044882074 0.008000824 0.004908571 -0.0017296907 0.22153378
-0.0018160102 0.00074774417 -0.0010304931 -0.0030938718 0.0071108467 -0.0075674793 0.0023014168 0.031054487
-0.0006469488 0.0021287915 -0.00069352624 -0.00064870954 -0.0016655311 -0.0013592709 -0.0017725754 -0.002266231
0.13930248 -0.09109444 -0.3244928 0.0013296307 0.0041629947 -0.0015656685 0.0049004 -0.021751523
00000000: 53e3 453b b45f db3c d9bd 56ba d7e9 a2bb
00000010: 1c26 0fbb c48d 62bb 5f6e c2bc 51e5 c3bd
00000020: 4e5c b73b 36a2 2b3e 51b7 8b3b dc06 433a
00000030: bb84 ca3a 98a3 0ebb 7185 d13a 1193 7f3c
00000040: 0b02 84bb 86a7 1bb8 3631 e7bb 5977 7c3b
00000050: 29ee 8bbb 5f07 8aba 5036 723a f1c5 42ba
00000060: fb90 ffbc b051 e33b c19a 43be b096 46be
00000070: 8cd2 653a 0047 723b 71b5 14ba b152 c038
00000080: 7ddb 2b3c 8012 29ba 25c7 34bb 4e15 90ba
00000090: 8053 beb9 a4b0 943b 71be f839 b093 263c
000000a0: 5901 6b3c 6ccf 2bbe e5f8 c93a 20e7 c03b
000000b0: 84da 7e3c f79a 77bb cbc8 f2bb 1dea 17bb
000000c0: 4615 90ba 0ba2 27ba 040e a1ba c652 f33b
000000d0: 3b75 643a b1b6 5f3b 28ec e8bd 5ad9 05ba
000000e0: af6f 2bba 6c9a 0dbb 93e4 c9bd 41bc cf3b
000000f0: 4c0b 93bb 59bb 57be c12e 90ba b0b2 b837
00000100: 084f 4a3b 9d96 abba f169 003b 505d 4f3a
00000110: 1569 b1bd bd8a f4bc 4938 ef3a 194b 073d
00000120: 478a 63bd 9bd0 4b3b e537 6b3b 2b0d 193b
00000130: 17dc b3ba 9d54 313b 9538 21be e7a6 923a
00000140: d8ab 80ba 9345 013d c33f 46bd 37dd aa3d
00000150: 76fc 9f3a 9e58 e8bd a11a e63d db5c c5ba
00000160: 0000 0e3a 2fc2 fdbb f782 293c f359 22be
00000170: ea09 90ba 8f5a f4b9 3b14 d8bd 4ef3 d1ba
00000180: eb91 613b e357 a3bd f4fb 0a3b 0167 8c3c
00000190: 0bd6 22bc 55d9 be3b 6ae9 22bb 5e4e 173e
000001a0: e9c0 2fbb c738 583b f539 e83a 67c6 30bb
000001b0: 3297 d33d 93df 0fbb 412f 973b fd9b 3039
000001c0: 0fbd b9b8 8adf 1c3a 1ea9 053b 35d2 05bb
000001d0: afc1 5ebb 3cf3 9539 eb31 5eba f888 11bb
000001e0: 5806 093e c6e2 323d 19d8 cc3d 2fd3 e939
000001f0: c0bf ee3a eaa0 9fba dc76 8a3a 5bb9 bdbd
00000200: dca0 453b 9d20 1cbd 53c8 7cbb e4e7 92bb
00000210: bc6a f0ba 2dfd e6ba ee42 f4bc fa00 753d
00000220: 09f6 dc3a 0d48 9cbd 7821 913b 82fd 803b
00000230: 7c03 32bb e7c4 ffba a8c3 0fba 272e 7e3a
00000240: c858 29bb 9b42 01ba cfb0 50bb 569f 153e
00000250: b9b8 acba 7496 8d3b 2a63 b2b9 4ce3 16ba
00000260: c8fc 69bc d8ac 7b38 a62c 103e 4be5 eb3d
00000270: 0c37 30bb f574 d63a 4447 66ba b82f ee3a
00000280: 3797 b23a 0796 28bb 7a31 163a 0914 4439
00000290: e440 5bba b1a9 ad3b 17e2 52bb 749d 99bc
000002a0: 81c0 a03b 4936 22bd 6e5a 12ba 574c 91bc
000002b0: b628 45ba e0ff 8abb a955 a83a e87c 4dbb
000002c0: aede eeba de9e b7ba fa01 703b 89d6 ac3b
000002d0: 27b6 293b e901 b63a 32a9 cebd 3699 ddba
000002e0: afc6 04bb e5c3 ba3a 4838 2dbd b70d 9e3b
000002f0: 69ea 37bb d8c5 163e 4585 59bb 6e18 f4ba
00000300: 0029 843a dd57 c63a 76e8 013b 9d17 0f3b
00000310: 667b c4bb 3604 06bd 51dc 813b c47b 033e
00000320: f6c4 063e 1bd4 0a3b 38db 903b 3062 313b
00000330: b4d6 a53a f9c0 fa3a eda2 eabc ef9b 04ba
00000340: 3043 93b9 f0ba 063e 6c7e 31be a993 a33c
00000350: e4fa e93a 6495 7a3b e806 043d 9b84 c03a
00000360: 6151 083a b40e e8ba a54e ad3b 86c9 43bd
00000370: 8036 0dbb f366 8db9 3501 183e 01b8 a2bb
00000380: b6e3 913b aced 373e 5821 153b 44d6 37bd
00000390: e315 033c 14d8 a03b cab6 e2ba c0d9 623e
000003a0: 3107 eeba 4304 443a 9c11 87ba 8ec2 4abb
000003b0: 1b02 e93b 9ef8 f7bb 5ed3 163b fb65 fe3c
000003c0: 0098 29ba 3283 0b3b c2cd 35ba 290e 2aba
000003d0: f34d daba 9029 b2ba c355 e8ba 0c85 14bb
000003e0: 4fa5 0e3e b98f babd ec23 a6be 0147 ae3a
000003f0: bb69 883b 1e37 cdba 8993 a03b 4030 b2bc

actor.pi_net.fcs.2.bias f4 [2]
0.03802546 -0.0033469198
00000000: 96c0 1b3d ff57 5bbb

critic.v_net.fcs.0.weight f4 [128, 12]
-0.17153697 -0.009678589 0.89156675 0.54534924 0.1628762 -0.023225546 -0.37731785 -0.20452368
-0.532826 -0.07540033 -0.18689021 -0.14726272 0.20670086 -0.5277464 -0.0348231 -0.18896414
-1.7560868 0.14634542 0.20462951 0.8797184 -0.0958096 -0.20038791 0.0756368 0.27420318
-0.7642306 0.65632635 0.6296385 0.31392917 0.8838354 -0.16833313 0.57040656 0.16774768
0.027372051 -0.1559501 0.2427099 -0.09441088 -0.6409935 0.5083251 -0.23354502 -1.2617768
0.87498266 0.20535415 0.049370825 -0.14515555 0.2730253 0.26445472 -0.19069591 0.0034398304
-0.79698765 -0.89423305 -0.25746965 0.32867956 0.6707092 0.45889667 0.34103727 0.14663936
-0.46662745 0.10696197 0.09565012 0.029746559 0.666101 -0.18021663 0.20664293 0.54928404
0.1287777 -0.0128644705 -0.31779557 -0.1608468 0.004406779 -0.27404663 0.22056106 -0.2041053
0.08777079 -0.6376236 0.42769328 0.80170405 0.018875556 0.16791092 0.0053020003 0.27330777
-0.46320224 -0.55332124 -0.18869103 -0.0043932013 -0.73180956 -0.2715672 -0.70812184 -0.3696223
-0.37044644 -0.0058331797 0.85144126 -0.13584591 0.23849596 0.019889036 0.105258405 -0.28579172
-0.79359925 -0.34575447 0.4186283 -0.63979924 0.43306217 -0.101849295 0.65256083 0.14067812
-0.4287046 0.49962208 0.247448 -0.18111093 0.45265466 0.92697555 0.276302 1.3457377
0.08903756 0.35158733 0.028527716 -0.5291695 -0.29313585 0.035739254 -0.057247445 -0.070324846
0.030059777 -0.44866976 -0.17511362 0.2418548 -0.45717123 -0.027151477 0.49183714 0.4276637
0.16978067 -0.33059555 0.1125706 -0.11900668 -0.33369976 0.39830968 -0.20792592 0.11659894
1.3506372 0.08414259 0.49659064 -0.38498956 -0.105433725 0.12918179 0.14859992 0.23647287
0.10189972 -1.2651434 -0.53151715 0.69492537 -1.7930777 -0.07137474 -0.07522113 0.7108231
-0.19170812 -0.49283177 -0.27933633 -0.24405304 1.030463 0.13087817 -0.5251232 0.72663826
0.06472249 0.0145500135 -0.7870504 -0.28639755 0.161042 -0.5239552 0.24797118 0.26358968
1.3745568 -0.13091919 0.07799276 0.15265304 0.5142056 0.007882199 -0.89124304 0.86417645
0.4385055 0.13573553 0.2693793 0.2279214 -1.0665721 -0.6480722 0.13640447 -2.0525203
-0.21717268 0.19643022 -0.30701733 0.20381318 -0.048530146 -0.1544731 -0.25707194 -0.23698847
-1.0708982 -0.37206507 -0.006178165 -0.3592633 0.02060319 -0.14301896 0.7497166 -0.8078558
-0.47002086 -0.45673195 0.050929192 0.044165917 0.9533942 0.084881924 0.16491733 1.0896937
0.6032537 -0.006509683 -0.5310311 0.56190306 -0.12641369 0.0011762523 0.076183096 0.15587366
1.0562481 -0.26757187 0.88072133 -0.90024495 -1.0573995 0.30976635 -0.18733257 -0.09673493
-0.2001795 0.1640722 -0.16477984 -0.026295682 -0.35636422 -1.360433 0.11515926 -0.99617445
-0.59291315 0.083993606 -0.17135967 0.9009506 0.3687391 -0.28329787 -0.010908637 0.038260862
-1.0203189 -0.5424954 -0.22478752 0.0021639417 -1.1392368 0.11710026 0.654367 0.38145882
0.1666851 0.20886552 0.24730301 0.26352033 0.38648954 0.19543768 -0.5283879 -0.75284785
00000000: 63a7 2fbe f292 1ebc b83d 643f 029c 0b3f
00000010: 05c9 263e 8043 bebc ce2f c1be a86e 51be
00000020: 4967 08bf 7d6b 9abd 2660 3fbe 0acc 16be
00000030: 64a9 533e 631a 07bf aba2 0ebd d17f 41be
00000040: 74c7 e0bf 93db 153e 668a 513e 3a35 613f
00000050: d337 c4bd 7d32 4dbe 77e7 9a3d 5c64 8c3e
00000060: 9ea4 43bf 0105 283f fd2f 213f 53bb a03e
00000070: 0943 623f 855f 2cbe 2a06 123f 0cc6 2b3e
00000080: 5a3b e03c 62b1 1fbe f288 783e 7e5a c1bd
00000090: 2618 24bf 9821 023f 6d26 6fbe e781 a1bf
000000a0: ddfe 5f3f 5c48 523e 1039 4a3d a8a3 14be
000000b0: f9c9 8b3e 9c66 873e ca45 43be c76e 613b
000000c0: 6207 4cbf 75ec 64bf 10d3 83be b048 a83e
000000d0: 99b3 2b3f 81f4 ea3e 709c ae3e a128 163e
000000e0: cbe9 eebe e10e db3d 36e4 c33d 0eaf f33c
000000f0: 9885 2a3f b58a 38be 349a 533e e19d 0c3f
00000100: 4dde 033e 80c5 52bc 1ab6 a2be 06b5 24be
00000110: be66 903b d74f 8cbe c2da 613e fb00 51be
00000120: 2cc1 b33d 4d3b 23bf 9dfa da3e 7a3c 4d3f
00000130: e9a0 9a3c d7f0 2b3e 67bc ad3b ffee 8b3e
00000140: d828 edbe 76a6 0dbf 3938 41be d8f4 8fbb
00000150: df57 3bbf db0a 8bbe 7947 35bf 223f bdbe
00000160: 28ab bdbe 4224 bfbb 0ef8 593f 311b 0bbe
00000170: 4938 743e 55ee a23c b891 d73d 4b53 92be
00000180: 5229 4bbf bb06 b1be 7356 d63e e2c9 23bf
00000190: 53ba dd3e 5d96 d0bd 3a0e 273f ed0d 103e
000001a0: 2b7f dbbe 77ce ff3e 0263 7d3e 2575 39be
000001b0: 5ac2 e73e 454e 6d3f 7577 8d3e 2241 ac3f
000001c0: 5359 b63d 4103 b43e f5b2 e93c a777 07bf
000001d0: e715 96be 5363 123d 4c7c 6abd 7906 90bd
000001e0: ec3f f63c 0bb8 e5be fc50 33be c9a8 773e
000001f0: 5912 eabe c66c debc 14d2 fb3e bdf6 da3e
00000200: fcda 2d3e d243 a9be 6a8b e63d c6b9 f3bd
00000210: b2da aabe 3fef cb3e 88ea 54be 6dcb ee3d
00000220: aee1 ac3f f352 ac3d 2141 fe3e 5a1d c5be
00000230: a3ed d7bd 3b48 043e 942a 183e f225 723e
00000240: cdb0 d03d 38f0 a1bf 8211 08bf a1e6 313f
00000250: 9283 e5bf eb2c 92bd 890d 9abd 81f8 353f
00000260: 224f 44be 7254 fcbe 2c05 8fbe 0ae9 79be
00000270: 36e6 833f ed04 063e 796e 06bf f704 3a3f
00000280: 3a8d 843d 2e63 6e3c 237c 49bf b3a2 92be
00000290: 32e8 243e ee21 06bf 28ec 7d3e 3af5 863e
000002a0: 7af1 af3f ae0f 06be abba 9f3d 1451 1c3e
000002b0: faa2 033f 5724 013c 8128 64bf ab3a 5d3f
000002c0: cb83 e03e 41fe 0a3e 15ec 893e 3a64 693e
000002d0: 6f85 88bf 0fe8 25bf 9dad 0b3e 7e5c 03c0
000002e0: 8462 5ebe 0125 493e 6031 9dbe 67b4 503e
000002f0: 8cc7 46bd 322e 1ebe ef9e 83be 1bad 72be
00000300: 3113 89bf 507f bebe 3472 cabb 5cf1 b7be
00000310: 05c8 a83c 9073 12be 6ded 3f3f a3cf 4ebf
00000320: 93a6 f0be c5d8 e9be 219b 503d 52e7 343d
00000330: a411 743f 93d6 ad3d 17e0 283e 157b 8b3f
00000340: d66e 1a3f 2e4f d5bb a7f1 07bf e1d8 0f3f
00000350: 9772 01be 7a2c 9a3a e205 9c3d 589d 1f3e
00000360: 2333 873f 2eff 88be f476 613f 7476 66bf
00000370: de58 87bf b299 9e3e 1cd4 3fbe f71c c6bd
00000380: dbfb 4cbe 8b02 283e 0cbc 28be 0b6a d7bc
00000390: 5f75 b6be ab22 aebf 9ed8 eb3d 4a05 7fbf
000003a0: 28c9 17bf d704 ac3d e978 2fbe b3a4 663f
000003b0: 5fcb bc3e 6b0c 91be 24ba 32bc 6cb7 1c3d
000003c0: cf99 82bf fbe0 0abf b32e 66be ebd0 0d3b
000003d0: 83d2 91bf 43d2 ef3d 9984 273f 924e c33e
000003e0: 80af 2a3e d8e0 553e 003d 7d3e 23ec 863e
000003f0: f5e1 c53e d120 483e 6e44 07bf a3ba 40bf

critic.v_net.fcs.0.bias f4 [128]
-0.32376313 0.36988318 0.68200445 0.876988 -0.4063653 -0.8210206 -0.708711 0.5233456
-0.10081125 -0.7371114 0.34977967 0.4297199 0.10249716 0.06450408 -0.10884587 0.4902674
0.042207886 0.20199148 0.49231687 0.60945916 0.6059236 0.89130586 0.8725846 -0.7957622
-0.6722596 -0.20701638 0.38734427 -0.3777043 0.09551472 -0.5914824 -0.64380425 -0.16690516
-0.58245176 0.15930957 0.25927463 0.60192907 0.24077685 0.4152378 0.19591168 -0.7457277
0.8206861 -0.2099229 0.3413095 -0.78149945 0.8180322 -0.43953905 0.5339681 -0.33086386
0.6758985 0.43282473 0.017736161 -0.39642867 0.36992654 -0.19793744 -0.5466188 0.79584527
0.12597995 -0.26598814 -0.7471404 0.50958806 -0.35107315 -0.4177182 0.40138623 0.25440308
0.09211791 0.5394836 -0.6377858 0.22110303 -0.8059015 -0.093195885 -0.21892315 -0.07910178
-0.019261092 -0.079220235 0.5107011 0.366503 -0.42165396 0.4467747 0.4225085 -0.03328728
-0.7520908 0.7194288 -0.39266682 0.21451023 0.65518486 -0.6330214 0.3151593 -0.3024981
-0.014541512 0.6421673 -0.6617154 -0.63247186 0.07050072 -0.006292763 0.47586265 0.48328343
0.93739474 -0.33718485 -0.10128505 0.3374413 0.20714253 -0.66296935 -0.3709005 -0.45728326
0.073084146 0.47575146 0.9256136 0.021220103 -0.44513282 0.51655245 0.3595478 0.49265596
0.19122599 0.2152096 0.08658465 -0.52543396 0.41787735 -0.27068517 -0.16835275 0.103442796
-0.79422635 -0.31776038 0.57271296 0.20486465 -0.16200206 -0.067384824 0.21257167 -0.29444087
00000000: 48c4 a5be 5461 bd3e d897 2e3f 4982 603f
00000010: 1d0f d0be 682e 52bf 166e 35bf faf9 053f
00000020: 2176 cebd 55b3 3cbf 5216 b33e 3f04 dc3e
00000030: 08ea d13d b71a 843d 95ea debd 5404 fb3e
00000040: 2de2 2c3d dbd6 4e3e f510 fc3e 8405 1c3f
00000050: cf1d 1b3f 9f2c 643f b461 5f3f 12b7 4bbf
00000060: 3519 2cbf 1afc 53be fd51 c63e 7562 c1be
00000070: 399d c33d 646b 17bf 5bd0 24bf 30e9 2abe
00000080: 8f1b 15bf 0c22 233e a5bf 843e 0618 1a3f
00000090: 358e 763e 0d9a d43e 129d 483e 03e8 3ebf
000000a0: 7c18 523f 07f6 56be 1ec0 ae3e 5910 48bf
000000b0: 8f6a 513f 430b e1be 22b2 083f fd66 a9be
000000c0: af07 2d3f 349b dd3e 6d4b 913c b3f8 cabe
000000d0: 0367 bd3e 1db0 4abe 36ef 0bbf 84bc 4b3f
000000e0: e300 013e 992f 88be 9844 3fbf 5d74 023f
000000f0: dcbf b3be 29df d5be 7f82 cd3e 1f41 823e
00000100: 51a8 bc3d 991b 0a3f ee45 23bf d568 623e
00000110: 904f 4ebf 7cdd bebd 642d 60be 1d00 a2bd
00000120: 70c9 9dbc 383e a2bd 4fbd 023f 48a6 bb3e
00000130: 07e3 d7be a7bf e43e 0953 d83e 3e58 08bd
00000140: 0689 40bf 7c2c 383f a00b c9be 92a8 5b3e
00000150: 32ba 273f b10d 22bf 8f5c a13e 08e1 9abe
00000160: 863f 6ebc 1465 243f 2e66 29bf ade9 21bf
00000170: ae62 903d 8633 cebb 45a4 f33e ed70 f73e
00000180: 1af9 6f3f 7ea3 acbe 896e cfbd 1bc5 ac3e
00000190: 2c1d 543e 5cb8 29bf ace6 bdbe 0821 eabe
000001a0: 24ad 953d b295 f33e 03f5 6c3f c8d5 ad3c
000001b0: 73e8 e3be c83c 043f a616 b83e 673d fc3e
000001c0: bfd0 433e e85f 5c3e 4b53 b13d d782 06bf
000001d0: 05f4 d53e 3f97 8abe aa64 2cbe d1d9 d33d
000001e0: 6b52 4bbf 7db1 a2be 519d 123f 0ac8 513e
000001f0: dee3 25be 0e01 8abd 63ac 593e f4c0 96be

critic.v_net.fcs.1.weight f4 [128, 128]
0.7423026 0.035334684 -0.0013428729 -0.20539914 0.31334794 -0.25465629 0.24169268 -0.47410843
1.011941 -0.7301856 -0.12961404 0.103184655 0.09532203 -0.8314193 0.49184167 0.4072081
0.44378158 0.43874133 0.19049057 1.2420717 -0.05629158 -0.21578237 0.12017878 -0.3240253
0.49830735 -0.38164768 0.18532504 -0.34716412 0.14121193 0.031411096 -0.50221086 -0.29026568
-0.23978259 -0.086552076 -0.20413798 0.14402032 -0.70036715 -0.25213814 0.3145858 0.46036592
0.1670528 0.2985712 0.4840581 -0.37197196 0.15867339 0.6326255 -0.20250139 -0.124501415
1.0989022 0.585554 -0.6643316 0.53460443 0.51917946 -0.23982798 -0.09495606 -0.061331894
-0.0071322494 -0.011438726 0.22459005 -0.36236155 0.66729164 1.1811749 0.16298935 0.66676825
0.08522512 -0.18140495 -0.5508117 -0.2442892 0.07054227 0.23663974 -0.4295262 0.26604417
-0.14800823 0.50596684 0.47728065 0.34701863 -0.310357 -0.56145287 -0.34917545 1.1903783
0.0071716914 -0.24120872 -0.40206596 -1.0292374 -0.14358455 0.162936 -0.13855256 -0.09332387
0.00590922 0.34176219 -0.5098384 0.041920852 0.47288856 -0.95544577 0.3295809 0.3460479
0.51953703 0.0032390421 -0.22458948 -0.15574893 -0.114518315 -0.042640936 -0.3883472 -0.81134444
-0.2865386 -0.262365 -0.011019348 -0.21388528 0.40195107 -1.0025244 -0.059219375 -0.5143883
0.21362326 0.74786896 0.32208526 -0.064066954 0.10734846 0.06984142 -0.19487159 0.25606126
-0.16833204 0.03210658 0.24053906 0.07666342 -0.4780035 -0.023982285 -0.03722527 -0.71957445
0.37676436 1.0074402 0.3396128 0.28644067 0.21128431 -0.7862269 0.03482464 0.14278895
0.4235297 -0.46351063 -0.117214344 -0.35259268 -0.17645907 -0.86737686 -0.7752553 0.33784696
0.45494875 -0.8411906 0.02255132 0.34222075 1.0372441 -0.37212923 -0.24270956 -0.17194459
0.68916625 0.05573461 -0.30434316 -0.49387765 0.72771126 -0.08862078 0.08149579 -0.18131602
0.20040317 0.22424737 0.50234675 0.018763563 -0.10211729 -0.7734866 0.66712326 0.42412993
-0.122405775 -0.2242364 -0.61631984 -0.011355137 -0.114281885 0.0417314 -0.29673126 0.52967924
0.8142813 0.30560732 -0.04493572 0.4698141 0.41192278 -0.47450522 -0.39594314 -0.3068552
0.4010364 -0.0809679 0.39814883 -0.016499663 -0.029179435 0.8116707 0.074860886 0.372825
-0.64289314 -0.08868921 0.029284172 -0.65008736 -0.12929744 -0.7659584 -1.0627753 0.67347026
0.30995563 -0.7470289 0.31527433 -0.2712099 -0.013245323 -0.15710661 -0.46416926 -0.27466172
0.2725221 -0.20850027 -0.7273101 0.02257182 -0.34000382 -0.48526603 -0.37932476 0.20785898
-0.0070963264 0.5742028 -0.10388121 -0.2500415 0.19303483 -0.40214095 0.003438774 0.8663079
0.23640162 -0.52813727 -0.24740605 -0.88415736 -0.24165381 0.36908928 -0.29082572 0.42014763
-0.16209307 -0.6855335 -0.24826281 -0.63351834 -0.9700417 -0.48789266 0.9116594 1.030671
-0.6299714 0.30636546 0.88791627 -0.3372229 -0.17126186 0.84049225 1.1240606 0.36995304
0.33623618 -0.7386869 0.42431545 0.2553158 -0.19830833 -0.051572595 -0.15766148 -0.8651298
00000000: 8b07 3e3f 1abb 103d 5603 b0ba 2754 52be
00000010: 246f a03e 4f62 82be 497e 773e 57be f2be
00000020: 4887 813f 72ed 3abf 8bb9 04be 7a52 d33d
00000030: 3238 c33d e5d7 54bf acd2 fb3e 957d d03e
00000040: 5737 e33e b4a2 e03e f60f 433e 35fc 9e3f
00000050: 0092 66bd 0ef6 5cbe 4b20 f63d a5e6 a5be
00000060: 2422 ff3e 5367 c3be d9c5 3d3e 7fbf b1be
00000070: dc99 103e eca8 003d e490 00bf b49d 94be
00000080: 9189 75be 3742 b1bd 8c09 51be 107a 133e
00000090: 434b 33bf 4018 81be 6411 a13e 15b5 eb3e
000000a0: e40f 2b3e 53de 983e 77d6 f73e 1c73 bebe
000000b0: 477b 223e bff3 213f 865c 4fbe 99fa febd
000000c0: d4a8 8c3f dee6 153f a311 2abf d6db 083f
000000d0: f2e8 043f 7795 75be 5378 c2bd 2737 7bbd
000000e0: a5b5 e9bb 7f69 3bbc effa 653e 7487 b9be
000000f0: a0d3 2a3f bd30 973f aee6 263e 53b1 2a3f
00000100: 828a ae3d 38c2 39be ff01 0dbf f326 7abe
00000110: 7778 903d b051 723e dcea dbbe f136 883e
00000120: 788f 17be 0b87 013f 215e f43e 6dac b13e
00000130: 1de7 9ebe 60bb 0fbf 20c7 b2be 515e 983f
00000140: 8200 eb3b 6bff 76be 97db cdbe 0dbe 83bf
00000150: d407 13be b2d8 263e b9e0 0dbe 9620 bfbd
00000160: 21a2 c13b 74fb ae3e c584 02bf 33b5 2b3d
00000170: 731e f23e 1898 74bf d4be a83e 312d b13e
00000180: 6100 053f 1c46 543b c9fa 65be a67c 1fbe
00000190: 9488 eabd 43a8 2ebd 72d5 c6be 45b4 4fbf
000001a0: 30b5 92be b554 86be 7f8a 34bc be04 5bbe
000001b0: 88cc cd3e b852 80bf 0490 72bd f4ae 03bf
000001c0: 0ec0 5a3e 5774 3f3f 5ce8 a43e 8935 83bd
000001d0: 82d9 db3d 0509 8f3d 6b8c 47be 761a 833e
000001e0: 3c5f 2cbe 3082 033d df4f 763e b601 9d3d
000001f0: e0bc f4be 7f76 c4bc 8679 18bd 0836 38bf
00000200: 42e7 c03e cdf3 803f bbe1 ad3e 5aa8 923e
00000210: ea5a 583e 2b46 49bf 48a4 0e3d 4437 123e
00000220: e3d8 d83e 4451 edbe 130e f0bd 0787 b4be
00000230: b0b1 34be 690c 5ebf 2277 46bf 47fa ac3e
00000240: 0bef e83e 4458 57bf 8cbd b83c 8f37 af3e
00000250: 6ac4 843f b987 bebe db88 78be 3e12 30be
00000260: 336d 303f f949 643d ded2 9bbe 88dd fcbe
00000270: 494b 3a3f d07e b5bd 44e7 a63d e8aa 39be
00000280: 7d36 4d3e 1aa1 653e cc99 003f 0bb6 993c
00000290: df22 d1bd 3803 46bf 97c8 2a3f 8f27 d93e
000002a0: e1af fabd 3a9e 65be 23c7 1dbf e60a 3abc
000002b0: 9f0c eabd 8bee 2a3d 29ed 97be 0f99 073f
000002c0: bd74 503f 9078 9c3e 840e 38bd 798b f03e
000002d0: 8be7 d23e 59f2 f2be 0fb9 cabe 201c 9dbe
000002e0: a554 cd3e 80d2 a5bd 2ada cb3e 4d2a 87bc
000002f0: b609 efbc a7c9 4f3f aa50 993d ebe2 be3e
00000300: a594 24bf b0a2 b5bd 5ce5 ef3c 206c 26bf
00000310: 8c66 04be da15 44bf 0509 88bf 8c68 2c3f
00000320: 81b2 9e3e 493d 3fbf a36b a13e 06dc 8abe
00000330: e902 59bc 8ee0 20be 98a7 edbe 76a0 8cbe
00000340: 0488 8b3e 1881 55be ff30 3abf 8ae8 b83c
00000350: fb14 aebe ca74 f8be db36 c2be fcd8 543e
00000360: 4d88 e8bb f4fe 123f acbf d4bd 7105 80be
00000370: ecaa 453e 6be5 cdbe 0e5d 613b 5bc6 5d3f
00000380: 4413 723e 0134 07bf 0358 7dbe 2358 62bf
00000390: 1974 77be 45f9 bc3e 1ce7 94be 971d d73e
000003a0: bafb 25be 207f 2fbf 9b38 7ebe 422e 22bf
000003b0: a754 78bf 11cd f9be 8362 693f 07ed 833f
000003c0: ce45 21bf efdb 9c3e 7b4e 633f 7ba8 acbe
000003d0: 455f 2fbe 802a 573f 38e1 8f3f 7c6a bd3e
000003e0: 2627 ac3e 961a 3dbf e03f d93e c1b8 823e
000003f0: 5711 4bbe c93d 53bd 0372 21be 2679 5dbf

critic.v_net.fcs.1.bias f4 [128]
-0.062040158 0.010137749 0.12211972 0.17218105 -0.09265851 0.14268993 -0.15014698 0.046723578
-0.0123373605 0.0024342716 -0.0018191084 -0.042001233 0.11338545 -0.40994668 0.07982579 0.3554195
-0.3169257 -0.07741222 0.07988221 -0.13466334 -0.2790214 -0.08286569 -0.25439084 0.26705036
0.13418818 -0.05212901 0.038018506 -0.28863484 -0.15609062 0.124412835 -0.12731498 0.12580514
-0.20627257 0.12522817 0.0033436106 0.25957128 -0.36960614 0.120965496 -0.07437296 0.21140221
-0.061104156 0.22305904 -0.12848304 0.029996391 0.29010913 -0.034162402 0.10185135 -0.08096036
-0.15120521 0.17169812 0.19897997 -0.19130981 0.109475546 0.22356825 -0.074182905 -0.15731038
0.11730657 0.036114726 0.01446752 -0.117187075 0.11831172 0.056037758 -0.30714965 0.06365628
0.06457721 0.030227615 -0.029461697 -0.07857619 -0.013979088 0.24419884 -0.0691551 0.07971889
0.26620522 0.0257869 -0.33656493 0.16904785 0.039685447 -0.17353028 -0.19558963 -0.16449806
-0.26913136 -0.06508061 -0.21756881 -0.031004393 0.1590355 0.042893544 -0.017279293 0.13489231
-0.03259405 -0.11776449 0.09227729 0.15182911 -0.14518161 -0.21116763 -0.026099907 0.16366103
0.0023558978 0.13303235 0.06580529 -0.13181582 -0.08724232 -0.15679511 0.08607408 -0.15344459
0.45263425 0.23288122 0.06987817 0.07034483 0.04403744 0.09358592 0.12743261 0.102064356
0.035463497 0.04964309 0.11581623 -0.04843404 0.10110115 0.21827191 0.22629532 0.0397047
0.112931386 0.035946842 -0.107750535 0.020213684 -0.058070224 0.086332746 -0.29321975 -0.2296822
00000000: d21d 7ebd cd18 263c e719 fa3d 3b50 303e
00000010: bfc3 bdbd 4f1d 123e 21c0 19be 3961 3f3d
00000020: a422 4abc 4d88 1f3b 266f eeba 7c09 2cbd
00000030: a136 e83d 88e4 d1be b47b a33d 8bf9 b53e
00000040: 1644 a2be 4c8a 9ebd 4999 a33d 30e5 09be
00000050: e5db 8ebe 7db5 a9bd 843f 82be d3ba 883e
00000060: a068 093e 3b85 55bd 4bb9 1b3d f2c7 93be
00000070: 38d6 1fbe 28cc fe3d dc5e 02be 10d3 003e
00000080: 1e39 53be d03b 003e 7a20 5b3b 87e6 843e
00000090: 043d bdbe c2bc f73d da50 98bd d279 583e
000000a0: 5a48 7abd 9769 643e 0f91 03be feba f53c
000000b0: 2f89 943e e0ed 0bbd 7197 d03d 8cce a5bd
000000c0: 8ad5 1abe a2d1 2f3e 68c1 4b3e b8e6 43be
000000d0: b734 e03d 13ef 643e 35ed 97bd f915 21be
000000e0: 6d3e f03d 09ed 133d 2d09 6d3c c7ff efbd
000000f0: 6a4d f23d d987 653d b842 9dbe 395e 823d
00000100: 0e41 843d e79f f73c a859 f1bc 8eec a0bd
00000110: 8b08 65bc 430f 7a3e 30a1 8dbd a843 a33d
00000120: 0d4c 883e 0d3f d33c 3d52 acbe e11a 2d3e
00000130: 358d 223d ecb1 31be a648 48be 2e72 28be
00000140: 96cb 89be fc48 85bd 5cca 5ebe edfc fdbc
00000150: 34da 223e 24b1 2f3d 4e8d 8dbc 3621 0a3e
00000160: 5781 05bd 822e f1bd e0fb bc3d 1779 1b3e
00000170: 7daa 14be 543c 58be 79cf d5bc c296 273e
00000180: 6865 1a3b a239 083e edc4 863d bafa 06be
00000190: 1aac b2bd e68e 20be 9b47 b03d 9420 1dbe
000001a0: adbf e73e 6a78 6e3e 491c 8f3d f310 903d
000001b0: 9a60 343d faa9 bf3d b27d 023e 1e07 d13d
000001c0: 2c42 113d 8e56 4b3d 0f31 ed3d c662 46bd
000001d0: 1f0e cf3d ac82 5f3e f6b9 673e 65a1 223d
000001e0: 9248 e73d ff3c 133d 50ac dcbd 2b97 a53c
000001f0: 0bdb 6dbd 39cf b03d e620 96be d031 6bbe

critic.v_net.fcs.2.weight f4 [1, 128]
0.6649003 1.1006733 -1.1587561 0.5901264 1.0324662 0.82167304 -1.6914932 -0.71707505
0.20769729 -1.1481237 -1.7889098 1.8234776 1.9744807 1.3546306 -1.83084 1.1697057
2.248943 -1.730451 -1.176773 -0.969677 1.3508528 -0.6825079 -1.2421311 -1.9710115
0.54271847 1.2324896 -1.0454848 -0.9738397 -0.49350446 0.9943297 -1.7396753 -1.46855
-0.62447476 1.2230861 -1.2668164 0.672077 -1.7141876 0.70459646 -1.4868858 -1.840988
1.0310287 0.84565854 1.6738608 -0.77707577 -2.2666526 -1.2293953 1.4200363 1.0531952
-1.520465 0.47760406 -1.2258623 -1.7668821 1.3667556 1.7989948 0.6121188 1.3925648
1.0640435 -0.8110215 0.6200454 -1.2381717 -1.1414409 1.2686825 1.26263 -1.1760759
0.93233746 1.0093201 1.3211434 -1.7034051 1.4464256 0.6142602 -0.6759122 1.2917172
1.1353472 0.69067043 1.9716895 -1.8937197 -1.0060694 -1.3545119 -0.84875023 -0.5559796
2.1461608 -1.160681 1.0593477 -0.4117321 1.3089515 0.9654668 1.7833625 0.82111734
-1.2565894 -1.6044865 0.82413685 -0.8744361 1.1551572 1.6791232 -0.9191694 -1.0645729
1.4877651 1.246561 0.854518 -0.5633275 0.46177137 -0.7166346 1.0498371 -1.2056098
0.28900844 -1.7032006 0.16652356 1.2587627 1.089104 0.07967586 0.58147115 1.5305187
1.2887026 1.6823844 -2.15789 1.0212688 1.3348951 1.5101779 1.4447482 -1.7101071
-1.6785345 -1.1104224 -1.5560234 -0.92908853 1.4076874 0.7690185 -1.3959157 1.6476523
00000000: e836 2a3f dde2 8c3f 1f52 94bf 8612 173f
00000010: da27 843f 2a59 523f d982 d8bf 3b92 37bf
00000020: 99ae 543e b8f5 92bf fffa e4bf b767 e93f
00000030: c9bb fc3f 8964 ad3f f758 eabf ebb8 953f
00000040: afee 0f40 6b7f ddbf 7fa0 96bf c03c 78bf
00000050: bfe8 ac3f d6b8 2ebf 27fe 9ebf 1b4a fcbf
00000060: 99ef 0a3f 38c2 9d3f 72d2 85bf 8f4d 79bf
00000070: 9eac fcbe 648c 7e3f aead debf 72f9 bbbf
00000080: 94dd 1fbf 168e 9c3f 0a27 a2bf 3d0d 2c3f
00000090: 806a dbbf 6f60 343f 4652 bebf 7fa5 ebbf
000000a0: c0f8 833f 147d 583f 1241 d63f 70ee 46bf
000000b0: d610 11c0 d35c 9dbf c0c3 b53f 1acf 863f
000000c0: 999e c2bf 8588 f43e 0ee9 9cbf 3129 e2bf
000000d0: d9f1 ae3f 7645 e63f d1b3 1c3f 903f b23f
000000e0: 9432 883f 1b9f 4fbf 4cbb 1e3f 697c 9ebf
000000f0: bc1a 92bf 3064 a23f dc9d a13f a889 96bf
00000100: abad 6e3f 6731 813f 3a1b a93f 2e09 dabf
00000110: 7924 b93f 2840 1d3f 9508 2dbf fd56 a53f
00000120: 0f53 913f c7cf 303f 5260 fc3f 6865 f2bf
00000130: e2c6 80bf a560 adbf b247 59bf ae54 0ebf
00000140: b35a 0940 3291 94bf b598 873f 8dce d2be
00000150: b98b a73f d528 773f 3945 e43f bf34 523f
00000160: ecd7 a0bf d05f cdbf a2fa 523f 0bdb 5fbf
00000170: 31dc 933f 82ed d63f b04e 6bbf ed43 88bf
00000180: 166f be3f 508f 9f3f b1c1 5a3f 3b36 10bf
00000190: 4c6d ec3e 5d75 37bf 1061 863f 6c51 9abf
000001a0: eaf8 933e 7a02 dabf 2785 2a3e 231f a13f
000001b0: c367 8b3f 192d a33d 4bdb 143f 09e8 c33f
000001c0: 35f4 a43f 5f58 d73f df1a 0ac0 f0b8 823f
000001d0: d8dd aa3f 824d c13f 82ed b83f cae4 dabf
000001e0: 38da d6bf 5222 8ebf c62b c7bf bfd8 6dbf
000001f0: 1a2f b43f 65de 443f 5ead b2bf 45e6 d23f

exp_avg f4 [2]
0.003705427 0.013487912
00000000: c0d6 723b 67fc 5c3c

exp_avg_sq f4 [2]
0.00523511 0.004355119
00000000: 498b ab3b 63b5 8e3b
