examples/rl/models/safe_explorer_ppo/safe_explorer_ppo_pretrain_cartpole_track.pt (torch, 148082 bytes, 82 tensors)

actor.pi_net.fcs.0.weight f4 [32, 8]
0	0xbea52974	-0.3225819
1	0x3df9a729	0.121900864
2	0x3e1a3549	0.15059389
3	0xbe3f0acc	-0.18656462
4	0xbea78684	-0.32719815
5	0x3ea29d41	0.317606
6	0x3d22d288	0.03975156
7	0x3ea9c3ca	0.33157188
8	0x3ba73ef6	0.005103941
9	0x3d195cc7	0.037441995
10	0xbe9468cf	-0.28986213
11	0xbe14c02a	-0.1452643
12	0xbe5d1651	-0.21590544
13	0x3eafc1e6	0.3432762
14	0x3e866dbd	0.262556
15	0x3e1ab1d0	0.15106893
16	0x3e9e92ae	0.30971283
17	0xbd1a7640	-0.03771043
18	0xbe84e511	-0.25956014
19	0xbd71f0fc	-0.05906771
20	0xbe6ce81e	-0.2313542
21	0xbe639073	-0.22223072
22	0x3e42b7c2	0.1901541
23	0x3def47ff	0.11683654
24	0x3d1884d8	0.037236065
25	0xbe66da8f	-0.22544311
26	0x3d970a6f	0.07375037
27	0x3de7243e	0.112862095
28	0xbe516cae	-0.20451614
29	0xbe41de63	-0.1893249
30	0xbe1b4fb0	-0.15167117
31	0xbe0c9cf9	-0.13731755
32	0xbea6cdc2	-0.32578856
33	0x3d601853	0.054710697
34	0x3e9b6ff8	0.30358863
35	0x3e958971	0.29206422
36	0xbce17d8c	-0.027525686
37	0xbc66381d	-0.014051464
38	0xbe89df32	-0.26928097
39	0xbdd41dcd	-0.103572465
40	0x3e10070b	0.14065187
41	0xbe5b806d	-0.2143571
42	0xbe0f9dc6	-0.1402503
43	0xbe9b8c9e	-0.3038072
44	0x3eaaf956	0.33393353
45	0x3ead4a39	0.3384569
46	0xbccf799e	-0.025326546
47	0xbd87d542	-0.066324726
48	0xbdcd2c66	-0.10018234
49	0xbd8d409a	-0.068970874
50	0xbe7fcccb	-0.24980466
51	0x3eb09edc	0.344962
52	0x3ead9aee	0.33907264
53	0x3e3bfe21	0.18358661
54	0xbd1ff00c	-0.039047286
55	0x3e040009	0.12890638
56	0x3de9e32c	0.11420283
57	0x3e6210ec	0.22076768
58	0x3e04f3f7	0.1298369
59	0x3e4b2480	0.19838142
60	0x3e3daf8d	0.18523999
61	0x3df57cef	0.1198672
62	0xbd801194	-0.06253353
63	0xbcb9af9b	-0.022666743
64	0xbd9a8744	-0.07545331
65	0xbea9c1db	-0.33155712
66	0xbe760471	-0.24025132
67	0xbd3bdadd	-0.04586302
68	0x3e3ecd03	0.18632893
69	0xbe903d5a	-0.28171808
70	0x3e800a4d	0.2500786
71	0x3e639a76	0.22226891
72	0x3e96a800	0.2942505
73	0x3e3d96a9	0.18514504
74	0x3df893fc	0.12137601
75	0xbdd078d1	-0.10179294
76	0x3e83120a	0.255997
77	0x3eaebb9a	0.34127504
78	0x3d3a4e9e	0.04548513
79	0xbd3200ca	-0.043457784
80	0x3e1f474d	0.15554543
81	0x3df73cee	0.12072168
82	0x3e4af632	0.19820479
83	0x3bd7f7f9	0.00659084
84	0x3e42b584	0.19014555
85	0xbd0bae64	-0.03410186
86	0x3e20b379	0.15693463
87	0x3d8c270a	0.068433836
88	0xbe91ed02	-0.28501135
89	0x3e78284e	0.24234125
90	0xbd5df58e	-0.054189257
91	0x3ccece69	0.025244908
92	0x3e8a40b4	0.2700249
93	0xbe89bd74	-0.26902354
94	0xbe9a0668	-0.30083013
95	0x3ea91b86	0.3302881
96	0xbe1727f4	-0.14761335
97	0xbe78cb05	-0.24296196
98	0xbc45cc18	-0.0120725855
99	0xbe80c9ea	-0.25154048
100	0x3e30de20	0.17272234
101	0x3d96a984	0.07356551
102	0xbe1ac4d4	-0.15114146
103	0xbcb48935	-0.022038082
104	0x3dd09ebc	0.10186526
105	0xbd989872	-0.07450952
106	0x3d758516	0.059941374
107	0xbcfc1c05	-0.03077508
108	0xbe3d927c	-0.1851291
109	0xbd982d8a	-0.07430561
110	0xbe18000d	-0.1484377
111	0xbe748e1b	-0.23882334
112	0xbe8ae8a2	-0.2713061
113	0x3eb2398d	0.34809533
114	0x3e23af6a	0.15984884
115	0xbd7abc3c	-0.06121467
116	0xbe286d46	-0.16447935
117	0x3e56b618	0.20967901
118	0xbe8db3d3	-0.27676257
119	0xbe6c48da	-0.23074666
120	0xbe6c6030	-0.23083568
121	0x3e373341	0.17890646
122	0x3dadb4f9	0.084817834
123	0x3e8f1e47	0.27952787
124	0xbe03b5ab	-0.1286227
125	0xbe934463	-0.28763112
126	0x3e77b3fd	0.24189754
127	0xbdbec586	-0.09315018
128	0xbe7244dd	-0.23659082
129	0x3e562104	0.20911032
130	0xbea232d6	-0.3167941
131	0x3da606af	0.081067435
132	0x3eaa3646	0.33244532
133	0xbe7a7f9a	-0.24462739
134	0xbe2d9f21	-0.16955234
135	0xbc31fd14	-0.010863561
136	0x3e8f0f85	0.27941528
137	0xbe95463b	-0.29155144
138	0xbd729b88	-0.059230357
139	0xbc96085c	-0.018314533
140	0xbe66b47c	-0.22529787
141	0x3c55ba27	0.01304487
142	0x3ea90ec3	0.33019075
143	0xbe80ebcb	-0.25179896
144	0x3e82fa64	0.25581658
145	0xbe929538	-0.2862947
146	0x3e4514f1	0.1924627
147	0x3cdf60e0	0.027267873
148	0xbce46b58	-0.027883217
149	0xbcbfea93	-0.023427283
150	0x3d0c31c7	0.03422716
151	0x3de2c249	0.11072213
152	0x3e9fb5e0	0.31193447
153	0xbe9ea8ed	-0.30988255
154	0x3eab3c46	0.33444422
155	0x3e47f14e	0.19525644
156	0x3e9eb65c	0.30998504
157	0x3ea00fba	0.31261998
158	0x3e436004	0.19079596
159	0xbe61aeec	-0.22039384
160	0x3e802c43	0.2503377
161	0x3e8d2955	0.27570596
162	0x3eae0683	0.33989343
163	0xbde90d9a	-0.113795474
164	0x3e3f7655	0.18697484
165	0xbd7d91a4	-0.06190647
166	0xbe0e9159	-0.13922633
167	0xbe3c36cc	-0.18380278
168	0xbe95f551	-0.29288724
169	0x3e8072bf	0.25087544
170	0x3e5817d9	0.21102847
171	0xbd4c343a	-0.049854495
172	0xbe1e4b18	-0.15458333
173	0xbd021964	-0.031762496
174	0xbeafaaf7	-0.34310123
175	0xbc88c629	-0.016696053
176	0xbe511117	-0.20416676
177	0xbc97ebab	-0.018544992
178	0xbd35f027	-0.04441848
179	0x3ea604ee	0.32425636
180	0xbc005510	-0.0078327805
181	0x3e6f699e	0.23380134
182	0xbe6940de	-0.22778651
183	0x3da31d70	0.07964599
184	0x3e8f90f2	0.28040272
185	0xbc297f41	-0.010345281
186	0xbde8dfcc	-0.11370811
187	0xbe9ef7af	-0.31048343
188	0x3ea8a02f	0.3293471
189	0x3e23c5ad	0.15993376
190	0x3e8eb19e	0.27869886
191	0x3eb4d4ab	0.35318503
192	0x3e1954b9	0.14973725
193	0x3df510e0	0.11966109
194	0x3e1d7a44	0.15378672
195	0xbe928595	-0.2861754
196	0x3e5746ad	0.21023054
197	0x3d28abbd	0.041179407
198	0xbe8a7061	-0.27038863
199	0xbd960627	-0.07325392
200	0xbe9f1a17	-0.31074592
201	0xbe9d5d7e	-0.3073539
202	0x3dd345b1	0.10316027
203	0xbe924342	-0.2856694
204	0x3dc20838	0.09474224
205	0xbe03dbd4	-0.12876827
206	0xbe278a9c	-0.16361469
207	0x3c6451cd	0.013935518
208	0x3eb0846e	0.34476036
209	0xbdbd607a	-0.09246917
210	0xbe8b96c2	-0.27263457
211	0x3eafa009	0.34301785
212	0x3e9441a0	0.28956318
213	0xbd30aa81	-0.043131355
214	0xbe832035	-0.2561051
215	0x3dd33d84	0.103144675
216	0xbd7adcf0	-0.06124586
217	0xbd993205	-0.074802436
218	0x3e93b1ea	0.28846675
219	0xbd688998	-0.056771845
220	0xbe301502	-0.17195514
221	0x3e8cec42	0.27524
222	0x3e272bd0	0.16325307
223	0x3e133446	0.1437541
224	0x3e4f39bc	0.20236868
225	0xbe81850f	-0.25296828
226	0xbea24be4	-0.31698525
227	0xbe8aa50e	-0.27079052
228	0xbe02231d	-0.12708707
229	0x3c1dd415	0.009633084
230	0x3e5e7b6e	0.21726772
231	0xbdf70281	-0.120610245
232	0xbeb1a6af	-0.34697482
233	0x3e1e5aeb	0.1546437
234	0xbd81d550	-0.06339514
235	0xbe64ee7a	-0.22356597
236	0xbc00553e	-0.007832823
237	0xbeb24258	-0.3481624
238	0xbe8d09d9	-0.27546576
239	0xbe455cb9	-0.19273652
240	0x3e3494cc	0.17634887
241	0xbe938438	-0.28811812
242	0xbe59f03d	-0.2128305
243	0xbc85e00d	-0.016342187
244	0xbdb76b83	-0.08956053
245	0x3e277d9b	0.16356508
246	0x3e836794	0.2566496
247	0x3e09705d	0.1342177
248	0xbe4a7041	-0.19769384
249	0x3e832832	0.25616604
250	0xbc13dfd8	-0.0090255365
251	0xbea38fda	-0.31945688
252	0xbe9b6fd1	-0.30358747
253	0x3e50ade2	0.20378831
254	0xbda05d12	-0.07830252
255	0x3e637c60	0.22215414

actor.pi_net.fcs.0.bias f4 [32]
0	0x3d3d1148	0.04615906
1	0x3e039110	0.12848306
2	0x3e90ddf0	0.28294325
3	0xbdcae1e6	-0.09906368
4	0xbe99af2f	-0.30016467
5	0x3ea7e819	0.32794264
6	0x3d1ad216	0.03779801
7	0x3d514362	0.051089652
8	0x3e51603d	0.20446868
9	0x3d91e6f8	0.07124132
10	0xbea2cde7	-0.31797716
11	0xbe920363	-0.2851821
12	0x3e310912	0.17288616
13	0xbe22538d	-0.15852185
14	0x3e9fa797	0.31182548
15	0x3eac481f	0.33648774
16	0x3e547754	0.20748645
17	0x3da68219	0.08130283
18	0xbe0aa9a2	-0.13541272
19	0xbe54d09c	-0.20782703
20	0x3b5ac226	0.0033379882
21	0xbe248be6	-0.16068992
22	0x3e8d2c8f	0.27573058
23	0x3da39633	0.079876326
24	0xbdc2eac2	-0.09517433
25	0xbdbd796d	-0.09251676
26	0x3eb13354	0.34609473
27	0xbe522816	-0.20523104
28	0xbe93b2f0	-0.28847456
29	0xbe815aed	-0.25264683
30	0x3d8b4119	0.06799526
31	0xbe22eb12	-0.15909985

actor.pi_net.fcs.1.weight f4 [32, 32]
0	0xbdfa76e8	-0.12229711
1	0xbd0a3718	-0.033743948
2	0x3da59077	0.08084195
3	0x3d92c210	0.07165921
4	0x3df9a644	0.12189916
5	0xbc62eddc	-0.013850655
6	0xbc3e005f	-0.011596768
7	0x3e2c72d3	0.16840677
8	0x3e306a09	0.17227949
9	0x3dc5ef97	0.09664839
10	0xbe2cd106	-0.16876611
11	0x3de18a54	0.11012712
12	0x3d939e76	0.072079584
13	0xbd48ab76	-0.048991643
14	0xbe03ca65	-0.12870176
15	0xbd83b7ec	-0.06431565
16	0x3e21d115	0.15802415
17	0x3d9a7774	0.07542315
18	0xbe34a0fd	-0.17639537
19	0xbd2e2e43	-0.042524587
20	0xbd8a66a5	-0.06757859
21	0x3d76a404	0.06021501
22	0x3d0e484f	0.034736928
23	0xbe1ee4ae	-0.15516922
24	0x3d85a6d7	0.06525963
25	0xbe1ac2d8	-0.1511339
26	0xbe2e28dc	-0.17007774
27	0x3dd3c460	0.1034019
28	0xbc1f670b	-0.009729157
29	0xbdece6a9	-0.115674324
30	0xbd5a55fc	-0.053304657
31	0x3cb05092	0.021522794
32	0xbe29c713	-0.16579847
33	0x3dd17771	0.1022786
34	0xbe25062a	-0.16115633
35	0xbc9aa831	-0.018879028
36	0x3dbb9002	0.09158327
37	0xbe33aab9	-0.17545594
38	0xbc66dc84	-0.014090661
39	0xbe013cbe	-0.12620828
40	0x3d39687a	0.045265652
41	0x3dccf8bc	0.1000838
42	0x3d82711e	0.06369232
43	0x3d5e27cd	0.054237176
44	0xbda58ab0	-0.08083093
45	0xbdeb8fae	-0.11502014
46	0xbdf1defa	-0.118101075
47	0xbe14c056	-0.14526495
48	0x3cfa6d4e	0.030569699
49	0x3e34db19	0.17661704
50	0xbe1c0e1e	-0.1523976
51	0xbe12458f	-0.14284347
52	0xbd7c652f	-0.061619934
53	0xbd7f6b0c	-0.062357947
54	0xbe0506c4	-0.12990862
55	0x3d7a5f0d	0.061125804
56	0x3c2f0d55	0.010684331
57	0x3da12685	0.07868675
58	0xbe23cd1f	-0.15996216
59	0xbd99c829	-0.07508881
60	0x3d85f6b0	0.065411925
61	0xbde7e11b	-0.11322232
62	0x3c8afb89	0.016965644
63	0x3ddfb93b	0.10924002
64	0xbd147f08	-0.03625396
65	0xbddb4979	-0.10707373
66	0x3d26a46a	0.04068414
67	0xbd9221f5	-0.07135383
68	0x3c92fa20	0.017941535
69	0xbe0422c2	-0.12903884
70	0xbe2a7ace	-0.16648409
71	0xbc0959db	-0.00838324
72	0x3dba0cc7	0.09084468
73	0x3de90ce3	0.11379411
74	0xbe28af89	-0.16473211
75	0xbe23031e	-0.15919158
76	0x3e1031cd	0.14081497
77	0xbe1c948c	-0.15291041
78	0xbcf4a314	-0.029862918
79	0xbe20963a	-0.15682307
80	0xbdf010a3	-0.11721923
81	0xbe2b2b10	-0.16715646
82	0xbe2175cf	-0.15767597
83	0xbdfdf598	-0.12400359
84	0x3e02f89f	0.12790154
85	0xbd1eb8fc	-0.038750634
86	0x3dc2017d	0.0947294
87	0x3e142f69	0.1447121
88	0x3d662df8	0.056196183
89	0x3e1a5ae2	0.15073732
90	0xbe33372d	-0.17501517
91	0xbc9cde95	-0.019149104
92	0xbd32ddb7	-0.043668475
93	0xbdfe7252	-0.124241486
94	0xbde6854f	-0.11255895
95	0xbe09bfd1	-0.13452078
96	0xbdf6a4c2	-0.12043144
97	0xbd2b9825	-0.041893143
98	0xbe298e57	-0.16558205
99	0x3cb45613	0.0220137
100	0x3e1fd2c4	0.15607744
101	0xbd082e00	-0.033246994
102	0x3d38b4df	0.045094367
103	0x3a3f49f9	0.00072970946
104	0x3d808622	0.06275584
105	0x3c2565bb	0.010095055
106	0xbe0b9bb1	-0.1363361
107	0x3deb13e4	0.11478403
108	0x3db3f709	0.087873526
109	0xbe249eb1	-0.16076161
110	0xbd890c8a	-0.06691845
111	0x3dd47da0	0.103755236
112	0x3def6cf7	0.11690705
113	0xbc335844	-0.010946337
114	0x3d7385d3	0.059453797
115	0x3def149f	0.11673855
116	0x3e0c37ce	0.13693163
117	0x3d9e36d5	0.07725302
118	0xbce8ebd7	-0.02843277
119	0x3da2a9f6	0.07942574
120	0x3e118523	0.14210944
121	0x3d5e66c7	0.054297235
122	0x3d077a7b	0.03307579
123	0x3d99ff34	0.07519379
124	0x3e013fe2	0.12622026
125	0xbe2a112f	-0.16608118
126	0xbdb68ceb	-0.08913597
127	0xbe2f49de	-0.17118022
128	0x3df59a3e	0.1199231
129	0x3e2fbd66	0.17162094
130	0xbdf635c9	-0.120219775
131	0xbdf25b73	-0.11833849
132	0xbd679e38	-0.056547374
133	0x3db8da15	0.09025971
134	0x3d083013	0.033248972
135	0x3dd7db1d	0.105398394
136	0x3debb83a	0.11509748
137	0xbd5757fd	-0.052574147
138	0xbd9065f1	-0.07050694
139	0x3e340150	0.17578626
140	0x3e18f8b5	0.14938624
141	0x3d6573de	0.056018703
142	0x3dde52e7	0.10855656
143	0x3e126040	0.14294529
144	0xbe219aac	-0.15781659
145	0xbe0fbd4e	-0.14037058
146	0xbdbcb761	-0.09214664
147	0xbcb8cfb8	-0.022559986
148	0x3d7d4759	0.06183562
149	0xbc2a00be	-0.0103761535
150	0xbd40a305	-0.047030468
151	0x3d9a7911	0.07542623
152	0x3a54041a	0.00080877694
153	0x3db78b96	0.08962171
154	0x3ddeeea2	0.10885359
155	0x3de358f4	0.11100951
156	0x3de3a0b7	0.11114638
157	0x3d5ab2a9	0.05339304
158	0xbe065001	-0.13116457
159	0x3d39ebb6	0.045390807
160	0x3b0d701c	0.0021581715
161	0xbdcc175e	-0.099653944
162	0x3e22ec8d	0.1591055
163	0x3e145667	0.14486085
164	0xbe1c17f6	-0.15243515
165	0x3d269930	0.040673435
166	0x3ce6e456	0.028185051
167	0x3e348ed3	0.17632608
168	0x3d5791a4	0.052629128
169	0xbda38245	-0.07983831
170	0x3e161ff9	0.14660634
171	0xbe10002b	-0.14062564
172	0x3c8489db	0.016179016
173	0x3e02798c	0.12741679
174	0xbc7a99ad	-0.015295428
175	0x3d841eb2	0.06451167
176	0xbdf0b2b0	-0.11752832
177	0xb9d22d2b	-0.00040087974
178	0xbb64259b	-0.0034812454
179	0xbdb44cdc	-0.08803722
180	0xba52ba97	-0.00080386683
181	0xbdf5dd87	-0.120051436
182	0xbd25d393	-0.040484976
183	0xbca4447b	-0.020052185
184	0x3c5f828d	0.013641966
185	0xbdaa336f	-0.083105914
186	0xbd9d5bc6	-0.0768352
187	0xbe17e859	-0.14834727
188	0x3e12b659	0.14327373
189	0x3d86d1c3	0.065829776
190	0xbc18043d	-0.009278354
191	0xbe18c62b	-0.14919345
192	0xbe1d9f5e	-0.15392825
193	0xbe16a1ae	-0.14710113
194	0x3e237ead	0.15966292
195	0x3c66039c	0.0140389465
196	0x3e06c0e9	0.13159527
197	0x3af533fd	0.001870751
198	0xbb793b4e	-0.0038029733
199	0x3e2e46ea	0.17019239
200	0x3d835cd4	0.0641419
201	0x3e2b964a	0.1675655
202	0xbe0c7b47	-0.13718902
203	0x3d27490a	0.04084114
204	0x3daabd9e	0.08336948
205	0xbe19fec8	-0.15038598
206	0xbd7ecc3c	-0.06220649
207	0x3e17ed3d	0.14836593
208	0x3cbc5553	0.022989905
209	0xbd0da48c	-0.034580752
210	0xbd81c342	-0.063360706
211	0xbdc62f19	-0.09676952
212	0x3db1305c	0.08651802
213	0xbdd0c716	-0.10194223
214	0xbe003525	-0.12520273
215	0x3e348a78	0.17630947
216	0x3e1722a7	0.14759313
217	0x3de3ab14	0.11116615
218	0xbc7224de	-0.014779298
219	0x3d720f53	0.059096646
220	0x3e09df86	0.13464174
221	0x3e28110d	0.16412754
222	0x3cfa7926	0.030575346
223	0xbe021a8f	-0.12705444
224	0xbe031690	-0.12801576
225	0x3db44802	0.08802797
226	0x3d2813de	0.04103457
227	0xbdf3611c	-0.118837565
228	0xbc9164bb	-0.017748227
229	0x3da9410a	0.08264358
230	0x3dc6faa8	0.09715778
231	0xbc73ac6e	-0.014872653
232	0x3dd09ac8	0.10185772
233	0xbcb7833f	-0.02240145
234	0x3dc94b01	0.09828759
235	0xbcc327ec	-0.023822747
236	0x3e1c7035	0.15277179
237	0xbe1c9dec	-0.15294617
238	0xbb7c89b6	-0.003853423
239	0xbd7c3186	-0.061570667
240	0x3db8ec8b	0.09029492
241	0x3d44722a	0.047960438
242	0x3c55dfa1	0.013053806
243	0x3e201299	0.15632094
244	0x3e02b82d	0.1276557
245	0xbe06b68f	-0.13155578
246	0xbda33f15	-0.07971016
247	0xbdc6410d	-0.09680376
248	0xbda2cb75	-0.079489626
249	0xbe2b8d1a	-0.16753045
250	0x3d9b8c17	0.075950794
251	0x3e1c3501	0.15254594
252	0xbca4ee2f	-0.020133106
253	0xbd54d36b	-0.051959436
254	0x3e2e39fc	0.17014307
255	0x3e25e5be	0.16200921

actor.pi_net.fcs.1.bias f4 [32]
0	0xbe1972e1	-0.14985229
1	0x3d442a53	0.047891926
2	0x3dcd3964	0.10020712
3	0x3e1b774a	0.15182224
4	0xbcfdcec2	-0.030982379
5	0xbd289f63	-0.041167628
6	0x3dbea41f	0.09308647
7	0xbd96ebb8	-0.073691785
8	0xbc787a00	-0.015165806
9	0x3e09c436	0.13453755
10	0xbe0d73b0	-0.13813663
11	0x3e068bfd	0.13139339
12	0xbdeca13e	-0.11554192
13	0x3e27da6a	0.16391912
14	0x3e22e2e9	0.15906872
15	0x3d3bb3e8	0.04582587
16	0x3e1b08f4	0.15140134
17	0x3ded2d37	0.1158089
18	0xbd226f56	-0.03965696
19	0xbdb2514d	-0.08706913
20	0x3e1441d6	0.1447824
21	0x3dd3f8c4	0.10350183
22	0xbe283daf	-0.1642978
23	0xbda36ea0	-0.079800844
24	0x3e167658	0.14693582
25	0x3e173ffb	0.147705
26	0xbb429ebe	-0.0029696668
27	0x3e1cc1db	0.15308325
28	0xbb7925bd	-0.0038016879
29	0xbcff438a	-0.031160135
30	0x3da409e4	0.08009699
31	0xbde377b9	-0.1110682

actor.pi_net.fcs.2.weight f4 [1, 32]
0	0xbe2a2820	-0.16616869
1	0xbd61135e	-0.05495011
2	0xbcfbf09f	-0.030754386
3	0xbda1c9b8	-0.07899803
4	0xbbc99720	-0.0061520487
5	0x3dbd3b74	0.092398554
6	0x3d6d5daa	0.057950653
7	0xbe049553	-0.12947588
8	0x3df228e1	0.11824203
9	0x3d6c04ba	0.057621695
10	0x3b85099f	0.004059985
11	0xbd019414	-0.03163536
12	0xbdfa6dec	-0.12227997
13	0x3d6dc596	0.05804976
14	0xbd77b3ae	-0.06047409
15	0xbdeefa42	-0.11668827
16	0xbd917427	-0.071022324
17	0x3d02cd38	0.031933993
18	0xbd4dfd92	-0.05029065
19	0x3e06c88c	0.1316244
20	0xbdec6742	-0.11543132
21	0x3c567699	0.013089799
22	0x3df6c8b0	0.12049997
23	0xbe02c179	-0.12769116
24	0xbdab9eb0	-0.083798766
25	0xbd348d51	-0.044080082
26	0xbd7495bb	-0.059713107
27	0xbdcda115	-0.100404896
28	0x3e0b98dc	0.1363253
29	0xbddb8191	-0.10718072
30	0x3d01a61c	0.031652555
31	0xbe2d87fd	-0.16946407

critic.v_net.fcs.0.weight f4 [32, 8]
0	0xbcad5474	-0.021158434
1	0xbe64546b	-0.22297828
2	0x3dbb48cd	0.09144745
3	0x3e1bd9a3	0.1521974
4	0x3b981d6e	0.00464218
5	0x3ea47cc4	0.3212644
6	0x3e2c95be	0.16853997
7	0x3e964789	0.29351452
8	0x3e9411b8	0.28919768
9	0xbd8708b4	-0.06593457
10	0xbea25fec	-0.31713808
11	0xbd627fba	-0.05529759
12	0x3d6376dc	0.055533275
13	0x3e96a4c8	0.29422593
14	0x3ea96b8e	0.3308987
15	0x3e9ec4b5	0.3100945
16	0x3d7d5129	0.06184498
17	0x3e8b0ff3	0.27160606
18	0x3e999dfa	0.3000334
19	0x3e220d3f	0.15825365
20	0x3eafeff3	0.34362754
21	0xbd95252e	-0.07282482
22	0x3dacd959	0.08439893
23	0xbdcd3e74	-0.100216776
24	0xbbe3e26e	-0.0069544828
25	0xbeb1f5ce	-0.34757847
26	0x3cf36fcb	0.029716393
27	0xbe805920	-0.25067997
28	0xbd283624	-0.041067258
29	0x3e8e8eae	0.2784323
30	0xbe3b3227	-0.1828085
31	0x3e5e7a97	0.21726452
32	0x3da8fc1b	0.0825121
33	0xbe88e69a	-0.26738435
34	0x3de04a76	0.10951702
35	0x3e5a10c9	0.21295466
36	0xbdfd4956	-0.12367503
37	0xbe317c24	-0.17332512
38	0xbe939d44	-0.28830922
39	0xbe7716d2	-0.24129799
40	0x3e02e477	0.12782465
41	0xbe958d10	-0.29209185
42	0xbe9cee02	-0.30650336
43	0x3e8b31e4	0.271865
44	0xbe87c125	-0.26514545
45	0x3d8c5b1f	0.068533175
46	0xbe1064d0	-0.14100957
47	0x3e237f32	0.1596649
48	0xbe9e40fc	-0.30908954
49	0xbe34aa6b	-0.17643134
50	0xbea8ecf4	-0.3299328
51	0x3dfa15ef	0.12211215
52	0x3dcbb394	0.09946361
53	0xbe7ec549	-0.24879946
54	0xbd60ee66	-0.054914854
55	0xbe0be621	-0.13662006
56	0xbe795abd	-0.2435102
57	0xbea21c6d	-0.31662312
58	0x3d95600c	0.0729371
59	0x3ba6babb	0.005088178
60	0xbdcf6d9e	-0.1012833
61	0x3d0a188e	0.033714823
62	0xbe4964ca	-0.19667354
63	0x3e7fc4bd	0.24977393
64	0xbd18441a	-0.03717432
65	0xbea8e0e5	-0.3298408
66	0x3d74d3d3	0.059772324
67	0xbe812693	-0.25224742
68	0x3d5df643	0.05418993
69	0xbd8771aa	-0.066134766
70	0xbd4ba98c	-0.04972224
71	0xbe28569f	-0.16439293
72	0xbc665082	-0.0140572805
73	0x3e52bc07	0.20579539
74	0xbeaeefc4	-0.34167302
75	0xbdaa84b5	-0.08326093
76	0x3e4242ee	0.18970844
77	0xbe10edb4	-0.14153177
78	0xbe198411	-0.14991786
79	0xbe7446d5	-0.23855145
80	0x3dd8deb0	0.10589349
81	0xbe36f282	-0.17865947
82	0x3e2b53db	0.16731207
83	0x3e3ebea9	0.18627419
84	0x3e9c6d98	0.30552363
85	0x3da34f88	0.07974154
86	0xbe2ca2ac	-0.1685893
87	0x3ddcc43d	0.10779617
88	0x3e78e55e	0.24306247
89	0xbe131811	-0.1436465
90	0xbd9bc7a7	-0.0760644
91	0x3e8092d3	0.25112018
92	0xbdd5e884	-0.104447395
93	0xbe1dc352	-0.1540654
94	0xbe9fe06b	-0.31225905
95	0xbe948eb9	-0.2901514
96	0x3e96e259	0.29469565
97	0x3e1bf808	0.15231335
98	0xbc084b7a	-0.008318776
99	0x3cae72d5	0.02129499
100	0x3d1ce54d	0.038304616
101	0x3dafc1f4	0.085819155
102	0xbe254e08	-0.16143048
103	0x3e9af3a5	0.3026401
104	0xbcaf32b9	-0.021386491
105	0xbdc74dbb	-0.09731623
106	0xbe8e927d	-0.27846137
107	0xbd89b24a	-0.06723459
108	0x3ea2c965	0.31794277
109	0xbeb370f0	-0.35047102
110	0x3e9883b6	0.29787987
111	0xbea101ec	-0.3144678
112	0xbe85cfee	-0.261352
113	0xbe48fd06	-0.19627771
114	0x3c1bc2a2	0.009506853
115	0x3e222fa7	0.1583849
116	0xbdd778cd	-0.10521088
117	0xbcf40abd	-0.029790277
118	0xbe8744f8	-0.26419806
119	0x3d23b17d	0.039964188
120	0xbe0be243	-0.13660531
121	0x3ea5057f	0.32230756
122	0xbdedfc2a	-0.11620362
123	0x3c69b640	0.014264643
124	0xbe8f8898	-0.280339
125	0xbe4cf68c	-0.20015925
126	0xbe746778	-0.23867595
127	0xbde5c15d	-0.11218522
128	0xbd9abc47	-0.07555442
129	0x3cad686e	0.02116796
130	0xbe7acab3	-0.24491386
131	0xbc69bb33	-0.014265823
132	0xbdb8e280	-0.090275764
133	0xbda32181	-0.07965375
134	0xbea40156	-0.3203227
135	0xbe705258	-0.23468912
136	0xbe130116	-0.14355883
137	0x3e7e8455	0.24855168
138	0xbe5e3271	-0.2169893
139	0xbd7a4a20	-0.061105847
140	0xbd4149f6	-0.047189675
141	0xbeb0d809	-0.34539822
142	0xbe1c13aa	-0.15241876
143	0xbd953479	-0.07285399
144	0x3d18f5f0	0.03734392
145	0xbeaf29c3	-0.3421155
146	0xbe27a9b9	-0.16373338
147	0x3eae9055	0.34094492
148	0x3e923f15	0.28563753
149	0x3dfe3599	0.12412567
150	0xbe32df32	-0.17467955
151	0x3ea28c7b	0.31747803
152	0xbd96d287	-0.07364374
153	0x3e97240b	0.29519686
154	0x3dd7b2c9	0.105321474
155	0xbe0eafc7	-0.13934241
156	0xbca96763	-0.020679181
157	0xbb5ede53	-0.0034007027
158	0x3e589268	0.211496
159	0x3da0afa0	0.07845998
160	0x3ce06095	0.027389804
161	0xbe862078	-0.26196647
162	0x3eb5002d	0.35351697
163	0xbe0b0f83	-0.13580136
164	0xbe2ff204	-0.17182165
165	0xbe2ad40f	-0.16682456
166	0x3dd16aea	0.1022547
167	0xbe2b3757	-0.16720329
168	0xbe7de1b2	-0.24793127
169	0x3e6a0939	0.2285508
170	0xbdc262e7	-0.094915204
171	0x3e8b5a29	0.27217224
172	0x3e713726	0.23556194
173	0xbd173d0e	-0.03692346
174	0xbe2afb7d	-0.16697498
175	0x3dd3180f	0.10307323
176	0xbe70556a	-0.23470083
177	0xbe850176	-0.25977677
178	0x3d4c65ae	0.049901657
179	0xbe91c61b	-0.28471455
180	0xbd8434bd	-0.064553715
181	0xbe084dd4	-0.13310939
182	0x3e8b8d8c	0.2725643
183	0x3e38b41f	0.1803746
184	0x3e629b13	0.22129469
185	0xbd877bc9	-0.06615407
186	0x3e9a7636	0.30168313
187	0xbeadc32d	-0.3393797
188	0xbe9ecd3f	-0.31015965
189	0xbea20f8a	-0.3165248
190	0x3e28e885	0.16494949
191	0x3e83ce8f	0.2574353
192	0xbe8afc22	-0.27145487
193	0x3dad1b5a	0.084524825
194	0xbaa6dae8	-0.0012730034
195	0xbd922034	-0.071350485
196	0x3dbaa4d7	0.09113472
197	0xbe5fda16	-0.21860537
198	0xbd079cb0	-0.033108413
199	0xbe00cb2c	-0.12577504
200	0xbeb2e8c9	-0.34943226
201	0xbdc72cac	-0.09725317
202	0x3e8f35db	0.27970776
203	0xbea102a7	-0.31447336
204	0xbd55dd55	-0.05221303
205	0xbe781698	-0.24227369
206	0x3e56fecb	0.20995633
207	0x3e415eb6	0.18883786
208	0x3eb4c851	0.3530908
209	0x3e24aa07	0.16080485
210	0x3e9d5e1b	0.3073586
211	0xbe110efc	-0.14165872
212	0x3cff0af8	0.03113316
213	0xbe0ea6e5	-0.13930853
214	0x3e84a95c	0.2591046
215	0x3e2536fc	0.16134256
216	0xbcc8e4ac	-0.024523102
217	0xbe1be91e	-0.15225646
218	0x3e9a1557	0.30094406
219	0x3e994ff0	0.299438
220	0x3eb4f699	0.3534439
221	0xbd3eec48	-0.046612054
222	0xbe5110bc	-0.2041654
223	0xbe8cffa8	-0.275388
224	0xbdf07a8d	-0.11742125
225	0xbeb04fad	-0.34435788
226	0x3dd4258e	0.103587255
227	0xbe047b26	-0.12937602
228	0xbe785eb3	-0.24254875
229	0xbea81c42	-0.3283406
230	0xbdc7c80a	-0.09754951
231	0x3d0dce3e	0.034620516
232	0x3cf527e1	0.029926242
233	0xbe83c9aa	-0.25739795
234	0xbe5e5550	-0.21712232
235	0x3e12cac2	0.14335158
236	0xbe109168	-0.14117968
237	0xbd86d2b9	-0.06583161
238	0x3e87cc32	0.26522976
239	0xbe79723a	-0.2435998
240	0xbdd8a744	-0.105787784
241	0x3e54aafb	0.20768349
242	0x3e3343d6	0.17506346
243	0xbe63860e	-0.22219107
244	0xbe875c70	-0.26437712
245	0x3e964e0e	0.29356426
246	0x3e675be7	0.22593652
247	0xbc26c2dd	-0.010178295
248	0xbe878322	-0.26467234
249	0x3e34ed81	0.17668726
250	0xbe1ed728	-0.15511763
251	0x3db3244b	0.08747157
252	0x3dd97f4a	0.106199816
253	0xbe8d6315	-0.27614656
254	0xbe46bde1	-0.1940837
255	0xbd803117	-0.06259363

critic.v_net.fcs.0.bias f4 [32]
0	0x3e89ca14	0.26911986
1	0x3e318efa	0.17339697
2	0xbea9f93f	-0.33197972
3	0xbe038634	-0.12844163
4	0xbc021f72	-0.007942067
5	0x3e8aceac	0.27110803
6	0xbe93f4dc	-0.2889775
7	0x3e9f9811	0.31170705
8	0x3da326a2	0.07966353
9	0x3e78bb2f	0.24290155
10	0x3b43e07a	0.0029888437
11	0xbe238e4a	-0.15972248
12	0xbe1ab809	-0.15109266
13	0xbe53628d	-0.20643063
14	0xbe61aab0	-0.22037768
15	0x3da3c227	0.07996016
16	0xbe588e52	-0.21148041
17	0x3dde9392	0.108679906
18	0xbe7e596e	-0.24838802
19	0xbb7aef3c	-0.0038289567
20	0xbca5b55e	-0.020228084
21	0x3e558456	0.20851263
22	0x3e9e6e4c	0.30943525
23	0x3d713bb3	0.058894824
24	0xbdd3de34	-0.10345116
25	0x3e9f2748	0.31084657
26	0xbde7bbd4	-0.11315122
27	0xbe98a606	-0.29814166
28	0xbda02cb4	-0.078210264
29	0xbdcbbbc7	-0.09947925
30	0xbad85604	-0.0016505127
31	0xbe2ea5dd	-0.1705546

critic.v_net.fcs.1.weight f4 [32, 32]
0	0xbd634d0e	-0.055493407
1	0x3d9ee64b	0.07758769
2	0xbc84cb0b	-0.0162101
3	0x3d198dae	0.037488632
4	0x3de3cc1d	0.11122916
5	0x3d967251	0.07346023
6	0xbe029788	-0.12753117
7	0x3db8c5eb	0.09022125
8	0x3e2a20ef	0.16614126
9	0x3e2f091e	0.17093322
10	0x3da34046	0.079712436
11	0xbc98389c	-0.018581681
12	0x3e191244	0.14948374
13	0xbdf48317	-0.11939066
14	0xbe16d613	-0.147301
15	0xbda8c376	-0.08240406
16	0x3d8b933e	0.068151936
17	0xbda2705a	-0.079315856
18	0xbe19eab1	-0.15030934
19	0x3dd40576	0.10352604
20	0xbdb5af8d	-0.08871374
21	0xbd7353f9	-0.059406254
22	0x3e05b82a	0.13058534
23	0x3e01a473	0.12660389
24	0x3d6b8523	0.057500016
25	0x3d7dc52b	0.061955612
26	0x3d160e7b	0.036634903
27	0xbddf0c41	-0.10891009
28	0x3c957af0	0.018247098
29	0x3d076c35	0.03306218
30	0x3d2b461a	0.0418149
31	0x3e0eb6e4	0.13936955
32	0x3d89400c	0.06701669
33	0x3e017151	0.12640883
34	0xbd78db5c	-0.060756072
35	0x3d87bfca	0.06628378
36	0xbd611c40	-0.054958582
37	0xbbbbdbbf	-0.005732983
38	0x3da571d1	0.080783494
39	0xbc4f5342	-0.012654128
40	0x3d869665	0.06571654
41	0xbe1dd6ea	-0.15414014
42	0xbd8f4590	-0.0699569
43	0x3d2b5ddb	0.041837554
44	0x3e1660d1	0.1468537
45	0xbdbc5ad3	-0.09197011
46	0xbd68fca2	-0.056881554
47	0xbe2ea674	-0.17055684
48	0xbd2beaec	-0.041972086
49	0xbe225176	-0.15851387
50	0xbe0ac560	-0.13551855
51	0x3d99a22a	0.075016335
52	0xbe333b5d	-0.17503114
53	0xbdbaa896	-0.091141865
54	0x3dbaa783	0.091139816
55	0x3bf02c59	0.0073295054
56	0xbe1acbdb	-0.15116827
57	0x3e2ae326	0.16688213
58	0x3d5545c5	0.05206849
59	0x3df32417	0.11872118
60	0x3e2a4aef	0.16630147
61	0xbcad27af	-0.021137087
62	0x3db9ff85	0.090819396
63	0x3dcf9c99	0.101372905
64	0xbe055007	-0.1301881
65	0x3da83c7b	0.08214661
66	0x3cb0ab36	0.021566015
67	0x3e1cec8e	0.15324613
68	0xbca9b4d1	-0.020716103
69	0x3d3ac51a	0.045598127
70	0xbe123926	-0.14279613
71	0xbd47428d	-0.048647452
72	0xbd255a0a	-0.04036907
73	0xbdee9d6b	-0.11651119
74	0xbdeefc97	-0.116692714
75	0x3da67ec8	0.0812965
76	0x3dcb8321	0.0993712
77	0xbe1f2bb4	-0.15544015
78	0xbdbb5c25	-0.091484345
79	0xbde98e38	-0.11404079
80	0x3dca89b8	0.09889549
81	0xbcce164c	-0.025157116
82	0x3e2d458f	0.16921066
83	0x3d8c2a9c	0.068440646
84	0x3dd94779	0.106093355
85	0xbcdc162e	-0.026866045
86	0xbd0b0c76	-0.03394743
87	0x3e0f9188	0.1402036
88	0x3e1003e5	0.14063986
89	0x3dab508d	0.08364973
90	0x3e169239	0.14704217
91	0xbe222a7d	-0.1583652
92	0xbcc9fe74	-0.024657466
93	0xbe109111	-0.14117838
94	0xbdd51f85	-0.104064025
95	0xbc384b7d	-0.011248467
96	0x3d6d6527	0.057957795
97	0xbe345f09	-0.17614378
98	0x3bcc4231	0.0062334766
99	0xbd9245b1	-0.07142199
100	0xbd9a342b	-0.075294815
101	0xbde20a15	-0.11037079
102	0x3e266236	0.16248402
103	0x3c3e5d9f	0.011619001
104	0xbe1ce673	-0.15322284
105	0x3df05d07	0.117364936
106	0x3da4e441	0.080513485
107	0xbcfcf832	-0.030880067
108	0x3d9ed6bd	0.07755802
109	0xbe0842ac	-0.13306683
110	0xbd938adc	-0.0720422
111	0xbd960f58	-0.07327145
112	0x3c27b0a1	0.010234983
113	0xbe26d59a	-0.1629242
114	0x3d5b470a	0.053534545
115	0x3de60a5c	0.11232445
116	0x3de5ea7f	0.11226367
117	0xbdf5a0ee	-0.119935855
118	0x3d7a0cf1	0.061047498
119	0xbddc0105	-0.10742382
120	0xbe150c07	-0.1455537
121	0x3bef8b4e	0.0073103076
122	0xbdb18f69	-0.086699314
123	0xbc4ea3a1	-0.012612254
124	0xbd9c2352	-0.07623924
125	0xbcc59446	-0.024118554
126	0x3ded70e0	0.11593795
127	0xbd2d73a7	-0.042346623
128	0xbe201d21	-0.15636112
129	0x3d50d70a	0.050986327
130	0x3deb11f2	0.11478032
131	0xbd7f2d82	-0.06229926
132	0xbd6b80cf	-0.05749589
133	0x3e2e66f8	0.17031467
134	0xbc254ce5	-0.010089134
135	0x3d1782b5	0.036989886
136	0x3e328fca	0.17437664
137	0xbe02391d	-0.127171
138	0x3cf6c721	0.030124249
139	0xbda130df	-0.078706495
140	0x3d126854	0.035744026
141	0x3e07cf80	0.13262749
142	0x3bba5fad	0.005687675
143	0xbc8dab76	-0.017293673
144	0x3c4af72d	0.012388033
145	0xbe1e3f6b	-0.1545388
146	0xbe1e6482	-0.15468028
147	0x3c1583f4	0.009125698
148	0x3caf5203	0.02140141
149	0xbcb47e55	-0.022032896
150	0x3c042c4c	0.008067202
151	0x3e1c11ae	0.1524112
152	0x3e33a668	0.17543948
153	0xbd84fd5e	-0.064936385
154	0xbe2ccfff	-0.16876219
155	0xbd99f70a	-0.07517822
156	0x3d8e39c7	0.06944614
157	0x3cad4781	0.02115226
158	0x3da03fc8	0.07824665
159	0xbd498c52	-0.049206086
160	0x3e253c29	0.1613623
161	0xbe1fe234	-0.15613633
162	0x3cb0c358	0.021577522
163	0x3e157573	0.14595585
164	0xbdf25c6c	-0.11834034
165	0x3de0145b	0.109413825
166	0xbe0edee2	-0.1395221
167	0x3ddf1ee7	0.10894566
168	0x3cc7cff9	0.024391161
169	0x3da258e3	0.0792711
170	0xbe05c79e	-0.13064429
171	0xbcfcc90b	-0.030857584
172	0x3d958f6c	0.07302746
173	0xbd812d9b	-0.06307527
174	0x3d981cde	0.07427381
175	0x3d760206	0.060060523
176	0x3daff95d	0.08592484
177	0x3e2f9587	0.17146884
178	0x3d5c6418	0.053806394
179	0xbe091c9c	-0.1338982
180	0xbe1ea327	-0.15491925
181	0xbdcdbc8f	-0.1004573
182	0xbc74a582	-0.014932038
183	0xbc8ba56b	-0.01704665
184	0x3d8cda8c	0.06877622
185	0xbe27d000	-0.1638794
186	0xbc88cbc6	-0.01669873
187	0x3e1bc074	0.15210134
188	0x3d526c80	0.051373005
189	0x3d6b4f88	0.057448894
190	0x3c8009a0	0.01562959
191	0xbd81e3c6	-0.063422725
192	0xbd545511	-0.05183894
193	0xbe0962e3	-0.13416629
194	0x3d93c179	0.07214636
195	0xbcca6ef9	-0.024711119
196	0x3dc01769	0.09379465
197	0xbe06e1b4	-0.13172036
198	0xbdb7d3b6	-0.089759275
199	0xbb1c6d39	-0.0023868813
200	0x3e097550	0.13423657
201	0xbd28cf6d	-0.04121344
202	0xbd06097c	-0.03272389
203	0x3e26efb3	0.16302375
204	0xbe158315	-0.14600785
205	0xbddd5fbc	-0.108092755
206	0x3e28a09c	0.16467518
207	0x3d17e422	0.0370828
208	0xbdb9e1f4	-0.090763
209	0x3dde4364	0.108526975
210	0x3e0359dc	0.12827247
211	0xbe0b03d2	-0.13575676
212	0x3c95e1f5	0.018296221
213	0xbdc1e5b4	-0.094676405
214	0xbdd82a05	-0.105548896
215	0x3d7cfd5e	0.061765067
216	0xbd065651	-0.03279716
217	0x3d52b20a	0.051439323
218	0x3d74e5a8	0.05978933
219	0xbc7baec6	-0.015361493
220	0xbd6f3cd6	-0.058407627
221	0xbb2c40f2	-0.0026283828
222	0xbd8123f3	-0.06305685
223	0xbcced5d6	-0.02524845
224	0xbe0acd6b	-0.13554923
225	0x3d63dada	0.055628635
226	0x3e28a285	0.16468246
227	0xbd369cb5	-0.04458304
228	0xbdf2837a	-0.118414834
229	0xbd337465	-0.043812174
230	0xbcd6d264	-0.026223369
231	0xbdbb168d	-0.091351606
232	0xbde94426	-0.113899514
233	0x3b954c2e	0.0045562005
234	0x3d91b806	0.07115178
235	0x3d82806e	0.06372152
236	0x3e1653ec	0.14680451
237	0x3d8bd8c6	0.068284556
238	0x3dfb6473	0.122750185
239	0xbdfa417d	-0.12219522
240	0x3d953a48	0.07286507
241	0x3c0f3f2d	0.00874309
242	0xbde2066a	-0.1103638
243	0x3d76d0cf	0.06025773
244	0x3cbf8c7c	0.023382418
245	0xbae4ee6c	-0.0017466075
246	0xba89560e	-0.0010477917
247	0xbd10c454	-0.035343483
248	0xbdccb51c	-0.09995481
249	0xbe0c21d6	-0.13684782
250	0x3e107e2d	0.14110632
251	0x3e23b3d4	0.15986568
252	0xbcc603de	-0.024171766
253	0x3de4901a	0.11160298
254	0x3e15238a	0.14564338
255	0xbd8b56cc	-0.068036646

critic.v_net.fcs.1.bias f4 [32]
0	0x3ddd0ea3	0.10793807
1	0x3bc00be5	0.005860793
2	0xbd4d4ff4	-0.050125077
3	0x3dc0650c	0.09394273
4	0x3dcd15f3	0.10013952
5	0x3e2619e0	0.16220808
6	0xbd0b459b	-0.034001928
7	0xbd792179	-0.060822938
8	0x3e18fa3f	0.14939211
9	0x3e0d9ebc	0.13830084
10	0xbe29c202	-0.16577914
11	0x3de58d37	0.11208575
12	0xbb7ada06	-0.0038276925
13	0xbe24558f	-0.16048263
14	0x3e279717	0.1636623
15	0x3e33433b	0.17506115
16	0xbdf0a5e5	-0.11750392
17	0xbc9fac35	-0.019491294
18	0xba3730bc	-0.0006988158
19	0x3dcbd6c2	0.09953071
20	0x3c055f2e	0.008140368
21	0x3e08b317	0.13349567
22	0x3e1ea981	0.15494348
23	0xbe34a5d9	-0.17641391
24	0x3dd5cb72	0.10439195
25	0x3ddc3fcf	0.10754358
26	0x3c0a93fd	0.008458135
27	0x3c88021d	0.01660257
28	0x3e05e7da	0.13076726
29	0xbd4b305d	-0.04960667
30	0xbd728a7e	-0.059214108
31	0x3c760901	0.015016795

critic.v_net.fcs.2.weight f4 [1, 32]
0	0x3cb3b020	0.021934569
1	0x3d79c416	0.060978018
2	0xbbc1bb3b	-0.005912212
3	0xbe2317a1	-0.15926982
4	0xbd86c434	-0.065803915
5	0xbd928a2e	-0.07155262
6	0xbe2bac17	-0.16764866
7	0x3d97fdc1	0.074214466
8	0x3d13cef1	0.036086027
9	0x3db13311	0.08652318
10	0xbe1df3d3	-0.15425043
11	0xbc493c5a	-0.012282455
12	0x3e13816a	0.14404836
13	0xbdd8f8c0	-0.1059432
14	0xbdd600ec	-0.104493946
15	0x3d5115c6	0.051046155
16	0xbd83e6c2	-0.06440498
17	0xbe268d61	-0.1626487
18	0x3e15e283	0.14637189
19	0x3dfba2bb	0.12286898
20	0x3dae6ee6	0.08517246
21	0x3db0ebd6	0.08638732
22	0x3d86d73d	0.06584022
23	0xbda3b777	-0.079939775
24	0x3dfc70a4	0.12326172
25	0x3cab5953	0.020916617
26	0x3adfc58c	0.0017072423
27	0xbdcf145c	-0.10111305
28	0xbe259d44	-0.16173273
29	0x3ddb01ab	0.106936775
30	0xbdf2ba5b	-0.11851951
31	0x3ce4dff9	0.02793883

0.fcs.0.weight f4 [100, 8]
0	0x3e5d2d90	0.21599412
1	0xbe827581	-0.25480273
2	0x3e8dde2b	0.27708563
3	0x3e5b716d	0.21429987
4	0x3e92abde	0.2864675
5	0xbe90b40e	-0.2826237
6	0xbe7301aa	-0.23731104
7	0x3e2c45a4	0.16823441
8	0xbe9fc3ef	-0.31204173
9	0x3eaa01a6	0.33204383
10	0x3dce9db0	0.1008867
11	0x3da11c18	0.078666866
12	0xbe8374c1	-0.25675014
13	0x3e106622	0.1410146
14	0x3e1bae48	0.15203202
15	0x3d65c1d9	0.05609307
16	0x3e9d08e6	0.3067085
17	0x3e0ca7ff	0.1373596
18	0xbeaf0cb1	-0.3418937
19	0x3e8d47d6	0.2759387
20	0x3e02e73a	0.12783518
21	0xbe0ccc32	-0.1374977
22	0xbea64763	-0.3247634
23	0x3e4e6351	0.20155074
24	0x3e9c7e53	0.30565128
25	0xbe8cdd15	-0.27512422
26	0xbaafc4fd	-0.0013410148
27	0x3de10905	0.109880485
28	0xbe29e537	-0.16591345
29	0xbd90cf56	-0.07070796
30	0xbe71be78	-0.23607814
31	0xbe2b290b	-0.16714875
32	0xbe953359	-0.29140738
33	0xbbcb7401	-0.006208897
34	0x3e64005e	0.22265765
35	0x3e395d3e	0.18101975
36	0x3e95d18d	0.29261437
37	0xbea2ab28	-0.31771207
38	0xbd322f0f	-0.04350191
39	0x3eb03ef1	0.3442302
40	0x3da7bd0a	0.08190353
41	0xbe00c409	-0.12574781
42	0xbea2d9f4	-0.3180691
43	0x3e22b619	0.15889777
44	0x3e839943	0.25702867
45	0x3e8c98d4	0.2746035
46	0x3e978abc	0.29598033
47	0x3d8dc200	0.06921768
48	0x3e6649d9	0.22489108
49	0xbda1ba16	-0.07896821
50	0x3e87469e	0.26421064
51	0xbd55fd9a	-0.052243806
52	0xbdca508a	-0.09878643
53	0xbe44a331	-0.19202878
54	0x3e40c2b7	0.18824278
55	0x3e127b96	0.14304957
56	0x3e9c55df	0.30534264
57	0xbe76a3aa	-0.2408587
58	0xbe237514	-0.1596263
59	0x3eb2ac7e	0.34897226
60	0xbe3f174d	-0.18661232
61	0xbe2d054d	-0.16896553
62	0xbdc1bc0d	-0.09459696
63	0xbdea0758	-0.11427182
64	0xbe5be66c	-0.21474618
65	0x3ea51ece	0.32250065
66	0x3d26cc3a	0.04072211
67	0x3e19330b	0.14960878
68	0x3e6da1bf	0.23206232
69	0xbe78901e	-0.24273726
70	0x3e8a3003	0.26989755
71	0xbe355d5c	-0.17711395
72	0xbd0ce362	-0.034396537
73	0x3e80777c	0.2509116
74	0x3eb15dc1	0.3464184
75	0x3ea470e1	0.3211737
76	0x3e2c18aa	0.16806284
77	0x3e979c69	0.2961152
78	0xbe0271cb	-0.12738721
79	0xbcb858bf	-0.022503255
80	0xbe2b7a0b	-0.16745774
81	0xbcbc00e6	-0.022949647
82	0xbdb97394	-0.09055248
83	0x3e2d5399	0.16926421
84	0x3ea4948f	0.3214459
85	0xbe676378	-0.22596538
86	0xbe47eae5	-0.19523199
87	0xbddeb16c	-0.10873684
88	0x3cb39f0a	0.021926422
89	0xbe32f7b5	-0.17477305
90	0xbe6d3621	-0.2316518
91	0xbdae3475	-0.08506099
92	0xbe3cf495	-0.18452676
93	0x3c6eac28	0.014567412
94	0xbe860051	-0.26172116
95	0xbdb501c4	-0.088382274
96	0xbe27c70d	-0.16384526
97	0xbd4b174e	-0.049582772
98	0x3e877ba5	0.2646152
99	0x3e62c8a1	0.22146846
100	0xbda97e96	-0.082760975
101	0xbea0cdf0	-0.31407118
102	0xbe817b19	-0.2528923
103	0xbe8ae008	-0.27124047
104	0x3bb6d1c1	0.005579204
105	0xbe3f3de9	-0.1867596
106	0xbe83d478	-0.25748038
107	0x3d8a4f46	0.067534015
108	0x3c482fba	0.01221841
109	0xbcd9eb27	-0.026601387
110	0xbe033d51	-0.12816359
111	0x3e9a491f	0.30133912
112	0xbeb0bcac	-0.34518945
113	0xbaa468ee	-0.0012543479
114	0x3e210065	0.15722807
115	0x3e821f00	0.25414276
116	0xbe81e14e	-0.25367206
117	0xbd7020d3	-0.058625054
118	0x3e96f79a	0.2948578
119	0x3d6e62da	0.05819974
120	0x3dd56f48	0.10421616
121	0xbe03e885	-0.12881668
122	0x3e7fc284	0.24976546
123	0xbdfec8b2	-0.12440623
124	0xbe43d5b6	-0.19124493
125	0x3ea3d88d	0.32001153
126	0x3dbfcf92	0.09365763
127	0xbb1ff3d9	-0.002440682
128	0xbe5f7067	-0.21820222
129	0xbd31dde0	-0.043424487
130	0xbe85992c	-0.26093423
131	0xbe665048	-0.22491562
132	0xbd19baeb	-0.037531774
133	0x3d9e39b6	0.07725851
134	0xbe945298	-0.28969264
135	0x3eafeef6	0.34362
136	0x3e85278b	0.2600673
137	0xbeb70d19	-0.3575218
138	0x3e733acd	0.237529
139	0xbe4b881f	-0.19876145
140	0xbe97ec80	-0.29672623
141	0x3ea4af18	0.32164836
142	0xbe119569	-0.14217152
143	0xbdf0313b	-0.1172814
144	0x3d2687bd	0.040656794
145	0x3e3f0fd6	0.18658385
146	0x3cec1bd4	0.028821863
147	0xbdb6c618	-0.08924502
148	0x3c70ffe5	0.0147094475
149	0xbe3410eb	-0.17584579
150	0xbe83ac09	-0.2571719
151	0x3dbc8891	0.092057355
152	0x3d7c7848	0.061638147
153	0x3e2a9902	0.1665993
154	0xbdf72cc7	-0.120690875
155	0xbeac7334	-0.33681643
156	0xbdc44a1f	-0.0958445
157	0xbeb1e590	-0.34745455
158	0xbce408ca	-0.027836222
159	0x3e30db46	0.17271146
160	0x3b91d20c	0.0044500884
161	0x3e40cde5	0.18828543
162	0x3d624225	0.05523886
163	0x3e20a85a	0.15689221
164	0x3eb2f3d3	0.34951648
165	0x3dc7ea29	0.097614594
166	0x3d70fdd4	0.05883582
167	0xbe12e5dc	-0.14345497
168	0x3e8a10c7	0.26965925
169	0x3e882498	0.2659042
170	0xbe4e31c1	-0.20136167
171	0x3ec0afc7	0.37634107
172	0x3dc1aa37	0.09456294
173	0xbdd2928c	-0.10281858
174	0xbea5ac18	-0.3235786
175	0xbeb4e72b	-0.35332617
176	0xbe8602eb	-0.261741
177	0xbe918ba6	-0.28426856
178	0xbe670c6b	-0.22563331
179	0xbdb9e107	-0.09076124
180	0xbe9025a4	-0.28153718
181	0xbe9fa7f4	-0.31182826
182	0xbd212c7a	-0.039349057
183	0xbe984ccc	-0.2974609
184	0xbd9b5ba0	-0.075858355
185	0x3d2edd6b	0.04269163
186	0x3d581144	0.05275084
187	0x3e5b3b98	0.21409452
188	0x3e62c975	0.22147162
189	0xbe2b7b3b	-0.16746227
190	0xbdf3dd27	-0.11907416
191	0x3c04aa84	0.008097295
192	0x3e9e932b	0.30971655
193	0x3e19130a	0.14948669
194	0xbe494820	-0.1965642
195	0xbd2c4d36	-0.04206582
196	0x3d839feb	0.06426986
197	0x3dd96d8d	0.10616598
198	0xbe068764	-0.13137585
199	0xbe9edb26	-0.31026572
200	0xbe633331	-0.22187497
201	0x3c161f59	0.009162747
202	0xbe84071d	-0.25786677
203	0x3da038e4	0.07823351
204	0x3e4f4364	0.20240551
205	0xbc322f21	-0.010875494
206	0x3e3deec3	0.18548112
207	0x3e7d9b7c	0.24766344
208	0x3e4ac2e3	0.19800906
209	0xbe9ca0bc	-0.3059138
210	0x3e99d6bf	0.3004665
211	0x3d9c7bc7	0.07640796
212	0xbeba35bd	-0.36369124
213	0x3d7f2831	0.06229419
214	0xbe794d0a	-0.24345794
215	0x3ea78e2a	0.3272565
216	0x3e8156b0	0.2526145
217	0xbe4de27e	-0.20105931
218	0xbe8a6149	-0.27027348
219	0x3c9c81cb	0.019104859
220	0xbdbf856b	-0.09351619
221	0x3e2633a5	0.16230638
222	0xbea8a1cf	-0.3293595
223	0x3e863502	0.26212317
224	0x3c4f2235	0.012642433
225	0x3cd50abb	0.026006093
226	0xbe648827	-0.22317563
227	0x3d01b587	0.03166726
228	0x3e806cd9	0.25083044
229	0x3eb1cad0	0.34725046
230	0xbe6a7b9c	-0.22898716
231	0xbe17bfbd	-0.14819236
232	0x3cf15db8	0.029463634
233	0x3e448b27	0.19193707
234	0xbe9c32cc	-0.30507505
235	0xbe11f494	-0.14253455
236	0xbe8f0057	-0.27929947
237	0x3e9dffdb	0.30859265
238	0xbdf717fb	-0.12065121
239	0x3e59bfa5	0.21264513
240	0x3e6bd36d	0.23029871
241	0xbc187d8e	-0.009307278
242	0x3dc67e3c	0.09692046
243	0x3e8208b4	0.25397265
244	0xbda4a999	-0.08040161
245	0x3e17783d	0.14791961
246	0xbd40b3d6	-0.047046505
247	0x3bb64819	0.005562794
248	0x3de8d67c	0.11369035
249	0xbebda8e4	-0.37042916
250	0xbe2b46e8	-0.16726267
251	0xbe914a77	-0.28377125
252	0xbde2f51c	-0.11081907
253	0x3bde83a7	0.0067905965
254	0x3e108426	0.1411291
255	0xbe90dfbf	-0.28295705

0.fcs.0.bias f4 [100]
0	0xbe9640e3	-0.2934638
1	0x3d8dbaed	0.06920419
2	0x3e42b3de	0.19013926
3	0x3eb0e47c	0.3454932
4	0xbe373728	-0.17892134
5	0x3e6efa7a	0.23337737
6	0xbe902b99	-0.28158262
7	0x3e3dee87	0.18548022
8	0xbe7a27ed	-0.24429293
9	0xbe2012a4	-0.15632111
10	0x3eb5beea	0.35497218
11	0x3e42abf3	0.19010906
12	0xbc91f633	-0.017817592
13	0xbe064ddd	-0.1311564
14	0x3b9e7704	0.004835965
15	0x3da9f367	0.082983784
16	0x3e9ce1f7	0.30641147
17	0xbda2ed0c	-0.07955369
18	0xbb3a20ba	-0.0028400854
19	0xbe1c4d2c	-0.15263814
20	0xbd94ae6c	-0.07259831
21	0xbe3b9dcc	-0.18321913
22	0x3e07b623	0.13253073
23	0xbe0931c0	-0.13397884
24	0x3e9a64f2	0.3015514
25	0xbda0bbc5	-0.07848314
26	0xbe980346	-0.29689997
27	0x3e192b78	0.14957988
28	0xbe143536	-0.14473423
29	0xbea0fffb	-0.31445298
30	0x3e266e30	0.1625297
31	0xbe58fff6	-0.21191391
32	0xbe9ca43f	-0.3059406
33	0xbeafa04b	-0.3430198
34	0xbe5b1dc4	-0.21398073
35	0x3e1977ce	0.14987108
36	0xbe8319cd	-0.25605622
37	0x3d665833	0.056236457
38	0x3e490a0b	0.19632737
39	0xbe290bf5	-0.16508467
40	0x3df71f02	0.12066461
41	0x3ec21956	0.37909955
42	0x3eac6754	0.33672583
43	0xbe58023d	-0.21094604
44	0xbdcb144b	-0.0991598
45	0x3da0be5a	0.07848807
46	0x3e27c2de	0.1638293
47	0xbd3fdc94	-0.04684122
48	0xbc1ce34d	-0.009575677
49	0xbdb20423	-0.08692195
50	0xbe912083	-0.28345117
51	0xbe095d51	-0.13414504
52	0x3e5c30a1	0.21502925
53	0xbe4ca887	-0.19986163
54	0x3daa6ed4	0.0832192
55	0x3eb55417	0.35415718
56	0xbe62f098	-0.22162092
57	0xba5fc352	-0.000853588
58	0x3df4f0ab	0.11959966
59	0x3eaa0e71	0.33214143
60	0xbe987f85	-0.2978479
61	0xbe7c20bb	-0.2462186
62	0x3be608f5	0.0070201107
63	0x3d97181c	0.073776454
64	0xbe038c2c	-0.1284644
65	0x3e4cbbf1	0.19993569
66	0xbe9b1aa5	-0.30293766
67	0xbeb2237e	-0.34792703
68	0xbeac8a55	-0.3369929
69	0xbea8e153	-0.3298441
70	0x3e8d8738	0.27642226
71	0x3eac6e5e	0.33677953
72	0xbe454456	-0.1926435
73	0x3d9e7a7d	0.077382065
74	0xbe6fc746	-0.2341586
75	0x3dbdb203	0.09262469
76	0xbd7b655d	-0.061375964
77	0xbe93ec87	-0.28891394
78	0x3e9aa901	0.30207065
79	0xbdf50bf6	-0.11965172
80	0x3e2423a5	0.16029222
81	0x3d5d7515	0.054066736
82	0xbd96a3f9	-0.07355494
83	0xbe1944b9	-0.14967622
84	0xbe1ec7a0	-0.15505838
85	0xbe77693e	-0.2416124
86	0x3e6ac0b1	0.22925068
87	0xbe6576dc	-0.22408623
88	0xbe74ee4e	-0.23919031
89	0xbeaf153b	-0.34195885
90	0x3dd17794	0.10227886
91	0x3d9b2e52	0.07577194
92	0x3e5efdd3	0.21776514
93	0xbcec7a6e	-0.028866973
94	0x3e857b48	0.2607062
95	0xbe033b3e	-0.12815568
96	0xbe546146	-0.20740232
97	0x3b24d72d	0.0025152669
98	0x3dc607e2	0.09669472
99	0x3e4c0d67	0.19926988

0.fcs.1.weight f4 [1, 100]
0	0x3ab43c95	0.0013750965
1	0xbd74d8d2	-0.05977709
2	0xbd164c16	-0.036693655
3	0xbc8ca3ea	-0.017168004
4	0x3d9012bf	0.070348255
5	0x3daff8f2	0.085924044
6	0xbcb2671b	-0.02177768
7	0x3d102b76	0.035197698
8	0x3d5518f3	0.052025747
9	0x3da97501	0.0827427
10	0xbcc3c737	-0.023898704
11	0x3c7481f4	0.014923561
12	0xbc9c2456	-0.019060295
13	0x3de0c2f7	0.109746866
14	0xbd87293e	-0.06599663
15	0xbc475506	-0.012166267
16	0xbd56e28a	-0.05246214
17	0x3c413ed7	0.011794767
18	0xbd84c5f6	-0.064830706
19	0xbd5ea6e1	-0.054358367
20	0xbd770a71	-0.060312692
21	0x3d8eb76f	0.06968581
22	0xbd28711e	-0.041123502
23	0xbd1578ec	-0.036492273
24	0x3926bb05	0.00015900664
25	0x3c041975	0.00806271
26	0xbd7702af	-0.060305294
27	0xbd0b1348	-0.033953935
28	0xbd883e3d	-0.06652496
29	0x3d6d4eed	0.057936598
30	0x3d274e22	0.040845998
31	0x3c49758e	0.012296094
32	0xbd7a5af6	-0.061121903
33	0xbcfd8ba7	-0.03095038
34	0x3d1ef9b6	0.03881236
35	0xbdafbf46	-0.085814044
36	0xbc9c5fa1	-0.019088568
37	0xbd8e8f93	-0.06960978
38	0x3c714a94	0.0147272535
39	0x3d61c059	0.055115078
40	0xbd342964	-0.043984786
41	0xbd1ecc82	-0.038769253
42	0x3dc3e380	0.095648766
43	0xbd844a24	-0.06459454
44	0xbc4f34c9	-0.012646862
45	0xbcac7567	-0.021052076
46	0xbc5206aa	-0.012818972
47	0xbdbd62f8	-0.092473924
48	0xbda67b24	-0.08128956
49	0xbcdd81b1	-0.02703938
50	0xbd6d5c2a	-0.057949223
51	0xbca79ca6	-0.020460438
52	0xbd5caf17	-0.053877916
53	0x3d311589	0.04323343
54	0x3c5ae03f	0.0133591285
55	0xbd872d85	-0.06600479
56	0x3d424bb1	0.047435466
57	0xbd80a43f	-0.062813275
58	0x3cbdc02b	0.023162922
59	0x3d839d4f	0.064264886
60	0x3d3e70ad	0.046494175
61	0xbd370592	-0.044683047
62	0xbd650ba2	-0.055919297
63	0x3db27664	0.087139875
64	0x3d38696b	0.04502241
65	0x3d1e2b0c	0.03861527
66	0xbc382f32	-0.011241721
67	0x3d03bdde	0.032163493
68	0xbb2f7770	-0.002677407
69	0xbcd08df9	-0.025458323
70	0xbdaeb0dc	-0.08529827
71	0xbcec4349	-0.028840678
72	0xbcd15345	-0.025552401
73	0x3dd0dd12	0.10198416
74	0xbcc18e55	-0.02362744
75	0xbd3ad3e8	-0.045612246
76	0x3ddbd7a3	0.10734489
77	0xbd4a9b74	-0.049464658
78	0xbd4f227f	-0.050570007
79	0xbd7eabf4	-0.062175706
80	0xbd7a2653	-0.061071705
81	0xbda28627	-0.07935744
82	0xbd31727b	-0.043322068
83	0x3de31917	0.1108877
84	0x3c83c574	0.016085364
85	0x3d058415	0.032596666
86	0x3d91a266	0.07111053
87	0xbd954317	-0.07288187
88	0xbd76ba66	-0.060236357
89	0xbca28fcb	-0.019843956
90	0x3cd41087	0.025886787
91	0x3dd0bb2c	0.1019195
92	0x3ce663c5	0.028123746
93	0x3d899572	0.067179576
94	0xbcce15e0	-0.025156915
95	0xbd9a002e	-0.075195655
96	0x3da31025	0.07962064
97	0x3d2b8d11	0.04188258
98	0x3c81334f	0.015771536
99	0x3d031452	0.0320018
