examples/rl/models/safe_explorer_ppo/safe_explorer_ppo_pretrain_quadrotor_2D_stab.pt (torch, 392498 bytes, 156 tensors)

actor.logstd f4 [2]
-0.5 -0.5
00000000: 0000 00bf 0000 00bf

actor.pi_net.fcs.0.weight f4 [128, 6]
0.258622 -0.33121255 -0.18829438 0.23167843 0.023941094 -0.0068277842 -0.3455005 -0.14127195
0.26944318 0.29400244 0.38753808 -0.058594763 0.038158376 -0.093788154 0.20418961 -0.093742795
-0.39170304 -0.18601672 7.689385e-06 0.036558595 0.25069472 0.07274669 -0.31162816 -0.18219282
0.23825888 -0.124564625 0.025607694 0.33160368 -0.3391551 0.040324397 -0.08820717 -0.16251835
-0.15529506 0.19450682 0.304204 0.2972231 0.114912495 -0.16997802 -0.105471246 0.27360746
-0.21916936 -0.32405573 0.07622039 0.39277482 0.14973179 -0.14422259 0.30927765 0.23870575
0.36613652 0.013343564 0.27457535 -0.30189633 -0.3735333 0.022656528 0.26303273 0.0053317123
-0.22421798 -0.19039485 -0.2360073 0.03901292 0.25324953 0.05623943 0.31552726 0.0929048
-0.19797747 -0.031255692 -0.40133175 0.23297176 0.3073753 0.03333275 0.08668735 0.10302826
-0.39327407 0.39811555 0.2545264 -0.055912044 0.031289905 -0.11482811 0.3353213 0.17816181
-0.3715571 -0.23094629 -0.2275428 -0.31941643 0.18842301 0.08749877 -0.13624154 -0.30962446
-0.14594156 0.35129148 0.19227466 -0.27988207 0.08128774 0.17866135 -0.34378117 -0.3789864
0.30416793 0.2100406 -0.11597553 -0.36060014 -0.4017669 0.12385661 -0.30547604 0.31432116
-0.20685223 0.24934703 -0.1397112 0.060233332 -0.18953812 -0.32599583 0.23467866 0.05601989
-0.3373529 0.18791142 0.07796082 0.12615064 0.027848322 -0.09443752 0.16531539 0.3730956
0.059616577 0.23280327 0.029513221 -0.3753991 -0.25800025 0.24831986 -0.007236976 0.39812407
-0.1574144 -0.18404074 0.11329301 -0.057353172 0.046718217 0.28673467 0.40308985 -0.11800986
0.0822313 -0.14828126 -0.107137896 0.25238162 0.10091276 -0.1574713 -0.2716512 -0.0717129
0.21295224 -0.31577918 0.3730921 -0.15164669 0.27638805 0.11229285 -0.046183076 0.023803657
-0.20147088 0.31434107 -0.34184068 -0.31846982 -0.40248933 -0.35767984 0.11193802 0.1339976
-0.4049969 -0.34511825 0.18840033 -0.27386194 0.26174328 -0.06826762 0.077900864 -0.008365125
0.27897218 -0.097242 -0.28276703 -0.2895268 0.113150075 -0.03164576 0.029316848 0.14112678
-0.3978 0.117195755 -0.26644748 -0.23454954 -0.25252217 0.031708006 0.107018374 -0.25930732
0.27849913 -0.29427835 0.26166385 0.34826002 -0.2771508 -0.3507772 0.15324286 -0.09779121
0.17339723 0.014748678 -0.07572525 -0.12889968 -0.35857913 0.0002613904 -0.13697976 0.2233685
-0.1876402 -0.29254794 -0.08687749 -0.25738296 0.2741528 0.35238445 -0.34707284 -0.2609145
-0.17054287 -0.021288304 -0.4036434 0.27385995 -0.1143831 -0.36782065 -0.18726751 0.40686065
-0.11085537 -0.14942344 -0.22453003 -0.048122454 0.045921586 -0.33585334 -0.09058071 0.30142504
-0.036297154 0.28936902 0.03911215 0.23770185 0.09388344 0.30113727 0.07143302 -0.34457737
0.08298953 -0.20220652 -0.26608583 0.26022032 -0.113437206 0.075642176 0.05961604 0.036514163
-0.024334127 0.3936672 -0.1976185 0.35138944 -0.04659772 0.2783069 -0.15658069 -0.18477455
0.27124134 0.0907927 0.105667815 0.23431408 0.22449605 -0.26225838 0.36138412 -0.2700635
00000000: 1a6a 843e b194 a9be 3ed0 40be 1c3d 6d3e
00000010: 1d20 c43c 9bbb dfbb 71e5 b0be 98a9 10be
00000020: 75f4 893e 7d87 963e 646b c63e 1001 70bd
00000030: f54b 1c3d 0114 c0bd 1517 513e 39fc bfbd
00000040: 4d8d c8be 2b7b 3ebe a801 0137 77be 153d
00000050: 0f5b 803e 37fc 943d ba8d 9fbe c190 3abe
00000060: 23fa 733e bd1b ffbd 3ac7 d13c f5c7 a93e
00000070: bda5 adbe 322b 253d f6a5 b4bd 366b 26be
00000080: ab05 1fbe cc2c 473e a0c0 9b3e a02d 983e
00000090: 3e57 eb3d b80e 2ebe 4f01 d8bd 4716 8c3e
000000a0: ef6d 60be a2ea a5be 7019 9c3d c819 c93e
000000b0: 4a53 193e 16af 13be a459 9e3e 486f 743e
000000c0: 3f76 bb3e f79e 5a3c 2495 8c3e 2892 9abe
000000d0: c23f bfbe 2f9a b93c 3aac 863e a5b5 ae3b
000000e0: 6699 65be def6 42be e6ab 71be 03cc 1f3d
000000f0: eca9 813e 515b 663d ca8c a13e df44 be3d
00000100: 9bba 4abe f805 00bd 5b7b cdbe 2690 6e3e
00000110: 4c60 9d3e ec87 083d 2389 b13d 7b00 d33d
00000120: 385b c9be cdd5 cb3e 4951 823e 0704 65bd
00000130: d829 003d 002b ebbd 3caf ab3e 0d70 363e
00000140: bb3c bebe 2f7d 6cbe fb00 69be 8d8a a3be
00000150: f6f1 403e 8e32 b33d e782 0bbe 1987 9ebe
00000160: b471 15be 7adc b33e a6e3 443e b44c 8fbe
00000170: 307a a63d 00f3 363e 1604 b0be 810a c2be
00000180: e6bb 9b3e e214 573e 9484 edbd 95a0 b8be
00000190: 64b4 cdbe 89a8 fd3d 5b67 9cbe b4ee a03e
000001a0: 12d1 53be d454 7f3e 7410 0fbe 3ab7 763d
000001b0: 4816 42be ede8 a6be 9a4f 703e 1d75 653d
000001c0: 85b9 acbe da6b 403e eca9 9f3d a22d 013e
000001d0: 2a22 e43c 7568 c1bd 7048 293e 6306 bf3e
000001e0: 8330 743d fb63 6e3e b6c5 f13c 5034 c0be
000001f0: 9c18 84be 9047 7e3e 2824 edbb ebd6 cb3e
00000200: 3e31 21be 2d75 3cbe 2a06 e83d 29eb 6abd
00000210: 9a5b 3f3d e3ce 923e cb61 ce3e 27af f1bd
00000220: e268 a83d 0bd7 17be 1d6b dbbd 2a38 813e
00000230: 59ab ce3d 2840 21be de15 8bbe 37de 92bd
00000240: 2710 5a3e cfad a1be ed05 bf3e 4549 1bbe
00000250: bc82 8d3e cbf9 e53d 772a 3dbd e3ff c23c
00000260: 624e 4ebe 50f1 a03e be05 afbe 7a0e a3be
00000270: 1513 cebe d021 b7be c33f e53d ab36 093e
00000280: c15b cfbe 57b3 b0be 04ec 403e a237 8cbe
00000290: 3703 863e e5cf 8bbd 7d8a 9f3d e10d 09bc
000002a0: 71d5 8e3e d026 c7bd d7c6 90be db3c 94be
000002b0: 3abb e73d fc9e 01bd e329 f03c 8a83 103e
000002c0: 71ac cbbe 5404 f03d ce6b 88be c12d 70be
000002d0: 964a 81be 41e0 013d 732c db3d eec3 84be
000002e0: 7097 8e3e a7ab 96be cef8 853e 234f b23e
000002f0: b6e6 8dbe 1299 b3be b2eb 1c3e c246 c8bd
00000300: 0b8f 313e 70a4 713c d715 9bbd 47fe 03be
00000310: af97 b7be 3a0b 8939 6c44 0cbe b6ba 643e
00000320: c124 40be d8c8 95be d3ec b1bd b3c7 83be
00000330: c15d 8c3e bc6b b43e 88b3 b1be 9696 85be
00000340: caa2 2ebe cf64 aebc 59aa cebe 5f37 8c3e
00000350: b041 eabd fd52 bcbe 0ec3 3fbe 0a50 d03e
00000360: 2408 e3bd 7502 19be 33eb 65be 0d1c 45bd
00000370: 4618 3c3d f8f4 abbe 6182 b9bd 6254 9a3e
00000380: 53ac 14bd 2d28 943e 1034 203d 1d68 733e
00000390: f645 c03d aa2e 9a3e 7a4b 923d 726c b0be
000003a0: 6af6 a93d 3a0f 4fbe 673c 88be 993b 853e
000003b0: c451 e8bd 49ea 9a3d f32f 743d e08f 153d
000003c0: 5d58 c7bc bf8e c93e 815c 4abe 51e9 b33e
000003d0: 40dd 3ebd 3e7e 8e3e b056 20be 8a35 3dbe
000003e0: 25e0 8a3e 86f1 b93d 5e68 d83d 08f0 6f3e
000003f0: 4be2 653e bb46 86be 5707 b93e c345 8abe

actor.pi_net.fcs.0.bias f4 [128]
0.34951675 -0.0408008 -0.009334669 0.28376105 0.32468373 -0.1003161 0.05728611 -0.13318841
0.22894932 0.34422362 0.306547 -0.39648458 0.36408633 -0.3343382 -0.048936702 0.37228334
-0.2531743 -0.1590048 0.11949056 -0.0036447195 -0.3587625 0.16641878 -0.11828877 0.027686212
-0.06859023 0.37806982 0.116906725 0.32224712 0.33516955 -0.33582035 0.36468267 -0.119357646
0.2661045 -0.08129597 0.12814043 -0.399795 0.30594218 -0.32685456 -0.09355226 -0.34567705
0.25435233 -0.050898373 0.19083124 -0.24823222 -0.323723 0.36897218 0.2944076 0.15563571
-0.23645018 -0.3145319 0.03900134 0.018782489 0.38204545 0.3670396 -0.07714336 -0.1793964
0.10329846 0.026754728 -0.009400759 -0.25712776 -0.40107298 0.14283714 0.2488078 0.102554925
-0.21879126 0.28322884 -0.1690735 -0.1693717 0.038652055 0.08537202 0.18135063 -0.042752735
-0.31579965 -0.26226974 -0.16551079 0.09958463 -0.14074445 -0.27615374 -0.17958304 0.40403584
-0.07936676 0.37359995 0.03792137 0.19373272 0.33275378 -0.35714296 -0.20270088 -0.21620773
0.35789457 -0.2619157 -0.4028416 0.011757604 -0.12854402 0.014623749 -0.05689872 -0.16138047
-0.053181242 0.2926216 -0.30855256 -0.15528531 -0.0015560783 -0.035643607 -0.064403705 -0.23283811
0.23719566 -0.04708103 0.11713794 -0.25551084 0.39606383 0.06943835 0.38746682 -0.027781015
-0.33536214 -0.0051763183 0.056833554 -0.38155982 0.0076510347 -0.32236904 -0.36489564 0.336862
0.3609693 -0.12339199 -0.047037084 -0.09969433 0.039960757 -0.2491527 -0.10535444 0.13059203
00000000: dcf3 b23e bd1e 27bd 71f0 18bc 2149 913e
00000010: f23c a63e 8772 cdbd d7a4 6a3d 8b62 08be
00000020: b171 6a3e 143e b03e baf3 9c3e 0700 cbbe
00000030: 8669 ba3e 602e abbe da71 48bd ec9b be3e
00000040: 10a0 81be 27d2 22be 77b7 f43d 3fdc 6ebb
00000050: b8af b7be af69 2a3e 6241 f2bd 32ce e23c
00000060: 0979 8cbd 5e92 c13e cb6c ef3d 93fd a43e
00000070: 589b ab3e a5f0 abbe b0b7 ba3e c871 f4bd
00000080: d93e 883e 807e a6bd 3f37 033e eeb1 ccbe
00000090: 74a4 9c3e 7b59 a7be 5498 bfbd 95fc b0be
000000a0: 783a 823e d07a 50bd 4469 433e 9630 7ebe
000000b0: 05bf a5be ece9 bc3e 98bc 963e f85e 1f3e
000000c0: ff1f 72be 530a a1be debf 1f3d bcdd 993c
000000d0: 769b c33e 9dec bb3e 57fd 9dbd b1b3 37be
000000e0: 258e d33d bb2c db3c a405 1abc 40a6 83be
000000f0: 7059 cdbe e643 123e 79c7 7e3e 5108 d23d
00000100: d10a 60be 5f03 913e 9b21 2dbe c66f 2dbe
00000110: 9e51 1e3d 87d7 ae3d fbb3 393e 7e1d 2fbd
00000120: 7eb0 a1be 3848 86be a97b 29be 07f3 cb3d
00000130: 501f 10be 0664 8dbe 9ee4 37be c9dd ce3e
00000140: 0a8b a2bd 7e48 bf3e 7053 1b3d df61 463e
00000150: b45e aa3e 71db b6be d290 4fbe 8f65 5dbe
00000160: f53d b73e d119 86be 4141 cebe f7a2 403c
00000170: 0ba1 03be 7398 6f3c a20e 69bd ec40 25be
00000180: 93d4 59bd 80d2 953e 9afa 9dbe 1d03 1fbe
00000190: 53f5 cbba 08ff 11bd 17e6 83bd 1d6d 6ebe
000001a0: 6be3 723e 0ad8 40bd 04e6 ef3d 51d2 82be
000001b0: e1c8 ca3e b235 8e3d 0d62 c63e 0395 e3bc
000001c0: 96b4 abbe 1b9e a9bb 4dca 683d cf5b c3be
000001d0: 88b5 fa3b 8e0d a5be 9ad3 babe 2d79 ac3e
000001e0: f8d0 b83e f1b4 fcbd f5a9 40bd 8a2c ccbd
000001f0: e4ad 233d e321 7fbe 12c4 d7bd ebb9 053e

actor.pi_net.fcs.1.weight f4 [128, 128]
0.048283756 0.04130407 -0.016019637 -0.08140213 -0.060053453 0.060660336 -0.081831895 0.06547355
0.059859175 0.06013296 0.08360178 -0.0031558718 -0.03993105 -0.014117466 0.057884175 -0.026509272
0.0061877263 0.0114089195 0.04229647 0.046994463 -0.06599295 -0.020095302 0.056353055 0.052531186
-0.085624464 -0.048751753 0.07063831 0.066185005 0.0075510927 -0.07474741 0.058205955 0.029386984
0.005596743 -0.08471285 -0.013375018 0.081257045 -0.015343602 0.0819328 0.031081993 0.07897028
0.03877865 -0.050556514 -0.08527943 0.022871725 -0.019421246 -0.003949044 -0.0048356974 0.017962312
-0.04558686 -0.08798485 -0.025648706 -0.04581771 -0.016186107 -0.058495883 0.08065132 0.06861378
0.03598869 0.0431768 0.07355374 -0.0025249124 -0.00578907 -0.059120174 0.048881534 0.050652523
0.026210777 -0.06304734 -0.08223334 -0.084477864 0.021148825 0.055862065 -0.002142788 -0.00034292781
-0.084926814 0.0686864 -0.053861406 -0.076599725 0.015642855 0.07364341 -0.013551824 0.07324829
-0.050133254 0.058825526 -0.0107553275 0.020753235 -0.043887153 0.0120226415 0.013806538 -0.064294584
-0.0030417063 0.07920514 -0.038200963 0.07259681 0.07282116 0.0622516 0.015806047 0.042227592
0.0045943013 -0.07013591 0.0034383081 -0.061378434 -0.06271847 0.074065305 0.08637527 0.03834934
0.03826626 0.065656826 0.041040536 0.062301375 0.053895798 0.024286151 0.041415263 0.06492494
-0.008197752 0.010710146 -0.008175382 0.0682516 0.059870377 0.084819816 0.077402286 -0.0034872934
0.050299082 -0.010129974 -0.057315394 -0.003937664 -0.042452075 0.0064261826 0.029958263 0.07016943
0.04086376 0.04910484 -0.082670644 -0.061544575 0.07620864 0.07307228 -0.01810949 -0.05168568
-0.037732344 -0.025409134 -0.08094949 0.038411394 -0.038402576 -0.036676273 0.023478197 0.082613796
-0.0018472121 0.075793795 -0.04449507 -0.032873634 0.015123585 -0.007233263 -0.08477359 -0.0018003131
0.07911752 -0.026947936 0.083064586 0.009120019 0.08414145 0.0854615 0.019799557 -0.0643955
0.048092924 -0.07165906 -0.07335288 0.07286213 0.013181006 -0.050400224 0.043304212 -0.026838165
-0.07202647 -0.032176282 0.004165236 0.05361196 -0.04632126 -0.044908203 0.022569785 0.082666986
0.029791541 -0.02363981 0.028122284 0.031321503 0.031727914 0.08510828 0.08746177 -0.070280544
0.043413665 -0.02118584 0.0534421 -0.05600058 0.07368973 -0.08124199 -0.030354833 -0.0030931889
0.015144343 0.08014433 -0.076351546 0.0047267373 -0.06965122 -0.031412773 0.07809559 0.057544336
-0.07651305 0.061440915 0.01655623 -0.07381207 -0.08551584 -0.068691015 0.082164355 -0.060941875
-0.025107024 0.025234276 0.074777715 -0.079983 -0.07606876 0.038838446 -0.015240816 -0.062326252
0.041778527 0.050006624 0.0720725 0.0160782 0.01832115 -0.003003279 0.029610163 0.061115753
-0.031766027 -0.021422748 0.021289038 -0.05948329 0.021262622 0.047141712 0.060070608 0.01207936
0.05047042 -0.047676124 -0.079796635 0.022519208 0.04614803 -0.04533373 0.055208504 0.041323803
-0.0463214 -0.042663664 0.032544605 -0.05427375 0.08343045 -0.07971918 0.003274789 -0.01609883
0.04748146 0.03371732 0.014916823 -0.05436525 0.06647794 -0.08204846 0.047856238 0.019979881
00000000: 30c5 453d 752e 293d 9d3b 83bc 29b6 a6bd
00000010: 9cfa 75bd f976 783d 7b97 a7bd ff16 863d
00000020: e52e 753d fb4d 763d 6937 ab3d bed2 4ebb
00000030: be8e 23bd f24c 67bc f517 6d3d f929 d9bc
00000040: 69c2 ca3b 7aec 3a3c 103f 2d3d 447d 403d
00000050: 5027 87bd e79e a4bc 76d2 663d f12a 573d
00000060: e15b afbd ebaf 47bd d1aa 903d 018c 873d
00000070: 286f f73b 2c15 99bd 5e69 6e3d f9bc f03c
00000080: e264 b73b ee7d adbd e422 5bbc 186a a63d
00000090: bb63 7bbc 62cc a73d aa9f fe3c 2cbb a13d
000000a0: 5dd6 1e3d 5914 4fbd fba6 aebd 7c5d bb3c
000000b0: 4e19 9fbc fb66 81bb c574 9ebb b325 933c
000000c0: 4ab9 3abd 6731 b4bd 3c1d d2bc 5aab 3bbd
000000d0: ba98 84bc 6199 6fbd 852c a53d 6285 8c3d
000000e0: e068 133d 28da 303d 58a3 963d 0079 25bb
000000f0: 3db2 bdbb ff27 72bd 0138 483d 0579 4f3d
00000100: fcb7 d63c f71e 81bd f469 a8bd bb02 adbd
00000110: 4d40 ad3c 9fcf 643d 046e 0cbb feca b3b9
00000120: 1cee adbd 75ab 8c3d c79d 5cbd 51e0 9cbd
00000130: 7225 803c 5bd2 963d 7808 5ebc 3303 963d
00000140: 8758 4dbd 09f3 703d 1d37 30bc b002 aa3c
00000150: 04c3 33bd 9dfa 443c d134 623c e1ac 83bd
00000160: 5d57 47bb 4e36 a23d 9d78 1cbd a3ad 943d
00000170: 4323 953d 89fb 7e3d af7b 813c d7f6 2c3d
00000180: cb8b 963b 6aa3 8fbd 3d55 613b f467 7bbd
00000190: 8b72 80bd 8daf 973d 84e5 b03d 3314 1d3d
000001a0: 15bd 1c3d 1677 863d 1f1a 283d ba2f 7f3d
000001b0: d7c1 5c3d c0f3 c63c 0da3 293d 5ef7 843d
000001c0: dd4f 06bc 9c79 2f3c 0af2 05bc 7fc7 8b3d
000001d0: a43a 753d 03b6 ad3d 1785 9e3d 138b 64bb
000001e0: 6906 4e3d 31f8 25bc 8cc3 6abd 8507 81bb
000001f0: 3ae2 2dbd ba92 d23b 086b f53c fdb4 8f3d
00000200: c260 273d 2822 493d 3a4f a9bd 2a16 7cbd
00000210: 4713 9c3d eba6 953d 5a5a 94bc 5db4 53bd
00000220: 3b8d 1abd d126 d0bc d9c8 a5bd 4455 1d3d
00000230: 054c 1dbd dc39 16bd 5955 c03c 6c31 a93d
00000240: 271e f2ba c739 9b3d 7640 36bd 81a6 06bd
00000250: eac8 773c 0205 edbb c79d adbd 7cf8 ebba
00000260: 5e08 a23d ebc1 dcbc c41d aa3d 226c 153c
00000270: 5a52 ac3d 7006 af3d ae32 a23c cae1 83bd
00000280: 16fd 443d fcc1 92bd 093a 96bd be38 953d
00000290: 25f5 573c 7770 4ebd c25f 313d b6db dbbc
000002a0: 9d82 93bd 47cb 03bd 887c 883b 3798 5b3d
000002b0: 5dbb 3dbd aaf1 37bd 45e4 b83c 4f4d a93d
000002c0: 640d f43c 46a8 c1bc b460 e63c fa4a 003d
000002d0: 21f5 013d 404d ae3d 281f b33d 3fef 8fbd
000002e0: 87d2 313d ed8d adbc 1ae6 5a3d dd60 65bd
000002f0: a4ea 963d 3362 a6bd b3aa f8bc 19b7 4abb
00000300: fa1f 783c b622 a43d 335e 9cbd bfe2 9a3b
00000310: 4da5 8ebd aeaa 00bd 95f0 9f3d 9cb3 6b3d
00000320: e0b2 9cbd 78a9 7b3d eea0 873c c82a 97bd
00000330: ee22 afbd e0ad 8cbd c945 a83d 309e 79bd
00000340: 3fad cdbc 1db8 ce3c 0f25 993d 21ce a3bd
00000350: f0c9 9bbd 1015 1f3d 9eb4 79bc d049 7fbd
00000360: f61f 2b3d bfd3 4c3d bf9a 933d 6eb6 833c
00000370: 3d16 963c a9d2 44bb 0391 f23c 8354 7a3d
00000380: 181d 02bd c27e afbc 5966 ae3c c0a4 73bd
00000390: f32e ae3c ab17 413d 990c 763d 82e8 453c
000003a0: 12ba 4e3d 0a48 43bd 6b6c a3bd 347a b83c
000003b0: b705 3d3d dcaf 39bd 5022 623d 2643 293d
000003c0: 82bb 3dbd 18c0 2ebd 7e4d 053d 274e 5ebd
000003d0: 95dd aa3d cf43 a3bd d89d 563b b2e1 83bc
000003e0: eb7b 423d 2c1b 0a3d b165 743c 19ae 5ebd
000003f0: 9625 883d 0609 a8bd e704 443d d9ac a33c

actor.pi_net.fcs.1.bias f4 [128]
-0.04592802 -0.081513986 -0.073606394 -0.07834054 -0.07567043 0.05913241 0.034456197 0.016375989
-0.037583902 0.016568443 -0.03998937 0.0595626 0.00038980565 -0.06296197 -0.048877332 0.032690264
-0.017939659 0.06960632 -0.006542213 -0.005453486 0.08702597 -0.06099356 0.02600646 0.08391608
-0.071298935 0.035053566 0.0051367315 0.010994185 -0.06006383 -0.0005749041 0.02115384 0.055231947
-0.04265476 0.00039109113 0.07026679 -0.06271507 -0.013101021 0.029108837 -0.061329037 -0.082392275
-0.08240763 -0.04684189 0.02477162 0.0027110223 -0.007753081 -0.066246994 -0.08323893 -0.08744626
0.06329029 0.027143128 0.04837926 0.07087388 0.01685776 -0.055483922 -0.021841856 0.0051129605
-0.06883381 0.018896256 0.070371725 0.05722635 -0.026734632 0.061732814 -0.070317864 -0.04909818
0.08734715 0.08656673 0.06881136 0.07257398 -0.064107925 -0.08710264 -0.07660695 0.088167645
0.019339113 -0.014424422 -0.03482729 0.075496376 0.049586777 0.006849295 0.034684125 -0.054582633
-0.06999854 -0.04395282 0.05751145 -0.04853871 -0.045888014 0.025696576 0.01247573 -0.04974132
0.030898433 0.02263214 0.018671928 0.04901594 -0.076885395 0.026352981 -0.0633998 0.027537359
-0.051975135 -0.05449614 0.077228904 -0.08744694 0.0020984388 0.012413764 0.015981104 0.028233152
0.014556521 0.05244561 -0.065316364 0.048361346 -0.016163548 -0.04919436 0.046788204 0.007943543
-0.07491502 0.0483233 0.08740243 0.04267109 -0.023509037 -0.0518294 0.07815647 -0.023092058
-0.07732216 0.044068355 0.035895396 -0.041314732 -0.025644913 0.074689165 0.055675533 -0.0751114
00000000: 051f 3cbd cef0 a6bd f3be 96bd 0171 a0bd
00000010: 19f9 9abd d334 723d f121 0d3d f026 863c
00000020: 94f1 19bd 8bba 873c e5cb 23bd eaf7 733d
00000030: d45e cc39 35f2 80bd 9933 48bd 3ae6 053d
00000040: 31f6 92bc c28d 8e3d 0f60 d6bb 28b3 b2bb
00000050: ac3a b23d 62d4 79bd 800b d53c 32dc ab3d
00000060: 2d05 92bd 5494 0f3d 0752 a83b f420 343c
00000070: 7e05 76bd 29b5 16ba d14a ad3c e53a 623d
00000080: c2b6 2ebd 5d0b cd39 09e8 8f3d c270 80bd
00000090: aaa5 56bc a875 ee3c 2834 7bbd 48bd a8bd
000000a0: 55c5 a8bd 48dd 3fbd daed ca3c 68ab 313b
000000b0: 8f0d febb 81ac 87bd 2c79 aabd 0617 b3bd
000000c0: 579e 813d 445b de3c 5529 463d 5326 913d
000000d0: 4919 8a3c 1c43 63bd b1ed b2bc 9f8a a73b
000000e0: bef8 8cbd 52cc 9a3c 0d1f 903d 2d66 6a3d
000000f0: 9602 dbbc 8cdb 7c3d d002 90bd 2c1b 49bd
00000100: 10e3 b23d e649 b13d f8ec 8c3d aba1 943d
00000110: 044b 83bd de62 b2bd 1be4 9cbd 3d91 b43d
00000120: 0f6d 9e3c 6954 6cbc 0fa7 0ebd d89d 9a3d
00000130: 811b 4b3d 0d70 e03b f110 0e3d 0a92 5fbd
00000140: 655b 8fbd df07 34bd 2091 6b3d 87d0 46bd
00000150: 12f5 3bbd a081 d23c 0167 4c3c 8ebd 4bbd
00000160: b61e fd3c 0a67 b93c dff5 983c f0c4 483d
00000170: 1776 9dbd 35e2 d73c c1d7 81bd 0796 e13c
00000180: e1e3 54bd 5837 5fbd 302a 9e3d 6217 b3bd
00000190: f685 093b 1a63 4b3c ceea 823c 3649 e73c
000001a0: 797e 6e3c 35d1 563d 96c4 85bd 8c16 463d
000001b0: 6b69 84bc 0680 49bd fda4 3f3d a225 023c
000001c0: 0c6d 99bd a7ee 453d 0c00 b33d e2c7 2e3d
000001d0: 0696 c0bc 114b 54bd 8010 a03d 8e2b bdbc
000001e0: 155b 9ebd 0581 343d 0d07 133d a339 29bd
000001f0: 4815 d2bc a2f6 983d 070c 643d 01d4 99bd

actor.pi_net.fcs.2.weight f4 [2, 128]
-0.024320574 0.024614928 -0.04455614 -0.041996814 -0.007355331 0.076964505 0.060764123 -0.08785912
-0.072993934 0.015279128 0.02293092 0.019802792 0.047678642 -0.007857394 0.012164233 -0.013263149
-0.077561475 -0.073441565 -0.08164019 0.01804491 -0.0533958 -0.014671686 -0.07591311 -0.0034322497
0.027492493 0.06392281 -0.08570884 -0.032404467 0.07483347 0.030604228 -0.0748688 -0.021469247
0.07085443 0.025257552 0.007490211 0.08774189 -0.06065415 0.038028173 -0.07519925 0.0060863104
-0.057581563 0.064086586 0.016677286 0.08116737 0.03550121 -0.056050006 -0.03965871 -0.039461747
-0.013188329 0.011155143 -0.00029167725 -0.029323542 -0.028381286 -0.026179768 -0.0818341 -0.035304938
0.08342367 0.055552453 -0.0109390775 0.061284836 -0.009323083 -0.06406836 0.086832166 0.065496795
0.057475414 -0.055259153 -0.08487092 -0.034651104 -0.014826039 -0.07383839 0.004008039 0.036916487
0.04467729 -0.05373522 0.03581461 0.0155303655 -0.04016939 -0.052601628 0.044273052 -0.07744756
0.045027878 -0.032358874 -0.023886725 0.020893868 0.042863544 -0.059917383 0.05373505 -0.0029821424
-0.07560301 0.051810868 -0.051820647 0.05890028 -0.046545144 -0.045215074 -0.031009048 0.00041867624
0.059500284 0.07092265 0.07943025 -0.023772983 0.018081281 0.016072806 -0.004827816 -0.06566454
0.058704913 -0.0490024 -0.03558387 -0.013848559 -0.04734449 -0.004254292 0.0499376 0.00075954944
0.08772932 -0.07504099 -0.025715457 0.008115944 0.08356878 0.025614737 0.086581774 -0.004784236
-0.08370577 0.021530053 0.057583943 0.07391086 0.01957265 0.043079242 0.052803624 0.0056674443
-0.06126703 0.021077039 0.0066501405 -0.060303647 -0.07135543 0.040857427 0.016219098 -0.07287335
-0.07610964 0.08730711 0.06321398 0.007177134 -0.06271168 0.041557603 0.05055193 0.02339108
-0.0142369205 0.07925249 -0.053454235 -0.05837286 -0.08555025 0.0060267146 -0.02863361 0.060066454
-0.015248613 0.052261587 0.0010748921 0.0013808677 0.087401174 0.08777792 0.06808251 0.038634244
0.046522133 0.08197123 -0.06436598 -0.035240054 0.01450685 0.0756778 0.025780743 -0.045570996
-0.041357175 0.009864734 -0.08370875 -0.019588053 0.0044136494 0.023136785 0.061691396 0.023711458
0.07900318 0.08412796 0.0646049 0.03832516 0.055755317 0.009036252 -0.038225707 0.059802182
-0.056324743 -0.01728123 0.03818224 0.014278899 0.014568849 0.036997315 -0.031194178 0.019916914
0.036536925 -0.084364735 -0.05392396 0.044543393 0.06822916 0.02776411 -0.014341793 -0.05363262
-0.05774349 0.08414948 0.037590586 -0.013929312 -0.03970034 0.08209563 0.04359988 0.05771662
0.0637885 -0.029744158 -0.033796832 0.07839665 0.034470506 0.027742298 -0.07660064 -0.065483175
-0.066816084 0.010814512 0.0725606 -0.043026894 0.0024037296 -0.027000956 -0.029870767 -0.05929325
0.009932937 0.08280104 0.021309951 -0.0675585 -0.059000425 -0.06840183 0.010079872 -0.032520834
0.08191421 0.07135492 0.07231469 0.05955691 0.07892339 0.05130854 -0.01842519 -0.062399674
-0.019444596 0.022905873 -0.043167572 0.04773179 -0.032242414 -0.035186265 0.06345814 0.044539526
0.07133432 -0.039341953 -0.004127662 0.038374178 -0.06554145 -0.04496564 -0.054526262 0.024707926
00000000: f13b c7bc 3fa5 c93c 8080 36bd da04 2cbd
00000010: fd04 f1bb 919f 9d3d cde3 783d 7bef b3bd
00000020: d87d 95bd 4f55 7a3c a0d9 bb3c 7739 a23c
00000030: ae4a 433d 4dbc 00bc 7e4c 473c ae4d 59bc
00000040: 8dd8 9ebd 8868 96bd f932 a7bd ebd2 933c
00000050: 8eb5 5abd 8361 70bc 5578 9bbd 98ef 60bb
00000060: f037 e13c f6e9 823d 1e88 afbd 8cba 04bd
00000070: 4a42 993d b8b5 fa3c d054 99bd 46e0 afbc
00000080: 211c 913d ede8 ce3c 7270 f53b 05b2 b33d
00000090: 7c70 78bd 6ec3 1b3d 1002 9abd ac6f c73b
000000a0: a5da 6bbd d43f 833d ce9e 883c 143b a63d
000000b0: b769 113d b194 65bd 2c71 22bd a4a2 21bd
000000c0: dc13 58bc 10c4 363c 42ec 98b9 ed37 f0bc
000000d0: df7f e8bc f476 d6bc a398 a7bd e99b 10bd
000000e0: 07da aa3d f88a 633d d139 33bc cf05 7b3d
000000f0: d8bf 18bc 4636 83bd 10d5 b13d 2f23 863d
00000100: 576b 6b3d 6c57 62bd ced0 adbd 51ee 0dbd
00000110: eae8 72bc 9538 97bd de55 833b be35 173d
00000120: 89ff 363d 7619 5cbd 57b2 123d 1373 7e3c
00000130: a988 24bd ce74 57bd a957 353d d49c 9ebd
00000140: 276f 383d bd8a 04bd 18ae c3bc 9e29 ab3c
00000150: af91 2f3d ee6b 75bd 4919 5c3d 0c70 43bb
00000160: c0d5 9abd a237 543d e341 54bd 6c41 713d
00000170: 1fa6 3ebd 7133 39bd b006 febc c681 db39
00000180: 92b6 733d e53f 913d 54ac a23d 8fbf c2bc
00000190: 321f 943c 1eab 833c a832 9ebb 217b 86bd
000001a0: 9074 703d beb6 48bd 64c0 11bd 11e5 62bc
000001b0: 4cec 41bd 9767 8bbb 5e8b 4c3d 801c 473a
000001c0: 6eab b33d 17af 99bd 39a9 d2bc bdf8 043c
000001d0: 1c26 ab3d ffd5 d13c c951 b13d 15c5 9cbb
000001e0: ee6d abbd cb5f b03c 24dd 6b3d 945e 973d
000001f0: d256 a03c dc73 303d 9d48 583d f8b5 b93b
00000200: 23f3 7abd c1a9 ac3c 6ce9 d93b f500 77bd
00000210: cc22 92bd 1e5a 273d eadd 843c 9f3e 95bd
00000220: 5fdf 9bbd 12ce b23d 5576 813d 2a2e eb3b
00000230: fb6e 80bd 4e38 2a3d 8a0f 4f3d a69e bf3c
00000240: f941 69bc 214f a23d d4f2 5abd 6118 6fbd
00000250: f834 afbd bf7b c53b 0891 eabc 3e08 763d
00000260: 52d5 79bc 3f10 563d 65e3 8c3a 3bfe b43a
00000270: 63ff b23d e9c4 b33d d86e 8b3d f13e 1e3d
00000280: fe8d 3e3d 88e0 a73d 50d2 83bd e057 10bd
00000290: 24ae 6d3c f6fc 9a3d 2332 d33c a7a8 3abd
000002a0: 2466 29bd b19f 213c 7e6f abbd 2077 a0bc
000002b0: 60a0 903b 5b89 bd3c 1eb0 7c3d 883e c23c
000002c0: 6bcc a13d 484b ac3d 934f 843d d8fa 1c3d
000002d0: b05f 643d ca0c 143c 8f92 1cbd 22f3 743d
000002e0: c6b4 66bd 5e91 8dbc fb64 1c3d 0bf2 693c
000002f0: 2eb2 6e3c 7f8a 173d ef8a ffbc cc28 a33c
00000300: bea7 153d 6bc7 acbd 5fdf 5cbd 2273 363d
00000310: bbbb 8b3d 8f71 e33c d7f9 6abc e1ad 5bbd
00000320: 7084 6cbd 9056 ac3d 96f8 193d c537 64bc
00000330: d39c 22bd c121 a83d ca95 323d 4368 6c3d
00000340: 8ca3 823d 05aa f3bc 8c6e 0abd 6c8e a03d
00000350: f230 0d3d d143 e33c cce0 9cbd 0b1c 86bd
00000360: dfd6 88bd 5a2f 313c a79a 943d f83c 30bd
00000370: e487 1d3b 1c31 ddbc 8ab3 f4bc 7bdd 72bd
00000380: c2bd 223c 9793 a93d 3592 ae3c 1c5c 8abd
00000390: 6eaa 71bd 4216 8cbd 0c26 253c 9134 05bd
000003a0: a3c2 a73d 8722 923d b919 943d f2f1 733d
000003b0: 96a2 a13d e728 523d 6df0 96bc cd96 7fbd
000003c0: 464a 9fbc 19a5 bb3c 7bd0 30bd 6982 433d
000003d0: 9f10 04bd 791f 10bd 57f6 813d 146f 363d
000003e0: ba17 923d 0725 21bd 5741 87bb 3e2e 1d3d
000003f0: 993a 86bd e42d 38bd ee56 5fbd 4768 ca3c

actor.pi_net.fcs.2.bias f4 [2]
0.026355837 0.07986983
00000000: 32e8 d73c cb92 a33d

critic.v_net.fcs.0.weight f4 [128, 6]
0.38490927 0.03751855 0.112354025 -0.1283257 -0.08067055 0.0045620436 0.36324394 0.10480091
0.078450754 -0.39140266 0.19671616 -0.13028109 1.2945419e-05 -0.385312 -0.14229347 0.06530638
-0.38208273 0.3891974 -0.03851929 0.111318395 0.2508243 -0.24507071 0.37476736 0.030023202
0.3796534 0.25650784 -0.051098052 0.37192798 0.18712448 -0.30517888 0.39056116 -0.20280775
-0.03088563 -0.38874933 -0.24154343 0.24802329 -0.18868172 -0.19297956 -0.34018037 -0.20778874
-0.15812086 0.23669536 -0.3888274 0.04942347 0.12094905 -0.40590444 0.05109372 0.26330015
-0.23792805 0.0076708426 -0.21177956 -0.09940608 0.34696814 0.03878107 0.37486455 -0.36642253
0.14335728 -0.25444645 0.38711008 -0.12702498 0.16920456 0.2886341 -0.033745933 -0.015624246
0.32212934 -0.09622885 0.40082118 -0.09552118 0.056189205 0.19859558 0.3667084 0.10591003
-0.17764215 -0.3254049 0.32065892 -0.061635915 0.2968742 0.21712261 -0.17618765 0.34298494
0.28382462 0.16384847 0.08586156 0.25283897 0.090399615 -0.30656028 0.10919821 0.23105831
-0.05537155 0.06350638 0.36654684 -0.18527012 0.17712307 0.25208518 0.22945347 -0.21203151
0.15739684 0.29450518 -0.144503 0.1577743 0.279768 -0.13471495 -0.019439787 -0.04074498
-0.4019066 -0.0059109465 0.37658614 0.22929034 0.34156445 -0.37420005 0.16685964 -0.2072167
-0.13159218 -0.034929078 0.37469676 -0.21930695 -0.11888256 -0.32684985 -0.3440956 0.36180273
-0.13145387 -0.00014098827 0.11923252 0.07725598 -0.21324216 -0.02876667 0.350846 0.08394696
-0.020977566 0.06493924 -0.38654292 0.08442657 0.06576584 0.4029252 -0.10044677 0.25333017
0.27980384 -0.18890521 0.20106159 0.0827078 -0.09780746 -0.18778391 -0.074640706 0.3340734
0.15259637 0.17561878 0.36593488 0.32415006 0.050577316 0.34624413 -0.3072376 0.33296764
0.27503064 -0.3001945 0.2916929 0.15982687 -0.39514127 -0.31896627 0.022403313 0.29072958
0.053827103 -0.07989207 -0.2804841 0.10438305 -0.119332336 0.13832113 -0.136542 0.15583998
-0.23320249 0.30899933 0.058511738 -0.23370196 -0.22988121 -0.31293377 -0.2252231 -0.12331685
0.38968554 0.14168532 -0.11584248 0.12694268 -0.22702256 0.32973444 -0.06846287 -0.09961052
0.14579575 -0.39829108 -0.017222421 0.08128166 -0.15251441 0.04338341 -0.18194334 -0.3639088
0.022585329 0.25781265 0.118786536 -0.22086632 0.3978912 -0.023727251 -0.32009643 -0.20584755
0.07414859 -0.013139358 0.13522786 -0.21878304 0.04142033 0.04236043 -0.15703154 0.044631816
0.08871744 0.047850456 -0.124763526 -0.25719464 -0.28926107 0.364126 0.1733546 -0.27977163
-0.37437978 0.3313022 -0.2575308 0.36910608 0.12333072 0.36527872 -0.047501512 -0.14138219
-0.26010773 -0.3824088 0.01852879 -0.13098721 0.36676538 -0.11128963 -0.02480946 0.09266555
-0.08203376 0.13566162 0.33628744 0.22267523 0.068459466 -0.23208198 -0.20669761 0.13755865
-0.07669397 -0.37166864 0.36019558 -0.0043259114 0.11944407 0.19180347 -0.18622681 -0.32083943
-0.053083472 -0.007410085 0.2763236 -0.035289653 -0.22625698 0.0051989486 -0.22284843 0.3429576
00000000: d412 c53e 0dad 193d de19 e63d d067 03be
00000010: 9a36 a5bd 327d 953b 1cfb b93e dca1 d63d
00000020: caaa a03d ee65 c8be f66f 493e 6868 05be
00000030: 2730 5937 9d47 c5be 61b5 11be 5abf 853d
00000040: 59a0 c3be e244 c73e 67c6 1dbd e6fa e33d
00000050: 0b6c 803e d1f3 7abe 82e1 bf3e 38f3 f53c
00000060: ee61 c23e ff54 833e 314c 51bd 586d be3e
00000070: 8f9d 3f3e 6840 9cbe a2f7 c73e d6ac 4fbe
00000080: dc03 fdbc 270a c7be 2957 77be d1f9 7d3e
00000090: c835 41be 6f9c 45be 1f2c aebe 92c6 54be
000000a0: 6fea 21be 4560 723e 6314 c7be 4470 4a3d
000000b0: 23b4 f73d b5d2 cfbe a647 513d 47cf 863e
000000c0: 69a3 73be b15b fb3b bedc 58be 6a95 cbbd
000000d0: cfa5 b13e e6d8 1e3d 3fee bf3e bc9b bbbe
000000e0: 40cc 123e ce46 82be 4b33 c63e d612 02be
000000f0: f643 2d3e d9c7 933e 2d39 0abd d6fc 7fbc
00000100: 23ee a43e a213 c5bd 6f38 cd3e 9ca0 c3bd
00000110: a726 663d a45c 4b3e 34c1 bb3e 5ce7 d83d
00000120: d3e7 35be 799b a6be 682d a43e f175 7cbd
00000130: e5ff 973e 6455 5e3e 896a 34be b99b af3e
00000140: 7651 913e e5c7 273e 30d8 af3d 1c74 813e
00000150: 6f23 b93d 78f5 9cbe 50a3 df3d 8d9a 6c3e
00000160: 47cd 62bd a20f 823d 07ac bb3e 73b7 3dbe
00000170: c05f 353e 4f11 813e daf5 6a3e ca1e 59be
00000180: a32c 213e 62c9 963e 98f8 13be 968f 213e
00000190: c03d 8f3e b7f2 09be 3040 9fbc 35e4 26bd
000001a0: b4c6 cdbe 9db0 c1bb e6cf c03e 16cb 6a3e
000001b0: 89e1 ae3e 2697 bfbe 41dd 2a3e 9d30 54be
000001c0: 1ac0 06be cb11 0fbd 41d8 bf3e 0092 60be
000001d0: b378 f3bd dd58 a7be 4c2d b0be 353e b93e
000001e0: d89b 06be 40d6 13b9 2e30 f43d 6238 9e3d
000001f0: 275c 5abe 14a8 ebbc 16a2 b33e 62ec ab3d
00000200: 25d9 abbc ddfe 843d f4e8 c5be d6e7 ac3d
00000210: 3eb0 863d 364c ce3e 09b7 cdbd 7eb4 813e
00000220: 7342 8f3e 5e70 41be 17e3 4d3e b562 a93d
00000230: 474f c8bd 6d4a 40be 3add 98bd ab0b ab3e
00000240: 3942 1c3e 69d5 333e d15b bb3e fff6 a53e
00000250: 292a 4f3d e946 b13e 3f4e 9dbe bc7a aa3e
00000260: d1d0 8c3e 18b3 99be c658 953e a8a9 233e
00000270: f54f cabe 8c4f a3be 2787 b73c 82da 943e
00000280: cf79 5c3d 749e a3bd 9d9b 8fbe c8c6 d53d
00000290: 8364 f4bd 0ea4 0d3e abd1 0bbe 8494 1f3e
000002a0: a2cc 6ebe 2935 9e3e 01aa 6f3d 914f 6fbe
000002b0: fb65 6bbe db38 a0be e2a0 66be 8b8d fcbd
000002c0: dd84 c73e f515 113e d23e edbd 43fd 013e
000002d0: 9a78 68be f4d2 a83e 4336 8cbd 9a00 ccbd
000002e0: 7b4b 153e cfec cbbe 0916 8dbc 0077 a63d
000002f0: bd2c 1cbe cdb2 313d 5b4f 3abe 4152 babe
00000300: de04 b93c 0500 843e 5b46 f33d c82a 62be
00000310: 65b8 cb3e a75f c2bc aee3 a3be b3c9 52be
00000320: 37db 973d 7646 57bc 2c79 0a3e a908 60be
00000330: 5da8 293d 2182 2d3d e0cc 20be dacf 363d
00000340: 7db1 b53d d7fe 433d 0584 ffbd 04af 83be
00000350: 071a 94be b96e ba3e de83 313e 3a3e 8fbe
00000360: b5ae bfbe 71a0 a93e 14db 83be 79fb bc3e
00000370: d194 fc3d d005 bb3e f290 42bd 7ec6 10be
00000380: d72c 85be 16cb c3be b0c9 973c 8321 06be
00000390: acc8 bb3e d1eb e3bd 353d cbbc 70c7 bd3d
000003a0: 5101 a8bd e1ea 0a3e de2d ac3e fa04 643e
000003b0: 7a34 8c3d e6a6 6dbe 8aa8 53be 2ddc 0c3e
000003c0: ba11 9dbd 5a4b bebe 8e6b b83e 60c0 8dbb
000003d0: 189f f43d 2168 443e 3eb2 3ebe 1145 a4be
000003e0: 0e6e 59bd 4cd0 f2bb 497a 8d3e e28b 10bd
000003f0: e9af 67be f15b aa3b 6132 64be 2398 af3e

critic.v_net.fcs.0.bias f4 [128]
0.40596524 0.08076866 -0.1924178 0.07688742 -0.3321232 0.19868216 0.17033637 -0.1729877
0.38186812 -0.06388881 -0.23233432 0.26891813 -0.12751223 0.30486575 -0.21331958 -0.14402553
0.24937575 0.08599316 -0.044093754 0.017045127 -0.36852378 0.18440531 -0.34890515 -0.2745376
-0.2808476 0.11397468 0.061633434 -0.039510928 0.40555206 0.26347536 -0.33854243 -0.11605744
-0.2131313 -0.0654022 -0.3204477 0.3924363 -0.22575726 0.15140928 -0.27841184 0.35364673
-0.15419109 -0.3917989 -0.24454355 -0.14485238 0.26161155 -0.3918246 0.06474569 0.07483747
-0.21518756 -0.14677623 0.21656436 -0.16207135 -0.07492512 -0.37779704 -0.38487208 -0.048663292
0.3655004 0.09060426 -0.31622964 -0.18540084 0.15152039 -0.35593674 -0.122145146 0.05193089
-0.074574135 0.30150017 -0.2501766 -0.26514113 0.3941205 0.2289923 -0.366706 0.06483591
0.16581203 -0.34093237 -0.21416157 0.21884865 -0.31745642 -0.31848258 -0.08279341 -0.18448332
-0.14144404 0.34041747 -0.11159895 0.27463308 -0.24427544 0.24321742 -0.22857167 0.2570634
-0.4025157 0.3908244 -0.24257483 -0.19787376 -0.29027048 -0.33824104 0.2030585 -0.11306924
-0.24595416 -0.24772847 0.1698185 -0.17284189 -0.15984859 -0.1668152 0.17199387 -0.087950885
-0.39641717 -0.23081985 0.12513568 -0.36417115 0.24483676 -0.13374147 0.0031695839 -0.36440247
-0.360069 -0.16400625 -0.08306243 0.15240385 0.17548294 -0.24890342 0.39926565 -0.06724011
-0.27006695 -0.4049191 -0.16030799 -0.25764665 -0.14086992 -0.13099065 -0.32065976 0.24274132
00000000: adda cf3e 0a6a a53d 2c09 45be 2777 9d3d
00000010: 0d0c aabe 5673 4b3e a86c 2e3e b023 31be
00000020: 3884 c33e 23d8 82bd 0ce9 6dbe a3af 893e
00000030: 9192 02be 5d17 9c3e 7370 5abe 6e7b 13be
00000040: 5b5c 7f3e 2f1d b03d a79b 34bd 39a2 8b3c
00000050: 26af bcbe bfd4 3c3e b2a3 b2be 3190 8cbe
00000060: 42cb 8fbe 8f6b e93d 5773 7c3d 36d6 21bd
00000070: 85a4 cf3e 3ee6 863e 6f55 adbe 86af edbd
00000080: 173f 5abe 97f1 85bd b911 a4be 69ed c83e
00000090: e92c 67be 090b 1b3e ff8b 8ebe 2f11 b53e
000000a0: 45e4 1dbe de99 c8be a069 7abe 2f54 14be
000000b0: f3f1 853e 3c9d c8be 6399 843d 6344 993d
000000c0: 215a 5cbe 824c 16be 0cc3 5d3e 08f6 25be
000000d0: 5772 99bd 9d6e c1be f40d c5be 2953 47bd
000000e0: de22 bb3e ba8e b93d dae8 a1be b8d9 3dbe
000000f0: 2928 1b3e 573d b6be 3c27 fabd 7cb5 543d
00000100: 53ba 98bd 3b5e 9a3e 2617 80be 94c0 87be
00000110: 2aca c93e f57c 6a3e e4c0 bbbe b1c8 843d
00000120: a1ca 293e b08e aebe 2c4d 5bbe dc19 603e
00000130: a689 a2be 2610 a3be 978f a9bd 32e9 3cbe
00000140: b5d6 10be 334b ae3e fe8d e4bd b59c 8c3e
00000150: 5723 7abe fd0d 793e b10e 6abe d09d 833e
00000160: 8a16 cebe 231a c83e 8965 78be 6b9f 4abe
00000170: 559e 94be ee2d adbe 91ee 4f3e d890 e7bd
00000180: 68db 7bbe 88ac 7dbe e7e4 2d3e 77fd 30be
00000190: 59af 23be 9bd1 2abe 291f 303e 981f b4bd
000001a0: 31f7 cabe 0a5c 6cbe 9123 003e a474 babe
000001b0: 7db6 7a3e 86f3 08be cbb8 4f3b f692 babe
000001c0: f75a b8be 41f1 27be a31c aabd c10f 1c3e
000001d0: cdb1 333e 8ae0 7ebe 8c6c cc3e 2fb5 89bd
000001e0: 3746 8abe 8e51 cfbe c727 24be 43ea 83be
000001f0: 3440 10be 6a22 06be 842d a4be 2e91 783e

critic.v_net.fcs.1.weight f4 [128, 128]
-0.060905177 -0.03735727 -0.08509909 -0.0006290944 -0.044624977 0.053979207 0.045772057 0.047343723
-0.027606849 0.022513613 -0.063397944 0.028377756 -0.07786913 -0.05113874 0.016983736 -0.07294308
-0.038357478 -0.03712187 0.042211607 -0.0037824372 -0.0016036243 0.018851368 -0.042168744 -0.043457698
0.059899848 0.056024995 -0.05069641 0.04777149 0.081433736 -0.07051397 -0.062045228 -0.08358762
0.014291322 0.06921329 -0.00065132685 -0.014552896 -0.030522663 0.0005370562 0.026697299 0.07319542
-0.04358635 0.059961837 -0.06618732 0.058164936 0.0058433865 0.068503045 -0.07712188 -0.07840223
-0.008782518 0.016322631 0.0075735147 0.015456123 0.07535589 -0.073787384 -0.03016137 0.07184597
0.03453165 -0.05542988 -0.0073383986 -0.008876126 -0.08341224 0.08052365 -0.017303092 0.07805535
0.0026436083 -0.041440837 0.024154685 -0.08021889 0.069542006 -0.00646677 0.073359296 -0.007963025
0.075280435 0.020332472 0.02257795 0.052652784 0.052949116 -0.009659615 0.015077171 0.0022311697
0.0785921 -0.08658155 0.038641725 0.035726473 0.08705825 -0.024891455 0.015093376 0.00897671
0.016813632 0.018338947 -0.0028564816 0.025511486 0.02567723 0.07740246 -0.015795331 0.07323238
0.048633765 0.026927222 0.015831895 0.023018649 0.020948712 -0.04870194 -0.024922559 0.0034735957
0.029515691 0.04200397 0.047967855 -0.06223139 0.04195274 -0.0013182797 -0.067562796 0.039279006
-0.08158403 0.079217054 -0.04949391 -0.063793965 -0.0043585426 -0.04618915 -0.020526337 -0.015336701
-0.051723465 0.034490716 -0.039533976 0.049555495 0.08681825 -0.039363027 -0.03526133 0.06784189
0.07924344 0.017186305 0.068070985 0.03732451 -0.055037588 -0.008882416 -0.08478823 0.077417955
-0.029024953 -0.073143624 0.076787986 -0.025217501 -0.048482858 -0.05491573 -0.022829378 -0.050742783
-0.010133946 -0.0038547823 0.08704495 0.044311278 0.04481762 -0.060654465 -0.08549397 -0.028577523
-0.023338342 0.048895244 0.061087642 -0.07115694 -0.00987546 -0.013015116 0.0053606047 0.038572975
-0.07975465 -0.009845113 0.069760695 0.071693376 0.04330949 -0.08539284 0.04512015 0.059994057
-0.04049134 0.06780229 -0.02781143 0.03585014 -0.07823634 0.035640195 0.040166758 -0.0071163476
-0.043069683 -0.02281919 0.036739346 -0.06734254 0.083566144 -0.08187084 0.0015848795 0.03372768
-0.081195384 -0.010477422 -0.015949821 -0.07125278 -0.053631168 -0.0052738353 -0.07255996 0.025082264
-0.036016274 -0.008625563 0.06751153 0.053411458 -0.07805476 -0.045754902 0.023766238 0.014202877
-0.078916885 -0.042432413 -0.0037097866 -0.04708038 0.084234744 0.009169784 0.045321222 0.011009947
-0.012008227 -0.06946226 0.07556461 -0.04745536 -0.0771679 0.023327542 -0.00023668616 0.02751125
-0.02466226 -0.025625536 -0.0066903904 -0.013689254 0.008952602 0.082738645 0.03915635 -0.0704042
0.07954386 -0.0019035097 0.040432356 0.029625768 0.012639882 0.08610266 0.014002458 0.024766099
-0.08303421 0.023529416 0.08209313 -0.02556261 0.037114482 -0.07846328 0.018170528 -0.022975069
-0.030072292 0.037623446 0.04208821 0.06778722 0.011298674 -0.0328215 -0.039059326 0.08464587
0.03986882 0.03247245 -0.055253558 0.06617175 -0.03778936 -0.07743316 0.04577524 -0.06402263
00000000: b577 79bd f003 19bd 6f48 aebd cfe9 24ba
00000010: aec8 36bd 4d19 5d3d 7b7b 3b3d 7eeb 413d
00000020: c227 e2bc 786e b83c c8d6 81bd 7878 e83c
00000030: da79 9fbd db76 51bd 7a21 8b3c 2e63 95bd
00000040: bb1c 1dbd 1a0d 18bd 14e6 2c3d c4e2 77bb
00000050: b430 d2ba 2f6e 9a3c 22b9 2cbd b300 32bd
00000060: 8b59 753d 777a 653d 0aa7 4fbd 0aac 433d
00000070: bbc6 a63d a169 90bd 2323 7ebd fc2f abbd
00000080: 2626 6a3c b3bf 8d3d cebd 2aba 456f 6ebc
00000090: aa0a fabc 3bc9 0c3a 4bb4 da3c 7be7 953d
000000a0: 9a87 32bd 8b9a 753d 388d 87bd 5b3e 6e3d
000000b0: e179 bf3b 534b 8c3d 14f2 9dbd 5991 a0bd
000000c0: 8de4 0fbc 0ab7 853c 3f2b f83b ae3b 7d3c
000000d0: 3054 9a3d d71d 97bd fa14 f7bc fb23 933d
000000e0: 0f71 0d3d 710a 63bd f376 f0bb 2c6d 11bc
000000f0: 09d4 aabd 95e9 a43d 37bf 8dbc 7cdb 9f3d
00000100: 6340 2d3b debd 29bd 0ce0 c53c cd49 a4bd
00000110: 0a6c 8e3d 33e7 d3bb 663d 963d 5977 02bc
00000120: a12c 9a3d 4990 a63c 65f5 b83c 72aa 573d
00000130: 2ce1 583d 5d43 1ebc 3d06 773c d138 123b
00000140: e5f4 a03d ab51 b1bd c946 1e3d ec55 123d
00000150: 994b b23d 2ae9 cbbc 354a 773c 0d13 133c
00000160: bebc 893c 8f3b 963c cf33 3bbb 77fd d03c
00000170: 0e59 d23c 2e85 9e3d 3665 81bc dcfa 953d
00000180: 3334 473d 7a96 dc3c e4b1 813c 9b91 bc3c
00000190: a29c ab3c af7b 47bd 652a ccbc 44a5 633b
000001a0: e4ca f13c 5b0c 2c3d f179 443d 58e6 7ebd
000001b0: a3d6 2b3d 20ca acba 5d5e 8abd 06e3 203d
000001c0: 8715 a7bd 8d3c a23d 20ba 4abd 69a6 82bd
000001d0: 1bd2 8ebb d630 3dbd d926 a8bc c946 7bbc
000001e0: fcdb 53bd 2346 0d3d 61ee 21bd b4fa 4a3d
000001f0: c4cd b13d 203b 21bd 2f6e 10bd b0f0 8a3d
00000200: 624a a23d 4bca 8c3c cd68 8b3d 96e1 183d
00000210: 186f 61bd 8e87 11bc 74a5 adbd 4e8d 9e3d
00000220: bdc5 edbc 53cc 95bd 0543 9d3d ef94 cebc
00000230: f695 46bd 51ef 60bd ad04 bbbc aad7 4fbd
00000240: da08 26bc 84a0 7cbb 9f44 b23d be7f 353d
00000250: ae92 373d d170 78bd 7617 afbd 691b eabc
00000260: 0d30 bfbc 6146 483d 0937 7a3d bbba 91bd
00000270: aecc 21bc 5a3d 55bc 03a8 af3b b2fe 1d3d
00000280: 6856 a3bd 664d 21bc b2de 8e3d fad3 923d
00000290: 4b65 313d 71e2 aebd e8cf 383d 54bc 753d
000002a0: 3fda 25bd eddb 8a3d ccd4 e3bc 99d7 123d
000002b0: 603a a0bd 74fb 113d e685 243d 4030 e9bb
000002c0: d669 30bd 4fef babc ff7b 163d e3ea 89bd
000002d0: ba24 ab3d e6ab a7bd bbbb cf3a 0926 0a3d
000002e0: c449 a6bd 7ea9 2bbc 33a9 82bc faec 91bd
000002f0: 5bac 5bbd 23d0 acbb 519a 94bd 5279 cd3c
00000300: cd85 13bd 3c52 0dbc 7c43 8a3d f9c5 5a3d
00000310: 2ddb 9fbd 7e69 3bbd 6ab1 c23c 2fb3 683c
00000320: 2d9f a1bd 9ccd 2dbd e41f 73bb 5bd7 40bd
00000330: 4483 ac3d dd3c 163c bfa2 393d 1163 343c
00000340: 28be 44bc 3b42 8ebd 9ec1 9a3d 8d60 42bd
00000350: 340a 9ebd 6719 bf3c f52e 78b9 465f e13c
00000360: 8208 cabc a5ec d1bc 103b dbbb e548 60bc
00000370: efad 123c e172 a93d 6962 203d 1430 90bd
00000380: e4e7 a23d 307f f9ba 669c 253d bdb1 f23c
00000390: 8217 4f3c 9756 b03d 916a 653c 46e2 ca3c
000003a0: d70d aabd c3c0 c03c 7120 a83d ae68 d1bc
000003b0: 5b05 183d 5bb1 a0bd 5cda 943c 3636 bcbc
000003c0: 2b5a f6bc 0b1b 1a3d b064 2c3d 07d4 8a3d
000003d0: 131e 393c d66f 06bd acfc 1fbd d05a ad3d
000003e0: 7d4d 233d d501 053d 8e51 62bd 0e85 873d
000003f0: 04c9 1abd 4795 9ebd d17e 3b3d 4c1e 83bd

critic.v_net.fcs.1.bias f4 [128]
-0.055713665 0.06185641 -0.032040276 0.052099206 0.050888367 -0.07274527 -0.07092595 0.005799659
-0.020030826 -0.08791667 0.059611626 0.057027213 0.024674641 -0.0791839 0.055396583 0.061202995
-0.084044315 -0.029457929 -0.051825017 0.0129045425 -0.06986869 0.026685214 -0.07869367 0.060858205
-0.04337626 0.06039459 0.021528525 -0.011447864 -0.06889373 -0.0319714 -0.04497943 0.0827013
0.07187871 -0.014521728 0.050539307 -0.0148813035 0.08436634 0.072450936 -0.05296547 0.039545525
0.08377339 -0.059975743 -0.06384144 0.07125082 0.08824343 -0.0071974066 -0.037921615 0.055312004
0.052607957 -0.05018444 -0.03484121 -0.07635432 -0.026148388 0.05882699 -0.011499041 -0.064551935
-0.014091861 0.040152807 -0.02279153 -0.058032352 0.07647497 -0.05087169 0.068142876 0.057000376
-0.039748028 0.07426596 -0.037677765 0.043994293 -0.06007656 0.061960377 -0.015015857 -0.012496203
0.0011491654 0.08790293 0.07426264 -0.05952728 0.055934135 0.043626137 -0.010890904 0.010273684
-0.024432717 0.071179844 -0.036753558 -0.012295574 -0.01944017 -0.02026255 0.07270918 -0.0045399107
0.06933517 -0.00461351 0.0034099328 0.050613727 -0.03718496 0.078211114 -0.032878418 0.08430447
-0.05667322 0.02800224 0.086967774 -0.086677626 0.03389085 0.0751751 0.008799187 -0.06677538
0.018766422 0.040321343 0.06923918 0.041665174 0.0152317975 0.039630037 0.036417913 0.08629628
0.030199565 -0.006634293 0.06387849 -0.045269 -0.07051284 0.041234504 -0.019397844 -0.08087741
-0.06612038 -0.004013423 0.03179867 0.08267858 -0.056668427 -0.007812445 0.032983765 0.080399714
00000000: 0334 64bd 265d 7d3d aa3c 03bd fa65 553d
00000010: 5270 503d 79fb 94bd a041 91bd 110b be3b
00000020: b017 a4bc a80d b4bd 522b 743d 5e95 693d
00000030: 7922 ca3c 2b2b a2bd 87e7 623d feaf 7a3d
00000040: 6d1f acbd c151 f1bc 7846 54bd 936d 533c
00000050: 5117 8fbd f39a da3c 262a a1bd 7446 793d
00000060: 4eab 31bd 5160 773d 975c b03c d28f 3bbc
00000070: 2818 8dbd 71f4 02bd 5a3c 38bd 4d5f a93d
00000080: 2535 933d 8bec 6dbc 4e02 4f3d b6d0 73bc
00000090: 42c8 ac3d 2861 943d 52f2 58bd 7dfa 213d
000000a0: 6291 ab3d 20a9 75bd 4dbf 82bd f3eb 913d
000000b0: f9b8 b43d 39d8 ebbb b253 1bbd d78e 623d
000000c0: 717b 573d 338e 4dbd a8b5 0ebd a75f 9cbd
000000d0: 2535 d6bc 92f4 703d 7966 3cbc ce33 84bd
000000e0: 8de1 66bc 4577 243d 4db5 babc 55b3 6dbd
000000f0: e99e 9c3d d55e 50bd 7e8e 8b3d 3a79 693d
00000100: d4ce 22bd c018 983d 0054 1abd 5c33 343d
00000110: d712 76bd 2aca 7d3d 1205 76bc e0bc 4cbc
00000120: 989f 963a 7406 b43d 0317 983d e1d2 73bd
00000130: 311b 653d 52b1 323d c36f 32bc f452 283c
00000140: 1f27 c8bc bdc6 913d e68a 16bd 6073 49bc
00000150: fe40 9fbc a6fd a5bc 8de8 943d 88c3 94bb
00000160: 99ff 8d3d ed2c 97bb 2e79 5f3b 5750 4f3d
00000170: 424f 18bd 262d a03d 85ab 06bd d2a7 ac3d
00000180: 2e22 68bd f464 e53c 291c b23d 0a84 b1bd
00000190: 22d1 0a3d 67f5 993d 772a 103c 88c1 88bd
000001a0: 0abc 993c fe27 253d 45cd 8d3d 1aa9 2a3d
000001b0: ca8e 793c 1b53 223d f32a 153d 1bbc b03d
000001c0: 1465 f73c 7c64 d9bb bad2 823d fd6b 39bd
000001d0: 0969 90bd 83e5 283d 3ae8 9ebc 0ea3 a5bd
000001e0: 1f6a 87bd 0883 83bb 523f 023d 6353 a93d
000001f0: 271d 68bd 8aff ffbb fc19 073d 9ba8 a43d

critic.v_net.fcs.2.weight f4 [1, 128]
0.015392608 -0.03644248 -0.008286165 -0.075448096 0.0528815 -0.076882824 0.066605024 0.07629401
0.084514216 0.05674302 -0.028270682 0.07710349 0.05705225 0.07837526 -0.025363468 0.07990194
0.013647782 0.0712075 -0.030798294 -0.01323704 -0.017689802 -0.0051866225 -0.07074441 -0.011120551
0.047689307 -0.026358007 -0.002096616 -0.06343469 0.018840652 0.039689686 0.012384978 -0.036428235
-0.045303404 0.04124756 -0.03439362 -0.07251989 -0.05463241 0.069484346 -0.07646996 -0.047957487
0.0479586 0.02897856 -0.07441381 -0.008824275 -0.03311341 0.05206653 0.07399572 0.028191026
0.08001288 -0.02367302 0.048330024 0.015903333 -0.06255542 0.016709592 -0.007456283 -0.0571479
0.08769532 -0.07655701 -0.074036814 0.07014061 0.043276258 -0.04925126 0.042343482 0.064475045
-0.08134268 0.037708066 -0.01761108 -0.060426727 0.013775002 0.036865238 0.04004682 0.058025084
0.013971016 -0.026982876 0.022410775 -0.025038695 0.060122985 0.08439142 -0.04010319 -0.049341537
-0.03539294 -0.0413642 0.025419038 -0.06474163 0.037040345 0.06623888 0.0385179 0.087802045
-0.07117212 -0.082124144 0.006955821 -0.082654886 -0.01550297 -0.08144641 0.04428221 -0.06366596
-0.058048032 -0.036263485 -0.0463063 -0.008712281 0.059741724 -0.0843889 0.08093586 0.08562511
-0.011114198 0.08078033 -0.061683577 -0.0506858 -0.08433639 -0.015407434 -0.013420431 0.05507533
0.0681414 0.0057138167 -0.075507745 0.043924645 -0.05134505 0.04325889 -0.05002831 -0.05952257
-0.023734324 0.039915048 -0.001165139 0.06469891 0.031057423 -0.007440573 0.032555606 -0.06462704
00000000: 4731 7c3c b644 15bd b2c2 07bc 8884 9abd
00000010: 469a 583d be74 9dbd 3768 883d 0940 9c3d
00000020: ca15 ad3d 5e6b 683d eb97 e7bc 6fe8 9d3d
00000030: 9faf 693d 3583 a03d 0cc7 cfbc a1a3 a33d
00000040: f29a 5f3c 3dd5 913d b44c fcbc 2be0 58bc
00000050: 34ea 90bc 8bf4 a9bb 72e2 90bd f932 36bc
00000060: dd55 433d bfec d7bc 6167 09bb 0cea 81bd
00000070: b657 9a3c a791 223d 5dea 4a3c c635 15bd
00000080: 1090 39bd 34f3 283d 53e0 0cbd 4f85 94bd
00000090: 3cc6 5fbd cf4d 8e3d 489c 9cbd 126f 44bd
000000a0: 3d70 443d 7264 ed3c 4566 98bd b193 10bc
000000b0: eda1 07bd b743 553d 118b 973d def0 e63c
000000c0: cbdd a33d eced c1bc b4f5 453d b547 823c
000000d0: 0e1d 80bd 8ee2 883c d653 f4bb eb13 6abd
000000e0: 9b99 b33d ecc9 9cbd 9da0 97bd e1a5 8f3d
000000f0: 7242 313d b0bb 49bd 5c70 2d3d 7e0b 843d
00000100: fe96 a6bd c673 1a3d 1d45 90bc 0482 77bd
00000110: 8cb0 613c 0100 173d 2208 243d b6ab 6d3d
00000120: b0e6 643c 310b ddbc cd96 b73c f31d cdbc
00000130: 8543 763d 69d5 ac3d 3e43 24bd 5a1a 4abd
00000140: 30f8 10bd 826d 29bd 963b d03c 4297 84bd
00000150: 9eb7 173d 40a8 873d f2c4 1d3d 8fd1 b33d
00000160: b0c2 91bd b430 a8bd a8ed e33b f746 a9bd
00000170: 2b00 7ebc 60cd a6bd 4361 353d 4d63 82bd
00000180: c6c3 6dbd 0589 14bd adab 3dbd f4bd 0ebc
00000190: bdb3 743d 16d4 acbd b3c1 a53d 385c af3d
000001a0: 5318 36bc 2870 a53d eba7 7cbd ea9b 4fbd
000001b0: 8fb8 acbd 766f 7cbc 5ee1 5bbc ab96 613d
000001c0: b88d 8b3d f83a bb3b cea3 9abd 54ea 333d
000001d0: 304f 52bd 3c30 313d 7cea 4cbd f0cd 73bd
000001e0: 7c6e c2bc f67d 233d 94b7 98ba dd80 843d
000001f0: 236c fe3c 0dd0 f3bb 0759 053d 2e5b 84bd
