examples/rl/models/safe_explorer_ppo/safe_explorer_ppo_pretrain_cartpole_stab.pt (torch, 108658 bytes, 82 tensors)

actor.pi_net.fcs.0.weight f4 [32, 4]
0	0xbe8fe162	-0.2810164
1	0x3e096fe8	0.13421595
2	0xbe905904	-0.28192914
3	0x3dda0500	0.10645485
4	0xbe9e6d48	-0.3094275
5	0x3e75ea20	0.24015093
6	0xbe70e60c	-0.23525256
7	0xbed011de	-0.40638632
8	0x3ec448d4	0.38336813
9	0xbeee00dc	-0.4648503
10	0xbe499894	-0.1968711
11	0x3efec006	0.49755877
12	0x3ed38dd0	0.41319132
13	0xbe4c9810	-0.19979882
14	0x3e89d55e	0.269206
15	0xbdf8d610	-0.12150204
16	0x3d9a7898	0.07542533
17	0xbea36fe2	-0.31921297
18	0x3e83c48c	0.2573589
19	0x3cfe82c0	0.031068206
20	0xbecbce50	-0.3980584
21	0x3dc176a0	0.09446454
22	0x3ea30830	0.31842184
23	0x3db26be0	0.08711982
24	0xbead8cd8	-0.33896518
25	0xbe9ff696	-0.31242818
26	0xbd9aa808	-0.07551581
27	0xbeb255a0	-0.34830952
28	0x3e9ebf5c	0.3100537
29	0xbecc0e14	-0.3985449
30	0x3e7311e8	0.237373
31	0xbed62f08	-0.41832757
32	0x3ecf6068	0.4050324
33	0xbe8c8efe	-0.27452844
34	0x3eaf6d50	0.34263086
35	0x3e7f1990	0.24912095
36	0x3e436584	0.19081694
37	0xbe8ccdc4	-0.27500737
38	0x3ee1cbdc	0.44100845
39	0x3e90846e	0.28226036
40	0x3d622560	0.055211425
41	0x3eca7710	0.39543962
42	0x3e45bf10	0.19311166
43	0xbedef662	-0.4354735
44	0x3ecfb4b8	0.40567565
45	0x3e5cd538	0.21565711
46	0x3c32e200	0.01091814
47	0xbee56bea	-0.44808894
48	0xbdb00d58	-0.08596295
49	0xbdaf1c68	-0.0855034
50	0xbde0c008	-0.10974127
51	0xbe422ac4	-0.18961626
52	0xbda04e98	-0.078274906
53	0x3ef39ac0	0.47579002
54	0xbe592f90	-0.2120955
55	0xbc283980	-0.010267615
56	0x3eb90040	0.36133003
57	0x3e94d35e	0.2906751
58	0xbe904bf6	-0.28182954
59	0x3efcc534	0.49369204
60	0x3ed3707e	0.41296762
61	0xbedaae46	-0.42711085
62	0xbe0840c4	-0.13305956
63	0x3ef9d9b4	0.48798907
64	0x3eaef446	0.3417074
65	0x3dc3a070	0.095520854
66	0xbe354778	-0.17703044
67	0x3e1f6768	0.1556679
68	0xbe02e868	-0.12783968
69	0x3e57174c	0.21004981
70	0xbde50d58	-0.11184186
71	0xbead2f08	-0.33824944
72	0x3e7fb528	0.2497145
73	0x3ef3273e	0.47490877
74	0xbea00ce2	-0.3125983
75	0x3e821d34	0.25412905
76	0x3ea1bdd2	0.31590134
77	0xbef4db7e	-0.4782371
78	0x3e2c198c	0.1680662
79	0xbef0d74a	-0.47039253
80	0xbd6d9160	-0.05799997
81	0xbe77f090	-0.24212861
82	0x3ed499ac	0.41523492
83	0x3e62187c	0.22079653
84	0xbe93c878	-0.28863883
85	0xbe7c8ea8	-0.24663794
86	0x3e5604a4	0.20900208
87	0xbe497e88	-0.19677174
88	0xbeadff7c	-0.33983982
89	0x3eb1def2	0.34740406
90	0xbe1b2270	-0.15149856
91	0xbec5c900	-0.38629913
92	0xbe1e9c84	-0.15489393
93	0x3ee4f80c	0.44720495
94	0x3ec5c9aa	0.3863042
95	0xbe75afe4	-0.23992878
96	0x3dd559e0	0.10417533
97	0x3e2baa5c	0.16764206
98	0x3edb9986	0.42890567
99	0xbe622328	-0.22083724
100	0x3e32a88c	0.17447108
101	0xbe7acc54	-0.24492007
102	0xbee49084	-0.44641507
103	0x3d4550f0	0.04817289
104	0xbdc025c0	-0.093822
105	0x3d9eb810	0.07749951
106	0x3e007510	0.12544656
107	0x3e8427be	0.2581157
108	0xbd90bc18	-0.07067126
109	0x3df7ac88	0.120934546
110	0xbe89a42a	-0.2688306
111	0x3ec84074	0.39111674
112	0xbc914940	-0.017735124
113	0x3eca21a0	0.3947878
114	0x3d6ef080	0.058334827
115	0x3ec348b8	0.38141418
116	0xbec7703e	-0.38952821
117	0x3e83135a	0.25600702
118	0xbb98fc80	-0.004668772
119	0x3dc6e110	0.09710896
120	0x3ef5e5b4	0.48026812
121	0xbd0f53c0	-0.03499198
122	0xbef20a18	-0.47273326
123	0xbe8a6660	-0.2703123
124	0x3eb045da	0.34428293
125	0x3ec63b9c	0.38717353
126	0x3dd1fb60	0.10253024
127	0x3e405348	0.1878177

actor.pi_net.fcs.0.bias f4 [32]
0	0xbbcab380	-0.006185949
1	0xbcfaef80	-0.03063178
2	0xbdf70070	-0.1206063
3	0x3ea7faae	0.3280844
4	0x3c99f060	0.018791378
5	0x3d6efa60	0.058344245
6	0xbea8bc42	-0.3295613
7	0xbe02ff38	-0.1279267
8	0xbe147c34	-0.14500505
9	0x3ee3338e	0.4437527
10	0xbe852c1a	-0.2601021
11	0xbef6843e	-0.48147768
12	0x3e9c334a	0.3050788
13	0x3e3d4010	0.18481469
14	0x3ed8f7ec	0.4237665
15	0x3eea0b14	0.45711577
16	0xbd5f9610	-0.05458647
17	0x3da92578	0.082591
18	0xbe7a3958	-0.24435937
19	0xbe901184	-0.28138363
20	0xbea7bae8	-0.32759786
21	0xbe473c08	-0.19456494
22	0x3e8e6994	0.27814925
23	0xbecc208a	-0.39868575
24	0x3cb8ff20	0.02258259
25	0x3d897cc0	0.06713247
26	0xbed7caf2	-0.42147022
27	0xbe271088	-0.163149
28	0xbdbcbb10	-0.09215367
29	0xbeeebd7c	-0.4662894
30	0x3e4b9664	0.19881588
31	0xbe833700	-0.256279

actor.pi_net.fcs.1.weight f4 [32, 32]
0	0x3e2fe0c1	0.1717558
1	0x3e3481ed	0.17627688
2	0x3da78e4a	0.08181436
3	0xbdeb976f	-0.11503493
4	0xbdbeab9d	-0.093100764
5	0xbdc37529	-0.09543831
6	0x3e0c647f	0.13710211
7	0xbb7e7252	-0.0038825464
8	0x3ca0f9f6	0.01965044
9	0xbe05ef70	-0.1307962
10	0xbe0e1946	-0.13876829
11	0x3e327de0	0.1743083
12	0x3e231e3c	0.15929502
13	0x3e185070	0.14874434
14	0xbd784492	-0.06061227
15	0x3d9ddb51	0.07707847
16	0xbbc7fd01	-0.0061031585
17	0x3dc550c8	0.096345484
18	0x3d274f8e	0.040847354
19	0x3d36dab0	0.04464215
20	0xbd20167e	-0.03908395
21	0x3e1ecb66	0.15507278
22	0xbe23d33d	-0.1599855
23	0xbdbbbb43	-0.09166577
24	0x3d81e3ee	0.06342302
25	0x3ddb026e	0.10693823
26	0x3ddaf3e1	0.106910475
27	0xbe23535b	-0.15949766
28	0x3e0607ad	0.13088866
29	0xbd874c99	-0.06606407
30	0xbe1fb658	-0.15596902
31	0x3ce8e45f	0.028429208
32	0xbc509da7	-0.0127329
33	0x3dd9fd2d	0.106439926
34	0xbc5a3559	-0.013318383
35	0x3d050550	0.03247577
36	0xbdcc635f	-0.09979891
37	0xbd3cac36	-0.04606267
38	0xbe245627	-0.1604849
39	0x3e15ed57	0.14641319
40	0x3d8341a0	0.06409001
41	0xbd1fb2a9	-0.038988743
42	0x3db3fe01	0.08788682
43	0x3e08a7a2	0.13345197
44	0xbdb0458b	-0.08607014
45	0x3e2415bd	0.16023917
46	0x3dc034fa	0.093851045
47	0xbe13c2c5	-0.14429767
48	0x3ca00285	0.019532451
49	0xbd1063a7	-0.035251286
50	0xbdf8b64b	-0.121441446
51	0x3e244015	0.1604007
52	0x3c9af35d	0.018914873
53	0x3d3fe95c	0.04685341
54	0x3e16791e	0.1469464
55	0x3c9ad05d	0.018898183
56	0x3dc09e20	0.0940516
57	0xbdbe3611	-0.09287656
58	0xbc384b50	-0.011248425
59	0xbc689894	-0.014196534
60	0xbe18e87e	-0.14932439
61	0xbd412c76	-0.047161542
62	0xbdb1f662	-0.08689572
63	0xbe293bf8	-0.16526783
64	0x3ae6f626	0.0017620965
65	0x3ddd10df	0.107942335
66	0x3e139eff	0.14416121
67	0x3e1b3007	0.1515504
68	0x3dd189a9	0.10231335
69	0xbe191e7c	-0.14953035
70	0x3e3422d2	0.17591408
71	0xbdaeae48	-0.08529335
72	0xbe2484d2	-0.16066292
73	0x3e0f75de	0.14009807
74	0x3e0fd46a	0.14045873
75	0x3e0eeb70	0.13957
76	0xbe1ecf0f	-0.15508674
77	0xbb712ae8	-0.0036799256
78	0x3d740477	0.05957457
79	0x3e01f45d	0.12690873
80	0xb9cd4b01	-0.0003915653
81	0x3c14bbd8	0.009077989
82	0xbda2d227	-0.0795024
83	0x3d0fa106	0.035065673
84	0xbe2356d9	-0.15951099
85	0x3e0390d8	0.12848222
86	0xbe05dd6c	-0.13072747
87	0x3d4f8198	0.0506607
88	0x3cf90c26	0.0304013
89	0xbde9a103	-0.11407664
90	0x3daa20c8	0.08307034
91	0x3e0b2e0b	0.13591783
92	0x3ca0c170	0.019623488
93	0xbd65bac1	-0.056086306
94	0xbdaf08d9	-0.085466094
95	0x3c04e386	0.008110886
96	0x3dd1033c	0.10205695
97	0x3dc6b368	0.09702188
98	0x3e00639b	0.12537996
99	0xbd931ec5	-0.07183603
100	0x3e20fcf0	0.15721488
101	0x3c86f40b	0.01647379
102	0x391ffba0	0.00015257159
103	0x3c22abfe	0.009928701
104	0x3d8931cb	0.066989504
105	0xbe2063ec	-0.15663117
106	0xbd0723e2	-0.032993205
107	0x3e182ce7	0.14860879
108	0x3d8febb0	0.07027376
109	0x3dcec532	0.10096206
110	0xbe303da2	-0.17211011
111	0x3dafd794	0.0858604
112	0xbdde35e4	-0.108501226
113	0x3d8ebdbb	0.06969782
114	0xbdbb756d	-0.091532566
115	0xbd13a456	-0.036045395
116	0x3e02d039	0.12774743
117	0x3e079759	0.13241328
118	0xbe210be9	-0.157272
119	0xbd976494	-0.07392231
120	0xbdb5810c	-0.08862504
121	0xbe049f12	-0.12951306
122	0x3e251a31	0.16123272
123	0xbdaba280	-0.08380604
124	0xbe1634b4	-0.14668542
125	0xbe0aa979	-0.13541211
126	0x3d742bbb	0.059612017
127	0x3d691764	0.056907073
128	0x3dbc8645	0.092052974
129	0xbbf5bf1d	-0.007499589
130	0x3daf32ad	0.085545875
131	0x3e2ac647	0.166772
132	0xbd0dcbec	-0.034618303
133	0xbd2d6e10	-0.042341292
134	0x3e21cbe1	0.1580043
135	0x3d3a8f9b	0.04554711
136	0x3b71e20c	0.0036908416
137	0xbd23b9d8	-0.039972156
138	0x3d8e912f	0.06961285
139	0x3d8c5f9e	0.06854175
140	0x3d89c5ab	0.06727155
141	0xbcc48e07	-0.023993505
142	0x3dca5fa0	0.0988152
143	0xbcaf3afc	-0.02139043
144	0x3b55243f	0.0032522825
145	0xbd36a0d1	-0.04458696
146	0x3c304175	0.010757794
147	0x3d987862	0.07444836
148	0xbd86691e	-0.06563018
149	0xbd80ab5a	-0.06282683
150	0xbe0bdc60	-0.13658285
151	0xbd972274	-0.07379618
152	0xbdd226b2	-0.10261287
153	0xbda40063	-0.08007886
154	0x3d91db29	0.071218796
155	0xbe00801d	-0.12548871
156	0x3db4b8fe	0.08824347
157	0x3d1b4cec	0.037915155
158	0xbd46f7a4	-0.048576012
159	0x3e2b76ad	0.1674449
160	0x3d803dc6	0.06261782
161	0xbd16201d	-0.03665172
162	0x3e31422f	0.17310403
163	0x3e140000	0.14453125
164	0x3e005d25	0.12535532
165	0x3d959d25	0.073053636
166	0x3d883cf3	0.0665225
167	0xbe12ee91	-0.14348818
168	0x3dd2dd56	0.10296123
169	0x3e04966c	0.12948006
170	0xbe1fa6d5	-0.15590985
171	0x3d0d0961	0.034432773
172	0xbd6579f2	-0.0560245
173	0x3d8ef4cf	0.06980287
174	0xbd8ddae2	-0.06926514
175	0xbcbdaae7	-0.023152782
176	0xbd7d2bd1	-0.061809365
177	0x3b97c8ee	0.004632107
178	0xbc8af6f0	-0.016963452
179	0x3dfd6142	0.12372066
180	0xbde2a2f0	-0.11066234
181	0x3cb7c19b	0.022431185
182	0x3da9ff13	0.08300605
183	0x3cc4597b	0.023968449
184	0xbe2cacf8	-0.16862857
185	0xbdb3662d	-0.08759723
186	0x3dde4071	0.10852135
187	0xbb9c7eba	-0.004775849
188	0xbd92b580	-0.07163525
189	0x3e270b0e	0.16312811
190	0xbd968122	-0.07348849
191	0xbd32b8f2	-0.04363341
192	0x3da04d02	0.07827188
193	0xbc66d396	-0.014088532
194	0xbe20f29d	-0.1571755
195	0x3e1db944	0.15402704
196	0x3e207f8f	0.1567366
197	0xbc0b939c	-0.00851908
198	0x3ddcd5c8	0.10782963
199	0xbcca20bf	-0.024673818
200	0xbe155c43	-0.14585976
201	0x3d52eeb7	0.051497187
202	0x3dddccf6	0.10830109
203	0xbe090df3	-0.13384227
204	0x3cc86a85	0.024464855
205	0xbe1a019c	-0.15039676
206	0xbc4b3fec	-0.012405377
207	0x3cc73145	0.024315486
208	0x3dd1afb3	0.1023859
209	0xbd8d2df9	-0.06893534
210	0x3e16df14	0.14733535
211	0x3c951d78	0.018202528
212	0x3c2b1ce9	0.010443904
213	0xbe0e0359	-0.13868465
214	0x3df18fd6	0.11795013
215	0xbd15b629	-0.036550675
216	0xbe15b8ed	-0.14621325
217	0xbe2c9093	-0.16852026
218	0x3df690d3	0.12039342
219	0xbd851d28	-0.06499702
220	0x3ca9f4f1	0.02074668
221	0x3e031897	0.12802349
222	0xbc2d3ecc	-0.010574054
223	0xbe2370af	-0.15960954
224	0xbdcf63ff	-0.101264946
225	0xbddb5f6a	-0.10711558
226	0xbdc35010	-0.09536755
227	0xbc814039	-0.015777694
228	0x3dc5b77f	0.0965414
229	0xbdac2016	-0.084045574
230	0x3dc62812	0.096756116
231	0x3dd61910	0.10453999
232	0xbddaca8c	-0.10683164
233	0x3d5d44f4	0.054020837
234	0xbcb826ad	-0.02247938
235	0xbe2d592e	-0.1692855
236	0x3df6205d	0.120178916
237	0x3d9ae363	0.07562902
238	0xbd3344d8	-0.043766826
239	0xbcfb4c4f	-0.030676035
240	0x3e0ecd32	0.13945463
241	0xbd8c9bab	-0.06865629
242	0xbc93a8a5	-0.018024752
243	0x3e15c350	0.14625287
244	0xbd4178a1	-0.04723418
245	0xbe0b2b0e	-0.13590643
246	0x3dee93c3	0.11649277
247	0x3e22199e	0.15830085
248	0x3e2115e7	0.15731011
249	0xbe161a94	-0.14658576
250	0xbdffcf6c	-0.124907345
251	0x3e2a4f1d	0.16631742
252	0xbd2c8688	-0.042120486
253	0x3e2c04d0	0.16798711
254	0x3dbe12a5	0.092809
255	0x3e1e86f8	0.15481174

actor.pi_net.fcs.1.bias f4 [32]
0	0xbd7c6d02	-0.061627395
1	0x3dc6e0cb	0.097108446
2	0xbd9d05cb	-0.076671205
3	0xbd17f131	-0.037095252
4	0xbc7cbfce	-0.015426589
5	0x3e029928	0.12753737
6	0x3d169dfb	0.036771756
7	0x3e2ba047	0.1676036
8	0x3caefa76	0.021359663
9	0xbe32ba48	-0.17453873
10	0xbe2a7ac0	-0.16648388
11	0xbe10c585	-0.14137848
12	0xbdf20452	-0.1181723
13	0xbdc4d849	-0.096115656
14	0x3d94454e	0.07239781
15	0xbd60bf50	-0.05486995
16	0xbe32cc18	-0.17460668
17	0xbcd43f96	-0.025909226
18	0xbd685a54	-0.05672677
19	0x3e1df78c	0.15426463
20	0x3d0ca3f4	0.034336045
21	0x3dd79291	0.10526002
22	0xbbc262d1	-0.00593219
23	0xbc998ad4	-0.018742956
24	0x3d981654	0.07426134
25	0xbdb232ba	-0.087010816
26	0xbd6e307e	-0.058151715
27	0xbdbb9320	-0.09158921
28	0xbdedbd69	-0.11608393
29	0xbda349cf	-0.07973062
30	0xbdf565da	-0.11982317
31	0xbd854674	-0.065075785

actor.pi_net.fcs.2.weight f4 [1, 32]
0	0x3dab39d9	0.08360643
1	0xbdce9a87	-0.100880675
2	0xbd253c6e	-0.040340833
3	0x3e2cc77a	0.1687297
4	0x3dec1b7d	0.115286805
5	0xbdb7be17	-0.08971804
6	0x3c897865	0.016781041
7	0xbe170ac3	-0.14750199
8	0xbe317e52	-0.17333344
9	0x3d3788d0	0.04480821
10	0xbe2ac50e	-0.16676733
11	0x3ddfd5a8	0.109294236
12	0xbd948c3f	-0.07253312
13	0x3d66800f	0.05627447
14	0x3d837e95	0.06420628
15	0x3d6b7de4	0.057493106
16	0x3e1d8a7f	0.15384863
17	0xbdbd2b31	-0.09236754
18	0x3dc36850	0.095413804
19	0xbdb4e316	-0.08832376
20	0xbe29d093	-0.16583471
21	0xbc7e0255	-0.015503486
22	0xbdb62042	-0.088928714
23	0xbbc1db95	-0.005916069
24	0x3e11b47f	0.1422901
25	0xbd3e1e29	-0.04641548
26	0xbdcee531	-0.101023085
27	0xbd8d6f5c	-0.06906006
28	0x3db531f9	0.08847422
29	0xbde163a9	-0.11005337
30	0x3ce9a55e	0.028521236
31	0x3dd6f1bf	0.10495328

critic.v_net.fcs.0.weight f4 [32, 4]
0	0x3ee6f398	0.45107722
1	0x3e751f50	0.23937726
2	0xbea4d37e	-0.32192606
3	0xbe86df5e	-0.2634229
4	0x3e9c76d0	0.30559397
5	0x3ec4819a	0.38380128
6	0xbe4428ac	-0.1915614
7	0x3e8396d0	0.25700998
8	0x3eacd426	0.33755606
9	0xbe12d4d8	-0.14339006
10	0x3b751400	0.0037395954
11	0x3e4edd18	0.20201528
12	0xbed62a44	-0.4182912
13	0x3e41bb10	0.18919015
14	0x3d438b00	0.047739983
15	0x3e3d83dc	0.18507332
16	0xbd817a88	-0.06322199
17	0xbef8372c	-0.48479593
18	0x3ebe47fe	0.371643
19	0x3e820c16	0.25399846
20	0xbeb2895c	-0.34870422
21	0x3ed4f1b0	0.41590643
22	0x3ec1e958	0.3787334
23	0xbe9dfde6	-0.30857772
24	0x3efaf8a4	0.49017823
25	0x3dfaf420	0.122535944
26	0xbe248910	-0.1606791
27	0xbece067e	-0.40239328
28	0xbcf71d40	-0.030165315
29	0xbd5eea90	-0.054422915
30	0x3eb84cc8	0.3599608
31	0x3efa0980	0.48835373
32	0xbecbb876	-0.3978917
33	0x3da611f8	0.08108896
34	0x3eea78d0	0.45795298
35	0x3de434e0	0.111428976
36	0x3ebdf6a8	0.37102246
37	0xbea1117a	-0.31458646
38	0xbc39bbc0	-0.011336267
39	0xbe9f3826	-0.31097525
40	0xbefce902	-0.4939652
41	0xbe3cc4ac	-0.184344
42	0x3ece9cee	0.40354103
43	0xbe3d3c2c	-0.18479985
44	0xbc8a7960	-0.01690358
45	0x3ed5f0a6	0.41785163
46	0xbdf88580	-0.12134838
47	0x3e4f8514	0.20265609
48	0x3e7bb088	0.2457906
49	0xbe7779d4	-0.24167567
50	0x3ebf2bc2	0.37338072
51	0x3e8d39f4	0.27583277
52	0xbe760c60	-0.24028158
53	0xbe7e0a20	-0.2480855
54	0x3e2f8fbc	0.17144674
55	0x3ef8315a	0.48475152
56	0xbee8941e	-0.45425504
57	0x3c436c80	0.011927724
58	0xbee71ab0	-0.45137548
59	0xbee87004	-0.4539796
60	0x3e8e472a	0.2778867
61	0x3e3dc17c	0.1853084
62	0xbe2f4a10	-0.17118096
63	0x3e88f07a	0.2674597
64	0xbec60edc	-0.38683212
65	0xbe04a0c8	-0.12951958
66	0x3bce1900	0.0062896013
67	0xbebbc8a2	-0.36676508
68	0xbe61aa18	-0.22037542
69	0x3d5d41f0	0.05401796
70	0x3ec99314	0.39370024
71	0x3d87d690	0.066327214
72	0xbdc4b6b8	-0.09605163
73	0x3ecf7b4e	0.40523762
74	0xbefc4832	-0.4927383
75	0x3dfd5238	0.123691976
76	0x3eb49398	0.35268855
77	0xbefa82bc	-0.48927867
78	0xbcad0480	-0.02112031
79	0xbeac255e	-0.3362226
80	0xbe3e7088	-0.18597615
81	0x3c2078c0	0.009794414
82	0xbe1096b0	-0.14119983
83	0xbe7f1228	-0.2490927
84	0x3ca8aaa0	0.020589173
85	0x3ad26000	0.0016050339
86	0x3eb56c4a	0.3543418
87	0x3e01ee6c	0.12688607
88	0x3dc1be68	0.09460145
89	0x3ea57594	0.32316267
90	0x3e82f7e6	0.25579756
91	0xbe8dafe0	-0.27673244
92	0xbef62eda	-0.4808262
93	0x3e7cc47c	0.24684328
94	0xbe98b522	-0.29825693
95	0xbe3271d4	-0.17426234
96	0x3e252a80	0.16129494
97	0xbe721dd4	-0.23644191
98	0xbefe1f1c	-0.4963311
99	0xbc4b8040	-0.012420714
100	0x3e8c86c2	0.27446562
101	0xbefa30c6	-0.48865336
102	0x3e9e5648	0.30925202
103	0x3d0f7900	0.035027504
104	0x3eec4426	0.46145743
105	0xbe976898	-0.29571986
106	0x3eadfb90	0.3398099
107	0xbd3b4de0	-0.045728564
108	0x3eacb4ea	0.33731776
109	0x3e8a2afe	0.26985925
110	0x3ede3a44	0.43403828
111	0x3e3144f0	0.17311454
112	0x3e56646c	0.20936745
113	0xbe380888	-0.17972004
114	0xbe82988c	-0.2550701
115	0x3ef31218	0.47474742
116	0xbe843c92	-0.2582746
117	0xbe93c1a6	-0.2885868
118	0x3e2bccdc	0.16777366
119	0x3ca660a0	0.020309746
120	0x3eb287b8	0.3486917
121	0xbef6a78a	-0.48174697
122	0x3e0a62e4	0.13514286
123	0x3df2b4b0	0.1185087
124	0xbd044d30	-0.032300174
125	0xbdf1b378	-0.11801809
126	0xbd07d820	-0.033165097
127	0xbecd407c	-0.4008826

critic.v_net.fcs.0.bias f4 [32]
0	0xbc2fddc0	-0.010734022
1	0x3e36dd88	0.17857945
2	0xbe1d1650	-0.15340543
3	0xbead7b22	-0.33883005
4	0xbd0174d0	-0.03160554
5	0x3ef7283e	0.4827289
6	0xbef26898	-0.47345424
7	0xbd33d220	-0.043901563
8	0xbe985e56	-0.29759473
9	0xbeb1e6ec	-0.34746492
10	0xbe104c6c	-0.14091653
11	0x3d7271c0	0.05919051
12	0xbeba2c10	-0.36361742
13	0x3e8b12b0	0.27162695
14	0xbd66ed10	-0.056378424
15	0x3b818d80	0.0039536357
16	0xbe294c48	-0.16533005
17	0xbec59da2	-0.38596827
18	0xbe401338	-0.18757331
19	0x3efcddf4	0.49388087
20	0x3e8fb73c	0.28069484
21	0x3ecf3f72	0.40478092
22	0x3e8684a0	0.2627306
23	0xbe626dd8	-0.22112215
24	0xbea417c8	-0.32049394
25	0x3e94d214	0.29066527
26	0xbeb6b98e	-0.35688442
27	0xbeadc3c2	-0.33938414
28	0x3e7f60ac	0.24939221
29	0x3ecd9a06	0.40156573
30	0xbce0bca0	-0.027433693
31	0x3eb55b86	0.3542139

critic.v_net.fcs.1.weight f4 [32, 32]
0	0x3e2370da	0.15961018
1	0x3d9667fc	0.07344052
2	0xbe0b864b	-0.13625447
3	0xbdf3b8a0	-0.11900449
4	0x3e286714	0.16445571
5	0x3e077968	0.13229907
6	0xbe22e8c4	-0.15909106
7	0xbd9b3b14	-0.07579628
8	0xbe32a25e	-0.1744475
9	0x3b8b3ac7	0.00424895
10	0xbd0cbdcf	-0.034360703
11	0x3cb4436c	0.022004806
12	0xbd37de98	-0.044890016
13	0xbca85faf	-0.020553438
14	0xbc6c7796	-0.014432808
15	0x3e11d626	0.14241847
16	0x3d469270	0.048479497
17	0xbe13b3e6	-0.14424095
18	0xbdf021b5	-0.11725179
19	0x3de107c4	0.10987809
20	0x3d49717f	0.049180504
21	0xbdb7c9ef	-0.08974063
22	0xbcf398ad	-0.029735887
23	0xbdd1b69b	-0.10239907
24	0xbe024856	-0.12722906
25	0xbe03b5fa	-0.12862387
26	0x3d944123	0.07238986
27	0xbc725ef1	-0.014793144
28	0x3e2f7da9	0.1713778
29	0x3cb9966a	0.02265473
30	0xbe1bf84e	-0.1523144
31	0x3d04cdc8	0.03242281
32	0xbd25d63a	-0.040487505
33	0x3ce3fd7a	0.027830828
34	0xbdc520e8	-0.09625417
35	0xbc707052	-0.014675217
36	0x3e0a1bc9	0.13487162
37	0x3e19666b	0.14980476
38	0xbe234ed2	-0.15948036
39	0xbe28a3d4	-0.16468745
40	0xbd8cc45f	-0.06873392
41	0xbd6e0f25	-0.05811991
42	0x3e30f0dd	0.17279382
43	0x3e16df58	0.14733636
44	0xbd05029e	-0.0324732
45	0xbe15cbc5	-0.14628513
46	0x3d1acc24	0.03779234
47	0xbd46b1cb	-0.0485094
48	0x3e22f7ec	0.15914887
49	0xbbad34e6	-0.005285847
50	0x3e1a9b57	0.1509832
51	0xbdb01fe7	-0.08599835
52	0xbe0f22b6	-0.13978085
53	0xbd64591d	-0.055749048
54	0x3d8d2e4b	0.06893595
55	0xbddbd726	-0.10734396
56	0x3be18fee	0.006883613
57	0xbd9883c0	-0.07447004
58	0xbc0632f6	-0.008190861
59	0xbdfa46ae	-0.12220512
60	0xbdb95645	-0.09049658
61	0xbdd66eb0	-0.10470331
62	0x3cb1f7f3	0.021724677
63	0xbd98c986	-0.074603125
64	0xbe12682c	-0.14297551
65	0x3d722f7f	0.059127327
66	0xbc68db39	-0.014212423
67	0x3d909e06	0.070613906
68	0x3e07d182	0.13263515
69	0xbe025a2a	-0.12729707
70	0xbe0d70b6	-0.13812527
71	0x3d7c0f4b	0.061538022
72	0x3bf27a40	0.0073998272
73	0x3e0a5a1e	0.1351094
74	0xbcca2240	-0.024674535
75	0xbda3cfee	-0.07998644
76	0xba7c5672	-0.00096259185
77	0xbdd7ec5c	-0.10543129
78	0x3d442d00	0.047894478
79	0x3d0a9671	0.03383488
80	0x3cdb01bf	0.026734231
81	0xbd1a1188	-0.037614375
82	0x3d86887a	0.065689996
83	0xbdc8dd0c	-0.09807786
84	0x3c41cb0e	0.011828197
85	0xbe2234d3	-0.15840463
86	0x3d93b932	0.072130576
87	0xbdc5c8c7	-0.09657436
88	0xbe09dcf1	-0.13463189
89	0x3dd73baf	0.105094306
90	0xbe079093	-0.13238744
91	0xbe0c967e	-0.13729283
92	0xbdc1fe84	-0.09472373
93	0x3da644ca	0.08118589
94	0xbd5b8632	-0.053594775
95	0xbe24763f	-0.16060732
96	0x3d3c618b	0.04599146
97	0xbdd70b5e	-0.10500215
98	0xbdc1fb4d	-0.0947176
99	0x3d8ff627	0.07029372
100	0xbdd61e00	-0.10454941
101	0x3d7c629f	0.06161749
102	0xbdd5a2ee	-0.10431467
103	0xbda9ce7e	-0.082913384
104	0xbe11c7b5	-0.14236338
105	0x3e216c8f	0.15764068
106	0xbd6322ea	-0.05545322
107	0x3e0192aa	0.12653604
108	0xbd0257c6	-0.03182199
109	0xbd851476	-0.06498043
110	0x3ddbcf07	0.10732847
111	0xbd0e3bc7	-0.034724977
112	0xbd5598d5	-0.052147705
113	0x3de90338	0.11377567
114	0x3d860220	0.06543374
115	0xbdf71930	-0.12065351
116	0xbe15cb8b	-0.14628427
117	0x3de0bc3d	0.109734036
118	0xbd7d3a3f	-0.061823126
119	0xbd814d89	-0.06313617
120	0xbd68e782	-0.056861408
121	0x3adb9155	0.0016751686
122	0xbd9b454a	-0.07581575
123	0xbe10d72f	-0.14144586
124	0x3c9a1637	0.018809421
125	0x3d915f92	0.07098307
126	0xbd4d91bc	-0.05018781
127	0xbc6ac12e	-0.014328284
128	0x3dc07ec5	0.09399179
129	0xbd602ed1	-0.054732148
130	0x3db2d7a3	0.08732536
131	0x3e12da5a	0.14341107
132	0x3de6226f	0.112370364
133	0xbd45a5d8	-0.048253864
134	0x3db90c8a	0.09035595
135	0xbe29c023	-0.165772
136	0xbd9c662a	-0.07636674
137	0x3dce6951	0.10078681
138	0x3dc2e8a8	0.09517032
139	0x3e037adb	0.12839834
140	0xbd6c4cd4	-0.057690457
141	0xbe1debbf	-0.15421961
142	0x3e2966a0	0.16543055
143	0x3defa361	0.11701084
144	0xbd896019	-0.06707782
145	0x3df7ca59	0.12099142
146	0x3dffb753	0.12486138
147	0x3cc3b9ad	0.023892248
148	0x3cc38844	0.023868687
149	0x3c8f37c0	0.017482638
150	0x3dcf0b3b	0.10109564
151	0x3a8cc174	0.0010738806
152	0x3d8d43ea	0.06897719
153	0x3b8621fd	0.004093407
154	0x3d89beaf	0.06725823
155	0x3d804500	0.06263161
156	0x3e0f4e16	0.13994631
157	0x3e1f4764	0.15554577
158	0xbd0dfb36	-0.0346634
159	0xbe1835b4	-0.14864236
160	0x3de55fa3	0.11199882
161	0xbcb80412	-0.022462878
162	0xbaca111a	-0.0015416474
163	0xbda9a2c6	-0.08283
164	0x3cb4dd0b	0.022078058
165	0x3df9c3fc	0.12195584
166	0xbe2eaeb0	-0.17058825
167	0xbe13817b	-0.14404862
168	0x3e1781d1	0.14795615
169	0xbdd5663e	-0.10419892
170	0xbe138a1c	-0.14408153
171	0x3ded2d5c	0.11580917
172	0x3d3916a1	0.045187596
173	0xbde8155b	-0.11332198
174	0x3e0458f6	0.12924561
175	0xbcf10be2	-0.029424611
176	0x3ddb7fb3	0.10717716
177	0xbd00a487	-0.031406906
178	0xbd7d57bf	-0.06185126
179	0x3c14bed9	0.009078705
180	0x3e1c809c	0.15283436
181	0x3c9fe023	0.019516056
182	0xbc7860fc	-0.015159842
183	0x3dfacfe7	0.122466855
184	0xbd6e7224	-0.05821432
185	0x3c8c624e	0.01713672
186	0x3e11ed32	0.14250639
187	0xbd979f55	-0.07403437
188	0xbd4e81ab	-0.05041663
189	0xbda07e05	-0.07836536
190	0x3c9355c8	0.01798524
191	0x3d6d16cc	0.05788307
192	0xbc628973	-0.013826716
193	0xbd08469d	-0.033270467
194	0x3da3288e	0.079667196
195	0xbd5a8b37	-0.053355422
196	0xbc67eeb2	-0.0141560305
197	0xbc9a0035	-0.018798927
198	0xbd72bc80	-0.0592618
199	0x3dc1e318	0.09467143
200	0x3e10c416	0.14137301
201	0x3c8c7571	0.017145844
202	0x3e070142	0.13184074
203	0x3b01673f	0.0019745377
204	0xbcc7f2cc	-0.024407767
205	0x3e1bf7de	0.15231273
206	0xbe289df2	-0.16466501
207	0x3e2cbddf	0.16869305
208	0x3e0d39cb	0.13791578
209	0x3e24e035	0.16101153
210	0xbcd9e2a9	-0.026597338
211	0x3e10bd92	0.14134815
212	0xbd14e81b	-0.036354166
213	0xbdd8e9ca	-0.10591467
214	0x3d5d2e04	0.053998962
215	0xbe06eb5b	-0.13175718
216	0xbe2f4b52	-0.17118576
217	0xbcb27417	-0.021783872
218	0x3db9d9a0	0.09074712
219	0xbcd3dbcc	-0.025861643
220	0xbd0ed3b2	-0.034869857
221	0xba61ea43	-0.00086179766
222	0x3da29b58	0.07939786
223	0xbdfb7e0f	-0.12279903
224	0xbca6ec0e	-0.020376232
225	0xbdeeea07	-0.11665731
226	0x3dcd73af	0.100318305
227	0xbda36e1e	-0.079799876
228	0xbe303cda	-0.17210713
229	0xbc73d500	-0.014882326
230	0x3db12834	0.08650246
231	0xbe0bdb4a	-0.13657871
232	0xbd578845	-0.05262019
233	0x3db1e914	0.08687034
234	0x3dce671b	0.100782596
235	0x3cb3946a	0.021921355
236	0xbe246302	-0.16053393
237	0x3da5ed6b	0.081019245
238	0xbd82feb4	-0.06396237
239	0x3e012dfe	0.12615201
240	0xbd23db08	-0.040003806
241	0xbe2d5d46	-0.16930112
242	0x3d63f1a8	0.055650383
243	0x3e279711	0.16366221
244	0x3e2b2242	0.16712287
245	0xbd54db26	-0.05196681
246	0x3e080cfb	0.13286202
247	0xbe254846	-0.16140851
248	0x3dcbafa8	0.09945613
249	0xbe0d3ca8	-0.1379267
250	0xbe0c3f6b	-0.13696067
251	0x3de234c9	0.11045224
252	0xbdb8c48c	-0.09021863
253	0x3e18f586	0.1493741
254	0xbe321450	-0.17390561
255	0x3e210650	0.15725064

critic.v_net.fcs.1.bias f4 [32]
0	0x3cffa387	0.031205906
1	0x3ce79e21	0.028273644
2	0xbd38d7b2	-0.045127578
3	0x3e29b8d7	0.16574417
4	0x3e1b72c5	0.151805
5	0xbd8d3ca2	-0.068963304
6	0x3d6ba939	0.05753443
7	0xbe2b60dc	-0.16736168
8	0x3dcf68de	0.10127424
9	0x3ddae921	0.10688997
10	0xbdb6a961	-0.08919025
11	0xbe290a2d	-0.16507788
12	0xbe0dee16	-0.13860354
13	0x3d51a545	0.051183004
14	0xbe320f99	-0.17388763
15	0x3da3acf0	0.079919696
16	0xbdaa6e96	-0.08321874
17	0xbe259b52	-0.16172531
18	0x3be9599e	0.007121279
19	0xbe22224a	-0.15833393
20	0x3e1d69c6	0.1537238
21	0x3e239485	0.15974624
22	0xbe0c5c0d	-0.1370699
23	0x3dc1cfd1	0.09463466
24	0xbe0e213c	-0.13879865
25	0x3db5888f	0.08863937
26	0x3e2e518d	0.17023297
27	0xbd57f1da	-0.052720882
28	0xbb0bbce3	-0.0021322302
29	0xbc8d331f	-0.01723629
30	0xbdfc1e03	-0.12310412
31	0xbe2c194a	-0.16806522

critic.v_net.fcs.2.weight f4 [1, 32]
0	0xbd8d4cb9	-0.06899399
1	0x3e2d910b	0.16949861
2	0x3d2fcf9c	0.0429226
3	0xbc68dc32	-0.014212655
4	0xbe2b1ddf	-0.16710614
5	0x3d946ee7	0.072477154
6	0x3dc923d6	0.09821288
7	0x3d6b0028	0.057373196
8	0xbe3004d5	-0.17189343
9	0xbe2b9f13	-0.16759901
10	0xbd0f3530	-0.034962833
11	0x3e08c15a	0.13355008
12	0xbdbd397d	-0.09239481
13	0xbc827e77	-0.015929444
14	0x3daa02d7	0.08301323
15	0xbc97c65e	-0.018527206
16	0xbd8ff4e1	-0.07029129
17	0x3dd30e5f	0.103054754
18	0x3d333631	0.043752853
19	0x3d14ba02	0.036310203
20	0xbe0f7dd5	-0.14012845
21	0x3db2f76d	0.08738599
22	0x3db03cd6	0.086053535
23	0x3d3b07b4	0.045661643
24	0x3d9e696d	0.07734952
25	0x3d60d968	0.054894835
26	0xbd193eba	-0.037413336
27	0x3e0befeb	0.1366574
28	0x3b85a4a7	0.004078466
29	0x3e1dacf2	0.15398005
30	0x3e33a5e9	0.17543758
31	0x3a8c99db	0.0010727005

0.fcs.0.weight f4 [100, 4]
0	0x3e98de3b	0.29857048
1	0xbecf8011	-0.40527394
2	0x3ec6913d	0.38782683
3	0x3ea167fa	0.3152464
4	0x3ed38244	0.41310322
5	0xbebff3a5	-0.37490574
6	0xbeb5f3fe	-0.35537714
7	0x3e6ac3b0	0.22926211
8	0xbee8cbd3	-0.45468006
9	0x3eefd415	0.46841493
10	0x3e04c26c	0.12964791
11	0x3da51f18	0.08062571
12	0xbedb77c8	-0.42864823
13	0x3e451894	0.19247657
14	0x3e2fe8ca	0.17178646
15	0x3d3dcc7c	0.04633759
16	0x3efa4871	0.48883393
17	0x3e2906e5	0.16506536
18	0xbed3dc36	-0.41378945
19	0x3ee2b905	0.44281784
20	0x3e4b6f37	0.19866644
21	0xbe5a8843	-0.21341042
22	0xbee7430f	-0.4516835
23	0x3e8e6200	0.27809143
24	0x3ee681b6	0.45020837
25	0xbedf16b6	-0.43572015
26	0x3d0a5ab7	0.03377792
27	0x3e3b08d8	0.18265092
28	0xbe83b84b	-0.25726542
29	0xbdbffcae	-0.09374367
30	0xbe9db6fb	-0.30803666
31	0xbe6c719e	-0.23090217
32	0xbee1f064	-0.44128716
33	0xbc92f633	-0.017939663
34	0x3e90cbad	0.28280392
35	0x3e80d30c	0.25161016
36	0x3ef2b678	0.47404838
37	0xbeea924f	-0.4581475
38	0xbd9b10db	-0.07571574
39	0x3ef292f7	0.4737775
40	0x3d84457c	0.064585656
41	0xbe140b55	-0.14457448
42	0xbeea1d8e	-0.45725673
43	0x3e6f3312	0.23359326
44	0x3eca95c4	0.39567387
45	0x3ed4f447	0.4159262
46	0x3edc3ac2	0.4301358
47	0x3de1f2a3	0.110326074
48	0x3ebce326	0.3689205
49	0xbddc3133	-0.107515715
50	0x3ecd9f1c	0.40160453
51	0xbd03536c	-0.03206198
52	0xbdddc520	-0.10828614
53	0xbe79bc24	-0.24388176
54	0x3e8be2f6	0.27321595
55	0x3e4bba9f	0.19895409
56	0x3eadaa7a	0.33919126
57	0xbe982a61	-0.29719833
58	0xbe8093a7	-0.2511265
59	0x3ef4c0a3	0.4780322
60	0xbe93958a	-0.28825027
61	0xbe8ce15a	-0.2751568
62	0xbdd11eae	-0.1021093
63	0xbe12763c	-0.14302915
64	0xbeb59618	-0.35466075
65	0x3ed61d3c	0.4181918
66	0x3cb7ff13	0.022460496
67	0x3e4a4cb1	0.19755818
68	0x3eba2fa8	0.36364484
69	0xbeadc97e	-0.3394279
70	0x3ed41b5f	0.41427132
71	0xbe7b4890	-0.24539399
72	0xbd8ab2a9	-0.06772358
73	0x3ec96d0e	0.39341015
74	0x3ef76137	0.48316357
75	0x3ee518c7	0.44745466
76	0x3e84bbd4	0.2592455
77	0x3eefc740	0.46831703
78	0xbe3a9e51	-0.18224455
79	0xbd314e91	-0.043287817
80	0xbe431ecb	-0.19054715
81	0xbd3a368c	-0.045462176
82	0xbd9d6da3	-0.07686927
83	0x3e85fae6	0.26167983
84	0x3eb62e68	0.3558228
85	0xbeb4f145	-0.35340324
86	0xbea8d796	-0.3297698
87	0xbe311ab7	-0.17295347
88	0x3d24046f	0.04004329
89	0xbe2d48be	-0.1692228
90	0xbe91ac77	-0.28451893
91	0xbd8bf422	-0.06833674
92	0xbe779f92	-0.24181965
93	0xbca7758a	-0.02044179
94	0xbecf5151	-0.40491727
95	0xbe096827	-0.13418637
96	0xbe3cd775	-0.18441565
97	0xbd80b6b6	-0.06284849
98	0x3ed1c55f	0.40970895
99	0x3ea4570b	0.3209766
100	0xbe1f60d5	-0.15564282
101	0xbee59d4b	-0.44846568
102	0xbea4c115	-0.3217856
103	0xbebebca9	-0.3725331
104	0xbd611474	-0.054951146
105	0xbe57e9d1	-0.21085288
106	0xbea9298f	-0.3303952
107	0x3df2d919	0.11857814
108	0x3b1fe9c4	0.002440081
109	0xbdb13cf7	-0.08654206
110	0xbe4ed937	-0.20200048
111	0x3ed97fa8	0.42480206
112	0xbeece410	-0.46267748
113	0xbc877289	-0.016534107
114	0x3e638b56	0.22221121
115	0x3ebc4e37	0.36778423
116	0xbeea39e2	-0.45747286
117	0xbda17d1e	-0.07885192
118	0x3eda33de	0.42617697
119	0x3d97acc3	0.074059986
120	0x3e1fcd19	0.15605582
121	0xbe531bde	-0.20616099
122	0x3ec63003	0.38708505
123	0xbe1f617f	-0.15564536
124	0xbe85cb85	-0.26131836
125	0x3ed8e81c	0.42364585
126	0x3e27f8b4	0.16403466
127	0x3cf751ab	0.03019031
128	0xbeaea22c	-0.34108102
129	0xbe060b41	-0.1309023
130	0xbed24f5b	-0.41076168
131	0xbeab904c	-0.33508527
132	0xbd3fcd99	-0.046826933
133	0x3ddaf682	0.10691549
134	0xbec827cd	-0.39092866
135	0x3ef90c21	0.48642066
136	0x3ebeb392	0.37246376
137	0xbee43732	-0.4457336
138	0x3e8af7c0	0.27142143
139	0xbea296c5	-0.31755653
140	0xbed02fdd	-0.40661517
141	0x3ee9a65d	0.45634738
142	0xbe4b4108	-0.19849026
143	0xbe23d6a2	-0.15999845
144	0x3cea197a	0.028576601
145	0x3e929eb5	0.2863671
146	0x3cdeb68e	0.027186658
147	0xbe22107e	-0.15826604
148	0x3d15efa7	0.036605503
149	0xbe809e1f	-0.25120637
150	0xbeb26ed2	-0.34850174
151	0x3e058c28	0.13041747
152	0x3d1219c9	0.035669122
153	0x3e891ac7	0.26778242
154	0xbe211c94	-0.15733558
155	0xbf010656	-0.5040029
156	0xbe33173e	-0.17489335
157	0xbef2bc0a	-0.47409087
158	0xbd242aa4	-0.040079728
159	0x3e6e74c8	0.23286736
160	0x3d7fe122	0.062470563
161	0x3e988442	0.29788405
162	0x3df8099f	0.1211121
163	0x3e6d4b3d	0.23173232
164	0x3ef7be7e	0.48387522
165	0x3d945b2c	0.07243952
166	0x3d76c557	0.06024679
167	0xbe46d5c8	-0.19417489
168	0x3e960bfb	0.29306015
169	0x3ed1d5ab	0.40983328
170	0xbebe638c	-0.37185323
171	0x3eeef5ff	0.46672055
172	0x3e254f77	0.16143595
173	0xbdcffa7f	-0.101552
174	0xbef74a57	-0.48298904
175	0xbef709ce	-0.48249668
176	0xbec38e8b	-0.3819469
177	0xbed9e92b	-0.42560706
178	0xbebcd885	-0.3688394
179	0xbe2bcbbc	-0.16776937
180	0xbedb7b62	-0.4286757
181	0xbecd6f77	-0.40124103
182	0xbc938ca1	-0.018011393
183	0xbecf0e69	-0.40440682
184	0xbd70a3ee	-0.058750086
185	0x3d9f8a9b	0.07790109
186	0x3d9fe968	0.078081906
187	0x3e9e17fb	0.3087767
188	0x3e89d91d	0.26923457
189	0xbe987009	-0.29772976
190	0xbe091fe5	-0.13391073
191	0x3cddb602	0.027064327
192	0x3ec8554f	0.39127585
193	0x3e80307e	0.25036997
194	0xbe8a884d	-0.27057114
195	0xbd8f6a43	-0.0700269
196	0x3da6ddfb	0.08147808
197	0x3e40d735	0.18832095
198	0xbe25bc4a	-0.16185108
199	0xbee559a8	-0.44794965
200	0xbe9d3d14	-0.3071066
201	0x3a988ee3	0.0011639263
202	0xbea2b93d	-0.3178195
203	0x3e189497	0.14900433
204	0x3e8e74ca	0.27823478
205	0xbd05b868	-0.032646567
206	0x3e7b9331	0.24567868
207	0x3eb2383a	0.34808522
208	0x3e9ab082	0.3021279
209	0xbeed136d	-0.46303883
210	0x3ee811d4	0.45326102
211	0x3e0e2b53	0.13883714
212	0xbef496d0	-0.4777131
213	0x3dfa4e6c	0.12221989
214	0xbeb704dd	-0.35745898
215	0x3ef34249	0.4751151
216	0x3eb4f069	0.35339668
217	0xbebb5d32	-0.3659454
218	0xbe9f463c	-0.31108272
219	0x3da83bea	0.08214553
220	0xbdd232fa	-0.10263629
221	0x3e764cba	0.24052706
222	0xbee16687	-0.44023535
223	0x3ebf7771	0.37395814
224	0x3cc31f92	0.023818765
225	0x3cd778bc	0.026302688
226	0xbe8ced3a	-0.2752474
227	0x3d4e7983	0.05040885
228	0x3e986dd8	0.29771304
229	0x3efe02f3	0.49611625
230	0xbea51750	-0.3224435
231	0xbe6e5df0	-0.23278022
232	0x3dfdfefa	0.124021485
233	0x3e8e34b4	0.27774584
234	0xbedd8dcb	-0.43272242
235	0xbe34a89f	-0.17642449
236	0xbec51abc	-0.3849696
237	0x3eda0cb3	0.42587814
238	0xbe046a17	-0.12931095
239	0x3ea93767	0.3305008
240	0x3e747293	0.23871832
241	0x3c8b1780	0.01697898
242	0x3d9c1c7a	0.07622619
243	0x3ea1c0dc	0.31592453
244	0xbddf5086	-0.109040305
245	0x3e8c2793	0.27373943
246	0xbdab3d6d	-0.083613254
247	0xbbf772e1	-0.0075515364
248	0x3e3a704e	0.18206903
249	0xbedaaf9d	-0.42712107
250	0xbe5629e0	-0.20914412
251	0xbecd90dd	-0.40149584
252	0xbe0c1580	-0.13680077
253	0x3c336c40	0.010951102
254	0x3e692d1f	0.22771119
255	0xbed17f67	-0.40917513

0.fcs.0.bias f4 [100]
0	0xbef34931	-0.47516778
1	0x3eec8f25	0.4620296
2	0xbe6735ae	-0.22579071
3	0x3c76a492	0.015053885
4	0xbe07c7f8	-0.13259876
5	0xbed52753	-0.41631564
6	0xbd168030	-0.036743343
7	0xbed4c5f1	-0.41557267
8	0xbe8aaecd	-0.27086487
9	0x3ebf07ea	0.37310725
10	0xbea9520a	-0.33070403
11	0x3e1df047	0.1542369
12	0xbe24f6e0	-0.161098
13	0x3e23f75d	0.1601233
14	0xbdbcba17	-0.09215181
15	0x3ea36c03	0.31918344
16	0x3eed4cdb	0.463477
17	0x3ee68e50	0.4503045
18	0x3eb58c30	0.35458517
19	0xbe2e7c2c	-0.17039555
20	0x3e9d96f9	0.30779245
21	0xbeba3f7e	-0.36376566
22	0xbefc8059	-0.49316671
23	0x3ed1d508	0.40982842
24	0xbdabe7b2	-0.08393802
25	0x3ec5e1d2	0.3864885
26	0x3e9980a8	0.2998097
27	0xbdf376bf	-0.118878834
28	0xbd2f9a59	-0.042871807
29	0xbdcd977f	-0.10038661
30	0xbee90244	-0.4550954
31	0x3ebbf64b	0.36711344
32	0xbe8fde2e	-0.28099197
33	0x3e457b91	0.19285418
34	0x3eea042c	0.45706308
35	0xbed29e0c	-0.41136205
36	0xbe89e436	-0.26931924
37	0x3ee02b4e	0.4378304
38	0x3c02fdd5	0.007995089
39	0xbeda0a61	-0.42586043
40	0x3df09f9c	0.11749193
41	0x3ea5cf9c	0.32384956
42	0xbea51de1	-0.32249358
43	0x3eb823ab	0.35964713
44	0x3ef0fc72	0.470676
45	0x3ef99af5	0.48751035
46	0x3e97b96e	0.2963366
47	0x3d35e846	0.044410966
48	0x3e646ca2	0.22307065
49	0xbe0abf97	-0.13549648
50	0x3d640ff4	0.055679277
51	0xbe711675	-0.23543723
52	0x3eb7faa7	0.3593342
53	0xbe0d176d	-0.13778467
54	0xbe8b3e8a	-0.2719615
55	0xbdc08730	-0.09400785
56	0x3e148334	0.14503175
57	0x3de116b6	0.1099066
58	0xbe99191d	-0.29901972
59	0xbe9ef3b4	-0.31045306
60	0xbed4d81c	-0.41571128
61	0xbe30b045	-0.17254741
62	0xbd0d3105	-0.034470577
63	0x3ec8c18a	0.3921016
64	0xbe875e27	-0.2643902
65	0x3caf2d79	0.021383988
66	0xbe8d4c62	-0.27597338
67	0xbe67e865	-0.22647245
68	0xbe9e55a3	-0.3092471
69	0xbefd0f6a	-0.49425822
70	0xbeacab6e	-0.3372454
71	0xbda7962c	-0.0818294
72	0x3dbad103	0.09121897
73	0x3e30e49a	0.17274705
74	0xbeb4bf3a	-0.35302144
75	0xbeff3f53	-0.49853
76	0xbe8e2861	-0.27765182
77	0xbe9804dc	-0.29691207
78	0xbe837ee2	-0.2568274
79	0x3e79fc82	0.2441273
80	0x3ddf9fd1	0.109191544
81	0xbca27ad6	-0.019833963
82	0xbea8cb92	-0.32967812
83	0xbea7c9c5	-0.32771125
84	0x3ee1cf20	0.44103336
85	0xbee2f5d3	-0.44328174
86	0x3d16246b	0.036655825
87	0xbee988e4	-0.45612252
88	0xbef9c920	-0.4878626
89	0x3d09f77b	0.03368328
90	0xbe27ead5	-0.16398175
91	0xbef224e8	-0.47293782
92	0xbeacacbf	-0.33725545
93	0x3ed670a4	0.41882813
94	0xbe56970d	-0.20956059
95	0x3ecfbcab	0.4057363
96	0x3eeb9144	0.46009266
97	0xbe9ce005	-0.30639663
98	0xbdad7339	-0.084692426
99	0x3ed593f0	0.4171443

0.fcs.1.weight f4 [1, 100]
0	0xbd4289c9	-0.047494683
1	0x3cb385e3	0.021914428
2	0x3d93e8c2	0.072221294
3	0xbdc3e5e4	-0.095653325
4	0x3d34123e	0.04396271
5	0x3d8fafde	0.07015966
6	0xbd6d1ee5	-0.05789079
7	0xbdb192f3	-0.086706065
8	0xbd2039b2	-0.039117523
9	0xbd9210a0	-0.07132077
10	0xbc99337e	-0.018701311
11	0x3cd74951	0.026280077
12	0x3d4ba72e	0.04971998
13	0x3c86f2a9	0.016473131
14	0x3d7d18a3	0.061791074
15	0xbd8d1716	-0.06889169
16	0xbc558219	-0.013031506
17	0xbd68f3f3	-0.056873273
18	0x3d262427	0.04056182
19	0xbd2f4aab	-0.04279582
20	0xbda9ec5b	-0.08297034
21	0x3d381f52	0.044951744
22	0xbc03fa5a	-0.008055294
23	0x3d26c6aa	0.040716805
24	0x3d71fad5	0.059077103
25	0xbd120878	-0.035652608
26	0xbd015f17	-0.031584825
27	0xbc7f0b9f	-0.0155667355
28	0xbd39b46b	-0.045338076
29	0x3c875031	0.01651773
30	0xbd65cc21	-0.056102876
31	0x3d41cb70	0.047313154
32	0x3da87d57	0.08227032
33	0x3cf2e8b4	0.029651977
34	0x3d9aa056	0.07550113
35	0xbbaa1ac6	-0.00519118
36	0xbd6ee61f	-0.05832493
37	0xbd73f656	-0.059561096
38	0xbca45532	-0.020060156
39	0x3d9fc817	0.07801836
40	0x3cebea52	0.028798256
41	0x3d38668c	0.04501967
42	0xbc61468b	-0.013749729
43	0x3d3b8a11	0.045785967
44	0x3dcab697	0.098981075
45	0xbda0628f	-0.078312986
46	0xbdbd2d1c	-0.092371196
47	0xbd42570d	-0.0474463
48	0xbd24bb10	-0.04021746
49	0xbda3f4ec	-0.080056995
50	0x3cc4ec1b	0.024038365
51	0xbd132880	-0.035927296
52	0x3d9567ec	0.07295212
53	0xbc97804c	-0.018493794
54	0xbcb5da08	-0.022198692
55	0x3d9d4e6f	0.07680976
56	0xbd0f73c7	-0.035022523
57	0xbd817d7a	-0.06322761
58	0x3c24d674	0.010060895
59	0x3d3f39ea	0.04668609
60	0xbcd19cb3	-0.025587415
61	0xbdb21318	-0.08695048
62	0xbd8e45eb	-0.069469295
63	0xbdde47ca	-0.108535364
64	0x3d603aa6	0.05474343
65	0xbccf50d5	-0.025307098
66	0x3c87f081	0.016594173
67	0xbce645c1	-0.028109433
68	0x3d9ada20	0.07561135
69	0x3c3a582d	0.011373562
70	0x3d3d3d63	0.04620112
71	0xbbc48ce1	-0.0059982394
72	0x3c790014	0.0151977725
73	0x3d20e57a	0.039281346
74	0xbdb1e20b	-0.086856924
75	0x3d950744	0.072767764
76	0x3d0a67be	0.033790343
77	0x3d200819	0.039070223
78	0xbd8ef68e	-0.0698062
79	0x3d4f7d8c	0.05065684
80	0xbcae4d6a	-0.021277148
81	0x3dbf1679	0.09330458
82	0xbd02f3d7	-0.031970825
83	0xbd8048aa	-0.062638596
84	0xbd8fde5d	-0.07024834
85	0x3d236be0	0.0398978
86	0xbd8233e4	-0.063575536
87	0xbd7c7f73	-0.061644983
88	0x3da5f033	0.08102455
89	0x3d8f5441	0.06998492
90	0x3cf5cc2c	0.030004583
91	0x3d4d6d27	0.050152924
92	0xbd9031ff	-0.07040786
93	0x3d130a18	0.035898298
94	0x3a64d28c	0.00087288837
95	0xbd475f25	-0.04867472
96	0x3d4c07d9	0.04981217
97	0xbd3c51ca	-0.045976438
98	0x3dbe7ebd	0.09301517
99	0xbd680e29	-0.05665413

1.fcs.0.weight f4 [100, 4]
0	0xbde2b123	-0.110689424
1	0xbeb712cd	-0.3575653
2	0xbe8ef725	-0.2792293
3	0x3e35ebaf	0.17765687
4	0x3e1ee357	0.15516411
5	0x3ea7662a	0.32695132
6	0x3e924ff7	0.28576633
7	0xbe673b80	-0.22581291
8	0xbebb29c8	-0.36555314
9	0xbe5cd409	-0.2156526
10	0xbea5eb3d	-0.32406035
11	0xbe6169f1	-0.2201307
12	0xbe976008	-0.29565454
13	0xbecf529d	-0.40492716
14	0xbdaa2c84	-0.08309272
15	0xbebe097a	-0.37116605
16	0xbe29bcc2	-0.16575912
17	0x3e426680	0.18984413
18	0xbe7a3044	-0.24432474
19	0xbea8d25e	-0.32972997
20	0xbdf049c5	-0.117328204
21	0x3df40ca1	0.11916471
22	0xbcf931bc	-0.030419223
23	0x3e9ad78d	0.30242577
24	0x3eaf8d3a	0.34287435
25	0x3edba89d	0.4290208
26	0x3eee7384	0.46572506
27	0xbe1927c7	-0.1495658
28	0x3da6860f	0.081310384
29	0x3effda0d	0.49971047
30	0xbead0849	-0.33795384
31	0x3e0ad2f2	0.13557032
32	0xbf057dd8	-0.5214515
33	0x3d5d25f3	0.05399127
34	0xbd8decda	-0.069299415
35	0x3e8bbb2f	0.27291247
36	0xbee5e470	-0.44900846
37	0x3e7d0817	0.24710117
38	0xbee85e5e	-0.45384496
39	0xbe0171ef	-0.12641118
40	0xbdf94e3c	-0.12173125
41	0xbd44db4a	-0.048060693
42	0xbe13724c	-0.1439907
43	0xbe82ffcc	-0.25585783
44	0x3e78e9cb	0.24307935
45	0xbee6fb06	-0.4511339
46	0x3ed98578	0.4248464
47	0xbe9f5463	-0.3111907
48	0xbed1aba7	-0.40951273
49	0xbd049c47	-0.0323756
50	0x3e06d5b3	0.13167457
51	0xbea7e084	-0.3278848
52	0xbe621eb7	-0.2208203
53	0xbed80fb6	-0.42199486
54	0x3e0357a1	0.12826397
55	0x3e921c9d	0.28537455
56	0x3e917143	0.28406724
57	0x3eec2014	0.46118224
58	0x3e8979f8	0.26850867
59	0xbe7ec5f7	-0.24880205
60	0x3e88f868	0.2675202
61	0x3e50cb04	0.20389944
62	0x3db0352b	0.08603891
63	0xbe8d4592	-0.2759214
64	0x3ecfb233	0.40565643
65	0xbe0229e6	-0.12711295
66	0xbcdb9b1e	-0.026807364
67	0x3e9cad99	0.30601195
68	0xbebf28ee	-0.37335914
69	0xbe991030	-0.29895163
70	0x3cceba78	0.0252354
71	0xbedde2d8	-0.4333713
72	0xbe9637b8	-0.29339385
73	0x3ee92aeb	0.45540556
74	0x3e4074d7	0.18794571
75	0x3ec8eb57	0.3924205
76	0x3e54c775	0.20779212
77	0x3eb5fec0	0.3554592
78	0xbd5e6ad7	-0.05430111
79	0xbdd302aa	-0.103032425
80	0xbe50b6f5	-0.20382293
81	0x3e600e97	0.21880566
82	0x3ebdc770	0.3706622
83	0xbd083fdc	-0.033264026
84	0x3da75c36	0.08171885
85	0xbe1633e9	-0.1466824
86	0xbe524fc0	-0.20538235
87	0x3e4adede	0.1981158
88	0xbeb89690	-0.3605237
89	0xbe794323	-0.24342017
90	0xbea561c4	-0.32301152
91	0x3e511abb	0.20420353
92	0xbe79758a	-0.24361244
93	0xbd511dec	-0.051053926
94	0xbea52576	-0.32255143
95	0x3e2c6e92	0.16839054
96	0xbeab1467	-0.33414003
97	0xbee2f2a2	-0.4432574
98	0xbee326be	-0.44365495
99	0xbee69a4c	-0.45039594
100	0xbe25a64c	-0.16176718
101	0xbe6325f2	-0.22182444
102	0xba47a016	-0.0007615102
103	0xbe6808d6	-0.2265962
104	0x3e844520	0.25833988
105	0xbeaa3e40	-0.33250618
106	0xbe4a0889	-0.19729818
107	0x3ec1280a	0.3772586
108	0x3d94c741	0.07264567
109	0x3e8b2df8	0.2718351
110	0xbdaf4867	-0.085587315
111	0x3d8ce3a2	0.06879355
112	0xbf023970	-0.5086889
113	0x3e02fb17	0.12791096
114	0xbebbef8e	-0.36706203
115	0xbea2258d	-0.31669274
116	0xbebd62c7	-0.36989424
117	0xbeb92136	-0.3615815
118	0x3c84fea3	0.016234701
119	0x3e927b95	0.2860991
120	0xbeee878e	-0.46587795
121	0xbe8bbca9	-0.27292374
122	0xbe511f73	-0.20422153
123	0x3e9ac8f6	0.30231446
124	0xbe6d2552	-0.23158768
125	0x3eb6d862	0.35711962
126	0xbe238669	-0.15969242
127	0x3eeaf223	0.4588786
128	0x3ef9342f	0.48672625
129	0x3e677bd0	0.22605824
130	0x3e4d711d	0.2006268
131	0xbee6b991	-0.4506345
132	0x3e1bf794	0.15231162
133	0x3ef5a7e3	0.4797965
134	0xbe1ea99c	-0.15494388
135	0x3d26095f	0.04053628
136	0xbe7b44e6	-0.24538001
137	0xbe45e8e1	-0.19327118
138	0xbf0246dd	-0.5088938
139	0xbea32496	-0.3186385
140	0xbeadb505	-0.3392717
141	0xbc8413b4	-0.016122676
142	0xbe932bf6	-0.28744477
143	0x3ea6204a	0.3244651
144	0x3ed9ee40	0.42564583
145	0xbed69a42	-0.41914564
146	0x3d973cf0	0.0738467
147	0xbe804591	-0.25053075
148	0x3eeaabd2	0.45834213
149	0xbe5e1387	-0.21687137
150	0xbd8e7777	-0.0695638
151	0x3ecbde0e	0.39817852
152	0x3e9d0d7c	0.3067435
153	0xbef8cf34	-0.48595583
154	0xbebd892c	-0.37018716
155	0xbe496fa5	-0.19671495
156	0x3e194c2f	0.14970468
157	0xbea530a2	-0.32263666
158	0x3e933e94	0.2875868
159	0x3e971c72	0.2951389
160	0xbeb0651c	-0.3445214
161	0x3e6978df	0.22800015
162	0xbe6f5957	-0.23373924
163	0x3de8c792	0.1136619
164	0x3eeb9afa	0.46016675
165	0x3e641cde	0.22276637
166	0x3eb434bc	0.35196483
167	0xbec62df3	-0.3870693
168	0x3ee8e079	0.4548376
169	0xbe58517c	-0.21124834
170	0x3ee9ca69	0.4566224
171	0x3e90dd74	0.28293955
172	0x3efdcc99	0.49570158
173	0xbea77a12	-0.3271032
174	0xbeb36b2b	-0.350427
175	0xbd59d334	-0.053179935
176	0xbe069634	-0.13143235
177	0xbe0809e7	-0.13285027
178	0xbe51c585	-0.20485504
179	0x3ef90ad4	0.48641074
180	0xbeb7b95d	-0.35883608
181	0x3d94181a	0.072311595
182	0x3c864dfb	0.016394606
183	0xbeee0ad1	-0.46492627
184	0xbee7c7dd	-0.4526967
185	0xbb9a6e96	-0.00471289
186	0xbeb8eee7	-0.36119768
187	0xbe02799b	-0.12741701
188	0xbd6bcef3	-0.05757041
189	0x3da86dd3	0.08224072
190	0x3e625e45	0.22106273
191	0x3ecb496b	0.3970445
192	0xbe879247	-0.26478788
193	0x3ee93776	0.45550126
194	0xbedd814c	-0.43262708
195	0xbebffa07	-0.37495443
196	0xbdb5ce87	-0.088772826
197	0x3e6aaf38	0.22918403
198	0xbd71f770	-0.059073865
199	0xbecde42f	-0.40213153
200	0x3da001e8	0.078128636
201	0x3e87a76a	0.26494914
202	0x3ed864bc	0.42264354
203	0xbe7993ae	-0.24372742
204	0x3ea5e156	0.3239848
205	0xbeb5dbf9	-0.35519388
206	0x3e29d5a3	0.16585402
207	0xbeaaf6aa	-0.33391315
208	0xbe2610f7	-0.16217409
209	0x3ee6e47b	0.45096192
210	0x3e9a0b90	0.30086946
211	0xbd01db9c	-0.031703576
212	0xbe3b16f5	-0.18270476
213	0xbca2dafa	-0.019879807
214	0x3df3ed75	0.11910526
215	0x3ed35da0	0.41282368
216	0xbdbce427	-0.09223204
217	0x3c887d17	0.01666121
218	0xbe5ab1cc	-0.21356887
219	0xbe135543	-0.14387994
220	0xbe51d006	-0.20489511
221	0x3e679ab3	0.22617607
222	0xbe58b7c5	-0.21163853
223	0x3ee15488	0.44009805
224	0xbe040ce5	-0.12895544
225	0xbed75772	-0.42058903
226	0x3e2ea836	0.17056355
227	0xbe439ae7	-0.1910206
228	0xbed11438	-0.40835738
229	0x3e80748e	0.25088924
230	0xbe8b6149	-0.2722266
231	0xbed57fd5	-0.4169909
232	0xbf03f189	-0.5154043
233	0xbe9f418b	-0.31104693
234	0x3e26ce6a	0.16289678
235	0xbed4e74f	-0.41582724
236	0x3deb0fff	0.114776604
237	0x3e94cf9c	0.29064643
238	0xbe736a8f	-0.23771118
239	0x3e47e748	0.1952182
240	0x3ef89b27	0.48555872
241	0x3ef1fb2d	0.47261944
242	0xbeb7e170	-0.35914183
243	0xbe2ce5ce	-0.16884539
244	0x3e2543e6	0.16139182
245	0x3e72199c	0.23642582
246	0xbd24e19f	-0.04025423
247	0xbca1ebb8	-0.01976572
248	0xbddc4fa9	-0.107573815
249	0xbe9ff3de	-0.31240743
250	0xbe779640	-0.2417841
251	0x3e953ba3	0.29147062
252	0xbea6a04c	-0.32544172
253	0x3e5438de	0.20724818
254	0x3edda2d8	0.43288302
255	0xbeab486b	-0.33453688

1.fcs.0.bias f4 [100]
0	0xbe31c6e6	-0.1736103
1	0xbe34b0d2	-0.17645577
2	0xbd950cb1	-0.07277811
3	0xbe3d918e	-0.18512556
4	0xbed62434	-0.41824496
5	0x3e355f3c	0.1771211
6	0xbebbf55e	-0.36710638
7	0x3c070b95	0.008242507
8	0xbe812390	-0.25222445
9	0xbde42d59	-0.11141462
10	0xbe1be7e1	-0.15225174
11	0x3e006418	0.12538183
12	0xbceb2729	-0.028705196
13	0x3f10ded0	0.56589985
14	0xbecffec5	-0.4062406
15	0xbed8195e	-0.42206854
16	0xbda1e6b9	-0.07905335
17	0x3d8e6d2b	0.06954416
18	0x3eb7c274	0.35890543
19	0xbc66145f	-0.014042943
20	0x3e80bac6	0.25142497
21	0x3e7bc5c6	0.24587163
22	0xbe2f6ecf	-0.17132114
23	0x3eefc976	0.4683339
24	0xbc9db8cf	-0.019253163
25	0x3d9a4322	0.07532336
26	0x3db0f4c5	0.08640436
27	0x3d17c6f3	0.037054967
28	0xbca79eec	-0.020461522
29	0x3e0c9495	0.13728555
30	0xbebce79e	-0.3689546
31	0xbe9df0b4	-0.30847704
32	0x3e99453e	0.2993564
33	0x3cb228f2	0.02174804
34	0xbe9baae5	-0.3040382
35	0xbe4e7d1e	-0.20164916
36	0xbefa2481	-0.48855975
37	0xbe12df40	-0.14342976
38	0x3c94f171	0.018181534
39	0x3e2ea754	0.17056018
40	0xbe538d41	-0.20659353
41	0xbdc42e02	-0.09579088
42	0xbe329276	-0.17438683
43	0xbea396d7	-0.3195102
44	0xbd796c88	-0.06089452
45	0xbe270d1a	-0.16313592
46	0xbeca8995	-0.39558092
47	0xbeda69b8	-0.42658782
48	0x3eb05a48	0.3444388
49	0x3f020413	0.50787467
50	0xbebfe715	-0.3748099
51	0xbe36f42e	-0.17866585
52	0xbd6cbb16	-0.057795607
53	0x3e72506c	0.23663491
54	0xbe3cb937	-0.18430029
55	0xbd549b91	-0.051906172
56	0xbe2964ca	-0.16542354
57	0x3ea9a988	0.33137155
58	0xbe7268d6	-0.23672804
59	0x3e26ded8	0.16295946
60	0xbbe032e2	-0.006842003
61	0x3d7e4c83	0.062084686
62	0x3e1fae8e	0.15593931
63	0xbe76518c	-0.24054545
64	0xbe721495	-0.23640664
65	0xbe36b05d	-0.17840715
66	0xbe76b3e3	-0.24092059
67	0x3ec73bbc	0.3891276
68	0xbe9c2bb5	-0.30502096
69	0xbebf6780	-0.37383652
70	0xbe21e715	-0.15810807
71	0xbe8d0a12	-0.27546746
72	0x3da73777	0.08164876
73	0xbc9ef04e	-0.019401696
74	0xbd9d02a3	-0.076665185
75	0xbe01e820	-0.12686205
76	0xbccc2892	-0.02492169
77	0xbe854e58	-0.26036334
78	0xbe9f2cf3	-0.3108898
79	0x3e0d12fb	0.13776772
80	0xbe590526	-0.2119337
81	0x3dc0494a	0.09388979
82	0xbe9f2af1	-0.3108745
83	0xbc924b8f	-0.017858295
84	0x3d4ecdf9	0.0504894
85	0x3ce3cff0	0.027809113
86	0x3ec4aa5d	0.38411227
87	0x3e952b22	0.2913447
88	0x3e82be53	0.2553583
89	0x3c87c993	0.01657561
90	0x3d70ce08	0.058790237
91	0x3ef9d021	0.48791602
92	0xbd5f905b	-0.054581027
93	0xbe6502a6	-0.22364292
94	0x3eb9b670	0.36272
95	0x3e6a4d66	0.22881088
96	0xbdd311ed	-0.103061534
97	0x3ed8b0ac	0.4232229
98	0x3f02b4c5	0.5105708
99	0xbd51f02c	-0.051254436

1.fcs.1.weight f4 [1, 100]
0	0xbc872376	-0.016496401
1	0xbcafeb2e	-0.021474447
2	0xbd34fa6f	-0.044184145
3	0x3dc9e88f	0.0985881
4	0x3dc7cdcc	0.097560495
5	0xbd545325	-0.051837105
6	0xbc45a8e3	-0.0120641915
7	0xbc0aa923	-0.008463177
8	0x3c9e2ba8	0.019307926
9	0xbd50d3f0	-0.05098337
10	0xbd998f22	-0.074980035
11	0xbdd2ecf5	-0.10299102
12	0xbcfb3f23	-0.030669754
13	0xbd402108	-0.0469065
14	0xbd5004f4	-0.050785974
15	0x3da33de2	0.079707876
16	0xbcc36d8d	-0.023855949
17	0xbd1f0319	-0.038821314
18	0xbd0ac3bc	-0.033878073
19	0x3d06e469	0.032932673
20	0xbd0c8e4d	-0.034315396
21	0xbdd10997	-0.10206907
22	0x3de80591	0.11329187
23	0xbdee681c	-0.11640951
24	0xbd937529	-0.07200081
25	0xba561243	-0.00081661734
26	0xbd0eed77	-0.034894433
27	0x3cd4aadd	0.02596038
28	0x3cdf95d1	0.027293118
29	0xbdabd9f8	-0.083911836
30	0x3c3df483	0.011593941
31	0x3d3ec71b	0.0465766
32	0xbdbbb39f	-0.091651194
33	0x3c8c3459	0.017114805
34	0x3d92c9ca	0.071673945
35	0x3cca7578	0.024714217
36	0x3db0f99a	0.08641358
37	0xbcdfc68c	-0.027316354
38	0x3b4b708e	0.003104243
39	0xbd9cfe64	-0.07665709
40	0x3c3f3ccd	0.011672211
41	0x3d217523	0.03941835
42	0x3de2b9e9	0.11070616
43	0x3cb04452	0.021516953
44	0x3d7ee1e6	0.062227152
45	0x381c3ece	3.725179e-05
46	0xbd331dc5	-0.043729562
47	0x3d9fead3	0.07808461
48	0xbd51bf4a	-0.051207818
49	0xbd95fb43	-0.07323315
50	0x3ddd7376	0.10813038
51	0x3d2102b3	0.039309215
52	0xbc22ce3c	-0.009936865
53	0xbd6e3560	-0.05815637
54	0x3c5b5c83	0.013388756
55	0x3d96cf8c	0.07363805
56	0x3dd9412a	0.10608132
57	0xbca454bb	-0.020059934
58	0x3dad6ba0	0.084677935
59	0xbda34287	-0.079716735
60	0x3a2a2d38	0.00064917235
61	0xbd053fbf	-0.032531496
62	0xbdad2964	-0.0845516
63	0x3db3cf9d	0.087798335
64	0x3dbb3fc0	0.09143019
65	0x3d83feb0	0.06445062
66	0x3d803bf7	0.062614374
67	0xbdcf1901	-0.10112191
68	0x3d5b5f76	0.053557836
69	0x3cfcb2a9	0.03084691
70	0xbca86b69	-0.02055903
71	0xbd57f877	-0.05272719
72	0xbd540eaf	-0.051771816
73	0x3ddce733	0.10786285
74	0x3d194885	0.037422676
75	0x3db769e4	0.08955744
76	0xba8b2a1a	-0.0010617406
77	0xbd9a14dd	-0.075235106
78	0xbd41e04d	-0.04733305
79	0xbd515491	-0.05110604
80	0x3d8f972d	0.07011256
81	0x3c333fcc	0.010940503
82	0x3db0d69e	0.08634685
83	0x3c14c65c	0.009080496
84	0x3d53dfca	0.051727094
85	0xbcc75490	-0.024332315
86	0xbd65ef7d	-0.056136597
87	0xbdc87371	-0.09787644
88	0xbda63455	-0.0811545
89	0xbd9d5ba9	-0.076834984
90	0x3cccd80f	0.025005369
91	0xbdad97b9	-0.084762044
92	0xbd15c290	-0.036562502
93	0x3d82bed2	0.06384052
94	0x3ce81eda	0.028335024
95	0x3d25ca5a	0.04047618
96	0xbd697724	-0.056998387
97	0xbd2aa801	-0.041664127
98	0xbdc3fb94	-0.09569469
99	0x3d023f41	0.031798605
