examples/rl/models/sac/sac_model_quadrotor_2D_stab.pt (torch, 917426 bytes, 73 tensors)

actor.net.fcs.0.weight f4 [128, 12]
-0.3219219 -0.5878223 -0.03204487 -0.0795145 -1.0223714 -0.15783498 -0.19376364 0.13736282
-1.0178593 0.2853177 0.06144656 0.037280235 -0.78699106 0.13292584 0.26845318 1.4859596
0.62502784 0.039017208 -0.25597754 0.24255161 -0.20583928 -0.13771355 -0.2651682 0.16456549
0.78545785 0.03593511 0.09119718 0.5599453 -0.5403351 -0.16150895 -0.192757 -0.13647638
-0.52357674 -0.006690322 0.17116293 0.1404038 0.433557 -0.076715924 -0.77472544 0.2318924
-0.12631086 -0.07375376 -0.25998363 0.13433333 -0.40746546 0.23148106 0.24166693 0.056516003
-0.24591318 0.13486838 0.5221924 1.8381296 -0.8881042 0.0060221734 0.15369959 0.11679948
-0.4876088 -0.18448314 -0.15348847 0.27318025 -0.12963319 -0.19105479 -1.2995465 -0.10810995
0.25919503 0.00845315 0.032177545 0.13161103 -0.46974325 -0.1870607 0.22037041 -0.14461294
0.32086697 0.5973857 0.41107422 0.8885625 2.3623984 0.4263059 -0.104011215 -0.018373832
-0.13358669 -0.02121715 -0.035101116 0.15423195 -0.6169088 -0.18451086 -0.076513045 0.02876503
-0.4348461 -0.29919288 -0.1795423 -0.052724782 -0.7176048 0.0079476265 -0.21369445 -0.07216383
-0.1117844 -0.49875203 0.4303498 0.833151 -1.9835606 -0.17625517 -0.2064857 -0.22146691
-0.068149306 -0.1281972 -0.20174025 0.06400484 -0.014456181 -0.023146475 -1.4722997 0.48762327
-1.0079576 -0.23861463 0.13400823 0.20381957 -0.38499966 -0.045203842 0.24075037 0.04751989
-0.1027868 -0.19090989 0.49856487 0.82608926 0.24344288 -0.014731815 0.076471135 -0.0019928084
-0.7690931 -0.0638973 -0.22176056 -0.19422932 -0.355008 -0.45407027 0.24900822 0.4986406
1.1573969 0.033933077 0.1804437 -0.17322552 -0.6967552 0.27044624 -0.11608256 -0.09575986
-0.6768832 -0.5294412 -0.28022137 1.0131116 -1.6550708 -0.13740864 -0.20997997 0.07516452
0.013114102 0.1434388 -0.10724065 -0.28532243 0.034652997 0.012645528 -0.09247649 0.2139162
0.12317994 -0.015153034 0.053843956 0.12378778 0.15444018 0.04295321 0.048039246 -0.117130496
0.4144714 0.29893178 0.37510872 0.6306057 0.8053428 0.005212996 -0.2642008 -0.2884896
-0.6852903 -0.24147218 -0.1925064 -0.08406593 -0.64076126 -0.6438116 -0.33633998 -1.1956837
-1.1945386 -0.24095951 0.05478356 0.18115976 0.17451082 -0.16191697 -0.09722365 0.0066114133
-0.34662738 -0.014305899 -0.5043504 -0.25260022 0.2033083 0.020310955 -0.10726794 -0.2533309
-0.65008366 0.009925189 -0.19699682 0.08034794 -0.12673752 0.21240221 0.330432 1.5910307
0.57325536 -0.14472592 0.26163825 0.07633142 -0.7794466 0.0718335 -0.19878258 0.2672038
0.46379095 -0.30163896 -0.5308109 1.0474527 0.15279661 0.009523221 -0.2689209 0.21402268
0.20870703 0.0056698457 -0.18413302 0.01793913 0.4836846 0.2755076 -0.17552483 -0.8614114
1.2062402 0.065959655 -0.2422953 -0.10772924 -1.2584522 0.26526725 -0.0985113 0.17362402
0.020289535 0.06472466 -0.025498768 0.2820375 -0.034225672 -0.01450723 -0.03841331 0.004542002
-0.038077828 -0.26044792 -0.13744576 -0.23040466 0.08028061 -0.17632994 -0.45172265 0.014170707
00000000: f3d2 a4be 867b 16bf 7b41 03bd 80d8 a2bd
00000010: 11dd 82bf 7e9f 21be fa69 46be d7a8 0c3e
00000020: 3749 82bf 2915 923e 63af 7b3d 29b3 183d
00000030: 3f78 49bf b61d 083e b272 893e ed33 be3f
00000040: d301 203f 82d0 1f3d 7d0f 83be 735f 783e
00000050: 88c7 52be c804 0dbe 20c4 87be db83 283e
00000060: c413 493f b230 133d 96c5 ba3d 9358 0f3f
00000070: 6753 0abf 9a62 25be 1762 45be 77c0 0bbe
00000080: 2009 06bf 7d3a dbbb 5645 2f3e 04c6 0f3e
00000090: 2ffb dd3e 3d1d 9dbd 6854 46bf 3475 6d3e
000000a0: a257 01be 360c 97bd 931c 85be ad8e 093e
000000b0: 509f d0be 5f09 6d3e 8977 773e 537d 673d
000000c0: aad0 7bbe f01a 0a3e 67ae 053f d547 eb3f
000000d0: cc5a 63bf a755 c53b 6d63 1d3e 9134 ef3d
000000e0: dca7 f9be 26e9 3cbe 152c 1dbe 48de 8b3e
000000f0: 90be 04be dea3 43be 8a57 a6bf c068 ddbd
00000100: 36b5 843e 157f 0a3c 9acc 033d 0bc5 063e
00000110: 3082 f0be d78c 3fbe c8a8 613e 6a15 14be
00000120: ad48 a43e 45ee 183f 5278 d23e d578 633f
00000130: 8931 1740 c444 da3e d503 d5bd b884 96bc
00000140: f3ca 08be 97cf adbc 30c6 0fbd fbee 1d3e
00000150: bced 1dbf 6af0 3cbe dfb2 9cbd a4a4 eb3c
00000160: 26a4 debe cf2f 99be f0d9 37be f1f5 57bd
00000170: f3b4 37bf c336 023c b8d2 5abe a1ca 93bd
00000180: 38ef e4bd 6d5c ffbe cf56 dc3e 6249 553f
00000190: 50e5 fdbf 3c7c 34be fd70 53be 39c8 62be
000001a0: dd91 8bbd 2046 03be ff94 4ebe f814 833d
000001b0: 9ed9 6cbc ad9d bdbc 5174 bcbf c2a9 f93e
000001c0: c104 81bf 6557 74be 7439 093e 14b6 503e
000001d0: ad1e c5be aa27 39bd 4487 763e 37a4 423d
000001e0: e381 d2bd e27d 43be e543 ff3e 967a 533f
000001f0: 1749 793e b65d 71bc e69c 9c3d c799 02bb
00000200: 49e3 44bf 96dc 82bd 3315 63be 0de4 46be
00000210: 9cc3 b5be e67b e8be 03fc 7e3e d24d ff3e
00000220: 9525 943f 69fd 0a3d 3cc6 383e 0862 31be
00000230: 8c5e 32bf ee77 8a3e b1bc edbd bf1d c4bd
00000240: 3848 2dbf 7589 07bf 2d79 8fbe a4ad 813f
00000250: 5cd9 d3bf dab4 0cbe fd04 57be dbef 993d
00000260: 88dc 563c 9fe1 123e fca0 dbbd c815 92be
00000270: 4df0 0d3d 302f 4f3c 5064 bdbd d90c 5b3e
00000280: c445 fc3d 6e44 78bc 7b8b 5c3d 7384 fd3d
00000290: 9125 1e3e b5ef 2f3d cdc4 443d 1de2 efbd
000002a0: 9835 d43e 960d 993e 400e c03e 606f 213f
000002b0: f22a 4e3f c8d1 aa3b 5445 87be e9b4 93be
000002c0: 2f6f 2fbf 7c44 77be 6620 45be c22a acbd
000002d0: ee08 24bf d6d0 24bf c134 acbe 2a0c 99bf
000002e0: a4e6 98bf 17be 76be ba64 603d f281 393e
000002f0: f7b2 323e 90cd 25be 311d c7bd 8ea4 d83b
00000300: 2579 b1be 4a63 6abc 1c1d 01bf d154 81be
00000310: 0d30 503e 2963 a63c 4baf dbbd 96b4 81be
00000320: e26b 26bf 439d 223c 89b9 49be 768d a43d
00000330: 7bc7 01be f77f 593e 622e a93e e5a6 cb3f
00000340: ddc0 123f 0833 14be 73f5 853e a653 9c3d
00000350: d089 47bf 711d 933d a98d 4bbe f0ce 883e
00000360: 0276 ed3e 6c70 9abe 39e3 07bf ee12 863f
00000370: b776 1c3e 4907 1c3c 00b0 89be c328 5b3e
00000380: 4cb7 553e 1dca b93b 5e8d 3cbe 15f5 923c
00000390: 82a5 f73e 550f 8d3e c8bc 33be 7585 5cbf
000003a0: 1466 9a3f db15 873d 421c 78be 26a1 dcbd
000003b0: f614 a1bf 1cd1 873e 4bc0 c9bd 7fca 313e
000003c0: 3d36 a63c 5d8e 843d cbe2 d0bc 3867 903e
000003d0: 3830 0cbd bcaf 6dbc 4657 1dbd 13d5 943b
000003e0: 7ff7 1bbd 6e59 85be 95be 0cbe 33ef 6bbe
000003f0: 296a a43d d68f 34be 3148 e7be 412c 683c

actor.net.fcs.0.bias f4 [128]
-0.95505494 -0.37259734 -0.10647076 -0.5288206 -0.55320954 -0.93952686 0.070894234 -0.76453274
-0.22442159 -0.102980345 -0.45468757 -0.6136551 0.01274786 -0.2051565 -0.6494599 0.18135794
-0.72005427 -0.25495577 0.36648855 -1.1782038 -0.19392118 -0.56847847 0.20566268 0.2301491
-0.8779064 -0.43069178 -0.4399 -0.49089512 -0.09734902 -0.13616501 -0.13783976 -0.29545087
-0.61893356 -0.15991287 -0.5849178 0.26673585 -0.3497529 -0.23793232 -0.11500004 -0.6386221
-0.7347142 -0.33427185 0.111906774 -0.03231718 -0.6105352 -0.60556895 -0.32372907 -0.47213253
-0.44123363 -0.41842145 -1.2415429 -0.6905918 0.10997914 -0.6782802 0.2745225 -0.19613418
-0.29649913 -0.2743011 -0.08039793 -0.20479 0.32990193 -0.3290807 -0.79387915 0.3904186
-1.00014 -0.19042961 -0.66559124 -0.24456452 -0.024784105 -0.40632236 -0.44764668 -0.38873225
-0.23637985 -0.31393355 -0.116563 0.41307503 -0.6865351 -1.1714268 -0.31848255 0.36961755
-0.63834363 -0.13606805 -0.2019016 -0.6718954 -0.14696535 -0.4097376 -0.22944923 -0.4930774
-0.88122475 -0.8697358 -0.052297127 -0.7426513 -0.40176627 -0.049816716 -0.078488946 -0.10531686
-0.2901629 -0.5455051 -0.5768775 -0.594637 0.36246595 -0.5367234 -0.34507042 -0.3685368
-0.42677984 0.50171775 -0.0071549565 -0.2289671 -0.22845407 -0.16919822 -0.07275408 -0.31746593
0.32987228 -0.39207974 -0.28705966 -0.01304748 -0.6428274 -0.27965054 0.017914036 -0.4993311
-0.029050423 -0.31833178 0.19978237 -0.37645826 0.33099577 -0.25487104 0.417322 0.17824194
00000000: 7b7e 74bf 14c5 bebe 580d dabd c960 07bf
00000010: 249f 0dbf d584 70bf ff30 913d 6bb8 43bf
00000020: c6ce 65be 5ce7 d2bd cfcc e8be 8018 1dbf
00000030: 66dc 503c 8c14 52be 0143 26bf e5b5 393e
00000040: 7a55 38bf 9089 82be 63a4 bb3e 62cf 96bf
00000050: 4693 46be ce87 11bf 3d99 523e 35ac 6b3e
00000060: 79be 60bf a283 dcbe 933a e1be 9b56 fbbe
00000070: ec5e c7bd d76e 0bbe de25 0dbe 5645 97be
00000080: 6e72 1ebf 33c0 23be 2cbd 15bf 9a91 883e
00000090: d012 b3be 88a4 73be 2485 ebbd bd7c 23bf
000000a0: 3b16 3cbf ae25 abbe 612f e53d 055f 04bd
000000b0: 094c 1cbf 9106 1bbf d1bf a5be 5bbb f1be
000000c0: 60e9 e1be 563b d6be e1ea 9ebf a0ca 30bf
000000d0: be3c e13d c5a3 2dbf 378e 8c3e 66d7 48be
000000e0: bcce 97be 3271 8cbe aca7 a4bd 78b4 51be
000000f0: e8e8 a83e 447d a8be aa3b 4bbf f2e4 c73e
00000100: 9604 80bf fbff 42be 3064 2abf 1f6f 7abe
00000110: 0908 cbbc 7c09 d0be f231 e5be ea07 c7be
00000120: 8f0d 72be e6bb a0be 95b8 eebd 927e d33e
00000130: c4c0 2fbf 50f1 95bf 2510 a3be 833e bd3e
00000140: 7d6a 23bf 6c55 0bbe 4bbf 4ebe 5601 2cbf
00000150: 167e 16be 20c9 d1be bdf4 6abe a474 fcbe
00000160: f297 61bf 01a7 5ebf 8335 56bd 651e 3ebf
00000170: 4fb4 cdbe 9d0c 4cbd d0be a0bd 5eb0 d7bd
00000180: 3b90 94be 39a6 0bbf 3eae 13bf 213a 18bf
00000190: 2395 b93e b466 09bf 12ad b0be dbb0 bcbe
000001a0: e382 dabe 9370 003f 2074 eabb 5a76 6abe
000001b0: ddef 69be 4c42 2dbe 1700 95bd e58a a2be
000001c0: 05e5 a83e adbe c8be 7cf9 92be 19c5 55bc
000001d0: 5690 24bf 5b2e 8fbe 75c0 923c 53a8 ffbe
000001e0: 27fb edbc 62fc a2be c093 4c3e 23bf c0be
000001f0: 4778 a93e 757e 82be 3bab d53e 0e85 363e

actor.net.fcs.1.weight f4 [128, 128]
0.08588386 -0.12370543 0.10387591 0.2688129 -0.277628 0.3297157 -0.0030590144 -0.25652325
-0.106671624 -0.07258498 0.046699893 -0.17292076 0.050170403 0.034144677 0.21052268 0.03883637
-0.039019674 -0.6500831 0.0613864 0.10402293 0.026593985 -0.114639536 -0.010726337 0.046028484
0.10500736 0.09950048 -0.2554103 -0.34058893 -0.064006954 -0.00967988 0.000703588 -0.057804856
0.12989448 0.02318646 -0.052064247 -0.096752785 0.17652938 0.364247 0.06448026 -0.02202032
0.14538105 0.025905617 -0.06853868 -0.052772183 0.21095514 -0.11740771 -0.20910443 -0.0066903965
-0.17269513 0.022732224 -0.027620468 0.20973574 -0.036131524 0.08540365 0.018606639 -0.049711205
-0.098800704 0.052577868 0.055346143 0.15568477 -0.060438782 -0.05864525 0.028451975 -0.11000995
-0.07589056 -0.106456995 -0.027495418 0.22133385 0.024729373 -0.10035918 0.0025304544 0.18982674
-0.16062549 0.03319647 0.019259024 0.013065477 -0.123229384 -0.03964524 0.03976297 0.040429216
0.046108536 -0.11757855 0.09938687 0.10195237 -0.1117241 0.13239722 0.009891045 0.020149492
0.062572785 -0.12978767 0.082987376 -0.026873518 0.23226452 -0.10226738 0.12016863 -0.029827068
-0.050719317 0.059662458 0.012743236 0.12600513 -0.09624064 -0.093020014 -0.020853695 -0.03292987
0.09622901 0.10610073 0.19398542 0.09336417 0.034008414 -0.067494705 -0.107167095 -0.09201221
0.09182475 -0.1254774 -0.013118508 -0.023621418 0.12784666 0.021804748 -0.024836497 -0.36172748
-0.06759218 -0.043975316 -0.029114189 -0.008356339 0.047786325 0.074253604 0.012726733 0.044758968
0.10240313 0.0901786 -0.02362678 0.22685896 0.14520526 0.2920222 0.001369682 -0.17108777
0.0063058543 -0.09333355 -0.06509549 0.018308353 0.11883977 0.0357403 -0.12937897 0.03263655
-0.028982943 0.4191077 -0.06522601 0.02325827 0.066084914 0.038721588 0.026754579 0.0032185803
-0.3791313 0.15126534 0.039877705 -0.098142676 0.034848824 0.05788518 -0.17876004 -0.03555388
-0.1865417 -0.05717249 -0.03849664 -0.06385621 0.057468217 0.018265042 -0.11032055 -0.078728415
0.41824877 -0.026743984 -0.11013398 0.040509224 0.124305405 -0.17076677 -0.06975942 -0.07455269
0.077159956 -0.09315117 0.026260434 -0.067586005 -0.13160892 0.053126432 -0.061485976 -0.0029904833
0.16708256 0.046161857 0.060751993 -0.06905161 0.094248705 -0.06963749 -0.044042233 0.14274254
-0.010445094 -0.061020356 -0.13520856 0.029099064 0.06418451 0.039405853 -0.04416857 0.08918748
-0.4676482 -0.04314743 0.031983998 -0.018266788 -0.021394359 -0.08070311 -0.037514213 0.09472969
0.03791869 0.0014191691 -0.013028027 0.16479571 -0.036161114 0.023722388 -0.108773366 0.021152657
0.3479162 -0.013635261 -0.19333786 0.14038014 0.31191176 0.04868811 -0.027871124 -0.011194231
0.029424628 0.014968642 0.029143425 -0.12987769 0.0925479 -0.02957425 -0.10582173 0.122802034
-0.084623985 0.029533902 -0.031227408 0.038064893 -0.10099437 -0.027693111 -0.13150163 0.09301264
-0.04862271 -0.021649478 0.041575745 -0.084472924 -0.012548575 -0.039070107 0.09051934 0.068096675
0.0946523 0.12894417 0.071508154 0.020883065 0.023899348 0.08987345 -0.02952863 0.056349
00000000: e1e3 af3d 4659 fdbd e5bc d43d d8a1 893e
00000010: 4225 8ebe 7fd0 a83e bf79 48bb 0457 83be
00000020: a776 dabd 6fa7 94bd 6348 3f3d 2412 31be
00000030: 7b7f 4d3d 4adb 0b3d 4293 573e e312 1f3d
00000040: 18d3 1fbd d96b 26bf 4e70 7b3d f909 d53d
00000050: a1db d93c 22c8 eabd 85bd 2fbc 5d88 3c3d
00000060: 190e d73d e8c6 cb3d 24c5 82be ac61 aebe
00000070: 1416 83bd 5c98 1ebc fe70 383a c9c4 6cbd
00000080: 0f03 053e 88f1 bd3c 5241 55bd 5326 c6bd
00000090: 1ec4 343e 957e ba3e 3a0e 843d f563 b4bc
000000a0: c5de 143e 0438 d43c 025e 8cbd a527 58bd
000000b0: a004 583e 7473 f0bd 791f 56be 1d3b dbbb
000000c0: fed6 30be ee38 ba3c 5244 e2bc f7c4 563e
000000d0: a6fe 13bd 1ce8 ae3d f36c 983c fa9d 4bbd
000000e0: 0658 cabd e45b 573d a3b2 623d d46b 1f3e
000000f0: a88e 77bd 0036 70bd 1e14 e93c e64c e1bd
00000100: 836c 9bbd 2006 dabd 123e e1bc 57a5 623e
00000110: 4195 ca3c 1d89 cdbd fbd5 253b f161 423e
00000120: 027b 24be 06f9 073d 1ac5 9d3c 9510 563c
00000130: b05f fcbd 0c63 22bd 7fde 223d 1b99 253d
00000140: 4edc 3c3d 06cd f0bd 588b cb3d 67cc d03d
00000150: 9bcf e4bd 2393 073e 0d0e 223c 8c10 a53c
00000160: 2926 803d 0fe7 04be 49f5 a93d da25 dcbc
00000170: c0d6 6d3e 8f71 d1bd f81a f63d e557 f4bc
00000180: 0fbf 4fbd 9f60 743d 01c9 503c 7d07 013e
00000190: d019 c5bd 4781 bebd 5ed5 aabc 79e1 06bd
000001a0: b713 c53d 574b d93d 1da4 463e b735 bf3d
000001b0: 684c 0b3d aa3a 8abd 6c7a dbbd e670 bcbd
000001c0: 9d0e bc3d 267d 00be 03ef 56bc b481 c1bc
000001d0: 3cea 023e df9f b23c e975 cbbc 5834 b9be
000001e0: c56d 8abd 761f 34bd e180 eebc 07e9 08bc
000001f0: 98bb 433d 4612 983d ca83 503c 2e55 373d
00000200: bbb8 d13d 8faf b83d f38c c1bc b74d 683e
00000210: b0b0 143e ef83 953e e786 b33a a231 2fbe
00000220: 57a1 ce3b a925 bfbd c950 85bd 66fb 953c
00000230: 4462 f33d 6c64 123d ec7b 04be e7ad 053d
00000240: a36d edbc 4995 d63e 3795 85bd 2188 be3c
00000250: 8757 873d 879a 1e3d 6b2c db3c d1ee 523b
00000260: 7f1d c2be 4de5 1a3e ce56 233d 07ff c8bd
00000270: a4bd 0e3d 0319 6d3d df0c 37be f2a0 11bd
00000280: ca04 3fbe b32d 6abd a7ae 1dbd 0bc7 82bd
00000290: cb63 6b3d 92a0 953c beef e1bd 5d3c a1bd
000002a0: b424 d63e 3316 dbbc ed8d e1bd 00ed 253d
000002b0: d593 fe3d 7cdd 2ebe 07de 8ebd 15af 98bd
000002c0: 0a06 9e3d 0ac6 bebd 1f20 d73c 886a 8abd
000002d0: 7dc4 06be 1a9b 593d b8d8 7bbd fcfb 43bb
000002e0: b117 2b3e 3714 3d3d 15d7 783d ee6a 8dbd
000002f0: 7705 c13d 1a9e 8ebd a165 34bd 1a2b 123e
00000300: e621 2bbc 7bf0 79bd 1d74 0abe 2961 ee3c
00000310: 2b73 833d 0868 213d 1aea 34bd eda7 b63d
00000320: 966f efbe 5cbb 30bd a701 033d 3ba4 95bc
00000330: 3943 afbc ac47 a5bd 81a8 19bd a401 c23d
00000340: a150 1b3d 6a03 ba3a 8173 55bc 35c0 283e
00000350: ad1d 14bd 7455 c23c 92c4 debd 5648 ad3c
00000360: 1222 b23e 6e66 5fbc 5cfa 45be d0bf 0f3e
00000370: e6b2 9f3e 2f6d 473d fc51 e4bc 0268 37bc
00000380: eb0b f13c 093f 753c 31be ee3c a8fe 04be
00000390: c189 bd3d b345 f2bc 10b9 d8bd a27f fb3d
000003a0: 574f adbd 15f1 f13c 9fd0 ffbc efe9 1b3d
000003b0: 23d6 cebd aadc e2bc 5da8 06be 697d be3d
000003c0: 9b28 47bd 3f5a b1bc 544b 2a3d 2400 adbd
000003d0: 8a98 4dbc fa07 20bd 3462 b93d 4576 8b3d
000003e0: 11d9 c13d f109 043e de72 923d f612 ab3c
000003f0: 91c8 c33c 920f b83d 07e6 f1bc 36ce 663d

actor.net.fcs.1.bias f4 [128]
-0.0038192784 0.01639028 -0.07889335 -0.12430692 0.013795564 -0.00910776 0.06614892 -0.028485883
-0.0029556418 0.017668623 -0.020962844 0.05127868 -0.0010893685 0.055862766 0.021990085 -0.02385973
0.031844087 0.033428162 0.01790457 0.055939604 0.08436313 -0.0047145463 -0.103487544 0.016502105
0.088985264 0.0053978604 0.03739624 -0.084649585 -0.119130515 0.1868082 -0.00982653 -0.002324525
0.089251794 0.0432822 -0.0058336817 -0.02370919 0.020739734 0.00012518758 0.014941035 -0.038167693
0.0049683587 -0.055285387 -0.046130724 -0.06271377 -0.12881148 -0.0029743847 0.093220405 0.006860658
-0.042890932 -0.06757449 -0.00962104 -0.038610626 -0.010718365 0.10667355 -0.05202732 -0.05897063
-0.009435356 0.057939347 0.039413165 0.031664006 -0.07955431 0.04764377 0.034279305 -0.024150813
-0.045646638 -0.06413583 0.0074129263 0.07024558 0.27222213 -0.04043988 0.0136521645 0.0033561843
-0.038927373 0.051842824 -0.012286721 -0.02425268 -0.009892688 -0.019138401 0.049908638 0.027787687
0.013478796 -0.15093483 -0.00972327 0.124140464 -0.0071054148 0.21864705 0.05608849 0.10353648
-0.04017546 -0.028510764 -0.08044674 -0.057742625 0.012388916 0.056120664 6.889514e-05 0.0325161
0.100675456 0.18568037 0.14547771 0.013171131 -0.089509025 0.024190929 0.109050326 -0.035821192
0.046418164 -0.0035108642 0.029642597 -0.06861076 -0.014093618 -0.038911637 -0.02857443 -0.020959685
0.035829455 0.02753091 0.051262677 -0.002937368 -0.022190992 -0.006426555 -0.020246183 -0.017430127
0.02735335 -0.037741814 0.21421021 -0.0029766802 0.03142417 0.0043417676 -0.004719569 0.034502678
00000000: dc4c 7abb e944 863c d692 a1bd a094 febd
00000010: ca06 623c b738 15bc 1679 873d 3a5b e9bc
00000020: 71b3 41bb cabd 903c 45ba abbc 9809 523d
00000030: 24c9 8eba 5bd0 643d 8d24 b43c 7b75 c3bc
00000040: f26e 023d f8eb 083d 9bac 923c ed20 653d
00000050: 94c6 ac3d 7b7c 9abb 47f1 d3bd 6c2f 873c
00000060: e83d b63d 89e0 b03b cd2c 193d c35c adbd
00000070: b3fa f3bd a64a 3f3e 74ff 20bc 0f57 18bb
00000080: a5c9 b63d ad48 313d 7828 bfbb c639 c2bc
00000090: 60e6 a93c c944 0339 3ecb 743c ba55 1cbd
000000a0: 9dcd a23b ee72 62bd 92f3 3cbd 1470 80bd
000000b0: 28e7 03be e5ed 42bb 57ea be3d 5fcf e03b
000000c0: 67ae 2fbd 7f64 8abd 91a1 1dbc 2d26 1ebd
000000d0: 159c 2fbc aa77 da3d 991a 55bd 308b 71bd
000000e0: c096 1abc cf51 6d3d b36f 213d 1eb2 013d
000000f0: 5fed a2bd 1d26 433d 7568 0c3d edd7 c5bc
00000100: f8f7 3abd a559 83bd 22e8 f23b eadc 8f3d
00000110: b360 8b3e 4aa4 25bd 54ad 5f3c 6ef3 5b3b
00000120: 4f72 1fbd 2459 543d 3e4e 49bc 8ead c6bc
00000130: f114 22bc 23c8 9cbc 006d 4c3d 01a3 e33c
00000140: 2bd6 5c3c a98e 1abe 5a4e 1fbc 5b3d fe3d
00000150: 8ad4 e8bb 03e5 5f3e 0bbd 653d ef0a d43d
00000160: 068f 24bd 688f e9bc 43c1 a4bd 8883 6cbd
00000170: e1fa 4a3c c8de 653d cc7b 9038 9a2f 053d
00000180: ef2e ce3d ff22 3e3e 1cf8 143e bacb 573c
00000190: 8250 b7bd 0e2c c63c c755 df3d 3eb9 12bd
000001a0: f920 3e3d 8716 66bb 08d5 f23c cc83 8cbd
000001b0: ebe8 66bc cf61 1fbd ec14 eabc a5b3 abbc
000001c0: e8c1 123d 8188 e13c d0f8 513d db80 40bb
000001d0: e2c9 b5bc da95 d2bb 53db a5bc a0c9 8ebc
000001e0: 2214 e03c 2997 1abd ec59 5b3e 6814 43bb
000001f0: a1b6 003d 6345 8e3b 9da6 9abb ae52 0d3d

actor.mu_layer.weight f4 [2, 128]
0.0057461304 0.011345675 -0.009815079 0.010798496 0.00867948 0.002177098 -0.01653961 0.00820027
-0.0032163283 0.0065543395 -0.0027043605 -0.0016415701 0.008282722 -0.000109687375 -0.012376633 0.007811574
0.0033366317 -0.0008360319 -0.0022475086 0.0031508612 0.0022115072 -0.00069845986 -0.102932185 -0.013015884
0.008865291 -0.0043145763 0.007948554 0.020500826 0.007024626 0.32781237 0.0014874662 0.003695616
-0.0006608259 -0.00043292748 -0.00016397958 -0.0040371213 -0.008988631 0.0024182214 -0.00973474 0.0047418238
-0.0067173527 0.014060049 0.0048108245 0.0048914524 0.001043761 0.00036398566 -0.002840217 -0.00029245258
-0.0019649137 0.001745034 0.013974388 0.0009422909 0.013266769 0.011445524 0.0092442855 0.006399822
-0.012379158 -0.002743499 0.01907355 0.0030738707 -0.0048164786 -0.008306946 -0.0116196815 0.0050797137
0.017190976 0.0056941924 0.0004511466 -0.088127285 0.20301358 -0.008656894 -0.004536158 0.00028235614
-0.0053538247 0.0040990533 0.0017135447 0.0046723704 -0.001906554 -0.004333759 -0.007145123 0.0020567898
-0.0005451579 -0.0001317969 0.0017523142 0.008848133 0.0061165323 0.22291377 -0.0029885198 -0.009615582
-0.0074067335 0.00082987605 -0.0018445768 -0.00726092 0.011710906 0.0005164086 -0.0017482651 -0.00583927
-0.018080676 0.41407463 0.22013941 0.0015787771 0.0055204933 0.018246183 0.005062002 -0.003236831
-0.0028838066 -0.0021705793 0.0029777351 0.00011236889 0.0011629311 0.0003713324 -0.0010421216 -0.008618127
0.0009536501 0.012989791 -0.0068098926 0.0011956748 0.0027365366 6.34773e-05 -0.0032119735 -0.001911672
0.00048443372 -0.004297466 0.23836063 -0.008382783 0.0073773656 0.0035650928 -0.0013313324 0.009046517
-0.0014632738 0.008105129 -0.002159327 0.008946465 0.0011643952 -0.0022249566 -0.008405038 0.011793324
0.003520551 0.008243063 -0.0068653612 -0.0067153675 0.009980565 0.005425033 -0.0044629346 -0.007219317
0.0026361817 0.004711887 -0.00920703 -0.005197078 0.001691524 0.009336179 0.28555283 0.005930028
-0.008973693 -0.00819088 -0.0013190829 0.013483204 0.006567563 -0.20940118 -0.005225127 -0.0003594526
-0.02295698 0.00036065065 -0.014915703 -0.012363589 0.0022459724 -0.0033644857 -0.0038398062 0.0032388284
0.0061439835 0.007469868 -0.0017152467 0.0043619936 -0.004161787 0.0075601223 0.003476422 -0.0093207415
0.0047151805 -0.0007314942 -0.008254996 -0.0042262124 0.009536705 -0.006730417 0.004253203 -0.0028243128
-0.00017607198 0.013005636 -0.0048700734 0.0002437588 0.00026454122 -0.0014357985 -0.0051771053 0.002960871
0.011456754 -0.0010454642 -0.0021421846 -0.12324521 -0.0029149305 0.0055802683 -0.0017563296 -0.006381946
0.0054880064 0.0057252455 0.0065739597 -0.0011106054 -0.006245575 0.0027055333 -0.01279837 0.003414839
-0.0006038496 -0.0049475897 -0.0070681525 -0.0012894162 0.00090238266 0.16213919 0.006880051 -0.00038878887
0.0010750012 -0.0069486047 0.0012020669 0.0018269713 0.0060319477 -0.0015705324 0.0019962075 0.0008850958
-0.010347792 -0.29110992 0.2882365 -0.00014976219 0.004034694 -0.0028658821 0.00020655271 -0.009494229
-0.0022376603 0.0014293565 -0.005063522 0.008078134 -0.006728813 0.00020484172 -0.00081270246 -0.006610087
-0.0012563779 0.010600518 -0.006112597 -0.0033327234 -0.0044470835 9.048765e-05 0.00602582 0.012100911
-0.0015191552 0.0029600048 0.20224348 -0.0050383382 0.0061637675 -0.003973717 -0.00039307517 0.0037790344
00000000: 094a bc3b 36e3 393c 6dcf 20bc 2dec 303c
00000010: 6134 0e3c a5ad 0e3b 147e 87bc 6d5a 063c
00000020: 09c9 52bb c9c5 d63b a43b 31bb f429 d7ba
00000030: 41b4 073c f607 e6b8 5cc7 4abc 3bf8 ff3b
00000040: 64ab 5a3b 2729 5bba f04a 13bb ae7e 4e3b
00000050: efee 103b d918 37ba 1cce d2bd 9340 55bc
00000060: ba3f 113c 4a61 8dbb a73a 023c 59f1 a73c
00000070: d52e e63b 06d7 a73e 15f7 c23a 2632 723b
00000080: 473b 2dba 8bfa e2b9 eff1 2bb9 d449 84bb
00000090: 0d45 13bc 067b 1e3b 757e 1fbc 4d61 9b3b
000000a0: 3d1d dcbb 1f5c 663c 1fa4 9d3b 7a48 a03b
000000b0: cfce 883a 54d5 be39 ef22 3abb 5254 99b9
000000c0: c8c5 00bb a0b9 e43a d5f4 643c 1204 773a
000000d0: dd5c 593c 0286 3b3c 5875 173c 99b5 d13b
000000e0: f4d1 4abc 46cc 33bb 2240 9c3c fe72 493b
000000f0: 8dd3 9dbb db19 08bc 7a60 3ebc ba73 a63b
00000100: 17d4 8c3c 5996 ba3b df87 ec39 147c b4bd
00000110: cbe2 4f3e a5d5 0dbc 0da4 94bb 3309 9439
00000120: 236f afbb 5a51 863b 0599 e03a af1a 993b
00000130: 56e5 f9ba 3502 8ebb a321 eabb 35cb 063b
00000140: ede8 0eba f632 0ab9 e8ad e53a c2f7 103c
00000150: 316d c83b 8243 643e 0bdb 43bb ad8a 1dbc
00000160: 2fb4 f2bb 0a8c 593a bac5 f1ba 03ed edbb
00000170: 1adf 3f3c 985f 073a 0b26 e5ba 5957 bfbb
00000180: ed1d 94bc 9701 d43e 3a6c 613e f8ee ce3a
00000190: 41e5 b43b 0579 953c 27df a53b 0321 54bb
000001a0: 3ffe 3cbb 4740 0ebb 1b26 433b 97a7 eb38
000001b0: 7e6d 983a 64af c239 cc97 88ba 0b33 0dbc
000001c0: 60fe 793a 22d3 543c 8525 dfbb 30b8 9c3a
000001d0: 7757 333b 1e1f 8538 f97f 52bb 1191 faba
000001e0: 98fb fd39 c2d1 8cbb cf14 743e f157 09bc
000001f0: d4bd f13b 55a4 693b 1a80 aeba d837 143c
00000200: 52cb bfba 60cb 043c 7f83 0dbb 3294 123c
00000210: 9f9e 983a 94d0 11bb 49b5 09bc c938 413c
00000220: 0bb9 663b ea0d 073c d3f6 e0bb 960c dcbb
00000230: 8685 233c 7ac4 b13b cf3d 92bb 0590 ecbb
00000240: cac3 2c3b 2c66 9a3b 15d9 16bc 404c aabb
00000250: 21b6 dd3a c6f6 183c fb33 923e ae50 c23b
00000260: 6506 13bc 0a33 06bc 14e5 acba a8e8 5c3c
00000270: b634 d73b 436d 56be 8b37 abbb e974 bcb9
00000280: 4710 bcbc b615 bd39 fe60 74bc a790 4abc
00000290: 2a31 133b b47e 5cbb 42a5 7bbb 8642 543b
000002a0: 7853 c93b cbc5 f43b 21d2 e0ba 0eef 8e3b
000002b0: 9a5f 88bb e7ba f73b afd4 633b 06b6 18bc
000002c0: cd81 9a3b bfc1 3fba f63f 07bc 0a7c 8abb
000002d0: d73f 1c3c d48a dcbb 745e 8b3b 1b18 39bb
000002e0: f69f 38b9 9715 553c 2395 9fbb 8199 7f39
000002f0: 1fb2 8a39 6731 bcba b5a4 a9bb 2c0b 423b
00000300: 1cb5 3b3c f507 89ba e563 0cbb fc67 fcbd
00000310: 6b08 3fbb afda b63b a434 e6ba a51f d1bb
00000320: bcd4 b33b d79a bb3b 5f6a d73b bc91 91ba
00000330: aea7 ccbb 514f 313b 41b0 51bc 7ecb 5f3b
00000340: a94b 1eba 641f a2bb f69b e7bb a101 a9ba
00000350: e08d 6c3a d107 263e 0d72 e13b 5cd6 cbb9
00000360: 0ee7 8c3a 1fb1 e3bb ac8e 9d3a fc76 ef3a
00000370: a5a7 c53b 53da cdba ced2 023b c605 683a
00000380: c989 29bc 5c0c 95be bc93 933e 7b09 1db9
00000390: 7735 843b 86d1 3bbb 1296 5839 af8d 1bbc
000003a0: b6a5 12bb 3f59 bb3a e7eb a5bb 265a 043c
000003b0: 607d dcbb c8ca 5639 8a0b 55ba 6e99 d8bb
000003c0: 0cad a4ba ccad 2d3c 2e4c c8bb d269 5abb
000003d0: d7b8 91bb 30c4 bd38 3e74 c53b e642 463c
000003e0: 641e c7ba a4fc 413b ea18 4f3e a518 a5bb
000003f0: 6ef9 c93b f435 82bb a815 ceb9 ada9 773b

actor.mu_layer.bias f4 [2]
-0.01550278 -0.08990624
00000000: 5fff 7dbc c320 b8bd

actor.log_std_layer.weight f4 [2, 128]
-0.0008682128 0.0030515941 -0.0013511806 -0.0056947125 0.0024984544 -0.0009921642 0.005092333 -0.017416766
0.0032522392 0.0055400105 0.002792695 -0.0015242787 0.006767988 0.015856577 -0.014641947 0.010662977
-0.0009933448 -0.008131677 0.005118075 -0.00096725574 0.0035216834 -0.013463716 0.07845693 0.0025705332
0.0069283126 -0.00024718244 -0.006483005 -0.00015220846 -0.0029675248 -0.005005333 -0.0011445378 0.0012721939
0.031326875 0.0045706206 0.0022112115 0.007652204 0.0007895535 0.00042388748 -0.0014171412 -0.006248994
0.0008815578 -0.0027688714 0.006723552 -0.005601592 -0.006653957 -0.009744582 0.008584466 -0.009122223
0.0052239187 -0.017952187 0.0018164497 -0.012016301 0.00045951427 0.011316885 0.012317422 -0.007536249
-0.00016419182 -0.006772503 0.037398204 -0.0036073842 0.004554842 0.0128519 0.0068474524 0.0052778255
0.0050260522 -0.008672646 0.0069248863 0.26705027 0.02264272 -0.0069342516 -0.0046682223 0.0025924111
0.0013342464 0.0025322584 -0.009477084 -0.0015259264 -0.0033290405 -0.0039827847 0.005082735 0.0010398581
0.011853115 0.0010132487 -0.005176205 -0.005571667 -0.0019011771 0.0009139155 -0.0021507235 -0.004176939
-0.0014446086 -0.008964944 0.0041041365 0.0035815872 0.004094324 0.01254914 0.007980038 0.00095780124
0.0011957184 0.041747488 0.061457567 0.004556379 -0.006659612 0.0042084334 0.008624469 0.0031039545
-0.0020062574 0.008138793 -0.0033065889 -0.011720711 -0.0024305123 0.005497981 -0.011205505 0.0046797185
0.007514201 0.004433289 -0.0026781592 -0.005684443 -0.0001528816 0.01024341 -0.010047326 0.0029726701
-0.0006243828 0.0053223725 0.001959118 -0.005802758 0.0030993803 0.0093190195 -0.0121231405 -0.0019866177
-0.012911711 0.0017019485 -0.004798894 0.0012455806 -0.0034736397 0.009501681 0.0024955545 0.006326994
0.002233106 -0.004663061 0.00012045831 -0.0064322716 0.001176599 0.005722148 0.0049770637 -0.0019594755
-0.0032907713 0.0051363027 0.0031795274 0.0027159778 0.005913999 -0.0012559094 0.05707052 -0.007997809
0.0010214215 0.0017392891 0.0035368865 -0.005928852 0.0006794721 -0.046985943 -0.005986512 0.0065159667
0.003399254 0.0033837797 -0.0008363251 0.005928267 -0.005641185 0.0010980188 0.008439983 -0.0059041153
0.012360845 -0.000377851 0.0025977667 -0.0003378031 -0.012173564 -0.007802385 0.008504174 0.007612028
-0.008284317 -0.0042260783 -0.005430197 0.0020099303 0.003987101 -0.0009352933 -0.005069548 -0.0038126959
0.004384668 -0.00648908 -0.015823837 0.0035223975 0.007740914 0.010251581 0.00249724 -0.0063476907
-0.0052792975 -0.0048968093 -0.0063802972 0.23546611 0.08589854 0.00986561 0.0048851934 -0.004359215
0.0046394374 0.0018642471 -0.0021485274 -0.0006736456 0.0038806333 0.0077291415 0.004295993 -0.011572601
0.0047314134 0.002524801 -0.0065103145 0.009043576 -0.0033061658 0.0736294 0.0007934629 -0.0067522135
0.003469301 0.008439147 -0.00029435474 -0.01128908 -0.004549174 0.01413987 0.002445561 -0.009895958
0.0077991914 -0.0013005179 0.008669673 -0.0073757838 0.0023819043 -0.014401869 -0.0048635015 0.008895329
-0.0031863907 0.0013485829 -0.002170892 0.0036982177 -0.0044978107 0.0045265337 -0.0105218245 0.009051168
0.005888783 -0.007928975 -0.0042742966 -0.0049091196 0.015233889 -0.0066077863 -0.0028299442 0.007931882
0.015044475 -0.0065415427 -0.019951507 -0.013348618 0.0018517607 -0.012664326 0.0048128557 -0.0056807264
00000000: c698 63ba 41fd 473b 191a b1ba b69a babb
00000010: 1cbd 233b 820b 82ba 96dd a63b 9bad 8ebc
00000020: 8523 553b fa88 b53b a605 373b 4eca c7ba
00000030: 00c6 dd3b a7e5 813c c7e4 6fbc c4b3 2e3c
00000040: 1f33 82ba ba3a 05bc 86b5 a73b 6f8f 7dba
00000050: 0bcc 663b eb96 5cbc 07ae a03d 6476 283b
00000060: e606 e33b 4498 81b9 636f d4bb 269a 1fb9
00000070: ce7a 42bb c703 a4bb 5104 96ba bebf a63a
00000080: 9c50 003d 25c5 953b f9e9 103b 57bf fa3b
00000090: 0afa 4e3a 373d de39 5ebf b9ba 5cc4 ccbb
000000a0: 5818 673a f475 35bb 3e51 dc3b 8f8d b7bb
000000b0: 7009 dabb bda7 1fbc dca5 0c3c 6075 15bc
000000c0: 682d ab3b 7710 93bc f015 ee3a 05e0 44bc
000000d0: f6ea f039 756a 393c 03cf 493c a3f2 f6bb
000000e0: e82a 2cb9 dfeb ddbb dc2e 193d dd69 6cbb
000000f0: c940 953b c790 523c 9860 e03b 9cf1 ac3b
00000100: 95b1 a43b b717 0ebc 28ea e23b d0ba 883e
00000110: 3a7d b93c b838 e3bb e3f7 98bb 71e5 293b
00000120: e1e1 ae3a 3ff4 253b c545 1bbc 9801 c8ba
00000130: 082c 5abb 0582 82bb 128d a63b d94b 883a
00000140: 9133 423c fcce 843a 289d a9bb 8892 b6bb
00000150: eb30 f9ba d593 6f3a 27f3 0cbb b4de 88bb
00000160: 0559 bdba b3e1 12bc fe7b 863b 10b9 6a3b
00000170: ae29 863b e89a 4d3c b5be 023c f414 7b3a
00000180: a7b9 9c3a 6aff 2a3d eeba 7b3d ad4d 953b
00000190: e038 dabb e6e6 893b a54d 0d3c b76b 4b3b
000001a0: 6a7b 03bb 9258 053c 5bb3 58bb 3a08 40bc
000001b0: 3b49 1fbb 6828 b43b 4b97 37bc 5358 993b
000001c0: b039 f63b 2045 913b 0e84 2fbb 9044 babb
000001d0: d84e 20b9 fad3 273c 8a9d 24bc 21d1 423b
000001e0: 9fad 23ba 4c67 ae3b 8c64 003b 1025 bebb
000001f0: f91e 4b3b cdae 183c 23a0 46bc ea31 02bb
00000200: a48b 53bc ea13 df3a 0a40 9dbb c042 a33a
00000210: 01a6 63bb f0ac 1b3c 758c 233b ac52 cf3b
00000220: 4d59 123b 97cc 98bb 909e fc38 cec5 d2bb
00000230: 1c38 9a3a db80 bb3b a316 a33b 8b6a 00bb
00000240: fba9 57bb 6e4e a83b 9e5f 503b 8cfe 313b
00000250: 38ca c13b 549d a4ba c7c2 693d 3e09 03bc
00000260: 38e1 853a dcf8 e33a 1ccb 673b d146 c2bb
00000270: 9a1e 323a 5574 40bd 812a c4bb e483 d53b
00000280: 05c6 5e3b 67c2 5d3b d43c 5bba e841 c23b
00000290: b1d9 b8bb 66eb 8f3a db47 0a3c 4f77 c1bb
000002a0: 2485 4a3c 4e1a c6b9 4b3f 2a3b 2a1b b1b9
000002b0: a173 47bc 26ab ffbb 1755 0b3c 526e f93b
000002c0: f2ba 07bc ea7a 8abb cbef b1bb 09b9 033b
000002d0: 3aa6 823b 792e 75ba 731e a6bb 6cde 79bb
000002e0: 43ad 8f3b 59a2 d4bb fea0 81bc 06d8 663b
000002f0: 7ea7 fd3b 3ff6 273c bca8 233b 4a00 d0bb
00000300: f5fd acbb 6a75 a0bb d011 d1bb 071e 713e
00000310: 93eb af3d 5ea3 213c f913 a03b bfd7 8ebb
00000320: 6c06 983b c159 f43a 4fce 0cbb 9797 30ba
00000330: 3952 7e3b bd44 fd3b 67c5 8c3b 029b 3dbc
00000340: f909 9b3b 2277 253b 7a54 d5bb 822b 143c
00000350: 42ac 58bb 03cb 963d 6500 503a ac41 ddbb
00000360: 365d 633b 5944 0a3c a053 9ab9 d5f5 38bc
00000370: 3d11 95bb eaaa 673c b545 203b a822 22bc
00000380: 5c90 ff3b 2476 aaba 3f0b 0e3c 8fb0 f1bb
00000390: b919 1c3b d1f5 6bbc 025e 9fbb b7bd 113c
000003a0: c4d2 50bb efc2 b03a 8645 0ebb cc5d 723b
000003b0: 5f62 93bb 5153 943b bb63 2cbc 5a4b 143c
000003c0: b1f6 c03b 88e8 01bc 660f 8cbb aedc a0bb
000003d0: 9097 793c 2186 d8bb 9676 39bb b9f4 013c
000003e0: 1a7d 763c 705a d6bb 5871 a3bc 29b4 5abc
000003f0: c7b6 f23a 087e 4fbc 29b5 9d3b 6325 babb

actor.log_std_layer.bias f4 [2]
-0.52289695 -0.51698685
00000000: 93dc 05bf 4059 04bf

q1.q_net.fcs.0.weight f4 [128, 14]
-0.02542454 -0.041337386 -0.04872095 -0.13174048 0.64443827 0.047741614 -0.13907996 -0.08322516
0.46907157 0.07528182 -0.17189202 -0.04335413 0.019455858 0.13028741 -0.26225728 -0.5606794
-0.06680178 0.19433771 -2.0418124 -0.3545295 -0.06295604 -0.038269557 -0.15725726 0.15528607
-0.2610298 -0.15103999 0.21777803 -0.128081 0.36388117 0.3656928 -0.44992927 -0.5262186
1.6690683 0.16234909 0.18400584 -0.16847184 -0.07841343 0.20653747 0.23553531 -0.21309774
-0.11279257 0.108063705 -0.124835685 -0.053758416 -0.27685338 -0.11057152 0.5561468 0.043642893
-0.20357223 -0.19422306 0.57817876 -0.2204674 0.13346699 0.057959944 0.10781566 0.080523305
-0.19380325 0.01297987 0.022506148 0.31626105 -0.8083544 -0.029247576 -0.24164206 0.0624221
0.42772 0.08529798 -0.010690949 -0.1402642 -0.0020460184 -0.031303097 0.07154049 -0.31088758
-0.19024763 -0.5031227 -0.2014388 0.047249198 -0.15522978 -0.048160978 0.1628971 0.18739973
0.022141187 0.16687356 -0.039999872 0.0148690855 1.2632586 -0.8945614 -1.7862527 0.29299468
-0.77218014 0.019920902 0.14801963 -0.22120164 0.6447398 0.037046675 -0.23039645 0.025715943
-0.0026070417 -2.7772621e-06 -0.15577707 0.13517758 -0.5725986 -0.47777846 -0.72522974 -0.03918963
0.112123035 -0.13250323 0.4804116 0.04686813 0.019822063 0.2643337 0.0052128388 -0.031426847
-0.01916009 -0.047838185 -0.13161127 -0.20036438 0.5419412 0.015909119 0.16239592 -0.0575543
0.45322695 0.058685683 -0.06173813 -0.22335409 0.22475031 0.017780192 -0.8713806 -0.9031463
-0.03931438 -1.109383 0.061165605 0.38230017 0.25357938 0.1995282 -0.30352622 -0.03875714
0.05152473 0.12001304 -0.21613072 0.15177892 0.21106938 0.33048135 0.056473605 -1.4428263
1.1571879 0.13868931 0.14646603 -0.22905356 -0.67745227 -0.12536564 0.09201815 0.09453888
-0.06292189 0.038078338 -0.56349725 0.7672191 -0.027468929 0.89537853 1.9142952 0.12618186
0.13261431 0.12787119 -0.04496867 -0.106059305 0.042371694 0.20155911 -0.047117166 0.055883516
-0.3191612 -0.17832978 0.3932559 1.189661 -0.41839167 -0.036389798 0.099955276 -0.08935433
-0.48422554 -0.08838432 -0.23335303 -0.017007167 0.00618374 0.055592068 0.022057991 -0.061309125
0.044417657 0.22122037 -1.0807074 0.57651836 0.017079297 -0.11868326 -0.10965559 0.10072326
0.2060469 -0.12565672 -0.30794013 0.33032653 0.012658229 0.25222492 0.22752495 0.1816073
-0.17087176 0.2332721 0.12779188 -0.06155589 0.42152777 0.11835342 0.26655436 -0.21209876
-0.25640577 0.260539 0.097696416 -0.24614781 -0.8575683 0.171666 -0.3493831 -0.7323213
0.081153944 0.25651368 -0.5818615 -0.14801912 -0.039231125 -0.09547521 0.23659769 -0.28830618
0.12607864 -1.0086484 -0.60153073 -0.71167797 0.4650356 0.02783767 0.18972102 0.07823544
0.10843463 -0.11351302 -0.17624432 0.030760882 -0.020639353 0.0026131365 -0.2510977 0.53736264
-0.1526367 -0.21739773 0.07528194 -0.030348917 -0.073787846 -0.15798643 0.45379895 0.052262608
-0.09396655 -0.20111011 -0.00022221146 -0.010787008 -0.36970392 0.2276365 -0.079252124 1.1355911
00000000: 2047 d0bc 6451 29bd 9e8f 47bd fae6 06be
00000010: e8f9 243f b68c 433d fa6a 0ebe f471 aabd
00000020: 262a f03e 5b2d 9a3d 7604 30be 1a94 31bd
00000030: e461 9f3c 106a 053e 9646 86be af88 0fbf
00000040: 5fcf 88bd 7700 473e 0ead 02c0 e484 b5be
00000050: 19ef 80bd 8ac0 1cbd 0c08 21be 5003 1f3e
00000060: b3a5 85be 3aaa 1abe 3401 5f3e aa27 03be
00000070: a24e ba3e 163c bb3e 215d e6be 43b6 06bf
00000080: 08a4 d53f d73e 263e 076c 3c3e e283 2cbe
00000090: 3897 a0bd 8f7e 533e 2b30 713e 4b36 5abe
000000a0: caff e6bd 8150 dd3d daa9 ffbd c931 5cbd
000000b0: babf 8dbe 5273 e2bd a35f 0e3f e4c2 323d
000000c0: 3d75 50be 69e2 46be 8603 143f 35c2 61be
000000d0: 92ab 083e 6867 6d3d 75ce dc3d 67e9 a43d
000000e0: 5c74 46be 85a9 543c d05e b83c f8ec a13e
000000f0: 50f0 4ebf 9d98 efbc 0471 77be 51ae 7f3d
00000100: 1efe da3e b5b0 ae3d 1729 2fbc 6ba1 0fbe
00000110: 7e16 06bb ad37 00bd d283 923d a82c 9fbe
00000120: 46d0 42be a6cc 00bf f945 4ebe 6088 413d
00000130: 8ef4 1ebe 7244 45bd 7fce 263e b7e5 3f3e
00000140: 6f61 b53c e7e0 2a3e e8d6 23bd 779d 733c
00000150: 75b2 a13f fa01 65bf eea3 e4bf 6603 963e
00000160: 99ad 45bf 2931 a33c 7592 173e af82 62be
00000170: ab0d 253f 41be 173d 0ced 6bbe 3eaa d23c
00000180: e7da 2abb 0061 3ab6 0684 1fbe fe6b 0a3e
00000190: d295 12bf 619f f4be a8a8 39bf 4e85 20bd
000001a0: c3a0 e53d edae 07be 82f8 f53e ccf8 3f3d
000001b0: e161 a23c bf56 873e 76d0 aa3b 70b9 00bd
000001c0: 9ff5 9cbc f9f1 43bd 1bc5 06be 522c 4dbe
000001d0: a9bc 0a3f d753 823c 1e4b 263e 0fbe 6bbd
000001e0: 5d0d e83e 6660 703d 1fe1 7cbd efb6 64be
000001f0: f224 663e c4a7 913c cd12 5fbf 9934 67bf
00000200: 1e08 21bd 4300 8ebf c988 7a3d d9bc c33e
00000210: 28d5 813e 1f51 4c3e ca67 9bbe cfbf 1ebd
00000220: 980b 533d 66c9 f53d 5f51 5dbe ef6b 1b3e
00000230: 9222 583e da34 a93e de50 673d 88ae b8bf
00000240: bc1e 943f 9204 0e3e 31fb 153e 048d 6abe
00000250: 836d 2dbf da5f 00be 0374 bc3d 9a9d c13d
00000260: 31dd 80bd 08f8 1b3d 5b41 10bf 7968 443f
00000270: 8506 e1bc 8737 653f a007 f53f d135 013e
00000280: 0ccc 073e aaf0 023e 1131 38bd 9f35 d9bd
00000290: f18d 2d3d 8365 4e3e eefd 40bd 1de6 643d
000002a0: 1969 a3be 159c 36be d658 c93e d046 983f
000002b0: 6f37 d6be 780d 15bd 5ab5 cc3d 67ff b6bd
000002c0: 69ec f7be d702 b5bd 19f4 6ebe 9d52 8bbc
000002d0: f9a0 ca3b 82b4 633d f6b2 b43c 471f 7bbd
000002e0: 4aef 353d 9887 623e 9f54 8abf b596 133f
000002f0: e2e9 8b3c 3610 f3bd 1c93 e0bd ff47 ce3d
00000300: f5fd 523e 28ac 00be 54aa 9dbe 8f20 a93e
00000310: 7664 4f3c a023 813e 4dfc 683e 44f7 393e
00000320: 02f9 2ebe e2de 6e3e e0db 023e 0722 7cbd
00000330: 7dd2 d73e 4763 f23d d079 883e 6b30 59be
00000340: 9e47 83be 5e65 853e 0f15 c83d 2c0e 7cbe
00000350: 9989 5bbf 36c9 2f3e 57e2 b2be 6979 3bbf
00000360: 0a34 a63d c355 833e e0f4 14bf 5392 17be
00000370: d1b0 20bd 8288 c3bd aa46 723e de9c 93be
00000380: c21a 013e 641b 81bf ebfd 19bf 8730 36bf
00000390: 2519 ee3e d30b e43c 3a46 423e e739 a03d
000003a0: fa12 de3d 8479 e8bd 6479 34be 3ffe fb3c
000003b0: dc13 a9bc 2841 2b3b e18f 80be 9990 093f
000003c0: cc4c 1cbe 839d 5ebe 6b2d 9a3d 4b9e f8bc
000003d0: 151e 97bd 32c7 21be 5658 e83e 5111 563d
000003e0: 8971 c0bd cfef 4dbe 6f01 69b9 febb 30bc
000003f0: d549 bdbe 8b19 693e f04e a2bd 0d5b 913f

q1.q_net.fcs.0.bias f4 [128]
0.23909687 -0.11419742 -0.3834541 0.48916897 0.16263196 0.43884397 0.42899522 0.57107955
0.121876806 0.0044343867 -0.78269094 -0.16725844 -0.47551623 -0.14072181 0.5373894 -0.5447422
0.23350807 0.39871538 -0.14714323 0.3697469 -0.05005039 0.07513314 -0.081675865 0.53324455
-0.23735382 -0.04476436 -0.41280413 0.13437198 -0.7229516 0.050068982 0.037216555 -0.09464152
0.24198644 0.5538543 0.17127416 -0.54890454 0.061516806 0.36319578 -0.21824957 0.05288725
-0.25748676 0.0622754 0.15648495 -0.023765365 0.390082 0.0019854666 -0.2768006 -0.15001225
-0.18109557 0.36879587 0.043282904 0.09571449 -0.61207294 0.14322068 -0.20935582 0.039797336
0.49626338 -0.21240996 -0.47061995 0.38247052 -0.22743712 0.33179015 0.25382432 0.33098796
0.3686116 -0.6160555 -0.4144122 -0.15758003 0.42499295 0.08847291 0.08937478 0.015053787
0.3329354 0.29425102 -0.37802902 0.5519404 -0.63517493 0.32887244 -0.5301597 0.35829654
-0.09355483 -0.022447487 -0.05074212 -0.333091 -0.8101513 -0.33200547 -0.31780508 0.36712644
0.28415662 0.15010253 -0.23295316 -0.053603407 0.4611107 -0.36012506 -0.2990271 -0.09739538
-0.06062707 -0.022664428 0.20996042 0.17638919 -0.10064004 -0.48500735 -0.032688696 -0.22995985
0.014087104 0.4498526 -0.47185898 0.4434526 -0.49186468 -0.16293418 -0.6735834 -0.2880819
0.26475152 -0.16260074 -0.27792785 -0.17327094 -0.7812654 -0.38207075 -0.31552714 -0.8413758
0.35853618 -0.106005825 0.41262314 0.4276923 -0.56838864 0.3297876 -0.3718983 -0.17003833
00000000: cfd5 743e 56e0 e9bd 1954 c4be 5b74 fa3e
00000010: fe88 263e 28b0 e03e 43a5 db3e 4532 123f
00000020: 8c9a f93d 554e 913b 6f5e 48bf cc45 2bbe
00000030: dd76 f3be 6119 10be 5a92 093f 3a74 0bbf
00000040: bd1c 6f3e 6c24 cc3e b7ac 16be 774f bd3e
00000050: a301 4dbd 67df 993d ad45 a7bd b782 083f
00000060: e10c 73be d55a 37bd 105b d3be cf98 093e
00000070: 5b13 39bf 2215 4d3d 6370 183d 6ad3 c1bd
00000080: 4bcb 773e 65c9 0d3f 7e62 2f3e 0285 0cbf
00000090: 0cf9 7b3d ccf4 b93e d17c 5fbe 4da0 583d
000000a0: 4ed5 83be 7d14 7f3d 973d 203e 95af c2bc
000000b0: d4b8 c73e 9a1e 023b cfb8 8dbe d09c 19be
000000c0: 1e71 39be d0d2 bc3e 6a49 313d f505 c43d
000000d0: d0b0 1cbf 71a8 123e 5f61 56be 8802 233d
000000e0: 3c16 fe3e ff81 59be 19f5 f0be 2dd3 c33e
000000f0: 47e5 68be 66e0 a93e 43f5 813e 4177 a93e
00000100: a9ba bc3e d0b5 1dbf d62d d4be a95c 21be
00000110: ad98 d93e 4931 b53d 200a b73d 29a4 763c
00000120: 8276 aa3e 12a8 963e 058d c1be f74b 0d3f
00000130: d39a 22bf f861 a83e 8cb8 07bf a572 b73e
00000140: ad99 bfbd cbe3 b7bc f8d6 4fbd e78a aabe
00000150: 1366 4fbf 9ffc a9be 59b7 a2be fff7 bb3e
00000160: fa7c 913e 7ab4 193e 468b 6ebe 3f8f 5bbd
00000170: b416 ec3e 5062 b8be 141a 99be 3b77 c7bd
00000180: 1754 78bd c0aa b9bc ddff 563e 5e9f 343e
00000190: 5e1c cebd e252 f8be 95e4 05bd 987a 6bbe
000001a0: 99cd 663c 1453 e63e 8097 f1be 380c e33e
000001b0: b0d5 fbbe 38d8 26be f66f 2cbf 797f 93be
000001c0: 838d 873e cf80 26be 8f4c 8ebe f06d 31be
000001d0: 0201 48bf c79e c3be c68c a1be 6864 57bf
000001e0: 0e92 b73e 9519 d9bd 5743 d33e 7cfa da3e
000001f0: eb81 11bf ecd9 a83e 7469 bebe 871e 2ebe

q1.q_net.fcs.1.weight f4 [128, 128]
-0.07513662 -0.031132463 -0.06230897 -0.05617306 0.007702365 -0.06992539 -0.042500485 -0.086801864
-0.062179223 -0.02247786 -0.060342096 -0.100497 -0.05486779 -0.054894354 -0.08270149 0.021025147
0.013295837 0.05700346 0.039728124 -0.06825964 -0.0005418687 -0.05583663 -0.012792211 -0.001478765
0.10776694 -0.07696531 0.009856145 -0.085149914 -0.12413626 0.08216173 0.010052866 0.03984398
-0.06169748 -0.06611951 0.013965905 -0.10379513 0.0051743616 0.0015394246 0.012030766 -0.004122173
0.057258368 -0.0038430833 -0.048467238 -0.075375944 0.02014212 -0.042979393 -0.021402627 -0.049306612
-0.0015968961 -0.002200942 0.07444877 -0.06575453 0.06480056 -0.013296578 -0.03489179 -0.058776714
0.01859324 -0.09377078 -0.0041150707 0.034389257 0.0007897632 0.02961844 0.012536945 -0.04026257
-0.060695887 -0.012708208 0.08482179 -0.042274594 -0.0027564021 -0.09875024 0.009499383 -0.02667803
0.03300111 0.0671331 -0.06449964 -0.08042915 -0.11955067 -0.05277541 -0.10685713 -0.08834394
0.006470439 -0.027378017 -0.030725088 0.078091465 -0.074373655 -0.1204417 -0.02647247 0.06495851
-0.10511849 -0.03528111 -0.109485336 -0.10242645 -0.04156751 -0.14478251 0.067734666 -0.05350143
-0.053602565 -0.032487232 0.008887068 -0.0982443 -0.029005058 -0.07790037 0.06797359 0.040910326
0.019552905 0.032642104 -0.048519026 0.017430587 -0.08896678 0.035214156 -0.017273493 0.06424555
0.054953713 0.03167556 -0.03267109 -0.0034153396 -0.09136092 -0.0297327 -0.036781155 -0.049458396
-0.05814829 -0.060105886 -0.073248744 -0.09232449 0.033201758 -0.017796788 0.013527539 0.09134106
-0.043461543 -0.08632866 -0.27378288 -0.6615039 -0.09095467 -0.028942334 0.19201384 -0.4203837
-0.63749063 0.11934934 -0.224186 -0.014729277 0.11460354 0.037872218 -0.13322577 -0.43023658
-0.2046016 -0.24927694 -0.15119487 -0.35499394 -0.0765559 -0.13027148 0.043809723 -0.34468213
-0.45363188 0.017046226 -0.13073981 0.24781652 -0.04329491 -0.31680623 0.11622874 -0.041797567
-0.038876265 0.16471726 -0.6990386 0.040466145 0.1526094 0.11391277 0.024779264 -0.21322267
-0.3063833 -0.211979 -0.15456675 0.043373488 -0.24015138 -0.5686344 -0.2400972 -0.08788649
-0.5213406 -0.66572976 -0.097457126 -0.037422847 0.92012036 0.115292475 0.03996456 0.20434421
-0.09259497 -0.07186693 -0.26770353 -0.034996837 0.1603945 -0.69535935 -0.12189344 -0.2720336
0.073857054 -0.5605765 -0.057762504 -0.2653939 -0.83819205 -0.026581693 0.108895406 0.20372832
-0.022038499 -0.13282236 0.10755692 0.041213926 0.16145927 0.016106902 0.1912546 -0.3952685
-0.327596 0.129273 -0.5789415 0.032471597 -0.53727245 -0.30812278 0.3732928 -0.029702153
-0.0639005 -0.037456874 0.08719402 0.013859957 0.06083409 0.018335111 -0.40637156 0.047539737
0.45832953 0.08799342 0.16808861 -0.36831626 0.005949085 -0.42777163 -0.31101352 0.1570979
0.15081884 -0.18333933 -0.039895758 -0.18215285 0.020352464 -0.344426 -0.32782435 0.5436771
-0.099770315 0.0089025255 -0.3579996 -0.102949195 0.0009997358 0.34495866 -0.42770997 -0.021800572
-0.13668792 0.19241181 -0.25833368 -0.008319069 0.2891118 -0.14251259 0.69889414 -0.09129464
00000000: 3ae1 99bd 8209 ffbc b137 7fbd b915 66bd
00000010: 1f64 fc3b 0b35 8fbd fd14 2ebd 2dc5 b1bd
00000020: a4af 7ebd 7d23 b8bc 4629 77bd 5fd1 cdbd
00000030: 0cbd 60bd e7d8 60bd 665f a9bd ee3c ac3c
00000040: c8d6 593c 767c 693d f5b9 223d b6cb 8bbd
00000050: 310c 0eba f3b4 64bd 6c96 51bc 1fd3 c1ba
00000060: eab4 dc3d fd9f 9dbd ab7b 213c 1463 aebd
00000070: 273b febd 6944 a83d c7b4 243c 7133 233d
00000080: 7fb6 7cbd aa69 87bd 40d1 643c 8b92 d4bd
00000090: b18d a93b 85c6 c93a b11c 453c 4b13 87bb
000000a0: c087 6a3d 3ddc 7bbb 9585 46bd b45e 9abd
000000b0: 1601 a53c 290b 30bd 9054 afbc bbf5 49bd
000000c0: f14e d1ba ae3d 10bb 9978 983d 50aa 86bd
000000d0: 28b6 843d e4d9 59bc b2ea 0ebd dabf 70bd
000000e0: da50 983c e50a c0bd b7d7 86bb c0db 0c3d
000000f0: 1c08 4f3a 5fa2 f23c c267 4d3c 5dea 24bd
00000100: 409c 78bd 1636 50bc 0cb7 ad3d 2028 2dbd
00000110: c1a4 34bb 913d cabd 4da3 1b3c e28b dabc
00000120: 2c2c 073d 147d 893d 6318 84bd 0ab8 a4bd
00000130: fbd6 f4bd 072b 58bd e9d7 dabd abed b4bd
00000140: fa05 d43b dd47 e0bc 2eb3 fbbc 6bee 9f3d
00000150: 3751 98bd 23aa f6bd cbdc d8bc f808 853d
00000160: 5d48 d7bd ed82 10bd d939 e0bd f5c4 d1bd
00000170: b242 2abd de41 14be 79b8 8a3d 5124 5bbd
00000180: 5d8e 5bbd 5511 05bd 119b 113c 4f34 c9bd
00000190: 049c edbc 3b8a 9fbd bd35 8b3d 9691 273d
000001a0: 6a2d a03c bab3 053d e3bb 46bd 97ca 8e3c
000001b0: 3734 b6bd b83c 103d 2481 8dbc 2c93 833d
000001c0: 2517 613d 3bbe 013d 1fd2 05bd e4d3 5fbb
000001d0: 6f1b bbbd fe91 f3bc d6a7 16bd e394 4abd
000001e0: e72c 6ebd 9731 76bd 7003 96bd 9f14 bdbd
000001f0: 91fe 073d 92ca 91bc 9ca2 5d3c 0611 bb3d
00000200: bb04 32bd 15cd b0bd 452d 8cbe 5258 29bf
00000210: 7146 babd 7918 edbc 479f 443e 883c d7be
00000220: 9632 23bf 6d6d f43d 0491 65be 1153 71bc
00000230: 43b5 ea3d e61f 1b3d 566c 08be f847 dcbe
00000240: 1583 51be 7442 7fbe d4d2 1abe c4c1 b5be
00000250: 57c9 9cbd e365 05be d371 333d 2d7a b0be
00000260: 7042 e8be 87a4 8b3c a8e0 05be 9dc3 7d3e
00000270: 0156 31bd 6d34 a2be 5509 ee3d ed33 2bbd
00000280: b83c 1fbd a4ab 283e 32f4 32bf d4bf 253d
00000290: a345 1c3e 194b e93d e2fd ca3c 0b57 5abe
000002a0: 46de 9cbe 0611 59be bf46 1ebe 66a8 313d
000002b0: 3eea 75be 0692 11bf 0adc 75be d5fd b3bd
000002c0: 9476 05bf 446d 2abf 9a97 c7bd b348 19bd
000002d0: 028d 6b3f 761e ec3d e1b1 233d 9c3f 513e
000002e0: 6ea2 bdbd f82e 93bd 7010 89be d858 0fbd
000002f0: 753e 243e 1203 32bf 45a3 f9bd fd47 8bbe
00000300: 5e42 973d f181 0fbf 6098 6cbd b6e1 87be
00000310: c193 56bf dac1 d9bc 8e04 df3d 289e 503e
00000320: 158a b4bc 9602 08be cd46 dc3d efcf 283d
00000330: 9455 253e 9ff2 833c 3fd8 433e a260 cabe
00000340: aaba a7be 2460 043e 8335 14bf f000 053d
00000350: b08a 09bf 45c2 9dbe 3c20 bf3e ee51 f3bc
00000360: 44de 82bd 616c 19bd c792 b23d e014 633c
00000370: 2b2d 793d 8433 963c ef0f d0be 07b9 423d
00000380: 2baa ea3e e535 b43d 6c1f 2c3e f393 bcbe
00000390: 8bf0 c23b e204 dbbe 2a3d 9fbe 46de 203e
000003a0: 4170 1a3e 4ebd 3bbe bc69 23bd 4786 3abe
000003b0: 36ba a63c 9b58 b0be 98d8 a7be 6c2e 0b3f
000003c0: 6154 ccbd e6db 113c b94b b7be 07d7 d2bd
000003d0: 9109 833a 6c9e b03e cdfc dabe 1d97 b2bc
000003e0: ebf7 0bbe 9a07 453e 5044 84be b44c 08bc
000003f0: 7606 943e d2ee 11be baea 323f aff8 babd
