examples/rl/models/sac/sac_model_cartpole_stab.pt (torch, 257970 bytes, 65 tensors)

actor.net.fcs.0.weight f4 [64, 8]
00000000: 6bff 0abd b669 263d 55c7 7f3e 3a4d 8abd
00000010: b41b f6bd 0dca 8abe aa01 73be a445 2c3e
00000020: dd25 acbe f593 7dbe 342e 853e 9a09 be3d
00000030: 693a fcbe 59bf e63d 48ae 1b3e d9c1 653d
00000040: eb89 a83d 144b 4abb e496 e1bd 184d 873d
00000050: f314 b5be 40b6 2cbe 6347 a6be 5163 4e3e
00000060: 49be ef3e f976 74be 081d d8be a613 91bd
00000070: 5918 adbe fb6e 9ebd 78be 71be 0b29 2bbe
00000080: 9f37 bebe 51e3 a83d 0fd2 423f 8c53 3d3e
00000090: 48cb 8a3e 11fb 9ebe 0f2f 32bd f13e b03e
000000a0: dc3c d6be ed4c 74bd 4da2 9fbe 02b1 ab3d
000000b0: e34b 073d 9927 913e bc8a 973e 00c2 8d3d
000000c0: fbe8 a13d 8d25 d73d 7595 3f3f 3cde 5c3e
000000d0: 80fc dfbd 17f7 33be b7c2 403e 967b 123e
000000e0: 6f19 563e f391 6b3e 3ff1 2f3f e7d2 e93e
000000f0: 480b bebe 247a 4ebe 0dbc c1bd 5807 eabd
00000100: 98b1 abbd c488 333e 9256 423f 10e9 123e
00000110: 777b ab3e 9e99 6abe 0330 8a3e 5c5d 35be
00000120: 361c 363e 11f5 b73e 9da6 d23f d7d6 e03e
00000130: 7e5e 15bd 4c40 a83e cb71 02be bf58 b8bc
00000140: 5f33 1f3e cfb0 983e 46f9 a73f 8870 113f
00000150: 0012 abbe ba5a 82be e5ea 47be 6cb1 debd
00000160: e60e a03c 594f 9dbd 3bea 7fbf 3a9a 0cbf
00000170: 6c65 82bf 947a 1f3c 5100 86be c401 b5bd
00000180: f724 0d3d 0e3f 0a3e e2be d23f 4c22 d73e
00000190: e412 8fbe 70f6 a5be 197b 81be 08e0 8abe
000001a0: d271 193d 6b90 14bd e32e c1be e306 cc3d
000001b0: eb84 81bd 5f1a 59bd 513d 03be 1f49 9a3e
000001c0: 7125 6fbe 1c5c 623e 4bf0 c33f 25d7 9d3e
000001d0: 3a40 a8be 7ec4 62bd 9af7 963e da62 6e3d
000001e0: 82f4 193c dc67 5ebd 43ea 5dbf 9694 c9be
000001f0: 2a63 14bf 2b32 a43e 92cf bf3d d9f3 1fbb
00000200: 37ae 03be 6bfd 6dbe 5663 e1bf e093 dbbe
00000210: 7399 f43d 28fb 8b3d 9852 94be f6ee af3e
00000220: 2d2d 2d3d 7508 acbd 6636 4f3f f4db 4fbe
00000230: d937 b4be ac96 a93e 6995 11be 3b31 f0bd
00000240: 3547 c73a 7060 56bd 2b9f 7abf 9ebe bebe
00000250: 2dfc 9ebe 4493 3bbe 09ac 83be 9188 bc3d
00000260: 153f aabd b1ea 1cbe 8da9 3dbf d6c6 0abe
00000270: 98a3 0fbe 0528 afbe ca08 e4bc 46db 303e
00000280: 523b 91bb f830 c73c 9073 c13d a551 19bc
00000290: 9870 86bd 267a 573d d4fd 703d dce5 12be
000002a0: 908f 5fbd feab 0d3e d9e2 c8be 2c58 e03d
000002b0: 2bf4 5fbe 2519 4abd 18ac a5be 2be7 b4be
000002c0: b535 b0be dba2 043d adce 08bf a17d a4bd
000002d0: eea9 8cbe 7254 97be 7a2c 21bd cc4c 98be
000002e0: 1238 2ebc 01df 373e 04a2 d23f b799 bf3e
000002f0: 9093 9f3d fd10 4bbe 27dd f3bd 84aa 043c
00000300: 7a10 ca3e b921 a43d 24be 6f3e 057b 95bd
00000310: 66d2 08bd 777b fb3d 6487 06be 26db 9ebe
00000320: 405e 293d b71d 02bd d8b2 82bf d570 d3be
00000330: b106 e4be 2c0c 7dbb c3ee 3d3e 7c9b 7d3e
00000340: 0956 6a3d 856e 1fbd 91ca ff3e c394 fdbd
00000350: d139 9fbe a82d b43d 0a4d 79be 2a8e a73e
00000360: dfa8 f13d d038 37bd daf4 dcbe 9fb6 6fbd
00000370: 2133 babe cc04 1b3e cfa1 a8be 0235 863e
00000380: b4bf dd3b 872c 8cbe cfe7 17bf 6ec3 4c3d
00000390: 53af 353d a75a b03e 9c7b 6abe bdbf 17be
000003a0: 2794 083e 21f9 1e3c d26c 62bf 06cd 29be
000003b0: fb22 9fbe 4a57 a63e fb17 f7bd a5bf 593e
000003c0: 8510 063e f08a 9d3e 487f dc3f 9af2 c23e
000003d0: c85a 0c3c 2e88 3e3e d6b3 40bd 1948 b63b
000003e0: 06a4 c3bc d667 02be 4c58 d3bf 550e fabe
000003f0: 217a 5cbd 0328 b6bc 2684 103e bfdf 90be
-0.03393499 0.040628158 0.24978383 -0.06753011 -0.12017003 -0.27107278 -0.23731104 0.16823441
-0.33622637 -0.24763472 0.26011813 0.09279175 -0.49263313 0.112669654 0.15203202 0.05609307
0.08229431 -0.0030867504 -0.11015108 0.06606501 -0.35367545 -0.16866398 -0.3247634 0.20155074
0.46824864 -0.2387351 -0.4220965 -0.07083826 -0.33807638 -0.077360116 -0.23607814 -0.16714875
-0.3715181 0.08246482 0.76101774 0.18488902 0.27108216 -0.31050923 -0.04350191 0.3442302
-0.41843307 -0.059643675 -0.31178513 0.08383371 0.033031356 0.28350523 0.29598033 0.06921768
0.079057656 0.10505209 0.7483743 0.2156915 -0.109368324 -0.17574726 0.18824278 0.14304957
0.2090814 0.23004894 0.6872749 0.45668718 -0.37117982 -0.2016378 -0.09459696 -0.11427182
-0.08383483 0.1753264 0.75913346 0.14346719 0.33492634 -0.22910163 0.26989755 -0.17711395
0.17784199 0.35929158 1.6457096 0.4391391 -0.036467068 0.32861555 -0.12738721 -0.022503255
0.1554694 0.29822394 1.3122947 0.56812334 -0.3341217 -0.25459844 -0.19523199 -0.10873684
0.019538354 -0.0768115 -0.9996678 -0.5492283 -1.0187201 0.009733815 -0.26172116 -0.088382274
0.03445908 0.13500616 1.6464503 0.42018354 -0.279441 -0.3241458 -0.2528923 -0.27124047
0.037462063 -0.03627054 -0.37731084 0.09962251 -0.0632418 -0.053003665 -0.12816359 0.30133912
-0.23354127 0.2210545 1.5307707 0.30828205 -0.328615 -0.05536317 0.2948578 0.05819974
0.009396674 -0.054298267 -0.8668558 -0.39371175 -0.5796381 0.32069525 0.09365763 -0.002440682
-0.12859426 -0.23241203 -1.760844 -0.42886257 0.119433306 0.06835014 -0.28969264 0.34362
0.04227941 -0.084000506 0.8094238 -0.20298749 -0.35198858 0.33122766 -0.14217152 -0.1172814
0.0015203716 -0.052338064 -0.9789912 -0.37254804 -0.3105177 -0.18317896 -0.2571719 0.092057355
-0.08312813 -0.15323903 -0.7408684 -0.13552412 -0.1402725 -0.3421022 -0.027836222 0.17271146
-0.0044321204 0.024315342 0.0944587 -0.0093578445 -0.06564444 0.052606724 0.05883582 -0.14345497
-0.05458027 0.13835141 -0.3923557 0.109543175 -0.21870486 -0.049340386 -0.3235786 -0.35332617
-0.34415975 0.032381874 -0.5344036 -0.08031774 -0.27473396 -0.29556614 -0.039349057 -0.2974609
-0.010633485 0.17956163 1.6455693 0.37421963 0.07791817 -0.198307 -0.11907416 0.008097295
0.39465696 0.080142446 0.23412377 -0.07298855 -0.033403777 0.122794084 -0.13137585 -0.31026572
0.04134965 -0.03176662 -1.0210829 -0.41297022 -0.44536355 -0.0038611991 0.18548112 0.24766344
0.057210956 -0.03892376 0.49959233 -0.1238189 -0.31098798 0.08797771 -0.24345794 0.3272565
0.11799788 -0.044731915 -0.43155557 -0.05852377 -0.36367133 0.15138549 -0.3293595 0.26212317
0.0067672376 -0.27377722 -0.59338087 0.049991064 0.044356655 0.34444162 -0.22898716 -0.14819236
0.13337766 0.009702952 -0.88447297 -0.16582116 -0.31081375 0.3248847 -0.12065121 0.21264513
0.13092239 0.30770063 1.7226343 0.38075715 0.008566566 0.18606636 -0.047046505 0.005562794
-0.023881923 -0.12734923 -1.6511321 -0.4883906 -0.05382741 -0.022235876 0.1411291 -0.28295705

actor.net.fcs.0.bias f4 [64]
00000000: 4d31 65be 8d48 e4bd 6e04 5abe 19b3 d5be
00000010: ff46 92bd dda4 b8be 41de a03d 0cfb c8be
00000020: 57dc 43be efaa 5ebe 5f96 3fbf f257 2dbf
00000030: f3db 563d 1ba0 84be f778 f7bd a2da d6be
00000040: c01c e93b ef4e 53bd ed58 20bf efc4 463e
00000050: af28 f3bd 144b 55be 02e5 b13e 6c06 81bd
00000060: e191 96be 6fe3 5bbf 34ce e93b 943a 743d
00000070: d344 0fbe 0990 d53d e85b b1bd b2fb 6d3e
00000080: 0555 f0bb 83ba 09bf 9c15 0fbf b482 2abe
00000090: ea9a 0bbf 8a2d 3cbe 03b0 6abe 3da3 5dbe
000000a0: b9da 7a3e ec4d 8ebe 1e36 14be f374 163e
000000b0: 61c5 94be bd20 debe a03b d2be de43 b2be
000000c0: 7a1e 0ebf c281 91be 5a2d cfbe f46c d4be
000000d0: db41 b6be f960 adbe cff6 51bd 81e5 97be
000000e0: 04fc c1bd aa33 323e a34c cbbe 8ebd ec3d
000000f0: 4e32 1dbd d5ab 9e3e 578f 5fbf b643 1a3e
-0.22382088 -0.111466505 -0.21290752 -0.41738203 -0.07142448 -0.3606328 0.078548916 -0.39254034
-0.19127022 -0.21744893 -0.74838823 -0.6771232 0.052455854 -0.259034 -0.12083619 -0.4196368
0.007114023 -0.05158895 -0.6263569 0.19411062 -0.11872994 -0.20829421 0.34745032 -0.06300053
-0.29408172 -0.8589391 0.007135177 0.059626177 -0.13991098 0.10427863 -0.08660108 0.23240545
-0.007334354 -0.5380022 -0.5589235 -0.16651422 -0.54533255 -0.18376747 -0.22918706 -0.21644302
0.24497499 -0.27793825 -0.14473769 0.1469305 -0.29056838 -0.43384352 -0.41061115 -0.34817404
-0.55515254 -0.2841931 -0.40464288 -0.41489375 -0.3559712 -0.33863047 -0.051260766 -0.29667285
-0.09471896 0.17402521 -0.39706907 0.11559592 -0.038378052 0.30990472 -0.87328094 0.15064892

actor.net.fcs.1.weight f4 [64, 64]
00000000: 243a cebc 19f7 813e a79a d6bc 4a64 d13d
00000010: 9a78 7ebe 2481 6a3e 6389 40bd fa06 47bd
00000020: dd32 6ebe 34c6 573e ae2b 06be 2266 04bf
00000030: eb80 3f3e 09ca 0e3e 26f8 b8be 60ab b63e
00000040: 2908 333e eb48 a03d 9e5e 4c3e ef92 8abd
00000050: f626 b33d 82d9 22be ec39 b33d 417e 3a3d
00000060: 6f13 863e 98f6 acbe de16 d4bd c78e 5bbc
00000070: 42cc db3d 0956 efbd 75ee 893e 919a 3fbd
00000080: bd0c 33bc 5ef5 c0bd 6075 8ebe 9e00 e2bd
00000090: 1f5a 923e 2f74 56be 0a29 9abd 033d e7bd
000000a0: a2a9 b7bd a0ed aebe fa58 a03b 8be3 10bd
000000b0: a1d8 343d 2a95 6fbd 5bcc 693d e6e4 9a3e
000000c0: f7c6 5e3e 68c7 203e 07af bf3d 9a37 d83d
000000d0: f03d babd 4c1f ab3d a3a4 3c3e 50bb f5bc
000000e0: 1d7d 253d c89d 14bc 37c4 833e 7a54 a63d
000000f0: 5d51 fcbc ac32 a9bc 4038 763e 5d3c 45bd
00000100: df6b fb3c 99e7 103e 0408 2fbc f7f2 66be
00000110: 1480 ee3d be2a b43e 2537 e4bd 24b7 bc3e
00000120: aa40 9abc ce7a 84be e03a 473f 0501 593f
00000130: 63be c7be e339 32bd 9b07 e23d 218a b0be
00000140: d1fc 8a3e dff5 bf3d 96cd ccbe 9b22 abbc
00000150: 93e0 0f3c 2749 f6bd b92d 45be 2d32 c93d
00000160: 11b2 5dbd 2d2b 3c3f 6495 6abd 89bd 403c
00000170: 50d2 1e3e a64c ccbd 3217 233e b52e 993b
00000180: f256 b1bd 978e 94bd b8bf b73d 209c ba3e
00000190: 33c0 c0be 59c6 80be 7eab aa3d 3fa2 703d
000001a0: bdc1 cebd f73a 5c3e fa90 b3be 514e d43c
000001b0: 7b56 0d3d 8f0e acbe 96f0 053e 6b15 6fbd
000001c0: dba5 9e3e 604c 903d 6c93 a3bd 733d 73bd
000001d0: 208a 993e 5ac8 4ebe ba40 20be 89b8 edbd
000001e0: 1bfd 273d bd4b 9c3e 684e 18bf 038e 4d3d
000001f0: 860c 3bbe 7363 98bd a408 5ebf b203 31bc
00000200: 7b0a cabd 1a9a 7e3b 7b74 e1bd bca5 59be
00000210: f905 2c3c b8c4 e1bd 1f85 1bbd 08bd 933d
00000220: 3738 363e 53cb f2bd 698a 943e 1051 5abe
00000230: 7270 73bd ed25 37bc e91f 0fbf 4ebc 253e
00000240: aef5 1e3f bcae 91bc da19 273b 97c1 84bd
00000250: 33b0 a93d a291 6abd 0369 353e b95b a33e
00000260: bf09 933e 810f 42bd ef5f d93d 968f a53d
00000270: 8f74 f6bd b698 443e 54ea 1c3f 27da 49be
00000280: 23f8 963c 48f1 abbd a52d e2be fff4 ccbd
00000290: fb1e a1bd 22e5 ecbe 84a8 5abc c13a 863e
000002a0: c467 783e a436 14be 670b f6be 4035 b2be
000002b0: e8ca 7fbd edd3 5ebe bddc 253e e599 993d
000002c0: 77de 173e 5083 4f3e 9ece 29be 1a7d afbd
000002d0: 1fbe fd3c 20a3 dfbd e7ca 853d a124 4b3d
000002e0: 8506 593d 616c 1b3d b610 533e 398a 103e
000002f0: cb22 e6bd ecc0 a23e 55ae 63be b058 e03d
00000300: 72eb 3bbe 6665 433e 615c 46bc 7da4 a63d
00000310: a019 b4bc 8efa 073e d5fa 87be dbde bd3d
00000320: 92d7 2bbe 40d4 b53d 168c 313e 9555 a03d
00000330: 9f59 143e f55b 56bd 8826 18be addf 9b3c
00000340: fb5b ec3d beb8 2cbe 6437 86bd c373 29be
00000350: 3c4c 41bd 17db aabd 0cbe afbd 7e39 eb3d
00000360: 2161 023e 6536 713d bf86 0f3e 36bb d3bd
00000370: 7c88 b83c dbc6 f4bc 129e f83d 94ed 03bd
00000380: 2e81 4f3e aa97 f4bc 52f9 23be ed4f 3c3e
00000390: 3b40 ba3d 2ef3 3bbe f82c a6bd 0833 ef3c
000003a0: 16fa 41be cb00 00be 19ab 8dbd 2315 d1bd
000003b0: eb33 53bb 0723 4ebe 38cf 853e 606c 343e
000003c0: 11a6 ce3e 3e3d fa3d 534e 09bd e966 83bd
000003d0: 8dd8 973e 5655 b83c 8da0 413e cb1d 2cbd
000003e0: 8ae4 1b3e 8cc4 243e 5796 9fbd 5354 df3d
000003f0: 7aba 0ebe 4a81 9bbd cc59 34bc b835 80bd
-0.025174208 0.25383833 -0.02619679 0.10224207 -0.24850693 0.22900826 -0.047006022 -0.048590638
-0.2326159 0.21071702 -0.131026 -0.5171834 0.18701522 0.13944258 -0.36126822 0.35677624
0.17483582 0.07826408 0.19957969 -0.067663066 0.087476656 -0.15903285 0.08751282 0.04553056
0.26186702 -0.33781886 -0.10355924 -0.01340074 0.107323185 -0.11686332 0.2693974 -0.046778265
-0.01092833 -0.094218 -0.27823925 -0.11035274 0.28584382 -0.20942758 -0.07527359 -0.11290934
-0.08967902 -0.34165668 0.0048934193 -0.035373252 0.044151906 -0.058491863 0.057079654 0.3025276
0.21755587 0.15701067 0.09359556 0.1055748 -0.09093845 0.08355579 0.18422179 -0.029996544
0.04040252 -0.009070821 0.25735638 0.081215814 -0.030800516 -0.020654045 0.24044895 -0.04815327
0.030691085 0.14150847 -0.010683063 -0.22553621 0.11645523 0.3518886 -0.111433305 0.36858475
-0.018829662 -0.25874943 0.7782421 0.8476718 -0.3901244 -0.043512236 0.11036607 -0.34480384
0.2714601 0.09373068 -0.400006 -0.020890525 0.00878157 -0.120256715 -0.19255723 0.098240234
-0.054124895 0.7350338 -0.057271376 0.011763939 0.15509915 -0.09975557 0.15926817 0.0046747574
-0.086591616 -0.07253759 0.08972114 0.3644724 -0.37646636 -0.25151327 0.08333491 0.05874848
-0.100955464 0.21506868 -0.35071546 0.02591625 0.034506302 -0.33604857 0.13080058 -0.058370035
0.30985913 0.070458174 -0.07987103 -0.059384774 0.29988194 -0.20193616 -0.15649691 -0.11607463
0.041012865 0.30526534 -0.5949464 0.05018426 -0.18266496 -0.074408434 -0.86731935 -0.010804104
-0.0986528 0.0038849176 -0.11008545 -0.21254629 0.010499471 -0.11023849 -0.03796875 0.07213789
0.17794882 -0.11855187 0.2901185 -0.21319985 -0.059433408 -0.011178476 -0.55908066 0.16185114
0.6209363 -0.017783515 0.0025497586 -0.06482237 0.082855605 -0.057267793 0.1771584 0.31905916
0.28718373 -0.047378067 0.10614001 0.080840275 -0.120339505 0.1919888 0.61295056 -0.19712125
0.018428868 -0.0839563 -0.4417545 -0.10007667 -0.07867237 -0.46268564 -0.013345841 0.262167
0.24258333 -0.14473969 -0.48055574 -0.34806252 -0.062449366 -0.21760531 0.16197486 0.07500056
0.14830957 0.20264935 -0.16582724 -0.08568783 0.030974446 -0.109197855 0.06532841 0.04959548
0.052984733 0.037945155 0.20611843 0.14115228 -0.11237105 0.31787813 -0.22234471 0.10954416
-0.18351534 0.19081649 -0.012106986 0.081368424 -0.021984875 0.13279173 -0.26558557 0.09271022
-0.16781452 0.08878374 0.17338595 0.078288235 0.14487313 -0.05233379 -0.14858449 0.019027555
0.115409814 -0.16867349 -0.06553534 -0.16548066 -0.047191843 -0.08342569 -0.085811704 0.11485575
0.12732364 0.058889765 0.14016245 -0.10338442 0.022526018 -0.029879978 0.121395245 -0.032208994
0.20264122 -0.029857475 -0.16013077 0.18389864 0.09094282 -0.18354484 -0.08114046 0.029199138
-0.18943056 -0.12500302 -0.069174 -0.1020911 -0.003222699 -0.2013055 0.26134658 0.17619467
0.40361074 0.12218712 -0.03352196 -0.06416113 0.29657403 0.022501629 0.18908902 -0.0420206
0.152239 0.16090602 -0.07792347 0.109047554 -0.13938323 -0.07593019 -0.011007737 -0.06260246

actor.net.fcs.1.bias f4 [64]
00000000: c46a 7b3c ca3e 043c 3dc9 30bd 943e 503d
00000010: 5aa8 10bc c047 243c 3238 663d 4c4d 33bd
00000020: b530 893b e10e 3fbd e46c b13c 08cc d5bb
00000030: ed45 ce3c 7d1b 71bd d45f 2cbd f9d6 cf3c
00000040: 4448 ad3e f75b 36bd e536 e83c 30bf 173d
00000050: ee6e 3c3d 6048 333d 3ef8 313d 870f 0a3c
00000060: af2d 293d 2751 b7bc 4f5b 51bd 00cf 7ebd
00000070: 136a 4a3c efc9 65bb ea31 ae3c fd0e f7bc
00000080: fda2 2cbd cf42 d8bc c0f3 86bc 6e6c 7d3d
00000090: 4d17 183e 9263 d03c d676 9ebc daf2 56be
000000a0: 8ed3 89bd 6ac5 0d3d 38c2 103d 2d94 993d
000000b0: 2c34 92bc bafa 0eba d663 74be c009 273d
000000c0: 4cfc 94be 8842 8a3c 0ba0 ad3e 955a ac3d
000000d0: c3e7 4dbc 718a b1bc dcee 92bd ff4f e6bb
000000e0: b929 c5bb 9759 b23d b070 ccbc 9dda cd3b
000000f0: 9122 a83b bede b9bd 92f9 b63b 2803 693d
0.015345279 0.008071611 -0.043160666 0.05084093 -0.008829201 0.010026872 0.056205936 -0.043774888
0.0041867145 -0.04664505 0.021658368 -0.0065245666 0.025179828 -0.058864105 -0.042083576 0.025371062
0.33844197 -0.0445213 0.028346488 0.037047565 0.04600423 0.043770194 0.043449633 0.008426554
0.041303333 -0.022377564 -0.05111247 -0.06220913 0.012354392 -0.0035062989 0.021264035 -0.030158514
-0.042147625 -0.026399044 -0.016473651 0.061870985 0.14852639 0.025438104 -0.019343775 -0.20991078
-0.06729804 0.034612097 0.03534147 0.074989654 -0.017847143 -0.0005454231 -0.2386621 0.040780783
-0.29098737 0.016877428 0.33911166 0.08415715 -0.012567463 -0.02167246 -0.07174465 -0.0070285792
-0.0060169366 0.08708494 -0.024956077 0.0062821642 0.0051310738 -0.09075688 0.0055839503 0.056887776

actor.mu_layer.weight f4 [1, 64]
00000000: cc22 783b 1cea e53b 177a 61bb 7c22 2f3b
00000010: a02c 6b3b 9a7e b93b 4e55 003c 68ed 22bc
00000020: 679f 63bf 875c 03bc 86df 983b a949 a9ba
00000030: 12d7 023c acf9 c9bb d466 cfba b00a c43e
00000040: cbef 1dbc bbbc 06bc 9e82 283a e0d4 e03b
00000050: 440a 773b 370e c53b 120a 5a3b 0846 3c3c
00000060: 6ce6 413d e178 1c3c 083c 14bc 1fe9 afbb
00000070: 474f b23b c0a6 72bc 0e10 be39 9c36 7dbb
00000080: a1bd 22bf 96ae b0be 5d8f e93a 3cbb 183c
00000090: 66c5 0ebc 86cc e43b d2d3 c7bb 04fb 9a3d
000000a0: 3a9b efba ac1f a73b d56d e03a 8e36 333c
000000b0: adc5 3fbc 2e41 673e 9b14 39bd fd8a 9abe
000000c0: 1efe 963d e467 943b 22c3 b2bc 4ac3 ca3a
000000d0: 7ba4 bdbe 752e 0bbc a2a4 9bbb 4d1c d9be
000000e0: 3052 b0ba 90c9 003c b80e 21bc 013d a43d
000000f0: c192 833b f209 d8bb 38dd 8d3e b222 0a3c
0.0037862537 0.0070164334 -0.0034405047 0.0026723435 0.0035884753 0.005660844 0.007832838 -0.009944297
-0.88915104 -0.008017666 0.004665318 -0.0012915629 0.007985847 -0.0061637964 -0.0015823492 0.38289404
-0.009639691 -0.008223708 0.0006428155 0.006861314 0.0037695328 0.0060136574 0.0033270163 0.011491306
0.047338888 0.009550304 -0.009047516 -0.0053683664 0.0054415795 -0.014810264 0.00036251586 -0.0038637286
-0.635706 -0.34508198 0.0017819215 0.009321984 -0.008714056 0.006982389 -0.006098249 0.07567409
-0.0018280514 0.005100211 0.0017122576 0.0109383 -0.011704844 0.22583458 -0.045185667 -0.30184165
0.07372688 0.0045289863 -0.021821562 0.0015469578 -0.3703955 -0.008494963 -0.0047498504 -0.42404404
-0.0013452228 0.007860556 -0.009830169 0.08019448 0.004015297 -0.0065929824 0.2770784 0.008431124

actor.log_std_layer.weight f4 [1, 64]
00000000: d084 17bb d49c 8fbb 61a1 993e 8114 bcbb
00000010: 52b3 1c3c 3a7f 583b c6b7 9a3c dbc4 63ba
00000020: f422 a23e d9ef 42bc 12b2 e8bb 2908 a83b
00000030: 53a1 47ba b437 183c 03c1 363c 25d3 133e
00000040: 2308 3cbf 8168 2dbc 535d 38bc 309f f43a
00000050: 5c3c cd3c 1cb6 c23b 8dfb 42bb 4f4b 2fbc
00000060: fc6f 6abe a1c9 96bb 1055 09b9 021f 6bbc
00000070: e1c3 1dbb db4c f43c c6e6 603c e060 8db9
00000080: 7b43 8b3d ac75 80bd 0229 7cbc bfc6 e9bb
00000090: d7e6 0bbf 2984 dbbb fc87 4f3b 788c 5f3f
000000a0: fb30 26bc 1ac4 edbb 1b8a f93b 1108 313c
000000b0: ce42 53bd 2832 ffbd 73ba 293f 5697 c23c
000000c0: 4785 4d3f baaf 0b3c 6614 31bf 07c8 1ebb
000000d0: ea05 bcbc 226b 76bc 796e c0b9 93c8 d53c
000000e0: c384 dbbb 53e9 793b e0e7 503b 8fff c53c
000000f0: 8de5 693c d69e 69bc e03f 91be a4b7 6d3c
-0.0023119934 -0.004382709 0.30005935 -0.005739749 0.009564238 0.0033034817 0.018886458 -0.00086886965
0.31667292 -0.011898004 -0.0071013058 0.005127926 -0.0007615287 0.009290624 0.011154416 0.14436014
-0.73449916 -0.010583998 -0.011252719 0.0018663164 0.025053196 0.0059421193 -0.0029751987 -0.010699107
-0.22894281 -0.0046016728 -0.00013097026 -0.014350655 -0.0024073052 0.029821804 0.013726896 -0.00026965793
0.0679998 -0.06272444 -0.015390636 -0.007134288 -0.5464911 -0.0066991043 0.0031666746 0.87323713
-0.010143514 -0.007256043 0.0076153404 0.010805146 -0.05157738 -0.124607384 0.66300124 0.023753803
0.8028149 0.008525783 -0.6917175 -0.0024228112 -0.022952039 -0.015040191 -0.00036703402 0.026096618
-0.006699176 0.0038133457 0.003187649 0.024169711 0.014275921 -0.014259061 -0.28369045 0.014509115

q1.q_net.fcs.0.weight f4 [64, 9]
00000000: 32dd 36bc 58b6 023f 0a9e ea3e acc2 623d
00000010: 023a 42be 2391 a63e b345 693e f66a 823d
00000020: 747e 123f d4c2 0d3d cd43 1bbd 3941 52bd
00000030: 46ab 6abc 2a80 31be c678 2a3e 2a1a a23e
00000040: 8366 55be 300e 263f fa16 17bd 0ae8 95bc
00000050: dc53 21c0 cca0 42bf 67d1 58bf 0b4b 25be
00000060: c8bb 8d3e feba 163e b4b9 193f 1572 ebbd
00000070: 4b96 dfbd d794 edbf 965b febe 284f 273f
00000080: 96d8 cebd 56db 83be 5b7b d3bd 7710 a63e
00000090: f4ad ee3d 8e2a 79bd 111e a73e ae72 393e
000000a0: 416c e63e 1bc2 16be 1036 ee3d e332 27be
000000b0: fdb5 70bf a8a8 eb3d bbe7 a13d a68b 453e
000000c0: e042 f73c 4f45 a93d cbfa 40bd b01d a53d
000000d0: 8e85 37be d8a3 593f ad7b aa3d f60e 0d3e
000000e0: 50e4 1040 cc02 363f 1cd4 50bf 78c4 2e3e
000000f0: 56fb 4bbb 0b96 843d 8554 08bf f9ae 22be
00000100: 2958 f13c a7a9 6e3e 3274 8d3e 0a08 053f
00000110: ebfc 8b3d 8637 003e 5622 87bb d2b1 39be
00000120: a16d 71be 9ad4 68be 338a 2ebf f831 a0bd
00000130: b127 25be a0a9 aebd f0fa c5bd b477 973e
00000140: 90a9 abbd 2bc2 09bc d9fe c93b 184d 0140
00000150: e1ae 073f f760 583f b60e 15bd 4b87 613d
00000160: e6d0 26be fd29 cfbe 1c0b 5bbe 83bb a3bc
00000170: 0a11 9f3e 00d6 50be a1b8 9d3e 0051 373d
00000180: a2dc 8fbe b6c0 debd eacb 23bc c6c1 bcbc
00000190: c7de ba3e 54bc f83f e6dc 0b3f fe17 b53e
000001a0: 20f9 1d3e 2b1e 5ebe 08c4 33be 41cb 71be
000001b0: 5d65 1c3f 460d 823e afc6 f93e 9831 f13d
000001c0: c4c1 3ebe 9a48 a83e 0bca 993e 6c9a 8f3e
000001d0: 8e4a 033d 440c dd3d b8e2 4c3e c913 ee3f
000001e0: bca4 e93e fc54 1dbe abee 96bd 82b6 953e
000001f0: b274 9abe 5656 73be bea4 843e a50b 3fbe
00000200: 57fe 4cbf 5aff 22be c417 ab3e 661f ffbd
00000210: 0494 96be a092 5b3d 4a88 143b 225a 043f
00000220: 8a54 c33e 4ffb 1f3f e01e 5d3d 6743 d8be
00000230: 1ff0 9abe 475a 8d3e d67f f73d a7a4 203e
00000240: 265c 54bb bf06 753d aec2 cb3f 0812 f53e
00000250: 5e7c 323f 6c4f 8bbe d6db 163d ab21 88bd
00000260: eb01 aebe a682 973e 3ded 973e d04c e83f
00000270: 8edd f83e 4749 58be 089a 353e 3655 33be
00000280: 16c1 adbc 76e9 5ebe f93f bcbd 26de b2be
00000290: b7df a4bf baa1 a4be f9c8 80bd 466c 503e
000002a0: b22d 8b3e f24f 923e fc75 a93d 6429 b0be
000002b0: c062 bfbe 7c6a ddbf 069d d2be eb33 b43e
000002c0: 9f9a 873e f8be 863e f6b9 95be 94aa de3d
000002d0: b306 963e e737 05be 5e02 e73e c877 313e
000002e0: 1f3b 85be 2b6a 873d 6bff 99be 3615 783e
000002f0: b9e1 13bf bc83 1e3d a99b 9c3e 9451 03bf
00000300: a6a0 8e3e 965e cd3e d68f 173d 5097 d8bd
00000310: 3006 25be 6da7 b53c ce04 1c3e 87bc 493d
00000320: 565b c23e c081 943d 06c1 173f 6b78 fe3c
00000330: 56d5 9639 565e 993c a9e1 393d 3dbb 10be
00000340: f283 40bc 5caf 0c3f 802e 8e3d 6df1 02bd
00000350: 5029 a6be 18c9 253e 8880 51be c267 38bd
00000360: 2518 3c3e 032e c13e 7659 f8be d3e5 c3bd
00000370: d4fd 5ebe 0ebc 0ebe ab1f 2bbe c012 7abe
00000380: a3f1 e83e eccb 7f3d 51ca b1be 17a4 383f
00000390: 4e90 2d3e cd16 183e 1bbe 313e 2bb1 67bc
000003a0: a02d 253e 328a 8a3e 4fe9 213e 7659 b63e
000003b0: 3904 0240 8837 e03e 861c d73b c05c 9abd
000003c0: e069 063e 6e58 043e 8827 1ebe ade5 efbd
000003d0: 4adb 353e c82d ea3d 9957 163e 8b0a b6bc
000003e0: eb2c a63c 16c0 0f3e 7672 fdbd 6796 af3e
000003f0: 0410 b4bd 7a41 e3bd 466c bebf eae4 dabe
-0.0111611355 0.51059484 0.458237 0.055361435 -0.1896744 0.32532606 0.22780494 0.063680574
0.572242 0.03460963 -0.037906457 -0.051331732 -0.014323061 -0.17334047 0.16647634 0.31660587
-0.20839886 0.648654 -0.036887147 -0.018299121 -2.5207434 -0.76026607 -0.8469452 -0.16141908
0.27682328 0.1471977 0.60048985 -0.11496369 -0.10917338 -1.8561047 -0.4967925 0.6535516
-0.10099904 -0.25753278 -0.103262626 0.32434437 0.11654273 -0.0608316 0.32640126 0.18110153
0.45004466 -0.14722483 0.11631405 -0.16328005 -0.9402769 0.11506778 0.07905527 0.19291553
0.030183256 0.08265173 -0.047114175 0.08062303 -0.17922041 0.8501563 0.083243705 0.13775238
2.263935 0.7109802 -0.81573653 0.17067134 -0.003112515 0.06473931 -0.53253967 -0.1588706
0.029460983 0.23306905 0.27627712 0.5196539 0.0683535 0.1252118 -0.004123966 -0.1813424
-0.23576976 -0.22737351 -0.68179625 -0.07822031 -0.16128422 -0.08528447 -0.09667003 0.29583514
-0.08381951 -0.00840811 0.0061644134 2.0203304 0.5300122 0.84522957 -0.036390983 0.055060666
-0.16290626 -0.40461722 -0.21390957 -0.019986873 0.31067687 -0.20394135 0.30804923 0.044754982
-0.28098017 -0.108766004 -0.009997347 -0.023041617 0.3649809 1.9432473 0.5463394 0.35369867
0.15427065 -0.21691196 -0.17555249 -0.23612691 0.6109217 0.25400752 0.48784396 0.117770374
-0.18628603 0.3286789 0.3003696 0.28047502 0.032053523 0.10793355 0.20008361 1.8599788
0.45633495 -0.1536445 -0.07369741 0.29240805 -0.30167156 -0.23763403 0.25906938 -0.18656786
-0.8007559 -0.15917721 0.3341657 -0.12457161 -0.29409802 0.05360663 0.0022664242 0.5170003
0.38150436 0.6249284 0.053984523 -0.42238924 -0.30261323 0.2760794 0.1208493 0.1568781
-0.0032403558 0.059820887 1.5918787 0.4786532 0.6972102 -0.27209032 0.036830746 -0.06647047
-0.33985838 0.29591864 0.29673186 1.8148441 0.48606533 -0.21121703 0.1773454 -0.17512974
-0.021210235 -0.21768746 -0.09191889 -0.3493511 -1.2880772 -0.32154638 -0.062883325 0.20353803
0.271833 0.28576618 0.08274457 -0.3440658 -0.37380028 -1.7298121 -0.41135424 0.3519586
0.26485154 0.26317573 -0.2924344 0.10872379 0.29301986 -0.13009606 0.45118994 0.17330849
-0.26021668 0.06612047 -0.3007768 0.24226841 -0.577663 0.03869985 0.3058751 -0.51296353
0.2785694 0.40111226 0.037002407 -0.105757356 -0.16115642 0.022174561 0.15236208 0.04925206
0.3796031 0.0725131 0.59278905 0.03106328 0.00028769177 0.01872174 0.045381222 -0.14133926
-0.011750208 0.5495508 0.06942463 -0.031968523 -0.32453394 0.16189992 -0.20459187 -0.045020826
0.18368585 0.37730417 -0.48505753 -0.0956532 -0.21776515 -0.13938925 -0.16711299 -0.24421215
0.45496854 0.062450334 -0.34724668 0.7212538 0.16949579 0.14852448 0.17357676 -0.014141361
0.16130686 0.2705856 0.15811656 0.35615128 2.0315077 0.43792367 0.0065646796 -0.07537222
0.13126326 0.12924358 -0.15444767 -0.11713729 0.17759433 0.11434513 0.14681853 -0.022221824
0.02028509 0.14038119 -0.12375347 0.34294435 -0.08792117 -0.11096473 -1.4876792 -0.42752773

q1.q_net.fcs.0.bias f4 [64]
00000000: 8f98 bbbe 104a ae3e 926b 5ebf 77bb 003f
00000010: 36db 42bd 81cd 38be d142 22bf 9d0a 153f
00000020: 41ca cf3c 18c9 253f 9d5e 0e3f 1243 80be
00000030: 9e0b 613e eb2d 04bf 7de2 e5bc ac20 20bf
00000040: c242 123f 80eb b9be 9d8d be3d d243 c0bd
00000050: e981 9abd 9a9b 943e 239b 443e ed57 7fbe
00000060: d393 3abd a1de 16be d765 fdbd 513a 373d
00000070: 1bb2 073f c7dc 2fbf d0e2 4b3e f324 b9be
00000080: a95d ebbd d001 f63e ed6b 863e eda0 94be
00000090: 8db2 39be f515 f9bd eae6 25bf 1a98 1cbe
000000a0: f2ca e23e 59b5 9ebe c8dd a73e 501e c93e
000000b0: 91d8 23bc 2a3e 49be 0dd6 49bf 2b75 673e
000000c0: 3f79 013f 09ef 863e e499 343f 2717 a83e
000000d0: 618d c2bc 4804 e93e 2f56 84be dae3 20bf
000000e0: 2176 fcbe 2675 99be 5b5b 0c3d e942 3fbe
000000f0: eee3 eabc daf1 2fbd 7473 623d 809b a63e
-0.3663983 0.3404088 -0.8688289 0.5028605 -0.047572337 -0.18047144 -0.63383204 0.5821932
0.025364997 0.6475997 0.5561312 -0.2505117 0.21977088 -0.51632565 -0.0280621 -0.62549853
0.57133114 -0.36312485 0.09304354 -0.09387936 -0.0754431 0.29024965 0.19199805 -0.24935885
-0.045551132 -0.14733364 -0.1237294 0.04473335 0.5300614 -0.68696254 0.19910741 -0.36161003
-0.11492474 0.48048258 0.26254216 -0.29029027 -0.18134518 -0.12162391 -0.6480547 -0.15292397
0.4429546 -0.30997732 0.32786393 0.3928094 -0.010000364 -0.1965262 -0.7884224 0.2260329
0.5057563 0.26354244 0.7054732 0.32830164 -0.023749055 0.4551108 -0.25847003 -0.62847674
-0.49308875 -0.2997219 0.03426681 -0.18677868 -0.028673138 -0.042955257 0.055285886 0.32540512

q1.q_net.fcs.1.weight f4 [64, 64]
00000000: a3ec 74bc 944e 2abe c015 3dbd 9c6e 00be
00000010: ac69 21be afb7 1cbe d980 753d ca56 04be
00000020: 9064 c2bd 2a50 8ebd d7e2 debd a9eb d5bd
00000030: eae6 8ebd 2e94 efbd 99a4 02be b25b 5bbd
00000040: 37f8 8a3d 9a9a e73c 4bbb be3d 39cc 9abc
00000050: f390 76bd 616a c63c 6ca0 d7bd e544 8bbd
00000060: 57f1 60bd 037b a33d 2d39 1cbe 0b9c 5c3d
00000070: eff4 f1bc e391 54bc 40e1 54bd 286f a0bd
00000080: d4ff 053d aef3 843c fd8c e0bd 3241 b73d
00000090: 6e63 0bbc fa51 1ebc 18bf 05bd a9dd 5e3d
000000a0: 4fbd f9bd d506 1cbd 41a6 a7bd f4fe 01bd
000000b0: 0770 b7bd be51 11bc 20ae 1e3d 6a9e 30be
000000c0: 5f43 e63c 6f75 823a 3ee7 4fbc 83e9 afbd
000000d0: 647f ccbd b9ae c83d 5bad cebd 69f8 82bd
000000e0: 97c1 16bd eace 15be ca25 04be e89d d3bc
000000f0: 532c a73d c676 69bd 1ced 3b3d e4df 883d
00000100: c296 f3be da25 51be 591c b0be a0f0 8dc0
00000110: 3f3a b53c 6434 ec3e ad01 52bf 3d4b ebbd
00000120: 8442 c93e 73eb ba3d 4b82 8d3e 1201 98bd
00000130: a613 93be 3a3c d6be 0b1c 39bf 63a2 ffbe
00000140: 0b43 05bd 535a 1ebf 257c 333f 2232 1fbf
00000150: 021f 40be 26ff 46be b985 c03b 9cdc 67bd
00000160: 43ac c4bc 1fee b7bc c79d f73c 45df 7d3a
00000170: 6889 74c0 71b1 2cbf c8cb 49be 0def d2be
00000180: 8f01 babe 21fb b43a 2e83 fcbc 1a15 9ebe
00000190: 2505 cbbe 0b1f 913e bd26 e4be 6f7e c73d
000001a0: 1acf d83d 2824 52be 04e9 abbd 56bb 503e
000001b0: 1102 8abd a241 c73e 3b48 babe dcd2 0cbe
000001c0: 37df 0a3e b8d9 333d 3d05 c03c 19bc fabc
000001d0: 308e 023f a8cc 81be 0b80 bbbe 8a69 08bf
000001e0: fee2 293d 129d d4bc bbd7 aa3d a80b 1cbd
000001f0: 7edd dc3e 3fc7 c53d ffad 5bbd 9751 a33c
00000200: ff9f 6c3d 77c9 4c3b e2c6 353d c68f 763b
00000210: fbf8 ccbd 3a75 ebbd 3223 fb3a 98f3 dabd
00000220: 2cbb c3bd 10b0 993d 1f8b 9cbd faf4 18bd
00000230: f7a7 fdbd 3cca 6ebd 321c 9a3c 7073 d4bd
00000240: 89e3 06be 1b3e 833d 2814 1ebc c5d3 5e3d
00000250: 0c0e f9bd 947d 7c3b a196 db3d 78f6 d6bd
00000260: 3086 14bc 3067 adbd 3dfb 03be 1406 363d
00000270: 740f 01be fa37 03be 9dec b2bd b31e 63bd
00000280: 3a6d ab3d cc08 70bd e2b0 aabd 99ee dfbd
00000290: b92d 23bc 740c e03d d39a c5bd df95 8f3d
000002a0: 70e7 523d 42fc bfbd 7131 56bd 6058 56bd
000002b0: 1c7b 823d e0ca 1d3c 2ecd 9ebd 2f28 d2bd
000002c0: f5ca 123c 27bc c73d b397 ebbd f8a9 6fbc
000002d0: 7e10 943d 8c0c 5bbd 8d1b 01bd 4ff6 233d
000002e0: cb95 ecbd 2068 38bc 86d2 d43d 9a56 acbd
000002f0: 452a 5bbd f00d 5bbd d4ea 2a3d a2b3 abbd
00000300: bd90 3ebe 5eac 313e 9a6f 063d 235a e33e
00000310: cd1f 0b3f 23b2 1fbe 12e2 2bbe c0d7 303f
00000320: a44b 9f3d 074a 29c0 f7b7 d83e 975a fabf
00000330: d97d 98be 8c0d cb3b 1772 193e b03d 5dbf
00000340: 5cdd 11c0 db74 f5be 7f6e 903e db3e ad3e
00000350: 70d7 edbe b8c9 a13e b716 913e 064d a6be
00000360: 1810 1dbd 7e28 9c3d 5c59 93bf e57d 89be
00000370: d107 c63e 93f0 07be 8357 0c3f d1d4 a53e
00000380: d78e 90be 9759 e5bf 1e56 fd3e d0f0 f8bd
00000390: 18a7 02be b2d6 00bd 3c39 a6bf 35af fe3c
000003a0: a193 9e3e eee1 07c0 86d4 7f3e 5de8 073f
000003b0: 6d26 853d 122b cebe 9fe6 1bbd fefb a9bf
000003c0: 77f7 bf3e 3409 9d3e 940b 23c0 c8f8 80bc
000003d0: 687c a53e a0f5 9c3e 763b 5dbf 5c10 1abe
000003e0: b4b2 29be 135d f9be 388c 233e 93c7 f9be
000003f0: 7757 363d 1a27 4abe 35a6 fd3c 42b0 c43e
-0.014948997 -0.16631538 -0.04616332 -0.12542194 -0.15762967 -0.15304445 0.05993733 -0.12923732
-0.09491837 -0.06948884 -0.1088311 -0.10445339 -0.06977637 -0.11698185 -0.12758102 -0.053554244
0.067856245 0.028271962 0.09313067 -0.01889621 -0.060196828 0.024220647 -0.10528645 -0.0680025
-0.05491766 0.07982447 -0.15256186 0.05385975 -0.029535739 -0.012974235 -0.051972628 -0.07833701
0.03271468 0.016229477 -0.109643914 0.08947982 -0.008507593 -0.009663099 -0.032652944 0.05441061
-0.12194311 -0.038092453 -0.08186007 -0.031737283 -0.089569144 -0.0088695865 0.038740277 -0.1724793
0.028108297 0.0009953211 -0.01268941 -0.08589461 -0.09985235 0.09798951 -0.10091659 -0.06395037
-0.036805715 -0.14629713 -0.1290504 -0.025832132 0.08162751 -0.056998037 0.045880422 0.06683329
-0.47575957 -0.20424595 -0.34396628 -4.435623 0.0221225 0.4613372 -0.8203381 -0.1148896
0.3930856 0.091269396 0.27638468 -0.07422079 -0.28725928 -0.41842824 -0.72308415 -0.4992858
-0.03253464 -0.61856574 0.70111305 -0.6218587 -0.18761829 -0.19433269 0.005875316 -0.056606874
-0.024007922 -0.022452412 0.030226601 0.0009684454 -3.8208866 -0.67458254 -0.19706643 -0.41198006
-0.36329314 0.0013807752 -0.03082427 -0.30875474 -0.39652362 0.28343996 -0.44560805 0.09740912
0.105863765 -0.20521605 -0.083940536 0.20383963 -0.067386754 0.3891726 -0.36383232 -0.13752311
0.13561712 0.043908805 0.023439998 -0.03060727 0.5099821 -0.25351453 -0.36621127 -0.5328604
0.041476242 -0.025953803 0.083419286 -0.038097054 0.43137735 0.09657144 -0.053632732 0.019936366
0.05776977 0.0031248012 0.044379123 0.0037622317 -0.10008427 -0.114969686 0.0019160269 -0.10690993
-0.095571846 0.075042844 -0.07643723 -0.037343003 -0.123855524 -0.058298334 0.018812273 -0.103735805
-0.13172735 0.0640833 -0.00964836 0.054401178 -0.12160882 0.0038526999 0.107220896 -0.10496229
-0.009065196 -0.08466947 -0.12888809 0.04443939 -0.12603551 -0.12814322 -0.08736537 -0.0554492
0.08370443 -0.05860214 -0.08334519 -0.10934181 -0.009959632 0.10939875 -0.09648671 0.070110075
0.051490247 -0.09374286 -0.052293245 -0.052330375 0.063711375 0.009630889 -0.07753979 -0.10261571
0.008959522 0.09752684 -0.11503544 -0.014627926 0.07229708 -0.053478763 -0.031520415 0.04002982
-0.11552008 -0.011255294 0.10391717 -0.084149554 -0.05350711 -0.05348009 0.041727856 -0.083838716
-0.18609901 0.17350909 0.032821275 0.44404706 0.543454 -0.15595298 -0.16785458 0.6907921
0.07778099 -2.6451433 0.42327854 -1.9558896 -0.29783514 0.0061966833 0.14984928 -0.8642225
-2.2791357 -0.47940716 0.28209302 0.33837017 -0.46453428 0.31599212 0.28337643 -0.3248064
-0.038345426 0.07624911 -1.1511645 -0.26853862 0.38677838 -0.13275366 0.5482103 0.3238893
-0.28233978 -1.7917966 0.49479765 -0.12155306 -0.12759054 -0.03145475 -1.2986217 0.031089405
0.30972007 -2.1231647 0.24983415 0.53088933 0.0650147 -0.40267235 -0.038061734 -1.3280027
0.37493488 0.30671084 -2.5475817 -0.015743628 0.32321477 0.30656147 -0.86418855 -0.15045303
-0.16572076 -0.48703822 0.15971458 -0.48785076 0.044517007 -0.19741479 0.030963043 0.38415724

q1.q_net.fcs.1.bias f4 [64]
00000000: 249c c4bd d894 c23d 9af7 bd3d 2b07 153f
00000010: dbb8 773d 7c6f 02be 46bf 65be 620e 7d3d
00000020: b99a 14be c7df 05bc 5526 a5bd ad20 f33d
00000030: 4265 17be c6ac 5ebe 461e 99be 21ac dc3e
00000040: d74d a13d a924 813e 9091 033e c9f7 ab3e
00000050: d7f3 c3bc 613b 1b3e 9868 cebd 3976 803e
00000060: c430 3a3e cab5 503e db95 643e 025e dbbc
00000070: f946 743d 1235 703e 2fdf dd3e d7bd 4f3e
00000080: ec82 d73e fb70 6cbe a1d2 dbbb 81e7 963e
00000090: 8586 f4bd 47b3 083e 26e7 9abe 7ee6 993e
000000a0: 3607 be3e 2a07 55bd ba69 79bd 7c30 8bbc
000000b0: 1171 933d a4ca 183e 4a72 d43e c162 713e
000000c0: 6475 6f3e 6f88 28bd 3d7b 8a3d c90c c33e
000000d0: 4b79 fabd b07b 243e 7fee 72bb 0911 d8bd
000000e0: e641 93bc bd51 4dbe 9991 a53e 3529 f9bd
000000f0: 61ab 4e3e e0e7 dc3e c221 b73e 8ca5 47be
-0.09600094 0.09501046 0.09275742 0.5821406 0.060479026 -0.1273784 -0.22436246 0.061781295
-0.14512147 -0.008171028 -0.08063952 0.11871467 -0.1478472 -0.21745595 -0.2990591 0.43100074
0.07876175 0.25223282 0.12848496 0.33587483 -0.023919983 0.1515937 -0.100785434 0.25090197
0.18182665 0.20381847 0.2232279 -0.026778225 0.059637997 0.23457745 0.43334338 0.20287262
0.42092073 -0.23089974 -0.0067084585 0.29473498 -0.1193972 0.13349639 -0.30254477 0.30058664
0.37114877 -0.052008785 -0.060891844 -0.016990893 0.071993 0.14921051 0.41493446 0.23572828
0.23384625 -0.04114574 0.06761787 0.38095692 -0.12230166 0.16062808 -0.0037068424 -0.10550124
-0.017975759 -0.20050712 0.32337645 -0.12166063 0.20182563 0.43145657 0.35767943 -0.19496745

q1.q_net.fcs.2.weight f4 [1, 64]
00000000: 6658 3d3d a512 27c0 b0e3 bdbd 67eb 3cbf
00000010: 7db1 dbbf 7090 15bc 565c 48bf afea a6bf
00000020: e0a4 083d e334 f9bd 3872 b73c c588 9f3e
00000030: 6e7f a53c 1551 b1be 1f7e fd3e b59b e93f
00000040: 61c9 e43e 0a40 163f bc3f 94bf b7a0 b83f
00000050: 2cf9 b6be e8cf afbf 417c cabd d632 1d3f
00000060: 0fd7 c0be 0894 bbbf bd0c 383f fda7 b3bf
00000070: c5b5 87bc 56ed 1c3e 2dd7 cd3f f76a d83e
00000080: 0aea 3a3f bb30 e83b 7f51 3bbc 0edb 103f
00000090: 9643 8439 90fb 063f e312 953e 738c ba3e
000000a0: 6411 203f cb90 54c0 7e2a 093d 6650 0fbd
000000b0: c6de 6dbc 804a 133f 4252 863f 9d13 aa3e
000000c0: 2198 1cbf e849 4f3a 0721 173f c1df dd3f
000000d0: 917b 0ebd d64d 58c0 e256 99bf 22fb 293c
000000e0: 9f62 1dbf e906 d8bf 2143 243f 638a b5bf
000000f0: e991 a9bf 9bdf 0e3f 8219 203f 4aa4 bcbe
0.04622688 -2.610513 -0.092719436 -0.73796695 -1.716354 -0.009128675 -0.78265893 -1.304037
0.033360362 -0.121682905 0.022393331 0.31159034 0.020202365 -0.34632173 0.49510285 1.8250643
0.4468489 0.58691466 -1.158195 1.4424046 -0.35736978 -1.3735323 -0.09886981 0.61405694
-0.37664077 -1.465455 0.7189444 -1.4035641 -0.016566167 0.15324911 1.6081291 0.42269108
0.73013365 0.0070858872 -0.011433004 0.5658425 0.00025227357 0.52727604 0.29115972 0.3643528
0.62526536 -3.3213375 0.03348779 -0.034988783 -0.014518445 0.5753555 1.0493853 0.3321809
-0.6116963 0.0007907436 0.5903477 1.7333909 -0.03478581 -3.3797507 -1.197964 0.010374816
-0.6147861 -1.6877109 0.6416493 -1.4182857 -1.3247653 0.55809945 0.6253892 -0.36844093

q2.q_net.fcs.0.weight f4 [64, 9]
00000000: 253b 8c3e aec7 713e 0466 103f 92d0 ba3d
00000010: 669d 973e fbbc 433e 6e60 7bbe 5b9d 1e3e
00000020: 6dcc a93e a4fb 0d3f f873 e13e 4516 c43f
00000030: 77ed cb3e 521a 79be 26e5 9bbd e3f7 60be
00000040: 9e51 61be d3bd 7bbd 756b 773e 1507 37be
00000050: 1abc 82be ce93 3abe 799a b53e 004d 42bd
00000060: b65c a33e 7326 043e 57d2 db3e 3223 523d
00000070: 7159 7a3e 0729 0440 fee6 d33e aa7b 693e
00000080: bbf5 8d3e 3ce4 98be 1671 3ebd 3fa1 64be
00000090: 4008 8bbe b521 a2be ee70 abbf cc35 a8be
000000a0: fb8d 873d 23e8 09be 7e62 11be ab1c 55be
000000b0: fcef 8e3d 8b95 71bc 246f 3f3d cbf0 9a3f
000000c0: 494a b13e 8f8e 5c3e 33c1 153e b377 80be
000000d0: b61a 0bbe 2e2b 87be 26f1 233e 5713 8ebd
000000e0: 49fe 9d3f 583c e33e 8afc ba3d b694 67be
000000f0: fbbf eb3d f86b 4fbe 0815 e6be 83db 1e3d
00000100: caa0 80bd b4c4 c4be 747d 8fbe 2e17 293e
00000110: 88dc 5f3e 2b88 a3bd ecf4 96be ddbb d33c
00000120: 737d 7c3e 203b 203e 0b89 efbe 356a bc3d
00000130: f913 a9be 76d8 8e3d 7e59 a83e 108d 75be
00000140: 37bf 3c3f 3606 e23d 68df 133e c9ed 0340
00000150: 18fa 1f3f 8803 12bf 965b bf3c 8832 95be
00000160: 8055 95be ae9f dbbe 7d19 003e debc 123e
00000170: d500 5b3e fe3c 9f3e abdb 233f 90c4 fabd
00000180: dfed a2be db28 11be e5db 0a3e dae4 bd3d
00000190: 23c1 313e af0f 0240 026c 0b3f ed73 09bf
000001a0: 60a7 263d 3ee9 8c3e 0b80 64be 49d4 9ebe
000001b0: c828 2dbf 60d5 c63d 1fde 093f 1b88 e53d
000001c0: 57e4 f6be 0b54 6ebd bb01 0d3e a694 f3bd
000001d0: 9c45 8fbd 8d38 353d 7abb e93d 956b 943f
000001e0: d2c2 a83e 47e1 f53d 9090 95be 66f8 41be
000001f0: aba7 e6bc a888 4abe fb34 cf3d b426 213e
00000200: 1535 6e3f 0289 363e 1eae 823e 60da dd3d
00000210: 166e f13c 26ec f4bd 3e75 67be 332a 6a3d
00000220: 9b0a 973e e44c 2d3f dc90 233f a4cf f6be
00000230: 5350 2dbe 007b 93bb ce98 813e b191 64be
00000240: f838 b5bd ef5c 763e d6c8 ebbe ceb5 91bd
00000250: 80d1 1c3f 5034 8f3d 7840 2fbe 438d 513e
00000260: c61e 933e cdac b3be f6a1 3ebe b113 acbf
00000270: 5b2f 81be 76f9 723e 004f 7dbd 46a5 c63d
00000280: 26e4 e63d 7489 bb3d 6473 11bf 2cda 2dbe
00000290: eb8d b1bd 3a10 6a3d f163 7bbe dbd2 d63d
000002a0: 8ffd 9e3e 1b2b acbd 507d e1bd 5672 86bd
000002b0: 0665 a5bc ad71 a0bf 3f9b 96be 43b8 803e
000002c0: 9362 093e 8b13 f63d feba 8d3e dfd2 643e
000002d0: f906 683d 43f5 7cbd 0f40 cc3f 52ce 9a3e
000002e0: 82a3 0ebf 36b3 e83d 0b98 343d abd6 57bb
000002f0: 0e26 fcbe 6552 473d e0f9 68be dcfc 5abd
00000300: cf8f a63d 9841 663e c0b0 3abd be7d 573e
00000310: 049c 8c3e 7d89 4ebe c0fa 0a3e d02e 0bbe
00000320: 23fa 53be a777 a03d e3f5 9d3e 68f0 31be
00000330: 7be2 a83e 431d 843e 1de8 9c3e d59c f83c
00000340: 1f27 b9bd 4a00 cfbc 1d75 9ebc a93f b5be
00000350: fb2d 7a3e 4ec1 3f3e 3601 4b3e 2eb2 58bd
00000360: cbf9 933d 8051 6dbd 0e82 9f3f 097c 663e
00000370: a140 da3e 86cc 86bd c6a2 9b3e 9b11 5a3e
00000380: de5c 64be fb96 833c 97a2 a73d 9751 cb3f
00000390: eff3 fc3e d0d0 1c3f 8b5d 4d3e d067 4f3e
000003a0: 48db 81be 99e6 b0be 6911 65be 7dea b9bd
000003b0: 425b 983e abad 0cbe d5d6 2d3e d0f7 7fbe
000003c0: d6ef 96bd 3a3c 953e 1788 723d e842 d9bd
000003d0: 374b dfbd 7c06 9bbf e699 08be 7e1a e3be
000003e0: 285c 143e cb56 1c3d 33cc 1fbe 6300 ca3d
000003f0: f9b8 f73c ad3e 9dbd 3eef 663e 4a9a a9bc
0.27388874 0.23611328 0.56405663 0.09121813 0.29612273 0.19115059 -0.24548504 0.15489714
0.33163777 0.554621 0.4403379 1.5319296 0.3982961 -0.24326447 -0.07612066 -0.21969561
-0.2200379 -0.061460327 0.24162085 -0.17873795 -0.25534135 -0.18220446 0.35469416 -0.047436714
0.3190667 0.12905292 0.42933914 0.051303096 0.24448182 2.065004 0.4138717 0.2280108
0.2772654 -0.2986163 -0.046494566 -0.22327136 -0.27154732 -0.3166634 -1.3393838 -0.32853544
0.066188775 -0.1346746 -0.14197728 -0.20811717 0.06979367 -0.0147451265 0.04673685 1.2104734
0.34626988 0.21538757 0.14624481 -0.25091323 -0.13584408 -0.2640013 0.1600996 -0.069372825
1.2343227 0.44381976 0.09130199 -0.22615322 0.11511227 -0.2025603 -0.4493792 0.03878356
-0.06280668 -0.38431323 -0.280254 0.16512749 0.2186147 -0.07984956 -0.29483736 0.025846416
0.2465723 0.15647554 -0.46784243 0.09199945 -0.3302305 0.069748804 0.32880777 -0.23979592
0.7372927 0.11036341 0.14440691 2.0613883 0.6249099 -0.5703664 0.023359101 -0.29140115
-0.29166794 -0.42895263 0.12509723 0.1432986 0.21387036 0.3110122 0.6400706 -0.122445226
-0.31822106 -0.14175741 0.13560446 0.092721656 0.17358832 2.0322073 0.5446168 -0.53692514
0.040686965 0.275217 -0.2231447 -0.31021336 -0.6764035 0.09708667 0.53854555 0.11207601
-0.48221084 -0.05818562 0.13770191 -0.11893587 -0.06995699 0.044243384 0.114127114 1.1595331
0.32961136 0.12005859 -0.29211855 -0.18942413 -0.028156122 -0.19778693 0.10117527 0.1573742
0.93049747 0.17825702 0.25523466 0.10832667 0.029471438 -0.11959104 -0.22603318 0.05716915
0.2950028 0.6769545 0.6389291 -0.48205292 -0.16925173 -0.0045007467 0.25311893 -0.22321202
-0.088487566 0.24058889 -0.46051663 -0.071147546 0.6125717 0.069924 -0.17114437 0.20464043
0.28734416 -0.35092774 -0.1861647 -1.3443509 -0.25231442 0.23727974 -0.06184292 0.09699492
0.112739846 0.091570765 -0.568167 -0.16977757 -0.08669647 0.05714438 -0.24549843 0.10489436
0.31052825 -0.08406659 -0.110102296 -0.065647766 -0.020189773 -1.2534691 -0.29415318 0.2514058
0.1341651 0.12015446 0.27681726 0.22346066 0.056647275 -0.061757337 1.5957049 0.30235535
-0.55718243 0.11362307 0.044090312 -0.0032934349 -0.49247783 0.048662562 -0.2275157 -0.0534638
0.08132898 0.2248596 -0.04557872 0.2104406 0.2746278 -0.20169635 0.13572216 -0.13592076
-0.20700888 0.07835322 0.3085166 -0.17376864 0.3298529 0.25803575 0.30645838 0.03034822
-0.09040665 -0.025268693 -0.019342953 -0.3540013 0.24431603 0.18726084 0.1982468 -0.0529043
0.072253786 -0.057939053 1.2461565 0.22508253 0.42627433 -0.065819785 0.30397624 0.21295778
-0.22301051 0.016063204 0.081853084 1.5884274 0.49404857 0.6125612 0.20055215 0.20254445
-0.2536261 -0.34550932 -0.22369923 -0.09077928 0.29757124 -0.13738124 0.16976483 -0.24996877
-0.07369964 0.29147512 0.059211817 -0.106084645 -0.10903018 -1.2111354 -0.13339958 -0.4435615
0.1448828 0.03816871 -0.1560524 0.09863355 0.030239569 -0.0767797 0.22552201 -0.020703454

q2.q_net.fcs.0.bias f4 [64]
00000000: 4b2e db3b d68f 93be 50d1 dd3e 4206 45be
00000010: f413 953d cdc7 193f 3fc8 2abe 0da6 da3e
00000020: 495c 0dbf 3876 1ebf ea25 1b3f 6d04 9abe
00000030: 3ffe c339 96cc 093f a87b 1c3d 135f e7be
00000040: 470a dd3e 1add a03d 5165 85bd 9978 093f
00000050: 252c cabe 16e0 74be b629 dcbd bd40 b3be
00000060: 18b1 9e3e 1387 163f 02c9 f63e 5e4d edbe
00000070: 34f4 063f a8ca 08be a0bd 92be 7e33 ebbe
00000080: 6ffa 78be 3608 1e3f 73b1 9fbe 566b 193e
00000090: acf9 fcbe 0957 b7bd 8f4b 5f3e 2dc4 093b
000000a0: ff7a 0ebe bcc5 0dbf 1ca7 72bc a13c 063e
000000b0: 0571 8dbe 022b b1be a2f0 5e3e 3b8c b0be
000000c0: 68cf 853c f100 86be 1407 d33d 3d42 eb3e
000000d0: 7f48 123f ff0d 1c3e cea5 ea3e df4d e13c
000000e0: 36f7 c23c 297a 46bf 8cb2 4d3e 1072 273e
000000f0: 24dc 89bf 2c43 6e3e 9fef ab3e 8417 163e
0.006688868 -0.28820676 0.43323755 -0.19240668 0.072791964 0.60070497 -0.1667795 0.42704812
-0.5521894 -0.6189914 0.6060473 -0.30081502 0.00037382726 0.538278 0.038203865 -0.45189723
0.43171903 0.07854672 -0.06513465 0.5369964 -0.39486805 -0.23913607 -0.10750143 -0.3501033
0.30994487 0.58799857 0.48200232 -0.4634809 0.52716374 -0.13358557 -0.28660297 -0.45937723
-0.24314283 0.6173128 -0.3119007 0.14982352 -0.49409235 -0.089521475 0.21806167 0.002102147
-0.13914107 -0.55379844 -0.01481035 0.13109066 -0.2762529 -0.34603125 0.21771482 -0.34481987
0.01633425 -0.26172593 0.103040844 0.45948973 0.5714187 0.15239714 0.45829624 0.027502952
0.02379952 -0.7753015 0.20087641 0.16352105 -1.0770307 0.23267812 0.33581254 0.14657408

q2.q_net.fcs.1.weight f4 [64, 64]
00000000: 3caa 0c3e ca01 d33d 38e4 b93d 49e5 1dbe
00000010: 5c96 95be 6a99 3dc0 0737 68be 3695 713d
00000020: fa95 c6be 5547 8c3c 385c 983e 7037 13bf
00000030: 5bd1 d5be 20fa 28c0 b72c 2ebf 8830 d33d
00000040: 765a 303e dded 84bd acde 8d3c fa19 833e
00000050: 8934 853e 56b1 463e b823 ad3d 28a0 c03c
00000060: b6a1 2dbf bc94 a6c0 70d2 6abe bb7a 9d3e
00000070: 8cab aa3d bf42 29be 9a30 a63e 38b5 123e
00000080: 304e abbe 6006 4f3e 02e5 40be 3f3f cdbd
00000090: 1f90 d63d eddb 5cbe 5ab5 993e da6e dd3e
000000a0: 46b2 083e 73b3 23bf 5313 64bc 3468 483e
000000b0: 009b 53be b237 77be c0ac c63d e167 1abe
000000c0: e53f ccbe be5f dc3e dcec 88bd c700 02bd
000000d0: 1588 6c3d 3832 e23d 9e83 c03e 381e debd
000000e0: 8a44 003e 73c0 e3bf 6eb3 6e3c 598a a83d
000000f0: df0c a3bf 5837 813e 32cf ed3d c1aa d03e
00000100: 92c0 1c3e 1c6d b83e 18d5 923e 8520 fcbf
00000110: 868f 55bf 8680 05bf 8455 07c0 428e e03d
00000120: 6546 893f c215 c8be 8abc 273c 799a 36bf
00000130: 17be 47be 0198 99be bb6d 00bf 858a a2bf
00000140: a739 7c3d 2089 36bf 9ddd ed3c b085 ad3d
00000150: bf79 01be fbf2 603d d3bd b23e b5c8 2ebc
00000160: d947 92bd 9130 27bf de1b a3bf 25ed c9be
00000170: a903 40bc ea15 bc3d 8448 ec3e 111b 0f3f
00000180: 2223 583d 1c74 30bf 82a0 5c3f e8a3 20bf
00000190: 134f f8be 57d3 adbd 97f9 02bd fe84 6ebf
000001a0: 144e 96bf b703 f1be 83ac 38bf 39e4 773e
000001b0: da3e 2a3f 422e 51bf aa2a dfbe 9639 ff3e
000001c0: 1824 2fbf 0f49 9ebb 9288 19be a547 18bd
000001d0: 4df6 143e 99c2 efbe e8f8 9bbc b8a7 2fbf
000001e0: 96b0 e83e 6d85 40bf f610 28c0 e025 d8bf
000001f0: 993c 5bbf d3fd 033e 14f0 03c0 ef11 9d3d
00000200: 98a6 333e 9e51 14bf 3e71 2e3e 6d49 debd
00000210: ed4b d13a 2870 6a3e 90bb a13c 06b6 2e3e
00000220: be3f 8ebc bfed 76c0 8808 253e 8475 73bf
00000230: 343a be3d 3b21 8ebc e774 e6bc 36e3 14be
00000240: cef3 173e 25f9 ef3c 285b 1cbe cfe0 8a3e
00000250: 78df 8abf 082e d3bd b212 a03d 58c0 c4bd
00000260: f28d d1bd ecd1 3d3e 6c52 4a3e 88c0 90bd
00000270: c3e7 643e 54b8 e4be 6e4b 48bf 2d5e 20bf
00000280: 51ac 44be 8f37 8a3e 79a7 3a3e 8e00 b03c
00000290: 74b1 35bf 7a2d 0c3d c58d 5cbe 38ed d83c
000002a0: 999f 30bc 45b0 5dbf 120c 5b3e 3a2a ebbd
000002b0: 5d02 e6bc 7760 06c0 a45c 693d 5cae 743e
000002c0: 2914 38be d825 62be c121 dcbd 1253 893d
000002d0: 030e 453e 279a 383e ac1e 3d3e 02e8 993d
000002e0: e262 3f3d dcf5 c3bd 3d21 bc3d 819d 673d
000002f0: 6a73 4dbe 08f2 1f3e 6041 c23d bdd6 543e
00000300: 363a 83bd 5367 303d a2f6 debd 2ef4 cbbc
00000310: f2d5 fabd 1356 b83d 20f2 55bd 8b9b 5cbd
00000320: f763 18bc 7362 40bd d526 9ebc 9098 e53c
00000330: 9dd4 41bd efef 07be 6d19 b5bd 60be 97bd
00000340: 31c2 9b3d 326b 873d 2549 cebd 0b13 e1bd
00000350: 69e7 cebd 4083 85bc 6187 d4bd 243b f23d
00000360: 2f68 d23d 14d7 02bd 3397 483d 08f0 e53c
00000370: 926e cd3c c7c6 c13c e56d fdbc b47b db3b
00000380: 10f2 a6bd 3ac6 99bc e722 b2bc 891e 9abd
00000390: e858 70bd 868c 78ba b456 2fbb 89fd e1bd
000003a0: 9f1b cc3d c968 97bb b8b8 fcbd 6956 1fbd
000003b0: 3816 e2bc b57f e8bd 0ef6 6c3d ab3f d0bd
000003c0: f75c c6bd d686 9cbd 1533 dc3d ee85 bf3d
000003d0: d981 c6bd c9a5 00be 5066 b7bd ca2a 03be
000003e0: 824e 55bb 09f0 d2bc 4b2d 213d cd7e 843d
000003f0: 45ae 06be eba9 c5bc 45ce a9bc 9622 a73d
0.13736814 0.103030756 0.090767324 -0.15419497 -0.29216278 -2.9624887 -0.22677241 0.05898019
-0.38786298 0.017123858 0.29757857 -0.57506466 -0.41761288 -2.6402664 -0.6803698 0.10311991
0.17222008 -0.06490681 0.017318092 0.25605756 0.26016644 0.19403586 0.084540784 0.023513868
-0.67824876 -5.205656 -0.22931838 0.30757698 0.08333501 -0.16529368 0.32458955 0.14326942
-0.3345809 0.20217276 -0.1883736 -0.10021829 0.10476708 -0.2156827 0.30021173 0.43248636
0.13349256 -0.6394569 -0.013920623 0.19571 -0.20664597 -0.2414234 0.09700918 -0.15078689
-0.39892498 0.43041795 -0.06685802 -0.031739023 0.057746965 0.11044735 0.37600416 -0.108456075
0.12526146 -1.7793106 0.014569147 0.08229513 -1.2738303 0.25237536 0.11611785 0.40755275
0.15307835 0.36020744 0.28678203 -1.9697424 -0.83422124 -0.52149236 -2.1145945 0.109646335
1.0724608 -0.390791 0.010237822 -0.71329457 -0.19506107 -0.29998782 -0.50167435 -1.2698523
0.06157842 -0.71302986 0.029036338 0.084727645 -0.12644099 0.054919224 0.3491045 -0.0106679695
-0.0714261 -0.6530848 -1.2742879 -0.3943874 -0.011719623 0.09183867 0.46149075 0.55900675
0.05276788 -0.6892717 0.86182415 -0.627501 -0.4849783 -0.084875755 -0.03197631 -0.9317168
-1.1742578 -0.47073147 -0.7213823 0.24208154 0.66502154 -0.8171121 -0.43587238 0.49848622
-0.6841445 -0.0048304866 -0.14993504 -0.0371777 0.14547081 -0.46828154 -0.019039586 -0.68615294
0.45447224 -0.7520359 -2.6260352 -1.6886559 -0.8563934 0.12889795 -2.0615282 0.07669436
0.17544019 -0.5793704 0.17035386 -0.108538486 0.0015968062 0.22894347 0.019742757 0.17061624
-0.017364379 -3.8582609 0.16116536 -0.9510119 0.09288445 -0.01734983 -0.028131915 -0.14539799
0.14839098 0.029293606 -0.15269148 0.2712464 -1.0849447 -0.10311514 0.07816066 -0.09606999
-0.10232152 0.1853711 0.19758004 -0.070679724 0.22354035 -0.4467188 -0.78240097 -0.626437
-0.19206358 0.26995513 0.18227948 0.02148464 -0.70973897 0.034223057 -0.21538456 0.026480302
-0.010780239 -0.8659709 0.21391323 -0.114826635 -0.028077299 -2.0996377 0.056973115 0.23894638
-0.1797644 -0.22084749 -0.107486255 0.067052975 0.19243626 0.18027554 0.18468732 0.07514955
0.04672516 -0.09568378 0.09186027 0.05654669 -0.20063558 0.15619671 0.094851255 0.20785041
-0.06407587 0.043067288 -0.10886885 -0.024896707 -0.12247838 0.09000792 -0.05223286 -0.053859275
-0.009301177 -0.04696889 -0.019305626 0.028026849 -0.047321904 -0.13275121 -0.0884274 -0.07409358
0.076053984 0.06612243 -0.10072545 -0.1098996 -0.10102732 -0.016297936 -0.10377384 0.118276864
0.10273778 -0.031943396 0.04897232 0.028068557 0.025077138 0.023654355 -0.03093619 0.006698096
-0.081516385 -0.01877128 -0.021745158 -0.07525355 -0.058678538 -0.0009481389 -0.002675456 -0.11034686
0.09966206 -0.0046206457 -0.1233992 -0.038900767 -0.027598485 -0.11352483 0.057851844 -0.10168394
-0.096857004 -0.076429054 0.107519306 0.09351717 -0.09692735 -0.12563242 -0.089550614 -0.12809291
-0.0032548015 -0.025749223 0.039349835 0.06469498 -0.13152416 -0.024128875 -0.02072824 0.081608936
