examples/rl/models/sac/sac_model_quadrotor_3D_stab.pt (torch, 966510 bytes, 73 tensors)

actor.net.fcs.0.weight f4 [128, 12]
000000 3d 63 b4 3e 55 0a 99 3d 75 26 14 3f 97 af 4f 3e
       0.35231963 0.07472674 0.5787118 0.20281826
000010 f5 f6 fd bd 6f bb 75 bf d0 ef 40 bf e8 eb c3 be
       -0.12400619 -0.95989126 -0.75365925 -0.3826592
000020 2c 49 80 bf 75 1e 06 3e 11 ea 8a 3d 0e ca 5e be
       -1.002233 0.13097556 0.06782926 -0.21756765
000030 a5 a1 07 3e e4 5a 83 3d 35 92 99 3d ba f5 3a be
       0.13245256 0.064138204 0.0749859 -0.182578
000040 dd 72 37 3f 6b 42 dd 3f 45 3a 6d 3e 06 1c 82 be
       0.7165964 1.7285894 0.2316676 -0.25412005
000050 9e 26 f0 be d8 b3 f6 3d c3 3a 9e bd 13 a7 2a be
       -0.46904463 0.12046021 -0.07726052 -0.16665296
000060 6e 30 59 3f 7b 08 e7 3e e3 22 83 bf d2 d0 2c bf
       0.8483952 0.45123658 -1.0245022 -0.67506135
000070 4d 26 53 3e 02 ea 09 3f 23 94 2d 3f eb e2 39 3f
       0.2062008 0.5387269 0.67804164 0.72611874
000080 39 99 0f 3f 3e 26 15 3d 41 ca b5 3d f6 3e ac 3b
       0.56093174 0.036413424 0.088764675 0.005256529
000090 2c 73 d2 be 7c 64 25 be 8a 80 2c 3e c7 ab 80 bd
       -0.41103494 -0.16151613 0.16845909 -0.06282764
0000a0 c5 c5 d0 3d 72 43 23 bf 78 6b 84 bf 8b 11 33 3f
       0.101939715 -0.6377479 -1.0345297 0.69948643
0000b0 e2 58 83 3f 09 8e ca 3d 11 27 62 bc 7e ad b4 3c
       1.02615 0.09890372 -0.0138032595 0.022055384
0000c0 e0 6c ba 3e da 61 85 3e f2 f5 d9 3c cb ca 80 3d
       0.3641119 0.26051217 0.026606534 0.0628868
0000d0 16 e4 d4 be 61 65 c8 bf c5 4d ba bf 73 4d 95 3e
       -0.41580266 -1.5655938 -1.4554983 0.29160652
0000e0 06 57 0c be e7 94 5d be be 19 e3 3d 9a a8 09 be
       -0.13705072 -0.21638833 0.11088894 -0.13443223
0000f0 2f 05 82 3d 9d 40 50 bf 6d 7f ac 3c bf 7b 7a 3d
       0.06348645 -0.8134859 0.021056855 0.06115317
000100 32 01 d0 c0 62 d1 87 3f 91 9a 3d 3e 59 3a 45 be
       -6.500146 1.0610774 0.18515994 -0.19260539
000110 05 aa 78 3e 01 59 8f bc fa 60 02 3d b7 5a 9c 3c
       0.24283607 -0.017498495 0.031830765 0.019086225
000120 c8 6c 49 bd 9c eb 3c bd de 80 55 3c 78 e6 ba 3d
       -0.049176008 -0.046123132 0.013031213 0.0912599
000130 02 55 8c bf ce 92 88 3b 2a 1b 28 bf f3 4b 4f bf
       -1.0963442 0.004167891 -0.6566645 -0.80975264
000140 4b 8c 81 bf 03 87 45 3d 8d 44 63 bd f0 8d 02 3d
       -1.0120939 0.04822446 -0.055485297 0.031873643
000150 da 9a d3 3e e6 e9 eb be 17 f3 0a bf f7 a5 4e 3e
       0.4132908 -0.46076888 -0.54277176 0.20180498
000160 1c 94 6e bf e9 34 5b 3f f8 3e 88 3f ad 4d 2a 3f
       -0.93194747 0.8562761 1.0644217 0.66524774
000170 28 a3 0d bf d7 09 27 3d c2 74 1a 3e 00 29 a0 3e
       -0.5532708 0.04078087 0.15083602 0.3128128
000180 b3 82 0e bf ed 37 f7 be 97 23 82 3e de 50 88 3e
       -0.5566818 -0.48284855 0.25417778 0.26624197
000190 dc 2e 11 3f 7c 5c 47 3f e4 25 ac bf 70 ae dd bf
       0.56712127 0.77875495 -1.3449063 -1.7318859
0001a0 9b a5 d3 3e 4d 28 ff bd f0 78 71 bd 16 44 49 3e
       0.41337284 -0.12458859 -0.058953226 0.19654879
0001b0 6d b8 8a bf 20 55 d8 be 13 0e 24 3f 57 cc 0d 3e
       -1.0837532 -0.42252445 0.64083976 0.1384748
0001c0 b4 9b 0f bf e8 f9 16 3f 4a 63 9c be 03 5b 58 bf
       -0.5609696 0.58975077 -0.30544502 -0.8451387
0001d0 84 d8 87 bc 31 d4 d5 bc 47 b6 97 bb 80 87 f3 bc
       -0.016582735 -0.026102157 -0.0046298834 -0.029727697
0001e0 4c 7f 1d be 7e f2 a7 be cc 10 99 be f8 93 f2 bd
       -0.15380591 -0.32802194 -0.29895627 -0.11844629
0001f0 4d 9b 69 bf 5e 72 5c 3f 69 4e 69 bf b4 64 f9 be
       -0.91252595 0.8611201 -0.9113527 -0.48709643
000200 aa 67 ab be 9c aa 8e 3d dc 80 bc bd f6 6f 09 bd
       -0.33477527 0.06966135 -0.092042655 -0.03355404
000210 d5 92 09 be 5c 70 c0 3c 46 11 11 bf 29 5d 62 bf
       -0.13434918 0.023491077 -0.5666698 -0.884234
000220 1a a4 78 be cc b6 57 bf 28 de 15 40 3b 91 92 bf
       -0.2428135 -0.842633 2.3416843 -1.1450571
000230 78 0c 8a bd 4f 3e d1 3e f0 5e 80 bd cf 2c d1 3d
       -0.067406595 0.4086785 -0.06268108 0.10213625
000240 7e 2b d8 be d3 1d c6 3e 56 38 07 3f 6d a7 22 3f
       -0.42220682 0.3869463 0.52820337 0.6353672
000250 2c 45 9d 3d ee a5 9d 3f 46 ed e9 bd 6e d1 57 3f
       0.07679209 1.2316263 -0.114222094 0.8430394
000260 ef c5 c9 be 8e ab 18 be a9 a0 e6 3c 13 e1 98 3d
       -0.39408824 -0.14909193 0.02815278 0.074648045
000270 2c 19 a7 bf 3c 66 5c bf 35 53 99 3f a5 5e 81 3f
       -1.3054557 -0.860935 1.1978518 1.0107008
000280 ce 2c c4 be a3 93 0a bf eb 1d 20 c0 db 79 ca bf
       -0.38315433 -0.54131526 -2.501826 -1.5818437
000290 b0 36 ae be 2a b8 68 be 88 bd 18 be 4c fb 21 be
       -0.34026098 -0.22726503 -0.1491605 -0.15818518
0002a0 c5 45 09 3f e0 d8 ef 3e 90 a2 b3 3d e9 34 77 3e
       0.53622085 0.4684515 0.08771241 0.24141277
0002b0 0e 65 bf bf 4a 20 49 bf 85 2c c1 be 13 66 9d bf
       -1.4952714 -0.78564894 -0.37729278 -1.2296776
0002c0 be bb 2a bf 6a ba 89 be 56 77 0a 3e e2 17 9c 3d
       -0.6669272 -0.26900035 0.13522086 0.07621743
0002d0 68 ab 8e 3e 45 ce 0e 3f f7 93 9a 3f e4 12 56 3f
       0.27865148 0.5578349 1.2076405 0.83622575
0002e0 1d 3d 6b bf 72 ad d8 bf 39 28 d2 bf 73 39 8f 3f
       -0.91890126 -1.6927931 -1.6418525 1.1189407
0002f0 24 b2 76 3c 9e b5 a9 bd 2d de e3 3d e7 8c e7 bc
       0.0150571205 -0.08286594 0.11126361 -0.02826543
000300 a4 d0 eb be 6c 2d af be f6 39 c0 3e d8 fa ba bc
       -0.46057618 -0.34214342 0.3754422 -0.02282469
000310 8d 20 ca 3e 81 73 9c 3f 07 32 a9 3e 1c 53 89 bf
       0.3947796 1.2222749 0.3304598 -1.0728488
000320 a0 60 17 bf 0e 68 a0 3c fc ec 0a be bf a0 02 be
       -0.59131813 0.019580867 -0.13566965 -0.12756632
000330 2a ed 6d be 0b 5c bf bc 9d 9a ce 3d 50 48 21 bd
       -0.23235002 -0.02335932 0.10088084 -0.039375603
000340 95 d7 b1 be 02 2c 3b bf 38 21 26 40 a7 a5 16 bf
       -0.3473479 -0.73114026 2.5957775 -0.58846515
000350 2c 83 d3 3c ed 9f 8b 3e 65 34 80 bc cc 11 73 3d
       0.025819384 0.2727045 -0.015649984 0.059343144
000360 b3 de 98 bd b9 d4 19 bc 66 41 e2 be 0e 06 e0 be
       -0.074643515 -0.009389096 -0.4419052 -0.4375462
000370 8a 7e 1e bf 99 a4 fa be ad ac 38 3f 62 ca 12 40
       -0.61911833 -0.48953703 0.7213848 2.2936025
000380 6c ce 91 bf 41 38 96 bd b5 52 e4 3e 16 c0 64 be
       -1.139112 -0.07334948 0.4459435 -0.223389
000390 c3 24 59 3f d7 c2 58 3f 5d 8a d4 3d a2 5a 3c be
       0.8482172 0.846723 0.10377953 -0.18393949
0003a0 a5 70 15 3f aa a8 e4 3e 17 75 78 3f 58 3f df 3f
       0.58375007 0.4465993 0.97053665 1.7441206
0003b0 7c 20 12 3f 3b 72 f3 3d 2b c8 3f 3e 1f 61 0d bd
       0.5708082 0.11887022 0.18728702 -0.03451645
0003c0 90 38 4e 3e b5 eb 38 3e c1 50 1a be 7e f3 12 3e
       0.20138764 0.18058665 -0.15069868 0.14350697
0003d0 31 14 47 3f 91 cc a9 3f b6 ca a5 bf 37 59 af 3f
       0.77765185 1.3265554 -1.2952487 1.3699101
0003e0 8d fc 11 bd 4e 07 5e be e1 c9 04 3e df 84 66 bb
       -0.03564124 -0.21682474 0.12967636 -0.0035174412
0003f0 7f 73 03 bd 41 a8 ba bd 12 84 de be 52 a4 bd be
       -0.032092568 -0.09114123 -0.43460137 -0.3703943

actor.net.fcs.0.bias f4 [128]
000000 36 9e 9c bf aa 29 b3 bf b7 32 91 be 11 01 f9 bf
       -1.2235782 -1.399709 -0.28359005 -1.945345
000010 da 2c d0 3e dd 54 99 bf 98 9b 19 3e 87 13 ab bf
       0.4065922 -1.1979023 0.1500076 -1.3365334
000020 ac 6c 87 bf fd b8 c9 bf 1d ec 1b 3f 6e 64 04 c0
       -1.0580039 -1.5759579 0.60907155 -2.0686297
000030 57 ca 40 bf 2b cf 53 be 4a a2 15 bf 2f 5f 31 3f
       -0.75308746 -0.20684497 -0.5845076 0.69285864
000040 ba 6d 96 bf 95 9c 85 bd 83 0f 4f 3d fb 1b db be
       -1.1752236 -0.06524006 0.050551903 -0.42794785
000050 66 5e bf bf cd ce 3c bf 21 3e ce bf a6 60 82 bf
       -1.4950683 -0.7375305 -1.611271 -1.0185745
000060 a1 9e 05 c0 4c ae c4 bf 48 0f a1 bf fe f1 d4 bf
       -2.087807 -1.5365691 -1.2582788 -1.663635
000070 fc 69 5e bf 29 06 8b bf 43 61 1c bf cc a4 0b c0
       -0.8688047 -1.0861255 -0.6108591 -2.1819334
000080 aa 56 7d bf 72 92 a9 bf 73 76 c9 bf 23 e9 35 3e
       -0.98960364 -1.3247817 -1.5739273 0.17764716
000090 ce 89 b7 bd 6b 8c ed 3d 30 e6 a2 bf 89 21 88 bf
       -0.08961831 0.11599048 -1.2726498 -1.0635234
0000a0 16 19 b2 bf d9 99 4f 3f db f7 5b bf b1 7e 74 bf
       -1.3913906 0.8109413 -0.8592507 -0.95505816
0000b0 2a ac 18 c0 cd cb a9 bf 0e d8 bd bd c1 cd 2e bf
       -2.385508 -1.326532 -0.09269725 -0.68282706
0000c0 ff 18 10 c0 92 3c e0 bd a6 91 76 3e 07 c3 25 bf
       -2.2515256 -0.10949053 0.24078998 -0.64750713
0000d0 08 f9 01 3f 99 c3 b4 bf 5b f9 eb be e5 47 4c bf
       0.50770617 -1.4122192 -0.4608868 -0.797972
0000e0 7b c1 7b bf 4c 9d ad bf 59 df 00 bf 9a cc bd 3e
       -0.983421 -1.3563628 -0.503408 0.3707016
0000f0 77 75 2f bf a8 49 54 3f e8 1d 6d 3e d6 69 90 bf
       -0.6853861 0.8292489 0.2315594 -1.1282299
000100 45 29 e9 bd 99 1a 09 3f 0b 18 51 bf bd 52 8d bf
       -0.11384825 0.5355621 -0.8167731 -1.1040875
000110 aa 8f bd 3d f2 ca 3e 3f 9a 54 d6 be 19 a8 f6 3d
       0.09255917 0.7452842 -0.4186142 0.12043781
000120 c1 ed 5d be ee eb 9f bf 32 ef 94 bf 59 af 28 c0
       -0.21672727 -1.2493875 -1.1635497 -2.6357024
000130 98 85 05 3f a5 60 d4 bf 3c 7e fd bf ac 87 7e 3d
       0.5215697 -1.6591994 -1.9804149 0.062141106
000140 3d 02 dc bf f6 54 5a 3d c3 cc a0 bf 1c d5 a9 bf
       -1.7188183 0.05330368 -1.2562488 -1.3268161
000150 9f 9b 16 3f fd 21 ba bf 9e b8 24 bd c0 d4 67 bf
       0.5883121 -1.4541622 -0.040215127 -0.90559006
000160 3a 6d d5 3e 88 8c c1 bf 1f 51 38 bf 97 c7 a6 bf
       0.41684896 -1.5121012 -0.7199878 -1.302966
000170 5b d9 d0 bf 39 fb 77 be 5c 2f 2a bf 90 b5 44 bf
       -1.6316332 -0.24216928 -0.66478515 -0.7683954
000180 5f cf ba be 1e 5b b3 bf 0b b4 39 bf 54 25 dd be
       -0.36486337 -1.4012182 -0.7254035 -0.43192542
000190 18 84 51 3d 47 9d 2b bf 3f ae c2 bf d4 39 82 3e
       0.051151365 -0.6703686 -1.5209426 0.25434744
0001a0 c8 6d dd bc 61 89 13 be ff 2c af be 18 b7 bf bf
       -0.027029887 -0.14407875 -0.34214017 -1.4977751
0001b0 58 31 3e be 2d ea 62 bf f2 f9 db be 96 a4 7a bf
       -0.1857351 -0.88638574 -0.4296413 -0.9790739
0001c0 81 5e 6c bf 87 96 3b c0 54 76 1e 3d a2 1d 4a be
       -0.923317 -2.9310625 0.038687065 -0.19737867
0001d0 df ed bf be 87 31 4d c0 53 61 f6 be f7 7a 9a bf
       -0.3748617 -3.206148 -0.48121127 -1.2068776
0001e0 7a 75 ed bf 84 3b f6 bf fa a6 e1 bf f9 93 0f c0
       -1.8551476 -1.9236913 -1.7629082 -2.2434065
0001f0 45 65 d1 bd 77 ce d8 bf b5 b1 83 be f2 3b 11 bf
       -0.10224394 -1.6938008 -0.25721517 -0.56732094

actor.net.fcs.1.weight f4 [128, 128]
000000 ca c7 b8 3d 12 3e 1e 3d 8a 8e c4 3d b5 66 cb bc
       0.09022482 0.038633414 0.095975 -0.024829248
000010 37 cb be bd 59 1b d9 bd 88 6c d5 bd eb a3 bb 3b
       -0.09316104 -0.10600919 -0.10421091 0.0057263277
000020 50 67 d4 3d 97 f8 44 3d 2e e9 c7 3d 07 e7 bd bc
       0.10371268 0.048088636 0.09761272 -0.023181451
000030 1b 2b e5 3d 79 10 1b bc 20 c5 a3 3d bf b2 c1 bd
       0.11189862 -0.009464377 0.07996583 -0.09457921
000040 ef 5e 70 3c da 3d 9e bd 7d d6 fc bb ad f1 98 3d
       0.014671071 -0.07726641 -0.0077159987 0.07467971
000050 56 e9 44 3d 7f cb c0 bd 5d 7b fa bd c8 a6 56 bd
       0.04807409 -0.09413814 -0.12230561 -0.05240515
000060 20 5c 23 be d1 5d d3 b9 89 c9 b1 3d 57 b3 e3 3d
       -0.15953112 -0.00040314955 0.08681018 0.11118191
000070 a0 05 af 3d cc 3b 82 3d 16 4b ff 39 d4 3d de 3d
       0.08545995 0.063590616 0.00048693334 0.108516365
000080 8c 21 9a 3d 51 96 0f bd be 00 76 bd 27 7a e3 3c
       0.0752593 -0.035055462 -0.0600593 0.027768208
000090 60 30 ea 3a db 49 86 3d 70 9b ff bc 72 ce af ba
       0.00178672 0.065570556 -0.031202048 -0.0013412966
0000a0 d8 4e e8 3d cf 31 21 3d 23 5f 9b 3c 8b 13 80 3d
       0.11343163 0.03935414 0.018966263 0.062537275
0000b0 64 20 64 be b8 11 e2 bd 27 eb 09 be 7f d8 0f bd
       -0.22277981 -0.11038536 -0.1346861 -0.035118576
0000c0 44 68 4e 3c 6f fd 80 bd 61 da 1e be 5b 11 a2 bd
       0.012598101 -0.062983386 -0.15512992 -0.079134665
0000d0 36 ec 0d 3e 0a c7 e0 3b 79 23 83 3d dd 96 34 bd
       0.13859639 0.006859665 0.0640325 -0.044089187
0000e0 56 77 83 bd 7f 00 3f bc fd cf b2 3c f8 6c 08 3d
       -0.06419246 -0.011657833 0.021827692 0.033307046
0000f0 c1 40 f7 3c 11 d9 8a 3d 0e 96 30 bc 66 d5 e0 ba
       0.030182244 0.067796834 -0.010777963 -0.0017153441
000100 6e 21 0a 3c 38 b7 7d bd 60 3d bf 3d 03 1e 56 bc
       0.008430822 -0.06194231 0.09337878 -0.013068679
000110 37 6b 92 bc db 63 98 3d c9 ed 7d bd 13 ea 63 3d
       -0.01787339 0.07440921 -0.061994348 0.055643152
000120 47 7c a1 bd e2 dc 41 3d 7a 67 1d bd 0e 89 69 bd
       -0.07885032 0.04732979 -0.03842876 -0.05701547
000130 d6 f9 33 bd 8c bd 82 3d 44 d7 91 bd 99 a0 04 bd
       -0.043939434 0.063838094 -0.07121137 -0.03237972
000140 c5 f2 0e 3e 63 0f df bd 00 9b eb bb 9f 86 a1 3d
       0.13959797 -0.10891607 -0.0071901083 0.07887005
000150 d3 a1 2c bd 24 7f 12 bd cc 84 04 3e 8d 62 d3 3c
       -0.042146515 -0.035765782 0.12941283 0.025803829
000160 68 23 02 bd 52 73 d2 3c 56 78 19 bd df 92 2d 3d
       -0.031772047 0.025689755 -0.037468277 0.042376395
000170 56 89 e4 3c 83 86 42 bd f1 6e 24 3e d3 66 8d 3c
       0.027897518 -0.04749156 0.16057946 0.017260944
000180 70 7f dc bc c7 ae 09 3e f2 d6 c3 3d 3b f7 50 ba
       -0.026916236 0.13445579 0.09562482 -0.00079714105
000190 b0 80 80 3b 2b 4b 99 bd 06 d5 03 bd e7 be 1e 3d
       0.0039215907 -0.0748504 -0.032185577 0.038756277
0001a0 19 b4 cb bd ac c1 e0 3b ab 5b c3 bd 6d 31 68 3d
       -0.0994646 0.006859025 -0.09538969 0.05668776
0001b0 cf d4 78 bc b9 04 1c 3c c8 d3 d0 3d 36 8d 60 bd
       -0.015187456 0.00952261 0.10196644 -0.05482217
0001c0 a8 a7 1f be 5a 23 95 39 de 77 8d be 5b 78 91 bb
       -0.155913 0.00028445834 -0.27630514 -0.0044393963
0001d0 7c a0 76 bd e7 40 80 bd 13 b8 01 bb 17 c1 57 bd
       -0.060211644 -0.06262379 -0.0019793555 -0.05267438
0001e0 2f 97 06 3e 8b 66 58 be 7e f0 1a 3c 2b 84 b9 3e
       0.1314361 -0.21132867 0.009456752 0.3623365
0001f0 3c ba 14 3c 14 a4 8a 3d 9d ae d7 bd 11 d6 6e 3d
       0.009077605 0.06769577 -0.10531352 0.05830962
000200 6f 13 0f be 86 77 a8 bb 67 cb 25 3d 3b cd 00 3e
       -0.13972257 -0.0051412014 0.040477183 0.12578289
000210 30 40 9f bd 7d f2 1e 3e 09 12 f3 bd f9 40 cf 3d
       -0.07775915 0.1552219 -0.11868674 0.101198144
000220 37 1c 8f bd dc 5f f7 bc ab 80 3c be 0a 44 d2 bd
       -0.069878034 -0.030197076 -0.18408458 -0.10266884
000230 3f 33 f8 bc 56 0d b5 bd 04 ef 99 39 f1 c4 75 3e
       -0.030297874 -0.08840434 0.00029360515 0.24000908
000240 d3 f9 dc 3d 33 46 03 bd 3a b9 b0 bd e6 c4 f5 bd
       0.10789838 -0.03204937 -0.08629079 -0.12000446
000250 ad ee 80 3b 9f 88 ba bc 1c dc ac bd a0 20 9b bd
       0.0039347024 -0.022770224 -0.0844042 -0.07574582
000260 ba 12 ec 3d 21 87 ea bd 51 79 bf 3d ea d7 43 3d
       0.11527009 -0.11451555 0.09349311 0.047813334
000270 c5 7e 8e 3d 4b b5 19 be 23 12 04 3d 64 2e ed bd
       0.06957773 -0.15010564 0.03224386 -0.11581114
000280 90 d5 f1 b9 8c 40 12 3d 16 5c 87 3c 7a 3d 61 3c
       -0.00046126219 0.035706088 0.016523402 0.013747567
000290 c6 36 5d 3d 72 20 ae 3c b8 2e 57 bd d2 da 52 3d
       0.054007314 0.021255706 -0.05253479 0.051478215
0002a0 ba e0 77 bc de eb cc 3c 9e b7 ee 3c 30 f1 73 be
       -0.015129263 0.025014814 0.02914029 -0.23822474
0002b0 30 42 91 3d 70 3d 29 be ec 50 5e 3e b7 6c 28 be
       0.070927024 -0.16527343 0.21710557 -0.16447721
0002c0 8c 2e 03 be 52 39 01 be 96 75 94 bc 28 75 89 3d
       -0.12810725 -0.12619522 -0.018122476 0.06711799
0002d0 a0 66 75 be 2a c6 4d 3d 8d 0a e1 3c 1b da 01 3e
       -0.2396493 0.050237812 0.027470851 0.12680857
0002e0 0c 79 91 3d 10 a4 58 3d 9b ef 27 3d 3c 91 00 3e
       0.07103166 0.052890837 0.04099999 0.12555403
0002f0 70 7b 9f 3c 9c fd a4 bd 1c 01 41 bd e7 f0 ad bd
       0.01946804 -0.08056185 -0.0471202 -0.08493214
000300 d5 30 0d bc a9 6d 83 bc 7f 9f a7 bb 7a 82 35 3e
       -0.0086175995 -0.016043501 -0.005115449 0.17725554
000310 ac 78 7b bd b2 56 ab 3d 1e 35 5b 3e 88 33 51 3d
       -0.06139438 0.08366145 0.21406981 0.051074535
000320 67 dd e1 3d 2a 7b e1 3d fd f8 7b bc f3 84 a0 3d
       0.11028557 0.1100982 -0.015379188 0.07837858
000330 79 33 a8 bd e7 43 45 bd 17 b0 bb 3c 2d e3 ee 3b
       -0.08212943 -0.04816046 0.022911115 0.007290265
000340 40 41 de bc f1 97 f2 3d 49 1d 7d be 29 0f 29 3e
       -0.027130723 0.11845387 -0.24718203 0.1650969
000350 d4 62 96 bd 9a d9 16 3e 4d 48 28 3d d2 31 89 bc
       -0.07343069 0.14731446 0.041084576 -0.016747389
000360 ff 1b 51 bd fe 94 1a 3e 46 1b 61 bd f2 d7 b3 bc
       -0.05105209 0.15095899 -0.05495765 -0.021953557
000370 7b 31 db 3d bd c4 ec bd 3f 9d 91 3d b9 cb ac 3a
       0.10702797 -0.11560962 0.071100704 0.0013183273
000380 5f be ea bd 99 65 02 3e 8e e4 7a 3d e0 f1 cb 3d
       -0.11462092 0.12734069 0.061253123 0.09958243
000390 b5 a4 23 bd f1 99 06 bb ee 37 87 3b 9f a4 65 bc
       -0.039952 -0.0020538534 0.0041265404 -0.0140162995
0003a0 2a 0c d5 bc 4a dd 0e 3d 22 4e 9b bd f8 cf 90 3c
       -0.026006777 0.034879006 -0.07583262 0.017677292
0003b0 47 91 47 bd cc 45 a8 3d 11 41 cd 3c 1f 17 26 be
       -0.04872253 0.08216438 0.02505544 -0.16219757
0003c0 9a f6 e7 bd 3b ff 25 3e dd fd 55 bd 33 9c 2f 3c
       -0.113263324 0.16210644 -0.052244056 0.010718393
0003d0 83 e1 42 bc ba 33 3f be 41 99 01 3e ad 9b 82 3d
       -0.0118945865 -0.18672076 0.12656118 0.06377349
0003e0 1e 39 e5 3d 1b 90 de bc 3c 52 a4 3c 17 b6 ad 3d
       0.11192535 -0.027168324 0.020058744 0.084819965
0003f0 e6 29 d0 bc be fe 27 be 87 bf d7 bc dc 1f ad bc
       -0.025410604 -0.1640577 -0.026336445 -0.021133356

actor.net.fcs.1.bias f4 [128]
000000 4e db 02 3d b4 d6 83 3d f3 54 b0 bd f3 82 fb bc
       0.031947426 0.06437436 -0.08609953 -0.03070209
000010 37 a2 67 be ce 80 ca bd 40 1a 08 3d 33 56 81 3d
       -0.22620474 -0.09887849 0.03322816 0.06315269
000020 da f5 a6 be 54 5d 17 be 42 f4 b4 bd fb 05 48 bc
       -0.32609445 -0.14781696 -0.08835651 -0.012208457
000030 15 18 d2 3c 22 e1 f4 3c 0f a9 ad 3d 04 f8 00 bc
       0.025646249 0.029892508 0.08479511 -0.0078716315
000040 84 ee e7 bc 51 26 f1 bc 43 df e9 bd d3 35 00 3c
       -0.028311975 -0.029437216 -0.11419537 0.007825333
000050 eb 2f 4e 3d 5f a9 6c 3d 41 8f 4c 3e 69 ea 86 3d
       0.050338667 0.057778712 0.19976522 0.06587679
000060 20 2d 64 3d 31 5f 25 3e bb 06 20 3e 51 e7 d8 3b
       0.055707097 0.16149594 0.15627567 0.006619372
000070 21 63 cf bd 69 7b 33 bd 0d 1e 65 be 88 ef e3 b9
       -0.10126329 -0.043818865 -0.22374745 -0.0004347528
000080 1b 98 98 3e 22 06 ab 3c 0d 02 2a be c2 20 ab bd
       0.29803547 0.020876948 -0.16602345 -0.083558574
000090 1b 42 8f bd 47 91 ee bb f4 41 f1 3e 57 1a 73 3d
       -0.069950305 -0.007280502 0.4712063 0.05935129
0000a0 e1 64 1c bd 01 96 9c bd 58 1d bf bd ce 58 4d 3d
       -0.038182143 -0.076457985 -0.09331769 0.05013352
0000b0 d6 35 ac bd 69 a0 91 be 6b ba 8b 3e 05 8e 54 bc
       -0.08408706 -0.28442696 0.27290663 -0.012973313
0000c0 14 ac e1 3c f0 18 14 3c 3e 9d 8f 3e 8e 05 c1 3d
       0.027547874 0.009039149 0.28049654 0.094248876
0000d0 9e 6f 4b be 22 d0 41 3e 56 6a c9 bd 84 7f 55 bd
       -0.19866797 0.18927053 -0.09834735 -0.05212356
0000e0 45 4a ba 3d bf 04 08 3c 42 40 69 3d 0f ca 77 bc
       0.09096197 0.008301913 0.056946047 -0.015123858
0000f0 45 74 26 be 59 ed d3 3b b7 c2 21 3e f7 38 65 bd
       -0.16255291 0.006467503 0.15796934 -0.05596253
000100 d2 64 93 3a ba 78 6a bc 86 dc 83 bc 13 ae 64 3c
       0.0011245257 -0.01431101 -0.016096365 0.013957518
000110 ab 0b df 3d a3 f1 11 3c 82 6e 25 bd 34 5c 0e 3e
       0.10890897 0.008907708 -0.04038859 0.1390236
000120 e5 df 0e bd 34 97 88 3c 11 fd 89 3d 8d 6e 2f 3e
       -0.03488149 0.016673662 0.06737722 0.17132016
000130 84 68 f6 be 80 3e 9b bc 63 d6 9b be b3 c2 93 3e
       -0.48126614 -0.0189507 -0.30437002 0.2885948
000140 80 09 6f bd 69 0e 15 bf cd 3b 29 3d 46 df 1f bc
       -0.05835867 -0.58225113 0.041316796 -0.009757822
000150 a1 79 a3 bc 59 fc 1c 3d 92 07 e4 3c 23 76 62 bc
       -0.019955458 0.038326595 0.027835641 -0.013822111
000160 46 bd 30 bc f5 01 ee be ff 4a 08 bd af ab d9 3b
       -0.010787314 -0.46485868 -0.033274647 0.0066427807
000170 d3 d4 a2 bd cb 35 46 3e 37 e8 e9 bd 89 6d 35 bd
       -0.07950749 0.19356458 -0.114212446 -0.044293914
000180 2a 1b 70 bd 28 4f 68 3c 85 e5 a3 3c 49 fc ee 3c
       -0.058619656 0.014179029 0.020006904 0.029173033
000190 3c 0d 00 be c3 19 6e bd 2a 37 61 3d d0 9a 93 bc
       -0.12505049 -0.058130037 0.05498425 -0.018018156
0001a0 25 0f 50 bc 67 a2 4f 3c f1 39 34 3f ee fd c6 3d
       -0.012698923 0.012672997 0.7040091 0.09716402
0001b0 38 4d 9c 3c 92 bc 63 bd f9 9e da 3c 67 32 4e 3b
       0.01907979 -0.055599757 0.026687132 0.0031463148
0001c0 ad 4d 9d bc 01 89 8d 3b 65 5e a0 3d 3f 01 26 3d
       -0.019202078 0.0043193107 0.07830504 0.040528532
0001d0 6d be ca bc ff 7f 92 be 5f f9 6b 3c 83 d6 f6 3c
       -0.024749005 -0.28613278 0.014402716 0.030131584
0001e0 0b 0c d9 3d b9 95 87 3d 2b ae 7f 3c 11 1c 1a 3e
       0.10598 0.06620354 0.01560549 0.15049769
0001f0 15 cb 71 3d 42 a3 bb 3c b0 eb ad bd 5f c6 26 3d
       0.059031565 0.022904996 -0.084922194 0.040716525

actor.mu_layer.weight f4 [4, 128]
000000 f9 78 a2 bb e5 f0 f5 ba 6b 4b cc ba f9 43 7e 3b
       -0.0049582687 -0.0018763809 -0.0015586441 0.003879784
000010 dc 05 5e bc f9 cf 9b ba cc 2e c2 3b bc 5a b7 3b
       -0.013551202 -0.0011887542 0.005925989 0.005595533
000020 e7 8f c4 3e f6 e4 8a bc a6 f9 0d ba df 7c 17 3c
       0.3839104 -0.01695488 -0.00054159237 0.00924608
000030 12 5b e4 ba da ee 1a bc d0 10 f2 3a b1 ba 21 3c
       -0.0017422161 -0.009456361 0.0018468145 0.009871171
000040 1e d7 18 bc 18 8c 3d b9 76 a4 06 bc 23 9c b5 3b
       -0.009328632 -0.00018076634 -0.0082179215 0.0055422946
000050 23 00 89 bb d1 75 a2 ba 20 e8 01 3b d9 8e 01 bc
       -0.0041809245 -0.0012394731 0.0019822195 -0.007907593
000060 b9 1d 05 bc 10 90 b1 bb 83 7e b8 3b 25 1e 4e bc
       -0.008124762 -0.005418785 0.0056303157 -0.012580429
000070 dd 57 91 bb f3 ab f9 3b fa b1 ff 3a 02 35 38 bc
       -0.004435523 0.007619375 0.0019507997 -0.011243107
000080 b1 43 45 bd ce c3 6d 3a 30 8d 92 ba 10 dc c3 3b
       -0.04816026 0.00090700097 -0.0011180993 0.005977161
000090 c7 29 4f bb f5 6f bd bc 92 7e da bc c6 c3 a7 bb
       -0.0031610595 -0.023124674 -0.026671682 -0.0051197736
0000a0 c5 f5 33 bb 3e aa 0f bc 2b 6f de 38 f5 53 b0 3c
       -0.0027459722 -0.008768616 0.000106064916 0.021524409
0000b0 ed 13 78 3c 2b 0c b6 3c 18 a1 a5 bb 80 6e b5 bb
       0.015141469 0.022222599 -0.0050546043 -0.0055368543
0000c0 f6 5e 55 bb 16 08 9f bb f8 ee 08 bd dc 89 ca ba
       -0.0032557822 -0.004853259 -0.033431023 -0.0015452462
0000d0 bb 83 a5 bb 17 59 8a 3b da c9 38 3c 31 7e b2 bb
       -0.005051104 0.004222046 0.011278594 -0.005447172
0000e0 db a7 02 3c 36 4e c2 bb 2f 99 ad 3b e7 41 b2 39
       0.00797459 -0.0059297336 0.005297802 0.00033999907
0000f0 75 38 d6 bc e5 3b ac 3b 44 08 e6 ba 16 72 36 bc
       -0.026149968 0.0052561634 -0.0017550071 -0.011135599
000100 c8 fd a5 bb bc d0 e3 bb 50 e0 00 bb dc 45 86 bc
       -0.0050656535 -0.0069523733 -0.001966495 -0.016390733
000110 b4 7f 80 bb 89 8a d9 3b 96 6a 5c 3b 46 62 82 bc
       -0.0039214734 0.006638829 0.0033632866 -0.015916001
000120 be ea 23 3c 6a 6d 25 3c 0c f4 04 3c d1 95 d9 bd
       0.010004697 0.010096887 0.008114826 -0.10624278
000130 da 7b b3 3c 7e 88 c7 ba e7 3c 2c 3d a0 41 d5 bb
       0.021909643 -0.0015223173 0.04205027 -0.0065080673
000140 d2 c1 a6 bb aa 49 03 bd 3f bb 93 3a 16 ba a7 ba
       -0.005089023 -0.032052673 0.0011271014 -0.0012796547
000150 20 12 3a 3b e7 9f 15 bc 3c e1 33 bc 0b 71 de bb
       0.002839215 -0.009132362 -0.010978993 -0.006788378
000160 69 d2 ec 3a 65 42 46 3b 2d bd 25 bc 26 b1 14 bc
       0.0018068078 0.0030251977 -0.010115904 -0.009075439
000170 b4 c0 03 3b 02 61 a8 bc 5a a7 4f bc 9b 01 6c bb
       0.0020103874 -0.02055407 -0.012674177 -0.00360117
000180 82 30 07 3b 36 07 83 bb 86 2c 44 3b 0e 0d 9e b9
       0.0020628278 -0.0039986623 0.0029933765 -0.00030145835
000190 68 16 ff 3b 97 d5 08 3b 11 7a d1 3b 8e 54 82 ba
       0.0077846535 0.0020879263 0.0063927253 -0.0009943412
0001a0 3a 2b 35 bb f2 3a 55 bb 22 39 db 3e 31 96 0c bb
       -0.0027644173 -0.0032536355 0.42817026 -0.0021451826
0001b0 ee 09 65 bc 83 38 a5 bb ba fe c8 ba 1e 32 9b 3a
       -0.013979418 -0.005042137 -0.0015334703 0.0011840498
0001c0 f2 a0 c8 bb 7a f7 33 3a 5f 9b 12 3c f2 90 a0 3b
       -0.006122702 0.0006865185 0.008948176 0.0049000913
0001d0 82 47 14 3c 18 92 30 3c 62 9c 18 bb ad 40 09 bc
       0.009050252 0.010777019 -0.002328657 -0.008377236
0001e0 03 fb 49 3b 96 1c 13 bc ce eb ce ba fa c5 78 bb
       0.003081978 -0.008978983 -0.0015786828 -0.00379598
0001f0 f7 cd f4 bb dd 50 09 3b b6 43 26 bb db e9 e8 3b
       -0.007470842 0.002095274 -0.0025369949 0.007107956
000200 91 a9 00 bc 4a 00 a4 ba c8 5e ef 3b 60 b8 8f bb
       -0.007852928 -0.0012512293 0.007305 -0.004385993
000210 77 8e 66 3a 61 4a cc 3b 99 07 cd b9 07 cb e7 3b
       0.00087950326 0.0062344526 -0.00039106308 0.0070737633
000220 16 11 15 3e 2d f7 52 3c f2 e4 cd b9 e7 50 02 3c
       0.14557299 0.012876314 -0.00039271225 0.007953859
000230 fc a8 ff 39 c6 3b 86 3a 65 5e 20 bb 29 54 bf 3b
       0.00048763293 0.0010241203 -0.0024470326 0.00583889
000240 66 de bb 3a 19 f1 6f 3b 53 80 8f 3b dd 56 db bb
       0.0014333248 0.0036612211 0.004379311 -0.0066937045
000250 da 71 17 3b fc 93 11 bb 71 7a cc ba 93 f2 ba 3a
       0.0023108632 -0.002221345 -0.0015600455 0.0014262967
000260 2d cb 1a 3b db c0 d8 3b 91 2d 5f bc 4e d5 04 bb
       0.0023619637 0.006614787 -0.013621704 -0.002026874
000270 88 b6 7a ba 80 b6 2f 3b a2 f7 bc bb de f2 83 bb
       -0.00095639424 0.002681166 -0.005766825 -0.0040267548
000280 b3 32 e2 bd 8a 59 32 bc 26 dc 4d 39 dc c7 8f 3b
       -0.11044826 -0.010885606 0.00019632335 0.0043878388
000290 e0 87 3c 3b 98 62 6f 3a fc 2a 57 3a c5 79 a3 bb
       0.0028767511 0.0009131818 0.00082080043 -0.0049888813
0002a0 e0 c1 95 bb 6e dd dd 3a d7 88 96 bb 2d 65 24 bc
       -0.004570231 0.0016926953 -0.0045939493 -0.010033888
0002b0 67 81 da 3b cc 98 fd bc 76 98 07 bb de a3 59 3b
       0.006668258 -0.030956648 -0.002069024 0.0033209245
0002c0 78 65 bd bb 48 1c 9a 3b ab 87 04 3c 2e 1b fb 3a
       -0.0057799183 0.0047030784 0.008088986 0.001915788
0002d0 2a 11 5d ba 9f 05 44 bd 9f d0 71 3b a8 ea d9 3b
       -0.00084330386 -0.047856923 0.003689803 0.0066502877
0002e0 30 a1 d6 38 20 05 bd bb ea 84 ad 3a 50 47 8c 3b
       0.00010234339 -0.005768433 0.0013238464 0.004280962
0002f0 78 ac 62 bc 86 25 fd 3b c6 22 f5 bb 36 6b 16 3b
       -0.013835065 0.0077254204 -0.007480952 0.0022952086
000300 d9 47 40 3a 0e d6 db 3b 39 09 1f bb 63 03 b2 3b
       0.0007334925 0.006708867 -0.0024266972 0.0054325326
000310 7b c1 a6 ba 2e 47 95 ba 21 84 b8 bb 4a e0 25 3b
       -0.0012722457 -0.0011389011 -0.0056309854 0.0025310689
000320 c5 ba 08 3c 20 41 aa ba 0d f2 f4 bb 9b 60 39 3e
       0.008345311 -0.001298938 -0.0074751438 0.18103258
000330 44 90 b1 bc 18 d9 d2 3b d0 21 42 be f2 c3 8f ba
       -0.021675237 0.006434571 -0.18958211 -0.001096843
000340 62 4e a3 3b 41 83 cb be d8 d4 a7 bb 2e cf 09 3c
       0.004983709 -0.39748576 -0.0051218085 0.008411212
000350 29 49 ac bb a0 74 ce 3b ac 07 a4 38 63 80 ae 3b
       -0.005257745 0.006300524 7.8215584e-05 0.0053253635
000360 e3 21 8a bb 34 98 bf 3b 77 54 b4 bb 35 73 0b 3b
       -0.0042154654 0.0058470014 -0.005503233 0.0021278386
000370 07 8f a9 3b 59 66 c7 3b 82 78 04 3c 90 72 30 bb
       0.005174521 0.006085199 0.008085372 -0.0026923753
000380 f4 4b 08 bb 47 c1 a0 39 6c 68 25 3b da 7c 23 3b
       -0.0020797225 0.0003066158 0.0025239242 0.0024946244
000390 79 d8 ee 3b 06 99 f8 3b 22 07 ba 3b 88 9d f7 bb
       0.007288989 0.007586601 0.00567712 -0.007556621
0003a0 dd fe fd 39 13 5a b4 bb da 86 6d bd bd c3 08 bb
       0.00048445808 -0.0055039017 -0.057989933 -0.0020868622
0003b0 de 59 eb b9 a8 e0 5e 3b a9 81 5e bb 5a 63 1a bc
       -0.0004488965 0.0034008417 -0.0033951795 -0.009423101
0003c0 98 07 43 3b 82 31 32 3a 07 19 56 bc 93 55 42 3b
       0.0029759165 0.00067975384 -0.01306749 0.0029653057
0003d0 41 ea 48 3c 36 1f 02 3c eb 11 37 ba 64 95 2f bb
       0.012262882 0.007942012 -0.0006983566 -0.0026791925
0003e0 9d 55 12 3c 94 d2 72 bb cd 6a 9b bb bc 38 1b 3b
       0.008931545 -0.0037051784 -0.0047429563 0.002368494
0003f0 3c 5c 6f bb 20 cc 26 3b 3c 1e af b9 c5 af 1b 3b
       -0.0036523482 0.0025451258 -0.00033401127 0.002375589

actor.mu_layer.bias f4 [4]
000000 35 79 df 3b cb ee 8d 3d f7 75 b5 3d ad 25 1a 3d
       0.006819869 0.06930312 0.08860391 0.037633587

actor.log_std_layer.weight f4 [4, 128]
000000 f7 be 00 bc f3 2f 2f 3c 02 fd 9e 39 a6 32 b4 bb
       -0.00785803 0.010692584 0.00030324614 -0.005499202
000010 f8 16 9d bb 17 f5 1e bc e9 8e 15 bc 80 e8 29 3c
       -0.004793998 -0.009701989 -0.009128311 0.010370374
000020 58 03 8d bc df a0 d7 bb 7a 37 c7 3b 65 26 c9 bb
       -0.017213508 -0.0065804566 0.0060796114 -0.00613861
000030 44 d6 26 bc 5b df 13 3c 78 4d 47 bc 6f f6 c1 3b
       -0.010182921 0.00902542 -0.012164466 0.0059192698
000040 3d 16 dd 3b f4 4c 8c 3b b6 95 e6 ba 1a c3 91 bc
       0.006747036 0.0042816345 -0.0017592225 -0.017793227
000050 2b 40 3e 3b 00 5c 43 ba ed fb c6 ba df 41 03 3c
       0.0029029946 -0.0007452369 -0.0015181281 0.00801131
000060 38 9f 89 3c dc 12 00 3b 52 10 d8 bb 6d 5f 9c 3b
       0.016799554 0.001954249 -0.0065937424 0.004772118
000070 d4 62 6b bb b8 9d 3d bc e9 4c fd bc 72 f1 dd bb
       -0.003591706 -0.011573248 -0.030920463 -0.0067731673
000080 8c b8 8e 3d 92 63 90 3b 38 43 6c 3c 2a 45 32 3b
       0.06968793 0.004406401 0.014420323 0.002720187
000090 b0 b2 77 3b 88 4d af 3c 4d 67 1a 3d 46 b5 dc bb
       0.0037795715 0.021399274 0.03769617 -0.0067354767
0000a0 86 9a 79 3c 46 00 10 bc 66 00 a2 3b 4c 86 35 bc
       0.015234595 -0.008789128 0.004943895 -0.011079382
0000b0 a2 de ad 39 fa ca 2d bc 77 f7 92 3b 5e 84 25 3c
       0.00033163006 -0.010607475 0.0044850665 0.01010236
0000c0 44 63 12 3c eb 37 33 3b e8 26 1c 3c 19 57 86 3b
       0.0089348 0.0027346562 0.00953076 0.0040997383
0000d0 dd 06 54 3d ec e2 2b bd ab 7f e0 bb 70 b0 16 3c
       0.051764358 -0.041964456 -0.0068511567 0.009197339
0000e0 d3 d5 e3 bb b1 47 89 3b 8f 94 22 bb e3 f8 13 bc
       -0.00695298 0.0041894545 -0.0024807786 -0.009031507
0000f0 42 48 86 bd 13 51 80 bb 0f 39 13 3c 46 da f9 bb
       -0.06556751 -0.003915915 0.008985772 -0.007624897
000100 95 79 c4 3b fb df f8 3a 6f 60 14 3c e7 89 34 ba
       0.005995939 0.001898765 0.009056195 -0.0006887004
000110 37 72 7b 3c 70 24 7c bc 44 6e dc 3b 93 de 8b 3c
       0.015347055 -0.015389547 0.006727012 0.017073905
000120 22 2a b6 ba e6 e0 43 bc 58 75 d5 3b 80 42 84 3d
       -0.0013898055 -0.011955475 0.0065142326 0.06457996
000130 b1 d0 c9 bc b5 40 9c bb c7 63 61 3c dc a4 76 3c
       -0.024635645 -0.004768456 0.013756699 0.015053954
000140 74 c5 78 3c d4 9a 8a bb 4b d2 b8 3a b3 ca 5f 3c
       0.015183795 -0.0042298827 0.0014100758 0.013659167
000150 84 03 cc ba 7c fc 94 ba 9c b0 78 3b b5 51 3f 3c
       -0.0015565013 -0.001136675 0.0037947064 0.011677195
000160 1c 8c 0c bc 61 fe 2f bc ec cb ce ba e6 8b a6 bb
       -0.008578327 -0.010741801 -0.0015777326 -0.005082595
000170 3c 54 60 bc b3 31 e0 3b e5 b6 22 3c e6 d1 5c bc
       -0.013691958 0.006841862 0.009931301 -0.013477778
000180 40 d3 40 b7 b8 f0 bf ba 88 f4 68 3a 8b e4 a9 3b
       -1.1493277e-05 -0.0014643883 0.00088865357 0.005184715
000190 a3 56 75 bb 64 90 24 ba f4 53 92 3b f6 9f 41 ba
       -0.0037435673 -0.00062776194 0.0044655744 -0.0007386202
0001a0 f9 a4 65 3a aa b2 82 3b fb 99 2b 3c 3c 41 ec 3b
       0.00087602396 0.0039885836 0.0104737235 0.007209925
0001b0 cb de 03 3c 1e a2 85 bc 37 cb a5 bb 23 b4 cd 39
       0.008048723 -0.016312655 -0.0050596255 0.0003923486
0001c0 24 4f 54 3c d4 13 08 3b e8 54 2a ba 3b a1 f4 bb
       0.012958322 0.0020763772 -0.00064976374 -0.007465509
0001d0 9a 40 46 ba 48 5c 56 bb 84 47 85 3b 96 a6 1d 3a
       -0.0007562727 -0.0032708813 0.004067363 0.0006013898
0001e0 ab ca 50 3b db 21 87 3b 9a a8 1c 3c fa 52 11 3c
       0.003185908 0.004123909 0.009561682 0.008869881
0001f0 8a bb 85 ba 23 9a 2c 3c 98 f9 da 3b 15 aa 8e 3b
       -0.0010202986 0.010534796 0.006682586 0.0043537715
000200 01 06 1a bb 95 d8 6c bc 36 a8 b6 3a e5 7e 65 bb
       -0.0023502114 -0.014455934 0.0013935629 -0.0035018262
000210 71 8e b4 3c 69 39 eb bb f6 1a 18 3c 06 62 30 3c
       0.022040578 -0.0071784747 0.009283772 0.010765558
000220 3f 15 20 bd 44 c0 3b bb 95 36 2a 3c a8 d4 a6 3c
       -0.03908276 -0.0028648535 0.01038899 0.020365074
000230 46 f3 8c bb 93 66 4f bc e0 8e ff 3b c1 9d de 3b
       -0.0043014614 -0.012658733 0.0077990144 0.006793708
000240 f0 5b 24 bc b6 03 34 3c 17 f0 ba 3b 61 0d 07 3c
       -0.010031685 0.010987213 0.0057048905 0.008242936
000250 18 99 09 3b 79 8f 8c 3c 9c 34 6b bb 57 14 49 3b
       0.0020995792 0.017158257 -0.0035889512 0.003068229
000260 8d 47 b5 bb 56 ce 15 bc 05 f2 25 bb 5f 96 b3 bb
       -0.005532211 -0.009143433 -0.0025321257 -0.005480572
000270 da a7 56 bc 5f 2e 19 3b 05 92 5f 3c e5 14 3d bb
       -0.013101542 0.0023373587 0.013645654 -0.0028851565
000280 64 f8 32 3d 20 d5 b7 bb f9 0e f0 bb 3a e6 0a bb
       0.043693915 -0.0056101233 -0.0073260036 -0.0021194355
000290 64 65 80 3c 21 81 9d bc 31 b3 b4 bc ff f1 6f bb
       0.015673347 -0.019226613 -0.022058101 -0.0036612747
0002a0 54 f5 af bb 65 09 a0 ba b1 b2 af bb 03 9c ad 3b
       -0.0053698216 -0.0012209831 -0.005361878 0.005298139
0002b0 a8 84 52 3c 30 cf 26 bd 0f ef ff bb a7 24 2b 3b
       0.0128490105 -0.040724933 -0.0078104804 0.0026114376
0002c0 1a b9 ab bb 86 2d 03 b9 ca 5e 9a 3b a6 68 38 3c
       -0.0052405717 -0.00012510092 0.004711007 0.011255419
0002d0 a5 29 d7 3a 95 2f ad 3c 55 0a 46 bc 67 e9 38 bc
       0.0016415609 0.021140853 -0.012087424 -0.011286116
0002e0 5e f7 5e 3b 39 7d 76 bc bf 3d fc 3a 29 83 d4 bb
       0.0034021954 -0.015044504 0.0019244476 -0.006485362
0002f0 99 f3 8b bd 95 1a 5a 3b 8f c3 26 bb 36 36 94 bb
       -0.06833572 0.0033280004 -0.0025446152 -0.004523064
000300 6b 7b b9 3b 2e 53 cf 3b cd a7 ac 3a 38 b6 f2 bb
       0.0056604645 0.0063270545 0.0013172567 -0.007406976
000310 96 a7 8b bc 2d 4e ca 3b a6 2b 0f bc e3 18 4c bc
       -0.017047685 0.00617387 -0.008738434 -0.012457105
000320 37 25 03 bc ff 4d c8 3a 02 7c a7 3b 8d 5f b3 3d
       -0.008004478 0.0015282034 0.0051112184 0.08758459
000330 3a e2 2e bd c3 c8 3a 3b 91 28 36 bd 22 b1 58 bc
       -0.042696215 0.002850101 -0.04447228 -0.0132258255
000340 eb 84 0d 3c 25 0e 05 3d 4a 69 a5 3b ae 16 0d bb
       0.008637647 0.032484192 0.005047952 -0.002152841
000350 de 4e f5 3b 4c 32 06 bb 03 8d 72 bc 06 b3 a0 3b
       0.0074862083 -0.0020476757 -0.014804128 0.0049041538
000360 c3 c0 91 3b f4 ae 91 3b 07 f9 8c bc cb d2 6a 3c
       0.004448028 0.004445905 -0.01720859 0.0143324835
000370 cc 55 d0 39 71 20 96 3c 46 2b 53 bc d0 58 48 bb
       0.00039736775 0.018326016 -0.012888735 -0.0030570515
000380 e4 40 35 bc 04 f9 2a 3c 7b bf 9b 3a 3a 98 7d 3b
       -0.011062834 0.0104353465 0.0011882627 0.003869547
000390 b1 e7 1d 3c c6 69 dc 3b ba 01 1e bb 65 c0 39 3c
       0.009637759 0.0067264764 -0.0024109916 0.011337374
0003a0 d6 37 5b bb 02 4d 90 bb df d0 b1 3c 60 78 dd 3b
       -0.003345003 -0.0044037113 0.021706043 0.0067587346
0003b0 69 9e 77 bc 98 f6 fc ba 34 4a 53 3c 82 e7 16 3c
       -0.0151134515 -0.0019299565 0.012896109 0.009210469
0003c0 61 eb bb bb 95 31 f2 3b 12 f4 6e bc 90 d8 1a 3c
       -0.0057348465 0.0073911645 -0.014584558 0.009451047
0003d0 d2 c1 59 bc dd 1e 1d 3b 51 18 b2 bb ec 3f 27 bc
       -0.013290839 0.0023974695 -0.0054350276 -0.010208111
0003e0 f6 a9 79 3c 93 a4 64 ba 96 3c 01 bc bc b6 29 3c
       0.015238276 -0.0008722033 -0.00788798 0.010358509
0003f0 42 8d 49 3b 6c 23 7d 3c 70 3a 10 bc 75 f8 2a bc
       0.0030754362 0.01545034 -0.008802995 -0.010435213

actor.log_std_layer.bias f4 [4]
000000 67 6a 9f be f5 98 a7 be d3 d6 9e be 8e 86 9a be
       -0.31135866 -0.32733884 -0.31023273 -0.30180782

q1.q_net.fcs.0.weight f4 [128, 16]
000000 fe 81 67 bf b4 2b 19 bf 73 30 6b 3f fe 80 42 3f
       -0.9043273 -0.5983231 0.918708 0.75978076
000010 69 30 73 be 44 20 9e be 45 db 02 c0 ae 32 a4 bf
       -0.23748936 -0.30883992 -2.0446332 -1.2827966
000020 31 70 b0 be ef f7 41 be 34 19 08 be c9 f8 d8 bd
       -0.34460595 -0.18942235 -0.13290864 -0.10594327
000030 1e 5e c7 3b a7 d3 ad bd 4e da 9e 3c bf 00 84 3d
       0.0060842177 -0.08487635 0.019391205 0.06445455
000040 1b 34 dc be c6 cf 94 bf d6 93 af 3e a3 c8 e7 3d
       -0.43008503 -1.1625907 0.34292477 0.11317565
000050 f2 71 8b be cb 2b 6a 3f 1e 87 09 40 28 de 5b c0
       -0.2723537 0.9147307 2.148872 -3.4354343
000060 9d c1 02 c0 bf d6 5a 3e a7 e7 2c be 49 36 6b 3e
       -2.0430672 0.21370982 -0.16885243 0.22969927
000070 52 08 a4 3d c8 53 7b ba 07 e4 0e be a1 49 7b 3c
       0.080093995 -0.00095873745 -0.13954173 0.015337379
000080 41 3b 89 3e 2e bc 95 3e da 0f 21 3f dd 65 db 3e
       0.2680302 0.29245132 0.6291481 0.42851153
000090 92 db 67 3f 70 4f bc 3f 50 64 c4 be 72 a9 06 3f
       0.9056941 1.4711742 -0.38357782 0.52602303
0000a0 25 2e db be 43 18 8c 3c 97 ab bd 3d d1 30 42 bc
       -0.42808643 0.017101413 0.09261244 -0.011852459
0000b0 94 c6 82 bc 02 4e 43 3d ab f8 93 3c 67 92 f7 bb
       -0.01596383 0.047681816 0.01806291 -0.0075552943
0000c0 de 6a ec be bd 44 59 bf 64 03 f0 bf 15 19 91 bf
       -0.46175283 -0.8487051 -1.8751035 -1.133578
0000d0 3c ef 3f be ca 84 5c 3c 82 56 43 40 11 76 c0 be
       -0.18743604 0.013459394 3.052155 -0.37590078
0000e0 73 ca 17 3f 3c 77 90 3d c0 a0 33 bd 06 5a ec be
       0.5929329 0.07053992 -0.043854475 -0.46162432
0000f0 37 40 c5 3d 7a 6a 8b bd a3 f6 7a 3d 75 6f b7 bd
       0.09631389 -0.06807418 0.061270367 -0.089568056
000100 8e ba aa 3e a4 66 9b 3d 8f e7 8d 3d 71 d4 01 3c
       0.33345455 0.075879365 0.06928932 0.007924185
000110 d9 51 db bf 01 24 aa bf 7d f6 e9 3e e7 ac 51 3f
       -1.7134353 -1.3292238 0.45695868 0.81904453
000120 87 59 c1 bc 77 f3 c1 b9 c0 57 a2 3d dc ff bb 3c
       -0.02360226 -0.00036993224 0.07926893 0.022949152
000130 42 b9 ae bc 14 21 8e 3c 5e 1d 21 3c 82 43 b1 bc
       -0.021328572 0.017349757 0.009833662 -0.021638636
000140 06 3b f1 3d fa 60 2f 3e d7 46 5c bf db 9f b5 bf
       0.11778836 0.17126837 -0.86045593 -1.4189409
000150 e6 b7 fd be a4 9d f1 bf 38 0c 05 bf 2b 57 31 bf
       -0.49554366 -1.8876233 -0.5197177 -0.6927363
000160 ed ae 33 bd f0 1b 43 bd 38 dd c4 bd 68 b5 db 3a
       -0.043867994 -0.047634065 -0.09612507 0.0016762437
000170 ef bd 65 bb b3 72 27 bd 83 32 15 bc 6f 96 bc 3b
       -0.0035055836 -0.04088087 -0.009106281 0.005755238
000180 b2 1f 4e bf 5c a3 9e 3f 64 6d a7 3f a6 3f 8c 3f
       -0.80517113 1.2393603 1.3080258 1.0956924
000190 78 08 e9 bf 44 44 bc 3f 4a 98 99 bf 0c 1c 68 40
       -1.820571 1.4708333 -1.19996 3.6267118
0001a0 6d 59 f7 3e 26 23 aa 3d bc d5 30 3d fd e5 9d 3d
       0.48310414 0.08307485 0.043172583 0.077098824
0001b0 8c 1f 1f bd 6d 8b 6a 3d ab 5e 81 bb 2b ec 41 bd
       -0.038848445 0.057261873 -0.003948053 -0.047344368
0001c0 36 ba 01 be 0e 3d cb bf 09 a5 d8 3c 43 e5 a3 3e
       -0.1266869 -1.5878007 0.026445882 0.3201085
0001d0 1c 80 a9 3b 00 09 90 bf d3 59 26 c0 f0 b6 23 bf
       0.0051727425 -1.1252747 -2.5992324 -0.63951015
0001e0 32 91 92 bc 30 f2 11 be e0 b5 3d 3c e4 cb 0b 3e
       -0.0178915 -0.14252543 0.011579007 0.13651997
0001f0 70 dd 89 bd ba c3 a9 bd e9 7c 7c 3c 21 f0 d3 3b
       -0.06731689 -0.08289285 0.01541064 0.0064678346
000200 07 f2 3e be 33 56 37 be 4a a7 c4 3e d8 2a 40 3f
       -0.18647014 -0.17903976 0.3840888 0.75065374
000210 59 21 c5 3e 76 15 cd bd 08 07 a2 bf 79 bd 7a bf
       0.38502005 -0.10013859 -1.2658396 -0.9794536
000220 db 5d f2 bf 54 27 9c be 84 f4 87 be ac 57 77 bd
       -1.8934892 -0.30498755 -0.26553738 -0.060386345
000230 96 af 1d 3c 61 b2 28 be b9 7c d4 3b 7e 2b f9 3d
       0.0096243825 -0.16474296 0.0064845947 0.121664986
000240 ad 5e 93 be 91 3a 50 be 7b c8 23 be 79 ce 0d be
       -0.2878317 -0.20334841 -0.15994446 -0.13848294
000250 90 ad 94 3f 52 06 6f 3f 27 5b 96 3e a8 a9 0b be
       1.1615467 0.9336902 0.2936642 -0.13638937
000260 c4 f7 4f 3c 47 a6 6c 3c ad 8a f2 bb 5f 9a 40 3c
       0.012693349 0.0144439405 -0.0074017853 0.011755555
000270 08 d9 aa 3b 42 70 39 3c 66 ae bc bb e9 1b 8f 3b
       0.0052138604 0.011318268 -0.0057580946 0.004367341
000280 a3 9f 9b 3d 08 2c bc 3d cd f0 e1 bb 4e c4 57 be
       0.07598808 0.09188086 -0.006895161 -0.21070978
000290 bc 2a fa 3d fb 57 e4 3e e2 ab 2d be 37 3b 4a 3e
       0.12215182 0.44598374 -0.169601 0.19749151
0002a0 79 31 a2 3d 53 2d af 3e 7a 86 4b bd 02 61 77 bc
       0.079195924 0.34214267 -0.049688794 -0.015098812
0002b0 d9 06 25 bd a9 15 c4 3d c0 e1 e6 bc 9f b4 a9 3d
       -0.040289734 0.09574444 -0.028183818 0.08286404
0002c0 b1 df f8 3c 5e 4f 0c 3d 9e d1 b1 bc 56 75 32 3e
       0.030380102 0.034255378 -0.021706399 0.17427573
0002d0 ba e8 9e 3e d4 d9 99 3e 5f a7 75 3e 38 50 8b bf
       0.3103693 0.30049002 0.23989628 -1.0883856
0002e0 c0 6c 2e be be 0b 97 be b6 20 43 3e 06 25 a2 bc
       -0.17033672 -0.29501146 0.19055447 -0.019793045
0002f0 10 e8 85 bd cc f1 32 bc 46 01 c1 3d 49 f9 89 bd
       -0.06538403 -0.010921907 0.09424071 -0.067370005
000300 74 ad 13 3f dc 9c 4e 3f f9 ab 34 bf 6e 91 6a 3e
       0.57686543 0.807081 -0.7057491 0.2290704
000310 26 ae 93 3d 35 b2 05 bf e1 d9 53 bf 5b b1 c6 3b
       0.072109506 -0.5222505 -0.8275433 0.006063623
000320 f8 e5 b9 3f 17 82 74 bd ab 2a 6e 3d 3f 69 ac 3e
       1.4523306 -0.059694376 0.05814616 0.33674046
000330 66 49 33 bd e9 54 e0 3c 14 23 0a bc d6 59 98 3c
       -0.04377117 0.027384238 -0.008431215 0.018597525
000340 d7 b3 48 be b3 5f 98 3f ad 91 97 be d9 a7 1d 3d
       -0.19599853 1.1904205 -0.2960333 0.03849015
000350 f4 66 fe be 4c 65 89 be e2 00 0c bf 4e 7f e5 3e
       -0.49687922 -0.26835096 -0.5468885 0.44823688
000360 c1 b0 37 bf 0a a7 5d bd 03 d7 be bd 58 87 66 be
       -0.7175408 -0.05411438 -0.09318354 -0.22512567
000370 b3 cc 49 3d d1 8e 35 bd 3f 74 9b ba ec 0c 7e bd
       0.049267482 -0.044325653 -0.0011860206 -0.062024042
000380 e2 4f cd be a7 6f 1f be b5 e3 ba 3e df fe dc 3d
       -0.40100008 -0.15569936 0.36501852 0.107908
000390 bf 99 3c bc c2 4c f2 be 3c 4d 58 bf 35 2a 69 bf
       -0.011511265 -0.47324187 -0.8449285 -0.9108003
0003a0 5d dc 56 3f cf 33 11 be 01 47 88 3e 8d df a5 3e
       0.8393 -0.1417992 0.26616672 0.32397118
0003b0 9a cd 15 be a7 21 82 3d 37 bd 2a 3d c9 13 b4 3c
       -0.14629212 0.06354075 0.041684356 0.02198209
0003c0 ab a0 e5 ba 3d 48 9a be 10 df f5 3b 1a a7 21 be
       -0.0017519196 -0.30133238 0.0075033978 -0.157864
0003d0 64 05 2e be 4c 13 7c 3e ef c4 97 bd 2d 5f 60 40
       -0.16994244 0.24616736 -0.07410609 3.505809
0003e0 cd f4 5a be a5 3f 11 be a1 ed db 3e 9f 09 f2 bd
       -0.21382447 -0.14184435 0.42954734 -0.11818241
0003f0 79 72 c7 bd 86 08 61 3d 71 9c 33 3e 41 f8 02 be
       -0.09738631 0.05493977 0.17540146 -0.12790014

q1.q_net.fcs.0.bias f4 [128]
000000 55 54 86 bd 34 33 71 bf d2 d6 b9 bf dc 94 ba bf
       -0.06559054 -0.94218755 -1.4518683 -1.4576678
000010 3a ce 94 3f 0b f3 5f bf 27 bd f2 be 24 63 19 bf
       1.1625435 -0.8748023 -0.47409937 -0.599169
000020 bd 2d d8 bf 64 5c bb bf 94 57 83 3f 5d 53 83 3f
       -1.6888958 -1.463757 1.0261102 1.0259815
000030 f0 5f 53 3f 83 c4 24 3f 31 45 95 3e 31 8f 64 be
       0.82568264 0.64362353 0.2915435 -0.22320248
000040 ea 8d 76 3f 74 87 30 c0 30 8c d5 3e 49 14 22 3d
       0.96310294 -2.7582674 0.41708517 0.039570127
000050 ac 0a b5 bf f6 78 2f bf 70 5c 05 3e 6a b6 68 3f
       -1.4143882 -0.68543947 0.13023543 0.9090334
000060 04 05 b4 bf 36 46 4c be 21 af d9 bf 09 ca ea 3e
       -1.4064031 -0.19948658 -1.700657 0.45857266
000070 1e eb 0c be ba e0 80 3f 66 17 16 bf fe 92 ef bf
       -0.13761565 1.0068581 -0.58629453 -1.8716733
000080 93 0d a1 bf 0f 04 b0 3f 52 b9 25 bf d8 66 ec 3e
       -1.2582268 1.3751239 -0.647359 0.46172214
000090 4d 7a 5f be 03 8d 58 3e da f2 ad bf 34 82 53 bf
       -0.21823998 0.21147542 -1.3589737 -0.8262055
0000a0 4b 35 21 c0 6f ef 94 bf 02 6a 6d bf 42 38 08 c0
       -2.5188777 -1.1635569 -0.9273988 -2.1284337
0000b0 35 ee 92 3f 71 83 09 bf 83 aa 1b c0 9d ec 15 bf
       1.1478945 -0.5371619 -2.4322822 -0.5856417
0000c0 87 db 8b 3f 65 69 f1 be b4 57 f3 bf 40 09 89 bf
       1.092637 -0.47150722 -1.901114 -1.0705948
0000d0 64 d2 f7 be 5d 5c 8c 3e ac 90 76 3f 55 a6 13 bf
       -0.48402703 0.27414218 0.963145 -0.5767568
0000e0 f8 f6 44 3f 4e a1 0c 3f d0 d6 eb be ee 7f 8b 3f
       0.76939344 0.5493363 -0.46062326 1.0898416
0000f0 05 22 50 bf 1c 27 c9 bf c1 e2 b8 bd 1b 09 a9 3e
       -0.8130191 -1.571506 -0.09027625 0.3301476
000100 f1 1d ab be 57 e6 78 bf 3a ab 93 3f 1a a2 56 3e
       -0.3342128 -0.9722647 1.1536629 0.20960274
000110 a4 13 eb 3d 4e 2c 52 3f da 7e 4e 3f 1c 6e a0 bd
       0.114783555 0.82098854 0.8066231 -0.07833502
000120 d2 41 96 bf 55 0e 81 bf 8e db 80 bf 86 82 f6 3d
       -1.1738837 -1.0082499 -1.0067003 0.12036614
000130 06 37 2e bf 6d 44 31 bf 44 47 db bf 76 1d bc bf
       -0.6805271 -0.69245034 -1.7131124 -1.4696491
000140 2b 6c 76 bf a2 c0 83 bf 13 f5 b4 bf 6b 1b 85 bf
       -0.962588 -1.0293162 -1.4137291 -1.0398992
000150 5b 46 f5 be 3b 30 f5 bf 5a cc 07 3f e2 34 1e bf
       -0.4790524 -1.9155344 0.5304619 -0.6179944
000160 6a 88 c6 be 1e f9 2f 3f 7d 9f 1e c0 64 c9 fc bf
       -0.3877595 0.687395 -2.4784844 -1.974896
000170 50 ec 76 3f c7 6a a2 be 70 8d 27 3f c2 bb bd be
       0.96454334 -0.3172209 0.6545019 -0.3705731
000180 0d 82 00 bf 1c d0 0c bf 2c 6d 0a c0 fc 0a 5f bf
       -0.5019844 -0.5500505 -2.1629133 -0.87126136
000190 8a 24 f9 bf 6a ba 90 3f c5 f0 94 3f 47 fe 61 bf
       -1.9464276 1.1306889 1.1635977 -0.8827862
0001a0 68 45 ab bf c4 88 7b 3f ab eb 47 be b8 52 9b bf
       -1.3380556 0.9825556 -0.19523494 -1.2134619
0001b0 5c 3e 0a c0 c8 b4 8a bf c0 e4 b3 be 50 5e 82 3f
       -2.160056 -1.083642 -0.3513546 1.0185032
0001c0 20 fa da bf 54 e8 18 c0 ed 02 62 3e df b4 c5 3e
       -1.7107582 -2.3891802 0.22071429 0.38614556
0001d0 5a a6 d2 3e 06 9d 50 bf b2 4f 9a 3e 98 48 0a bf
       0.4114254 -0.814896 0.30138928 -0.5401702
0001e0 80 81 08 c0 43 98 6d 3f e8 70 98 bf 81 ac 96 bf
       -2.132904 0.9281046 -1.1909456 -1.1771394
0001f0 d3 a1 da be e1 80 1a c0 60 90 10 c0 58 69 74 bf
       -0.42701587 -2.4141161 -2.258812 -0.9547324
