examples/rl/models/sac/sac_model_cartpole_stab.pt (torch, 252775 bytes, 65 tensors)

actor.net.fcs.0.weight f4 [64, 4]
0	0x3eb8dd0e	0.3610615
1	0xbe1ff5f2	-0.15621164
2	0x3f0b30f5	0.5437158
3	0x3e896e16	0.268418
4	0x3da97c1a	0.082756236
5	0xbe8b810e	-0.27246898
6	0xbe99ea96	-0.30061787
7	0x3e679db5	0.22618754
8	0xbef2d499	-0.47427824
9	0x3e27a506	0.16371545
10	0x3d86f254	0.06589189
11	0x3e304989	0.17215551
12	0xbc277869	-0.010221579
13	0x3e98bd52	0.2983194
14	0x3eb9934c	0.3624519
15	0x3eadef06	0.33971423
16	0x3e9033ce	0.28164524
17	0x3ec8832c	0.39162576
18	0xbe8cfae5	-0.27535167
19	0x3ec16fdd	0.37780657
20	0xbe24c807	-0.1609193
21	0xbe4ba264	-0.19886166
22	0xbeb329be	-0.34992784
23	0x3ebe85a8	0.37211347
24	0x3edd4309	0.43215206
25	0xbeab1661	-0.3341551
26	0xbd728400	-0.059207916
27	0x3cf4f941	0.02990401
28	0x3afcae79	0.0019278071
29	0xbe44e997	-0.19229732
30	0xbf1d9ddd	-0.61569005
31	0xbec5c926	-0.38630027
32	0x3dd76dba	0.105189756
33	0x3e94b239	0.29042223
34	0x3f1ee391	0.6206599
35	0x3ecf22e0	0.40456295
36	0x3e32a891	0.17447115
37	0xbe3e6e9b	-0.1859688
38	0x3da2870c	0.079359144
39	0x3ee86b3b	0.4539431
40	0x3dafa5f1	0.08576573
41	0xbdb84ed3	-0.089994095
42	0xbeb60256	-0.35548657
43	0x3e83363c	0.25627315
44	0x3e4bbde7	0.19896661
45	0x3e2dd339	0.16975106
46	0x3ee0974e	0.43865436
47	0x3e86db2f	0.263391
48	0x3ec20861	0.37897018
49	0xbe0d38ec	-0.13791245
50	0x3ece4996	0.40290517
51	0xbdd8dbe2	-0.10588814
52	0xbd5eb6fb	-0.054373723
53	0xbc554c37	-0.013018659
54	0x3f1f1930	0.6214781
55	0x3e800299	0.25001982
56	0x3e243c0a	0.16038528
57	0xbd24d196	-0.04023894
58	0x3e5a4fcd	0.21319504
59	0x3ebac483	0.36478052
60	0xbe00f439	-0.12593164
61	0xbea51c96	-0.32248372
62	0xbf02711f	-0.5095386
63	0xbe8c291d	-0.27375117
64	0xbe60fd2e	-0.2197158
65	0x3ec337e8	0.3812859
66	0xbe5e7f20	-0.21728182
67	0x3e24f4d9	0.16109027
68	0x3df594bf	0.11991262
69	0xbeccf029	-0.40026978
70	0x3e75df73	0.2401102
71	0xbece8d27	-0.40342066
72	0x3d88b7cb	0.06675681
73	0x3e863252	0.26210266
74	0x3f6664fb	0.89997834
75	0x3eb75b34	0.3581177
76	0x3eb0fa64	0.34566033
77	0x3ed941f2	0.42433125
78	0xbe91b18d	-0.28455773
79	0xbde9eacb	-0.11421736
80	0xbe08ec47	-0.13371383
81	0x3e254e33	0.16143112
82	0x3e452012	0.19250515
83	0x3e895e6d	0.26829854
84	0x3ecfca90	0.4058423
85	0xbeb69225	-0.35658374
86	0xbe806ea9	-0.25084427
87	0xbdfc2271	-0.12311257
88	0xbd74c862	-0.059761412
89	0xbe74667f	-0.23867224
90	0xbeec382c	-0.46136606
91	0xbe8570dc	-0.26062667
92	0xbe412717	-0.18862568
93	0xbe29b803	-0.16574101
94	0xbf352d38	-0.70772123
95	0xbe8fdbc6	-0.2809736
96	0x3d914b83	0.07094481
97	0x3e581ead	0.21105452
98	0x3f6bb1da	0.92068255
99	0x3eb27052	0.3485132
100	0x3cc133fc	0.023584358
101	0xbe9d9ced	-0.30783787
102	0xbf4769df	-0.7789592
103	0xbeba4149	-0.36377934
104	0xbd154771	-0.036445085
105	0xbe5b2ee8	-0.21404612
106	0xbec1588f	-0.37762877
107	0x3d991874	0.07475367
108	0x3d72f30d	0.059313823
109	0x3ed52123	0.41626844
110	0x3ed3dfe7	0.4138176
111	0x3f14785d	0.5799616
112	0xbe9f6b37	-0.31136486
113	0x3e0d2f82	0.13787654
114	0x3f235c73	0.6381294
115	0x3e8cc9dd	0.2749776
116	0x3d51046f	0.05102962
117	0x3e15440b	0.14576738
118	0x3f4acd7b	0.7921979
119	0x3e980882	0.2969399
120	0xbe67188e	-0.2256796
121	0xbebd99e4	-0.37031472
122	0x3e4de1ed	0.20105715
123	0xbec03c5e	-0.37546057
124	0xbe3a99dc	-0.18222755
125	0x3e401e18	0.1876148
126	0x3dc2ec38	0.095177114
127	0x3d13e8df	0.036110755
128	0xbeaa9274	-0.3331486
129	0xbeb8b8a7	-0.3607838
130	0xbf23b934	-0.6395447
131	0xbeb767e1	-0.3582144
132	0x3b2bd016	0.0026216558
133	0x3ea80f60	0.3282423
134	0xbc14acc5	-0.009074395
135	0x3eb7808b	0.35840258
136	0x3ec9b0c5	0.39392677
137	0xbef689bb	-0.48151955
138	0x3ed10141	0.4082127
139	0xbe4a2433	-0.19740371
140	0xbeb472bf	-0.35243794
141	0x3e0f2646	0.13979444
142	0xbd68274d	-0.056678105
143	0xbd651e41	-0.055937055
144	0x3e730377	0.2373179
145	0x3da6d28e	0.08145629
146	0xbe3a2b3c	-0.18180555
147	0xbe598030	-0.21240306
148	0xbe11bc3a	-0.14231959
149	0xbe2a283a	-0.16616908
150	0xbe8152be	-0.2525844
151	0x3e04559e	0.12923285
152	0xbcba8b10	-0.022771388
153	0x3d8a3c04	0.06749728
154	0xbeae5830	-0.34051657
155	0xbf0543b1	-0.52056414
156	0xbe6b4213	-0.22974424
157	0xbe6b411f	-0.2297406
158	0x3ea33816	0.31878728
159	0x3ea16e3e	0.3152942
160	0x3ca92f59	0.02065246
161	0x3e5ae4da	0.21376362
162	0x3eff651e	0.49881834
163	0x3e9eb24a	0.309954
164	0x3eb410bb	0.35169014
165	0xbdc586f8	-0.09644884
166	0xbe0d4f83	-0.13799863
167	0xbe37a094	-0.1793235
168	0x3e089e59	0.13341655
169	0x3ef44e59	0.47716025
170	0xbe62e58b	-0.22157876
171	0x3f0ede31	0.5580779
172	0xbe3044b3	-0.17213707
173	0xbeb93e6e	-0.36180443
174	0xbf63fda1	-0.8905888
175	0xbefe89af	-0.4971442
176	0xbe9cbebe	-0.30614275
177	0xbeacffb5	-0.3378884
178	0xbf341eed	-0.7035969
179	0xbea51568	-0.32242894
180	0xbeae39a8	-0.34028363
181	0xbeedfb8f	-0.46480986
182	0xbf0a2a1a	-0.5397049
183	0xbefb0766	-0.49029082
184	0x3db2acfe	0.08724402
185	0x3e8efd2e	0.27927536
186	0x3f1a2c0a	0.6022345
187	0x3ec0540c	0.37564123
188	0x3d889253	0.06668534
189	0xbe843d65	-0.2582809
190	0xbe9795f4	-0.29606593
191	0xbe169041	-0.14703466
192	0x3e83c7d9	0.2573841
193	0x3e75be0a	0.23998275
194	0xbef15564	-0.4713546
195	0xbd465267	-0.04841843
196	0x3d709d6d	0.058743883
197	0xbe8be12c	-0.2732023
198	0xbf4f4372	-0.8096229
199	0xbebc70cc	-0.36804807
200	0xbde3cd25	-0.111231126
201	0xbdf435b6	-0.11924307
202	0xbe43c0ac	-0.19116467
203	0x3ea19410	0.31558275
204	0x3e2412d2	0.16022804
205	0x3e3d080b	0.184601
206	0x3f154743	0.5831186
207	0x3ec69809	0.3878787
208	0x3e0d4e07	0.13799296
209	0xbe98158c	-0.2970394
210	0x3f436d0d	0.76338273
211	0x3dc27894	0.09495655
212	0xbec7046e	-0.38870567
213	0x3e658ade	0.22416255
214	0xbe9db379	-0.3080099
215	0x3ec3fe26	0.38279837
216	0x3d552f61	0.052047137
217	0xbea46ef0	-0.3211589
218	0xbf1c6d98	-0.61104727
219	0xbe3423fb	-0.1759185
220	0xbdbd8fc1	-0.092559345
221	0x3e95df86	0.29272097
222	0xbe634870	-0.22195601
223	0x3ee9aaff	0.45638272
224	0xbda8dd7e	-0.08245371
225	0xbc8e69a4	-0.017384358
226	0xbec2e9ee	-0.380691
227	0x3d4d91de	0.050187938
228	0x3dd87cf1	0.10570706
229	0x3ea4230c	0.3205799
230	0xbe91ca66	-0.2847473
231	0xbe035da1	-0.12828685
232	0x3e154b6c	0.14579552
233	0x3e05ce10	0.13066888
234	0xbf032c63	-0.51239604
235	0xbe0eb814	-0.13937408
236	0xbeb83059	-0.35974386
237	0x3e67e4e1	0.22645904
238	0xbebb177a	-0.3654135
239	0x3e6514db	0.22371237
240	0x3db40a1a	0.08790989
241	0x3e754b90	0.23954606
242	0x3f27c0bf	0.6552848
243	0x3ec1f349	0.37880924
244	0xbd4d8ba6	-0.050182007
245	0x3e00b97e	0.1257076
246	0xbda8b46b	-0.08237537
247	0x3e01d7a2	0.12679914
248	0xbcbc11dd	-0.022957737
249	0xbedb7496	-0.42862386
250	0xbf17615b	-0.5913293
251	0xbef56501	-0.47928622
252	0xbe5dfe3d	-0.21679015
253	0xbeb6c0a1	-0.3569384
254	0xbe9e2458	-0.30887103
255	0xbedca66c	-0.4309572

actor.net.fcs.0.bias f4 [64]
0	0xbe5b6b92	-0.21427754
1	0x3e1186aa	0.14211527
2	0xbd99dfe8	-0.0751341
3	0xbf19a584	-0.6001818
4	0xbe7f52b3	-0.24933891
5	0xbda4f456	-0.08054416
6	0xbeb1f8a9	-0.34760025
7	0xbe83b283	-0.2572213
8	0xbeae7501	-0.34073642
9	0x3e82b7c3	0.25530824
10	0x3dff0886	0.124527976
11	0xbf1b4694	-0.6065457
12	0xbea52479	-0.3225439
13	0x3eae467c	0.3403815
14	0x3ec409f6	0.3828885
15	0x3dc76059	0.09735174
16	0x3e18a8f6	0.14908203
17	0x3e24fddf	0.16112469
18	0x3e6a667a	0.22890654
19	0xbe77802e	-0.2416999
20	0x3d8932a8	0.06699115
21	0xbe900861	-0.28131393
22	0xbf084ef1	-0.53245455
23	0x3ebe8f47	0.37218687
24	0xbdec6f16	-0.115446255
25	0x3e9654d8	0.29361606
26	0x3ce96eca	0.028495211
27	0xbee62a4d	-0.44954148
28	0x3ed92229	0.42408875
29	0xbe99fef7	-0.30077335
30	0xbe7d665e	-0.24746081
31	0xbdd18672	-0.102307215
32	0xbdd70b8c	-0.10500249
33	0x3df62410	0.12018597
34	0xbee5c87f	-0.4487953
35	0xbe076d39	-0.13225259
36	0xbedd0d71	-0.43174317
37	0x3e1db9bd	0.15402885
38	0xbe4161b5	-0.18884929
39	0xbf0019d8	-0.50039434
40	0xbe9e600b	-0.3093265
41	0xbe2d5045	-0.16925152
42	0x3da6cbbb	0.08144327
43	0xbe8a9bd9	-0.27072027
44	0x3e3c8ca3	0.18413024
45	0xbe1995fa	-0.14998618
46	0xbd215985	-0.039392013
47	0x3e73e314	0.23817092
48	0x3e103bdf	0.14085339
49	0x3e8b47a2	0.2720309
50	0xbe758b14	-0.23978835
51	0x3e68713a	0.22699443
52	0x3ebf996d	0.37421742
53	0x3e343f2f	0.17602228
54	0x3e1a4df6	0.15068802
55	0x3deaca1d	0.11464331
56	0x3e91f189	0.2850459
57	0xbea57d86	-0.3232233
58	0xbe0aa9fd	-0.13541408
59	0x3dce9cf9	0.10088534
60	0xbdebb4fb	-0.11509129
61	0xbe242fbe	-0.16033837
62	0x3d83691b	0.06416532
63	0xbe10786c	-0.14108437

actor.net.fcs.1.weight f4 [64, 64]
0	0xbc1d3cc3	-0.009597006
1	0xbcd33173	-0.025780415
2	0xbd8ae711	-0.06782354
3	0xbd3e3fca	-0.046447553
4	0xbe06d7ac	-0.1316821
5	0xbdb2a544	-0.08722928
6	0x3dc6bce6	0.09703998
7	0xbbc6ede1	-0.006070838
8	0x3d9292fd	0.07156942
9	0x3db18806	0.086685225
10	0x3e0805e7	0.13283502
11	0x3d258e97	0.040419187
12	0xbe24d991	-0.1609862
13	0xbdf1aff0	-0.118011355
14	0xbdbb9a84	-0.09160331
15	0xbda9fdd8	-0.0830037
16	0x3cebc276	0.02877925
17	0xbc95700d	-0.018241907
18	0xbc1a645c	-0.009423342
19	0xbd3b24de	-0.045689456
20	0xbd1b7b18	-0.03795919
21	0x3d863c52	0.06554474
22	0x3df9adbf	0.121913426
23	0xbd1ca224	-0.038240567
24	0xbd6e9332	-0.058245845
25	0x3db88db6	0.09011404
26	0x3dded0cb	0.10879668
27	0x3e711ac8	0.23545372
28	0x3c576a94	0.013147969
29	0x3e6dfed5	0.23241742
30	0x3e415d1b	0.18883173
31	0x3d6d6939	0.057961676
32	0x3d29293b	0.041299086
33	0x3dcee64c	0.101025194
34	0xbca4a3ec	-0.020097695
35	0x3be61faa	0.0070228176
36	0x3e36ff55	0.17870839
37	0x3d90e826	0.07075529
38	0x3d9b9eb1	0.07598627
39	0xbd2fbfe8	-0.042907625
40	0x3b94f236	0.0045454754
41	0xbe2d783d	-0.16940399
42	0xbb9aaa45	-0.0047200047
43	0xbe3d413e	-0.18481919
44	0x3d519198	0.05116424
45	0xbe0c44dc	-0.13698143
46	0xbdcbd275	-0.09952251
47	0xbb8df3e9	-0.004332055
48	0x3d650807	0.05591586
49	0x3dd823ba	0.10553689
50	0x3e47f6f5	0.195278
51	0xba70fb69	-0.00091927365
52	0xbd84e194	-0.06488338
53	0xbe0687ae	-0.13137695
54	0x3ba127bb	0.0049180663
55	0x3da2ebdb	0.07955142
56	0xbd3477fa	-0.04405973
57	0x3d7006ee	0.05860036
58	0xbd53851a	-0.051640607
59	0x3ca17cd7	0.019712849
60	0xbe777385	-0.24165161
61	0xbd0ed344	-0.034869447
62	0xbdc19768	-0.094527066
63	0xbc760c93	-0.015017646
64	0xbb89825d	-0.0041964487
65	0xbde11d7c	-0.10991952
66	0x3de3d17e	0.11123942
67	0x3cf75cc8	0.030195609
68	0x3cbda262	0.02314872
69	0x3ccbef92	0.02489451
70	0xbdffcb07	-0.12489896
71	0x3e27a3f5	0.16371138
72	0x3dd7f85b	0.10545417
73	0x3ce963d2	0.02848998
74	0xbd8be999	-0.068316646
75	0x3d148be3	0.03626622
76	0x39ed9e8a	0.00045322283
77	0xbd35fcd1	-0.044430558
78	0xbcbef545	-0.023310313
79	0xbe9a13d8	-0.30093265
80	0xbdc3d3d5	-0.09561888
81	0x3e565dc2	0.20934203
82	0x3d2e9f42	0.04263235
83	0x3c9a030a	0.018800277
84	0xbd08f973	-0.03344102
85	0xbdda9951	-0.10673774
86	0xbdfb0613	-0.12257018
87	0xbd2f0709	-0.04273132
88	0xbe34bb12	-0.17649487
89	0x3bde19f8	0.006777998
90	0xbd936b7e	-0.07198237
91	0x3d45ac4b	0.048260015
92	0x3c8bd8b9	0.017071115
93	0x3d82676e	0.06367384
94	0xbddfcfc3	-0.10928299
95	0x3db13b6d	0.08653913
96	0x3e8f895b	0.2803448
97	0x3e2ad6df	0.1668353
98	0x3e21e8dc	0.15811485
99	0xbcd5e142	-0.026108388
100	0x3e18fa43	0.14939217
101	0xbd9334d9	-0.07187814
102	0xbe375840	-0.17904758
103	0x3d1cb1b8	0.038255423
104	0xbe156cfc	-0.14592355
105	0x3d863e25	0.06554822
106	0x3e123c6d	0.14280863
107	0x3d14b3cf	0.03630429
108	0xbe7929b6	-0.24332318
109	0x3d6f8143	0.058472883
110	0xbe9540ff	-0.2915115
111	0x3dee8abe	0.11647557
112	0xbd6ebab6	-0.05828353
113	0x3cfe288d	0.031025195
114	0x3e33a4fa	0.17543402
115	0xbcad7735	-0.021175006
116	0xbcdd4fbd	-0.027015561
117	0x3db6aac6	0.08919291
118	0x3d11b879	0.035576317
119	0xbdec8710	-0.11549199
120	0x3d95e41f	0.07318901
121	0x3d42b986	0.04754021
122	0xbddb8e03	-0.10720446
123	0x3da65f1d	0.0812361
124	0x3d086f23	0.033309113
125	0x3de4debc	0.11175296
126	0xbd9dfce2	-0.07714249
127	0x3e14cd37	0.14531408
128	0x3c55aa0b	0.01304103
129	0xbd4385cf	-0.04773503
130	0x3d81c59b	0.063365184
131	0x3ead9ee0	0.33910275
132	0x3d349619	0.044088457
133	0x3d22d31b	0.039752107
134	0xbda42319	-0.08014507
135	0x3e885c10	0.26632738
136	0x3ca4c5b9	0.020113813
137	0x3d3410c0	0.043961287
138	0xbdd17908	-0.10228163
139	0x3e1cc34b	0.15308873
140	0xbe3fe8a2	-0.18741086
141	0x3d13c5c4	0.036077276
142	0x3c93a06c	0.018020831
143	0xbde721cb	-0.11285742
144	0xbd133c7a	-0.035946347
145	0x3dcdef07	0.100553565
146	0x3db5b68d	0.088727094
147	0xbd8000f4	-0.06250182
148	0xbd53d1df	-0.05171382
149	0xbe1137bb	-0.14181416
150	0xbe94e516	-0.2908103
151	0x3c397672	0.0113197435
152	0x3d03384f	0.032036122
153	0xbde508d1	-0.11183322
154	0xbde5bd68	-0.11217767
155	0xbe234039	-0.15942468
156	0xbccac592	-0.024752412
157	0xbda7279f	-0.08161854
158	0xbe9030c5	-0.28162208
159	0x3da2d151	0.0795008
160	0x3e930dc6	0.28721446
161	0x3d3a8590	0.04553753
162	0xbd31d939	-0.04342005
163	0xbdb260fb	-0.08709904
164	0x3e3c876d	0.18411036
165	0xbde3861d	-0.111095645
166	0xbdcdec7b	-0.10054871
167	0xbe22b258	-0.15888345
168	0xbea1e20b	-0.3161777
169	0xbce01e0d	-0.02735808
170	0x3cadfd96	0.021239083
171	0x3c7dd9ae	0.015493793
172	0xbeb83499	-0.3597763
173	0x3e841e6a	0.25804454
174	0xbe838ca1	-0.2569323
175	0x3dd2fe59	0.10302419
176	0x3df1ebff	0.11812591
177	0xbe19b612	-0.1501086
178	0x3df9f87b	0.12205597
179	0x3e4e761f	0.20162247
180	0x3cbf297d	0.023335213
181	0x3d343317	0.043994036
182	0x3e123585	0.14278229
183	0xbe182a06	-0.1485978
184	0x3cf3919b	0.029732516
185	0x3d50c1e1	0.050966147
186	0xbda20545	-0.07911161
187	0xbe06c6cb	-0.13161771
188	0xbdaa1246	-0.08304267
189	0x3910f0d3	0.00013822624
190	0xbdf6c46a	-0.12049182
191	0x3e4c588e	0.19955656
192	0x3dfc4e83	0.123196624
193	0x3d4d7af1	0.050166074
194	0x3d9a9756	0.07548396
195	0xbf023bce	-0.50872505
196	0x3d58f1a0	0.052964807
197	0xbdf2a0eb	-0.11847099
198	0x3d679db6	0.05654689
199	0xbeb0cdb7	-0.34531948
200	0x3d280465	0.041019816
201	0x3af36338	0.0018568998
202	0xbc8d273e	-0.017230626
203	0xbe3374c8	-0.17525017
204	0x3de92dc1	0.1138568
205	0xbdf46f78	-0.119353235
206	0xbd3d0eb6	-0.046156608
207	0x3e33de76	0.17565331
208	0xbd6b9c85	-0.057522316
209	0xbd91bfc5	-0.07116655
210	0xbe707427	-0.23481809
211	0x3d803324	0.06259754
212	0x3dc0e130	0.09417951
213	0x3c9f0206	0.019410145
214	0x3ed1b621	0.40959266
215	0x3d06e025	0.032928605
216	0xbdb4c5fc	-0.08826825
217	0x3ddeee54	0.10885301
218	0x3c6df5c5	0.014523928
219	0x3e898bf0	0.26864576
220	0xbb6ecc4a	-0.0036437684
221	0x3e3d44f0	0.18483329
222	0x3e742396	0.238417
223	0x3d989664	0.0745056
224	0xbe0a3466	-0.13496551
225	0xbe039cde	-0.12852809
226	0xbe3d382e	-0.18478462
227	0xbcb18b6e	-0.02167293
228	0xbe16746e	-0.14692852
229	0xbd7b335d	-0.06132828
230	0x3df79d06	0.12090497
231	0x3d2affba	0.041747786
232	0x3ebee361	0.3728285
233	0xbb9bf08f	-0.0047589014
234	0xbd09f19f	-0.033677693
235	0xbdac7630	-0.0842098
236	0x3e5f5de8	0.21813166
237	0xbe81e7bc	-0.25372112
238	0x3e6637fc	0.22482294
239	0x3d85976b	0.06523021
240	0xbd630279	-0.05542228
241	0x3b0860f6	0.0020809746
242	0xbe1a1bb7	-0.15049635
243	0xbe39788e	-0.18112394
244	0x3d4dc2d1	0.05023462
245	0x3c188bbd	0.00931066
246	0x3cd1b5ad	0.025599325
247	0x3d300806	0.0429764
248	0x3dccab91	0.09993661
249	0x3dcbaad2	0.09944691
250	0x3d882ddf	0.06649374
251	0x3d52ce18	0.051466078
252	0x3d4dd8d4	0.05025561
253	0xbbc0b58f	-0.0058810185
254	0x3add245f	0.0016871801
255	0xbdca40fc	-0.09875676

actor.net.fcs.1.bias f4 [64]
0	0x3cddaf83	0.02706123
1	0x3b8bd8c4	0.004267784
2	0xbcc62084	-0.024185427
3	0x3b4f1ead	0.0031603978
4	0xbdafbeee	-0.08581339
5	0xbd93f492	-0.072243825
6	0x3d71ff00	0.059081078
7	0xbd83632c	-0.064154
8	0x3d09172b	0.03346936
9	0x3c2d3d5a	0.010573709
10	0xbb62af1b	-0.0034589234
11	0xbcb8ed20	-0.022574008
12	0x3d2c5be7	0.042079832
13	0xbdc0e8c4	-0.094193965
14	0xbb83b4a2	-0.004019336
15	0xbd32cb74	-0.04365106
16	0x3d1021ce	0.03518849
17	0xbe0c9c78	-0.13731563
18	0xbd95d5c9	-0.07316167
19	0xbcd9a90b	-0.026569864
20	0x3d46ffcb	0.048583787
21	0x3d706af9	0.058695767
22	0xbcf0b2a1	-0.029382052
23	0x3d923f0a	0.0714093
24	0x3ce91d3b	0.028456321
25	0xbd88d771	-0.06681717
26	0x3dc51d54	0.096247345
27	0x3deb64ed	0.114938594
28	0xbd6daafa	-0.058024384
29	0x3cab0737	0.020877464
30	0xbda42f00	-0.08016777
31	0x3db0bf12	0.08630194
32	0x3d98680d	0.07441721
33	0x3d3a28e9	0.04544917
34	0x3e1d268f	0.1534674
35	0x3d821116	0.06350915
36	0x3c963683	0.01833654
37	0xbcc22cb7	-0.023702962
38	0xbd28edb9	-0.041242335
39	0x3d4b37cd	0.049613763
40	0xbc28bb67	-0.010298586
41	0xbdd31e2d	-0.1030849
42	0x3c4f7e97	0.012664459
43	0x3dc982ef	0.09839427
44	0x3c7a4e37	0.015277437
45	0x3d1bf56d	0.038075853
46	0xbb8fabbf	-0.0043844874
47	0xbbda2013	-0.0066566556
48	0xbddba3c9	-0.10724599
49	0xbe22755f	-0.15865086
50	0x3d5e8d91	0.054334227
51	0x3da8691d	0.08223174
52	0x3dd59d08	0.10430342
53	0x3da9a42b	0.08283266
54	0x3d5c873f	0.05383992
55	0xbc82fb2a	-0.015988905
56	0x3d33ce7b	0.043898087
57	0x3b96f558	0.004606884
58	0x3d40331d	0.046923745
59	0xbdda1ac5	-0.10649637
60	0xbd9675be	-0.07346676
61	0xbc02eb30	-0.007990643
62	0x3dcfbe3d	0.10143707
63	0xbdced398	-0.10098952

actor.mu_layer.weight f4 [1, 64]
0	0xbc0c3741	-0.008558095
1	0x3d40faea	0.04711429
2	0x3dfcd662	0.12345578
3	0xbe74693b	-0.23868267
4	0x3df86003	0.12127688
5	0x3df7cd18	0.120996654
6	0xbdf5c876	-0.120011255
7	0x3ec58c58	0.38583636
8	0xbe30f82d	-0.17282172
9	0x3dd06e0b	0.10177239
10	0x3d0d74b1	0.034535114
11	0xbecbbd3d	-0.39792815
12	0xbd640890	-0.05567223
13	0x3e15cd9c	0.14629215
14	0x3e55bdbd	0.2087316
15	0xbe3f3e90	-0.1867621
16	0x3cbc78d7	0.02300684
17	0xbb42cd8c	-0.0029724566
18	0x3e18e7d4	0.14932185
19	0x3e2a2969	0.16617359
20	0x3d633a87	0.055475738
21	0x3e2f4523	0.17116217
22	0x3d0cf0d1	0.034409348
23	0x3e186aa5	0.14884432
24	0xbe461f79	-0.19347943
25	0xbeaad1c7	-0.33363172
26	0xbeccbc22	-0.39987284
27	0x3cbaf455	0.022821585
28	0x3d98767b	0.07444473
29	0x3c49f3e4	0.012326214
30	0x3f0e280b	0.5552985
31	0xbd23be17	-0.039976206
32	0xbda58cbb	-0.08083483
33	0xbd46358a	-0.048390903
34	0xbd8c2b1b	-0.06844159
35	0xbe9d8232	-0.30763394
36	0xbab43e62	-0.0013751502
37	0x3d284f4d	0.041091252
38	0xbdb89d66	-0.09014396
39	0x3be0495c	0.0068446826
40	0x3e0943ca	0.13404766
41	0xbd636df8	-0.055524796
42	0x3eb9a7fb	0.3626097
43	0x3d2f0594	0.04272993
44	0xbd2a8024	-0.04162611
45	0x3c4e7a2d	0.012602371
46	0x3e149912	0.14511517
47	0xbddcec80	-0.10787296
48	0xbd2c86bc	-0.04212068
49	0x3cbc2cbb	0.022970548
50	0xbdd811f8	-0.10550302
51	0x3e5435e9	0.2072369
52	0xbe700feb	-0.23443572
53	0xbe60d947	-0.21957885
54	0x3de742a3	0.11292007
55	0xbe0dac59	-0.13835277
56	0xbebfa001	-0.3742676
57	0xbe3e324b	-0.18573873
58	0xbe634ed1	-0.22198035
59	0xbadb5e96	-0.0016736563
60	0x3e9633f3	0.2933651
61	0x3d11229b	0.035433393
62	0x3cc7c026	0.024383616
63	0x3e568635	0.20949633

actor.log_std_layer.weight f4 [1, 64]
0	0xbc0a8d80	-0.008456588
1	0xbe22b276	-0.1588839
2	0xbdfcd12c	-0.12344584
3	0x3e32dd20	0.17467165
4	0x3e8402b4	0.25783312
5	0x3ddc62a4	0.10761002
6	0x3e79eee3	0.24407534
7	0x3d61e34b	0.055148404
8	0x3eb0b46d	0.34512654
9	0xbe13dca4	-0.14439636
10	0xbd32f0ba	-0.043686606
11	0xbcbbca6b	-0.022923669
12	0x3df4af35	0.119474806
13	0x3e9bab98	0.30404353
14	0x3de84b30	0.11342466
15	0xbe32af35	-0.17449649
16	0x3b240f44	0.0025033513
17	0x3e5ee4b0	0.21766925
18	0xbed6fbbd	-0.41988936
19	0xbe73360c	-0.23751086
20	0xbe46bcce	-0.19407961
21	0x3eae41b6	0.34034508
22	0xbe85871e	-0.2607965
23	0xbe4937e7	-0.19650231
24	0xbe524c98	-0.2053703
25	0x3c5f90c2	0.013645353
26	0x3ba1b4c0	0.004934877
27	0xbe0c2d04	-0.13689047
28	0x3de69536	0.112589285
29	0xbba5123c	-0.005037574
30	0x3c701e79	0.014655703
31	0xbe8076fd	-0.2509078
32	0xbe445e65	-0.19176634
33	0x3de4c37f	0.111701004
34	0xbeab9f08	-0.3351977
35	0x3e82e445	0.2556478
36	0xbaba8d7f	-0.0014232843
37	0xbdee0726	-0.11622457
38	0xbe06704a	-0.13128772
39	0xbed538f1	-0.41645005
40	0x3e80585e	0.2506742
41	0x3ea27ed6	0.31737393
42	0xbbbaa922	-0.0056964317
43	0xbed4e616	-0.41581792
44	0x3e437666	0.19088134
45	0xbe349585	-0.17635162
46	0xbed2cab8	-0.41170287
47	0xbe12c32e	-0.14332268
48	0x3e3ec7ba	0.18630877
49	0x3ebd9abe	0.3703212
50	0xbe8fafb0	-0.28063726
51	0xbd40a137	-0.047028746
52	0xbdd79fe8	-0.105285466
53	0xbea0367c	-0.31291568
54	0x3de4cce7	0.111718945
55	0xba18aa42	-0.000582371
56	0xbd2d184f	-0.04225951
57	0x3ea206b1	0.3164573
58	0x3ded3414	0.11582199
59	0x3e97f7f7	0.2968137
60	0x3e10cf53	0.14141588
61	0xbcd9518f	-0.026528148
62	0xbde79a21	-0.11308695
63	0x3d56808a	0.05236868

q1.q_net.fcs.0.weight f4 [64, 5]
0	0xbc077624	-0.008267913
1	0x3c27e69d	0.010247854
2	0x3f312470	0.69196224
3	0x3f0d245e	0.55133617
4	0xbecff482	-0.40616232
5	0x3e689056	0.2271131
6	0x3e44973d	0.19198318
7	0xbede0c30	-0.43368673
8	0xbe72b832	-0.23703077
9	0x3eb47471	0.35245088
10	0x3e8b82e6	0.27248305
11	0x3ee7cf15	0.4527518
12	0x3f596696	0.8492216
13	0x3f0f7032	0.5603057
14	0xbd93f1e1	-0.07223869
15	0xbe767aa6	-0.24070224
16	0xbe9e224b	-0.30885538
17	0xbf8d12bc	-1.1021342
18	0xbec3a14a	-0.3820899
19	0x3d46b126	0.048508786
20	0x3c37c013	0.011215228
21	0xbe1be663	-0.15224604
22	0x3e382d07	0.17985927
23	0x3e816504	0.2527238
24	0xbf08d315	-0.53447086
25	0x3e019bdb	0.1265711
26	0xbe59ec1c	-0.21281475
27	0xbe1cb03c	-0.15301603
28	0xbeb888f9	-0.36042002
29	0x3dfed402	0.12442781
30	0x3e2b0d66	0.1670433
31	0x3ee039c7	0.4379408
32	0x3f6ab8fe	0.91688526
33	0x3ebc5397	0.36782524
34	0xbd94ada9	-0.072596855
35	0xbd0b27de	-0.033973567
36	0x3d9a2de4	0.07528284
37	0xbebd4121	-0.36963752
38	0xbe32bec3	-0.17455582
39	0x3f0c8efa	0.54905665
40	0x3e7ff39d	0.24995275
41	0xbee4c4d1	-0.4468141
42	0xbf859194	-1.0435052
43	0xbe09470a	-0.13406006
44	0xbd47cea8	-0.048781067
45	0x3eb03f44	0.34423268
46	0x3dd3c13e	0.103395924
47	0x3e378a22	0.17923787
48	0x3d05525b	0.032549243
49	0xbd804285	-0.062626876
50	0xbbc574b6	-0.006025876
51	0x3ee49e88	0.446522
52	0xbe497e09	-0.19676985
53	0x3e7b928d	0.24567623
54	0xbb747691	-0.0037302116
55	0x3dc67fd5	0.09692351
56	0x3e3981af	0.18115877
57	0x3ea93c6d	0.33053914
58	0xbe4bf505	-0.19917686
59	0x3e97f9e9	0.29682854
60	0xbf23da06	-0.6400455
61	0xbf023fa2	-0.50878346
62	0xbf353a2b	-0.7079188
63	0xbd88ad5a	-0.06673689
64	0xbe56b311	-0.20966746
65	0x3e462480	0.19349861
66	0xbea42119	-0.32056502
67	0xbfeb4cc5	-1.8382803
68	0xbee8b340	-0.45449257
69	0x3e3885a2	0.18019727
70	0x3e06cbed	0.13163729
71	0xbe21430d	-0.15748234
72	0x3f9b8eb8	1.2152929
73	0x3e2e8747	0.17043792
74	0xbd47675a	-0.048682548
75	0xbf2b4bc3	-0.6691248
76	0xbe584970	-0.21121764
77	0x3f2b4a66	0.669104
78	0x3e761cc8	0.24034417
79	0xbe862f29	-0.26207855
80	0xbecd881a	-0.401429
81	0xbef9a0e6	-0.48755568
82	0xbf189086	-0.59595525
83	0xbf0989a9	-0.5372568
84	0x3e084ddc	0.13310951
85	0x3f1563d8	0.58355474
86	0x3ea164e9	0.315223
87	0xbed779b6	-0.42085046
88	0x3c8943d7	0.016755981
89	0x3d338834	0.043831065
90	0xba2f0dda	-0.0006677784
91	0xbd23a5ea	-0.03995315
92	0xbd9eea96	-0.077595875
93	0x3e3115ee	0.17293522
94	0xbf2a15d8	-0.6643958
95	0xbddb013c	-0.10693595
96	0xbe7b994e	-0.245702
97	0x3ed20d14	0.41025603
98	0xbe164b60	-0.14677191
99	0xbd6b3997	-0.05742797
100	0xbd0c90d8	-0.03431782
101	0x3dc55568	0.096354306
102	0xbe943465	-0.28946224
103	0x3ea28246	0.31740016
104	0x3f25c7ba	0.64757884
105	0x3e132145	0.1436816
106	0x3df8f087	0.12155252
107	0x3c06a1f9	0.008217328
108	0xbe770e6a	-0.24126592
109	0x3ebdf549	0.371012
110	0x3dc78a12	0.09743132
111	0x3ebbb210	0.36659288
112	0x400baae2	2.1823049
113	0x3ee58a1f	0.4483194
114	0xbe281e67	-0.16417848
115	0x3ee9eb6a	0.4568742
116	0xbedc06cc	-0.42973936
117	0xbf5380a7	-0.8261818
118	0x3e3cd9cd	0.1844246
119	0xbdc0b6d8	-0.09409875
120	0xbe27fceb	-0.16405074
121	0x3e4646ff	0.1936302
122	0x3fa4f317	1.2886685
123	0x3eb3716e	0.35047477
124	0xbde926c2	-0.113843456
125	0xbc7a78f4	-0.015287627
126	0x3d5176c5	0.051138658
127	0xbe4b12c6	-0.1983138
128	0x3d85c6de	0.065320715
129	0xbf2ae1cf	-0.66750807
130	0x3ea36089	0.31909588
131	0xbda3866a	-0.07984622
132	0xbf0f6301	-0.5601044
133	0x3d3bd688	0.04585889
134	0xbf0b87a5	-0.5450385
135	0xbf03c19c	-0.514673
136	0x3e8b6e60	0.27232647
137	0xbee26578	-0.4421804
138	0x3c7b3467	0.015332318
139	0xbe5e4178	-0.21704662
140	0xbeb7f677	-0.35930225
141	0x3eec5e97	0.46165916
142	0x3ddb4da8	0.10708171
143	0x3e8736a3	0.26408872
144	0x3d052cd9	0.032513473
145	0x3e2ad198	0.16681516
146	0x3e979e94	0.29613173
147	0xbf1ef630	-0.620944
148	0xbeaa718d	-0.33289757
149	0xbe04f52e	-0.12984154
150	0x3ed63cbd	0.41843215
151	0x3ea83fda	0.32861215
152	0x3fea9ef5	1.832976
153	0x3ecec7a2	0.40386683
154	0xbe15c79e	-0.14626929
155	0xbf01cbad	-0.5070141
156	0xbefd5a9f	-0.494832
157	0xbfa9bedf	-1.3261374
158	0xbf07c0bf	-0.5302848
159	0x3de6a274	0.11261454
160	0xbe12d7be	-0.14340112
161	0x3dc48998	0.095965564
162	0x3d48c46c	0.049015447
163	0x3d8745b5	0.066050924
164	0x3f4cee5f	0.80051225
165	0x3eb9cebb	0.36290535
166	0x3c030ec0	0.007999122
167	0x3f6f9511	0.9358683
168	0x3e65a3d0	0.22425771
169	0xbe2668ec	-0.16250962
170	0xbe89af81	-0.2689171
171	0xbe72eca6	-0.23723087
172	0xbfcec199	-1.6152831
173	0xbea3652f	-0.31913134
174	0x3e72772f	0.23678277
175	0x3f0cc3ef	0.5498647
176	0x3e1f2e3b	0.1554498
177	0x3f9a4ab3	1.2054046
178	0x3e743659	0.23848857
179	0xbe05fd47	-0.13084899
180	0x3e66a8bf	0.22525309
181	0x3e385c17	0.1800388
182	0x3fe3b7dc	1.7790484
183	0x3e8b137a	0.27163297
184	0xbdea5c0d	-0.114433385
185	0x3e39ec47	0.18156539
186	0x3e1ffaab	0.15622966
187	0x3e070d4a	0.13188663
188	0x3e31b66f	0.17354749
189	0x3ee33b08	0.44380975
190	0x3defa457	0.11701267
191	0x3ea62903	0.32453164
192	0x3fd8cfc5	1.6938406
193	0x3ef931b8	0.48670745
194	0xbe3e1917	-0.18564259
195	0x3e9f85e5	0.3115684
196	0x3df8a526	0.121408746
197	0x3f00acc6	0.5026363
198	0xbe52f18e	-0.20599958
199	0x3e802221	0.25026038
200	0xbe5c527e	-0.21515843
201	0x3e1a0e1d	0.15044446
202	0xbe83220d	-0.25611916
203	0x3e49668a	0.19668022
204	0xbe898837	-0.26861736
205	0x3bf1d9e4	0.007380711
206	0x3ea32352	0.31862885
207	0xbf0f430e	-0.5596169
208	0xbe349836	-0.17636189
209	0x3eaa236b	0.33230147
210	0x3ef86638	0.48515487
211	0xbe25fd37	-0.16209875
212	0x3e9f079d	0.31060496
213	0xbe0ecf3e	-0.13946244
214	0xbcb7a768	-0.022418693
215	0xbdc1ea5a	-0.09468527
216	0x3dcfbb79	0.101431794
217	0xbf1d94f7	-0.6155543
218	0xbefa701b	-0.48913655
219	0x3e6f4529	0.23366226
220	0x3ea1dd04	0.31613934
221	0xbd593a32	-0.053034015
222	0xbef52954	-0.47883093
223	0xbe966756	-0.29375714
224	0x3d3d9ae6	0.0462903
225	0xbda4b99b	-0.08043214
226	0x3e2bb66b	0.16768806
227	0xbeef49ef	-0.46736094
228	0x3e6a0a35	0.22855456
229	0xbf20ed36	-0.62861955
230	0x3ecf44a2	0.4048205
231	0x3be28a83	0.0069134845
232	0x3f928529	1.1446887
233	0x3e0ffaac	0.14060467
234	0xbd3b0d53	-0.045667004
235	0xbe2c6fd6	-0.16839537
236	0x3eb64a56	0.3560359
237	0x3e35b13a	0.17743388
238	0x3dc1218a	0.09430225
239	0x3e8cbb17	0.27486488
240	0xbd8b702a	-0.06808503
241	0xbe65be4b	-0.22435872
242	0x3fa34c45	1.2757651
243	0x3eac98b1	0.33710244
244	0xbeb85e0a	-0.36009246
245	0xbe606497	-0.21913372
246	0xbd1afae3	-0.03783692
247	0xbe199d30	-0.15001369
248	0xbe38d917	-0.18051563
249	0xbe29a764	-0.1656776
250	0x3d7f8e36	0.062391482
251	0x3e7a53ca	0.24446025
252	0xbe6c50bf	-0.23077677
253	0xbc006b29	-0.007838049
254	0x3ec585b6	0.38578576
255	0x3e998108	0.29981256

q1.q_net.fcs.0.bias f4 [64]
0	0xbf0315de	-0.5120524
1	0xbe46e03f	-0.1942148
2	0x3e941aa9	0.2892659
3	0x3eee5af8	0.4655378
4	0x3cd6aa66	0.0262043
5	0x3eb4bcc6	0.35300273
6	0xbdfcd995	-0.12346188
7	0xbbf3a2fa	-0.0074352
8	0x3e2c0a08	0.16800702
9	0x3efd4d76	0.4947316
10	0xbc171b93	-0.009222883
11	0xbc6fcd0d	-0.01463629
12	0xbe192ab1	-0.14957692
13	0xbdb47e47	-0.08813148
14	0xbdbf4ef1	-0.09341229
15	0x3e988854	0.2979151
16	0x3e23db86	0.1600171
17	0xbe9e673f	-0.30938146
18	0x3e8d858a	0.27640945
19	0x3eaf533b	0.34243187
20	0x3edcade1	0.4310141
21	0x3f0740c9	0.5283323
22	0xbdd902e3	-0.10596254
23	0x3eaf0d05	0.3418962
24	0xbd5041bb	-0.050843935
25	0xbe4d253d	-0.20033737
26	0xbe59b896	-0.2126182
27	0xbe8decbe	-0.27719682
28	0x3e346a40	0.17618656
29	0xbe6712e5	-0.22565801
30	0xbe707ad7	-0.2348436
31	0x3e819cfe	0.25315088
32	0xbe4c9af9	-0.19980992
33	0xbe1c82c2	-0.15284255
34	0x3ddb1fb2	0.10699405
35	0xbeb16654	-0.34648383
36	0x3e838fec	0.2569574
37	0xbe2bb5c4	-0.16768557
38	0x3edffd1d	0.43747798
39	0x3f1b6470	0.6070013
40	0x3ebd01fb	0.36915573
41	0xbefa9b78	-0.48946738
42	0xbe9f6be5	-0.31137004
43	0xbc916fd7	-0.017753525
44	0x3f151783	0.58239
45	0x3dadc834	0.08485451
46	0x3e256249	0.16150774
47	0xbef1f771	-0.47259095
48	0xbeb7fde3	-0.35935888
49	0x3f1ff3d0	0.62481403
50	0x3f1fc726	0.6241325
51	0x3f06f8ba	0.52723277
52	0xbe3cb79e	-0.1842942
53	0x3e93418d	0.2876095
54	0xbe5eb664	-0.21749264
55	0x3e907e5a	0.282214
56	0x3de986d5	0.1140267
57	0xbc01a90c	-0.007913839
58	0xbd5ba0f2	-0.053620286
59	0x3f0bbb84	0.54583
60	0xbeca0aec	-0.39461458
61	0xbe73d900	-0.23813248
62	0x3e3a532c	0.1819579
63	0x3ee19a5e	0.44063085

q1.q_net.fcs.1.weight f4 [64, 64]
0	0x3e24bfd8	0.16088808
1	0xbe0cf05a	-0.13763562
2	0x3e1ad952	0.15121964
3	0x3d7b5c2c	0.0613672
4	0xbe3bfd7c	-0.18358415
5	0x3e1a5fe4	0.15075642
6	0xbd93f0ea	-0.07223685
7	0x3d9b9205	0.075962104
8	0x3d329083	0.04359485
9	0x3e03fe26	0.12889919
10	0xbde230dd	-0.11044476
11	0xbd27bb93	-0.04095037
12	0xbe12c54f	-0.1433308
13	0x3d31bdca	0.043393888
14	0x3b55347c	0.0032532504
15	0xbd8ab6ff	-0.06773185
16	0x3d00be65	0.031431574
17	0x3db0e270	0.086369395
18	0x3cab8c16	0.020940822
19	0x3e2dd437	0.16975485
20	0x3e051e69	0.12999882
21	0xbc65b68d	-0.014020574
22	0xbd3a02f4	-0.045412973
23	0x3d82f9b2	0.06395282
24	0xbdd25dd2	-0.10271801
25	0x3dedaada	0.11604853
26	0xbc9d97dd	-0.019237453
27	0x3cf97c0d	0.03045466
28	0x3d989cb5	0.074517645
29	0x3bbd15fe	0.005770444
30	0x3d0dc626	0.034612797
31	0xbd7e0e69	-0.06202546
32	0xbdb4895b	-0.08815261
33	0xbc5da645	-0.013528411
34	0xbe1865c9	-0.14882578
35	0xbdc7008c	-0.09716901
36	0x3b248ef0	0.0025109611
37	0xbe154a4a	-0.1457912
38	0x3d9720d4	0.07379308
39	0x3e297798	0.16549528
40	0x3e1bf898	0.1523155
41	0x3e05f00d	0.13079853
42	0xbdc5b985	-0.09654526
43	0xbe0e1982	-0.13876918
44	0x3e7c4f50	0.2463963
45	0xbe08d4ea	-0.1336247
46	0xbd7a3032	-0.06108112
47	0x3dfc77de	0.1232755
48	0x3df0f90a	0.117662504
49	0x3e6ac1d0	0.22925496
50	0xbc99b53e	-0.01876318
51	0x3d52d0f8	0.05146882
52	0xbd7f44b1	-0.06232137
53	0x3e396e72	0.18108538
54	0xbd54ec69	-0.05198327
55	0x3be3cfc4	0.006952258
56	0x3c6e9f8d	0.014564407
57	0xbdad2fa2	-0.08456351
58	0xbe02c2b2	-0.12769583
59	0x3e39bc9e	0.18138358
60	0xbd9db9d9	-0.07701463
61	0xbd140267	-0.036135104
62	0x3d837cfa	0.06420322
63	0xbced6f31	-0.028983684
64	0xbf8adc89	-1.0848552
65	0x3d987583	0.074442886
66	0x3de2e941	0.11079646
67	0x3d7918c3	0.06081463
68	0xbcddb0f0	-0.02706191
69	0x3e09a2ad	0.13440962
70	0xbf5778fd	-0.8416899
71	0x3d7009c4	0.058603063
72	0x3e545e4d	0.20739098
73	0x3dc6384d	0.09678707
74	0xbdd88400	-0.10572052
75	0x3a9a4c07	0.0011771925
76	0xbd0f9c7d	-0.03506135
77	0xbd1972d2	-0.037463017
78	0xbe6881b3	-0.22705726
79	0xbdcead2b	-0.10091623
80	0xbd5ca52a	-0.05386845
81	0x3d941975	0.07231418
82	0x3e7e2101	0.24817277
83	0x3e6bb054	0.23016483
84	0x3e1ea558	0.15492761
85	0x3e23796a	0.15964285
86	0xbf8fb7b7	-1.122794
87	0x3ea4de7b	0.3220099
88	0xbed22a8f	-0.41048095
89	0x3a38c68a	0.00070486276
90	0x3de381c3	0.111087345
91	0x3da74ebf	0.081693165
92	0x3da1dc46	0.07903342
93	0xbd6fb5bc	-0.058522925
94	0xbf4ccf8f	-0.8000421
95	0xbda6644b	-0.08124598
96	0x3edaff86	0.42773074
97	0xbeab09c7	-0.33405897
98	0xbe1340d7	-0.14380203
99	0xbf5c457c	-0.86043525
100	0x3e708bd4	0.2349084
101	0x3c8c9ffa	0.017166127
102	0x3e87cc68	0.26523137
103	0x3de8b5c1	0.11362792
104	0x3e99004a	0.29883033
105	0x3e13c20b	0.1442949
106	0xbe8e7475	-0.27823225
107	0xbd89e328	-0.0673278
108	0x3e67db06	0.22642145
109	0xbd487d3c	-0.048947558
110	0x3deac913	0.11464133
111	0xbd1ce950	-0.03830844
112	0xbeb05a82	-0.34444052
113	0x3e5e7369	0.21723713
114	0x3e35a57b	0.17738907
115	0x3e214363	0.15748362
116	0xbf8a4f72	-1.0805495
117	0x3df30f29	0.11868126
118	0xbed43e46	-0.4145376
119	0xbd526dff	-0.05137443
120	0x3d39b5d5	0.045339424
121	0x3d3b0fd6	0.0456694
122	0xbd91b09e	-0.07113765
123	0x3d7fb412	0.062427588
124	0x3db62e42	0.08895542
125	0xbdbe1e2d	-0.09283099
126	0xbcc965b4	-0.024584629
127	0x3dcab2c6	0.098973796
128	0xbe5ee882	-0.21768382
129	0xbda06352	-0.07831444
130	0xbe462e99	-0.19353713
131	0x3deb5e21	0.11492563
132	0x3d5906f9	0.052985165
133	0x3e401f0a	0.1876184
134	0xbed1c23b	-0.409685
135	0x3d59b900	0.053154945
136	0x3e5e2ab8	0.21695983
137	0x3e0ac8b8	0.1355313
138	0x3da321e9	0.07965452
139	0x3db1ba93	0.08678164
140	0xbdf5f430	-0.12009466
141	0xbd211888	-0.039330035
142	0x3dbab2a0	0.09116101
143	0xbdbbe6ef	-0.091749065
144	0xbdc19168	-0.09451562
145	0xbd1465bc	-0.036229834
146	0x3dbc7cb2	0.09203471
147	0x3e076bd6	0.1322473
148	0x3ce76bcb	0.028249642
149	0x3d164c90	0.03669411
150	0xbe2505a9	-0.1611544
151	0x3e38c80d	0.18045063
152	0xbf097e2d	-0.53708154
153	0x3db91133	0.090364836
154	0xbdaa9007	-0.08328252
155	0x3ce0f1a9	0.027458983
156	0xbd2dd7f6	-0.042442285
157	0x3d098b21	0.03357995
158	0xbf377e63	-0.71677226
159	0xbd3ecb52	-0.04658062
160	0x3dde1e24	0.108455926
161	0xbe0f440f	-0.13990806
162	0xbbfc3e5d	-0.007697864
163	0xbe49b7f2	-0.19699076
164	0xbf8db0f9	-1.1069633
165	0xbe1c1de1	-0.15245773
166	0xbf1fcede	-0.6242503
167	0x3cbf4acc	0.023351096
168	0x3c3b8eba	0.011447603
169	0x3d96e66b	0.073681675
170	0xbd5721bc	-0.052522406
171	0x3d220b77	0.039561715
172	0x3e11f8aa	0.14255014
173	0x3b9df827	0.004820842
174	0xbead8c7f	-0.33896253
175	0x3d59aaf6	0.053141557
176	0xbeb7a14f	-0.35865256
177	0x3b33639e	0.002737261
178	0x3dadd583	0.0848799
179	0xbe6efeec	-0.23339432
180	0xbe8da066	-0.27661437
181	0x3d87ae07	0.0662499
182	0x3cb63809	0.022243517
183	0xbbe75e46	-0.007060799
184	0x3e03bcbf	0.1286497
185	0x3deafd10	0.11474049
186	0x3d98e27c	0.074650735
187	0xbd52f479	-0.05150268
188	0xbc9e9abf	-0.019360898
189	0xbc8fd4d0	-0.017557532
190	0xbf6239b3	-0.8836929
191	0xbe50ef4d	-0.20403786
192	0xbd050d18	-0.03248319
193	0x3de0a6ba	0.109693006
194	0x3d926f74	0.07150164
195	0xbf1f7f51	-0.62303644
196	0x3d139e6a	0.036039747
197	0xbe9bc59d	-0.30424204
198	0xbd28fa0e	-0.041254096
199	0xbd8daed0	-0.069181085
200	0xbe5a18cc	-0.21298522
201	0x3d9bf978	0.07615942
202	0x3d18b405	0.037281055
203	0x3da5328c	0.08066282
204	0x3ea5f631	0.32414392
205	0x3db02254	0.086002976
206	0xbd6a1f62	-0.057158835
207	0x3d507978	0.05089709
208	0xbcea6f59	-0.028617548
209	0x3dabb459	0.08384008
210	0x3d71e9ee	0.059060983
211	0x3d4ed2c0	0.050493956
212	0xbb35bf57	-0.0027732456
213	0x3b724158	0.0036965217
214	0x3dfce996	0.123492405
215	0x3d2af423	0.041736733
216	0xbca35196	-0.019936364
217	0x3bb3a3e4	0.005482184
218	0x3dd2e4f2	0.10297574
219	0xbc87c056	-0.016571205
220	0x3d3b387c	0.045708165
221	0x3db32d7c	0.0874891
222	0x3e11d5a0	0.14241648
223	0xbf01eeb0	-0.50754833
224	0xbb9505d7	-0.0045478153
225	0x3e11ead9	0.14249744
226	0xbe940355	-0.28908792
227	0x3e3047f9	0.17214955
228	0x3df06de3	0.11739709
229	0x3e061b31	0.1309631
230	0x3dfaeb9d	0.12251971
231	0x3d9b7834	0.07591286
232	0x3c28e1e2	0.010307761
233	0xbd46917e	-0.048478596
234	0x3f10eb40	0.56608963
235	0xbe91e10c	-0.2849201
236	0xbe515801	-0.20443727
237	0xbddbe39b	-0.10736772
238	0x3e018482	0.12648204
239	0xbe0b605f	-0.13610981
240	0xbd557d61	-0.052121524
241	0xbe0fbb5f	-0.1403632
242	0xbcc74f8b	-0.024329921
243	0x3ddb01c3	0.106936954
244	0x3e0a1925	0.13486154
245	0x3ca93fae	0.020660248
246	0x3e2c7702	0.16842273
247	0xbeb9316b	-0.36170515
248	0xbd735e35	-0.059416015
249	0x3c8aee51	0.016959341
250	0x3e40f04d	0.18841667
251	0xbc04f0da	-0.008114064
252	0xbb0aa366	-0.0021154522
253	0x3e558fc3	0.20855622
254	0x3e36d992	0.17856434
255	0x3cec942e	0.028879251

q1.q_net.fcs.1.bias f4 [64]
0	0x3d261ee9	0.040556822
1	0x3e5eee4c	0.2177059
2	0x3e3c88f9	0.18411626
3	0x3da7ae85	0.08187584
4	0xbddca192	-0.107730046
5	0x3e0d918a	0.1382505
6	0xbe2157aa	-0.15756097
7	0xbd68fab3	-0.05687971
8	0x3e07f51f	0.132771
9	0x3e0f4923	0.13992743
10	0xbd8b170f	-0.067915075
11	0xbd8c7ad2	-0.068593636
12	0x3d94fcc1	0.072747715
13	0x3d904005	0.07043461
14	0xbd432a7a	-0.04764793
15	0x3dcaad20	0.09896302
16	0x3e3fa3b6	0.18714795
17	0x3e5e846a	0.217302
18	0xbdbdd146	-0.09268431
19	0x3e4a4e52	0.1975644
20	0xbd4a76dc	-0.04942976
21	0x3d5bd657	0.053671207
22	0xbd4c47b4	-0.04987307
23	0x3d6849c0	0.05671096
24	0xbcd50bca	-0.026006598
25	0xbd4e033d	-0.050296057
26	0x3db863bc	0.09003398
27	0x3e963254	0.29335272
28	0x3e338823	0.17532401
29	0xbd79683d	-0.060890425
30	0xbdb376a6	-0.08762865
31	0x3d463ee6	0.04839983
32	0x3e03608a	0.12829795
33	0xbe01e3d3	-0.12684564
34	0x3db5c5b1	0.08875597
35	0xbdb6d115	-0.08926598
36	0x3e65ff0c	0.22460574
37	0x3e1d5562	0.15364602
38	0x3e9ef365	0.3104507
39	0x3da665e7	0.08124905
40	0x3e32a7b0	0.1744678
41	0xbaa84364	-0.0012837467
42	0x3d7aa1de	0.061189525
43	0xbd3a0eb4	-0.04542418
44	0xbd386864	-0.04502143
45	0x3d85b168	0.06527978
46	0x3d308277	0.04309317
47	0x3d17df1c	0.037078008
48	0xbdb06fa6	-0.08615045
49	0x3e51ebde	0.20500132
50	0xbe0335cc	-0.1281349
51	0x3e8244fb	0.25443253
52	0xbd029829	-0.031883392
53	0xbb6fd475	-0.003659514
54	0x3e25fce1	0.16209747
55	0xbc8bc0cd	-0.017059708
56	0x3e872904	0.2639848
57	0xbdcdc446	-0.10047202
58	0xbdc7e0ef	-0.097596996
59	0x3e23da01	0.1600113
60	0xbddfc95a	-0.10927077
61	0x3e1b6079	0.1517352
62	0xbc8e77a0	-0.017391026
63	0xbabe82f5	-0.0014534878

q1.q_net.fcs.2.weight f4 [1, 64]
0	0x3de8ff3e	0.113768086
1	0x3f156294	0.58353543
2	0xbe930c5f	-0.28720376
3	0xbe054915	-0.1301616
4	0x3bccc23f	0.006248742
5	0x3e8f881e	0.28033537
6	0x3e21cf64	0.1580177
7	0x3c0e958e	0.008702649
8	0x3f9cfe23	1.2265056
9	0x3fa3c3f7	1.2794179
10	0xbd9a4700	-0.075330734
11	0xbd5017a3	-0.05080379
12	0x3d611f4c	0.054961488
13	0x3f6380dc	0.888685
14	0xba8eaaa2	-0.0010884593
15	0xbd20b0d9	-0.039231155
16	0x3dcbc0bf	0.09948873
17	0x3e158e2f	0.1460502
18	0x3e23313e	0.15936753
19	0xbe8b9b94	-0.27267134
20	0xb89fadf2	-7.614111e-05
21	0xbe2f6f2a	-0.1713225
22	0xbdeecc89	-0.11660106
23	0xbe29e18f	-0.1658995
24	0x3ddc1852	0.10746826
25	0xbe23190c	-0.15927523
26	0x3e6f9a4c	0.23398703
27	0x3f3f1e67	0.74655765
28	0x3e81b047	0.253298
29	0xbe276965	-0.16348799
30	0xbdb99917	-0.09062403
31	0xbe2efad4	-0.17087871
32	0xbe8ed06a	-0.27893382
33	0x3cb08288	0.021546617
34	0x3e22c8d4	0.15896922
35	0xbdc76736	-0.09736483
36	0x3dde6c0f	0.10860454
37	0xbf9c282b	-1.2199758
38	0x3f31861f	0.6934528
39	0xbd856fbb	-0.065154515
40	0xbe759999	-0.23984374
41	0xbe3bf83c	-0.18356413
42	0xbf7a22db	-0.97709435
43	0x3db894db	0.09012767
44	0xbdd2e781	-0.10298062
45	0xbd550ce6	-0.052014254
46	0xbedfcd35	-0.43711248
47	0x3e66c8ab	0.22537486
48	0xbbad968b	-0.005297487
49	0x3e3ea706	0.18618402
50	0xbca5b80b	-0.02022936
51	0x3e716168	0.23572314
52	0xbd8c96f5	-0.0686473
53	0xbd9b1f4c	-0.07574329
54	0x3e7d135d	0.24714418
55	0xbe23ef4e	-0.16009256
56	0x3e8cedf5	0.27525297
57	0x3dd0ffab	0.10205015
58	0xbe296768	-0.16543353
59	0x3f774329	0.96586853
60	0x3dcd3664	0.1002014
61	0xbedd1395	-0.43179002
62	0x3dc1be12	0.09460081
63	0x3c8912dc	0.016732626

q2.q_net.fcs.0.weight f4 [64, 5]
0	0xbf007c5d	-0.50189763
1	0xbea02257	-0.312762
2	0xbf127aa3	-0.5721838
3	0xbe79c1cb	-0.24390332
4	0x3db2a4bb	0.08722826
5	0x3d4d1fa1	0.05007899
6	0x3e983065	0.29724422
7	0xbf47b13b	-0.7800481
8	0xbec98a8f	-0.39363524
9	0x3f20fb55	0.628835
10	0x3ecfce8f	0.4058728
11	0x3d9c6614	0.07636657
12	0xbf0b778a	-0.5447928
13	0x3e780380	0.24220085
14	0xbe7d4447	-0.24733077
15	0x3ecbd29d	0.39809123
16	0x3e44372c	0.19161671
17	0xbec18fdc	-0.37805068
18	0xbd06e7a3	-0.03293575
19	0x3c93f7c2	0.018062476
20	0x3eacb533	0.33731994
21	0xbdac7af7	-0.08421891
22	0x3e69cd14	0.22832137
23	0x3e848cca	0.25888664
24	0x3eea9db8	0.45823455
25	0xbee97d96	-0.45603627
26	0xbe63ac4a	-0.22233692
27	0x3f2a3388	0.6648488
28	0x3d92639f	0.071479075
29	0xbdbac72a	-0.09120019
30	0xbe8d13be	-0.27554125
31	0xbddbdf0c	-0.10735902
32	0xbf9be8e2	-1.2180445
33	0xbe3430ef	-0.17596792
34	0x3db68833	0.08912697
35	0x3dff786e	0.12474142
36	0x3cc26c79	0.023733364
37	0x3cd19959	0.025585817
38	0xbe2c1a1c	-0.16806835
39	0xbeedef94	-0.46471846
40	0x3eaa5e97	0.3327529
41	0xbe6cdd60	-0.23131323
42	0xbd8f14c4	-0.069863826
43	0xbe0be1e2	-0.13660386
44	0xbeee93d7	-0.46597168
45	0xbebad64a	-0.36491615
46	0xbefb047d	-0.49026862
47	0xbf117b42	-0.568287
48	0x3c0f2849	0.008737632
49	0x3e1adeb5	0.15124018
50	0x3e7b2a9c	0.24527973
51	0x3bf97e38	0.0076139234
52	0x3f74055b	0.9532067
53	0x3e96870e	0.29399914
54	0xbeeb31a0	-0.45936298
55	0x3c5deecb	0.013545702
56	0xbe427261	-0.18988945
57	0x3e942ecb	0.2894195
58	0x3e8acf64	0.2711135
59	0xbe805249	-0.2506278
60	0x3e002dfc	0.12517542
61	0xbe69bf03	-0.22826771
62	0xbd7dc4ff	-0.06195545
63	0xbdc5307d	-0.09628389
64	0x3e1a1044	0.15045267
65	0x3e6de73f	0.23232745
66	0x3eb64eea	0.35607082
67	0x3fc3ca11	1.5296041
68	0x3eddcbc3	0.4331952
69	0xbe18d255	-0.14923985
70	0x3ef823a4	0.48464692
71	0x3ea54661	0.32280257
72	0x3f19f0d9	0.6013313
73	0x3e0ad987	0.13559543
74	0x3dd61817	0.104538135
75	0xbd5ab33c	-0.053393587
76	0xbe4a3ba3	-0.19749312
77	0x3f07b449	0.5300947
78	0xbea10001	-0.31445315
79	0xbedb70ef	-0.428596
80	0x3e1d24f4	0.15346128
81	0x3f109a66	0.56485593
82	0xbe7746bc	-0.24148077
83	0x3e477452	0.19477966
84	0xbdeadcb2	-0.114678755
85	0x3ee9e06e	0.4567904
86	0xbe0f9c73	-0.14024524
87	0x3e987496	0.29776448
88	0xbe3833ce	-0.17988512
89	0x3e21fbea	0.15818754
90	0xbd360fb5	-0.044448573
91	0xbead2a10	-0.33821154
92	0xbf26dbbe	-0.6517905
93	0xbee526d9	-0.447562
94	0x3e11c6ae	0.14235947
95	0xbe10abbb	-0.1412801
96	0x3e15255e	0.14565036
97	0x3fd21a72	1.641432
98	0x3e842eb9	0.25816897
99	0xbde6af40	-0.11263895
100	0x3e77a363	0.24183421
101	0xbe850d5c	-0.25986755
102	0x3dad402c	0.084595054
103	0x3da73540	0.081644535
104	0x3ea7811b	0.32715687
105	0x3c84d4ec	0.01621481
106	0xbdc533ee	-0.096290454
107	0x3f097725	0.53697425
108	0xbe48d78e	-0.19613478
109	0xbda75286	-0.08170037
110	0x3eeadc5f	0.45871255
111	0xbe554a7d	-0.20829196
112	0xbf1bf1a3	-0.60915583
113	0xbed5c22b	-0.417497
114	0x3e6a70c0	0.22894573
115	0x3f01f3ec	0.5076282
116	0x3e3b1eb3	0.1827343
117	0x3fb545d7	1.4161938
118	0x3e861abf	0.2619228
119	0xbdff93cd	-0.12479363
120	0x3d9f34e6	0.077737615
121	0x3e560d9b	0.20903628
122	0xbdefc2fc	-0.11707112
123	0xbebf68dc	-0.3738469
124	0x3e39623a	0.18103877
125	0x3ee741bf	0.45167348
126	0x3f00e42c	0.5034816
127	0x3fcdd0da	1.6079361
128	0x3f05476c	0.52062106
129	0xbdf4f158	-0.11960095
130	0x3c90fe74	0.017699458
131	0x3e1b4773	0.15163974
132	0xbf602778	-0.87560225
133	0xbec1e4e7	-0.3786995
134	0xbdf679ad	-0.120349266
135	0x3d236af5	0.039896924
136	0x3d89b6d0	0.06724322
137	0x3fa38034	1.27735
138	0x3eababc4	0.33529484
139	0xbe5b2e16	-0.21404299
140	0xbe93fdf9	-0.28904703
141	0x3e5dbc42	0.21653846
142	0x3de74dde	0.11294149
143	0x3ce2b421	0.027673783
144	0xbcbecfcf	-0.02329245
145	0xbeb0f830	-0.34564352
146	0x3ce01085	0.027351627
147	0xbe9e38c6	-0.3090269
148	0xbd2d9848	-0.042381555
149	0x3dbda78c	0.09260473
150	0x3e314f97	0.17315517
151	0xbe208fba	-0.15679827
152	0x3e0600af	0.13086198
153	0xbeb20ace	-0.34773868
154	0x3d10ff31	0.03539962
155	0x3ed441f4	0.41456568
156	0xbe3409b0	-0.1758182
157	0xbe2a30ab	-0.16620128
158	0xbde5e5f9	-0.112255044
159	0xbde11aa4	-0.109914094
160	0xbe5b6014	-0.2142337
161	0x3e6b4975	0.2297724
162	0xbee41b24	-0.44551957
163	0x3e22b6e3	0.15890078
164	0xbecbe568	-0.3982346
165	0x3d88fabf	0.06688451
166	0xbc24ce8e	-0.010059012
167	0xbe972af3	-0.29524955
168	0x3dcd0293	0.100102566
169	0x3e34a80f	0.17642234
170	0x3e6961bd	0.2279119
171	0x3f21a361	0.6313992
172	0x3f370573	0.7149269
173	0x3eb54de4	0.35410988
174	0x3e1bfdee	0.15233585
175	0xbe1a9bd8	-0.15098512
176	0xbaa40fa1	-0.0012516865
177	0x3d94ff72	0.07275285
178	0xbc3f0d88	-0.011660941
179	0x3f48bc59	0.78412396
180	0x3eb976fb	0.36223587
181	0x3ec231e4	0.3792869
182	0xbc25c1c6	-0.010117
183	0x3ea3723b	0.31923088
184	0x3ec04216	0.3755042
185	0x3e902270	0.28151274
186	0x3ecb8dd3	0.3975664
187	0xbe2b6172	-0.16736391
188	0x3e2ad8a6	0.16684207
189	0xbde2b43d	-0.11069534
190	0x3e372ee8	0.17888987
191	0xbed0da8e	-0.40791744
192	0xbfa7954f	-1.309244
193	0xbef2c220	-0.4741373
194	0x3e0ead51	0.13933302
195	0x3ecf1c7e	0.40451425
196	0xbe447057	-0.19183479
197	0x3ea13565	0.3148605
198	0x3de0c0cc	0.10974273
199	0xbe845bb6	-0.2585122
200	0x3e274ca9	0.16337837
201	0x3e300937	0.17191015
202	0xbe8949d7	-0.26814148
203	0xbe6d01cf	-0.23145221
204	0xbeddbdfc	-0.4330901
205	0xbe3565fb	-0.17714684
206	0xbe348a4a	-0.17630878
207	0xbff38cf7	-1.9027394
208	0xbebc15b5	-0.3673531
209	0x3e5776a4	0.21041352
210	0xbe0e25f0	-0.1388166
211	0x3d96af7d	0.073576905
212	0x3b3ae109	0.002851548
213	0xbd7ed630	-0.062215984
214	0xbf22d734	-0.63609624
215	0x3cdd57a7	0.027019335
216	0xbf08232a	-0.53178656
217	0x3ed3c0c3	0.41358003
218	0x3d8c3760	0.068464994
219	0xbe8f6c2b	-0.28012213
220	0xbdb1b91d	-0.08677886
221	0xbeb3919d	-0.35072032
222	0xbfdbc0f4	-1.716826
223	0xbed28ecc	-0.4112457
224	0x3ded0401	0.11573029
225	0x3cbf58eb	0.02335783
226	0xbc4e9b8e	-0.012610329
227	0x3c0eadf2	0.008708464
228	0xbe5a9f78	-0.21349895
229	0x3f10ede3	0.56612986
230	0xbd57dde6	-0.052701853
231	0xbe7dc62a	-0.24782625
232	0xbfa3b22a	-1.2788746
233	0xbf12d58e	-0.5735711
234	0x3e8eb4fa	0.2787245
235	0x3c10fd31	0.008849428
236	0x3dac09c9	0.08400304
237	0xbe5ea7d6	-0.21743712
238	0xbcbc15fc	-0.022959702
239	0x3f06e7d4	0.5269749
240	0xbeb96122	-0.3620692
241	0xbe2d8017	-0.16943394
242	0x3eafa015	0.3430182
243	0xbdca3838	-0.09874004
244	0xbd52ecf9	-0.051495526
245	0xbec44930	-0.38337088
246	0x3ead67e7	0.33868334
247	0xbce31e33	-0.027724361
248	0x3ea6d11e	0.3258142
249	0xbe030766	-0.12795791
250	0x3ebf4d35	0.37363592
251	0x3d71c43e	0.05902504
252	0xbedb2167	-0.4279892
253	0x3df93761	0.12168766
254	0x3f049e51	0.5180407
255	0xbeb08dc8	-0.3448317

q2.q_net.fcs.0.bias f4 [64]
0	0x3e86ff7d	0.26366797
1	0xbdcfc96d	-0.10145841
2	0x3e385089	0.17999472
3	0xbe7384e5	-0.23781164
4	0x3ecb82a5	0.3974811
5	0x3e431e35	0.19054492
6	0x3dfcf35b	0.12351104
7	0xbe9f6247	-0.31129667
8	0x3f1614f1	0.58625704
9	0xbe424f25	-0.18975504
10	0xbe20864e	-0.15676233
11	0xbed4da0c	-0.41572607
12	0x3eb5798b	0.35444292
13	0xbe58fb34	-0.21189576
14	0xbe8c157f	-0.2736015
15	0x3eda5d60	0.42649364
16	0xbe411f7c	-0.18859667
17	0x3eef71b0	0.46766424
18	0x3edf6a2d	0.43635693
19	0x3ba7d150	0.0051213875
20	0xbeb535d4	-0.3539263
21	0x3e0c854a	0.1372272
22	0xbe95a0db	-0.29224285
23	0xbea72881	-0.3264809
24	0xbda4dd19	-0.080499835
25	0xbe86b4f0	-0.2630992
26	0xbdc27450	-0.09494841
27	0xbe8d173b	-0.27556786
28	0x3f04e626	0.5191368
29	0x3eb05f4f	0.34447715
30	0x3ef37557	0.4755046
31	0xbe83342d	-0.25625744
32	0x3ee53b6a	0.44771892
33	0xbee3bfc4	-0.44482243
34	0xbe14e6ae	-0.14541122
35	0xbe468735	-0.19387515
36	0x3ec179d2	0.37788254
37	0x3f04a400	0.51812744
38	0xbdb18220	-0.086673975
39	0x3e9225e6	0.2854454
40	0xbe704775	-0.23464759
41	0xbe0489c2	-0.12943175
42	0x3d031e32	0.03201122
43	0xbd2cc44e	-0.0421794
44	0x3d9f8a70	0.07790077
45	0xbd705245	-0.05867221
46	0xbea2f4e9	-0.31827477
47	0xbcb26f42	-0.021781567
48	0x3ef156a2	0.47136408
49	0xbe67e831	-0.22647168
50	0x3dc9357e	0.09824656
51	0xbe6a6974	-0.2289179
52	0x3e876e9b	0.26451573
53	0x3eac0a4b	0.33601603
54	0x3f229893	0.6351406
55	0x3e0d5c2f	0.13804697
56	0x3f1cd9a9	0.61269623
57	0xbe282bf5	-0.16423018
58	0x3e347b7b	0.17625229
59	0xbda72ebc	-0.08163211
60	0x3e81822f	0.25294635
61	0x3de255cb	0.1105152
62	0xbda146a2	-0.078748
63	0xbddecb44	-0.108786136
