examples/rl/models/ppo/ppo_model_quadrotor_3D_stab.pt (torch, 486059 bytes, 36 tensors)

actor.logstd f4 [4]
00000000: f62f 4fbe 1a8b 84be 8cb2 44bd 3386 363d
-0.2023314 -0.25887376 -0.048021838 0.044561576

actor.pi_net.fcs.0.weight f4 [128, 12]
00000000: ae58 033e 10c6 31be 3309 753e 4e87 013e
00000010: 68fe 833e f0b3 33be d091 043c c59a 093d
00000020: 6a4a 36bf 0729 b63e cc49 30bc 95ae 1abe
00000030: c6c4 32be 4c70 c73d c7f0 a13e 2074 bf3d
00000040: 5e73 903e 67fc 803e c403 4dbf 5d47 0e3f
00000050: 1e99 9e3e 3813 60be df34 7abe 91c8 0d3e
00000060: 5a2a 5c3e e1eb bbbb 0403 d73d bc74 ad3d
00000070: 0e99 85be 2a6e 8ebe 0d25 9bbe 1aba 0c3e
00000080: 78c9 50be d399 9fbc 22db 133e fd24 413e
00000090: 1d47 803e d91a 86be e1e9 933d 9800 173f
000000a0: ae37 d0bd e3d6 8bbe b2e3 d7be f450 343e
000000b0: 205d 343f 06a0 a53e 5c5c e63d 93d5 013e
000000c0: b14d 6f3e 1994 14bc b3ed b43e 4dd9 7e3d
000000d0: 923f 25be 4a31 06be b02d 48be 4bc8 1e3f
000000e0: 83cd b83e 6bd8 83be 890b f0bd bbeb 873e
000000f0: 2682 22bc bc6b fabd 0dd8 0dbd fb07 6dbd
00000100: 4f3e 3abd 158c 893e 0a23 0ebe f5b6 213f
00000110: 6dc9 9d3e a3b6 38be f04c a43e 33d7 acbe
00000120: 00fb 89bd 5897 be3d 3a67 bb3e 636f ae3e
00000130: 1c9a e43d 8ed6 473e d976 29bf 9112 6d3d
00000140: c126 3abe 52e4 b6bd 2eb3 29bd 54db c4bc
00000150: 7ed8 a83d b6bf 7dbe bfb8 2fbe 2aae 1fbd
00000160: d442 053e 609e b2bb 3b26 a9bd 45d8 04bf
00000170: c7e5 afbd 4c03 96bb dd4b 64be 75f1 e73c
00000180: 59f8 5dbe 3c72 17be 55d7 9e3e b817 a43e
00000190: 28ac 9fbd 3b9d a4be d75b 0bbf 3655 fcbe
000001a0: 6361 00bb 7b1f c4bd 9f7c 46be 4bcd 68bd
000001b0: 1099 363e 7aa3 b03d 3fba 6ebd eed7 533e
000001c0: 3054 9ebe 4eaf 83bd 39b3 203d b272 083f
000001d0: 7129 bbbe 8942 67bd daa5 2a3e 7e2b 153c
000001e0: 38d0 3e3e 711b 76be 547a 8d3e 0d19 dcbd
000001f0: f724 23be aac1 893e d6d1 993e d410 d6be
00000200: 713b 31bf b3e3 d03c e5fc bebd 0f2a 8bbe
00000210: 916d eabd dd8a 43bd d332 3fbe 2e2a b83d
00000220: f306 4a3e 8a2a 05be 70c3 d93e d686 21bf
00000230: c98f 33bf bf87 623e 3b16 0abe d1c6 6abe
00000240: c6c6 293d fb06 ee3d 1dad f33d 6930 3abd
00000250: 5c06 4d3c e96a 7bbe f9ba f0be a8e4 84bd
00000260: 27f4 b6be e660 c93d 7af1 6bbd fb9d cfbe
00000270: c264 36be f346 6cbe 678b 58bd dc8c 843d
00000280: ad0d a73d 52ba 643e 317d 253e 4284 eabd
00000290: 3bcd 0b3f 7180 02bd 853d debd 91e4 95bd
000002a0: aa45 363e de2f 3f3e 5d70 e8ba ac9a c13e
000002b0: 15cf 643d 37db 16be 7ce8 51bf 89a9 93be
000002c0: f185 debe e3a9 a7be 3efc 6dbe c428 3cbe
000002d0: 105a 90be 225a 6fbe 54dd 20be 9755 75be
000002e0: dee9 29be 1a64 503d 582f 083f 8108 9c3d
000002f0: 493a bb3e 5243 60bd a7a1 6cbd fdae a53d
00000300: c386 5e3e 79c0 483e 867e 18be ebda 86bd
00000310: 6b85 933e 4162 653e b08c 8abe cd1c 93bd
00000320: 6a88 7abe 229d 9a3c 192e 55bc db60 513d
00000330: 9ef6 263e 700c 193c 0834 343e aa19 b03d
00000340: 82bb 03bd b071 7bbe 0f27 393f d009 57be
00000350: 6703 03bf 18e7 3c3e a338 3abe 1ef9 a93e
00000360: f858 603e 931d d3bd 2e11 edbd f856 a9bc
00000370: 5544 febd 3aa0 3a3e 50f4 b9be 286b 4b3f
00000380: c15a 5f3d 6c6d 983c 83e7 a2bc a2d0 3b3d
00000390: 3cd3 5e3e cf7b c23e ac8b 7cbe e204 76be
000003a0: 7ff0 463e 2caf bc3e 87c3 6bbe f8e0 743e
000003b0: 1f2c cfbe 29bf 023e 25ef 7bbd 50b6 0b3d
000003c0: 8cbb bf3d 78df 0fbd 229a 8c3d 51eb 433e
000003d0: 136a d23d c585 b83e 431a 61be 7c40 d83e
000003e0: c5ac d33e 2144 0dbe e163 6ebc ab4e 0cbe
000003f0: 1ca6 27be 5ee2 a1bd 99ca c83d 7003 83be
0.12826797 -0.17360711 0.2392929 0.12649271 0.25780034 -0.1754911 0.008091405 0.033594865
-0.71207297 0.35578176 -0.010759782 -0.1510566 -0.17457876 0.09738216 0.3162901 0.09348321
0.28213018 0.25192568 -0.8008387 0.5557764 0.30976194 -0.21882331 -0.24434231 0.13846041
0.21500531 -0.005734906 0.10498622 0.08469531 -0.26093334 -0.27818424 -0.30301705 0.13742867
-0.20389354 -0.019482529 0.14439061 0.18861766 0.25054255 -0.26192358 0.07222343 0.5898528
-0.1016687 -0.27312383 -0.42165905 0.17609006 0.704546 0.3234865 0.11248085 0.12679128
0.2336948 -0.009068512 0.353376 0.062218953 -0.16137531 -0.1310474 -0.19548678 0.6202437
0.36094293 -0.2575105 -0.1172095 0.26547036 -0.009918725 -0.1222758 -0.03462987 -0.05786894
-0.04546958 0.26864687 -0.13880554 0.63169795 0.30817738 -0.1803842 0.3208995 -0.33757934
-0.067373276 0.0930621 0.36602193 0.34069356 0.111622065 0.1951544 -0.6619697 0.057879034
-0.18178846 -0.089302674 -0.041430645 -0.024030365 0.082444176 -0.24780163 -0.17160319 -0.038984455
0.13013774 -0.0054510087 -0.08259245 -0.518925 -0.085887484 -0.0045780297 -0.22294565 0.028313378
-0.21676768 -0.1478967 0.3102366 0.32049346 -0.07796508 -0.32151207 -0.5443701 -0.4928376
-0.0019589297 -0.09576317 -0.19383477 -0.056836408 0.17831826 0.08624931 -0.058283087 0.2068784
-0.30923605 -0.06429921 0.03923342 0.5330001 -0.36555055 -0.056459937 0.1666483 0.009104608
0.18634117 -0.24033906 0.2763239 -0.107469656 -0.1593207 0.26905566 0.30042905 -0.41809714
-0.69231325 0.0254992 -0.093255796 -0.27180526 -0.114466794 -0.047739852 -0.18671732 0.0899242
0.19729213 -0.13004509 0.4253192 -0.6309637 -0.70141274 0.22122096 -0.13485043 -0.22927405
0.04144933 0.11622425 0.11898253 -0.045456324 0.012513723 -0.24552502 -0.4701765 -0.06488925
-0.35733148 0.09832935 -0.057603337 -0.40550217 -0.17811874 -0.2307394 -0.05286732 0.06472179
0.08156905 0.223367 0.16161038 -0.114510074 0.5461003 -0.031860773 -0.10851578 -0.07318986
0.17800012 0.18670604 -0.0017733682 0.37813318 0.05586155 -0.14732061 -0.8199537 -0.28840283
-0.43461564 -0.327468 -0.23240754 -0.18374926 -0.28193712 -0.23374227 -0.1570943 -0.23958431
-0.1659312 0.050876714 0.5319724 0.076188095 0.36567906 -0.0547517 -0.05777135 0.08090017
0.21731095 0.19604672 -0.14892015 -0.06584724 0.28812727 0.22400762 -0.2706046 -0.07183228
-0.244661 0.018873755 -0.013011479 0.05111776 0.16305014 0.009341344 0.17597973 0.08598645
-0.032161243 -0.24555087 0.72325224 -0.20999837 -0.51177067 0.1844753 -0.18185668 0.33197874
0.21908939 -0.10308375 -0.115755424 -0.020671353 -0.12415377 0.18225184 -0.36319208 0.7946038
0.05452991 0.018606864 -0.019885784 0.045853265 0.21760267 0.37985083 -0.24662656 -0.240253
0.1942768 0.36852396 -0.23023807 0.23913944 -0.4046335 0.12768234 -0.061507363 0.034109414
0.093619436 -0.035125226 0.06865336 0.19132735 0.10274138 0.36039558 -0.21982674 0.42236698
0.4134275 -0.1379552 -0.01455018 -0.13701884 -0.1637196 -0.07904504 0.098042674 -0.2558856

actor.pi_net.fcs.0.bias f4 [128]
00000000: fcce adbe 5862 4fbe c387 833e 6dcb 573e
00000010: e511 083e 59b3 56be cf18 d43c 194b 4ebe
00000020: 832e 76bd 07a5 693e 084c 003e 3769 4cbe
00000030: c3d6 993d 6e42 23be fab1 42be 13c9 e23d
00000040: 8d6a 8bbe 3ac5 6e3e 556b 273e 4afc 82be
00000050: e626 15be 55d7 173d 0407 6f3d 89b2 323d
00000060: 2498 e7bc 9b8e 2cbe 0f98 d0bc f421 0cbe
00000070: 488f 7d3d f94b 1fbe 6ef0 9ebe ab97 44be
00000080: f897 09be 4d8a ccbd 91d5 9abd b375 b03d
00000090: 5224 8a3d 822a 373e 8c46 b63d 95e6 9cbe
000000a0: 5b7a 8ebe a3a6 93be 21d1 8c3e be5f 743e
000000b0: 718c 68be 5ab1 96be 8ce0 e4bd 329d 283d
000000c0: 200c 2d3e acad ae3c da8d 00be d703 343d
000000d0: 1567 5e3e 5158 24be 3689 9d3e 097e b13d
000000e0: 5019 a5bd ee6f 80be ff81 693e e98a 3a3e
000000f0: 4d6c 0e3e 7e1f 1f3e 4cba 8f3c e2bc 54be
00000100: 6fdf 46be 280a f53c 323f a33e 4c01 75bd
00000110: e17a ccbd 7148 c33e aff1 12bd 4057 39bd
00000120: 73f6 403e 2b05 a4be 5440 8fbb 7e58 edbd
00000130: 2ed0 aebd 42bb aabc 6edb 8bbb 6636 b73e
00000140: a2d9 a6be ef88 113d 2f27 1b3e 2b91 0cbe
00000150: 1ede 91ba 4fd5 c3be aa63 1f3e c739 d83d
00000160: 08da 52be d08e 45bc e2eb 653e 6dd0 41be
00000170: 4c2d 103b 5346 cabd aeee 9a3d 96b5 d33d
00000180: 06c9 3abe 96dd 68bd 75ad 1abe e0a0 703e
00000190: 99f9 2d3e 5fb1 333d 8859 39be 89a7 90be
000001a0: 5d5e 6abe 2e48 943e b279 1b3e 55ca 88be
000001b0: c9ec c43d 5524 273e 04e1 90be 67cd aa3c
000001c0: 7e85 af3e b458 60be 48c2 9b3e 1b74 ea3d
000001d0: df87 51be 84db 92bc 7544 933e deb4 b9be
000001e0: 4fc9 803c cd7e 5ebe 4166 423e 7bbf 9abd
000001f0: c49d c93e f914 89bd 033d 703e 7055 283e
-0.3394698 -0.20252359 0.25689515 0.21073695 0.13288076 -0.20966853 0.025890736 -0.20145835
-0.06010295 0.22816859 0.12529004 -0.19962011 0.07511666 -0.1594331 -0.19013205 0.11073508
-0.2722973 0.23317423 0.16349538 -0.25583106 -0.1456562 0.03707059 0.0583563 0.043627296
-0.028270788 -0.16851275 -0.025463132 -0.13684827 0.06190422 -0.15556325 -0.31042808 -0.19198482
-0.13436878 -0.09987316 -0.07560266 0.08616199 0.06745209 0.17887309 0.089001745 -0.3064467
-0.27827725 -0.2883807 0.27503303 0.23864648 -0.22709824 -0.29432184 -0.111756414 0.041165538
0.16899157 0.021323048 -0.12554112 0.043948974 0.2171901 -0.16049315 0.30768746 0.086666174
-0.080614686 -0.25085396 0.22803496 0.18217053 0.13908501 0.15539357 0.017544888 -0.20775178
-0.1942117 0.02991207 0.31884152 -0.05981569 -0.09984375 0.38141206 -0.03587502 -0.045249224
0.18844013 -0.32035193 -0.004371682 -0.11589144 -0.08535801 -0.020841245 -0.0042681014 0.3578369
-0.32587916 0.03553098 0.15151666 -0.13727252 -0.0011128818 -0.3824868 0.15565363 0.10557895
-0.20590985 -0.012057975 0.22453263 -0.18927164 0.0021999655 -0.098766945 0.07565056 0.10337369
-0.18240747 -0.056851946 -0.15105231 0.23498869 0.16989745 0.043870326 -0.1810056 -0.2825282
-0.22887559 0.2896132 0.15183142 -0.26716867 0.09615476 0.16322453 -0.28296673 0.020849897
0.34281534 -0.21908838 0.30421662 0.114479266 -0.20461987 -0.017926939 0.28763166 -0.36270803
0.015720991 -0.21728058 0.1898432 -0.07556053 0.39378178 -0.06693453 0.23460774 0.16438842

actor.pi_net.fcs.1.weight f4 [128, 128]
00000000: 699e 8dbd 909f 883d 05a8 713d ff7b 983c
00000010: 37dc 0abd f5e8 fe3c e7f2 c93d 829a 56bd
00000020: cf35 0fbd 6cb0 00bc 9d92 69bd 0bd9 9d3c
00000030: 7e81 8b3d 7b25 ac3c 4561 ca3d 00ff 4fbd
00000040: f497 9dbb b10d 37bd 99da fabc 0d87 0f3b
00000050: 17f5 873d 6b8c 0a3d 5a63 06be 516b 603d
00000060: 0504 e53d c0e1 04bd 89df 613d 6e00 f8bd
00000070: a377 b4bc d40a a0bc 5aea db3c 25ad 8f3d
00000080: a6c8 fdbb e77f f9bc dc9b c7bd 40ed 50bd
00000090: 5f0f b73c d2bd 813d 1dce cdbc ea52 e33d
000000a0: 3853 09bb 426e 3bbd 1922 f4bd 67ca e6bd
000000b0: fb2d 443d 5d05 4a3b 160e afbd 2cfc 8e3b
000000c0: 53e1 adbc 5feb 56bc e0a5 c8bd eb49 233d
000000d0: 7848 413d 9027 b93d 501c c03b ab90 443d
000000e0: 7da7 913d c188 3ebd 52b0 163d 4ea5 d9bc
000000f0: 007f 6fbd 74b7 a03b c2e1 a83d c874 753d
00000100: acaa 7dbd 47e1 163d 40e5 a83c 77f2 cb3d
00000110: 67df b8bd 16ae c53c de3a 843d 3cba afbd
00000120: c401 a7bc 2ec4 8b3d 224d 49bd 11e1 b73d
00000130: 6b52 c2bc bcc7 bb3d c983 abbc 50da c73d
00000140: 547a da3c b187 86bd 8d40 513d be2c 603c
00000150: b26f f53c 4789 4b3d f5ef 803d 9132 cfbc
00000160: bc68 b33d 6fff f53b 3a17 c43c eb59 cabd
00000170: 4659 12bd 1146 b4bd b160 09bb 299c 2e3b
00000180: c0b1 8abc 5418 c93d ad0c 71bb 0fb3 103d
00000190: abd2 213d d475 44bd 0c35 0bbb a29e 0fbd
000001a0: a8df aa3c 461c 3e3d ca7e 9a3b efc9 653d
000001b0: f8e8 babc 1c71 dd3c c520 b2bd 4a08 703d
000001c0: 8dcd 5d3d 2783 3dbd 3679 bebd 6861 a23c
000001d0: 725c 93bc 7f26 a83c a76c 2b3d e940 2c3d
000001e0: 0707 d23c eb89 a0bd c0f1 4bbd 3f2e 203e
000001f0: bf6a 083d 8dd1 873c f9ea f6bd 7efa 9fbd
00000200: 6b30 0d3e d7b4 e1bd 30cb 3abe 3304 abbc
00000210: 4e20 a6be 1677 573d eab5 923c d754 e63d
00000220: c2b8 653d 66db f4bc 3eb1 413e 71f8 983e
00000230: 0fca 203e 1e48 7c3c ead4 5f3d 1d37 09bd
00000240: cdd5 253d 9138 bf3d ba34 11be 7a74 9c3d
00000250: a5d8 6f3d 3566 0f3e 1bd0 be3d 95ea cb3b
00000260: fb0c edbb b5e0 35be ab6f e1bd 6386 43bd
00000270: b053 60bd 89d7 723d 61f8 00be bc4e 6c3e
00000280: 0a12 12be 7806 b93d 8006 b23c d389 2a3d
00000290: d7e9 95bc 58b0 fe3d 13db 0f3d ff8f f33c
000002a0: 5d30 9a3e 19c8 ebbc 1d27 0abe 6912 01be
000002b0: 24ec 01bb 0ac8 1c3d e3d2 113d 714b 81bc
000002c0: d2d3 8a3e 6b24 e8bd 1a2b 2dbd 4309 da3d
000002d0: d897 38bd 9ad7 0a3e 0fd3 f5bd ae9a 29be
000002e0: 01fd a63d 18e7 efbd f4ae b63d 715b cdbd
000002f0: c5db 1e3e 1b53 263e e9ac 5dbd 9415 2c3d
00000300: 12f7 003e da0c 08bd 4e51 8abd 52f1 05bd
00000310: 59ab 90bd 11ec 33bb 617d 1c3e 50f1 febd
00000320: 6a75 46bc 0460 663d d61d a73c a999 98bc
00000330: 1154 7d3d d268 623e d27a 783e b8b4 ddbd
00000340: a33f 143d bd17 babc c900 1d3d caf7 a53c
00000350: 59dc 1e3c a072 6f3d 43fb 3d3d 69c7 863d
00000360: 3bef 033d 662b 0e3e 49f3 9fbd c347 31bd
00000370: 2422 27bd baa5 393d c52c 443d ad46 07be
00000380: 8c3f d9bc a8a8 65be 923a 54bd 7a98 ca3c
00000390: 6dbf 183e 9d35 3fbe 4ec3 84bd 632a 9cbc
000003a0: 40f5 8fbc 8f2a 84bc 7f28 883d 5d2a e8bd
000003b0: 100e b7bd 59f9 34bb 04b0 903c 5aa9 af3c
000003c0: de16 f43d cb77 e23d eee4 093e acec 3e3e
000003d0: 220a 36be 0aec bdbe 41dc 4b3d 8e5b 3bbd
000003e0: 3a26 d0bd f821 673e 7236 9c3d 2121 183c
000003f0: ef8a a73d d376 3e3e 4e7f 243d d73e 223e
-0.0691498 0.06671059 0.058998127 0.018613813 -0.03390142 0.031116942 0.09860783 -0.052393444
-0.034963425 -0.007854562 -0.057024587 0.019268533 0.06811808 0.021013966 0.09881834 -0.050780296
-0.004809374 -0.04469079 -0.030621814 0.0021900565 0.06638544 0.03382532 -0.13123837 0.054789845
0.11182407 -0.032441854 0.05514482 -0.12109457 -0.022029703 -0.019536413 0.026845146 0.070154466
-0.0077448664 -0.030456496 -0.09746525 -0.05100751 0.022346197 0.063350335 -0.025122697 0.11099799
-0.0020954143 -0.045759447 -0.11920566 -0.11269074 0.047895413 0.003082595 -0.085476086 0.0043635573
-0.021225607 -0.01311764 -0.09797263 0.039865416 0.047188252 0.09040749 0.00586275 0.04798953
0.07112024 -0.046517137 0.036789246 -0.026568081 -0.058470726 0.004904682 0.08246185 0.059925824
-0.061930344 0.036835935 0.020617127 0.09958356 -0.090269856 0.024130862 0.064565405 -0.08580443
-0.020386584 0.06824528 -0.049145825 0.08978475 -0.02372094 0.09168956 -0.020936863 0.09758437
0.026669659 -0.0656885 0.05108695 0.013682542 0.029960487 0.049691465 0.06295768 -0.025292667
0.08760211 0.0075072567 0.023936857 -0.09880432 -0.03572967 -0.088024266 -0.0020962174 0.0026643372
-0.01693046 0.09819093 -0.0036781237 0.035327014 0.03950755 -0.047963932 -0.0021241335 -0.035063393
0.0208586 0.046413682 0.0047148215 0.056100782 -0.022816166 0.027031474 -0.086976565 0.058601655
0.054151107 -0.046267655 -0.09300463 0.019821838 -0.017988417 0.020526169 0.041851666 0.04205409
0.025638117 -0.07838806 -0.049791098 0.15642641 0.033304926 0.016579414 -0.12056536 -0.078114495
0.13788001 -0.110208206 -0.18241572 -0.020876026 -0.32446522 0.052603804 0.017909009 0.11246651
0.056084402 -0.029889774 0.18915269 0.29877046 0.15702079 0.015398053 0.05464641 -0.033499826
0.0404871 0.09336961 -0.1418027 0.07639404 0.058556218 0.14003833 0.09317037 0.0062230327
-0.0072342134 -0.177615 -0.11007627 -0.047735583 -0.05476731 0.05928758 -0.12594749 0.2307691
-0.14264694 0.09034437 0.021731615 0.041635346 -0.01829998 0.12435979 0.035121035 0.029731749
0.30115023 -0.028781937 -0.13491483 -0.12604679 -0.0019824589 0.03827671 0.035601508 -0.015783044
0.2711473 -0.11335071 -0.042277433 0.10646298 -0.045066684 0.13558808 -0.12003147 -0.16562912
0.081537254 -0.117139995 0.089200884 -0.10027207 0.15513523 0.1624264 -0.054119978 0.042012766
0.1259425 -0.03321538 -0.06753789 -0.032700844 -0.07063932 -0.002745394 0.15282203 -0.124483705
-0.012112955 0.05624391 0.02039997 -0.018627958 0.06184775 0.22110298 0.24265602 -0.10825485
0.0361935 -0.022716397 0.038330827 0.020259757 0.00969609 0.058458924 0.0463822 0.06581003
0.03221057 0.13883743 -0.07810075 -0.043281328 -0.040804043 0.045324065 0.047894258 -0.13210554
-0.02651956 -0.22427619 -0.05181367 0.02473091 0.14916773 -0.18672796 -0.06482564 -0.01906318
-0.017572999 -0.016133575 0.06648349 -0.11336205 -0.08938229 -0.0027614443 0.017662056 0.021443058
0.11918424 0.11058005 0.13466236 0.1864497 -0.17777303 -0.37094146 0.049770597 -0.04574161
-0.10163541 0.22571552 0.07627572 0.009285242 0.08180796 0.18600015 0.04016047 0.15844284

actor.pi_net.fcs.1.bias f4 [128]
00000000: 4d34 553c 2975 9e3d 8bc9 80bb 0841 6fbd
00000010: 01ea a2bd 034f 40be 4623 bf3d b6af 063c
00000020: 230f 07bd a1de adbb 7d30 263d 06ca 05be
00000030: 1dae 9d3c 52c1 c73d 4c75 17be 13bb 1d3d
00000040: 5b12 483d 9687 5d3d 36aa 7fbe 8423 ab3c
00000050: 9991 ac3c 61ed 393d 2ae1 2e3d 5d1f 3fbc
00000060: 5343 1d3e 5967 74bd d1be 2fbd 8e50 a43c
00000070: 6534 37be 1504 d73b d337 f8bd 75bb 4cbe
00000080: 2cf1 42bd c981 483d 40e9 8cbd b6ba 36be
00000090: 6640 70bd 627c 2ebd 5888 6e3d d633 23bd
000000a0: be11 803d 9bd9 8ebd 400d fdbd 931d 14bd
000000b0: 089a bebd f925 783d ffe1 c43d 5a46 10be
000000c0: 1a74 853d 27d8 cd3c 51fc d4bc 2784 ce3d
000000d0: 7015 d83d ac17 893d 0358 8ebd 6e02 abbd
000000e0: 4513 f23b def2 c13d ec19 6a3b bfa8 ddbb
000000f0: 2cb7 36be e838 b9bd b842 edbd f8c4 afbd
00000100: 1400 31bd 8c41 58bd 26fb 02bd 2d05 04be
00000110: 91e4 c63d cfc8 4a3d 2d72 5c3d 61f2 e93d
00000120: 24aa eebd 5d7f a73d 8bb3 4b3d 321f 00be
00000130: 9a7e a6bd afe3 803d 0447 36bd 62ba febc
00000140: 3753 4dbd dc31 a7bd 3bf4 6dbd 52f3 38be
00000150: 0b53 9bbc 8916 0fbd ed58 d53c 67e3 4dbb
00000160: 7d6e 17bd e0c7 8ebd a793 5ebd b775 91bd
00000170: 6124 433d 177b f73d a6bb 47bc 1aaf 52bd
00000180: 07a0 993d 2ce6 91bc bfb3 b43d b605 563d
00000190: 5c7c ebbd 66c5 a4bb 9f59 9b3d 9bc8 4c3d
000001a0: 6aac 30bc 6015 893d 5b1e a63d d0e0 123e
000001b0: e011 b63d a306 2b3d be43 15bc e29f 73bc
000001c0: 1298 47bd 99f3 f93d 9ea7 ce3c 2fdc 313d
000001d0: 8f8c 88bc b332 73bd b3e6 79bd aca1 e13c
000001e0: 8ebb 993c 30ae 90bb f168 083e a7cc 943d
000001f0: 22c8 7b3d a2b7 c9bd a14c b43d abf3 1b3d
0.013012958 0.0773719 -0.003930276 -0.058411628 -0.07954789 -0.1878014 0.093329 0.008220604
-0.03297342 -0.0053060804 0.040573586 -0.13065347 0.019248063 0.0975367 -0.14790839 0.038508486
0.04884563 0.054084383 -0.24967274 0.020890959 0.02106552 0.045392398 0.042695202 -0.011665192
0.15357713 -0.059668873 -0.042906586 0.020057943 -0.1789108 0.006561766 -0.121200226 -0.19993384
-0.04759328 0.048951898 -0.068804264 -0.17844662 -0.058655165 -0.04259909 0.058235496 -0.039844356
0.06253384 -0.06975099 -0.12356043 -0.036161017 -0.09306723 0.06058309 0.09613418 -0.14089337
0.06516285 0.025127484 -0.02599922 0.100838 0.10550964 0.06693968 -0.06950381 -0.08350073
0.007387551 0.09470151 0.0035721017 -0.006764501 -0.17843312 -0.09044057 -0.11584991 -0.08582491
-0.043212965 -0.052796885 -0.031977795 -0.128926 0.09711564 0.049507912 0.053819824 0.11423183
-0.116535455 0.081785895 0.049731772 -0.125119 -0.08129616 0.06293427 -0.04450132 -0.031094734
-0.050128188 -0.08163807 -0.058094244 -0.1806157 -0.018960496 -0.0349336 0.02604338 -0.003141606
-0.036970604 -0.06971717 -0.05434003 -0.071025304 0.047642116 0.120840244 -0.012190735 -0.05143652
0.07501226 -0.01780995 0.08823346 0.05225154 -0.11498329 -0.0050284145 0.07585453 0.049996
-0.010783294 0.0669353 0.081112586 0.14343572 0.08890128 0.041754376 -0.009110389 -0.014869662
-0.04872901 0.12204666 0.02522641 0.043422874 -0.016668586 -0.059374522 -0.061011028 0.027542911
0.01876619 -0.004415296 0.13321282 0.07265597 0.06147016 -0.09849478 0.08803678 0.038074177

actor.pi_net.fcs.2.weight f4 [4, 128]
00000000: c49b 1fbc 60a6 c4bd 224e 52bc b2fd 60bb
00000010: 3afb 783b 9a37 cebd 8a05 cd3b 8001 b4bd
00000020: 6c62 653a 08fa d73a bf77 443c de19 12be
00000030: 688a 43bd 672f 073c 4095 65be ed3f fd3a
00000040: 91f4 ab3d 4fcb 623c 2df4 afbe 5c1a 5ebc
00000050: 4aa2 e23c 0bd6 8d3c a192 14bc 980d 06bd
00000060: c501 e33c bc27 3e3d 7652 36be c9cf 89bc
00000070: eddc 2cbe 51dd b43b d15b 1abe 33ce 183d
00000080: 1ef7 21be 578c c53b 759f c9bd 4fba 0dbe
00000090: 3f2e 8f3a 07bf ffbd fdb8 e1bc d738 5d3a
000000a0: 13c7 e8ba 7fb1 a0bd aede 24bc 8e54 adbd
000000b0: c268 523b 3b1c e13d 504e 4fbb 07ec e03d
000000c0: 824e 88ba fa07 27bb 0c05 ca3b ae41 88bb
000000d0: ad2c 1d3d 2434 08bb 0e32 f2bd 9e35 ed3d
000000e0: 0826 a83b 3892 353e ddfb cb3c 9549 41bd
000000f0: fa40 6f3b c73a 0ebc d84e 3f3d 05ce 943a
00000100: c2c4 56be c590 08bc 0e43 0c3b 6f38 fabb
00000110: f7d9 103b 3929 1fbb 7376 bc3b 9413 a43c
00000120: 9c15 25bd 074b ffbc d965 61bb 191a b9bc
00000130: 23af cb3b aa7a beba bfb3 503d 29e8 63bc
00000140: 1a50 443c 47cf a4bb 2429 633b 4802 b43d
00000150: 6b3f 413c 2ebb 9abb 9dff a73b aab1 143b
00000160: 1ff2 cb3a e677 89bc 405b b2bb 3686 a7bb
00000170: 03c7 e8bb 1b52 0e3d ff2b a83a 023a abbc
00000180: 4877 e63b 45b7 363c 22c4 f4ba ae35 60bc
00000190: 426d 82bb 8a2a 643e b441 a43c 38ce f7bc
000001a0: 3c82 d63b 731d 7e3b f32d e8ba f1a5 afbd
000001b0: 7652 4a3b d729 983a 1a92 0c3c f2f3 b2bb
000001c0: b510 32bb 1388 8f3c 9239 b63d 808f c738
000001d0: f00d ddbd f277 f1bc 135c 243d e55f 563c
000001e0: 9b25 fe3b 3e6e ddbb 5cdb fabd 3b07 cfbb
000001f0: f574 963a f825 8e3c 6c7f aa3d ac41 f2bc
00000200: 03ec 253b 4e86 5a3d 9421 57be dae9 9c3a
00000210: 9683 c93b 53ec 0dbe d6eb ddba ff1d de3c
00000220: 3d07 a9bb b758 60bb 8f54 0c3b fd17 b7bd
00000230: 7227 273e 5f40 a73b 3b3a f8bd 9b7f 413a
00000240: d064 08bc 6869 87bb e1cb 4c3d 5f9e 1a3b
00000250: 1d0c 043d 7902 5fbc e95c 32bb a4af 5b3d
00000260: ad7d 21bd e21e 38bd 0a1d 6fbe 9435 0ebc
00000270: b6e0 fcbd b735 6e3b e1a0 eabd f897 7ebd
00000280: 0b52 8fbe 9814 f5b9 4999 18bc 5e4e 0fbd
00000290: dc24 293b 0931 fe3c 86bd 0f3d 45ed 6abb
000002a0: 6aec c63a aa93 da3c 4b4f 033c 0e53 093e
000002b0: 6c25 e038 ca79 92bd bd2a f8ba eb66 32bd
000002c0: ff0f 603b a8b0 273a ba48 df3a 5bfb 1abc
000002d0: dd6d f23a a6d9 43bb ab80 edbd 210c c7bd
000002e0: 083e 533b 62a5 60be 7303 f5bb b943 753c
000002f0: acc7 ff3d a1d7 ffbb 87b1 3cbd e562 3c3b
00000300: 0a80 043c 7d43 9a3b 2ad0 483c adc5 ea3b
00000310: 5792 503a 8159 adbb e9f3 aabb 661d d13d
00000320: d1e8 e03b 82f4 c63d b59a 9f3b 33eb 2f3c
00000330: 1453 b23b 8b5e 943a c81b 07be 6541 a8bb
00000340: a34c f2ba ef89 5f3b bf48 c2bb 2465 44bd
00000350: 4673 bfbb 077a 5c3c 2ad8 0e3b d4e9 a73c
00000360: 6ec1 f53a c348 86bc 8885 973b e302 7e3b
00000370: 5032 bebb 0ee3 e4bd 77b8 3f3a 65e0 8d3c
00000380: 96da 8dbb d1c4 993b d01b 1bbc 30ed 34bb
00000390: 2dfd 52ba 2af9 ae3e b76d 3f3d 3ddb 7fbd
000003a0: b83e 6cbb dc82 3c3b 8f76 60ba ca55 613d
000003b0: f085 ebba a7bb 663b 9fb5 033b 7061 803a
000003c0: 683f 2dba cc65 30bc 6afa 113e 07a7 903a
000003d0: aee3 f53c 8658 503a f197 61bc 703c 56bd
000003e0: 22a9 e3ba 5311 afbb 1f90 1f3e cf89 83ba
000003f0: 4fe5 063a e27e 2eba 9b72 9ebc 4571 4e3c
-0.009741727 -0.09602046 -0.012836011 -0.0034330902 0.003799154 -0.10069199 0.006256764 -0.087893486
0.0008750323 0.0016477713 0.01199144 -0.1426768 -0.047739416 0.008251048 -0.22420216 0.001932142
0.08396257 0.013842418 -0.3436598 -0.013556089 0.027665276 0.017313978 -0.009068162 -0.032727808
0.027710805 0.046424612 -0.17804894 -0.016822712 -0.16881151 0.005519547 -0.15074088 0.037306022
-0.15816924 0.0060286927 -0.09844867 -0.13840602 0.0010923817 -0.124876074 -0.02755403 0.0008438951
-0.0017759524 -0.07846355 -0.010062857 -0.08463393 0.0032105898 0.10991713 -0.0031632371 0.10982519
-0.0010399374 -0.0025486932 0.0061651524 -0.0041582203 0.038372684 -0.0020783031 -0.118259534 0.11582492
0.005131487 0.1773156 0.024900371 -0.047189314 0.0036507235 -0.008681006 0.04670605 0.0011352903
-0.20973495 -0.008335297 0.0021402272 -0.007636122 0.0022102573 -0.0024286045 0.005751425 0.020028867
-0.04030381 -0.031163706 -0.0034392981 -0.022595452 0.0062159463 -0.0014532406 0.05095267 -0.013910332
0.011981988 -0.005029592 0.0034661973 0.087894976 0.011794905 -0.0047220206 0.005126907 0.0022688904
0.0015559829 -0.016780805 -0.0054430068 -0.0051124347 -0.007103802 0.03474627 0.0012830495 -0.020901684
0.0070332624 0.011152093 -0.0018674175 -0.013684673 -0.0039803097 0.22281852 0.020050861 -0.0302497
0.006546287 0.0038774877 -0.0017713889 -0.08576573 0.0030871904 0.0011609149 0.008579755 -0.0054612095
-0.0027170603 0.01752094 0.088976994 9.5157884e-05 -0.10793674 -0.02947614 0.04012687 0.0130843865
0.0077559478 -0.0067575267 -0.12248871 -0.0063180006 0.0011478948 0.01735209 0.08325085 -0.02957233
0.0025317676 0.05335074 -0.21008903 0.0011971549 0.0061497195 -0.13859682 -0.0016931247 0.027113913
-0.0051583336 -0.0034232566 0.0021412706 -0.08940122 0.16323641 0.005104109 -0.121204816 0.00073813804
-0.008324817 -0.0041324385 0.04999912 0.0023592932 0.032238115 -0.013611429 -0.0027216023 0.0536343
-0.039426494 -0.044951327 -0.23350921 -0.008679766 -0.12347548 0.0036347935 -0.114564665 -0.062156647
-0.2799228 -0.00046745385 -0.00931389 -0.034986846 0.0025809323 0.031029241 0.035092853 -0.003584699
0.0015176658 0.02668174 0.00801451 0.13410589 0.00010688123 -0.07152136 -0.0018933635 -0.04355518
0.0034189222 0.0006396868 0.0017035224 -0.009459342 0.0018495877 -0.0029884367 -0.11596807 -0.0971911
0.0032233018 -0.21938089 -0.007477218 0.01496976 0.12489256 -0.0078076874 -0.04606774 0.002874547
0.0080871675 0.0047077523 0.012256661 0.007164678 0.00079563766 -0.0052902107 -0.0052170646 0.102106854
0.0068636914 0.09714605 0.0048707374 0.010737228 0.0054420326 0.001131968 -0.13194191 -0.0051347488
-0.0018485974 0.0034109314 -0.005929082 -0.047948018 -0.005842599 0.013456828 0.0021796324 0.02049724
0.0018749663 -0.016392117 0.0046240725 0.0038759045 -0.0058043376 -0.1117612 0.0007313559 0.017318914
-0.004329036 0.004692652 -0.00946708 -0.0027607195 -0.00080485904 0.34174472 0.04673549 -0.06246494
-0.0036048125 0.0028764522 -0.00085625885 0.055013455 -0.0017968994 0.0035207064 0.0020097268 0.0009794664
-0.00066088745 -0.010766458 0.14255682 0.0011036106 0.030015793 0.00079477613 -0.013769136 -0.05230373
-0.0017369131 -0.0053426414 0.15582322 -0.0010035577 0.0005145864 -0.000665648 -0.019341758 0.012600248

actor.pi_net.fcs.2.bias f4 [4]
00000000: ad1c 54bd ea8e 47bd f617 c63d 980c e43d
-0.05178516 -0.048720278 0.09672539 0.111352146

critic.v_net.fcs.0.weight f4 [128, 12]
00000000: 865b 3fbe 7ace 55bc ddbe 7ebe 4706 f3be
00000010: 7287 d23e 8fee 66be 7641 cb3e f1f9 b0bf
00000020: 6516 c53d 79db 6f3d e16d 5cbe 5ffe 00bb
00000030: c647 76bd 0375 49bd 62af 21bf 464f 8bbf
00000040: ecc7 42bf 03c3 35bd a1ce bf3f 6ef1 033f
00000050: 805e 1c3f 765d 1bbd 07c7 f03e fc20 853e
00000060: dc44 80bd 5131 0cbf b3ab 51bd b0db 8c3e
00000070: 625e a13e 5a05 013f b14d 9bbe 6637 52bf
00000080: 547c e53e 737e 383d dee3 a2bd 10b3 5d3d
00000090: e40a a73d 2bbc 1abe 430b 503e 0232 9bbd
000000a0: 3fdc d03e 54f5 94be 87b0 28bd 6779 803e
000000b0: 0b1f bcbe f773 a1bd f4c8 113d b056 a0bd
000000c0: 112a 7ebf 8792 16bf 5ea4 063f f7a3 78be
000000d0: 3a1c 2f3f fd66 043f 0c15 a33e db24 a4be
000000e0: 7e91 4ebf 7cec 953d 75c6 313d 8e8a c2bd
000000f0: 9c97 943e 3846 4bbe 596d 713e 246c ba3d
00000100: ae09 f23e 04b0 d5bd 0fd9 803f 09e2 cebe
00000110: 9301 033f cc16 cebc 40c4 633c f74a 46bd
00000120: 1256 68be 775a 2cbd d27e 78be 4ef8 4fbc
00000130: 5223 0fbf 2829 d33e 114c 27bd d96c 803e
00000140: 801b 253f 9174 54bd 1584 0fbb 64e7 0dbe
00000150: 3cc1 83be 187b 20bf 83e5 b7be db52 44be
00000160: d244 3a3e 4add 813f f827 043f 1faf fcbf
00000170: 2071 263f 6ebc a0bd 21df 543d 54f7 393b
00000180: 77a5 7b3f 3a5e 573e cd09 383f 8dee 753e
00000190: dfeb 7cbf 2e36 743e c5c2 6d3e 5bbf cb3e
000001a0: c932 8a3f ffba 4cbd 6b4e c0bd ee6c 85bd
000001b0: be05 043e 0e38 283e 6509 f63e 87ec 373f
000001c0: d7b4 95bf 212b 8f3e 86a0 0b3b c198 a03f
000001d0: 8ab8 5abf 45e1 c2bd 90d5 a63e ff80 763b
000001e0: 0916 873f eae8 ac3e 8c1b 9ebe fa0c 0cbf
000001f0: 254a 8c3f 88cd 193f 4a30 69bf ad4b 283f
00000200: f9d2 3d3e 05e0 5bbe 11de 073e 0db7 3a3c
00000210: bfe1 123f b51a 9b3e a500 f8be ff62 dfbe
00000220: 2934 593f 2b64 353f 9ab5 0c3e 39a4 9e3e
00000230: e3c1 be3e 5995 4e3e 2c3f 2ebe 023f c93d
00000240: 8c8e 9a3d 4ecc 723d e868 74bc 4388 16be
00000250: e5e1 0bbf 4c10 653e 468a dcbd b28c 3abe
00000260: ca98 5f3b 9a23 dfba 8045 823d cc3b cdbb
00000270: 4db4 203d 035f 49bc 09f0 d93e 5232 f03d
00000280: 3a4d 433e f1f3 4d3e ab36 29bf b07a 5ebe
00000290: 3e54 0cbe a3b7 063d 80b1 923d dbb9 32be
000002a0: 4846 223e 5757 cdbe ae72 26be 73cb 583e
000002b0: af58 27be 9717 b8bf a048 02bd b1cd 50bf
000002c0: 8e1c 8cbe f1b2 0c3e fb51 06bd e6ca 20be
000002d0: 46e6 81be 2bf8 93be de7f b23e 4e1b f0bc
000002e0: 47f8 86bc 10d4 7dbe 968a cc3d d295 913e
000002f0: 668b b6be f25b e43d 2fc4 d73d e152 41be
00000300: 15ac 0f3e 7bb6 1d3e ddbc 68bf 296a 8bbf
00000310: e29a 84be 0ef0 0ebf 3b91 e53f eb9b fb3f
00000320: e010 89be 246e 813e 1a07 a73e 5bbc 04bd
00000330: f29c 9cbd 6cee e4bd f3c8 58be bfcd eebc
00000340: 7659 533e 15f0 9b3e ddb6 98bd d6e5 90bc
00000350: 604d 89be 770d 28be a39f a63e 9b0a 993e
00000360: 43ff 343e e37d 63bd df88 4dbf b636 96be
00000370: ad63 073f fa37 f13d b3b5 ebbe 826d 76be
00000380: 109f 263f e351 10be 62da 8a3d 4abf c5bd
00000390: febb b03f 5ec3 603d df52 4e3f 4ee8 a1be
000003a0: 985c 333f e6ae c6be 9937 9fbd ac78 1c3f
000003b0: 1826 913e 5a5b a13c 855d af39 ec3d eb3d
000003c0: f41e 6cbd b02c 073f 72e7 103c 684e a8be
000003d0: 4c42 bebe 3aa5 f8be 7238 443f e4b1 3bbe
000003e0: cf9d a7be 9e6a 893d 4b75 01bd c2a4 7b3d
000003f0: 5287 803f f10c 0a3f ea68 763e f931 4b3f
-0.18687257 -0.013049716 -0.24877496 -0.47465727 0.41118962 -0.2255194 0.3969838 -1.3826276
0.09623412 0.058558915 -0.2152629 -0.0019682867 -0.060127042 -0.049183857 -0.6315824 -1.0883567
-0.76086307 -0.04437543 1.4984933 0.5154027 0.61081696 -0.03793093 0.47026846 0.26001728
-0.06263134 -0.5476275 -0.051189136 0.27511358 0.3151732 0.5039879 -0.3033271 -0.8211578
0.44821417 0.045042466 -0.079536185 0.054125845 0.08156374 -0.15110843 0.20316796 -0.075778976
0.40793034 -0.2909342 -0.041183975 0.25092623 -0.36742434 -0.07883447 0.035592034 -0.07829034
-0.9928294 -0.58817333 0.52594554 -0.24281298 0.68402445 0.5171965 0.31851995 -0.32059368
-0.80690753 0.073204964 0.043402154 -0.094990835 0.2902192 -0.19851005 0.23576869 0.091026574
0.4727301 -0.10433963 1.0066241 -0.40406826 0.5117428 -0.025157355 0.01390177 -0.048411336
-0.22689083 -0.04207846 -0.24267128 -0.012693478 -0.5591327 0.41242337 -0.040844027 0.25083044
0.64495087 -0.05186898 -0.0021898795 -0.138578 -0.25733364 -0.62687826 -0.3591729 -0.19172232
0.18190315 1.0145657 0.5162349 -1.9740943 0.65016365 -0.0784844 0.051970605 0.0028376179
0.98299354 0.21032038 0.71889955 0.24016781 -0.9879741 0.23848793 0.2321883 0.3979443
1.0796748 -0.04998302 -0.09389957 -0.06514917 0.12892815 0.16427633 0.48054042 0.7184529
-1.1695813 0.27962592 0.0021305396 1.2546617 -0.85437834 -0.09515623 0.3258481 0.0037613509
1.05536 0.3377145 -0.30880392 -0.547073 1.0960127 0.6007924 -0.9108931 0.6574047
0.18537511 -0.21472175 0.13268305 0.011396182 0.5737571 0.30293813 -0.48437992 -0.43630216
0.84845215 0.7085597 0.1374115 0.30984667 0.372573 0.20174159 -0.17016286 0.09826471
0.0754672 0.05927687 -0.01491759 -0.14700417 -0.5464156 0.22369498 -0.10768561 -0.18217734
0.003411817 -0.001702416 0.06360912 -0.006263232 0.03923445 -0.012290719 0.42565945 0.11728348
0.19072428 0.20112588 -0.6609904 -0.21726489 -0.13704011 0.032889973 0.07162762 -0.1745371
0.15847123 -0.40105698 -0.16254684 0.2117136 -0.16342424 -1.4382199 -0.03180754 -0.8156386
-0.27365535 0.13740136 -0.032793026 -0.157024 -0.25370997 -0.28900275 0.3486318 -0.029309895
-0.01647581 -0.24787927 0.09987371 0.28434616 -0.35653228 0.1115035 0.10535466 -0.18879272
0.14030488 0.15401642 -0.9091318 -1.0891773 -0.25899416 -0.55835044 1.7934946 1.9656957
-0.26770687 0.25279343 0.32622606 -0.032406192 -0.076471224 -0.11178288 -0.21170406 -0.029150842
0.20639595 0.30456606 -0.074567534 -0.01768772 -0.26816845 -0.16411386 0.32543668 0.29890904
0.176755 -0.055539977 -0.80286974 -0.29338616 0.5288647 0.11778255 -0.46037063 -0.24065211
0.6508646 -0.14093737 0.067799345 -0.09655626 1.3807371 0.054873817 0.805952 -0.31622547
0.7006316 -0.38805312 -0.07774276 0.6112163 0.28349376 0.01969688 0.0003344828 0.1148642
-0.057646707 0.5280256 0.008844243 -0.3287232 -0.37159956 -0.48563558 0.7664863 -0.18329579
-0.32737586 0.06709789 -0.031606 0.061436422 1.0041296 0.53925997 0.24063459 0.7937313

critic.v_net.fcs.0.bias f4 [128]
00000000: dc7f 91bf bd95 8fbf 1e9b 44bf bc97 80bf
00000010: 342c 3e3f 0bab cdbe a774 aa3e 5ad7 3fbf
00000020: 23d2 35bf 87fd 59bf 59c5 8b3f a444 793f
00000030: 7931 02bf 658b a0be 10c9 603f 9244 6fbf
00000040: 881a 67bf 658e adbe e2a1 873f 2da5 fb3e
00000050: e9c9 613e f613 8a3f 9a1d ed3e a14b 5cbf
00000060: a6f3 b6be 8346 81be fa70 8abf c940 913e
00000070: e9c2 7b3f 4c81 83bf 72fe a2bf 7521 823f
00000080: f705 30bf ae27 e63e 69d3 5bbf 0ed5 663f
00000090: fed3 8bbf f480 963f f93e 533f 2578 82bf
000000a0: f045 85bf b525 41be ef89 863e 5dc9 66bf
000000b0: 0807 0c3e 6886 5d3f 117a 19bf 9801 86bf
000000c0: d6a3 b3bd 511c a03f 61c4 643f 3017 7ebf
000000d0: ec2d 873f 0c3c d5be b05c 55bf 61a0 91bf
000000e0: 383c 8a3f b3e1 403d 6415 783f b969 6dbf
000000f0: 5663 c4be 85ab b1bf fd81 22bf 1ced 8e3f
00000100: 5ad4 413f b762 a23f 6f57 223f 3a3c 993f
00000110: d276 a4bf 9e25 783f 0704 41bf d17b adbf
00000120: 5fe8 673e 8ed7 a6bf 4504 39bf 1909 283f
00000130: 7bcf 8bbe 26f0 73bf afb8 c5be 5199 223f
00000140: ee32 54bf 283d 8d3f 625d 3abf 71e2 3a3f
00000150: 6204 303f be5e 46bf ce06 893f dbc8 6cbf
00000160: 7e48 84bf b14f ab3f 00b1 823f ff32 963f
00000170: 9f2b 68bf 1181 a53d a2c8 d23d 1ef8 793f
00000180: ef8d 4fbe 4925 7ebf 0e34 15bf 2848 babf
00000190: 32b1 5ebf 67e2 473f 3a90 323f fb7c 87bf
000001a0: fdec 0c3f c798 dabe 356e c93d e361 6f3f
000001b0: 3772 853f 925d cfbe a4c5 a6bf 6174 7f3f
000001c0: 204b c13f 8be2 833f 122e 31bf 48e2 a03e
000001d0: 5a6d 343f a232 9fbe cca8 c9bf 575e 36bf
000001e0: 6799 433f b621 943f da27 0cbf 000a 403f
000001f0: 5b9f 82bf 8152 6a3f 8987 4a3f c52e 59bf
-1.1367145 -1.1217571 -0.7679919 -1.0046306 0.742862 -0.40169558 0.33292124 -0.74937975
-0.7102377 -0.8515248 1.0919601 0.9737036 -0.5085674 -0.3135635 0.878068 -0.93464005
-0.9027486 -0.338977 1.0596278 0.49149457 0.22049679 1.0787342 0.46311647 -0.860529
-0.35732764 -0.2524911 -1.0815728 0.2836974 0.98344284 -1.0273833 -1.27339 1.016646
-0.687591 0.44952148 -0.8586946 0.90168846 -1.092407 1.1758103 0.82517964 -1.0192915
-1.0411968 -0.1886204 0.2627711 -0.90151006 0.13674557 0.8653321 -0.59951884 -1.0469236
-0.087714836 1.2508641 0.8936215 -0.9925413 1.0560889 -0.41647375 -0.83344555 -1.1377069
1.0799627 0.047090244 0.9690764 -0.92739445 -0.38357037 -1.3880469 -0.63479596 1.116611
0.7571465 1.2686375 0.63414663 1.1971505 -1.2848761 0.969324 -0.7539677 -1.3553411
0.22647236 -1.3034532 -0.7227214 0.6563888 -0.27306733 -0.9528831 -0.38617465 0.6351519
-0.8289021 1.1034288 -0.7279874 0.7300177 0.6875669 -0.77488315 1.0705202 -0.9249398
-1.0334623 1.3383695 1.0210266 1.1734313 -0.9069156 0.08081258 0.10292174 0.9764422
-0.20268987 -0.9927564 -0.58282554 -1.455327 -0.8698913 0.7807984 0.6975132 -1.0585016
0.55049115 -0.42694685 0.098354734 0.9350874 1.0425481 -0.40501076 -1.3029065 0.99786955
1.5101051 1.030351 -0.6921092 0.3142264 0.7047936 -0.31093317 -1.5754638 -0.712377
0.7640595 1.1572788 -0.5474831 0.7501526 -1.0204881 0.9153214 0.7911306 -0.8483699

critic.v_net.fcs.1.weight f4 [128, 128]
00000000: 118e de3e 13d5 b7bd 41dc 4a3e 063a 693e
00000010: 8592 80be 8722 273e 5632 87be 865f b13d
00000020: 583a f93c f5fb 20be c507 af3e f667 a93e
00000030: f4e4 11bf 430e b33e e10b aabe 06dc 58bd
00000040: f669 773e 3019 ac3e c39a e63e 3d4d 233d
00000050: 91fe 02bf 8975 753e 0915 09bf 862b cfbe
00000060: aa6b 72be 6100 b83e 4a96 c1be ee74 8e3c
00000070: b2a1 a9be 892c 843c 23b2 403e b623 debe
00000080: 788b 3d3d 91cd 013f 01ea 3b3e c70c 433d
00000090: b94b 7abe 0ba4 55be 22bf ca3d 6c8f 03be
000000a0: c397 5f3f 4564 103e 32c7 c4be 0665 1d3f
000000b0: d5a1 c13d 3e5c afbe 4131 5abe 013d e53e
000000c0: 9e48 bc3e ed2f e2be 32ad b2be e0cd 303f
000000d0: 861d 50be 7f40 aabe ddf4 733c 7e1f 2d3f
000000e0: 8cf7 04bf b790 e1be 50a8 b33e 3f11 b4bd
000000f0: 8a58 e13c ed26 05bf 329d 0e3f 6d63 35be
00000100: 4681 acbe b70c c4be 25e4 523e dcbd b1be
00000110: 63bf cf3e a2ba 03be df8d 8fbd 66fc 953e
00000120: 5b44 8ebe 83bd 8dbd 00f1 283f ebe0 28bf
00000130: 7b69 d9be a20e eabd bdfe 34be 791c acbe
00000140: 4f1b 0e3f a761 e23d 5dbd 953e 538d dc3b
00000150: bbb4 bb3e ddc7 173f f0b6 62bb ef0b 12be
00000160: d844 183f d80d abbe 522c 013f af81 1ebf
00000170: 27cf f23e 7656 453d e2bc 12be 36ed 99be
00000180: b508 74bc 33a8 743e f63f 163f a436 933f
00000190: ff5a 0b3e 7fa1 0ebf 69bb 43bd bd47 14bc
000001a0: 8199 01bf 4c0b 9dbd a6c5 933e 1b64 c9be
000001b0: a849 bb3b d048 7d3e f5e3 653e 0a0c 80be
000001c0: 5aa4 093f 90e2 d43d 391a 2c3e cd12 143f
000001d0: 6aab 26be 23de 1cbf 51b5 af3e bf72 553e
000001e0: 4421 9d3d c9f0 8b3e b3e5 1f3e a89b 2c3e
000001f0: 7256 49bd 25a6 a4be 4644 bebd 1cce 14bd
00000200: a578 7abf c39b 76bf ab35 88be bebd d4bd
00000210: 8b01 163f fb62 dc3d 0adf e9bb 41f1 c3be
00000220: aa23 64be ba61 9a3e 5de2 2c3e 36bc d4bd
00000230: b599 dbba 9092 f23e 3721 c7bd 39d7 bb3d
00000240: 281c 1dbf ac34 493e cc61 97bc 017f be3e
00000250: 4378 18bf ff24 9a3e c0df 223f b184 96be
00000260: e347 953e dbcb 6d3e e0e7 403e 6e8d 163f
00000270: b363 593e 8004 783e 677a 29bf b6a9 b4be
00000280: c628 67be 2d65 173f b548 15bf 78cf d4bd
00000290: 9084 c3bd cb85 30bd c6e3 b63e ea56 18be
000002a0: 8e9e 40bf 7675 c0bd 4511 bd3e b210 983d
000002b0: a25e 613e 5186 853e 1d17 f6be 805f c5be
000002c0: 3e9d 333d e7d6 233f 0d7b 123f e263 13bd
000002d0: c98c 943e e3a1 8bbe 6c45 bebe fbd2 e3bc
000002e0: b79a b63d a89f 703d 0df2 423e 5244 d0be
000002f0: 4824 e73e 36a2 b63d 33d1 a53d c4ba 1f3e
00000300: 3956 dbbd a79f 993e 052d ecbd cb12 ce3c
00000310: 6615 78bd c710 823e 5de2 b8be 5de8 8c3e
00000320: a123 023f dbff 15be d0a6 e2bd 05d1 39bd
00000330: cdd8 edbe 67ad 4ebf 3baf f4be 7de8 c43d
00000340: 0437 6b3e 3e50 7f3f a0c2 883e fefb cc3e
00000350: 95f0 6e3d 4c28 8cbe 84cd 3d3e 07f9 d63e
00000360: cd7c 1e3c ae0f e8be 5a57 1dbd 4dae 523e
00000370: 5732 d23e 9343 e33e 7045 83be 7a40 53be
00000380: e719 5dbe b589 2cbf a0ed c0be c82b 1dbf
00000390: 06b2 66be dbca adbe a3a9 c3be 2dc5 35bf
000003a0: ab05 5b3d 1c21 2a3f c555 5d3e 8db3 203f
000003b0: 250d 943e fb1e df3d 7538 86be 2e9b e53e
000003c0: c875 673e e9b5 c83b 67ad 63be 9100 e53e
000003d0: d76f bf3e 126a edbe 5dae da3e 2a9b f0be
000003e0: 7441 b13d 4f80 ee3e 7878 70be aaf8 053f
000003f0: 8304 11bf 581a f13e 3087 dd3c 38b4 dfbe
0.43467763 -0.089761876 0.19810583 0.2277604 -0.25111786 0.16321765 -0.2640559 0.08660798
0.030423328 -0.15721114 0.34185615 0.33087128 -0.5698998 0.34971818 -0.33212188 -0.052944206
0.24161515 0.33612967 0.4503995 0.039868582 -0.5116969 0.23970617 -0.5354772 -0.40462893
-0.23673883 0.3593779 -0.37809974 0.01738974 -0.33131176 0.016134517 0.18817954 -0.4338662
0.046275586 0.50704294 0.18350984 0.047619607 -0.24442948 -0.20863359 0.09899737 -0.1284768
0.87340945 0.1410075 -0.38433224 0.61482275 0.09454695 -0.34250063 -0.21307851 0.44773105
0.36774153 -0.4417719 -0.34897763 0.6906414 -0.20323762 -0.33252332 0.014889923 0.6762618
-0.51940227 -0.4405572 0.3508935 -0.08792352 0.027508039 -0.5201252 0.5570861 -0.17713709
-0.33692378 -0.3829095 0.20594843 -0.34715164 0.40575704 -0.12864164 -0.07009482 0.29294127
-0.27786526 -0.06920912 0.65992737 -0.659682 -0.42463288 -0.11428572 -0.176753 -0.33615473
0.5551042 0.11053782 0.29246035 0.0067307143 0.36661324 0.5928934 -0.0034593903 -0.14262365
0.5948005 -0.33409 0.5045825 -0.6191663 0.4742367 0.04817816 -0.14329866 -0.3006379
-0.014894654 0.23892288 0.58691347 1.150105 0.13608931 -0.55715173 -0.04778615 -0.009050307
-0.50624853 -0.0766817 0.2886173 -0.39334187 0.0057155676 0.24734807 0.2245024 -0.25009185
0.53766406 0.10394776 0.16806878 0.5784119 -0.16276327 -0.61276454 0.3431802 0.20844553
0.076723605 0.27332142 0.15614967 0.16856253 -0.049154706 -0.32158008 -0.09290366 -0.036329374
-0.9784034 -0.96331424 -0.26603445 -0.10387753 0.58596104 0.107610665 -0.007137184 -0.3827
-0.2227923 0.30152684 0.16883226 -0.10387461 -0.0016754182 0.47377443 -0.09723132 0.0917191
-0.6137109 0.19648999 -0.01847925 0.3720627 -0.59558505 0.3010635 0.63622665 -0.2939811
0.29156408 0.23222296 0.18838453 0.58809555 0.21229438 0.24220467 -0.66202396 -0.3528573
-0.22574148 0.59138757 -0.5831407 -0.10391134 -0.09546769 -0.043096345 0.35720652 -0.14876905
-0.75241935 -0.09397404 0.36927238 0.074250594 0.22008756 0.26079038 -0.4806451 -0.38549423
0.04385113 0.6399979 0.5721901 -0.035983928 0.2901366 -0.27271947 -0.3716234 -0.027810564
0.08916228 0.05874601 0.19037648 -0.40677124 0.45144868 0.08917658 0.08096542 0.15598589
-0.10709805 0.30004618 -0.11532024 0.025155446 -0.060567282 0.25403425 -0.361102 0.2752103
0.50835615 -0.14648382 -0.11066973 -0.045365352 -0.46454468 -0.8073334 -0.4778994 0.09614656
0.22970206 0.99731815 0.26710987 0.40036005 0.058334906 -0.27374494 0.18535429 0.41986868
0.0096733095 -0.45324463 -0.038413383 0.20574303 0.4105403 0.44387493 -0.25638914 -0.20630065
-0.21591912 -0.67397624 -0.37681293 -0.6139493 -0.22528848 -0.3394383 -0.3821536 -0.7100399
0.053472202 0.6645677 0.2161475 0.6277397 0.28916278 0.10894581 -0.26214948 0.44844955
0.22603524 0.006125201 -0.22234116 0.44726995 0.37390015 -0.46369988 0.42711154 -0.4699338
0.08655062 0.46582267 -0.23483455 0.52332556 -0.5664751 0.4709041 0.027042001 -0.43692183

critic.v_net.fcs.1.bias f4 [128]
00000000: 8fa0 fb3e 65cf 76be 9ac0 233e 9918 81be
00000010: ec11 de3e 27b2 8b3d 9c6b 69be d445 103f
00000020: 183c 7c3d c5e1 05bf 49f3 78be c896 2ebe
00000030: 4856 133f 810f b8bd b255 703e 0762 73bf
00000040: 53a9 1e3b 44c9 3dbe 6151 253f 81ef 49be
00000050: 7fa8 dbbd 11fd fe3e 354d 01be 1053 f73e
00000060: 5016 12bf 475d 4abf 0ee3 a5be 0c91 8dbe
00000070: 3b56 4f3e 45c3 0cbf 9b23 acbe c206 2fbf
00000080: 185c 54bf bf15 cb3e d04d 483d f92f 3fbf
00000090: 6deb 20bf 574c 0ebf 0115 5dbe 9804 b6bb
000000a0: 19cb 4dbd 2675 113f 83bf bc3e faec 823e
000000b0: 5425 4bbe ef30 c73e 5010 8a3f 8c9b 1bbe
000000c0: 3be2 373f 5e9e b4be f91e dabd 2c4d 9e3e
000000d0: 17ff 9d3d 42cc 043d be61 94bf 9656 7a3e
000000e0: 7ef7 853e b652 4e3f 6171 2c3f c7e8 283f
000000f0: 4654 943e 3071 bfbe b629 9e3e fe3a ee3e
00000100: 4549 793e ffc4 413d fbb5 113f 8a57 15be
00000110: d320 a3be 6645 6dbe 062c d2ba 0081 903e
00000120: 808f 0bbf 7040 4d3f 86b7 943c 9d81 93be
00000130: 0ea0 f23e 5622 673f d337 adbe cf76 1b3f
00000140: fee2 a1bc 81e8 4e3f f74e 92be 47cd 623d
00000150: 35f8 14bf 64b8 f5be 7a47 2c3f 0b22 5a3f
00000160: 695f 3fbe 0ba6 3e3f 6be5 4a3d dc82 26bf
00000170: dcb0 3d3e f449 03bf eeb6 e4be 06ac 74be
00000180: 0744 5fbf 2b9d fabe 85bb 033d 53d8 983e
00000190: f9fc 15bc a51b 493e 982f 0c3f 7d7f 2e3e
000001a0: 1119 e1be 9ed0 3f3f d4eb 90be f1dd 693e
000001b0: fdf6 603f 1eb4 e8bd ff89 2abf 515b e63e
000001c0: 7ec9 bbbe 6737 61bf 778c b3be 5771 9abe
000001d0: 65eb c5be bd7b 28bf 356d 62bf f318 0e3d
000001e0: 46d9 c63e 29cb 113a cf7b b33e 9ea7 06bf
000001f0: 8125 733e 6c4a 9bbe 21f5 92be 065f c83e
0.49145934 -0.24102552 0.1599144 -0.2521408 0.43373048 0.06821089 -0.22794956 0.5635655
0.061580747 -0.5229762 -0.24311556 -0.17049706 0.5755353 -0.08987332 0.2347019 -0.9507145
0.0024209812 -0.18533808 0.645773 -0.1972027 -0.107254975 0.4980245 -0.12627108 0.4830556
-0.57065296 -0.7904858 -0.3239979 -0.27649724 0.20247738 -0.5498546 -0.33620915 -0.68369687
-0.82953024 0.39665028 0.048902333 -0.74682575 -0.6285923 -0.55585235 -0.21590044 -0.005554747
-0.050242517 0.5681938 0.36864862 0.25571424 -0.19838458 0.3890452 1.0786228 -0.15196055
0.71829575 -0.35277075 -0.10650439 0.30918252 0.0771467 0.032421358 -1.1592329 0.24447092
0.26165384 0.80594957 0.673605 0.6598019 0.28970546 -0.37391043 0.30891198 0.46529382
0.24344356 0.04730701 0.56918305 -0.14584175 -0.3186098 -0.23171005 -0.0016034849 0.2822342
-0.5451584 0.8017645 0.018153917 -0.28809825 0.47387737 0.9028677 -0.33831653 0.6072816
-0.019761559 0.8082352 -0.2857587 0.05537155 -0.58191234 -0.4799224 0.67296565 0.85208195
-0.1868874 0.7447211 0.049535196 -0.65043426 0.18524498 -0.5128472 -0.44670814 -0.23893747
-0.87213176 -0.48948035 0.032161254 0.29852542 -0.009154552 0.19639452 0.5476012 0.1704082
-0.43964437 0.749277 -0.28304923 0.2283857 0.87876874 -0.113624796 -0.66616815 0.44991544
-0.36677164 -0.8797516 -0.35068104 -0.30164596 -0.38656154 -0.6581381 -0.88447887 0.034691762
0.3883764 0.0005561584 0.35055396 -0.52599514 0.23744775 -0.30330217 -0.28702644 0.39134997

critic.v_net.fcs.2.weight f4 [1, 128]
00000000: 7e0c 18c0 3c61 a83f e85c 82bf 144e 9d3f
00000010: 636d 08c0 70e8 bebf cb9a 5c3f 0b82 c5bf
00000020: 4801 b4bf 6021 0340 67db a13f 6439 6e3f
00000030: 8724 76bf e467 2ebf ae97 30bf aa0f 0340
00000040: 42eb 8bbf 1eca 8a3f 3068 febf d684 903f
00000050: 9009 e5bf 7287 e6bf 15d4 533f 68e3 b6bf
00000060: 45d3 0f40 8c14 ed3f 6a7d c13f 8e7a 0040
00000070: bd9e 2fc0 dd3f ab3f 578e 9c3f 2d9a 4640
00000080: 112b db3f 699a d0bf 2bda 86be 7e2e 2640
00000090: f4ca 0e40 321d d13f ea06 1840 9831 cdbe
000000a0: 9b17 91bf ad83 01c0 8248 ddbf 0771 68bf
000000b0: 3636 f23f 67ea d3bf 8748 0ec0 a148 5c3f
000000c0: 793a 04c0 6db6 613f 752e 853e 8431 a9bf
000000d0: 9c64 c0be 1bb2 81bf 68c2 2d40 a966 e2bf
000000e0: c19f 51bf 5b19 eebf add1 0fc0 0fea 02c0
000000f0: 4ec8 aebf ef59 453f b412 dcbf ae7a 52bf
00000100: bd35 b4bf 5089 ecbf a660 cabf cfe3 0e3f
00000110: 3b9c 4f3f d0f7 8a3f 1801 873f eef3 1cbf
00000120: b4a6 cf3f 41b8 12c0 5fcb c2bf cc11 403f
00000130: 2b16 f0bf 1b9a dabf aac7 b53f cd1c e8bf
00000140: 8ce3 ac3f 9688 d4bf b231 823f 04a2 e6bf
00000150: 8697 1440 41d3 0040 4240 f5bf 80a9 0dc0
00000160: 4132 c53e a5e1 15c0 5a98 6ebf 9f9a 573f
00000170: 11a3 04bf c13c cb3f e76e 0740 2f90 993f
00000180: 3906 c33f 579d 1440 afc4 75be 5a17 05c0
00000190: 7e28 f8bf f515 933f 94c0 16c0 efc8 81bf
000001a0: ca91 483f 1915 23c0 a6f3 cd3f 58a9 60be
000001b0: f5f4 eabf cdf4 c93f 4b87 3d40 5069 67bf
000001c0: cd84 e73f 883a e73f 1ce0 b23f 0c68 a93f
000001d0: e03b ed3f aa06 2840 29e8 d53f 725a 2fbf
000001e0: f153 a0bf f73c 6a3f 252d 5fbf 6e77 c13f
000001f0: 90f9 b7bf f206 ba3f 791c 653f 147e 73bf
-2.3757625 1.3154674 -1.0184603 1.2289453 -2.1316764 -1.4914684 0.86173695 -1.5430311
-1.4062891 2.048912 1.2645081 0.9305632 -0.96149486 -0.68127275 -0.68981445 2.047831
-1.093117 1.0842931 -1.9875546 1.1290538 -1.7893543 -1.8010085 0.82745486 -1.4288149
2.2472699 1.8521895 1.5116398 2.0074801 -2.7440636 1.3378865 1.2230939 3.1031601
1.7122518 -1.6297122 -0.26338324 2.5965877 2.2311373 1.6337035 2.375422 -0.400769
-1.1335329 -2.0236619 -1.7287753 -0.90797466 1.8922794 -1.6555909 -2.2231767 0.8604832
-2.066069 0.88168985 0.26012006 -1.3218236 -0.3757676 -1.0132478 2.7149906 -1.7687579
-0.8188439 -1.8601488 -2.2471726 -2.0455358 -1.3654878 0.7709035 -1.7193208 -0.82218444
-1.40789 -1.8479404 -1.5810745 0.5581636 0.81097764 1.0856876 1.0547209 -0.6130971
1.6222749 -2.292496 -1.5218314 0.75027156 -1.8756765 -1.7078279 1.4201558 -1.8133789
1.3506942 -1.6604183 1.0171416 -1.8018193 2.3217483 2.012894 -1.9160235 -2.2134705
0.38514903 -2.3418972 -0.9320122 0.8422031 -0.5181132 1.5877916 2.116144 1.1997126
1.5236274 2.3221033 -0.2400081 -2.0795503 -1.9387357 1.1491076 -2.355504 -1.0139445
0.78347456 -2.5481627 1.6089981 -0.219396 -1.8356005 1.5777832 2.9613826 -0.9039507
1.8087403 1.8064737 1.3974643 1.3234878 1.8533897 2.6254067 1.6711475 -0.68497384
-1.2525617 0.91499275 -0.8717826 1.5114572 -1.4373035 1.453337 0.8949657 -0.95114255

exp_avg f4 [4]
00000000: 2be1 92ba beee 383b 78df 963c 7896 ccbb
-0.0011206021 0.0028218473 0.018417105 -0.006243523

exp_avg_sq f4 [4]
00000000: 3959 3d3b b921 553b fe80 553b 5f3c 483b
0.0028892292 0.003252132 0.0032578106 0.0030553562
