examples/rl/models/ppo/ppo_model_cartpole_track.pt (torch, 153194 bytes, 30 tensors)

actor.pi_net.fcs.0.weight f4 [64, 8]
000000 8b ba 81 3e 28 ed 2b be 10 b6 1c 3f dc ac 81 3e
       0.25337633 -0.16789687 0.61215305 0.25327194
000010 11 6d 8d 3e 7a 24 90 be aa 01 73 be a4 45 2c 3e
       0.27622274 -0.2815283 -0.23731104 0.16823441
000020 0d 35 9a be a0 98 b1 3e 5e d2 f0 bc 0e 25 a0 3d
       -0.301186 0.34686756 -0.029397186 0.078195676
000030 7d 53 94 be 37 50 c6 3d 48 ae 1b 3e d9 c1 65 3d
       -0.28969947 0.096832685 0.15203202 0.05609307
000040 2e f9 b6 3e f0 42 f6 3d 86 22 d2 be 52 96 a2 3e
       0.35736984 0.12024486 -0.41041964 0.3175531
000050 c1 fa 28 3d 2e c3 3d be 63 47 a6 be 51 63 4e 3e
       0.041254763 -0.18531486 -0.3247634 0.20155074
000060 0d 47 b1 3e 90 46 8b be 7e 53 0c 3e 9e d2 86 3d
       0.3462452 -0.27202272 0.13703725 0.06583141
000070 57 b0 34 be f0 a2 9e bd 78 be 71 be 0b 29 2b be
       -0.17645393 -0.077459216 -0.23607814 -0.16714875
000080 2e 5f 8e be 77 eb 41 3c 47 be e7 3e e4 5f 65 3e
       -0.2780699 0.011835924 0.45262358 0.2239986
000090 82 0f be 3e 65 a0 94 be 0f 2f 32 bd f1 3e b0 3e
       0.37121207 -0.2902862 -0.04350191 0.3442302
0000a0 c3 4e 3a 3d b1 e7 a8 bd 58 9f f0 be 2b 20 4b 3e
       0.04548527 -0.08247317 -0.4699657 0.1983649
0000b0 12 97 86 3e d7 7d 8d 3e bc 8a 97 3e 00 c2 8d 3d
       0.26287133 0.2763507 0.29598033 0.06921768
0000c0 49 bc 9d 3e 82 f1 e6 3c ed cf 0a 3f 10 c7 ab 3c
       0.30807713 0.028191332 0.5422352 0.020968944
0000d0 42 d4 17 be 3f b1 40 be b7 c2 40 3e 96 7b 12 3e
       -0.14827064 -0.18817614 0.18824278 0.14304957
0000e0 1d 6e 67 3e 93 78 2d be 4c 86 a9 be f9 64 a6 3e
       0.22600599 -0.16940527 -0.33110273 0.3249891
0000f0 ff f0 43 be ea 45 46 be 0d bc c1 bd 58 07 ea bd
       -0.19134901 -0.19362608 -0.09459696 -0.11427182
000100 bb 85 42 be 62 22 b4 3e 66 02 d6 3d 11 f9 82 3e
       -0.18996327 0.35182482 0.10449676 0.25580648
000110 1f 8d 69 3e 62 c3 73 be 03 30 8a 3e 5c 5d 35 be
       0.2280774 -0.23805001 0.26989755 -0.17711395
000120 24 73 2a bd 45 4a 93 3e 4d 18 32 3f 63 3a d3 3e
       -0.041613713 0.287676 0.6956833 0.41255483
000130 77 c9 11 3e ea 06 73 3e cb 71 02 be bf 58 b8 bc
       0.14237009 0.23733106 -0.12738721 -0.022503255
000140 12 2e 96 bd 7c 4f 87 3d 56 f1 a1 bd 5b 15 70 3e
       -0.07333006 0.06606957 -0.07907359 0.23445646
000150 03 2b 67 3e d3 67 84 be e5 ea 47 be 6c b1 de bd
       0.22575001 -0.25860462 -0.19523199 -0.10873684
000160 64 84 47 bd 9d 35 73 be 7f 38 fe be d2 39 c9 bd
       -0.048710242 -0.2375092 -0.49652478 -0.098254815
000170 5c fb f2 bd b6 b3 d8 3c 51 00 86 be c4 01 b5 bd
       -0.11864349 0.02645288 -0.26172116 -0.088382274
000180 aa de 8d bc f6 5e c5 3d 7d 9d 33 3f 4b c0 a1 3e
       -0.017318089 0.09637253 0.70162183 0.3159202
000190 26 4c 09 be af cc ab be 19 7b 81 be 08 e0 8a be
       -0.13407955 -0.335546 -0.2528923 -0.27124047
0001a0 b7 ac 16 bd 81 97 0b be 1a ee 80 be 35 9b 8e 3d
       -0.036785807 -0.13632013 -0.25181657 0.06963197
0001b0 44 7f 9d 3d 76 4e ea bc 51 3d 03 be 1f 49 9a 3e
       0.076902896 -0.028601866 -0.12816359 0.30133912
0001c0 d4 96 88 be 8e e2 ab 3d 70 34 03 3f 5e dd a9 3e
       -0.26677573 0.08392821 0.5125189 0.33176702
0001d0 ba 74 8b be 17 06 4a bd 9a f7 96 3e da 62 6e 3d
       -0.27237493 -0.049322214 0.2948578 0.05819974
0001e0 a6 74 c9 3d ff e9 2d be 62 da b6 3e e0 04 3a be
       0.09836702 -0.16983794 0.35713488 -0.18165922
0001f0 a9 19 2f be ce 6a a4 3e 92 cf bf 3d d9 f3 1f bb
       -0.17099632 0.32112736 0.09365763 -0.002440682
000200 f3 07 82 be e0 b1 17 be 57 ff 2a bf 0e 64 b3 be
       -0.2539669 -0.14813948 -0.6679587 -0.35037273
000210 33 66 03 bd bc d9 d3 3d 98 52 94 be f6 ee af 3e
       -0.032079887 0.10344264 -0.28969264 0.34362
000220 3c 3d 87 3e 13 32 b3 be 33 5d b6 3d ab 77 8b be
       0.26413906 -0.3499914 0.08904495 -0.27239737
000230 c7 50 93 be 14 42 a5 3e 69 95 11 be 3b 31 f0 bd
       -0.28772566 0.32276976 -0.14217152 -0.1172814
000240 88 25 32 3c 1a 59 2b 3e 89 91 b9 3c e9 7d 5d bc
       0.010873206 0.16733208 0.022652404 -0.013518789
000250 f8 76 9d 3b be 2b 02 be 09 ac 83 be 91 88 bc 3d
       0.004805442 -0.12711999 -0.2571719 0.092057355
000260 96 9e b4 3c f8 9d 00 3e 5a c8 e8 be 7b a4 df be
       0.022048276 0.1256026 -0.45465356 -0.43680176
000270 a0 50 dd bd a4 f1 9a be ca 08 e4 bc 46 db 30 3e
       -0.108063936 -0.30262482 -0.027836222 0.17271146
000280 33 94 5b 3d f6 85 88 3e 52 11 b3 3e 46 85 43 3e
       0.05360813 0.26664704 0.34974152 0.19093809
000290 fe f3 92 3e 97 2d 14 bc d4 fd 70 3d dc e5 12 be
       0.28701776 -0.009044073 0.05883582 -0.14345497
0002a0 4a fb 39 3e 77 e8 92 3e 04 4a 95 be 14 bc 9e 3e
       0.18162265 0.28692982 -0.29158032 0.31002867
0002b0 8d 27 d8 ba f5 d4 c4 bd 18 ac a5 be 2b e7 b4 be
       -0.0016491279 -0.09610931 -0.3235786 -0.35332617
0002c0 38 bb bc be ef f1 c0 be 7b 4e d5 be 25 c6 e8 bd
       -0.36861587 -0.3768458 -0.41661438 -0.11365918
0002d0 64 b9 51 be 0c 2d 7e be 7a 2c 21 bd cc 4c 98 be
       -0.20480877 -0.24821872 -0.039349057 -0.2974609
0002e0 8c fa 76 3d d8 0e 62 3e 1b ff f7 3e fb 05 93 3e
       0.060297534 0.22075975 0.48436818 0.287155
0002f0 21 8e eb 3d 2b 9b 73 be 27 dd f3 bd 84 aa 04 3c
       0.11501718 -0.2378966 -0.11907416 0.008097295
000300 88 b0 25 3e b7 c6 95 3d 65 3a a0 be 82 3b 44 bd
       0.16180623 0.073132925 -0.31294551 -0.047908314
000310 09 06 20 3d 5b 0a 18 3e 64 87 06 be 26 db 9e be
       0.039068256 0.148477 -0.13137585 -0.31026572
000320 bc 22 3e be c2 e8 3f 3d a0 9d b8 be e7 29 12 3e
       -0.18567938 0.046852835 -0.36057758 0.14273797
000330 4d 6d 7e 3e cc 75 96 3c c3 ee 3d 3e 7c 9b 7d 3e
       0.24846382 0.018366717 0.18548112 0.24766344
000340 5c 3f 80 3e 0c 86 9b be 56 1e 0d 3f 9f d9 aa 3d
       0.2504834 -0.30375707 0.55124414 0.08342289
000350 bb 6f b0 be 1e 16 8b 3d 0a 4d 79 be 2a 8e a7 3e
       -0.34460244 0.06791328 -0.24345794 0.3272565
000360 c1 a3 70 3e 92 02 86 be ed 60 e9 be 94 5d 59 39
       0.23499967 -0.26173836 -0.4558176 0.00020729593
000370 c5 23 4c bd ce 75 0b 3e cf a1 a8 be 02 35 86 3e
       -0.0498388 0.13619158 -0.3293595 0.26212317
000380 01 18 f9 bd 0d 18 4c be 96 b0 32 bf e7 81 2b be
       -0.121627815 -0.1993105 -0.698007 -0.16748773
000390 31 59 41 3e 24 57 a5 3e 9c 7b 6a be bd bf 17 be
       0.1888168 0.32293046 -0.22898716 -0.14819236
0003a0 39 0a 80 3d 18 e0 3e 3e e0 66 07 bf cf 91 25 be
       0.0625195 0.18640172 -0.5289135 -0.16168903
0003b0 e6 d9 99 be cd d1 9f 3e fb 17 f7 bd a5 bf 59 3e
       -0.30049056 0.31214753 -0.12065121 0.21264513
0003c0 1b 1c 8f 3e 46 ee 2d 3e 1e 56 92 3e 0e 44 79 3e
       0.2795113 0.16985425 0.28581327 0.24342367
0003d0 3d fa ee bd 55 be 0b 3e d6 b3 40 bd 19 48 b6 3b
       -0.11668823 0.13646825 -0.047046505 0.005562794
0003e0 bb f3 6f 3d 61 1f bc be 45 7b 11 bf 00 59 d2 be
       0.05858205 -0.3674269 -0.5682872 -0.41083527
0003f0 60 6c f4 bd 64 be 8e ba 26 84 10 3e bf df 90 be
       -0.119347334 -0.0010890481 0.1411291 -0.28295705

actor.pi_net.fcs.0.bias f4 [64]
000000 90 ff 3c 3e e8 d0 c3 3d 54 08 83 3e 07 fd 76 be
       0.18456864 0.0956133 0.2559229 -0.2411996
000010 10 83 80 3c 2b 88 fa bd 47 22 e9 3d f2 4c 51 be
       0.015687495 -0.12233003 0.11383491 -0.20439509
000020 96 74 43 be a4 73 12 bd 2f 02 12 be e4 67 19 3e
       -0.19087443 -0.035754815 -0.14258645 0.14981037
000030 75 e7 5b 3e 03 80 14 be 22 55 ac bd 9f b7 f3 bc
       0.21475013 -0.14501958 -0.08414675 -0.029750643
000040 14 79 03 be 68 bd 7b bc d1 b4 1d be 0d 7a 7c 3e
       -0.12839156 -0.015364982 -0.15401007 0.24655934
000050 7d ad 70 3e 59 6d 03 3e ee f7 ab 3e ef 1c c6 3c
       0.2350368 0.12834682 0.33587593 0.024183718
000060 05 87 4a be ee 56 20 be da 5c 1f bd 57 96 96 3e
       -0.19778068 -0.15658161 -0.03890691 0.29411575
000070 b9 6e 52 bc 8c 7c e2 3d f3 77 01 be 5a de 2c 3e
       -0.012843781 0.11058912 -0.12643413 0.16881695
000080 d9 17 ab 3e 57 14 8b be 86 4d 9d be 37 2c 06 be
       0.33416632 -0.27163956 -0.30723208 -0.13102804
000090 92 7f 3e be d1 ff 6a be 64 7e bd 3d d9 6d 2a be
       -0.18603352 -0.22949149 0.09252623 -0.16643466
0000a0 f2 98 a4 3e 1a b9 66 bc f5 9f 64 bd 7d ff 95 3e
       0.32147938 -0.014082218 -0.05581661 0.29296485
0000b0 e3 e7 00 be aa 2d 7d be 0c 72 14 3d 3b 47 3b 3e
       -0.12588458 -0.2472445 0.036241576 0.18288891
0000c0 32 35 38 be d5 48 79 be c8 31 82 be cb f7 94 be
       -0.17989042 -0.2434419 -0.25428605 -0.290953
0000d0 96 9e 74 3e 11 de 26 bd 0d 3c 9d 3d 9b cd c3 bd
       0.2388862 -0.040739123 0.076774694 -0.095607005
0000e0 03 65 4d 3e fb cd 0b 3e cd 53 20 3e ef 91 52 3d
       0.20058064 0.13652794 0.15656967 0.051408704
0000f0 a1 20 fc 3d 22 39 26 3e 74 d6 5e be bc 95 96 3e
       0.12310911 0.16232732 -0.21761495 0.29411113

actor.pi_net.fcs.1.weight f4 [64, 64]
000000 55 48 a3 3c 79 11 7a 3c bd 87 23 be 79 7c 7f 3d
       0.019931952 0.015262955 -0.15969749 0.062374566
000010 8c 84 9c bc 01 cd ac 3d 7f 20 42 bd 29 19 f2 bd
       -0.019106172 0.08437539 -0.047394272 -0.11821205
000020 6e cb a3 bd ac c7 b1 3d cc 3a f9 bd 5b f4 04 be
       -0.079977855 0.086806625 -0.12169418 -0.12983839
000030 65 33 fd 3d 4e b2 4f 3d 3c e7 05 3d b9 f1 fe 3d
       0.12363318 0.050707154 0.032691225 0.12448449
000040 54 25 34 be f1 d4 8e 3d fa a7 08 3c d6 d8 3a bd
       -0.17592365 0.06974209 0.00834083 -0.045616947
000050 78 da 9e 3d d8 b1 0d be d5 76 c5 3d aa 80 5e bd
       0.07756513 -0.13837373 0.09641806 -0.054321922
000060 1b 86 d3 3d 42 b4 5e bd 15 c3 ad bd 35 2c a6 bd
       0.10328313 -0.054371126 -0.084844746 -0.081139006
000070 f1 5b cf 3c a9 21 bc 3c ad 2d 9e 3d ae ea 99 3b
       0.025312396 0.02296527 0.07723556 0.0046971655
000080 2e 36 56 bd 21 d2 94 bd 58 23 0b bd 04 07 9b bd
       -0.052297764 -0.072666414 -0.033969253 -0.075696975
000090 46 3a f4 bd e1 a3 3d bd 5b c0 0d be 55 bb 0f bd
       -0.11925177 -0.046298865 -0.13842909 -0.035090763
0000a0 60 37 fa bd 66 79 05 bc 6f bf 84 3d 8d 3d 46 bd
       -0.12217593 -0.008146619 0.064818256 -0.048398543
0000b0 0d e5 a7 bd 22 7d 16 bd 3c 8a ea 3c 71 ee e5 bc
       -0.08197985 -0.03674043 0.028630368 -0.0280678
0000c0 71 82 ef 3d f6 fe a1 3d b6 96 dd 3d 31 f1 9b 3d
       0.116948016 0.07909958 0.108197615 0.07614363
0000d0 d3 36 0d 3c 2a 4e 0a 3d d8 d8 2c 3e ea 2d 01 be
       0.008619028 0.03376595 0.16879594 -0.12615171
0000e0 6c 0b 42 3d 3c a9 08 be a7 03 41 3c cd 43 2d bd
       0.047374174 -0.13345808 0.011780656 -0.042300988
0000f0 bf 28 65 3d 3b e4 d4 bd 4d 28 89 3d 4e 26 fa bd
       0.05594706 -0.10395094 0.0669714 -0.12214337
000100 88 6c a4 bd 71 2c 4e bd 6f 80 f7 39 06 5e 50 bd
       -0.08028513 -0.05033535 0.00047207202 -0.050870918
000110 00 1f 97 bd c0 ca a2 3d 80 74 3f be f3 e0 b5 3d
       -0.0737896 0.07948828 -0.18696785 0.08880796
000120 b6 f9 a1 bd 3a 82 21 be 8b a2 88 3b 30 52 a2 3d
       -0.07908957 -0.15772334 0.0041697673 0.07925832
000130 8b b7 1e be c7 1e 15 bd da 89 12 be c8 85 13 bb
       -0.15499704 -0.036406305 -0.14310399 -0.002251016
000140 f6 fe 36 3e 72 7b 65 3d 88 aa eb 3d a5 63 ac 3d
       0.17870697 0.05602593 0.11507136 0.08417443
000150 27 bf b8 bd 33 af 49 3d 5a 88 c5 3d 1b 95 ea bc
       -0.090208344 0.04923935 0.096451476 -0.028635552
000160 96 dd 6a bd 31 ba 17 3e 6a f4 93 bd 2b 0d d9 3b
       -0.057340227 0.1481712 -0.07224353 0.006623884
000170 02 7c 04 3e 6e 24 a4 bd 3d 5a 02 be 45 cf a4 3d
       0.1293793 -0.08014761 -0.12729736 0.08047346
000180 fe 8e bb bd 04 30 98 bd 0f 0c e4 3d 0c 43 84 3d
       -0.09158133 -0.07431033 0.111351125 0.06458101
000190 e9 5d 33 3e 21 bd 6f 3d f9 92 cf 3d c5 a7 4b bc
       0.17516293 0.058529977 0.10135455 -0.012430136
0001a0 a7 66 3b bd 85 d6 e2 bd 69 54 4b 3d 3c eb 6b 3d
       -0.045752194 -0.110760726 0.049641047 0.057597384
0001b0 94 14 76 bb 97 c0 29 3d 56 8e 90 bd 1f 5e 64 bd
       -0.0037548887 0.041443434 -0.070583984 -0.055753823
0001c0 62 5c 76 3d ec 20 77 bd cd c1 2d bd 25 77 66 bd
       0.060146697 -0.06033413 -0.04242115 -0.05626597
0001d0 ff 50 47 bb a8 ea dd bd 7d 94 59 bd 12 38 93 bd
       -0.0030413268 -0.10835773 -0.053120125 -0.07188429
0001e0 8f 5c 7e 3d e9 32 49 bd 85 a8 be bd 99 49 94 bd
       0.06209999 -0.049120817 -0.09309486 -0.072406
0001f0 1b a8 94 bd 62 91 cb bc 26 5c c7 bd f2 ce 89 3a
       -0.07258626 -0.024849597 -0.09734373 0.0010513945
000200 49 87 95 bd 8b e8 52 3d 0a a2 d1 bd af 80 64 bd
       -0.07301194 0.0514913 -0.102359846 -0.055786785
000210 98 07 83 3d cd 53 2e 3c a5 33 15 3d 53 b8 6f bc
       0.06397933 0.010640097 0.036426205 -0.014631349
000220 b0 59 1d 3c 7d e2 ee bd 14 db 49 3b 86 74 7a bd
       0.009603903 -0.11664293 0.0030800747 -0.06114628
000230 56 da d6 bd 97 7d c0 bd 38 30 e0 bd 23 f5 07 3b
       -0.10490863 -0.09398954 -0.10946697 0.0020745478
000240 10 b0 c1 3d d6 b9 eb bd 69 28 3f bd 29 3f 77 bd
       0.094574094 -0.11510055 -0.046669398 -0.06036297
000250 13 c5 83 3d 1d a3 92 bd 5c 9b 97 3d ea 85 9c bd
       0.06434073 -0.07160018 0.07402679 -0.076427296
000260 d5 80 05 3e 5d 88 e9 3d 4e e0 11 3d e1 80 e9 3c
       0.13037427 0.11402962 0.035614304 0.028503837
000270 7e f6 c1 bd c3 dd 84 3d 59 74 df 3d 73 33 46 bd
       -0.09470843 0.0648761 0.109108634 -0.04838891
000280 00 32 a1 3c 91 e4 48 bd 6c f5 5e bd d2 f9 d0 bd
       0.019677162 -0.049046103 -0.05443327 -0.102038994
000290 a7 3a 9e bd e9 a5 98 bd cf d8 36 bc 01 b5 bd bd
       -0.07726031 -0.0745352 -0.01116009 -0.092630394
0002a0 f3 9e 72 3d 55 ff c4 3d 5b dc cc bd 36 84 a6 3c
       0.059233617 0.09619013 -0.10002967 0.020326715
0002b0 21 09 12 bd 0c 86 f6 3d a6 7e a8 bd f4 ae aa bc
       -0.035653237 0.12037286 -0.08227281 -0.020835377
0002c0 ed 41 e7 3d 86 23 9f 3d 76 0b d7 bd ab db c2 bd
       0.11291871 0.077704474 -0.10500233 -0.095145546
0002d0 58 cd 24 bd 7e 4f 3f 3d e0 a3 a3 bd 08 cb 8e 3d
       -0.040234894 0.04670667 -0.07990241 0.06972319
0002e0 0b a1 9c 3d c8 46 8d bd 4a 9e a5 3d 75 48 60 bd
       0.07647904 -0.06898266 0.08086832 -0.0547566
0002f0 8d c1 dc 3c 12 b6 f8 3d 5e 6d 30 3d c0 3f ba 3d
       0.026947761 0.12144102 0.04307305 0.090941906
000300 5a da ef bd 5a d2 0c 3e 79 e7 e4 bc f5 a0 d0 3d
       -0.11711569 0.13752118 -0.027942406 0.1018695
000310 57 db 55 3d 36 0f e4 3d 77 c7 a1 bd 47 51 bb bd
       0.052211132 0.11135714 -0.07899373 -0.09146362
000320 4d 06 ae bc ae 90 88 bd 29 0e 03 bd 58 d9 1f bd
       -0.021243239 -0.066682205 -0.031995926 -0.039025635
000330 51 73 ea 3d 7b a1 c6 bd 6d 10 1d 3c 02 71 21 ba
       0.11447776 -0.09698769 0.009586436 -0.0006158502
000340 73 12 d4 bd 49 6e f9 bd 92 21 b6 ba 61 7a 69 bd
       -0.103550814 -0.12179238 -0.0013895503 -0.057001475
000350 e6 60 06 bd b9 f5 cd bc 9f 9e fd 3c c9 da 11 3d
       -0.032807253 -0.025141584 0.030959425 0.03560904
000360 d9 b2 ce 3d 8f f7 bf bd 4e 7b e9 3d de 77 d3 bd
       0.10092706 -0.0937339 0.11400472 -0.10325597
000370 fc c2 c0 bd 6d 70 b7 bc eb 1c 84 3d 06 6b 92 3c
       -0.0941219 -0.022392476 0.06450828 0.017873298
000380 ae d8 b3 bd 98 46 96 3c ac 95 2c 3d c6 85 d2 3d
       -0.08781563 0.018344209 0.042134926 0.102794215
000390 a1 b2 27 bd 92 40 68 3d 3c 4d a0 bd 0e b8 98 3d
       -0.04094184 0.056702204 -0.07827231 0.07456981
0003a0 83 0c 75 bd be 25 6c bd 78 89 d0 3d a1 dd a7 3d
       -0.059826385 -0.05765318 0.1018247 0.08196569
0003b0 71 b4 78 bc a4 c9 94 bd 46 d8 92 3c 2f 24 79 3d
       -0.015179739 -0.072650224 0.017925393 0.060825523
0003c0 37 e9 99 3d f5 93 0c bd 51 70 8d bc ed 0a 64 bd
       0.07515185 -0.03432079 -0.01726547 -0.055674482
0003d0 ea 02 3c bd eb 86 58 bd ea fb 2a 3d be 92 5c bd
       -0.045901217 -0.052863043 0.04174415 -0.05385088
0003e0 1e 77 e6 3d ce 43 b9 3b ef 6f cd bd 4e 3c a5 3d
       0.112531886 0.005653835 -0.10031115 0.08068143
0003f0 c1 f5 4c bd 40 ab d2 bd a7 ce 91 3d e5 3a 1d bd
       -0.050039057 -0.102865696 0.07119494 -0.038386244

actor.pi_net.fcs.1.bias f4 [64]
000000 9e 14 9b bd f3 c6 8f 3c e2 02 b1 bd f4 44 c0 3d
       -0.07572292 0.017550921 -0.08643128 0.09388152
000010 20 b6 47 bd 28 fe 75 bd 7f 2f 08 bd 41 30 ae 3d
       -0.048757672 -0.060056835 -0.03324842 0.085052975
000020 85 54 e5 3c b1 1b e5 bd 3f a1 02 3d 88 4f 5c 3d
       0.027994404 -0.11186922 0.031892058 0.053786784
000030 4f 00 8a bc 2b 78 a5 bd a7 76 43 bd 8b dc 9c 3d
       -0.01684585 -0.08079561 -0.047720578 0.07659253
000040 b9 f8 b9 3d f8 39 90 3c 31 96 04 be 65 3e c3 3c
       0.09080643 0.017605767 -0.12947918 0.023833463
000050 09 c9 c3 3d 7c c5 d4 bd 34 2c 72 3d de 47 a5 3d
       0.09559829 -0.1038923 0.059124187 0.08070348
000060 14 c5 f7 3d ea be 0d bc 68 8e 56 bd c5 91 cf bd
       0.120981365 -0.0086514745 -0.052381903 -0.10135225
000070 17 40 be bc b8 c5 2d bd c5 10 12 bd a7 91 14 bc
       -0.02322392 -0.042424887 -0.035660524 -0.009067929
000080 b0 f8 a8 bd d2 97 97 bd 7f d2 64 bd f8 ae c8 3d
       -0.082505584 -0.07402004 -0.055864807 0.09798998
000090 67 3f 20 bd 8e dd 34 bd 74 7f 8b 3a 88 71 ea 3c
       -0.039122965 -0.044156604 0.0010642842 0.028618589
0000a0 a9 75 bc bd df 74 a0 3d c8 3d 8c 3d 49 5f fc 3c
       -0.092021294 0.078347914 0.06847721 0.030807154
0000b0 f7 a3 ac 3d 8a 16 73 3c 78 f2 66 bd 26 15 d2 3d
       0.08429711 0.014836917 -0.05638358 0.1025794
0000c0 ca d8 02 be be 5b 82 bd 58 ba e7 3d e3 c6 10 3e
       -0.12778011 -0.06365155 0.11314839 0.1413837
0000d0 8c 24 0f bd 15 31 eb 3d 2a d3 c6 bd b8 ca a0 bd
       -0.034946963 0.11483971 -0.09708245 -0.078511655
0000e0 2c 04 35 3d 0c 54 f8 3a 00 4e 8d bd 2d ec 9e 3c
       0.04419343 0.0018945946 -0.06899643 0.019399727
0000f0 19 69 39 3c 9e 00 85 3d 51 fe 94 3b c8 1d a8 bd
       0.011316561 0.06494258 0.0045469184 -0.08208805

actor.pi_net.fcs.2.weight f4 [1, 64]
000000 a4 31 c2 3d 83 5d e4 bd f8 82 41 3a 46 55 a4 b9
       0.094821244 -0.111506484 0.00073818816 -0.0003134405
000010 47 60 4b 3e c0 67 d7 ba c1 cc 33 bc 27 1a 03 3a
       0.19860946 -0.0016434118 -0.01097411 0.00050011504
000020 e6 3b 09 be 41 4c 87 bd 25 15 c7 3d 35 bd da bc
       -0.13401756 -0.06606341 0.0972083 -0.026701549
000030 99 8a e0 bc 60 c1 3d ba 56 6e d8 bd 4d 8d ee 3d
       -0.027409839 -0.0007238593 -0.1056792 0.11648045
000040 9c 03 b4 3c 3f db 2c 3e 0d 99 b0 3d 1d 5f bf b8
       0.021974377 0.16880511 0.08622942 -9.125306e-05
000050 72 04 aa 3d bb b5 32 bd dd 03 80 bd 4b 74 73 bd
       0.08301629 -0.043630343 -0.06250737 -0.059437077
000060 64 18 ba 3d 35 8b c7 bd b0 20 02 3e a9 de e9 3d
       0.090866834 -0.097433485 0.12707782 0.11419422
000070 dd 61 98 3c 19 cc 3d be 28 82 c1 bd a8 bf 01 3e
       0.018601352 -0.18534888 -0.094486535 0.12670767
000080 f4 6c d9 bd 2d 7e ec bd 56 0f 44 be 0c 80 20 be
       -0.10616484 -0.115475036 -0.19146475 -0.15673846
000090 11 e9 c8 bc 5b 0d 9a 3d 14 c6 9b 3d fd 27 f4 3d
       -0.024525197 0.075220786 0.0760614 0.1192169
0000a0 56 46 c5 bd 39 6b fa bb 77 1f 1b 3d ff f6 c6 bc
       -0.09632556 -0.0076421765 0.037871804 -0.024287699
0000b0 7e 9f b6 bd 16 6f e7 3d 94 07 a5 bd a7 8b e8 bd
       -0.089171395 0.11300485 -0.08058086 -0.113547616
0000c0 27 cd 51 3d 29 a3 d2 3d 0e 4d 3b bd 37 4c 2d 3e
       0.05122104 0.102850266 -0.045727782 0.16923605
0000d0 90 44 28 3d 73 a8 b0 bc 10 65 8f bd c2 6c 32 bd
       0.04108101 -0.021564698 -0.07001698 -0.04356075
0000e0 69 ce a1 3d 58 1c 85 3d 2e 6e 48 bc 13 6f 54 3d
       0.07900698 0.06499547 -0.0122333 0.05186374
0000f0 b2 1e c0 3d a4 55 36 bd cc ca b3 3d 95 0c 05 3e
       0.09380855 -0.044515267 0.08778915 0.12993081

critic.v_net.fcs.0.weight f4 [64, 8]
000000 dc 72 19 3f 27 1f 35 3f 1d b1 13 3f e3 d7 08 bc
       0.59940886 0.7075066 0.5769213 -0.008352253
000010 81 a5 1b be 63 57 dc bd db 79 99 3e 45 7a 4b be
       -0.15199853 -0.10758855 0.2997578 -0.19870861
000020 6a 59 62 3e 25 12 bc be 4a 1e 20 bf 9b c9 3c be
       0.22104421 -0.36732593 -0.6254622 -0.18436281
000030 c7 f4 02 be c6 d5 7a 3d a8 20 93 be 49 cb 8a 3e
       -0.12788688 0.061239026 -0.28735852 0.2710822
000040 f5 ea b3 bd 1c 27 c9 3d cb ef b7 3f a4 5b ac 3e
       -0.08785049 0.09821913 1.4370054 0.33663666
000050 f2 5c a9 3c 98 e2 01 be 29 f4 af bd 80 74 5a 3d
       0.020674203 -0.12684095 -0.08591492 0.05333376
000060 f2 85 95 bd 2c 52 05 3d b0 e0 5d bf bd 44 bb be
       -0.07300939 0.03254907 -0.8667097 -0.3657588
000070 27 7d f3 3d b3 18 83 3e 71 53 7c 3d df 6f 75 be
       0.11889105 0.25604782 0.061603013 -0.23968457
000080 eb a1 10 bf 46 7b 20 be 2d 54 f5 3d c8 9c ce 3e
       -0.5649707 -0.15672025 0.11978946 0.4035399
000090 f3 03 01 3e a7 7c c2 3d 65 73 97 be 2c a3 92 3e
       0.12599163 0.09496432 -0.29580227 0.28640115
0000a0 a8 3a 19 be 35 7c 83 3e fc 76 a5 3f 16 04 a0 3e
       -0.14963782 0.256807 1.2926936 0.31253117
0000b0 a3 52 0d be 02 73 a6 bd da 60 4c 3e cc e8 1f 3d
       -0.13801055 -0.08127405 0.19958821 0.03904037
0000c0 22 de 4e 3f c6 92 de 3e 05 10 c1 bd b3 9e 44 3e
       0.808077 0.43471354 -0.094268836 0.19201164
0000d0 98 e0 90 be de 4f 33 be bc 39 a2 be ad f9 78 bd
       -0.2829635 -0.17510936 -0.31684673 -0.060784984
0000e0 1c 68 f0 be e8 4e f7 bd a4 97 b6 bf 55 f3 47 be
       -0.4695443 -0.12075597 -1.4265027 -0.19526418
0000f0 ae f7 08 3f d0 6d 85 3d d0 e7 ed bb c1 d0 82 3e
       0.5350293 0.06515086 -0.0072603 0.25549892
000100 cb 3b 24 3e d8 39 f4 3d 28 02 c4 3f 3c 9d 88 3e
       0.16038434 0.11925095 1.5313158 0.2668246
000110 b3 0b b3 be e8 c9 45 be c1 ab b0 3e 2f 6c 77 3e
       -0.34969863 -0.19315302 0.34506038 0.24162363
000120 be ba a1 be f2 1e 1e bf c9 e8 ea be 4b 17 e8 3d
       -0.31587785 -0.6176597 -0.45880726 0.11332568
000130 49 e0 2a 3e 78 7b 29 3d 34 eb 74 be 07 d0 34 3e
       0.1668712 0.041377515 -0.23917848 0.17657481
000140 92 9e e8 3e ad 8e 25 3e 80 f9 70 3f 6e 7f 0e 3d
       0.4543348 0.16167708 0.94130707 0.034789495
000150 8f 08 0d bf 61 78 64 bd df 4c aa be 61 fc 27 bd
       -0.55091184 -0.055778865 -0.33261773 -0.04101217
000160 ec 81 0e be 3d 02 31 be 52 7d 95 bf 6d 34 c2 bd
       -0.13916749 -0.1728601 -1.167887 -0.09482656
000170 9a 95 27 bd 92 9d b4 3e 5b 7a 0e be 00 12 76 be
       -0.040914156 0.35276467 -0.13913862 -0.24030304
000180 a3 ed 0b 3f 16 fa 29 3c 12 c1 70 bf 74 bd de be
       0.5465948 0.010374567 -0.940446 -0.43503916
000190 a8 40 95 bc f8 a4 81 3d 1c ba 2d be ab dc 96 3d
       -0.018219307 0.063302934 -0.16965526 0.07366308
0001a0 c7 52 74 3e 49 2f a7 3e 41 57 46 3f 7d 37 9c 3e
       0.23859702 0.32653263 0.7747689 0.30511084
0001b0 50 08 ba be 1e 09 dc be 0a 86 0b 3d 68 de 87 bd
       -0.36334467 -0.42975706 0.034063376 -0.066342175
0001c0 82 04 c8 bc a2 21 4a 3e 9d da 9d 3f 3e 13 2c 3e
       -0.024416212 0.19739392 1.233234 0.16804215
0001d0 2b f2 14 3d 0f d6 ad be 71 99 8d 3e 33 77 4d bc
       0.036363762 -0.33952376 0.2765613 -0.012540626
0001e0 40 66 a9 3e c1 ed 6f bd 43 1f 22 3f 3a 3d a7 be
       0.33085823 -0.05857635 0.6332895 -0.326639
0001f0 bd 15 b2 be ed b1 55 bc f9 a0 8c 3d 29 e0 ad 3e
       -0.3478221 -0.013042909 0.068666406 0.33960083
000200 96 b4 bf be 73 57 c3 be 3c 3f 06 3f 25 55 fc 3e
       -0.37442464 -0.38152656 0.5244024 0.4928371
000210 be f1 98 3e fa a4 a1 3d 9a fe 07 3e d5 54 8f bb
       0.29871935 0.07892795 0.13280717 -0.0043741264
000220 4e b0 3e be d2 79 37 3d 14 76 a3 3f 2a dc 02 3e
       -0.18621942 0.04479391 1.277041 0.12779298
000230 e9 99 3d 3e 6e f8 a6 be f6 41 b9 bd 5f fd d1 bd
       0.18515743 -0.32611412 -0.09045784 -0.10253405
000240 75 04 d5 3e 92 75 e8 bd 97 98 4f 3f 77 42 64 3e
       0.41604963 -0.1135055 0.8109221 0.2229098
000250 09 94 d5 bd f3 9d 88 3e 5b 7e a5 3e 6c 19 1e bd
       -0.10428626 0.26683006 0.32322964 -0.038598463
000260 b4 31 0d be 93 8e b1 be 7f 4c e1 bf e8 f7 ef be
       -0.13788491 -0.34679088 -1.760147 -0.46868825
000270 72 08 6c bd 02 a0 e7 3e f4 56 90 be f5 cf 82 3c
       -0.05762524 0.45239264 -0.2819134 0.015968302
000280 ef e5 9f 3e 8d fb 60 be b8 85 c5 be 0a 39 42 be
       0.31230113 -0.21970959 -0.38578582 -0.18967071
000290 f4 9a 20 bf 93 8c 43 3e d9 90 39 be c1 e0 af 3e
       -0.6273644 0.19096594 -0.18121661 0.3435116
0002a0 b6 fc 30 3f 7e e2 fa 3d 10 77 cf 3d ac 6e 5d bd
       0.69135606 0.12250231 0.10130131 -0.054060623
0002b0 e4 cf f7 be 69 d3 7a 3e 52 72 fe bb f6 f9 20 3d
       -0.48400795 0.24494709 -0.007765093 0.03930088
0002c0 d0 39 09 bf 08 6f 1b be 72 2d 2f 3f 78 8b 6a 3e
       -0.5360384 -0.15179074 0.6842872 0.22904766
0002d0 67 52 1c 3f fa 50 4f 3c 51 db 1d 3e 01 fd 47 bc
       0.61063236 0.012653584 0.15415694 -0.012206317
0002e0 3b 1f a5 3e e6 14 d8 3d dd 52 1d 3e 3a e2 0e 3d
       0.3225039 0.10550861 0.15363641 0.034883715
0002f0 a7 1a 1c be 9d 7d 6b bd 43 bb 3b be ee e3 01 3e
       -0.15244542 -0.05749284 -0.18333153 0.12684605
000300 7e bf 88 3e 81 4f e1 3e 20 cc 92 3e c6 b9 13 3e
       0.26708597 0.4400597 0.2867136 0.14426336
000310 0d 8a 89 be 80 71 0e bf 5f e4 68 3d a7 9d d0 bc
       -0.26863137 -0.5564194 0.056858417 -0.0254658
000320 fd 83 b7 3e b7 96 0f be 10 c7 43 bf 81 20 3b be
       0.35842887 -0.14022337 -0.7647562 -0.18274118
000330 e9 62 c1 be c7 31 c2 3c 57 ed 95 3e a0 41 03 3e
       -0.37770775 0.023705376 0.29282638 0.12818003
000340 c9 dc dd be 03 f0 2d be f9 24 84 bf 23 a2 2d be
       -0.43332508 -0.16986088 -1.0323783 -0.16956381
000350 8c 7c 18 3f 6b dd 61 3e c5 c2 93 be 85 02 20 3d
       0.59565043 0.2205712 -0.28859535 0.039064903
000360 00 16 80 bd 7d 4d ae be 4c 12 73 3f d2 27 2d 3e
       -0.06254196 -0.34043494 0.94949794 0.16909721
000370 16 f0 d8 3d 9c b3 a6 3e 5d d0 1a 3d 20 9e 40 3e
       0.10592668 0.32558906 0.037796367 0.1881032
000380 e7 f6 96 be 43 3e f1 be 6f 63 94 bf 22 d1 18 be
       -0.29485247 -0.47117814 -1.1592845 -0.14923528
000390 f4 07 93 bc 08 9d 2e 3e f8 3b a9 be 26 f6 66 3b
       -0.017948128 0.1705209 -0.33053565 0.003524193
0003a0 c4 a5 19 3f 2b 01 a4 3e 5c c3 b7 3f f9 ec c9 3e
       0.60018563 0.3203214 1.4356494 0.39438608
0003b0 03 16 11 bf ce 37 7c 3d 48 ae 2e be d2 84 a4 be
       -0.5667421 0.061576657 -0.1705867 -0.32132584
0003c0 ba ca b3 3e a6 b9 1c 3d 44 e4 7c 3f 09 f1 5a be
       0.35115606 0.038262986 0.98785806 -0.2138101
0003d0 75 92 d3 be 3e 11 a6 bc 5d f4 81 3e 01 4b 4d ba
       -0.41322675 -0.020271894 0.25381747 -0.0007831306
0003e0 f4 9d dc be fe 6b 0e be 58 13 49 bf 7b ab 0f bf
       -0.4308926 -0.13908383 -0.7854514 -0.56121033
0003f0 97 79 cd 3e 25 c6 12 3d 98 81 cf 3d 26 0c 79 3d
       0.40131828 0.035833497 0.1013214 0.0608026

critic.v_net.fcs.0.bias f4 [64]
000000 56 65 2f 3f b5 29 07 3f de f0 fa 3d 8d 63 94 3e
       0.68514 0.52798015 0.12252973 0.289822
000010 43 cb 22 bf cb d9 7f 3c ef 71 24 3f 87 0c 62 be
       -0.635914 0.015615891 0.6423635 -0.22075091
000020 cb 9e e6 be cd 5f f2 be 66 0e ee be 88 81 b1 3d
       -0.45043024 -0.47338715 -0.4649536 0.08667284
000030 96 b8 2b 3f 2b fa 17 3e e9 ee cb 3b bc 52 22 3e
       0.6707853 0.14841525 0.0062235487 0.15851873
000040 c4 ad 48 bf 94 28 4b 3d d0 f9 64 be f2 e1 55 bd
       -0.78390145 0.049599245 -0.22360921 -0.05221743
000050 a1 ec a1 3e b3 d8 6f 3c 00 eb 15 bf 7f 85 76 3c
       0.31625846 0.014639067 -0.58561707 0.015046476
000060 0f 35 ab be a0 c5 7b 3e 81 70 83 be 6a 9a 52 3f
       -0.33438918 0.24587107 -0.2567177 0.8226687
000070 86 44 20 3f 25 d4 cb 3d 25 40 b2 3d ac a1 aa be
       0.6260456 0.09952573 0.08703641 -0.3332647
000080 81 5a 46 be a6 fa 09 bf 94 a9 bc 3e 94 95 cb be
       -0.19370462 -0.53898084 0.36848128 -0.39762557
000090 ad 41 59 3e a2 3d d7 3d 8c eb 09 bf 31 1f e3 be
       0.2121646 0.105098024 -0.5387504 -0.44359735
0000a0 de 35 1e 3f 58 99 37 bd e6 fa bc 3e 60 3f 3c be
       0.61800945 -0.044823974 0.3691017 -0.1838355
0000b0 ed a1 d1 3e 07 2e 4e 3f d8 02 42 bf c1 a3 0a be
       0.40943852 0.8053898 -0.7578559 -0.1353903
0000c0 f9 05 d9 be 0b ca 40 3f 80 ad 12 3f 69 59 c0 3d
       -0.4238737 0.75308293 0.5729599 0.09392054
0000d0 ae e4 37 3f 51 aa b5 be f7 49 ac 3e 0d 5e 1a bd
       0.7183331 -0.35481504 0.3365018 -0.03768735
0000e0 fd b2 57 3f 33 0a 91 be 55 c8 41 3f 0c 89 1b 3f
       0.8425749 -0.28328094 0.7569631 0.6075599
0000f0 b7 3a 1b bf 9d 40 23 bd f6 2d b9 3d 3e 7f 29 3f
       -0.60636467 -0.039856542 0.090419695 0.6620978

critic.v_net.fcs.1.weight f4 [64, 64]
000000 a8 0a 90 be 29 f5 08 bd b7 2b 43 be 87 8c 8e 3e
       -0.2813313 -0.033436928 -0.19059645 0.2784159
000010 af 0b 09 3f 26 20 c9 3c 68 e9 16 bf 18 ee 4d 3e
       0.5353345 0.024551462 -0.589499 0.20110357
000020 42 85 a1 bd cc f2 ad bd a9 e5 d0 bd 18 9d a2 3e
       -0.07886745 -0.084935755 -0.10200054 0.31760478
000030 db d5 b1 be 31 c9 ef be 95 19 af be fc 55 82 be
       -0.3473347 -0.46833184 -0.34199205 -0.25456226
000040 62 ea e0 3e be 03 0f be bb 0f 97 3e 31 8f 09 3f
       0.4392882 -0.13966271 0.2950419 0.5373412
000050 1f 13 a1 3a 19 a2 2a 3a 25 08 c4 3e c2 c5 bc be
       0.0012289024 0.000650914 0.38287464 -0.36869627
000060 2e 74 8e be c8 c8 1f be f7 d2 e0 3e b9 a4 c6 bd
       -0.27823013 -0.15603936 0.43910953 -0.09699387
000070 c8 65 16 3e c0 ac 57 be 87 4b 69 be 6a 83 f0 3d
       0.14687264 -0.21061993 -0.22782718 0.11743815
000080 12 02 d5 ba 65 2b a3 be 35 6e ea bd f1 97 6d be
       -0.0016251227 -0.31869045 -0.114468016 -0.23202492
000090 e3 fe bd 3e ff 1d 00 3e 83 0d 41 3e 8e 64 06 be
       0.37108526 0.12511443 0.1885281 -0.13124296
0000a0 2c cd aa be 6f 1e fb be 5c 21 04 bf ff 6c 4b 3e
       -0.3335966 -0.49046656 -0.516134 0.19865797
0000b0 05 72 fc 3d 0b e6 4a be ea f5 6d 3e f7 b9 9e bd
       0.12326435 -0.19814317 0.2323834 -0.07750314
0000c0 05 d1 1b 3f f0 31 95 bd ef 59 a7 be bb ad b7 ba
       0.60865813 -0.072849154 -0.326858 -0.0014013568
0000d0 db 82 24 be ca c2 47 be 73 c2 1a bd 89 f9 10 bf
       -0.16065542 -0.195079 -0.037783097 -0.5663076
0000e0 a6 f5 72 be 69 d1 4e bd 3d 6f 9b be bb e8 91 be
       -0.2372652 -0.050492678 -0.30358306 -0.28497872
0000f0 ca fa a7 be 6b eb 63 be 6e 51 0d bf 8a c2 33 bf
       -0.32808524 -0.22257774 -0.55202377 -0.7021872
000100 5f 20 7d bc 6a a5 84 3e a5 4c 2c 3e 90 3d ae 3d
       -0.015449612 0.2590745 0.16826113 0.08507836
000110 0a c1 5a 3d 7d b8 1e be 29 d0 48 bd 16 51 ef 3d
       0.053406753 -0.15500064 -0.049026642 0.11685388
000120 c4 a9 0c be c0 66 fa 3d 57 b2 74 be 6b 65 c3 3e
       -0.13736635 0.12226629 -0.23896156 0.38163313
000130 68 03 19 bd b3 c3 2c bf be 3a cb be 9e 73 00 be
       -0.037356764 -0.67486113 -0.39693254 -0.12544104
000140 7b 65 05 be 6d 10 8d 3d 8c c4 3f be 88 2a 7d 3e
       -0.13026993 0.068878986 -0.1872732 0.24723256
000150 32 2c 5b 3e 96 a2 1e be 4f 02 6a 3d 5d fd 13 be
       0.21403578 -0.15491709 0.057131108 -0.14452119
000160 12 45 66 bf 38 05 67 bb ba 91 f1 3d 47 1c bf 3e
       -0.8994914 -0.0035250913 0.11795373 0.3732626
000170 23 85 10 3f 3a 17 c2 bd ee 3e 85 be c4 33 1d 3e
       0.5645315 -0.09477086 -0.26024574 0.15351778
000180 6b 5b 89 be 67 d1 64 bf de 1a 88 3e 52 db e7 bd
       -0.2682756 -0.8938202 0.26582998 -0.11321129
000190 7c e4 9a 3e 57 40 4c be cf 65 78 be 1a 9f 76 be
       0.30252445 -0.19946419 -0.24257587 -0.2408413
0001a0 2c 29 b8 b9 a1 76 10 be 5e aa 23 3e b2 a8 31 3e
       -0.0003512589 -0.14107753 0.15982959 0.17349508
0001b0 1d c0 96 3e b5 0a 3e 3e f2 5f f6 be e4 2e 92 be
       0.29443446 0.18558772 -0.48120075 -0.285514
0001c0 5b f2 b2 bd 73 18 eb 3e 8d c7 16 3e 4d 1e 15 3e
       -0.08737632 0.4591709 0.1472456 0.1456234
0001d0 bc 23 59 3f 52 57 d2 be 64 47 3e 3f 35 52 e2 be
       0.8482015 -0.41082245 0.74327683 -0.44203344
0001e0 fd f6 8f 3e 48 8b a1 be 04 94 70 bd 15 e6 e0 3d
       0.28118125 -0.31551576 -0.05873491 0.10981385
0001f0 5c fb 29 bf 42 f7 86 be 06 f9 80 be b4 e2 b9 bd
       -0.6639917 -0.26360518 -0.2518999 -0.09076443
000200 0d c6 8d 3c 2d 49 a6 3e 63 53 25 be 89 17 4d 3e
       0.017306352 0.32477704 -0.16145091 0.20028509
000210 ec 96 0f be 4c 8a 90 be 66 cc 37 bd f7 ca 86 3e
       -0.14022416 -0.28230512 -0.044872664 0.26326725
000220 83 9f d1 be 86 7a ac bd c1 55 84 be 69 b8 9e 3e
       -0.4094201 -0.08421807 -0.25846675 0.3100007
000230 db bd 0a 3e a9 15 d4 be 82 e4 f6 be 09 e1 60 be
       0.13548987 -0.41422775 -0.48221213 -0.21960844
000240 e3 bf d1 bd 27 64 75 3c 63 82 b2 bc cd 25 2b 3f
       -0.102416776 0.014977491 -0.021790689 0.66854554
000250 1e 13 a7 3e 23 98 25 be ed 84 d3 bd 90 08 f1 bd
       0.32631773 -0.16171317 -0.10328088 -0.11769211
000260 b1 b5 e2 be f9 9c ed 3d d4 64 7b 3e 7b f6 18 3e
       -0.44279245 0.11602206 0.24550182 0.14937775
000270 22 c6 4e 3f 86 db 8c be c3 b2 3d be a7 d9 b4 3d
       0.80771077 -0.27511233 -0.18525223 0.088305764
000280 45 ac 20 be 91 ed 6f bf c3 ae 60 3e 92 4d 99 be
       -0.15690716 -0.9372187 0.21941666 -0.29941994
000290 d3 9a 42 3f 88 bf cf bd 94 0d a7 be 3d a7 74 3a
       0.76017493 -0.101439536 -0.32627547 0.0009332782
0002a0 41 61 84 3d a3 a3 f7 be 8c 04 21 3e 1e 94 aa 3c
       0.06463862 -0.48367032 0.15724391 0.02082258
0002b0 55 d1 68 3e 09 43 bf 3d 78 3a 20 be 1a 66 c9 bd
       0.22736104 0.09338958 -0.15647304 -0.098339275
0002c0 bb c7 94 be f7 d7 b8 3e 92 d4 8e 3b 74 53 94 3d
       -0.29058632 0.36102268 0.0043588364 0.0724248
0002d0 98 c9 b5 3e ea 45 d8 be 26 07 b6 3e 83 16 58 bf
       0.35505366 -0.4224084 0.3555233 -0.8440935
0002e0 1e e1 3c 3e 49 15 b1 be 96 f7 b8 3d 8a 26 32 bd
       0.1844525 -0.34586552 0.09031598 -0.043493785
0002f0 eb d4 8e bf b6 fa d2 3c c7 ad af be 56 3e 57 3d
       -1.1158727 0.025754314 -0.3431227 0.052549683
000300 2e 10 b2 bd 9b 97 22 bf 68 65 1a 3e e3 c6 eb bd
       -0.08694492 -0.6351258 0.15077746 -0.11512544
000310 71 bd 8b 3e d3 cf a0 3e 25 2a 30 be fa 09 54 be
       0.2729297 0.31408557 -0.17203577 -0.20706931
000320 9c 49 b1 3d 6f c7 09 3e d5 70 34 3e 9d 14 88 be
       0.08656618 0.13454984 0.17621167 -0.26578227
000330 2a 3e a3 be 57 9d 1c 3e 4d 65 e4 3e d6 7f e3 bd
       -0.31883365 0.15294395 0.44608536 -0.11108367
000340 16 25 ba 3e c4 8c d5 3e 1f 5b e7 bd a9 40 23 bf
       0.3635642 0.41708958 -0.11296677 -0.6377054
000350 78 5f 1b bf 6a 10 97 be 94 c1 bc 3e c2 00 27 3e
       -0.6069255 -0.2950471 0.36866438 0.16308883
000360 c0 4c 52 3e 57 dd 9c be d2 32 00 be 60 79 b8 be
       0.2053709 -0.3063762 -0.12519386 -0.36030102
000370 d5 93 e9 be 3f 8c 32 3d 4f 49 1b be 1c 13 d0 bd
       -0.456206 0.04359078 -0.15164684 -0.10159895
000380 0d 38 ba 3e dc ca 02 3f 7f b5 21 3e 87 df 73 3e
       0.36370888 0.5109079 0.15791892 0.23815738
000390 48 49 ed be 5a 74 3e 3e 36 4f 0d 3f ff 7b ce 3d
       -0.46344972 0.18599072 0.5519899 0.10082244
0003a0 29 a6 10 be 6e 3d b2 3e 87 de 63 be 6f 53 0f be
       -0.14125885 0.34812492 -0.22252856 -0.13996671
0003b0 e5 27 ee bc 55 87 4f be 0e 0d 01 3e 3b de bc 3e
       -0.029071758 -0.20266469 0.12602636 0.36888298
0003c0 45 95 40 3e 55 15 84 be 66 54 6a bc 96 45 8a bd
       0.18806942 -0.25797525 -0.014302349 -0.06751554
0003d0 a2 ea c7 be 0f 0f c8 3e 50 cd 2c be 35 01 b7 3e
       -0.39046198 0.3907399 -0.16875196 0.35743108
0003e0 b8 f7 a4 be a3 bc 0f 3f 2b 06 03 bf 8d 02 94 bd
       -0.32220244 0.5614721 -0.51181287 -0.07227049
0003f0 af 85 34 3f ee 5c d1 bb 58 a2 c3 3e fb a0 15 be
       0.70516485 -0.006389252 0.38209796 -0.1461219

critic.v_net.fcs.1.bias f4 [64]
000000 f5 87 c0 3c 5f 1a 92 3c 7f e0 a9 3d fc f9 9e bd
       0.02350233 0.01783484 0.08294772 -0.077625245
000010 1f 4f 25 be 00 0b 66 be 41 b8 98 bc 3d 7e d5 3d
       -0.16143464 -0.22465134 -0.018642547 0.10424469
000020 30 2b 8d 3e 91 20 21 be a1 13 dc 3d 4a bb be bd
       0.27572012 -0.1573508 0.107459314 -0.09313066
000030 6e bf e8 bd f6 8c 67 bd 73 5e ca 3d fe 8a 8d bd
       -0.11364637 -0.056530915 0.09881296 -0.06911276
000040 bd 76 3b be e7 45 d0 3d 8f bf 75 be b9 b9 70 3c
       -0.18307014 0.10169583 -0.23998855 0.014692717
000050 68 1a d3 3d e2 c2 86 be 62 ff ec bd 6c 5f d3 bd
       0.10307771 -0.2632056 -0.11572148 -0.10320935
000060 84 ce 0b be 10 5a d4 bd 5f 79 fe 3d 2a b6 06 3c
       -0.13652998 -0.103687406 0.124254934 0.008222142
000070 6b 96 a1 bd a0 5a 34 be 3b 75 3e 3d 95 2a 0a 3e
       -0.07890018 -0.17612696 0.04649852 0.13492806
000080 69 ba f3 3d 3b c8 05 bd 87 85 63 3e 9a 5d 38 3c
       0.11900789 -0.032661658 0.22218905 0.011252785
000090 5c b7 e5 bd f6 dc 3e be 70 18 9c 3a 30 11 c1 3d
       -0.11216614 -0.18638977 0.0011909138 0.094271064
0000a0 51 d9 0c be ae b1 ce 3c 55 8f 44 be 03 57 9c be
       -0.13754775 0.025231209 -0.19195302 -0.30535135
0000b0 68 a8 cc 3d df 4f 3b be 19 47 69 be a0 e6 d5 bd
       0.099930584 -0.18292187 -0.22781028 -0.10444379
0000c0 84 99 a0 bd 67 6a 07 3d 1b e7 9a 3d a6 92 70 be
       -0.07841781 0.033060458 0.07563611 -0.23493442
0000d0 45 60 0c be 4c 12 87 be 24 b5 ff bb 25 2d a3 3d
       -0.13708599 -0.26381147 -0.007803576 0.07967595
0000e0 38 08 00 bd 22 a5 0d 3d 7a 73 60 3e 55 38 d2 3c
       -0.031257838 0.03458131 0.21919051 0.025661627
0000f0 a5 5f 84 3e 45 07 31 be 34 75 cc bc da d8 36 3e
       0.2585422 -0.1728793 -0.02495823 0.1785616

critic.v_net.fcs.2.weight f4 [1, 64]
000000 ba 8d e8 bf 75 33 bd 3f d6 9c b5 3f 59 2d b6 bf
       -1.8168252 1.4781328 1.4188488 -1.4232589
000010 51 27 a5 bf 00 bb 95 bf b8 8d bf 3f 65 6a ca 3f
       -1.2902623 -1.1697693 1.4965124 1.5813719
000020 90 b2 a6 3f 1d 8c ab bf 82 ce b4 3f 3f 5d bc bf
       1.3023243 -1.3402134 1.4125521 -1.4715956
000030 f9 eb bd bf 33 50 c9 bf 07 d0 a1 3f cd 3d ab bf
       -1.4837638 -1.57276 1.264161 -1.3378235
000040 84 9e cb bf 17 b8 aa 3f 83 a6 a9 bf f6 83 a8 3f
       -1.590775 1.333743 -1.325394 1.3165271
000050 76 e3 c0 3f 8b 6a a0 bf 61 ea c0 bf a0 e2 bf 3f
       1.5069416 -1.2532514 -1.5071527 1.4991035
000060 7c 43 c0 bf 5b 05 cc bf 8f fd b7 3f ef d3 ca bf
       -1.5020595 -1.5939134 1.4374255 -1.5845927
000070 63 a6 c8 bf 3b 94 ba bf 33 f9 f9 3f f3 2c b3 3f
       -1.5675777 -1.4576486 1.9529175 1.3998092
000080 a8 70 b7 3f c2 85 9b bf 6a 57 cc 3f 95 88 cf bf
       1.4331255 -1.2150195 1.5964177 -1.6213557
000090 99 60 d1 bf a2 3f a8 bf e4 c2 c6 3f e2 01 c2 3f
       -1.6357604 -1.3144419 1.5528226 1.5156825
0000a0 58 61 cb bf 8d 19 c5 3f 21 ac c0 bf ab 38 b9 bf
       -1.5889082 1.5398422 -1.505253 -1.4470419
0000b0 26 e1 bc 3f da 7d cf bf d9 06 a2 bf 35 6b b1 bf
       1.475621 -1.6210282 -1.265834 -1.3860842
0000c0 99 af d0 bf e0 5a bc bf 11 07 e6 3f dc 69 af bf
       -1.6303588 -1.4715233 1.7970906 -1.3704181
0000d0 39 0f b9 bf fd 4c a3 bf 69 8b bb 3f bc 7f db 3f
       -1.445777 -1.275787 1.465192 1.7148356
0000e0 83 66 d1 3f b1 6a a5 3f 53 52 c3 3f 6a 65 bc bf
       1.6359409 1.2923185 1.5259498 -1.4718449
0000f0 ed 0e a8 3f 77 c4 a4 bf b9 ed c2 3f 88 9d b6 3f
       1.3129555 -1.2872456 1.5228797 1.4266825

exp_avg f4 [64, 8]
000000 82 ab 65 3c ac c5 63 bc 56 3d 04 38 99 77 4a bb
       0.014017941 -0.013902109 3.1528376e-05 -0.003089404
000010 57 fd 95 b8 46 17 26 bc 00 00 00 00 00 00 00 00
       -7.152062e-05 -0.010137385 0.0 0.0
000020 cb 02 78 bb f6 bb 86 3b 14 82 54 39 81 be d9 3a
       -0.0037843462 0.004111762 0.00020266353 0.0016612561
000030 52 68 82 39 d5 cd 90 3b 00 00 00 00 00 00 00 00
       0.00024873257 0.0044190683 0.0 0.0
000040 55 20 b1 bb 52 0a bf 3c 5a ca 3d ba d1 bc 58 3a
       -0.0054054656 0.02332035 -0.00072399306 0.0008267882
000050 16 00 94 3b 38 ba b5 3c 00 00 00 00 00 00 00 00
       0.004516612 0.022183523 0.0 0.0
000060 12 b8 ac 3b 8e ee aa ba 58 73 28 3a f1 02 78 bb
       0.0052709663 -0.0013041066 0.0006425879 -0.003784355
000070 bd 81 0c bb 44 8f d9 3a 00 00 00 00 00 00 00 00
       -0.0021439635 0.0016598483 0.0 0.0
000080 c4 1f 89 3b 5a 41 07 bc 49 f1 f0 39 b1 c9 2c bb
       0.004184695 -0.008255327 0.0004595614 -0.0026365335
000090 65 80 5b bb 72 94 cd bb 00 00 00 00 00 00 00 00
       -0.0033493277 -0.0062737996 0.0 0.0
0000a0 29 8c 6c bc 07 90 d1 3c 9d 2e 44 ba c6 1a d1 3b
       -0.014437714 0.025581373 -0.00074837526 0.0063813655
0000b0 0e c0 c5 3b 04 69 97 3c 00 00 00 00 00 00 00 00
       0.0060348576 0.018482693 0.0 0.0
0000c0 e4 d4 a9 3c ca b5 e5 bc 1c 21 22 3a 3f af f0 bb
       0.020731397 -0.028040785 0.0006184743 -0.0073451097
0000d0 7e 7a 86 bb 0b c1 b2 bc 00 00 00 00 00 00 00 00
       -0.0041039577 -0.021820566 0.0 0.0
0000e0 6a 0e 7d bb e9 06 26 3b fe e7 41 ba c7 18 6d 3b
       -0.0038613328 0.0025333709 -0.0007396935 0.0036178099
0000f0 f0 2f 83 3b b2 28 68 b8 00 00 00 00 00 00 00 00
       0.0040035173 -5.535101e-05 0.0 0.0
000100 54 9a f0 ba 86 a0 8d 3b b2 f3 f3 38 95 5a 8c 3a
       -0.001835654 0.0043221144 0.00011632535 0.0010708148
000110 34 a7 86 3a 51 48 8e 3b 00 00 00 00 00 00 00 00
       0.0010273219 0.004342117 0.0 0.0
000120 0a a6 9d 3c 53 ca 5d bc 6e 9c bb 3a 06 19 15 bc
       0.019244213 -0.013537007 0.0014313587 -0.009100204
000130 b3 07 9e bb 35 8b b2 bb 00 00 00 00 00 00 00 00
       -0.004822695 -0.0054487237 0.0 0.0
000140 d9 7a d8 ba 1b 33 5f 3b 64 7d 56 b9 51 3f 07 3b
       -0.0016516104 0.003405756 -0.00020455342 0.0020637105
000150 7b 52 05 3b a6 46 7b 3b 00 00 00 00 00 00 00 00
       0.0020343352 0.003834167 0.0 0.0
000160 19 e5 87 bc df 2b ad 3c d7 35 ab b9 41 fd c1 3b
       -0.016588734 0.021139083 -0.00032655775 0.005920083
000170 77 f9 45 3b ea 46 69 3c 00 00 00 00 00 00 00 00
       0.0030208507 0.014238099 0.0 0.0
000180 ed bf b5 3c 5e 64 11 bd 51 e0 04 3a b7 f7 09 bc
       0.022186244 -0.03549611 0.0005068826 -0.008420876
000190 ae 3e a6 bb ee 6e e3 bc 00 00 00 00 00 00 00 00
       -0.00507339 -0.027762856 0.0 0.0
0001a0 1e 00 2a bb 15 8f 12 3b 38 6a 07 b9 a5 01 b8 3a
       -0.0025940011 0.0022363116 -0.00012914173 0.0014038576
0001b0 50 83 57 3a 13 5a b4 3a 00 00 00 00 00 00 00 00
       0.0008221166 0.0013759754 0.0 0.0
0001c0 e8 ef f6 3b cf b7 c4 bc 31 21 4c 3a a7 b6 20 bb
       0.0075359233 -0.024013428 0.00077869283 -0.0024522932
0001d0 82 42 a2 bb 81 f4 ae bc 00 00 00 00 00 00 00 00
       -0.004951776 -0.021356823 0.0 0.0
0001e0 4d a4 65 3c 02 67 e3 bc 52 86 fe 39 28 ab d8 bb
       0.014016223 -0.027759079 0.00048546732 -0.0066122003
0001f0 4b ee eb bb a0 08 c7 bc 00 00 00 00 00 00 00 00
       -0.0072000376 -0.024296105 0.0 0.0
000200 59 f8 14 bd 0c 6f 5f 3d 3f 0e 0e bb 55 a6 59 3c
       -0.036369655 0.054549262 -0.0021675972 0.013284286
000210 88 74 2b 3c 69 a1 30 3d 00 00 00 00 00 00 00 00
       0.010464795 0.043122683 0.0 0.0
000220 e0 8d 00 3b 29 80 b5 bb 49 88 06 38 00 54 99 ba
       0.0019615814 -0.0055389595 3.2075015e-05 -0.0011698008
000230 ec f2 ee ba ee 45 a5 bb 00 00 00 00 00 00 00 00
       -0.0018230355 -0.0050437367 0.0 0.0
000240 cb 4e cd ba bd 35 b7 3a dd 8d 24 39 09 1b 33 3a
       -0.0015663741 0.0013977807 0.00015693107 0.00068323367
000250 88 4b 11 b9 26 cd a0 3a 00 00 00 00 00 00 00 00
       -0.00013856415 0.001226817 0.0 0.0
000260 37 40 10 bc c5 5e ad 3c 42 9d 66 ba 0f 68 78 3b
       -0.0088043725 0.021163354 -0.0008797237 0.003790382
000270 ec 5a d4 3b ea a7 7a 3c 00 00 00 00 00 00 00 00
       0.0064805653 0.015298823 0.0 0.0
000280 a6 e5 78 3b a7 d1 89 bb a4 f2 94 3a 2e b9 05 bb
       0.0037978678 -0.0042059007 0.0011363816 -0.0020404565
000290 06 74 65 bb 86 3e c9 38 00 00 00 00 00 00 00 00
       -0.0035011782 9.596073e-05 0.0 0.0
0002a0 ae 4f 95 ba 36 0b f7 3b a7 74 9d b8 95 09 51 3a
       -0.0011391544 0.0075391782 -7.5080716e-05 0.0007974145
0002b0 31 89 e2 3a 3b d8 06 3c 00 00 00 00 00 00 00 00
       0.0017283318 0.008230264 0.0 0.0
0002c0 5c a8 1b bc 06 bf ab 3c 76 5e 36 ba 4f 7e 57 3b
       -0.009500589 0.02096511 -0.0006956825 0.0032881682
0002d0 72 72 5b 3b 0e 0b 89 3c 00 00 00 00 00 00 00 00
       0.0033484963 0.016728904 0.0 0.0
0002e0 cd 4c 8e 3c 37 fe a4 bc 25 03 ae 39 0c ed cc bb
       0.017370606 -0.02014075 0.0003319021 -0.006253844
0002f0 73 e3 27 bb 8c 3d 5a bc 00 00 00 00 00 00 00 00
       -0.0025617748 -0.013320338 0.0 0.0
000300 9c c2 11 bb 6f 3b 29 3b 9a 30 eb b7 48 c6 90 3a
       -0.002224124 0.0025822779 -2.8036815e-05 0.001104542
000310 5f b3 00 3a 24 9d 01 3b 00 00 00 00 00 00 00 00
       0.0004909541 0.00197775 0.0 0.0
000320 e1 b9 6b bc 04 c0 c0 3c cc 8c 4f ba 22 9a fb 3b
       -0.014387579 0.02352906 -0.0007917404 0.007678286
000330 26 3d d0 3b 17 4d a6 3c 00 00 00 00 00 00 00 00
       0.0063549457 0.020300431 0.0 0.0
000340 b3 72 3e 3c a0 f9 b4 bc 2c f9 cd 3a 7d 6b c7 bb
       0.011624026 -0.022091687 0.0015714518 -0.0060858116
000350 66 4c 04 bc 74 92 5f bc 00 00 00 00 00 00 00 00
       -0.008074855 -0.013645757 0.0 0.0
000360 a2 79 89 bb bc 61 30 3c e0 d9 12 b7 12 88 b4 39
       -0.004195408 0.010765489 -8.753006e-06 0.00034433656
000370 01 6f d7 3a 92 d2 09 3c 00 00 00 00 00 00 00 00
       0.001643628 0.00841202 0.0 0.0
000380 0a c4 8c bc 7f f3 c8 3c b4 fe 84 ba c6 0f fc 3b
       -0.017183322 0.02453017 -0.0010146708 0.00769231
000390 6d c8 e0 3b e0 78 6d 3c 00 00 00 00 00 00 00 00
       0.00685983 0.014494151 0.0 0.0
0003a0 e0 37 e1 bb af cf a6 3b 0e 2e 96 ba f9 53 ca 3b
       -0.006873116 0.005090676 -0.0011457817 0.006174561
0003b0 5e 56 c9 3b 23 d2 47 39 00 00 00 00 00 00 00 00
       0.006144329 0.00019056401 0.0 0.0
0003c0 85 8c 26 3c 60 26 5f bc 16 49 35 3a 91 bd 85 bb
       0.010165338 -0.013619989 0.00069154927 -0.004081436
0003d0 21 4e 4a bb be 84 17 bc 00 00 00 00 00 00 00 00
       -0.0030869322 -0.009247957 0.0 0.0
0003e0 a6 ec 09 bd 13 3e 58 3d 29 ea 99 ba ed 0f 37 3c
       -0.03367295 0.052793574 -0.0011742759 0.011173231
0003f0 45 c7 30 3c c7 5f 18 3d 00 00 00 00 00 00 00 00
       0.010789697 0.037200715 0.0 0.0
