examples/rl/models/ppo/ppo_model_cartpole_stab.pt (torch, 153194 bytes, 30 tensors)

actor.pi_net.fcs.0.weight f4 [64, 8]
00000000: d483 843e 5596 81be 87ab ea3e 9676 473e
00000010: e390 8a3e 0dca 8abe aa01 73be a445 2c3e
00000020: 3b57 abbe db25 ab3e 30f3 8dbd a7a4 343d
00000030: 8df4 96be 59bf e63d 48ae 1b3e d9c1 653d
00000040: 6aee 8c3e ff88 f73d eba5 ecbe 06fb 973e
00000050: c156 c23d 40b6 2cbe 6347 a6be 5163 4e3e
00000060: f9ba aa3e ad88 8dbe e0a4 423e 5eac ea3d
00000070: 4099 15be fb6e 9ebd 78be 71be 0b29 2bbe
00000080: e51a a2be 09fb f8ba ab23 f13e ed2a 4f3e
00000090: c769 a93e 11fb 9ebe 0f2f 32bd f13e b03e
000000a0: 83be 333d 120e bbbd e69e 09bf 8fb7 1c3e
000000b0: 4425 8a3e 9927 913e bc8a 973e 00c2 8d3d
000000c0: 6ba0 853e e03c a1bd ff5a 093f 76c5 91bc
000000d0: 0823 b0bd 17f7 33be b7c2 403e 967b 123e
000000e0: abc8 743e 42f3 5ebe 4dba c3be 6b2d ab3e
000000f0: 7e23 42be 247a 4ebe 0dbc c1bd 5807 eabd
00000100: 3e79 0fbe 2fe6 893e 001d 043e be51 283e
00000110: 08ff 9e3e 9e99 6abe 0330 8a3e 5c5d 35be
00000120: 6010 55bd 18bd 9a3e 8da3 273f 4708 c73e
00000130: 0df9 373e 4c40 a83e cb71 02be bf58 b8bc
00000140: 2a56 e5bd 6d3e 4a3a fbef 63be dff8 2a3e
00000150: 5aba 873e ba5a 82be e5ea 47be 6cb1 debd
00000160: f0d0 6e3c d972 34be 4f8d cdbe a653 76bd
00000170: 0d26 2cbe 947a 1f3c 5100 86be c401 b5bd
00000180: bd83 e4bd 92c1 b23c 2e41 0d3f 953a 6f3e
00000190: dcb6 00be 70f6 a5be 197b 81be 08e0 8abe
000001a0: 64e7 e3bc 25f5 23be 7e53 b3be 5727 a83d
000001b0: 8f46 703d 5f1a 59bd 513d 03be 1f49 9a3e
000001c0: 3524 91be 2549 363c 609c c63e df6d 8a3e
000001d0: 8cc1 90be 7ec4 62bd 9af7 963e da62 6e3d
000001e0: dc72 eb3d c0e2 18be 903d e03e 1aab 06be
000001f0: 2cbd 3fbe 2b32 a43e 92cf bf3d d9f3 1fbb
00000200: e7d3 82be d014 c3bd c2c3 0abf 3813 95be
00000210: 06c5 b8bc 28fb 8b3d 9852 94be f6ee af3e
00000220: 97d9 573e eb7b 91be f788 333d d023 6fbe
00000230: 8408 82be ac96 a93e 6995 11be 3b31 f0bd
00000240: 62d8 623d ce37 443e 967e 1cbe b931 cbbd
00000250: d31d 673d 4493 3bbe 09ac 83be 9188 bc3d
00000260: b580 b43c a1bc 0f3e f6d0 bfbe b821 bcbe
00000270: b066 cebd 0528 afbe ca08 e4bc 46db 303e
00000280: abde fb3a 802a 583e 021e 9d3e 81e6 433e
00000290: 17a8 883e 267a 573d d4fd 703d dce5 12be
000002a0: e068 393e 1ca5 953e 7878 d0be babf a03e
000002b0: 8980 b93d 2519 4abd 18ac a5be 2be7 b4be
000002c0: 5444 9ebe f81b b9be 43bb d2be 945f a3bd
000002d0: 22ad 8dbe 7254 97be 7a2c 21bd cc4c 98be
000002e0: f8fe dbbc f7b2 e53d 590a 933e 9d55 583e
000002f0: 0f44 213e fd10 4bbe 27dd f3bd 84aa 043c
00000300: e4f2 823e 0139 ec3d b24c a4be ab04 09bc
00000310: 3fdd 8c3d 777b fb3d 6487 06be 26db 9ebe
00000320: c048 63be f6d5 443c 853d e9be 319e b83d
00000330: 1b55 723e 2c0c 7dbb c3ee 3d3e 7c9b 7d3e
00000340: 907c 673e 85d7 a3be c63d 073f 28b0 ba3d
00000350: 37e9 adbe a82d b43d 0a4d 79be 2a8e a73e
00000360: f197 593e dfb5 6bbe 771f a2be 6a88 fd3c
00000370: 3c8d 02be cc04 1b3e cfa1 a8be 0235 863e
00000380: 6d46 973b fa26 c6bc 8796 07bf 5a7f b6bc
00000390: be81 6b3e a75a b03e 9c7b 6abe bdbf 17be
000003a0: 8a55 893d eb46 433e 30f5 03bf 1d1a 11be
000003b0: d310 8dbe 4a57 a63e fb17 f7bd a5bf 593e
000003c0: 8e62 5a3e 8f2e c03d 8f48 cc3e 0e89 8d3e
000003d0: 9df8 27bd 2e88 3e3e d6b3 40bd 1948 b63b
000003e0: aa91 b13d e8f7 b8be a94f f3be 2cd4 afbe
000003f0: 4101 e4bd 0328 b6bc 2684 103e bfdf 90be
0.25881827 -0.25310007 0.4583399 0.1947883 0.27063665 -0.27107278 -0.23731104 0.16823441
-0.3346499 0.3342732 -0.0693115 0.044102337 -0.29483452 0.112669654 0.15203202 0.05609307
0.27525645 0.12086677 -0.46220335 0.29683703 0.09489203 -0.16866398 -0.3247634 0.20155074
0.33345774 -0.27643338 0.19008207 0.11458658 -0.14609241 -0.077360116 -0.23607814 -0.16714875
-0.31661144 -0.0018995713 0.47097525 0.20231219 0.33088514 -0.31050923 -0.04350191 0.3442302
0.043882858 -0.09133543 -0.53758085 0.15304397 0.26981556 0.28350523 0.29598033 0.06921768
0.26098952 -0.07872939 0.53654474 -0.017794352 -0.08600432 -0.17574726 0.18824278 0.14304957
0.23904674 -0.21772483 -0.38228074 0.3343309 -0.18958852 -0.2016378 -0.09459696 -0.11427182
-0.14011094 0.2693343 0.12901688 0.16437432 0.31053948 -0.22910163 0.26989755 -0.17711395
-0.05201757 0.30222392 0.65483934 0.38873503 0.17966099 0.32861555 -0.12738721 -0.022503255
-0.11198075 0.00077149906 -0.22259514 0.166965 0.26509362 -0.25459844 -0.19523199 -0.10873684
0.014576182 -0.17621936 -0.40146872 -0.060138367 -0.1681139 0.009733815 -0.26172116 -0.088382274
-0.111579396 0.021820817 0.5517758 0.23362191 -0.12569755 -0.3241458 -0.2528923 -0.27124047
-0.027820297 -0.16011484 -0.35024637 0.082106285 0.05866104 -0.053003665 -0.12816359 0.30133912
-0.28347936 0.011125837 0.3879118 0.2703695 -0.28272665 -0.05536317 0.2948578 0.05819974
0.11496517 -0.14930248 0.43796968 -0.13151208 -0.18724507 0.32069525 0.09365763 -0.002440682
-0.25552294 -0.09525454 -0.5420495 -0.29116225 -0.022554886 0.06835014 -0.28969264 0.34362
0.21079098 -0.28414854 0.04383179 -0.23353505 -0.25397122 0.33122766 -0.14217152 -0.1172814
0.05538214 0.19161913 -0.15282664 -0.09921593 0.056424927 -0.18317896 -0.2571719 0.092057355
0.022034029 0.140368 -0.37464112 -0.36744475 -0.1007818 -0.3421022 -0.027836222 0.17271146
0.001921614 0.21109962 0.30686957 0.19130899 0.26690742 0.052606724 0.05883582 -0.14345497
0.18106413 0.2922753 -0.4071691 0.31396276 0.09057719 -0.049340386 -0.3235786 -0.35332617
-0.30911505 -0.3615415 -0.41158494 -0.079772145 -0.27671152 -0.29556614 -0.039349057 -0.2974609
-0.026854977 0.112157755 0.28718832 0.21126409 0.15748619 -0.198307 -0.11907416 0.008097295
0.25575936 0.1153431 -0.32089764 -0.008362929 0.06878137 0.122794084 -0.13137585 -0.31026572
-0.2219572 0.012013903 -0.45554748 0.090145476 0.23665278 -0.0038611991 0.18548112 0.24766344
0.2260611 -0.32000366 0.52828634 0.091156304 -0.3396699 0.08797771 -0.24345794 0.3272565
0.21249367 -0.23018597 -0.3166463 0.030948836 -0.12749189 0.15138549 -0.3293595 0.26212317
0.0046165497 -0.024188507 -0.5296406 -0.022277523 0.22998711 0.34444162 -0.22898716 -0.14819236
0.067057684 0.19070022 -0.51546 -0.14170118 -0.27551898 0.3248847 -0.12065121 0.21264513
0.21326658 0.0938388 0.39899108 0.27643627 -0.04100858 0.18606636 -0.047046505 0.005562794
0.08670361 -0.36126637 -0.47521713 -0.34341562 -0.11133052 -0.022235876 0.1411291 -0.28295705

actor.pi_net.fcs.0.bias f4 [64]
00000000: 5afe 2a3e 94cf b03d c450 713e 20ce 66be
00000010: 4561 3ebc a1a4 fdbd 93b7 d03d 2003 58be
00000020: ccd5 5cbe eb02 adba a9be 18be eea4 313e
00000030: 0c26 533e b16a 0cbe 777d 99bd 9c37 dfbc
00000040: 711c 0abe 732e 3e3d 33d3 84be ac35 6f3e
00000050: 0bf4 5a3e c4d2 ce3d f2e1 b03e 18b9 873c
00000060: 5880 44be 8029 35be 2685 b0bc 6873 973e
00000070: b143 3b3d 08ed 0e3e 9071 0bbe 4419 333e
00000080: 047d a63e c8cd 65be 4c4f 8fbe cbdc 1bbe
00000090: 6a98 19be 8bd5 59be 6b92 b53d 6cf6 44be
000000a0: f358 873e e7f0 0fbd 1f1b 33bd 2f05 5e3e
000000b0: c23f 09be 0a24 4dbe ef3f a83c 3531 463e
000000c0: 3684 3abe 3e3d 82be e5b5 8fbe 805d 50be
000000d0: 8c4c 483e d32f 68bd a9d8 ee3d 9f72 fabd
000000e0: 7fbd 783e dfa1 083e 584b 423e 9819 403d
000000f0: 7fb9 fa3d fa42 523e 7fc3 6ebe 26c5 933e
0.1669859 0.086333424 0.23565966 -0.22539568 -0.011619871 -0.12384916 0.10191264 -0.21094942
-0.21565932 -0.0013199722 -0.14916481 0.17348072 0.20619982 -0.13712575 -0.07494634 -0.027248196
-0.13487412 0.046431016 -0.25942382 0.23360318 0.21382158 0.10098794 0.34547383 0.016567752
-0.19189584 -0.17691612 -0.021547865 0.29580235 0.045718852 0.13957608 -0.1361754 0.17490107
0.32517254 -0.2244178 -0.27990186 -0.15220945 -0.14999548 -0.21272866 0.08865818 -0.19234627
0.2643505 -0.03514185 -0.043727037 0.21681665 -0.13403228 -0.20033279 0.020538298 0.19354708
-0.18214497 -0.2543735 -0.28068462 -0.20348167 0.1956045 -0.056686234 0.116624184 -0.122288935
0.24291037 0.13342999 0.18974054 0.046899408 0.12242412 0.20533362 -0.23316763 0.2886135

actor.pi_net.fcs.1.weight f4 [64, 64]
00000000: 32c8 c53c f337 1e3c 3de7 f5bd f19c 813d
00000010: 3587 c93b 35d5 923d 12e0 8bbc d7a9 efbd
00000020: 611b 91bd be9d 003e 1a9c f9bd b32a 19be
00000030: 0b86 063e 7417 423d 6adf e13c 7861 053e
00000040: 50ba 22be 1551 673d e5ab 253b bdb5 60bd
00000050: bc2e 9d3d e27c f6bd 4b07 8c3d 8b58 82bd
00000060: 6596 c93d 25ed 8bbd fccf 97bd 3844 95bd
00000070: 2998 923c dbc1 0abb ada6 ed3d a3f7 dd3b
00000080: 68eb 6fbd 2a21 bbbd f311 2dbd cd4d bfbd
00000090: f412 a3bd 19c2 87bd 4e04 f4bd 29d1 afbc
000000a0: a269 cebd eb82 a7bb d4eb 8f3d 8c2f 0fbc
000000b0: 7604 c4bd f134 bdbd f4de 963d b6c5 b1bc
000000c0: 856c bc3d e6d1 2c3d 7125 b43d a07b b93d
000000d0: 53c1 cbbc 2600 e93c a81e 203e 94bc e8bd
000000e0: 21ec 0b3d ead6 19be e3c4 a6bc 6f7e 51bd
000000f0: 332f 3a3d 42f4 0dbe 4b13 913d d6db 05be
00000100: ffb6 78bd 0e3e 12bd 2ec4 cbbb cb70 53bd
00000110: 71d0 ccbd 5f62 d03d c4e7 38be 17fd b93d
00000120: 23b1 bbbd 2682 40be d2e4 d838 8ff6 bc3d
00000130: ba52 0fbe bf6b 3cbd 539f 01be ebd7 0fbc
00000140: 4f46 093e 9974 8e3d 1dcb e53d 1b26 aa3d
00000150: d206 97bd 813d 7e3d 522a e13d 75c1 da3b
00000160: 9a20 78bd bbb6 193e 9f79 8cbd b320 e93b
00000170: a02d fb3d 225d 5abd 4f39 0cbe 7394 913d
00000180: 1b20 c4bd 7056 abbd 7564 d43d ec89 853d
00000190: b523 023e 5e07 693d f37d cd3d ee52 9dbb
000001a0: 75bb f2bc abd5 dbbd 5555 2a3d 29f5 1b3d
000001b0: a763 393c 7c30 ad3d 361d d2bd 0e2a 5fbd
000001c0: 4c55 833d 3ba1 fdbc c0f1 1bbd 5e58 86bd
000001d0: 30a2 1c3d 0259 cbbd 46df 4ebd e6a8 9abd
000001e0: 0a6b 773d f5f7 1abd 5883 87bd e97e 9bbd
000001f0: af8f a5bd 93c4 4f3b 7288 9abd 20fa 7c3b
00000200: a5b2 91bd 05cf 863d aafb b5bd 4aac 4dbd
00000210: 274b 4a3d 020b 223d 998a 3a3d fa31 14bc
00000220: 90fd 4b3c 1780 20be fa68 84ba c7e3 4bbd
00000230: bda6 0cbe acfa b9bd 4a4d dfbd fdc4 c0bc
00000240: 890c b53d 6148 dbbd e57b 4cbd 82db f7bc
00000250: e07f 933d 0395 80bd 369d 623d d51f 82bd
00000260: 45c7 223e ba6f 063e 7f15 1e3d 15d5 143d
00000270: b0e9 a4bd b422 c83d 1e9b bf3d e58e 1bbb
00000280: 7ed2 8c3c 060d 6cbd fe70 35bd 212b abbd
00000290: 2dc5 98bd ce26 b3bd 880b e93b f83e 7bbd
000002a0: 23f6 643d 6be9 b33d 0ec4 bdbd 5046 ed3c
000002b0: 6a78 aebc 8110 083e 2a89 69bd e25f 2abc
000002c0: e39a ce3d 5f03 003e 88c2 e7bd d167 d6bd
000002d0: 7081 47bd 3e3f 2b3d 8869 cebd 3538 b53d
000002e0: 2ea6 b13d c322 b1bc 75e2 903d 0ce3 35bc
000002f0: 5994 3c3d 3b3a 053e eb40 4e3d 3280 e03d
00000300: db54 d5bd c34d f83d 0812 ffbc 8b99 b83d
00000310: 317c 973d d018 013e 7680 edbd 5550 d2bd
00000320: b78a 16bc 8e9f 7bbd adcd 81bc 659c 1abd
00000330: 71d1 e63d 6e0a c3bd 0379 d5ba 334c 04bd
00000340: f1ca debd 247a 1abe 78ee a43b df54 8cbd
00000350: e690 bebc ecee b2bc 834e 2a3d 98cb 5e3d
00000360: 6ce6 b73d c9fb 81bd 25a1 b03d 1137 e6bd
00000370: 0e37 8fbd c135 81bc c9ec d33c ef37 debb
00000380: ef92 97bd 57cf 393c 3970 323d 12fa 113e
00000390: 0120 72bd 9865 8d3d b173 95bd fa7a 143d
000003a0: ba3a a9bd b72a 8dbd 5e14 a73d 3fa4 763d
000003b0: 1a54 603c aad3 e6bc 79fb 95bc 268a 3d3d
000003c0: 453b aa3d 92f9 6cbc 79b4 573b a985 59bd
000003d0: 9f95 ecbc 48d6 61bd d5ea 293d 2627 15bd
000003e0: 4960 f23d a9dc 35bc 6128 96bd 94f0 8c3d
000003f0: 9d33 f9bc 868c b5bd c820 313d ed59 5ebd
0.024143312 0.009656894 -0.12006996 0.06328762 0.006150151 0.07169572 -0.017074618 -0.11702316
-0.070853 0.12560174 -0.12187977 -0.14957695 0.13137071 0.047385648 0.027572352 0.13025463
-0.15891385 0.05647381 0.002527946 -0.05486082 0.076749295 -0.12035538 0.068373285 -0.063645445
0.098431386 -0.06832341 -0.07412717 -0.07288402 0.017894821 -0.0021172676 0.116040565 0.0067739054
-0.05857411 -0.09137185 -0.042253446 -0.09341011 -0.079625994 -0.06628818 -0.119148836 -0.02146204
-0.100787416 -0.005112042 0.070274025 -0.008739363 -0.09571163 -0.092386134 0.07366744 -0.021700721
0.09200386 0.042192362 0.08796204 0.09056783 -0.024872458 0.028442454 0.15636694 -0.113640934
0.034160737 -0.1502339 -0.020357555 -0.051145967 0.04545517 -0.13862708 0.07083758 -0.13072142
-0.060721394 -0.03570371 -0.006218455 -0.05162124 -0.100006945 0.10175013 -0.18057162 0.09081476
-0.091646455 -0.18799648 0.00010342304 0.09226715 -0.13996401 -0.046001192 -0.12658434 -0.008779506
0.13405727 0.06955833 0.112203814 0.08308049 -0.07374348 0.062070373 0.109944 0.006675894
-0.060577966 0.15011112 -0.06859135 0.0071144938 0.12264562 -0.053311475 -0.13693736 0.071083926
-0.09576436 -0.08366096 0.10370723 0.06520447 0.12708934 0.05689179 0.100337885 -0.0048011458
-0.029630402 -0.10734113 0.041585285 0.0380756 0.011315263 0.08456513 -0.10259478 -0.054483466
0.064127535 -0.03096067 -0.038072348 -0.065598235 0.03824061 -0.09929086 -0.0505059 -0.07551746
0.060404815 -0.037834127 -0.06616849 -0.075925656 -0.08084046 0.003170286 -0.07545556 0.0038601235
-0.07114152 0.065824546 -0.08885892 -0.050213136 0.049388077 0.03956128 0.045542333 -0.0090451185
0.012450591 -0.15673862 -0.0010102086 -0.049777772 -0.1373548 -0.09081015 -0.109034136 -0.023531431
0.088402815 -0.107071646 -0.049922843 -0.030256037 0.072021246 -0.06278422 0.05532571 -0.06353728
0.15896328 0.13128558 0.03859472 0.036336023 -0.08052385 0.09772244 0.09355758 -0.0023736295
0.017190214 -0.057629608 -0.04429721 -0.083578356 -0.07459483 -0.08747636 0.0071119703 -0.06133935
0.055898797 0.08784755 -0.0926591 0.028964192 -0.021297652 0.13287546 -0.057015575 -0.010398837
0.10088136 0.12501286 -0.11316401 -0.1046902 -0.048707426 0.04180836 -0.10078722 0.08848611
0.086742744 -0.021623021 0.07074443 -0.0111014955 0.046039913 0.13010494 0.05035488 0.10961951
-0.104165755 0.12124207 -0.031136528 0.09013661 0.073967345 0.12607121 -0.115967676 -0.10269228
-0.009188346 -0.06143146 -0.015845144 -0.037746806 0.112704165 -0.09523474 -0.0016286675 -0.03229923
-0.10878552 -0.15085655 0.0050333105 -0.068521254 -0.023262452 -0.021842442 0.04157878 0.05439338
0.08979496 -0.06346852 0.08624486 -0.11240972 -0.06992923 -0.015772702 0.025869744 -0.00678157
-0.07401072 0.011340938 0.043564055 0.1425555 -0.059112553 0.06904143 -0.07297457 0.036250092
-0.08263154 -0.06892913 0.081581816 0.06021523 0.013691926 -0.028177101 -0.018308388 0.046274327
0.08312086 -0.014463799 0.0032913967 -0.053105984 -0.028879939 -0.055135995 0.04148372 -0.036414288
0.11834771 -0.011099973 -0.073319204 0.06881824 -0.030420119 -0.08864693 0.043244153 -0.05428498

actor.pi_net.fcs.1.bias f4 [64]
00000000: 2044 90bd 10aa cc3c e593 a0bd 0ad1 b53d
00000010: 06cd 3dbd 9a9f 98bd 435c 95bc 6d41 bb3d
00000020: 5077 b73c 8933 e9bd 7005 3e3d 636f 4f3d
00000030: ba18 91bc 54ac babd 6694 47bd 8eec 9c3d
00000040: 51ea bf3d a9ee 183c b24a ffbd a65a 073d
00000050: c025 d33d 8c7e dbbd 49f4 633d dc4c a13d
00000060: 5a14 e43d 9c89 6dbc b10f 54bd 2c96 d7bd
00000070: ff92 85bc 27c8 f1bc 16fc 2ebd c3d3 23bc
00000080: 5003 b2bd 8564 94bd 9b4a 82bd 26fd e13d
00000090: b1ec 29bd 09b3 10bd 5484 a73b 06f6 193d
000000a0: 2c6f cebd c12a ab3d 81f5 9a3d 71e1 243d
000000b0: 0922 a13d 0adf 713c 8aa1 6ebd 89d6 bb3d
000000c0: 2f9d febd 2c3e 63bd d1cd d63d 452f f83d
000000d0: 1915 00bd f09e e43d cce9 c7bd fff4 aebd
000000e0: 21cd 423d d591 c53b 40c4 98bd 7a34 c23c
000000f0: 47b8 c23b a27c 663d 7821 193c a832 a3bd
-0.07044244 0.024983436 -0.07840709 0.08877762 -0.046338104 -0.074523166 -0.01823247 0.09143338
0.02239576 -0.11386783 0.046391904 0.050643336 -0.017711986 -0.091149 -0.04872551 0.07662307
0.09370864 0.009334245 -0.12465419 0.033045433 0.103099346 -0.10717496 0.05565289 0.07875988
0.11136694 -0.014498141 -0.051772777 -0.1052669 -0.016305445 -0.029514385 -0.042720877 -0.009999218
-0.08692038 -0.07245735 -0.06361886 0.11034612 -0.041485492 -0.03532699 0.0051122103 0.03758814
-0.10079798 0.08357764 0.075663574 0.04025406 0.0786782 0.014762649 -0.058259524 0.09171779
-0.12432324 -0.055479214 0.10488475 0.12118391 -0.03127012 0.111631274 -0.0976139 -0.08542823
0.047558907 0.0060293474 -0.07459307 0.023706663 0.0059423777 0.056271203 0.0093463585 -0.07968646

actor.pi_net.fcs.2.weight f4 [1, 64]
00000000: da91 513d 3322 f2bd d471 4aba 7380 173a
00000010: 74d1 ea3d 75e8 e6ba 7e95 8bbb 1c5a 943a
00000020: de5e cfbd 0bb6 8abd 062c c83d cdc7 44bd
00000030: ff52 a1bd d2cf 7fb9 8d6c d2bc d917 e93d
00000040: 0846 7f3a b725 c53d 66d9 af3d a096 f0ba
00000050: 5a84 9a3d 4df8 8ebd 3972 63bd facd c0bc
00000060: 4347 af3d 55f6 a5bd b740 6f3d 4e92 c03d
00000070: 018e bd3c b54f 12be a724 86bd b372 e33d
00000080: 1a77 21be b81d 05be c092 15be 4f50 81bd
00000090: 47f3 00bd d6cd bc3d 0141 d13d ff43 053e
000000a0: 6683 8bbd 1249 90bc 5b00 8e3c e77a 7aba
000000b0: c4f9 bdbd 4405 b63d 5e39 74bd 7f28 edbd
000000c0: 95e9 873d 07d1 073e 3d10 1abd 4935 e23d
000000d0: 9602 013d 66ad 3dbd a61b 77bd 30b6 67bd
000000e0: f36d 943d 8ae6 893d c5a5 16bd 9010 0a3d
000000f0: a347 b63d 1461 d2bc 6b21 aa3d 625d f93d
0.051164486 -0.11822929 -0.000772265 0.00057793333 0.11465731 -0.0017616885 -0.004259764 0.0011318359
-0.10125516 -0.06773003 0.09774022 -0.048042107 -0.078771584 -0.00024396114 -0.025686527 0.11381502
0.00097379135 0.09626334 0.08586387 -0.0018355437 0.07544775 -0.06980953 -0.055528853 -0.023535717
0.08558514 -0.08103625 0.058411326 0.094029054 0.023139002 -0.14288218 -0.0654996 0.111058615
-0.1576809 -0.12999618 -0.14606762 -0.06314146 -0.031482007 0.092189476 0.10217477 0.1301422
-0.06812172 -0.017612968 0.017334154 -0.0009555057 -0.09276155 0.08887723 -0.059625022 -0.1157999
0.06636349 0.13263331 -0.037613142 0.110453196 0.031496607 -0.046307944 -0.060329102 -0.056570232
0.07247534 0.06733425 -0.036779184 0.0337072 0.08900382 -0.025681056 0.08307155 0.121760145

critic.v_net.fcs.0.weight f4 [64, 8]
00000000: e77d 2a3f 21d8 533f 69ef 8b3e fcf4 d4bd
00000010: ec05 623e ad6c 043e db79 993e 457a 4bbe
00000020: ca11 163e 02b1 c8be 956a 1fbe 7b68 dbbe
00000030: c708 593d 4f57 2abe a820 93be 49cb 8a3e
00000040: 56ee 89bf 6c5c 99be b44f b73f 6188 d23e
00000050: 8c26 b6be 0bed 423e 29f4 afbd 8074 5a3d
00000060: ba13 afbe cf0d d7bd 6ebf c4bf 3ed8 5ebe
00000070: c347 aa3e e28f 663e 7153 7c3d df6f 75be
00000080: b73a bfbe f731 5d3e cb70 343f f6ae bd3e
00000090: 9066 23be 5ce0 2b3e 6573 97be 2ca3 923e
000000a0: 60a1 b7bd 02a5 d33e 30fb 203f a16d c53e
000000b0: e348 52be 80a9 9f3e da60 4c3e cce8 1f3d
000000c0: 1bc3 8f3f 61d4 9b3e 3df6 813b d439 fe3e
000000d0: 1b41 3f3e 7ffa fc3b bc39 a2be adf9 78bd
000000e0: fc52 bcbe c8d6 c4be f255 e7bf c4a4 9abe
000000f0: 973b ee3e d492 19be d0e7 edbb c1d0 823e
00000100: 1b58 963e 6fef d8be 407e f23f 0e98 103f
00000110: 643d 06bf dab0 c0bd c1ab b03e 2f6c 773e
00000120: 95c4 e1be 63c2 94be 6a8f 44bf 419e 9ebe
00000130: d06f a63e ddf6 a1bd 34eb 74be 07d0 343e
00000140: 4f3c 0c3f a9ad 00bf a510 2d3f 0494 9d3e
00000150: 8405 1cbf c762 f33d df4c aabe 61fc 27bd
00000160: 390c a3be 1556 c33e 67ae afbf 7f55 323d
00000170: a10c 9ebb 6b55 173e 5b7a 0ebe 0012 76be
00000180: 9d07 2b3e 7ac0 b7be 2f57 c5bf afe1 3fbe
00000190: 9902 5e3e 68db 8b3e 1cba 2dbe abdc 963d
000001a0: de50 eb3e c68c 073f d17c 863f dd0e 973e
000001b0: a7f9 b2be 999e a1be 0a86 0b3d 68de 87bd
000001c0: a5ae d93e 1c56 633e ed36 a33f d78d c43d
000001d0: 0e0c e7bd 76a7 42be 7199 8d3e 3377 4dbc
000001e0: d9e9 373f 9d21 30be 3906 c33d 47c8 7dbe
000001f0: e2da 1c3e f75a 58bb f9a0 8c3d 29e0 ad3e
00000200: c7cc 18be 2566 00bd 309a de3f f03a 9d3e
00000210: 8010 ac3e ca7a 943d 9afe 073e d554 8fbb
00000220: 5bf1 dd3d e801 453e 3967 903f 48ec e23d
00000230: 650d e7bd bca0 6ebe f641 b9bd 5ffd d1bd
00000240: f673 0b3f cce5 52bb 3018 483f e893 223e
00000250: 9b62 0cbe 7c6b 993e 5b7e a53e 6c19 1ebd
00000260: 8af0 03be 4506 fabe bf7b 96bf 475d c8be
00000270: 0068 34be cd66 493e f456 90be f5cf 823c
00000280: a4e5 4dbe 8692 16bf 4e40 a5bf bcf8 abbe
00000290: ebab 4fbe 44f5 0f3e d990 39be c1e0 af3e
000002a0: 2ba3 9e3e b4ce 22be e922 d3bf 5153 f4be
000002b0: c545 bcbe 7f64 8c3e 5272 febb f6f9 203d
000002c0: 445b f1bd 0117 a4bb 8c34 f43f 2e6d 0d3f
000002d0: 13d1 f33e 9244 f8bd 51db 1d3e 01fd 47bc
000002e0: d8dc 2d3f 7ead 903e 0f7c fe3e 9787 323d
000002f0: 9c52 793e 3dd3 a3be 43bb 3bbe eee3 013e
00000300: 33c2 013f 608f dc3e b218 8dbd 7e13 8d3e
00000310: 232f babe 58b6 9fbe 5fe4 683d a79d d0bc
00000320: 685b 293f b8e3 39be 2ca9 93be 5fd4 33be
00000330: 9e77 fcbd 2756 a4be 57ed 953e a041 033e
00000340: 1a8b b2be afee 39be 811d c5bf b4ec 91be
00000350: 5848 0a3f fa34 403e c5c2 93be 8502 203d
00000360: 1128 b6bd 4e73 fd3d d8f6 ec3f 7379 643e
00000370: 273e 433d 1e79 963e 5dd0 1a3d 209e 403e
00000380: 55df dfbe e6f6 c5be e23f 92bf 070e d1be
00000390: 1bc7 db3d 62f6 31be f83b a9be 26f6 663b
000003a0: dc24 073f b65d 093f 79a5 ea3f 807c d43e
000003b0: 5bbe fbbe d222 b43e 48ae 2ebe d284 a4be
000003c0: 4fb2 173f 5a5e 453e 1b97 b53d a362 b0be
000003d0: b43d abbd 7704 f43d 5df4 813e 014b 4dba
000003e0: 5510 cebe ae49 e2be ec2e bfbf f5e0 1abf
000003f0: c33b a93e 6cdd 85be 9881 cf3d 260c 793d
0.6659836 0.8275166 0.27331093 -0.103982896 0.22072572 0.12932082 0.2997578 -0.19870861
0.14655223 -0.39197546 -0.15568002 -0.4285315 0.052986886 -0.16634868 -0.28735852 0.2710822
-1.0775859 -0.29953325 1.4321198 0.41119674 -0.35576284 0.19035737 -0.08591492 0.05333376
-0.34194738 -0.10500681 -1.537092 -0.21762177 0.33257875 0.22515824 0.061603013 -0.23968457
-0.37349483 0.21601091 0.7048461 0.37047547 -0.15957093 0.16784805 -0.29580227 0.28640115
-0.08966327 0.41336828 0.6288328 0.38560203 -0.20535617 0.31184006 0.19958821 0.03904037
1.1231416 0.3043547 0.0039661215 0.49653494 0.1867718 0.007720291 -0.31684673 -0.060784984
-0.36782062 -0.38445115 -1.8073103 -0.3020383 0.46529838 -0.14997417 -0.0072603 0.25549892
0.29364094 -0.42370173 1.8944778 0.5648202 -0.52437425 -0.09408732 0.34506038 0.24162363
-0.44095293 -0.29054555 -0.7678133 -0.30980113 0.3250718 -0.079084136 -0.23917848 0.17657481
0.54779524 -0.50264984 0.6760352 0.3077699 -0.60945916 0.11884075 -0.33261773 -0.04101217
-0.31845263 0.38151613 -1.3725098 0.043538567 -0.004823283 0.14778678 -0.13913862 -0.24030304
0.16702123 -0.35889035 -1.5417231 -0.18738435 0.21680678 0.2731583 -0.16965526 0.07366308
0.45960134 0.5294918 1.0506841 0.29503527 -0.34956095 -0.31566313 0.034063376 -0.066342175
0.42516056 0.22200817 1.2751137 0.09597366 -0.11281596 -0.19009194 0.2765613 -0.012540626
0.718412 -0.17200322 0.09522671 -0.24783431 0.15317872 -0.0033013204 0.068666406 0.33960083
-0.14921866 -0.031347413 1.7390804 0.30709028 0.33606339 0.07249983 0.13280717 -0.0043741264
0.108370505 0.19239008 1.1281501 0.11080223 -0.11281852 -0.23303503 -0.09045784 -0.10253405
0.5447382 -0.0032180427 0.7816191 0.15876734 -0.1370949 0.29964817 0.32322964 -0.038598463
-0.12884727 -0.48832908 -1.1756514 -0.39133665 -0.17617798 0.19668122 -0.2819134 0.015968302
-0.20107132 -0.5881733 -1.2910249 -0.33588207 -0.20280425 0.14058405 -0.18121661 0.3435116
0.30983862 -0.15899163 -1.6495029 -0.47719815 -0.3677198 0.27420422 -0.007765093 0.03930088
-0.11784986 -0.005007625 1.9078536 0.5524472 0.47620448 -0.12122454 0.15415694 -0.012206317
0.67915106 0.28257364 0.49704024 0.04358634 0.24347919 -0.319971 -0.18333153 0.12684605
0.5068695 0.43078136 -0.06889476 0.27553934 -0.36364087 -0.31193805 0.056858417 -0.0254658
0.661551 -0.18153274 -0.28840005 -0.17561482 -0.12327503 -0.3209698 0.29282638 0.12818003
-0.3487175 -0.18157457 -1.5399629 -0.28500903 0.5401664 0.18770209 -0.28859535 0.039064903
-0.08894361 0.12375508 1.8512831 0.22311954 0.047666695 0.2938928 0.037796367 0.1881032
-0.43725076 -0.3866493 -1.1425745 -0.40831015 0.10731336 -0.17379144 -0.33053565 0.003524193
0.5279062 0.53658617 1.8331748 0.41501236 -0.49168667 0.35182816 -0.1705867 -0.32132584
0.5925645 0.19274274 0.08866712 -0.34450254 -0.08361378 0.11914914 0.25381747 -0.0007831306
-0.40246835 -0.44196838 -1.4936194 -0.6049951 0.33053407 -0.26145494 0.1013214 0.0608026

critic.v_net.fcs.0.bias f4 [64]
00000000: f643 a83e b42f 5e3e 725f 55be 2c4e a83e
00000010: 97a9 b1bd 99ad 19bd 0fc3 a53e 2ea0 3e3c
00000020: 55bd e4be b00c 75bd a6e0 16bf c59b d83d
00000030: 1d31 223e abb4 b1bd 2184 78bd 06b1 f03c
00000040: 2776 7fbe 6e59 0f3d 2791 19bf 04d5 76be
00000050: c8cf c03d 6573 e7be 734f e03d abf6 763d
00000060: 5a79 abbe 0956 5c3e ac42 333d 26b6 4d3e
00000070: aa69 073f cea9 67be 2a4b e7bd 7544 9abd
00000080: 9df4 803c 99eb babe e677 d93e c91e 40be
00000090: 4942 04be 9db5 5a3d 776b 9bbe 2a45 7bbe
000000a0: 957c c93e 67fc 5fbe b05b 623e 31be d73d
000000b0: 4e7b e03e b3dd 313e 33e9 c8be 73c6 dbbc
000000c0: 885b 87be b163 b13e a402 483e ba6f c03e
000000d0: 99d5 103f d2de 7fbe a556 b63e 1ad4 43be
000000e0: 7cb6 853e 2349 5bbe b84f a83d 1e7a 933e
000000f0: 4816 23bf c23f 01bf 413f 953c 47b0 c73e
0.3286435 0.21697885 -0.20837191 0.3287214 -0.08674925 -0.03751907 0.3237538 0.0116348695
-0.446757 -0.059826553 -0.58936536 0.10576586 0.15839048 -0.08677038 -0.060672883 0.029381286
-0.24947415 0.034997396 -0.5998711 -0.24104697 0.09414631 -0.45205227 0.10952654 0.060293835
-0.3349102 0.21517195 0.043764755 0.20089015 0.52895606 -0.22623369 -0.11293633 -0.075325884
0.01574164 -0.36507872 0.42474288 -0.18761744 -0.12915911 0.053395856 -0.30355427 -0.24538103
0.3935286 -0.21873628 0.22105289 0.10534323 0.43844074 0.17369728 -0.39240417 -0.026828026
-0.2643702 0.3464637 0.19532257 0.3758524 0.56575924 -0.24987343 0.3561298 -0.19123879
0.26115787 -0.21414618 0.0821833 0.28804106 -0.63705873 -0.5048791 0.018218638 0.39001676

critic.v_net.fcs.1.weight f4 [64, 64]
00000000: d82e 87be b9c9 4abe 4af3 9a3e 4475 1dbf
00000010: 808a b53e f3c7 953e 3355 bbbe 4cda 43be
00000020: dcc7 053f 06e3 e03d 806d dc3e bf7c 8e3d
00000030: 7e6b f4be 2075 453e 06e0 a43b 3efa 7abe
00000040: e0d2 333e 2f55 953d c89b 003f 07ce 503e
00000050: 9534 653e 02f2 ca3e 4081 23be 160e 96be
00000060: 5435 543e 9896 13be 7aa7 d4be cc18 583d
00000070: 44aa eebe 25df 8c3e 52c9 6fbd 6b9c eb3d
00000080: 3a37 c3bd 1996 053e d37e 53be 36d8 42bd
00000090: f69e 973e ca72 4bbd c7bf 4c3e e148 193e
000000a0: e11e 98be af06 00bd 5f74 8ebe 3f20 f3bd
000000b0: f526 d9be 8123 583d 62ec c43e 40c2 a4bd
000000c0: fe4a 213e 333d 23bd 2f7d 9bbe e2ab fbbd
000000d0: 5431 03bf 4e44 423e 1847 c4be d6a7 4f3e
000000e0: a9fc 2fbe 6c4f 7cbc d113 2abe a1e7 853d
000000f0: 88f2 083f f616 ba3e b3ad 84be 56ae ecbe
00000100: d96b 0bbe d369 cfbe a47b c03e d467 90be
00000110: 7f5f 963e 575c 4d3e 8391 b1be 2128 1cbe
00000120: 178a bf3e aa69 433e ca33 9d3e 469e 3c3e
00000130: a532 d8be f9e3 2a3e 5291 acbe 8718 8bbe
00000140: 0c57 a7bb 9b9a 79bd a8a0 3c3e 58b8 9d3e
00000150: 4c3f bf3d dcea 9e3e 48e1 91be c25e 9fbe
00000160: 6141 963e cba4 93be ab96 9ebe 43cd 9fbe
00000170: 5ef6 96be 6a4d bf3e 7aee 5cbe eae4 363e
00000180: b3f7 35be 394e 3a3e 1b3d 82be b4fd 5ebe
00000190: c265 dc3e bdd7 0cbe 40b3 6d3e fca6 2c3e
000001a0: 7b3d 9dbe dfd4 0e3c b422 d0be 7e90 703c
000001b0: 1801 47be a7de 9ebe 7a87 973e 00fb df3b
000001c0: 59b6 953e c49b 45be 9d4c aabe 1c4c 41bd
000001d0: 37b0 51be 0ebd 7e3e a5c0 66be a0ee e53d
000001e0: 9754 bcbe 0cf6 c2bd f0da efbd c2cd 36be
000001f0: 3e23 6a3e fbe0 993e be89 75be 6224 2abe
00000200: aadb 083e 4215 123e e14b f9be 6cd4 053f
00000210: ed35 8fbe ea70 b6be c003 333d 2715 5c3f
00000220: 82d0 04bf 3168 5e3d 3511 d6be d6ed 183e
00000230: 6509 673e f380 f8be a741 2ebe 8d0b ac3b
00000240: a1be c1be e733 963d 2191 acbe d4fe d63d
00000250: 7ec9 d73d 17dd 1ebe 2df0 273d ac13 2e3d
00000260: 2389 b1be 3305 a73d 4570 553f eda4 13be
00000270: 7961 203f 7a4c 75bf 4b22 d13d a695 b23e
00000280: f4c7 67be 5a04 0fbf 3aa6 333e 02a6 45be
00000290: 50ec bb3d 6880 13be 8d3f d6be 3d09 88bd
000002a0: fb78 663e 7f59 08bf 4995 5b3e acf7 cd3e
000002b0: 989b af3e 4344 68be b5c4 14be 0c78 4d3e
000002c0: 4f69 3abe a101 993d 19ad 5a3d 71f9 6c3e
000002d0: b803 913e 56bb aebe d63b a53e 1dde 27bf
000002e0: 8d6c 12be f95d b1be bc14 803e 2cfb 70be
000002f0: a201 2fbf fba2 05be 10dc babd 41bc 653e
00000300: 27ef b23e c608 883e 84ef b7be 954e ec3e
00000310: 26be 35be 6177 47be d005 bd3e 3f9c a53d
00000320: 4d17 e1be 7091 fcbc 57f5 8fbe 4e0f 6f3c
00000330: 6d1c b63e d138 04be ef50 cd3d 305c c63d
00000340: bed7 86bd 830e 15bd f515 c8be 3ee4 b4be
00000350: bd2e 6abe 4bcf c5be 90ba 8c3e e3d1 8b3e
00000360: 7772 b9be fd6a 2c3e 4d9f 6e3e 7a31 cf3d
00000370: 6016 fe3e fec0 a4be 63b7 89bd b5ae 1fbe
00000380: f694 80bd 8f7e 47be e727 a63e 1d3a bd3d
00000390: 8089 8cbe 5906 853d e1c4 97be d99f 5ebe
000003a0: 883b 683e 725a 393e 45a2 cf3e 4e99 52bd
000003b0: c06d e23e 8936 553e f865 ecbe cd4a 6e3d
000003c0: 28da cfbe ee59 8b3e fe8f e43e ecef 71bd
000003d0: c507 8e3e 9b8a afbe 1576 833e 805a 83be
000003e0: 36a4 5b3e 6f7d bf3d 82cb 263d 8e1f 333d
000003f0: 5d54 a2be fe29 82be 012b d03e 797e a83e
-0.26402926 -0.19803514 0.3026374 -0.6150706 0.3545723 0.29254112 -0.3658844 -0.19126242
0.52258086 0.10980801 0.43052292 0.06957387 -0.4773826 0.19282961 0.0050315885 -0.24509522
0.17560911 0.07291638 0.50237703 0.20391093 0.2238334 0.39637762 -0.15967274 -0.29307622
0.20723468 -0.14412916 -0.41534024 0.052758023 -0.46614277 0.27513996 -0.058541603 0.11504444
-0.09532018 0.13045539 -0.20653848 -0.047569476 0.29613465 -0.04967002 0.19995032 0.14969207
-0.2971106 -0.031256374 -0.2782316 -0.11871385 -0.42412534 0.052768234 0.38461596 -0.08044863
0.15751263 -0.039853286 -0.30368945 -0.122886434 -0.51247144 0.18971369 -0.3833549 0.20278868
-0.17186226 -0.015399795 -0.16609122 0.0653832 0.53495073 0.36345643 -0.25913772 -0.46226758
-0.1361536 -0.40510425 0.3759433 -0.28204215 0.29369733 0.20054756 -0.3468133 -0.15249683
0.37410042 0.19083276 0.30703574 0.18419752 -0.4222614 0.16688527 -0.3370462 -0.2716715
-0.0051068123 -0.06093846 0.1842066 0.30804706 0.09338245 0.31038558 -0.28492188 -0.31126982
0.29346755 -0.28836665 -0.30974326 -0.3121129 -0.29484838 0.3736375 -0.21575347 0.17860761
-0.17770271 0.18193902 -0.25437245 -0.21776468 0.43046385 -0.13754173 0.2321291 0.16860574
-0.30710968 0.008717745 -0.40651476 0.014682887 -0.19434011 -0.31029245 0.29595548 0.0068353415
0.29240683 -0.19297701 -0.33261576 -0.047191724 -0.20477377 0.24876806 -0.22534426 0.11227155
-0.36783287 -0.09519586 -0.11711681 -0.17851928 0.22865006 0.3005446 -0.23978326 -0.16615441
0.13365045 0.14265922 -0.48690704 0.52277255 -0.2797083 -0.35633022 0.04370475 0.85969776
-0.5188066 0.054298583 -0.41810003 0.14934477 0.22562177 -0.4853588 -0.17017232 0.0052504004
-0.3784075 0.07334118 -0.33704475 0.10497823 0.105364785 -0.15514027 0.041000534 0.04249923
-0.3467494 0.081552885 0.83374435 -0.14418383 0.6264873 -0.9581982 0.10211619 0.34879798
-0.2263487 -0.55866015 0.17543879 -0.19301608 0.091759324 -0.14404452 -0.4184536 -0.06642387
0.22507088 -0.5326156 0.21443667 0.4022802 0.34298396 -0.2268229 -0.14528163 0.20065325
-0.18204235 0.07471014 0.053387735 0.2314203 0.2832315 -0.341273 0.32272214 -0.6557329
-0.14299221 -0.34642008 0.2501582 -0.23533314 -0.68361866 -0.13050453 -0.09124005 0.22435094
0.34948084 0.26569194 -0.35924923 0.46153703 -0.17748317 -0.19479133 0.36918497 0.08086442
-0.4396309 -0.030831069 -0.28116867 0.014591051 0.35568562 -0.12912299 0.100252025 0.09685552
-0.06584118 -0.036390793 -0.39079252 -0.35330385 -0.22869392 -0.38634714 0.27486086 0.27308568
-0.36220142 0.16837688 0.23302956 0.10116859 0.49626446 -0.3217849 -0.06724431 -0.15593989
-0.06278412 -0.19481872 0.32452318 0.092396 -0.27448654 0.06495351 -0.29642394 -0.21740665
0.2267896 0.18100908 0.4055349 -0.051415734 0.44224358 0.20821585 -0.46171546 0.058176804
-0.40596128 0.27217048 0.44641107 -0.059066698 0.27740303 -0.34285435 0.25676027 -0.25654984
0.2144936 0.093500964 0.040721424 0.043731265 -0.3170499 -0.25422662 0.4065781 0.3290899

critic.v_net.fcs.1.bias f4 [64]
00000000: b5ac 82be 37be adbe bb59 133e 6251 c03e
00000010: 2117 9fbe b411 14be 4173 203e 2b2a 2a3e
00000020: 6660 ff3d fcf5 093d 4675 a8be 9141 c0bd
00000030: d708 8ebe 69cc 82be 73e9 203e f464 db3e
00000040: b173 91be 51f9 883e 916a 683e 1541 873e
00000050: f5ff d13e 6995 a3be 6fa6 e43e 9623 b4bd
00000060: a0e3 bbbe f675 acbe c0e3 823e 0e79 b53e
00000070: 2660 0f3e 0b90 8bbe 53de ef3d f037 8d3e
00000080: 1406 c63d 666c 3a3e 8767 2a3e e8fa 83be
00000090: 6560 6abe 44af c2be 5664 6c3e 9606 903e
000000a0: 0aad 36be 2a02 98be 5a2a e0be 5679 9bbe
000000b0: 5d6e 893e c542 abbe f8d6 99be c36b 703e
000000c0: 0b76 883e e7db 62be aaae 483e 0721 25be
000000d0: 1038 a6be e45b 55be 884c 813e c58e 853e
000000e0: 0ebc 2d3d be62 103e 022e 5f3e a7e3 3dbe
000000f0: ec97 883e bb9d 8ebe 3a64 aebe ff12 db3e
-0.2552239 -0.33934185 0.14389698 0.3756209 -0.31072333 -0.14459878 0.15668966 0.16617648
0.124695584 0.033681855 -0.32901973 -0.09387506 -0.2774112 -0.25546578 0.15714054 0.4285046
-0.28408578 0.26752713 0.22696902 0.2641684 0.41015592 -0.31949928 0.4465823 -0.0879585
-0.36697102 -0.33683747 0.25564384 0.3544392 0.14001521 -0.27258334 0.11712327 0.2758174
0.09669128 0.18205413 0.16641055 -0.25777364 -0.22888334 -0.38024342 0.2308515 0.28130025
-0.17839447 -0.2968915 -0.43782312 -0.3036601 0.26842013 -0.3344938 -0.3004682 0.23478608
0.2665256 -0.22154199 0.19597879 -0.1612588 -0.32464647 -0.20835835 0.252537 0.26085487
0.04241567 0.14100167 0.21794894 -0.18543874 0.26678407 -0.27854714 -0.34060842 0.4278793

critic.v_net.fcs.2.weight f4 [1, 64]
00000000: 36d9 b4bf 03c4 a7bf f1ac c33f 8a7e b03f
00000010: a81a b8bf 2460 bbbf e552 c03f a34b b73f
00000020: 716e b23f 8003 b4bf f83b adbf 1767 cbbf
00000030: c4f2 c1bf 9605 b8bf 5118 bb3f 8621 b33f
00000040: 4fb1 c6bf 7076 ad3f 52f2 b13f 1ffa bf3f
00000050: 1c3a c13f 1147 bebf 5ba8 af3f 9d20 cc3f
00000060: d749 c0bf d861 c1bf 2841 bd3f 51db ae3f
00000070: e0d4 b93f ce73 b7bf 18f0 b83f bbcb bb3f
00000080: 569c c83f 2fcc b7bf 2ebd d23f b6d4 bebf
00000090: 9b95 cbbf dba3 c3bf 713b b93f 6e29 a93f
000000a0: 991b d6bf 5c8f bdbf 351d b5bf f124 a6bf
000000b0: b567 b33f e47d bfbf b695 bbbf 0962 b63f
000000c0: 2048 ac3f fc58 b6bf 0b91 c53f 0ed8 cebf
000000d0: 3353 b2bf 17f6 b4bf d803 b63f cdfc 9b3f
000000e0: 0ee3 db3f 09e9 ba3f 15cc c53f c422 b3bf
000000f0: 2f01 b33f e4aa b0bf 3067 adbf 04a5 bd3f
-1.4128788 -1.3106693 1.5287153 1.3788617 -1.4383135 -1.4638715 1.5025297 1.4319957
1.3939954 -1.4063568 -1.3533926 -1.5890836 -1.5152211 -1.4376705 1.4616796 1.3994606
-1.552286 1.3551769 1.3902075 1.4998206 1.5095859 -1.4865438 1.3723253 1.5947453
-1.5022534 -1.5107985 1.4785509 1.366068 1.4518089 -1.4332216 1.4448271 1.4671549
1.567271 -1.4359187 1.6463983 -1.4908664 -1.5905031 -1.528438 1.4471265 1.3215768
-1.6727172 -1.4809375 -1.4149538 -1.2980024 1.4016024 -1.4960294 -1.4655063 1.4248668
1.3459511 -1.4245906 1.5434889 -1.6159685 -1.393164 -1.4137601 1.4219923 1.2186524
1.7178667 1.4602367 1.5452906 -1.3994985 1.3984736 -1.3802152 -1.3547115 1.4815984

exp_avg f4 [64, 8]
00000000: 393f c7bc ac1c 833b b8fd cfb9 f4e2 17bb
00000010: 86fc cabc 0000 0000 0000 0000 0000 0000
00000020: 8440 d23c 5860 73bb ce9a cf39 48fc 143b
00000030: ff05 d83c 0000 0000 0000 0000 0000 0000
00000040: 0278 b73c 1115 4abb 7ec5 b939 814b 063b
00000050: a093 c03c 0000 0000 0000 0000 0000 0000
00000060: 03dc 18bd 6901 663b 50a9 deb9 33f3 35bb
00000070: 9f6d 1cbd 0000 0000 0000 0000 0000 0000
00000080: e553 a5bd 816a 153c c9d0 7bba 0251 c4bb
00000090: 74cc a4bd 0000 0000 0000 0000 0000 0000
000000a0: 0e25 fb3d 26a5 78bc 66d9 d73a 7c8d 263c
000000b0: 8910 003e 0000 0000 0000 0000 0000 0000
000000c0: 7e32 e6bd 6ae6 723c 8608 d3ba 2e8c 1cbc
000000d0: 1c99 ebbd 0000 0000 0000 0000 0000 0000
000000e0: 90d8 6c3d 5735 bebb bf81 363a 24cb 8f3b
000000f0: 8e92 723d 0000 0000 0000 0000 0000 0000
00000100: fb54 f1ba 98eb 5439 46e9 c1b7 002a 13b9
00000110: 9e9c fbba 0000 0000 0000 0000 0000 0000
00000120: 9d18 3cbe 4d7b ac3c ed9b 1bbb 0156 72bc
00000130: 5528 40be 0000 0000 0000 0000 0000 0000
00000140: 29a1 103d f5ac 98bb 1571 053a 72cc 4a3b
00000150: b80c 143d 0000 0000 0000 0000 0000 0000
00000160: 8e2b be3d f946 3abc 8943 a23a 6ff0 f93b
00000170: 5fdd c13d 0000 0000 0000 0000 0000 0000
00000180: 5ac3 c7bd bc86 3c3c b4b5 a3ba c9af fbbb
00000190: 2533 cabd 0000 0000 0000 0000 0000 0000
000001a0: e948 bc3c cfd6 4bbb 8701 b139 f6bd 053b
000001b0: 93ce c03c 0000 0000 0000 0000 0000 0000
000001c0: c497 06bd fd23 913b 6b77 07ba c79b 35bb
000001d0: fc57 0cbd 0000 0000 0000 0000 0000 0000
000001e0: 516c fabd 018c 663c 1b63 cfba 7fff 20bc
000001f0: f102 00be 0000 0000 0000 0000 0000 0000
00000200: a960 053e 63f2 90bc 9e69 fd3a 6844 3d3c
00000210: b34d 093e 0000 0000 0000 0000 0000 0000
00000220: ea88 01bb 1ba4 1639 e90c 8db7 dbe4 21b9
00000230: cdb8 03bb 0000 0000 0000 0000 0000 0000
00000240: d7f0 343c 483b bbba 39e5 1839 eaea 623a
00000250: 840e 353c 0000 0000 0000 0000 0000 0000
00000260: a71c 973d 55ab 05bc fbc9 7e3a d103 ba3b
00000270: 047c 9b3d 0000 0000 0000 0000 0000 0000
00000280: 21fc 1fbc d798 8d3a d62b 05b9 465e 53ba
00000290: afe3 23bc 0000 0000 0000 0000 0000 0000
000002a0: e515 cd3c fa1f 43bb c9a9 b239 f374 083b
000002b0: 54d0 d33c 0000 0000 0000 0000 0000 0000
000002c0: 99bf bf3d 30b3 39bc 5f7f a23a 19c0 f63b
000002d0: 72ab c13d 0000 0000 0000 0000 0000 0000
000002e0: 6365 05bd 2e63 863b e4fd e7b9 6a03 32bb
000002f0: 16a6 07bd 0000 0000 0000 0000 0000 0000
00000300: 94a9 333c bbb6 7bba 2578 d038 3763 283a
00000310: 626d 313c 0000 0000 0000 0000 0000 0000
00000320: 5853 f63d 6ea9 7dbc c75b dd3a 24e8 243c
00000330: 1a88 fb3d 0000 0000 0000 0000 0000 0000
00000340: 7101 b9bd f181 0e3c 613d 8dba baa6 e0bb
00000350: d3c4 bebd 0000 0000 0000 0000 0000 0000
00000360: 9818 813c 6c4a 0fbb 6282 6f39 695e b43a
00000370: e341 843c 0000 0000 0000 0000 0000 0000
00000380: 0135 bd3d f1a1 38bc 11a1 a33a afdd f83b
00000390: 93a1 c13d 0000 0000 0000 0000 0000 0000
000003a0: 0199 e43d cfd6 53bc 39ab ba3a 424d 0e3c
000003b0: a2fc e73d 0000 0000 0000 0000 0000 0000
000003c0: f6c7 eebd 171a 673c a987 c9ba 0f75 1bbc
000003d0: 76d2 f2bd 0000 0000 0000 0000 0000 0000
000003e0: 1bd5 2e3e 0d78 adbc 3cd6 173b 3e68 653c
000003f0: 2ab0 323e 0000 0000 0000 0000 0000 0000
-0.02432214 0.0040012207 -0.00039671152 -0.0023176046 -0.024778616 0.0 0.0 0.0
0.02566553 -0.0037136283 0.00039597455 0.002273338 0.026370047 0.0 0.0 0.0
0.022396091 -0.003083531 0.00035433093 0.0020491781 0.023507893 0.0 0.0 0.0
-0.037319195 0.0035096055 -0.00042469287 -0.0027763366 -0.03819048 0.0 0.0 0.0
-0.08072642 0.009119631 -0.00096060015 -0.005991102 -0.08046809 0.0 0.0 0.0
0.12262927 -0.015176093 0.0016467988 0.010165568 0.12506308 0.0 0.0 0.0
-0.11240099 0.014825443 -0.0016100563 -0.009554906 -0.11503813 0.0 0.0 0.0
0.057823718 -0.0058046984 0.00069620827 0.00438823 0.059221797 0.0 0.0 0.0
-0.0018412167 0.00020305661 -2.311602e-05 -0.00014034659 -0.0019196456 0.0 0.0 0.0
-0.18368764 0.021054888 -0.0023744062 -0.014791013 -0.18765385 0.0 0.0 0.0
0.035309944 -0.00465929 0.0005090398 0.0030944613 0.036144942 0.0 0.0 0.0
0.09285651 -0.01136946 0.0012379746 0.007627539 0.09466051 0.0 0.0 0.0
-0.09754057 0.011506733 -0.0012490065 -0.0076808673 -0.09873036 0.0 0.0 0.0
0.022983985 -0.0031103378 0.0003376121 0.0020407415 0.023536002 0.0 0.0 0.0
-0.03285958 0.004429339 -0.0005167636 -0.0027711259 -0.034263596 0.0 0.0 0.0
-0.12227691 0.0140714655 -0.0015822382 -0.00982654 -0.12501122 0.0 0.0 0.0
0.13025154 -0.017693704 0.0019333845 0.011551954 0.13408546 0.0 0.0 0.0
-0.0019765445 0.00014366249 -1.6814522e-05 -0.00015439412 -0.0020099164 0.0 0.0 0.0
0.011043749 -0.0014284635 0.00014581242 0.0008656221 0.011050824 0.0 0.0 0.0
0.07378512 -0.0081585245 0.00097194285 0.0056767245 0.075920135 0.0 0.0 0.0
-0.009764702 0.0010802996 -0.00012700199 -0.0008063059 -0.0100030145 0.0 0.0 0.0
0.025034854 -0.0029773698 0.00034077305 0.002082166 0.025856175 0.0 0.0 0.0
0.09362716 -0.011334226 0.0012397579 0.007530224 0.09456529 0.0 0.0 0.0
-0.032567393 0.0041011786 -0.00044248917 -0.002716268 -0.033117376 0.0 0.0 0.0
0.010965724 -0.0009602119 9.9405916e-05 0.00064234756 0.010829302 0.0 0.0 0.0
0.12027615 -0.01548229 0.0016888314 0.010065112 0.12281819 0.0 0.0 0.0
-0.09033478 0.008697973 -0.0010775739 -0.006855813 -0.09314885 0.0 0.0 0.0
0.015758798 -0.0021864427 0.00022841388 0.0013761047 0.016144698 0.0 0.0 0.0
0.09238625 -0.011269079 0.0012483915 0.007594786 0.09454646 0.0 0.0 0.0
0.11161996 -0.012929632 0.0014241702 0.008685412 0.11327483 0.0 0.0 0.0
-0.11659233 0.014105341 -0.0015375513 -0.009488358 -0.118565485 0.0 0.0 0.0
0.17073481 -0.021175409 0.0023168465 0.014001904 0.17450014 0.0 0.0 0.0

exp_avg_sq f4 [64, 8]
00000000: 2442 133c f700 cd3a e7ef 0438 48ad 103a
00000010: a8ea 403c 0000 0000 0000 0000 0000 0000
00000020: d286 173c edf4 b43a 170a f937 9ee4 1d3a
00000030: 3b4f 433c 0000 0000 0000 0000 0000 0000
00000040: db5f e43b ed27 9f3a 09e5 db37 86d9 0a3a
00000050: 474b 143c 0000 0000 0000 0000 0000 0000
00000060: 488e 863c 8bb7 d33a d5da 2438 3a7a 6c3a
00000070: fe4f a03c 0000 0000 0000 0000 0000 0000
00000080: 9668 b63d b89b 2b3c 26f8 6539 0923 8d3b
00000090: fdc8 e03d 0000 0000 0000 0000 0000 0000
000000a0: e5f6 553e 506a e13c 38a0 1a3a cb8b 413c
000000b0: 55c6 843e 0000 0000 0000 0000 0000 0000
000000c0: 3d1e 373e aabe d43c bd61 103a 8069 3d3c
000000d0: a4d4 673e 0000 0000 0000 0000 0000 0000
000000e0: e9d3 413d 17b4 9a3b 87b5 f138 0347 343b
000000f0: 2184 693d 0000 0000 0000 0000 0000 0000
00000100: 3015 d039 37fd 4b38 2d6e a235 6998 dd37
00000110: 778f 0c3a 0000 0000 0000 0000 0000 0000
00000120: 65c8 f63e 55a6 6f3d 9efc ab3a 9f52 e33c
00000130: 7b22 183f 0000 0000 0000 0000 0000 0000
00000140: f340 863c d672 173b a136 4738 ad73 743a
00000150: bf94 a43c 0000 0000 0000 0000 0000 0000
00000160: f36d ff3d b630 873c 5ca1 ba39 499c ef3b
00000170: e533 1f3e 0000 0000 0000 0000 0000 0000
00000180: 40b8 0b3e 0f41 8f3c 4a42 c439 d79c f63b
00000190: 1ef9 2d3e 0000 0000 0000 0000 0000 0000
000001a0: 4aba 033c 7841 8f3a 3f43 c837 aa6e fc39
000001b0: b1b9 243c 0000 0000 0000 0000 0000 0000
000001c0: f1cc 863c 68e6 343b 506d 7a38 95a4 a93a
000001d0: bbf5 b13c 0000 0000 0000 0000 0000 0000
000001e0: b1f3 4d3e f252 d03c 9f66 143a 2cf0 3e3c
000001f0: caae 7d3e 0000 0000 0000 0000 0000 0000
00000200: 9284 7f3e 45ba 1b3d 7c0d 543a e7bb 893c
00000210: d2f4 a23e 0000 0000 0000 0000 0000 0000
00000220: 3e7e eb38 fe02 5b37 2c14 ae34 f869 f936
00000230: be90 2439 0000 0000 0000 0000 0000 0000
00000240: 20f8 103b bffa a639 8d10 d336 b355 f438
00000250: a032 383b 0000 0000 0000 0000 0000 0000
00000260: cbcd 963d 13e0 123c 3644 6139 d59a 8f3b
00000270: 9720 bc3d 0000 0000 0000 0000 0000 0000
00000280: a47b 0c3b b340 7839 1cf6 b936 405f fd38
00000290: 1bb0 2d3b 0000 0000 0000 0000 0000 0000
000002a0: aeba 033c 126a 973a 1306 d337 f80f 093a
000002b0: 63b3 243c 0000 0000 0000 0000 0000 0000
000002c0: 5f91 013e 6af0 803c 204e b139 ce53 c73b
000002d0: d713 213e 0000 0000 0000 0000 0000 0000
000002e0: d7b8 853c 9b9b 0f3b 7e5a 4438 d653 7d3a
000002f0: 448b a73c 0000 0000 0000 0000 0000 0000
00000300: 3bad fd3a 8a9d 7539 810d b136 c807 e438
00000310: b9e7 1e3b 0000 0000 0000 0000 0000 0000
00000320: f0fd 4f3e 9a29 ec3c 90bf 1f3a 0cc2 4b3c
00000330: bbc7 823e 0000 0000 0000 0000 0000 0000
00000340: e14e db3d d520 353c bf95 9239 514c cd3b
00000350: 53be 043e 0000 0000 0000 0000 0000 0000
00000360: 9b2a 613b 592e 0f3a 4f11 3b37 f439 7139
00000370: 9fbb 903b 0000 0000 0000 0000 0000 0000
00000380: faab f13d c7ef 843c 70f9 b639 b163 eb3b
00000390: 23fc 163e 0000 0000 0000 0000 0000 0000
000003a0: 5c0a 313e d373 b63c d4d6 003a 77c3 1b3c
000003b0: 6093 5c3e 0000 0000 0000 0000 0000 0000
000003c0: 0b47 3d3e 7760 c63c f7f6 073a 7ddf 323c
000003d0: 505f 6b3e 0000 0000 0000 0000 0000 0000
000003e0: 551c d63e 124f 663d 20d2 a03a 92ef d33c
000003f0: 7d59 063f 0000 0000 0000 0000 0000 0000
0.008987937 0.0015640546 3.169468e-05 0.0005518985 0.011774696 0.0 0.0 0.0
0.009248452 0.0013805904 2.9687812e-05 0.00060231413 0.0119207455 0.0 0.0 0.0
0.0069694347 0.0012142636 2.6213487e-05 0.0005296696 0.009051151 0.0 0.0 0.0
0.016425267 0.0016152723 3.930445e-05 0.0009020899 0.019569393 0.0 0.0 0.0
0.08906667 0.010474138 0.00021931584 0.004307155 0.109758355 0.0 0.0 0.0
0.20894964 0.027516514 0.0005898508 0.011813114 0.25932565 0.0 0.0 0.0
0.17882629 0.025969822 0.0005507728 0.011560798 0.2263971 0.0 0.0 0.0
0.047321234 0.0047211754 0.000115255876 0.0027508147 0.057010774 0.0 0.0 0.0
0.00039688637 4.8634796e-05 1.2102006e-06 2.6416225e-05 0.0005361954 0.0 0.0 0.0
0.48199764 0.058508236 0.001312155 0.027749358 0.59427613 0.0 0.0 0.0
0.016388392 0.002310922 4.7496174e-05 0.00093250984 0.020090459 0.0 0.0 0.0
0.12472143 0.01650272 0.00035596907 0.007312332 0.1554714 0.0 0.0 0.0
0.13644505 0.017487077 0.00037433422 0.007526021 0.16989562 0.0 0.0 0.0
0.00804002 0.0010929545 2.3873172e-05 0.00048147637 0.010054038 0.0 0.0 0.0
0.016455146 0.0027603153 5.970645e-05 0.0012942726 0.021723619 0.0 0.0 0.0
0.20112492 0.025430176 0.00056610437 0.011653941 0.24773708 0.0 0.0 0.0
0.24952915 0.038019437 0.00080891675 0.016813232 0.31827408 0.0 0.0 0.0
0.00011229188 1.3054114e-05 3.2424703e-07 7.4331147e-06 0.0001569418 0.0 0.0 0.0
0.002212055 0.00031848808 6.290217e-06 0.000116507894 0.0028106347 0.0 0.0 0.0
0.07363471 0.008964556 0.00021483083 0.004382471 0.091859035 0.0 0.0 0.0
0.0021436 0.00023675225 5.5420805e-06 0.00012081722 0.0026502672 0.0 0.0 0.0
0.008040113 0.0011551997 2.5155989e-05 0.0005228515 0.010052535 0.0 0.0 0.0
0.12653111 0.015739638 0.00033818278 0.0060829883 0.15730225 0.0 0.0 0.0
0.01632349 0.0021912816 4.681432e-05 0.00096636766 0.02045215 0.0 0.0 0.0
0.0019353995 0.00023423709 5.276583e-06 0.000108733366 0.0024247004 0.0 0.0 0.0
0.20311713 0.02882843 0.00060939137 0.012436401 0.25543007 0.0 0.0 0.0
0.10708404 0.011055191 0.0002795886 0.006265201 0.12963228 0.0 0.0 0.0
0.003435767 0.00054619234 1.11500985e-05 0.0002300514 0.0044168974 0.0 0.0 0.0
0.1180038 0.016227616 0.0003489959 0.007183515 0.1474462 0.0 0.0 0.0
0.17289108 0.022272026 0.00049148244 0.009507052 0.21540594 0.0 0.0 0.0
0.18484132 0.02421592 0.0005186642 0.010917542 0.22985578 0.0 0.0 0.0
0.4181849 0.05622775 0.0012269653 0.025871072 0.524803 0.0 0.0 0.0

exp_avg f4 [64]
00000000: 83fd 10bd 6c4d 1a3d 038e 093d 0a78 5fbd
00000010: 3a6d ebbd 0bf3 363e cd48 28be 1b44 ad3d
00000020: 03b9 33bb 6341 89be e07f 533d 8f79 0a3e
00000030: ac6d 10be 20b8 093d b17d 48bd a1df 36be
00000040: dc25 443e 912c 3cbb 8353 813c e01e de3d
00000050: b520 6abc ab4b 173d e455 0a3e b5c8 41bd
00000060: b377 7d3c 61aa 333e 7343 08be 6cf0 bc3c
00000070: d84e 0a3e 74b4 253e c371 2dbe ce44 7f3e
00000080: 00d0 213d 6f37 7abc 4fa6 c5ba 1ea9 1838
00000090: 3c73 a53c c5cd babc 6ebb 9e3d 8466 463d
000000a0: 9fe8 a73b 6735 18be 8ffa a5bd e4ff c0bd
000000b0: cfae a73d 5d41 313e f233 ecbd abcd 1dbd
000000c0: a1ef 81bc 67ce 203e cb37 853d 1d42 9bbb
000000d0: 038d edbb e4f1 c7bc cfd7 e5bd 405b 353d
000000e0: 4530 d63c f338 303e 57b5 2d3d fab4 ca3d
000000f0: 9e04 d53d 5d71 933d 92f1 4cbd 880c 683d
-0.035398018 0.03767149 0.0335827 -0.054557838 -0.11495443 0.17866151 -0.16434021 0.08460256
-0.0027423508 -0.268077 0.051635623 0.13522933 -0.14104337 0.03362286 -0.048947994 -0.17858745
0.19155067 -0.0028713087 0.015786892 0.10845733 -0.0142900245 0.036937397 0.13509327 -0.04731055
0.015470433 0.17545463 -0.1330698 0.02306386 0.13506639 0.16182119 -0.16937928 0.2492859
0.039505005 -0.015272005 -0.0015079471 3.6397127e-05 0.02019655 -0.022803197 0.07750593 0.04843761
0.005124166 -0.14864121 -0.08104431 -0.09423807 0.08187639 0.1731009 -0.11533345 -0.03852622
-0.015861334 0.15703736 0.06504782 -0.004738106 -0.007249476 -0.024407335 -0.11222803 0.044276476
0.026146064 0.17209224 0.042409267 0.098978 0.10401271 0.07199357 -0.050035067 0.056652576

exp_avg_sq f4 [64]
00000000: 99da c43c b34b c73c 2d52 973c 9f95 233d
00000010: 5c5f 653e fa7b 073f cb8f ec3e 1a48 ee3d
00000020: ce6d 8f3a 403d 9b3f 94f0 273d b673 a23e
00000030: 0086 b13e 4616 a83c 7797 353d 166e 013f
00000040: 2348 263f 8bec a739 00f5 bb3b 73f7 3f3e
00000050: 793b b13b df0f a83c 685d a43e a7f6 2a3d
00000060: e825 a23b 0473 053f cd73 873e d7af 133c
00000070: 0711 9a3e bc13 e13e 0d2d f03e 6c17 893f
00000080: 2ee6 ac3c aeb9 793b cc1a 9f39 fa47 033a
00000090: c150 f83b e51e e03b aa4c c63d 7ffe 383d
000000a0: 5b93 2f3a 75eb c73e aa62 d13d f864 253e
000000b0: ae56 e13d 2604 073f bdfa 643e 9a0e f53c
000000c0: b6e6 0b3b 9449 d73e 1d81 a43d 9be2 083a
000000d0: 46b9 ac3a 5dba 2b3c 5c64 563e 9b64 f33c
000000e0: c594 3a3c d37d 033f a343 fc3c 4aa0 323e
000000f0: 2030 373e 09da bb3d 05d6 0f3d 5a21 4e3d
0.024030017 0.024328088 0.018471802 0.03993761 0.22399658 0.5292355 0.46203455 0.11634846
0.0010942759 1.2128067 0.041000918 0.31728905 0.34672546 0.020518433 0.0443339 0.505586
0.6495382 0.0003202896 0.0057359934 0.18746738 0.005408701 0.02051538 0.32102513 0.041739132
0.0049483664 0.52128625 0.26455536 0.009014091 0.30091116 0.4396037 0.4690937 1.0710273
0.021105852 0.0038105058 0.00030346808 0.0005007979 0.007577986 0.0068396204 0.09682591 0.04516458
0.0006697678 0.39046827 0.10223897 0.16151798 0.11002861 0.52740705 0.22361274 0.02991419
0.0021347231 0.42048323 0.08032439 0.0005221755 0.0013177774 0.010481444 0.20936722 0.029711058
0.0113880085 0.5136387 0.03079397 0.17443958 0.17889452 0.09172446 0.035116214 0.050324775
