examples/rl/models/ppo/ppo_model_cartpole_track.pt (torch, 74987 bytes, 30 tensors)

actor.pi_net.fcs.0.weight f4 [32, 8]
0	0x3e8fc639	0.2808092
1	0xbe1edc2f	-0.15513681
2	0x3f0d1496	0.55109537
3	0x3e90164b	0.28142008
4	0x3e9a0ab9	0.30086306
5	0xbe89ba36	-0.2689988
6	0xbe7301aa	-0.23731104
7	0x3e2c45a4	0.16823441
8	0xbec5284b	-0.38507304
9	0x3ea97733	0.33098754
10	0x3d8b116a	0.06790431
11	0x3d9c1b3a	0.076223806
12	0xbe846612	-0.25859123
13	0x3e4635fa	0.19356528
14	0x3e1bae48	0.15203202
15	0x3d65c1d9	0.05609307
16	0x3ea0b33d	0.31386748
17	0x3ddbe3ed	0.10736833
18	0xbf2e2c4d	-0.6803635
19	0x3e5d094b	0.21585576
20	0x3e1d7787	0.15377627
21	0xbe3883b1	-0.18018986
22	0xbea64763	-0.3247634
23	0x3e4e6351	0.20155074
24	0x3e9c776f	0.3055987
25	0xbe59d26a	-0.21271673
26	0x3ea75520	0.32682133
27	0x3e58f9ec	0.21189088
28	0xbe2e68a9	-0.17032112
29	0xbd0da258	-0.03457865
30	0xbe71be78	-0.23607814
31	0xbe2b290b	-0.16714875
32	0xbea79e8b	-0.32738146
33	0xbcacde8f	-0.021102218
34	0x3ed2c0c6	0.411627
35	0x3e50b60f	0.2038195
36	0x3ef4829a	0.4775589
37	0xbea9f7f4	-0.33196986
38	0xbd322f0f	-0.04350191
39	0x3eb03ef1	0.3442302
40	0x3d9f2f3d	0.07772682
41	0xbd8eba09	-0.06969077
42	0xbe08a78f	-0.13345169
43	0x3e66cf21	0.22539951
44	0x3eb12a75	0.34602705
45	0x3e9c5c6f	0.3053927
46	0x3e978abc	0.29598033
47	0x3d8dc200	0.06921768
48	0x3e29fb1d	0.16599698
49	0xbc2e51a6	-0.010639584
50	0x3ed87abd	0.42281142
51	0x3d97efe6	0.07418804
52	0xbdb0acfd	-0.08626745
53	0xbe002752	-0.12515
54	0x3e40c2b7	0.18824278
55	0x3e127b96	0.14304957
56	0x3e8eb686	0.2787363
57	0x3dbd54e4	0.09244707
58	0x3dbff63f	0.093731396
59	0x3eeb2815	0.45929018
60	0xbded5c71	-0.115898974
61	0xbe10dd88	-0.14147007
62	0xbdc1bc0d	-0.09459696
63	0xbdea0758	-0.11427182
64	0xbe9a41c0	-0.30128288
65	0x3e670bb6	0.22563061
66	0x3e77f5d5	0.24214871
67	0x3e3edd13	0.1863902
68	0x3e78eca0	0.24309015
69	0xbe809834	-0.25116122
70	0x3e8a3003	0.26989755
71	0xbe355d5c	-0.17711395
72	0xbc971994	-0.018444814
73	0x3e5cb094	0.21551734
74	0x3f685968	0.90761423
75	0x3ee79b43	0.45235643
76	0x3dddcd8f	0.10830223
77	0x3e4a27db	0.19741766
78	0xbe0271cb	-0.12738721
79	0xbcb858bf	-0.022503255
80	0xbbf50dd4	-0.007478455
81	0x3bc8a8d9	0.006123644
82	0xbe086a71	-0.13321854
83	0x3e742eca	0.23845974
84	0x3d6ba659	0.05753169
85	0xbea9d4fb	-0.33170304
86	0xbe47eae5	-0.19523199
87	0xbddeb16c	-0.10873684
88	0xbcf8f271	-0.030389043
89	0xbe2783d5	-0.16358884
90	0xbf0361f3	-0.51321334
91	0xbe7c0048	-0.24609482
92	0x3d667f01	0.056273464
93	0x3d0e8b78	0.034800977
94	0xbe860051	-0.26172116
95	0xbdb501c4	-0.088382274
96	0x3dc1a12a	0.09454568
97	0x3e452740	0.19253254
98	0x3f12083e	0.57043827
99	0x3eb40d4b	0.35166392
100	0xbd99eb8c	-0.0751563
101	0xbe8a0f33	-0.2696472
102	0xbe817b19	-0.2528923
103	0xbe8ae008	-0.27124047
104	0xbd75fea0	-0.060057282
105	0xbe3893ce	-0.18025133
106	0x3d9eb1c0	0.07748747
107	0x3e63641e	0.2220616
108	0x3ce1f04f	0.027580408
109	0xbd94e6c8	-0.072705805
110	0xbe033d51	-0.12816359
111	0x3e9a491f	0.30133912
112	0xbe67e960	-0.22647619
113	0x3c9b3735	0.018947223
114	0x3f2ba6ad	0.670512
115	0x3ebe5bdf	0.37179467
116	0xbe4d5f33	-0.20055847
117	0x3c237c2c	0.009978335
118	0x3e96f79a	0.2948578
119	0x3d6e62da	0.05819974
120	0x3d9f3eb6	0.07775633
121	0xbdd2fc27	-0.103020005
122	0xbe0ce7d0	-0.13760304
123	0xbe5a84cc	-0.2133972
124	0xbe14ee9d	-0.14544149
125	0x3eac23c5	0.3362104
126	0x3dbfcf92	0.09365763
127	0xbb1ff3d9	-0.002440682
128	0xbeab735b	-0.33486447
129	0xbe44de00	-0.19225311
130	0xbf55bbc8	-0.83489656
131	0xbe8e97c4	-0.27850163
132	0x3d3fff1a	0.046874143
133	0x3e0d4348	0.13795197
134	0xbe945298	-0.28969264
135	0x3eafeef6	0.34362
136	0x3e73b08c	0.23797816
137	0xbecd920a	-0.4015048
138	0xbe1d5014	-0.15362579
139	0xbe85e58b	-0.2615169
140	0xbeac92e7	-0.33705828
141	0x3e97e68e	0.29668087
142	0xbe119569	-0.14217152
143	0xbdf0313b	-0.1172814
144	0xbbccf238	-0.0062544607
145	0x3e294f93	0.16534261
146	0xbeab5449	-0.33462742
147	0xbe057fa7	-0.13036977
148	0x3d68df0a	0.05685333
149	0xbde97a2f	-0.11400258
150	0xbe83ac09	-0.2571719
151	0x3dbc8891	0.092057355
152	0xbd518212	-0.051149435
153	0x3e32c91e	0.17459533
154	0xbe4587ff	-0.1929016
155	0xbea4b672	-0.32170445
156	0xbd64cc91	-0.055859152
157	0xbe2cc6a5	-0.16872652
158	0xbce408ca	-0.027836222
159	0x3e30db46	0.17271146
160	0x3e33fb44	0.17576319
161	0x3e1b1fca	0.15148845
162	0x3f57bc8c	0.84272075
163	0x3e8fd917	0.28095314
164	0x3e4747ff	0.19461058
165	0xbd70be45	-0.058775205
166	0x3d70fdd4	0.05883582
167	0xbe12e5dc	-0.14345497
168	0x3e7d7a54	0.24753696
169	0x3ea2ce45	0.31797996
170	0xbca20390	-0.01977709
171	0x3edeeeb2	0.43541485
172	0xbad99989	-0.0016601543
173	0xbe426db4	-0.18987161
174	0xbea5ac18	-0.3235786
175	0xbeb4e72b	-0.35332617
176	0xbe543e82	-0.2072697
177	0xbe8d8f42	-0.2764836
178	0xbecc4385	-0.39895263
179	0xbe76dad1	-0.2410691
180	0x3bddcb6a	0.0067686336
181	0x3dbdde94	0.09270969
182	0xbd212c7a	-0.039349057
183	0xbe984ccc	-0.2974609
184	0x3dacea6e	0.084431514
185	0x3e09a5d8	0.1344217
186	0x3f4268fd	0.7594145
187	0x3ea0807d	0.3134803
188	0x3e211cb9	0.15733613
189	0xbe1a6f5a	-0.1508154
190	0xbdf3dd27	-0.11907416
191	0x3c04aa84	0.008097295
192	0x3e87deda	0.2653721
193	0x3e100a4b	0.14066426
194	0xbed03367	-0.40664217
195	0x3b6cc45a	0.0036127777
196	0x3da45ee9	0.08025915
197	0x3e036eb1	0.12835194
198	0xbe068764	-0.13137585
199	0xbe9edb26	-0.31026572
200	0xbe5f077c	-0.21780199
201	0xbc6ae28a	-0.014336238
202	0xbf5880a3	-0.84571284
203	0x3d1c8b26	0.03821864
204	0x3e4f17e0	0.20223951
205	0x3d42db44	0.04757239
206	0x3e3deec3	0.18548112
207	0x3e7d9b7c	0.24766344
208	0x3e67cf48	0.22637665
209	0xbeacd8d3	-0.33759174
210	0x3f1f83f8	0.62310743
211	0x3e06a494	0.13148719
212	0xbe7ed7e9	-0.2488705
213	0x3e0bedf7	0.13664995
214	0xbe794d0a	-0.24345794
215	0x3ea78e2a	0.3272565
216	0x3e858a7c	0.26082218
217	0xbe7dd37a	-0.24787703
218	0xbefb52fa	-0.49086744
219	0xbd75653f	-0.05991101
220	0xbdfe08dc	-0.124040335
221	0x3daf7dab	0.08568891
222	0xbea8a1cf	-0.3293595
223	0x3e863502	0.26212317
224	0x3d13cd4e	0.036084466
225	0x3d4fc41f	0.050724145
226	0xbf1bd877	-0.60877174
227	0x3c8d4474	0.017244555
228	0x3eac579c	0.3366059
229	0x3ed0e8ab	0.40802512
230	0xbe6a7b9c	-0.22898716
231	0xbe17bfbd	-0.14819236
232	0x3dd7052a	0.10499032
233	0x3e3a82ff	0.18214034
234	0xbf13321a	-0.57498324
235	0xbe2151b4	-0.15753824
236	0xbda07d31	-0.07836378
237	0x3ed0cdcb	0.40782008
238	0xbdf717fb	-0.12065121
239	0x3e59bfa5	0.21264513
240	0x3e347623	0.1762319
241	0x3e2e23a5	0.17005785
242	0x3f258792	0.6465999
243	0x3eb07bf2	0.34469563
244	0x3de668ad	0.11250434
245	0x3e89ba7a	0.26900083
246	0xbd40b3d6	-0.047046505
247	0x3bb64819	0.005562794
248	0x3e00b195	0.12567742
249	0xbed09975	-0.40742078
250	0xbf0da622	-0.55331624
251	0xbe80be24	-0.25145066
252	0xbd188e37	-0.037245
253	0x3d12c603	0.03583337
254	0x3e108426	0.1411291
255	0xbe90dfbf	-0.28295705

actor.pi_net.fcs.0.bias f4 [32]
0	0xbe8d7307	-0.2762682
1	0x3ecc1823	0.39862165
2	0xbd527cfe	-0.051388733
3	0xbe6650cb	-0.22491758
4	0x3c5901ee	0.013245089
5	0x3daead86	0.08529191
6	0xbec0eace	-0.37679142
7	0xbeac8ff7	-0.33703586
8	0xbe5558b9	-0.20834626
9	0x3e9a60e6	0.30152053
10	0xbd341bc6	-0.0439718
11	0xbe8f648a	-0.28006393
12	0xbdc699c5	-0.09697298
13	0x3e654719	0.22390403
14	0x3ed1187d	0.40838996
15	0x3e02ed8e	0.12785932
16	0x3e6a38bd	0.22873206
17	0x3dfff66a	0.12498172
18	0x3e93aec5	0.28844276
19	0xbeaf0b9d	-0.34188548
20	0x3db3531d	0.08756087
21	0xbef38bae	-0.47567505
22	0xbeaef7f2	-0.34173542
23	0x3ea74de7	0.32676622
24	0x3ce58bcf	0.028020767
25	0x3e7f93f5	0.24958785
26	0x3c1f6ec6	0.009731
27	0xbe8e023f	-0.2773609
28	0x3ea787e9	0.3272088
29	0xbe532f9f	-0.20623635
30	0xbd9fa7e5	-0.07795695
31	0x3ea3f0f0	0.32019758

actor.pi_net.fcs.1.weight f4 [32, 32]
0	0xbdf347dc	-0.118789405
1	0x3d9bc561	0.076060064
2	0xbdcf7d71	-0.10131348
3	0x3d98ed3b	0.07467123
4	0xbdeef680	-0.1166811
5	0x3e122023	0.14270072
6	0xbdc1531d	-0.09439681
7	0xbe823443	-0.25430498
8	0xbd5a870d	-0.05335145
9	0xbdd601d7	-0.1044957
10	0x3e6c946e	0.23103496
11	0xbe873c6d	-0.2641329
12	0xbe82573c	-0.2545718
13	0xbca9737f	-0.020684956
14	0xbd046363	-0.032321345
15	0x3e3faadb	0.1871752
16	0x3e3af91b	0.18259089
17	0x3dc2354a	0.0948282
18	0xbd9b124b	-0.075718485
19	0x3d94a836	0.07258646
20	0xbca8a3d2	-0.020585928
21	0x3d710fb6	0.058852874
22	0x3da99238	0.08279842
23	0xbd93b9a3	-0.07213142
24	0x3e6bccfa	0.23027411
25	0x3e129f70	0.14318633
26	0xbd800921	-0.06251741
27	0x3e084202	0.1330643
28	0x3d2f88ea	0.04285518
29	0x3d31e046	0.043426774
30	0xbe4f215b	-0.20227568
31	0x3d14a20b	0.03628735
32	0x3dbb86cc	0.0915657
33	0xbdf1bfd3	-0.11804166
34	0xbe07b65e	-0.13253161
35	0x3e4c2005	0.1993409
36	0xbe8968b0	-0.26837683
37	0xbdd8d042	-0.10586597
38	0x3dbbd3a1	0.091712244
39	0xbc8513bc	-0.016244762
40	0xbe736a6e	-0.23771068
41	0x3dd0b962	0.10191609
42	0x3df79807	0.12089544
43	0x3e975bc0	0.29562187
44	0xbe2c332e	-0.16816399
45	0xbe2f89e7	-0.1714245
46	0xbe5db762	-0.21651986
47	0xba92ed65	-0.0011209665
48	0x3d29ce30	0.0414564
49	0x3bde6553	0.006786981
50	0xbc985178	-0.018593535
51	0xbd19ce9a	-0.037550546
52	0x3da65c1d	0.08123038
53	0x3dfad11d	0.122469164
54	0x3a1d4b16	0.00060002634
55	0xbdb52aaa	-0.08846028
56	0x3dff7f1e	0.124754176
57	0xbc66c95e	-0.014086096
58	0x3e52404b	0.20532338
59	0x3e1cadb8	0.15300643
60	0xbd128b75	-0.035777528
61	0x3da55ce5	0.08074359
62	0x3df6e43d	0.12055252
63	0x3d25c6e8	0.040472895
64	0xbc339508	-0.010960825
65	0x3dc01769	0.09379465
66	0xbdb07e03	-0.08617785
67	0xbd04cbe2	-0.032421
68	0x3cf10cda	0.029425073
69	0x3e0222d9	0.12708606
70	0x3e08498c	0.13309306
71	0xbd11f37a	-0.035632588
72	0xbddafc54	-0.10692659
73	0xbe34ba23	-0.1764913
74	0xbdc8afb7	-0.0979914
75	0xbe5a82f4	-0.21339017
76	0x3e46b88a	0.19406334
77	0xbddfe005	-0.109314
78	0xbd76397b	-0.06011341
79	0x3d64a8ef	0.05582517
80	0x3e2f64ab	0.17128246
81	0x3def5746	0.11686568
82	0x3e0dbd94	0.1384185
83	0xbcda746f	-0.026666848
84	0xbded78f9	-0.11595339
85	0xbd8a0ec7	-0.067411
86	0x3d94b2fa	0.072606996
87	0xbd81da3c	-0.06340453
88	0xbd4f391d	-0.050591577
89	0x3e007441	0.12544347
90	0xbd67c53b	-0.056584578
91	0xbcb1b6a6	-0.021693539
92	0xbe2838e1	-0.16427948
93	0x3cb7bfc2	0.022430304
94	0x3ce76bac	0.028249584
95	0xbcc3ad72	-0.023886416
96	0xbce224a3	-0.02760536
97	0xbd74b6ff	-0.05974483
98	0x3e69e4a7	0.2284113
99	0xbe261ca8	-0.16221869
100	0x3e0302e3	0.1279407
101	0x3dadde41	0.08489657
102	0xbe92c59b	-0.28666386
103	0xbe55932c	-0.20856923
104	0x3d4be840	0.049782038
105	0xbd103d3f	-0.03521466
106	0xbce92dd9	-0.028464245
107	0xbebf57da	-0.37371713
108	0xbe06b678	-0.13155544
109	0xba781612	-0.0009463738
110	0x3aa33c5e	0.0012453904
111	0xbd81328d	-0.0630847
112	0xbdb634f1	-0.088968165
113	0x3e8e19ba	0.27754003
114	0x3d359c17	0.044338312
115	0xbd9c4541	-0.07630397
116	0xbe6c6199	-0.23084106
117	0xbdf7fbc7	-0.121085696
118	0xbe09e631	-0.13466717
119	0xbe6485c6	-0.22316656
120	0x3b95a6cb	0.0045670024
121	0x3ec6084e	0.3867821
122	0xbd6cadae	-0.05778282
123	0x3e05fdda	0.13085118
124	0x3dca4e36	0.09878199
125	0x3e0bdb59	0.13657893
126	0xbe36f06c	-0.17865151
127	0x3e815b46	0.2526495
128	0x3e0afcea	0.13573042
129	0x3e3087db	0.17239325
130	0x3e4fb41a	0.20283547
131	0xbda58da6	-0.08083658
132	0x3d4ed642	0.0504973
133	0xbdc39e5f	-0.09551691
134	0xbdbdb3db	-0.0926282
135	0x3e506859	0.20352305
136	0xbd337386	-0.043811344
137	0x3dcabeb5	0.09899656
138	0x3e11dac3	0.14243607
139	0xbe53d53b	-0.2068681
140	0x3de17ce8	0.11010152
141	0xbcbe3efe	-0.023223396
142	0xbe31f13a	-0.17377177
143	0x3e194c05	0.14970405
144	0x3b0ba676	0.0021308935
145	0x3d9a1042	0.07522632
146	0x3e6ee5bb	0.23329823
147	0xbe1a7db7	-0.15087019
148	0xbe45101a	-0.19244424
149	0x3ea07c6e	0.31344932
150	0xbd954261	-0.072880514
151	0xbe815762	-0.2526198
152	0x3dea8e0d	0.11452875
153	0x3e646d10	0.22307229
154	0xbe108505	-0.14113243
155	0x3e0897d4	0.13339168
156	0x3e685458	0.22688425
157	0x3e658209	0.22412886
158	0x3d0ad135	0.03389092
159	0x3d608cd4	0.054821804
160	0x3c277ea2	0.010223063
161	0x3bdea6c0	0.0067947805
162	0x3dea6895	0.11445729
163	0xbd2f2968	-0.042764097
164	0x3d0f5efb	0.03500269
165	0x3d0d57a2	0.0345074
166	0xbe376a55	-0.17911656
167	0xbe4266a4	-0.18984467
168	0xbcf604c2	-0.030031566
169	0xbd20b978	-0.039239377
170	0xbdd3fbcb	-0.1035076
171	0xbec3c74a	-0.38237983
172	0xbf08d314	-0.5344708
173	0x3cff7cb0	0.031187385
174	0xbd1c5c5c	-0.03817402
175	0x3e3ff2f9	0.1874503
176	0x3d9416d9	0.0723092
177	0x3d969a1e	0.07353614
178	0x3b3bb7a1	0.0028643387
179	0xbdeebeae	-0.11657463
180	0xbe9f08a2	-0.31061274
181	0xbe24c05f	-0.16089009
182	0xbe80bdc0	-0.25144768
183	0xbe55c533	-0.20876007
184	0x3de18f95	0.11013714
185	0x3e8edaf0	0.2790141
186	0xbdee4dcc	-0.11635932
187	0xbdbb977f	-0.09159755
188	0x3ced3942	0.028957967
189	0xbad94090	-0.0016575027
190	0xbe8f4953	-0.2798563
191	0x3e6ce0e9	0.23132671
192	0x3d3c9ad4	0.046046093
193	0xbe279ae4	-0.1636768
194	0xbe4c9223	-0.19977622
195	0xbdd50dd9	-0.10403032
196	0xbce555fc	-0.027995102
197	0xbdf9d900	-0.121995926
198	0xbc9ddbf1	-0.019269915
199	0xbe47421c	-0.19458812
200	0xbeaa05cc	-0.33207548
201	0xbe1ecaa0	-0.15506983
202	0xbe9a902d	-0.30188122
203	0x3cdc3e6d	0.026885236
204	0xbe5e6d07	-0.21721278
205	0x3e107e7f	0.14110754
206	0xbe91131f	-0.283349
207	0x3e33c72b	0.17556445
208	0x3e8e6d31	0.2781768
209	0xbce90624	-0.02844531
210	0xbdbd556a	-0.09244807
211	0x3e4c4945	0.19949825
212	0xbe11f61c	-0.1425404
213	0xbd64679f	-0.055762883
214	0x3e6de411	0.23231532
215	0xbe9fec4c	-0.31234968
216	0xbb937f89	-0.0045012874
217	0x3e44815e	0.19189975
218	0xbd4b9e4b	-0.049711507
219	0xbdb7c395	-0.08972851
220	0xbd886af4	-0.06661025
221	0xbdc1cd61	-0.09463001
222	0xbd0e68ff	-0.0347681
223	0x3deda181	0.1160307
224	0x3e0d5941	0.13803579
225	0x3d82a547	0.063791804
226	0x3dc1ef6b	0.094694935
227	0xbdc12300	-0.09430504
228	0x3dd566bb	0.10419985
229	0xbd16e826	-0.036842488
230	0xbd1a7085	-0.037704963
231	0xbe17da3d	-0.14829345
232	0xbde03982	-0.10948469
233	0x3dcf9636	0.10136072
234	0xbde7bc04	-0.11315158
235	0x3e7dbbcc	0.2477867
236	0xbc444512	-0.011979358
237	0xbce1bb8a	-0.027555246
238	0x3d6294f3	0.05531783
239	0x3b89337b	0.004187045
240	0xbe345efb	-0.17614357
241	0x3bd21d64	0.006412195
242	0xbe237a7e	-0.15964696
243	0x3e298fc6	0.16558751
244	0x3e84101c	0.2579354
245	0xbdd2a3b3	-0.102851294
246	0x3e49cac3	0.19706254
247	0x3e434c06	0.1907197
248	0xbde788bb	-0.11305376
249	0xbe1ff102	-0.15619281
250	0x3d2e7abe	0.042597525
251	0x3e173f4e	0.14770243
252	0x3cc299b8	0.02375494
253	0x3d485f0a	0.04891876
254	0x3ca37efd	0.019958014
255	0x3d370dab	0.04469077

actor.pi_net.fcs.1.bias f4 [32]
0	0x3c9c00cf	0.019043354
1	0x3cb431fa	0.021996487
2	0xbdc4598f	-0.095873944
3	0x3dc645ed	0.09681306
4	0xbb2f150a	-0.002671542
5	0x3e423815	0.18966706
6	0xbdd916da	-0.10600062
7	0x3de018ba	0.10942216
8	0xbddeb90f	-0.10875141
9	0xbd9b5c8f	-0.075860135
10	0xbdb4d52b	-0.08829721
11	0x3d573203	0.05253793
12	0xbcf7864c	-0.030215405
13	0x3e139630	0.1441276
14	0x3dcc6302	0.09979822
15	0x3db73248	0.08945137
16	0x3d9e4cb8	0.07729477
17	0xbdea6840	-0.11445665
18	0x3e23c38f	0.15992568
19	0xbe183268	-0.14862978
20	0xbdc20dd2	-0.09475292
21	0x3d2d44e3	0.042302024
22	0x3d0415fd	0.032247532
23	0xbcced66a	-0.025248725
24	0x3e51ecb0	0.20500445
25	0x3e851d38	0.25998855
26	0x3d577d56	0.052609764
27	0xbce8bb33	-0.028409576
28	0xbd8d9627	-0.06913405
29	0x3c831307	0.016000284
30	0x3d822bdf	0.06356024
31	0x3d307282	0.043077953

actor.pi_net.fcs.2.weight f4 [1, 32]
0	0xbe0cab8f	-0.1373732
1	0x3dbb0061	0.09130932
2	0xbd12f027	-0.03587356
3	0xbe88c8c1	-0.26715663
4	0xbe6e14bd	-0.23250099
5	0xbec70caa	-0.3887685
6	0x3e13f412	0.14448574
7	0x3e344816	0.17605624
8	0x3d92256a	0.071360424
9	0x3e524062	0.20532373
10	0x3e2f212c	0.17102498
11	0xbea6561c	-0.3248757
12	0x3e0ced50	0.13762403
13	0xbe9687c1	-0.29400447
14	0x3e15f5b1	0.14644505
15	0x3ea14b00	0.31502533
16	0x3d721ced	0.059109617
17	0xbd16d677	-0.036825623
18	0x3e722fb6	0.23651013
19	0xbdcc63c6	-0.09979968
20	0x3e0cad04	0.13737875
21	0x3e4a677d	0.1976604
22	0x3eabb9dd	0.3354024
23	0xbdbf6f08	-0.093473494
24	0xbe4d31e1	-0.20038559
25	0xbe83c161	-0.25733474
26	0xbe4434ec	-0.19160813
27	0x3e167fc8	0.14697182
28	0xbe933258	-0.28749347
29	0x3e6973ec	0.22798127
30	0xbe5b2238	-0.21399772
31	0xbda08397	-0.07837599

critic.v_net.fcs.0.weight f4 [32, 8]
0	0x3fa3077d	1.273666
1	0x3f165dd4	0.5873692
2	0x406d96ce	3.7123294
3	0x3f269671	0.65073305
4	0xbebcfb65	-0.3691055
5	0xbee846aa	-0.45366412
6	0x3e77f7e4	0.24215657
7	0x3cc7d5c3	0.024393922
8	0xbe9766cd	-0.29570618
9	0x3ef7de9e	0.4841203
10	0xbf9c9ba3	-1.2234997
11	0x3cfdd0ea	0.030983407
12	0xbed14352	-0.40871674
13	0xbf46af3d	-0.7761114
14	0xbe9b9222	-0.30384928
15	0xbe1f47e9	-0.15554775
16	0xbf246bdb	-0.64227074
17	0xbeb8b421	-0.36074927
18	0x402a866a	2.664454
19	0x3ee589ec	0.4483179
20	0x3ee626e3	0.44951543
21	0xbeb54aeb	-0.3540872
22	0x3dd2f465	0.10300521
23	0x3e895e17	0.26829597
24	0xbdaecfcc	-0.08535728
25	0x3e14d1f5	0.14533217
26	0xbea4578b	-0.3209804
27	0xbe5d41de	-0.21607158
28	0xbd30b9eb	-0.043146055
29	0x3e9e949c	0.30972755
30	0xbd2c9b31	-0.04214019
31	0xbcc1df07	-0.023665918
32	0x3dffbb76	0.12486927
33	0xbf7c9385	-0.98662597
34	0xc027bf28	-2.6210423
35	0xbf869c9a	-1.0516541
36	0x3e3de513	0.18544416
37	0x3e4ada6c	0.19809884
38	0x3c82477c	0.015903227
39	0xbdb01351	-0.08597434
40	0xbf0b5669	-0.54428726
41	0x3ecf41d5	0.40479913
42	0xc01cbc50	-2.4489937
43	0xbeba7cce	-0.36423343
44	0x3f0e571a	0.55601656
45	0xbf2a8495	-0.66608554
46	0x3e69a982	0.22818568
47	0xbe693edc	-0.22777885
48	0xbd13ec04	-0.036113754
49	0x3dea4f47	0.11440902
50	0x3f3bb436	0.73321855
51	0x3e86f0b4	0.26355517
52	0xbea5ff25	-0.32421222
53	0xbf935ad8	-1.1512098
54	0x3dcc0bae	0.09963165
55	0x3e98c13c	0.29834926
56	0x3e31fc16	0.1738132
57	0x3eb557ce	0.35418552
58	0x3ff9632d	1.9483391
59	0x3edd7c33	0.4325882
60	0x3c69b788	0.014264949
61	0xbe5b9edd	-0.2144732
62	0x3ddc2c30	0.107506156
63	0x3deb929e	0.115025744
64	0xbe18c6c8	-0.14919579
65	0xbdc85d35	-0.09783403
66	0xbef09e27	-0.4699566
67	0xbe2c7348	-0.16840851
68	0x3e723f67	0.23656999
69	0x3e07dd94	0.13268119
70	0x3dd49ea0	0.10381818
71	0xbdb36c22	-0.08760859
72	0xbe63a5a2	-0.22231153
73	0x3da5113b	0.08059927
74	0xbe4e98d4	-0.20175487
75	0xbd793da0	-0.060849786
76	0xbedf9a6c	-0.43672502
77	0x3d43fa28	0.04784599
78	0xbddb5737	-0.10709994
79	0x3e67537f	0.22590445
80	0x3f832d9e	1.0248296
81	0x3f8e191a	1.110141
82	0x4094cfee	4.650382
83	0x3f29565e	0.6614741
84	0xbd28aa06	-0.041177772
85	0xbf5ae1b6	-0.8550066
86	0x3beac101	0.007164121
87	0xbc9d4d06	-0.019201767
88	0xbf10002d	-0.5625027
89	0xbf14f3ba	-0.581844
90	0xc0b4d54e	-5.651038
91	0xbf1ef864	-0.62097764
92	0x3e59cd35	0.21269687
93	0x3e24dd76	0.16100106
94	0x3dca4efa	0.09878345
95	0x3e7d4c17	0.24736057
96	0x3d8deba5	0.06929711
97	0xbc8e6de5	-0.017386386
98	0xbe46384c	-0.19357413
99	0xbc58c29b	-0.013229991
100	0x3e9f2b76	0.31087846
101	0x3e8f31a1	0.2796755
102	0x3e4acabb	0.19803898
103	0x3c992b5e	0.018697437
104	0xbf61f49e	-0.8826388
105	0xbf9de1b8	-1.2334509
106	0x3e89dfbe	0.26928514
107	0xbec20979	-0.37897852
108	0x3eda3817	0.42620918
109	0x3e51bad0	0.2048142
110	0xbea0dc4d	-0.31418076
111	0xbd240553	-0.04004414
112	0x3d90c9ff	0.07069778
113	0x3e492f3f	0.19646929
114	0xbe83d977	-0.2575185
115	0x3ab8282c	0.0014050058
116	0xbe9fc4dd	-0.31204882
117	0x3f778cae	0.96699035
118	0x3eab46cf	0.3345246
119	0xbe12bb4a	-0.14329258
120	0xbd04520e	-0.032304816
121	0xbdea999d	-0.11455081
122	0xbe6ca230	-0.23108745
123	0x3cc043a0	0.023469746
124	0x3d5cc54a	0.053899087
125	0xbdeed560	-0.11661792
126	0x3c028d67	0.007968283
127	0x3e4f1702	0.2022362
128	0x3fa91fbe	1.3212812
129	0x3f866b9b	1.0501589
130	0x3d2c66ec	0.04209034
131	0x3e9bb6f1	0.3041301
132	0xbefaaef1	-0.48961595
133	0xbf6abd3f	-0.91695017
134	0xbe393b88	-0.18089116
135	0xbe9789fb	-0.29597458
136	0xbe4b2706	-0.19839105
137	0x3e206def	0.15666936
138	0x3dfccf25	0.12344197
139	0x3e01341c	0.12617534
140	0xbf04c9e2	-0.5187055
141	0x3ea84c9e	0.32870954
142	0x3e992001	0.2990723
143	0xbe324a95	-0.17411263
144	0xbe91666d	-0.28398457
145	0xbd8f74cc	-0.07004699
146	0xbf36d7df	-0.71423143
147	0xbe12e3d0	-0.14344716
148	0xbfaa08ef	-1.3283976
149	0xbeae20d4	-0.3400942
150	0xbdbbe99a	-0.09175415
151	0xbe2129d6	-0.15738615
152	0xbf87abf3	-1.059935
153	0xbf82556a	-1.0182316
154	0xc09603ca	-4.6879625
155	0xbf5484aa	-0.8301493
156	0x3eda4f26	0.4263851
157	0x3f42142e	0.7581204
158	0xbe9ff0a3	-0.3123828
159	0xbe8197e0	-0.25311184
160	0xbe55688c	-0.20840663
161	0xbcc7ac32	-0.024374101
162	0xbdd6f22d	-0.1049541
163	0xbde9a607	-0.1140862
164	0xbfa448fe	-1.2834775
165	0x3ea349f6	0.31892365
166	0xbe6b87a8	-0.23000968
167	0xbe6656c8	-0.22494042
168	0x3f3af2a9	0.7302652
169	0x3eccc10a	0.39991027
170	0xbeda9d28	-0.42698026
171	0x3e27a097	0.16369854
172	0xbf805e7d	-1.0028836
173	0xbf0812ee	-0.53153884
174	0x3e4e3396	0.20136866
175	0xbe9a4aa7	-0.3013508
176	0x3fd1d26b	1.639234
177	0x3efd9fb7	0.49535915
178	0xbef5e2ce	-0.480246
179	0x3e2d5de0	0.16930342
180	0xbfe0f074	-1.757338
181	0xbf1d7183	-0.6150133
182	0x3e157411	0.14595057
183	0xbdbb0eaa	-0.09133656
184	0x3ee8e5b3	0.45487747
185	0x3f16078d	0.5860527
186	0x40a9226b	5.2854514
187	0x3fb12b6b	1.3841375
188	0x3d915b73	0.07097521
189	0xbefaa1bd	-0.48951522
190	0xbe726a1c	-0.2367329
191	0x3b4fb9f7	0.0031696537
192	0xbf990fe7	-1.1957978
193	0xbeea0000	-0.45703125
194	0xbf87b678	-1.060256
195	0xbdb221b9	-0.08697838
196	0x3fd10c94	1.6331964
197	0x3e9e7e7c	0.30955875
198	0xbe9eb895	-0.310002
199	0xbe8e45e5	-0.277877
200	0xbf660e46	-0.8986553
201	0xbf4a063d	-0.7891577
202	0x3fafcfc5	1.3735281
203	0x3da2d4d5	0.07950751
204	0xbdce9615	-0.100872196
205	0xbdd05fbc	-0.1017451
206	0x3e1c4ad2	0.15262917
207	0x3e0a6955	0.13516743
208	0x3e3965de	0.18105265
209	0x3b60c008	0.0034294147
210	0xbf09de91	-0.53855234
211	0x3bfa00ea	0.0076295035
212	0xbf13cf81	-0.577385
213	0x3e36875f	0.17825077
214	0x3dd2ae3d	0.102871396
215	0x3dbfe97e	0.09370707
216	0x3de63543	0.112406276
217	0x3eac772c	0.3368467
218	0x3f245d88	0.6420522
219	0x3f36e868	0.71448374
220	0x3dd80b7c	0.105490655
221	0xbef6f9b6	-0.4823739
222	0xbe018cca	-0.12651363
223	0xbe162480	-0.14662361
224	0xbfe654ce	-1.799463
225	0xbf407cfb	-0.75190705
226	0xbf8f5231	-1.1196958
227	0xbe8111d4	-0.25208914
228	0x3fc182a9	1.5117999
229	0x3f2a6049	0.6655317
230	0xbe7074a3	-0.23481993
231	0x3e4ed493	0.20198278
232	0x3def1171	0.116732486
233	0xbcb40e0b	-0.021979352
234	0x3f22a8cc	0.63538814
235	0xbd2c2ee9	-0.042036925
236	0x3e83115b	0.2559918
237	0xbfa95b22	-1.3230937
238	0x3e6903ba	0.22755328
239	0xbea3a855	-0.31964365
240	0xbe7d8c1f	-0.24760483
241	0x3de4e233	0.111759566
242	0xbe2c8345	-0.1684695
243	0x3eb16dbd	0.34654036
244	0xbe8792c2	-0.26479155
245	0x3ecb5e65	0.39720455
246	0x3d8fa6e1	0.070142515
247	0xbdd43ea3	-0.103635095
248	0x3e09f8de	0.13473842
249	0x3c774390	0.015091792
250	0x3e0ec5ed	0.1394269
251	0xbd43e2a5	-0.047823567
252	0xbeb85037	-0.359987
253	0xbe9b33e9	-0.30313042
254	0x3e37d863	0.17953639
255	0xbdb2e9ab	-0.08735975

critic.v_net.fcs.0.bias f4 [32]
0	0xbfd4eb38	-1.6634283
1	0xbfa605f4	-1.2970567
2	0xbfdb58a3	-1.7136425
3	0x3faec1be	1.3652875
4	0xbf976c77	-1.1829976
5	0xbfafcef8	-1.3735037
6	0xbec52658	-0.38505816
7	0xbf4d6dc0	-0.8024559
8	0x3fe282e9	1.7696201
9	0x3fa19687	1.2624062
10	0xbf9d7d6d	-1.2303902
11	0xbfad5c3f	-1.3543776
12	0x3fe54181	1.7910615
13	0xc00270bb	-2.0381305
14	0x3f96aef2	1.1772139
15	0x3fa65af0	1.2996502
16	0xbfef17df	-1.867916
17	0x3ebdd05f	0.37073037
18	0x3d8832e9	0.06650335
19	0xbeb960cd	-0.36206666
20	0x3ea36719	0.31914595
21	0xbf32f0ab	-0.6989848
22	0xbf41f88d	-0.75769883
23	0xbf93db1e	-1.1551244
24	0xbf5702cb	-0.83988637
25	0xbfb5cc58	-1.4202986
26	0xbf6784a3	-0.9043676
27	0xbf03f904	-0.5155184
28	0xbefd7046	-0.4949972
29	0x3fc7064e	1.5548799
30	0x3f0fea86	0.5621723
31	0xbeac026c	-0.33595598

critic.v_net.fcs.1.weight f4 [32, 32]
0	0x3da2f751	0.07957328
1	0x3ce6c6da	0.028170992
2	0xbd2b1c8f	-0.041775282
3	0xbe06ceaf	-0.13164781
4	0xbd8ead18	-0.06966609
5	0x3d1fc8e7	0.039009955
6	0xbed83e0c	-0.42234838
7	0x3c48319f	0.012218862
8	0xbe5ecee8	-0.21758616
9	0xbe975922	-0.2956019
10	0x3e12fad2	0.14353493
11	0xbe0ad819	-0.13558997
12	0xbd980f00	-0.07424736
13	0x3e058b67	0.13041459
14	0xbd8b175e	-0.06791566
15	0xbecfc3ab	-0.4057897
16	0x3c6e4174	0.014541972
17	0x3db6b530	0.089212775
18	0xbe377d34	-0.17918855
19	0xbe7fcef3	-0.24981289
20	0x3e3a4c46	0.18193159
21	0xbe3bea27	-0.18351041
22	0xbec8a0aa	-0.39185077
23	0xbd912a9e	-0.07088207
24	0xbc4e5fdb	-0.012596096
25	0x3ecda62e	0.40165848
26	0x3e819368	0.25307775
27	0xbe971f57	-0.29516098
28	0xbe03c93b	-0.12869732
29	0x3d85bede	0.06530546
30	0x3d8e57e7	0.0695036
31	0xbee78548	-0.45218873
32	0xbf568b48	-0.83806276
33	0xbe1b5f43	-0.15173058
34	0xbf763557	-0.9617514
35	0xbe5dbe06	-0.2165452
36	0xbf12edf5	-0.57394344
37	0xbe98f5a8	-0.2987492
38	0xbe3c15a7	-0.18367635
39	0xbd79211c	-0.06082259
40	0xbe901a53	-0.28145084
41	0xbe1d209d	-0.15344472
42	0xbecff85d	-0.40619174
43	0xbf8a1c1e	-1.0789831
44	0xbe856539	-0.2605379
45	0xbf02e505	-0.51130706
46	0xbd98a08f	-0.07452499
47	0xbe9d7699	-0.30754545
48	0xbe904b9e	-0.2818269
49	0xbece3386	-0.40273684
50	0xbd7bc8bc	-0.061470732
51	0xbf86582a	-1.0495656
52	0xbe805412	-0.2506414
53	0x3c85f514	0.016352214
54	0xbe0a08c3	-0.13479905
55	0xbf887cf1	-1.0663129
56	0xbf830d3c	-1.0238414
57	0xbea5eefe	-0.324089
58	0xbde1b41a	-0.1102068
59	0xbebb60c4	-0.36597264
60	0xbf04af18	-0.5182967
61	0xbe94d6fe	-0.29070276
62	0x3c1d30f7	0.009594194
63	0xbf2341e4	-0.63772416
64	0xbf13ded7	-0.577619
65	0xbe730f60	-0.23736334
66	0xbda95ac8	-0.08269268
67	0xbef70f2b	-0.4825376
68	0xbf2b5176	-0.66921175
69	0xbf0c9fef	-0.5493154
70	0xbf8697f5	-1.0515124
71	0x3db1eb34	0.086874396
72	0xbdb22030	-0.086975455
73	0xbea5ce14	-0.32383788
74	0xbefd091a	-0.49421006
75	0xc004a0cb	-2.072314
76	0x3c87f8a3	0.016598051
77	0xbf7780b6	-0.9668077
78	0xbe3f758b	-0.18697183
79	0xbdef1a80	-0.11674976
80	0xbf9a02b6	-1.2032077
81	0xbe2a4426	-0.16627559
82	0xbe831b26	-0.2560665
83	0xc003b0fe	-2.0576777
84	0xbe4cf878	-0.20016658
85	0xbeb50e70	-0.35362577
86	0xbf77f73f	-0.9686164
87	0xbee771aa	-0.45203906
88	0xbf41d39b	-0.7571351
89	0xbe8be3e8	-0.27322316
90	0xbe4c3bc8	-0.1994468
91	0xbe335eab	-0.17516582
92	0xbf7861d3	-0.9702427
93	0xbde7f79e	-0.11326526
94	0xbec0ff43	-0.3769475
95	0xbe64589f	-0.22299431
96	0xbee323ce	-0.44363254
97	0x3e44264c	0.19155234
98	0x3e8d41a9	0.27589157
99	0xbec4701e	-0.3836679
100	0x3e0bcbae	0.13651916
101	0xbf613dea	-0.879851
102	0x3e101fbb	0.14074604
103	0xbfd46618	-1.6593657
104	0x3dc0dc5a	0.09417029
105	0xbecd3951	-0.4008279
106	0xbf033034	-0.5124543
107	0xbf9752f4	-1.182219
108	0xbe31fe1e	-0.17382094
109	0x3eb61642	0.35563856
110	0xbf50d231	-0.81570727
111	0xbd91e612	-0.071239606
112	0xbf40436d	-0.75102884
113	0xbebe09b2	-0.37116772
114	0x3e8fa702	0.28057104
115	0xbf309a12	-0.6898509
116	0xbf189cd5	-0.59614307
117	0x3ee54f2d	0.4478697
118	0xbfb2df85	-1.3974463
119	0xbe48669e	-0.19570395
120	0xbf1dc353	-0.61626166
121	0x3e92437a	0.28567106
122	0xbcb9942a	-0.022653658
123	0x3f198b88	0.5997853
124	0xbf262a43	-0.64908236
125	0x3f443dcd	0.766568
126	0xbf355e3f	-0.70846933
127	0x3e3d982c	0.1851508
128	0xbfa38203	-1.2774051
129	0xbe55ae9c	-0.2086739
130	0xbdaf7a2e	-0.08568226
131	0xbf056123	-0.52101344
132	0xbe928b80	-0.28622055
133	0x3c9c6d41	0.019095065
134	0x3edace8c	0.42735708
135	0x3d521124	0.051285878
136	0xbe99bb13	-0.3002554
137	0xbdafe74b	-0.085890375
138	0xbecdce90	-0.40196657
139	0xbf024310	-0.5088358
140	0xbe86b7f4	-0.2631222
141	0x3cda67c9	0.026660817
142	0xbe6988da	-0.22806111
143	0xbe4ee04d	-0.20202751
144	0xbdec9af9	-0.11552996
145	0xbe9c17e4	-0.30486977
146	0x3ceac158	0.028656647
147	0xbdf0e851	-0.11763061
148	0xbe84e66b	-0.25957045
149	0xbe6fc995	-0.23416741
150	0x3e2e01e3	0.16992907
151	0xbfb73a99	-1.4314758
152	0xbee985c2	-0.45609862
153	0x3e2edb08	0.17075741
154	0xbe94a627	-0.29033014
155	0xbe0d88b0	-0.13821673
156	0x3ee8ccb3	0.45468673
157	0xbede37b1	-0.43401864
158	0xbd198dcf	-0.037488755
159	0xbee642ad	-0.44972745
160	0xbdcbd0aa	-0.09951909
161	0xbdb3ce08	-0.08779532
162	0xbef46170	-0.4773059
163	0xbe11acfa	-0.14226142
164	0x3fbfd0f2	1.498564
165	0x3cb9a9dd	0.022664005
166	0xbe482194	-0.19544059
167	0xbfb2d0b3	-1.396994
168	0xbf000375	-0.50005275
169	0xbf20cc72	-0.6281196
170	0xbe36b9bf	-0.17844294
171	0x3e364852	0.17801026
172	0xbd8c4801	-0.06849671
173	0x3f41aab0	0.75651073
174	0x3c0777d7	0.008268318
175	0xbe7ba7d6	-0.24575743
176	0x3f7087b7	0.93957084
177	0xbfa4eb0a	-1.2884228
178	0xbe9492fa	-0.29018384
179	0xbd9ed905	-0.07756237
180	0xbfc18555	-1.5118815
181	0xbe467c85	-0.19383438
182	0x400637e5	2.0971615
183	0xbf158974	-0.5841286
184	0xbe48fda7	-0.1962801
185	0xbe57e702	-0.21084216
186	0xbf5e6cd3	-0.868848
187	0xbf87e7b7	-1.0617589
188	0x3ea98b91	0.33114293
189	0xbf074500	-0.5283966
190	0xbfa5dfe9	-1.2958957
191	0xbe0d9549	-0.13826479
192	0xbf02d903	-0.51112384
193	0xbdad0384	-0.08447936
194	0xbf08e2ff	-0.5347137
195	0xbf251cc9	-0.6449705
196	0xbee1f7a0	-0.44134235
197	0x3f2dbe0b	0.6786811
198	0xbf1955ae	-0.5989636
199	0xbf151359	-0.5823265
200	0xbf204f2f	-0.62620825
201	0xbf90a7e7	-1.130124
202	0xbeb33647	-0.35002348
203	0xbed049ca	-0.40681297
204	0xbf1a386b	-0.60242337
205	0xbfa329b2	-1.2747099
206	0xbf4e4e26	-0.80587995
207	0xbeedbb3b	-0.46431908
208	0x3ea5e055	0.32397714
209	0xbf0aa6fb	-0.5416104
210	0xbf6e1856	-0.93005884
211	0xbf023be6	-0.5087265
212	0x3e958f8b	0.29211077
213	0xbeb40c30	-0.35165548
214	0x3ed470c4	0.41492283
215	0xbed67639	-0.41887072
216	0x3f54e152	0.8315631
217	0xbff6a313	-1.9268516
218	0xbf1b9c56	-0.60785425
219	0xbf1aeded	-0.60519296
220	0x3f2e799d	0.6815432
221	0xbf037b5d	-0.5136011
222	0xbf5a5f98	-0.85302114
223	0xbec913dc	-0.39272964
224	0xbd119eb4	-0.03555174
225	0xbf8ac596	-1.0841548
226	0x3e10aeab	0.1412913
227	0x3eb6d927	0.3571255
228	0xbe63a479	-0.2223071
229	0xbdab210a	-0.08355911
230	0xbf3ab149	-0.72926766
231	0xbf72dcfe	-0.9486846
232	0xbe9d4f95	-0.3072478
233	0xbf3ee8c4	-0.7457392
234	0x3e932abc	0.2874354
235	0x3de97565	0.11399344
236	0xbeb41ff3	-0.35180625
237	0xbf03cde6	-0.5148605
238	0xbf0d905f	-0.5529842
239	0xbf155414	-0.5833142
240	0x3e26fc49	0.16307177
241	0xbeeb135e	-0.45913213
242	0xbf20e0ab	-0.62842816
243	0xbb490730	-0.003067445
244	0xbf35c1be	-0.7099875
245	0xbf022872	-0.50842965
246	0xbfcc876f	-1.5978831
247	0xbd16a530	-0.03677863
248	0xbecfaaa5	-0.4055988
249	0xbf8cdf68	-1.1005678
250	0xbe056a6f	-0.13028882
251	0x3deed5c2	0.11661865
252	0x3d0563b8	0.032565802
253	0x3c764f3c	0.015033539
254	0xbf5c63e5	-0.86089927
255	0xbdf24117	-0.11828821

critic.v_net.fcs.1.bias f4 [32]
0	0xbda3b4f9	-0.07993502
1	0x3d4e31cf	0.05034047
2	0x3e730bfb	0.23735039
3	0x3f8d70e8	1.1050081
4	0xbe3412f7	-0.1758536
5	0xbf1561c5	-0.5835231
6	0xbf26f7bb	-0.65221757
7	0xbe3a8917	-0.18216358
8	0x3e5a92ff	0.21345137
9	0xbee79e3c	-0.4523791
10	0x3e1cf575	0.1532801
11	0xc009881e	-2.148933
12	0xbdc8cb3c	-0.09804389
13	0x3f1409ec	0.5782764
14	0xbf2f8756	-0.6856588
15	0x4018f2b8	2.3898144
16	0x3e8cde66	0.27513427
17	0x3fb7df36	1.4364994
18	0x3fe23304	1.7671819
19	0x3e357d97	0.1772369
20	0x400ebbc0	2.2302094
21	0x3ecc590d	0.3991169
22	0xbf7a4cf1	-0.97773653
23	0x3fff4db6	1.994559
24	0x3ff8405d	1.9394642
25	0x3e215a0b	0.15757005
26	0xbe32b665	-0.1745239
27	0x3d719c70	0.05898708
28	0x3fd71ee0	1.6806297
29	0xbf13b291	-0.57694346
30	0x3f838ed4	1.0277963
31	0xbf00ffac	-0.50390124

critic.v_net.fcs.2.weight f4 [1, 32]
0	0x3d4001d2	0.046876736
1	0x3f053392	0.52031815
2	0x3f4ca3c6	0.799374
3	0x3e22ea0c	0.15909594
4	0x3de7ad3b	0.11312338
5	0xbf0fb34f	-0.5613298
6	0x3e2f523e	0.17121217
7	0x3ddd749f	0.10813259
8	0x3eb0dc8d	0.34543267
9	0x3e547893	0.2074912
10	0x3f2e5a9a	0.68106997
11	0xbf167019	-0.587648
12	0x3e491e5c	0.19640487
13	0x3d97301f	0.07382225
14	0x3ea0c836	0.3140275
15	0x3f54830a	0.8301245
16	0x3d0ed215	0.03486832
17	0x3eab2704	0.33428204
18	0x3f773149	0.9655958
19	0x3f1f5fac	0.6225536
20	0x3f8edf17	1.1161832
21	0x3f4c241a	0.79742587
22	0xbe8c410d	-0.2739338
23	0x3f2fcc0b	0.6867072
24	0x3f1ab36a	0.60430014
25	0x3df6904f	0.120392434
26	0x3e4146a6	0.18874606
27	0x3ef639b9	0.48090914
28	0x3f04bdac	0.51851916
29	0x3e17cab4	0.14823419
30	0x3e71d7ad	0.2361743
31	0xbe109c7f	-0.14122199

exp_avg f4 [32, 8]
0	0x3bd62dfe	0.0065362444
1	0x3c5cb7dc	0.01347157
2	0xbaab4220	-0.0013065971
3	0xbbe2bb87	-0.0069193277
4	0xbaad4ffc	-0.001322269
5	0xbb781e36	-0.0037859804
6	0x00000000	0.0
7	0x00000000	0.0
8	0x3abd1238	0.0014424985
9	0x3baaf2e7	0.0052169445
10	0xbace5fd0	-0.0015745107
11	0x3837dbd9	4.383535e-05
12	0xbac986e9	-0.0015375289
13	0xbbc311f9	-0.0059530702
14	0x00000000	0.0
15	0x00000000	0.0
16	0xbb285ad3	-0.00256889
17	0x3c14831f	0.009064465
18	0x3a4afd30	0.00077434164
19	0xbb745347	-0.0037281082
20	0xbb5a53e5	-0.0033314165
21	0xbb9aa774	-0.004719669
22	0x00000000	0.0
23	0x00000000	0.0
24	0x3b4cb64b	0.0031236585
25	0xbb01e6e1	-0.0019821452
26	0xb9945ed7	-0.0002829942
27	0xba9ab316	-0.0011802639
28	0x3784dfad	1.5839783e-05
29	0x3ae3b573	0.0017372802
30	0x00000000	0.0
31	0x00000000	0.0
32	0xba6e606a	-0.00090933463
33	0x3d0d27bd	0.034461726
34	0xbb9fa3c7	-0.0048718187
35	0xbcd2ed9f	-0.025748072
36	0xbc6664e0	-0.014062136
37	0xbc2e4d69	-0.010638573
38	0x00000000	0.0
39	0x00000000	0.0
40	0xbb503ef4	-0.0031775804
41	0x3c0ddd69	0.008658745
42	0xba24eda5	-0.00062915153
43	0x3ae52493	0.0017482213
44	0xbb006917	-0.0019593888
45	0xbba1c617	-0.004936944
46	0x00000000	0.0
47	0x00000000	0.0
48	0x3971daf4	0.00023065117
49	0x3af6786f	0.0018804203
50	0x3a162996	0.00057282427
51	0x3ab085ae	0.0013467574
52	0x39c4e046	0.0003755113
53	0xb83e4d23	-4.537137e-05
54	0x00000000	0.0
55	0x00000000	0.0
56	0x3ad8bd33	0.0016535878
57	0x3b489900	0.0030608773
58	0x3a517b64	0.0007991104
59	0x3b5aea6a	0.0033403882
60	0x3a8378a5	0.0010030462
61	0xba39fd17	-0.0007094903
62	0x00000000	0.0
63	0x00000000	0.0
64	0x3bc093ef	0.00587701
65	0x3bd3607b	0.0064507104
66	0xbaea9deb	-0.0017899846
67	0xbb97a276	-0.004627521
68	0x39cd0b7a	0.00039109198
69	0xbb207885	-0.0024485898
70	0x00000000	0.0
71	0x00000000	0.0
72	0x3cac430f	0.02102807
73	0x3c20af63	0.00980744
74	0xbb92fbc5	-0.0044855797
75	0xbc92c16c	-0.017914496
76	0x3b052d7b	0.0020321298
77	0xbbd3d074	-0.0064640585
78	0x00000000	0.0
79	0x00000000	0.0
80	0xbaea97fc	-0.0017898078
81	0xbc711c8c	-0.014716279
82	0x3afc8e28	0.001926844
83	0x3c5dc809	0.013536462
84	0x3b936889	0.0044985455
85	0x3c08bd75	0.008345951
86	0x00000000	0.0
87	0x00000000	0.0
88	0x3b971af0	0.0046113655
89	0xbd15519e	-0.03645479
90	0xb9ab0449	-0.00032618854
91	0xbc86fe99	-0.016478823
92	0x3b2ac3be	0.0026056613
93	0x3ced7823	0.02898795
94	0x00000000	0.0
95	0x00000000	0.0
96	0xba9509bd	-0.00113707
97	0x3bda3ff6	0.006660457
98	0x3adfb57b	0.0017067635
99	0x3a22d765	0.0006211906
100	0x398bc97c	0.00026662264
101	0x3a917216	0.0011096622
102	0x00000000	0.0
103	0x00000000	0.0
104	0x3b5d99b0	0.0033813529
105	0xbabcd58a	-0.0014406901
106	0xbaadb90d	-0.0013254002
107	0xbbacfe14	-0.005279312
108	0xbb34fc7d	-0.0027616315
109	0x3a90e72b	0.0011055222
110	0x00000000	0.0
111	0x00000000	0.0
112	0x3cb84863	0.022495454
113	0x3c8bd987	0.017071499
114	0xbbdade15	-0.0066793063
115	0xbd027655	-0.03185113
116	0x3bbc6918	0.005749833
117	0xbc07ce46	-0.0082889255
118	0x00000000	0.0
119	0x00000000	0.0
120	0xbbdf79f7	-0.0068199593
121	0x3bd8441c	0.006599916
122	0x399654e5	0.0002867348
123	0x3bd99573	0.00664013
124	0xbadcad47	-0.0016836309
125	0xba92e825	-0.00112081
126	0x00000000	0.0
127	0x00000000	0.0
128	0xbd0f9737	-0.03505632
129	0xbcae6892	-0.021290097
130	0x3bc8287d	0.006108342
131	0x3d10f616	0.035390936
132	0xbb03abfb	-0.0020091522
133	0x3c2f2070	0.010688886
134	0x00000000	0.0
135	0x00000000	0.0
136	0xbc15bc8e	-0.009139193
137	0x3a99c24d	0.001173088
138	0x3a313666	0.000676012
139	0x3c7ff91d	0.015623358
140	0xba781363	-0.0009463338
141	0xba0c6528	-0.00053556496
142	0x00000000	0.0
143	0x00000000	0.0
144	0xbaa5bf4e	-0.0012645514
145	0x3c0a2986	0.0084327515
146	0x3a6eed39	0.00091143284
147	0xb8788cf7	-5.925909e-05
148	0xbb0c277f	-0.0021385846
149	0x3bca8b03	0.0061811223
150	0x00000000	0.0
151	0x00000000	0.0
152	0xb9b97f23	-0.00035380674
153	0xba84c0a5	-0.0010128213
154	0x38415ebb	4.610301e-05
155	0x39ddc820	0.0004230151
156	0x379bd780	1.857779e-05
157	0xb9d530b4	-0.00040662813
158	0x00000000	0.0
159	0x00000000	0.0
160	0x3d258e37	0.04041883
161	0x3d521443	0.051288854
162	0xbbd8b8a1	-0.0066138064
163	0xbd022503	-0.03177358
164	0x3c285384	0.010273818
165	0x3ba4e8fd	0.005032657
166	0x00000000	0.0
167	0x00000000	0.0
168	0x3b46848f	0.0030291413
169	0x3bfa77e2	0.0076436857
170	0x3adaeaae	0.001670202
171	0x3b9ebfd6	0.004844646
172	0x3ac4d4b5	0.0015017005
173	0xbaaa60cb	-0.0012998817
174	0x00000000	0.0
175	0x00000000	0.0
176	0x3bd7ef73	0.006589824
177	0xbb87d70c	-0.0041455086
178	0xbaa96cea	-0.0012926136
179	0xbc80d2c5	-0.015725503
180	0xbadd9151	-0.001690427
181	0x3bccc2af	0.006248794
182	0x00000000	0.0
183	0x00000000	0.0
184	0x3cdfa8f7	0.027302248
185	0x3cacd795	0.021098891
186	0xbbfe530c	-0.007761365
187	0xbcfc05e7	-0.030764533
188	0x39f40de7	0.00046549665
189	0xbcce68cb	-0.025196454
190	0x00000000	0.0
191	0x00000000	0.0
192	0xbab66142	-0.0013914483
193	0x3aa93746	0.001291015
194	0xb9670438	-0.00022031448
195	0xbb10f3c3	-0.002211795
196	0xbaf575ce	-0.0018727125
197	0xba9b47f6	-0.0011847008
198	0x00000000	0.0
199	0x00000000	0.0
200	0xbd0f7004	-0.035018936
201	0x3bbae5a0	0.005703643
202	0x3be547ee	0.0069971
203	0x3d270173	0.040772866
204	0xbbf97704	-0.0076130647
205	0x3bc28b64	0.005937027
206	0x00000000	0.0
207	0x00000000	0.0
208	0x3b80fdd7	0.00393651
209	0x3aa1bb2a	0.0012339104
210	0x39745cc5	0.00023304213
211	0xbc803593	-0.015650546
212	0xbb8727a6	-0.0041245995
213	0x3a3ae322	0.00071291823
214	0x00000000	0.0
215	0x00000000	0.0
216	0xbba6b859	-0.005087894
217	0xbbcf7022	-0.006330506
218	0x3a31da75	0.0006784567
219	0x3bd41665	0.006472396
220	0xb99d0654	-0.00029950088
221	0xba8abf1f	-0.0010585523
222	0x00000000	0.0
223	0x00000000	0.0
224	0xbc9a1d5f	-0.018812833
225	0x3c464c66	0.012103176
226	0x3ae6b304	0.0017600958
227	0x3bfc7e98	0.007705521
228	0xbc21ec44	-0.00988299
229	0xbc0f8eca	-0.008762071
230	0x00000000	0.0
231	0x00000000	0.0
232	0xbbc82f7b	-0.0061091757
233	0x3c2f2d1d	0.010691908
234	0xb91f2d04	-0.00015180191
235	0x3b102528	0.0021994803
236	0xbbea36e2	-0.007147656
237	0xbbd22e2d	-0.006414196
238	0x00000000	0.0
239	0x00000000	0.0
240	0x3d643320	0.05571282
241	0x3cf8918e	0.030342843
242	0xbbfcf06d	-0.0077190907
243	0xbcf39e4b	-0.029738566
244	0x3cbb76ff	0.02288389
245	0xbc72747f	-0.014798283
246	0x00000000	0.0
247	0x00000000	0.0
248	0xbc557e83	-0.013030651
249	0xbaee684e	-0.0018189044
250	0x3aab712d	0.0013079994
251	0x3cc8075b	0.02441757
252	0x3b05db68	0.0020424966
253	0xbbd3414f	-0.0064469944
254	0x00000000	0.0
255	0x00000000	0.0

exp_avg_sq f4 [32, 8]
0	0x399d3c70	0.00029990403
1	0x3a3845e4	0.00070294575
2	0x373abaab	1.1129926e-05
3	0x39300723	0.00016787327
4	0x3907f434	0.00012965576
5	0x39a83c64	0.00032088452
6	0x00000000	0.0
7	0x00000000	0.0
8	0x398897bc	0.00026052992
9	0x39dec56a	0.00042490225
10	0x37682c40	1.383858e-05
11	0x38fd3892	0.00012074517
12	0x38a178c9	7.699576e-05
13	0x392405c8	0.00015642412
14	0x00000000	0.0
15	0x00000000	0.0
16	0x3b2f938a	0.002679082
17	0x3b756f6b	0.0037450443
18	0x38bdc80c	9.049484e-05
19	0x3a40b305	0.0007350895
20	0x3a9ed927	0.001211916
21	0x3af3dba7	0.001860489
22	0x00000000	0.0
23	0x00000000	0.0
24	0x392ec69d	0.00016667922
25	0x396cdd22	0.00022589092
26	0x369472f7	4.4241274e-06
27	0x3836e6b6	4.3607048e-05
28	0x38467b5a	4.732176e-05
29	0x391111e9	0.0001383495
30	0x00000000	0.0
31	0x00000000	0.0
32	0x3b1f0f39	0.0024270548
33	0x3b7c0506	0.0038455143
34	0x38e52ba0	0.00010927697
35	0x3a7f2527	0.0009733014
36	0x3a85712c	0.0010180823
37	0x3abf7a38	0.0014608568
38	0x00000000	0.0
39	0x00000000	0.0
40	0x39b96b27	0.00035365784
41	0x3a0b0646	0.0005303364
42	0x37922e60	1.7426151e-05
43	0x39131956	0.00014028451
44	0x38d0269d	9.925405e-05
45	0x399edd1d	0.0003030085
46	0x00000000	0.0
47	0x00000000	0.0
48	0x3669bfb0	3.4831282e-06
49	0x36bb7ac2	5.587325e-06
50	0x3506a9b2	5.016583e-07
51	0x365489a8	3.1670588e-06
52	0x35631e31	8.4608024e-07
53	0x360debfe	2.1148003e-06
54	0x00000000	0.0
55	0x00000000	0.0
56	0x396d870c	0.0002265239
57	0x398633eb	0.00025597154
58	0x373c756b	1.1233012e-05
59	0x38c150cf	9.218009e-05
60	0x3801a64d	3.0910876e-05
61	0x38f0f2b6	0.000114893
62	0x00000000	0.0
63	0x00000000	0.0
64	0x396b55ed	0.00022443356
65	0x3a1bca64	0.00059429393
66	0x37691c6f	1.3894502e-05
67	0x38d8a200	0.000103298575
68	0x38f5596d	0.00011699167
69	0x391ad42d	0.00014765626
70	0x00000000	0.0
71	0x00000000	0.0
72	0x3bf56317	0.007488619
73	0x3c58f180	0.013241172
74	0x394c69e7	0.00019494408
75	0x3b3c220d	0.002870682
76	0x3b3dad0f	0.0028942262
77	0x3baf3d7c	0.0053479057
78	0x00000000	0.0
79	0x00000000	0.0
80	0x3a0ba7c3	0.00053274276
81	0x3a99d71d	0.0011737082
82	0x3802ff8e	3.123242e-05
83	0x39992dc2	0.00029216526
84	0x39de1290	0.0004235697
85	0x3a36e130	0.00069763046
86	0x00000000	0.0
87	0x00000000	0.0
88	0x3aaa1f72	0.0012979342
89	0x3b2d7094	0.0026464807
90	0x38d0523d	9.933531e-05
91	0x3a03f299	0.0005033403
92	0x391bcb6b	0.00014857731
93	0x3abb91a8	0.0014310377
94	0x00000000	0.0
95	0x00000000	0.0
96	0x3a60a7b4	0.00085699116
97	0x3b098948	0.0020986367
98	0x3887241c	6.4440275e-05
99	0x39b24ad5	0.0003400656
100	0x39cddff8	0.00039267517
101	0x3a9cd3fc	0.0011965032
102	0x00000000	0.0
103	0x00000000	0.0
104	0x3a38b30c	0.0007045723
105	0x39fc3a56	0.0004810865
106	0x37d703e6	2.5631813e-05
107	0x393ac8df	0.00017813173
108	0x3985c321	0.0002551312
109	0x39fb6809	0.00047951963
110	0x00000000	0.0
111	0x00000000	0.0
112	0x3bffaf3e	0.007802873
113	0x3c5fc39d	0.013657478
114	0x39824e75	0.00024853987
115	0x3b389b46	0.0028168722
116	0x3b5f58c0	0.0034079999
117	0x3bfb250c	0.0076643284
118	0x00000000	0.0
119	0x00000000	0.0
120	0x3ad6d6de	0.001639094
121	0x3b236d4d	0.0024936975
122	0x3837a19f	4.378112e-05
123	0x3a1b6117	0.0005927248
124	0x3a2083a2	0.00061231304
125	0x3aaa9e48	0.0013017142
126	0x00000000	0.0
127	0x00000000	0.0
128	0x3c6b2b52	0.01435359
129	0x3cec7073	0.028862214
130	0x3a1b1c3b	0.00059169874
131	0x3bd41ce1	0.006473169
132	0x3bebd789	0.0071973247
133	0x3c590f5a	0.013248289
134	0x00000000	0.0
135	0x00000000	0.0
136	0x3ad54df3	0.0016273841
137	0x3b157483	0.0022805042
138	0x3829c193	4.047302e-05
139	0x3a1647c0	0.00057327375
140	0x3a2e32d3	0.00066451466
141	0x3ab87e03	0.001407564
142	0x00000000	0.0
143	0x00000000	0.0
144	0x3b18ee61	0.0023335444
145	0x3b761ce8	0.003755385
146	0x38b00691	8.393557e-05
147	0x3a324ad4	0.00068013114
148	0x3aa12b38	0.0012296205
149	0x3b198ec6	0.0023431047
150	0x00000000	0.0
151	0x00000000	0.0
152	0x382b6075	4.085941e-05
153	0x3942a371	0.00018562168
154	0x36d51246	6.350022e-06
155	0x380ff4d8	3.4321885e-05
156	0x37d45cbe	2.5315556e-05
157	0x37e31cc3	2.7073902e-05
158	0x00000000	0.0
159	0x00000000	0.0
160	0x3c9e0179	0.019287812
161	0x3d147452	0.036243744
162	0x3a1c4256	0.00059608126
163	0x3bef2d0e	0.007299072
164	0x3c0466a9	0.008081117
165	0x3c724b5d	0.014788476
166	0x00000000	0.0
167	0x00000000	0.0
168	0x3b220fa0	0.0024728552
169	0x3b8aed5b	0.0042397208
170	0x388f9182	6.845874e-05
171	0x3a593501	0.0008285791
172	0x39e59c84	0.00043794897
173	0x3a89fa67	0.0010526896
174	0x00000000	0.0
175	0x00000000	0.0
176	0x39f0a536	0.0004589946
177	0x3a97f66f	0.0011593829
178	0x3788001b	1.6212512e-05
179	0x3991b78b	0.00027793305
180	0x38c33b4b	9.309369e-05
181	0x39ed6e63	0.00045286407
182	0x00000000	0.0
183	0x00000000	0.0
184	0x3cad76d7	0.021174831
185	0x3d19f9eb	0.037591856
186	0x3a37c30b	0.00070099597
187	0x3c060c44	0.008181635
188	0x3c16a459	0.009194457
189	0x3c8dc8b5	0.017307619
190	0x00000000	0.0
191	0x00000000	0.0
192	0x3935c7fb	0.00017336004
193	0x39feb7e6	0.0004858367
194	0x3763c25b	1.3575506e-05
195	0x38b66d60	8.698809e-05
196	0x38c0e695	9.198223e-05
197	0x39511125	0.0001993818
198	0x00000000	0.0
199	0x00000000	0.0
200	0x3ccd4065	0.02505512
201	0x3d50a144	0.050935045
202	0x3a861f17	0.0010232654
203	0x3c312f9b	0.010814573
204	0x3c444921	0.011980326
205	0x3cb2e82d	0.021839226
206	0x00000000	0.0
207	0x00000000	0.0
208	0x3ae54c19	0.0017493992
209	0x3b041bb3	0.0020158112
210	0x3831b666	4.236996e-05
211	0x3a0fcdb7	0.0005485671
212	0x3a2a4070	0.0006494587
213	0x3aa48d8e	0.0012554394
214	0x00000000	0.0
215	0x00000000	0.0
216	0x3a0b239f	0.0005307737
217	0x3a0adafa	0.0005296912
218	0x37467614	1.1829212e-05
219	0x3906fc50	0.0001287323
220	0x390bc077	0.00013327772
221	0x3992702d	0.00027930868
222	0x00000000	0.0
223	0x00000000	0.0
224	0x3b6cb8a5	0.00361208
225	0x3bdc1b2c	0.0067171063
226	0x392b548b	0.00016339326
227	0x3abca762	0.0014393146
228	0x3ac328e4	0.0014889506
229	0x3b3301f1	0.002731439
230	0x00000000	0.0
231	0x00000000	0.0
232	0x3a7518d7	0.000934971
233	0x3b11d572	0.0022252467
234	0x3801257d	3.079091e-05
235	0x39cf678d	0.00039559268
236	0x39c57c13	0.0003766721
237	0x3a86cc50	0.0010284279
238	0x00000000	0.0
239	0x00000000	0.0
240	0x3c8497d2	0.016185675
241	0x3cec68f4	0.02885864
242	0x39d87b1b	0.0004129045
243	0x3bcb5b22	0.0062059322
244	0x3ba56da6	0.0050484715
245	0x3c4eea70	0.012629136
246	0x00000000	0.0
247	0x00000000	0.0
248	0x3b702e20	0.0036648586
249	0x3b9c93c5	0.0047783577
250	0x38f31d18	0.00011592562
251	0x3aa81296	0.0012822922
252	0x3accc76d	0.0015623398
253	0x3b429b77	0.0029694715
254	0x00000000	0.0
255	0x00000000	0.0

exp_avg f4 [32]
0	0xbb3e1442	-0.0029003774
1	0xbb92f9bc	-0.004485337
2	0xbbd18c5e	-0.006394907
3	0x3a81476a	0.0009863202
4	0x3b462dc4	0.003023968
5	0xbbadddc1	-0.005305976
6	0x39eb3769	0.00044863977
7	0x3ac5718a	0.0015063745
8	0xbb0a7178	-0.0021124762
9	0xbb04ff1d	-0.002029366
10	0x3b0d6715	0.0021576334
11	0x3cc4ffb7	0.024047716
12	0x3a014fe8	0.00049328664
13	0x3a9210cc	0.0011143922
14	0x3c4b70e1	0.012417049
15	0xbbb68d95	-0.005571077
16	0xbc26f661	-0.010190577
17	0xbc13e1a5	-0.009025966
18	0xbb523f49	-0.0032081178
19	0x389fdf86	7.623345e-05
20	0xbc3961e0	-0.011314839
21	0x39d2f2c5	0.000402352
22	0x3bc5446a	0.0060201185
23	0x3bb9f1e3	0.005674587
24	0xbb0fa12c	-0.0021916134
25	0xbcd9b4cd	-0.02657547
26	0x3c00a804	0.007852558
27	0x3a8e3581	0.0010849686
28	0xbbc5bebd	-0.0060347007
29	0xbbe62c7f	-0.0070243473
30	0xbb0b6dde	-0.0021275203
31	0xbc83d785	-0.016093979

exp_avg_sq f4 [32]
0	0x39b94b1f	0.0003534192
1	0x395334e9	0.00020142239
2	0x3b2b6721	0.0026154
3	0x3912c974	0.00013998692
4	0x3b21c436	0.0024683601
5	0x399c8c2c	0.00029859075
6	0x361135c7	2.1637986e-06
7	0x38eff85d	0.00011442669
8	0x397486c4	0.00023319857
9	0x3c08be96	0.0083462205
10	0x3a7fa773	0.000975243
11	0x3a871569	0.0010306063
12	0x3a97c71a	0.0011579723
13	0x3a2b7501	0.0006540567
14	0x3c31a339	0.010842138
15	0x3adaf90c	0.0016706302
16	0x3cb7defc	0.022445194
17	0x3af374d9	0.0018574252
18	0x3b771bd3	0.0037705794
19	0x38392f15	4.4151286e-05
20	0x3ca8cce1	0.020605506
21	0x3a93c017	0.0011272457
22	0x39d931fa	0.000414267
23	0x3cf2542c	0.029581152
24	0x39744e81	0.00023298898
25	0x3d183958	0.037164062
26	0x3ada01b2	0.0016632585
27	0x39a84cfc	0.00032100815
28	0x3b80c2c7	0.0039294693
29	0x3a907567	0.0011021317
30	0x3c661c18	0.014044784
31	0x3b8c657c	0.004284559
