examples/rl/models/ppo/ppo_model_quadrotor_2D_stab.pt (torch, 479082 bytes, 36 tensors)

actor.logstd f4 [2]
000000 20 ea 32 c0 8e a9 34 c0
       -2.7955399 -2.8228488

actor.pi_net.fcs.0.weight f4 [128, 12]
000000 05 c5 db 3d 8d 47 84 be f1 ca a9 3e 63 36 f1 3e
       0.10730938 -0.2583584 0.33162645 0.47111806
000010 2f a8 82 bc 95 f3 3f be fa 69 46 be d7 a8 0c 3e
       -0.015949337 -0.18745263 -0.19376364 0.13736282
000020 bf 83 6d be 29 15 92 3e 63 af 7b 3d 29 b3 18 3d
       -0.23194788 0.2853177 0.06144656 0.037280235
000030 27 ee a1 bd 00 db d2 3d 2c 14 dd 3d 73 db 4a 3e
       -0.07906752 0.10295677 0.10794863 0.19810276
000040 e3 47 40 3f e2 61 08 3e 7d 0f 83 be 73 5f 78 3e
       0.7510969 0.1331859 -0.25597754 0.24255161
000050 cb d8 13 3d c8 04 0d be 20 c4 87 be db 83 28 3e
       0.03609542 -0.13771355 -0.2651682 0.16456549
000060 0a bd cd 3d 21 b7 a5 be dc 6a 82 3d 7f 25 6f 3e
       0.10045822 -0.3236628 0.06368038 0.23354147
000070 29 e7 56 bf a8 e4 fc bd 17 62 45 be 77 c0 0b be
       -0.8394647 -0.123483 -0.192757 -0.13647638
000080 d3 51 7b be 7d 3a db bb 56 45 2f 3e 04 c6 0f 3e
       -0.24542932 -0.006690322 0.17116293 0.1404038
000090 e1 3c b5 3d ae da 71 bb 29 59 9b bd 4d a0 c7 3e
       0.08849502 -0.0036904025 -0.07585365 0.38989487
0000a0 94 a1 ba 3e 35 e5 75 3d 93 1c 85 be ad 8e 09 3e
       0.364514 0.060033042 -0.25998363 0.13433333
0000b0 62 4c 0e 3e 5f 09 6d 3e 89 77 77 3e 53 7d 67 3d
       0.13896325 0.23148106 0.24166693 0.056516003
0000c0 95 fb 6c bd dc d4 b5 bd ed 53 58 3d 9b 8c 19 3d
       -0.057857115 -0.0887849 0.052814413 0.037487607
0000d0 33 24 a2 be 48 3a 82 bd 6d 63 1d 3e 91 34 ef 3d
       -0.31668243 -0.063587725 0.15369959 0.11679948
0000e0 76 c1 7a 3a 26 e9 3c be 15 2c 1d be 48 de 8b 3e
       0.0009565571 -0.18448314 -0.15348847 0.27318025
0000f0 d7 49 95 bc db 7f 68 bc 77 49 e9 bc b4 aa d4 bd
       -0.018223686 -0.014190639 -0.028477414 -0.103841215
000100 33 f2 05 be d8 4d 12 bd 9a cc 03 3d 0b c5 06 3e
       -0.13080673 -0.03571877 0.032177545 0.13161103
000110 44 5e 85 3e d7 8c 3f be c8 a8 61 3e 6a 15 14 be
       0.2604848 -0.1870607 0.22037041 -0.14461294
000120 b3 4e e9 3c 3a 08 7a 3e 9d 39 63 3e 83 18 dc 3e
       0.02847991 0.244172 0.22189946 0.4298745
000130 82 8e 02 3f da bd 8f 3e d5 03 d5 bd b8 84 96 bc
       0.509987 0.28074533 -0.104011215 -0.018373832
000140 3e f7 45 be 97 cf ad bc 30 c6 0f bd fb ee 1d 3e
       -0.19332597 -0.02121715 -0.035101116 0.15423195
000150 68 cb 66 bd 37 3f 26 be 37 28 05 bd 84 b1 a1 be
       -0.056346327 -0.16235052 -0.032509055 -0.31580746
000160 4b d1 3e be 99 92 df bd f0 d9 37 be f1 f5 57 bd
       -0.18634526 -0.10916633 -0.1795423 -0.052724782
000170 d4 db 1f 3d c3 36 02 3c b8 d2 5a be a1 ca 93 bd
       0.039028004 0.0079476265 -0.21369445 -0.07216383
000180 67 21 48 be 56 47 fa bd 53 62 82 3e 4c 5b b5 3e
       -0.19543992 -0.122206375 0.2546564 0.35421216
000190 44 62 10 bf fa bd 80 be fd 70 53 be 39 c8 62 be
       -0.5639994 -0.2514494 -0.2064857 -0.22146691
0001a0 45 a2 42 bd 20 46 03 be ff 94 4e be f8 14 83 3d
       -0.047518034 -0.1281972 -0.20174025 0.06400484
0001b0 8a 42 2f bd 9f 32 df bc e8 b3 17 3d d9 f0 50 3e
       -0.042788066 -0.027245818 0.037036806 0.20404376
0001c0 08 f0 6f be 72 86 39 bc 74 39 09 3e 14 b6 50 3e
       -0.23431408 -0.011323558 0.13400823 0.20381957
0001d0 51 d9 22 be aa 27 39 bd 44 87 76 3e 37 a4 42 3d
       -0.15903212 -0.045203842 0.24075037 0.04751989
0001e0 61 14 16 3d 45 5d c6 3d dc 9c bb 3d e9 d2 5b 3d
       0.03664053 0.096857585 0.09160778 0.053667936
0001f0 38 8d e5 3d e6 64 f0 3c e6 9c 9c 3d c7 99 02 bb
       0.11208576 0.029344987 0.076471135 -0.0019928084
000200 d3 c6 6d be 96 dc 82 bd 33 15 63 be 0d e4 46 be
       -0.23220377 -0.0638973 -0.22176056 -0.19422932
000210 c5 a4 8e bc c9 60 3a bd df 45 37 bc eb e3 23 3d
       -0.017412553 -0.045502458 -0.011186092 0.04001228
000220 81 c5 c3 3c 08 9b 05 bd 3c c6 38 3e 08 62 31 be
       0.023897888 -0.032618552 0.1804437 -0.17322552
000230 ef e1 f3 bc ee 77 8a 3e b1 bc ed bd bf 1d c4 bd
       -0.02977082 0.27044624 -0.11608256 -0.09575986
000240 2c b2 62 bc 99 0f 30 bd 07 86 7a bc 59 67 15 bd
       -0.013836425 -0.042983625 -0.015290744 -0.036475513
000250 0f f1 ba bd d0 c7 33 bc fd 04 57 be db ef 99 3d
       -0.091280095 -0.010972932 -0.20997997 0.07516452
000260 28 74 3b 3c 9f e1 12 3e fc a0 db bd c8 15 92 be
       0.011441268 0.1434388 -0.10724065 -0.28532243
000270 bc 54 d8 3b 12 ff 74 3b 01 95 ac 3b 66 96 52 3e
       0.006601898 0.003738348 0.005266786 0.20565185
000280 79 5d 05 3e 64 4b 77 3c 7b 8b 5c 3d 73 84 fd 3d
       0.13023938 0.015093658 0.053843956 0.12378778
000290 bb 32 47 3e b5 ef 2f 3d cd c4 44 3d 1d e2 ef bd
       0.19452946 0.04295321 0.048039246 -0.117130496
0002a0 aa 4d ef 3d 23 d9 63 3e 30 1b c3 3b 71 d7 8f 3d
       0.11684735 0.222508 0.0059541687 0.07023514
0002b0 c4 e1 d2 3e a0 b5 ff 3d 54 45 87 be e9 b4 93 be
       0.4118787 0.12485814 -0.2642008 -0.2884896
0002c0 94 37 89 bc 7c 44 77 be 66 20 45 be c2 2a ac bd
       -0.016750135 -0.24147218 -0.1925064 -0.08406593
0002d0 66 e6 7e be a8 18 9d be 09 14 16 be 74 4f 97 be
       -0.24892578 -0.30682874 -0.1465608 -0.29552805
0002e0 d1 da f4 be 3f 1b 53 bd ba 64 60 3d f2 81 39 3e
       -0.47823194 -0.051539656 0.05478356 0.18115976
0002f0 1c 8a a0 3d 90 cd 25 be 31 1d c7 bd 8e a4 d8 3b
       0.07838842 -0.16191697 -0.09722365 0.0066114133
000300 43 ca 8f 3e 1b 7a 60 3e d3 66 7d bc 60 82 70 be
       0.28084 0.2192158 -0.01546641 -0.23487234
000310 78 0f d9 3e 48 d3 06 3e 4b af db bd 96 b4 81 be
       0.42394614 0.13166535 -0.10726794 -0.2533309
000320 43 97 c1 3b 43 9d 22 3c 89 b9 49 be 76 8d a4 3d
       0.0059079244 0.009925189 -0.19699682 0.08034794
000330 bf c8 7d 3d af 77 a5 ba 40 4f 18 3e 90 23 e1 3e
       0.061959025 -0.001262417 0.14873981 0.43972445
000340 aa df d6 3d 09 f7 e7 bd 73 f5 85 3e a6 53 9c 3d
       0.10491879 -0.11326415 0.26163825 0.07633142
000350 03 c3 ae be 71 1d 93 3d a9 8d 4b be f0 ce 88 3e
       -0.34133157 0.0718335 -0.19878258 0.2672038
000360 d9 31 9a 3d d8 b5 02 be 06 db 63 be 7b 6e 24 be
       0.07529039 -0.1276468 -0.2225152 -0.1605777
000370 fb da ad be 97 27 21 bd 00 b0 89 be c3 28 5b 3e
       -0.3395613 -0.039344396 -0.2689209 0.21402268
000380 c5 45 69 3d 1d ca b9 3b 5e 8d 3c be 15 f5 92 3c
       0.056951303 0.0056698457 -0.18413302 0.01793913
000390 d6 cd 6e 3e 33 84 ab 3e a8 99 1b bd 75 f5 77 be
       0.23320708 0.33499297 -0.037988335 -0.24214728
0003a0 63 3a ca 3e 1a f8 2e 3e 42 1c 78 be 26 a1 dc bd
       0.3949767 0.1708683 -0.2422953 -0.10772924
0003b0 c5 9d 32 bd 1c d1 87 3e 4b c0 c9 bd 7f ca 31 3e
       -0.043607492 0.26526725 -0.0985113 0.17362402
0003c0 9a 77 f8 3d 34 cd e0 3d c2 3b ae 3d 16 37 03 3f
       0.12132187 0.109766394 0.08507492 0.5125593
0003d0 2f bb d9 3d 03 4a 08 3e 46 57 1d bd 13 d5 94 3b
       0.106314056 0.13309483 -0.03841331 0.004542002
0003e0 ae a6 5c 3d 6e 59 85 be 95 be 0c be 33 ef 6b be
       0.053869896 -0.26044792 -0.13744576 -0.23040466
0003f0 f3 78 07 be 57 dd a2 bd 3c 19 a9 3d 30 7b 1b be
       -0.13229732 -0.079523735 0.08256766 -0.15183711

actor.pi_net.fcs.0.bias f4 [128]
000000 9e 33 2d be 16 cc 05 be 5c cd 2f 3e 15 41 90 3c
       -0.16914222 -0.13066134 0.17168182 0.017609159
000010 14 67 84 bd 04 54 56 be 1c bd 36 3c 40 6b 01 bc
       -0.06464973 -0.20930487 0.011153486 -0.007899106
000020 b8 ae 50 be 9a e0 fb 3d 7f 5e a8 3d 13 71 5a 3d
       -0.2037915 0.12298699 0.08221149 0.053330492
000030 0d 74 35 3c 9e 07 29 be 91 45 9c 3c d0 8f ae 3d
       0.011075032 -0.16506812 0.01907614 0.08523524
000040 bc 33 83 bd 6b 90 3b 3e 84 e2 5b 3e 26 17 16 3d
       -0.06406352 0.1831681 0.21473128 0.03664317
000050 34 d7 d0 bd c9 d9 41 bd 86 6a 2f bd 0d 6a 13 3e
       -0.10197297 -0.047326837 -0.042826198 0.14395924
000060 17 97 02 3d f0 7c 14 be 8d 40 14 bd d0 30 31 be
       0.03188237 -0.14500785 -0.036194373 -0.17303777
000070 de e7 1d 3d b0 bf 28 be a6 26 e8 bd 6c cf e5 bd
       0.038551204 -0.16479373 -0.113354966 -0.11221203
000080 fd 8f d1 bd 63 84 89 bb 80 0c a2 bd 72 ce 5f 3e
       -0.10232542 -0.00419669 -0.079125404 0.21856096
000090 9f 09 a8 bd 7b 18 17 3d 07 61 59 3d 47 8a 74 bd
       -0.0820496 0.03688858 0.053071048 -0.059702184
0000a0 ba 5e 70 3c 9d 0a a6 bd 0b da 07 3e 20 06 f9 3c
       0.014671022 -0.08107493 0.1326677 0.030398428
0000b0 b2 ae eb 3c a6 a8 45 bd 7b a5 6a bd 7b af ee 3c
       0.028769825 -0.04825654 -0.05728672 0.02913641
0000c0 d8 20 41 3e 53 b5 40 be 6c 05 87 3d 30 6f 9e 3d
       0.18860185 -0.1881917 0.06592831 0.07736051
0000d0 ba 68 cd bb 6f bb e0 bd 67 a1 ec 3d 76 71 8b bd
       -0.006268588 -0.1097325 0.115542226 -0.0680875
0000e0 d4 ed b9 bc 18 54 28 be f1 38 83 3e c1 8b b3 3d
       -0.022696413 -0.16438329 0.2562938 0.0876689
0000f0 c5 a0 e5 3d 68 82 c8 3d ce ac a0 bc f3 2d 0a bd
       0.11212305 0.09790498 -0.01961365 -0.033735227
000100 ad ba 59 bd 27 d5 2d bd cc dc d6 3d 3d 3c ac bd
       -0.053156544 -0.042439606 0.104913324 -0.08409927
000110 a5 2f 03 be 76 0c c9 3d 2a eb 1e be 43 32 e9 bd
       -0.12811144 0.0981683 -0.15519395 -0.1138654
000120 1a 68 7a 3e 9b 61 65 be da e8 fd 3d 25 81 3c 3e
       0.24453774 -0.22400515 0.123979285 0.1840864
000130 59 3f 28 b9 f1 86 25 3e 9a 6e 29 be 20 6a 58 3e
       -0.00016045327 0.16164757 -0.16546097 0.21134233
000140 9c 9c 85 bd 21 f8 48 3e dc 4d a1 bd e3 e2 36 bd
       -0.065240115 0.19625904 -0.078761786 -0.04464997
000150 ad b1 03 3e 1d 2b 80 be ba d7 7e bc 59 10 e7 3d
       0.12860747 -0.25032893 -0.015554363 0.11282415
000160 b6 d3 25 bd 57 8d 12 3c c3 76 13 3e 31 f1 03 be
       -0.040485106 0.008944831 0.14400773 -0.12884976
000170 e8 7e e0 3d 33 c1 f3 3d 7e ff 04 3e 73 0f 13 bd
       0.109617054 0.11902084 0.12988088 -0.035903405
000180 a4 e4 6b 3d a3 5f 07 be 12 12 a9 bc 8d 48 fb 3d
       0.057591096 -0.13220076 -0.0206385 0.12269697
000190 6c 11 8c 3e 14 88 3a be 4e a2 14 be 02 a2 04 be
       0.27357042 -0.18215972 -0.1451504 -0.12952426
0001a0 c2 08 69 3d 02 7a 8b 3e 78 8d d9 3d 15 4f 8e bc
       0.056893118 0.27241522 0.10622686 -0.017371694
0001b0 06 bf 66 3e b8 2c 7e 3e 17 65 64 be ae 27 5f 3e
       0.22533807 0.24821746 -0.22304188 0.2179248
0001c0 c5 15 ee 3d 22 03 95 be c7 54 f5 3d 1a ab 32 3e
       0.11625246 -0.29103953 0.119790606 0.17448083
0001d0 92 ee f0 bd 09 b4 24 be 88 d3 f1 3d f7 e5 7a bd
       -0.11764254 -0.16084303 0.118079245 -0.061254468
0001e0 5d d8 b2 3d b6 0c 18 3c 10 ee 2d 3d 99 be 26 be
       0.08732674 0.009280374 0.042463362 -0.16283645
0001f0 70 2f 3e 3e 1a f1 00 bd 40 47 3d 3e 0c 47 34 3e
       0.18572783 -0.031479932 0.18484211 0.17605227

actor.pi_net.fcs.1.weight f4 [128, 128]
000000 40 30 ee bb 1f 5d 7b 3d 7a aa 17 3d 9a 5d 81 bd
       -0.0072689354 0.061368104 0.037027813 -0.06316681
000010 60 01 83 bd 50 34 24 3d ed 7b 5b 3d d9 00 96 bd
       -0.06396747 0.04008895 0.05358498 -0.073243804
000020 96 26 53 bd b9 a4 f3 bc ad a8 8b bc 24 ff 56 3d
       -0.05155047 -0.029741632 -0.017048204 0.052489415
000030 c2 2d 88 3d 7f 17 7a 3c c5 63 88 3d a4 12 0b bd
       0.066493526 0.015264391 0.066596545 -0.033953324
000040 5b 54 51 bd 4d d8 c2 3a cd de 0c bd a1 47 0a bb
       -0.05110584 0.0014865488 -0.034392167 -0.0021099823
000050 a7 c8 a9 3c 89 f4 a8 3d 3d 75 58 bd a1 f4 45 3c
       0.020725561 0.082497664 -0.052846182 0.01208225
000060 31 2a 59 3d bc fd 8b bd eb 5e 67 3c da 02 62 bd
       0.053018752 -0.06835505 0.014121751 -0.0551785
000070 f1 1d 64 bd 7c 36 22 3d 91 cc ee 3c e9 b3 28 3d
       -0.055692617 0.03960274 0.02915028 0.0411872
000080 48 49 0a bd 88 4a 0b bd a3 11 57 bd 68 93 68 bd
       -0.033761293 -0.034006625 -0.052507054 -0.056781203
000090 6b 15 08 bc 08 d6 9e 3d 7a e9 e3 3c 81 e6 57 bb
       -0.008305888 0.07755667 0.027821291 -0.0032943788
0000a0 88 6f ff bb 02 74 56 3c 61 c7 c6 bd a6 b0 b5 bd
       -0.007795278 0.013089182 -0.09705997 -0.08871584
0000b0 1d 75 94 3d f3 df 4f 3a 0d 2d 05 bd 43 58 3a 3d
       0.072489 0.00079297944 -0.032513667 0.04549433
0000c0 02 c0 4b 3c c4 b7 98 bd 5e 09 5b bd f8 96 1a bd
       0.012435915 -0.074569255 -0.05347573 -0.03774163
0000d0 5e 77 d4 3c d8 0b 69 3d b1 00 04 bc fc 36 49 bc
       0.025935825 0.05689606 -0.0080568055 -0.012281176
0000e0 a4 f9 80 3d 78 9e 0f bd 8f 61 70 3d f0 41 2d bd
       0.06297615 -0.035063237 0.05868679 -0.04229921
0000f0 8c e6 4e bd a4 53 5a bd 56 e3 a9 3d 60 ca b3 3d
       -0.050512835 -0.053302422 0.08295314 0.08778834
000100 98 88 4d 3a 18 af 1b 3c b6 b5 1b bd 4f 5a e9 3d
       0.00078404834 0.009502195 -0.03801509 0.11394178
000110 d3 8a f5 bd 26 1e 70 3a b4 a0 a3 3d 86 4d 6e bd
       -0.11989369 0.0009159766 0.07989636 -0.0581794
000120 e0 b7 81 3d 82 64 84 3d 0d 6b 7f bd 2f 11 8b 3d
       0.063338995 0.06464483 -0.06235795 0.06790387
000130 1c b0 c0 bc 96 2b eb 3d cf b3 99 3b 41 c2 2e 3d
       -0.023521475 0.11482923 0.0046906243 0.042665724
000140 f1 4b 83 3d 2b d4 8b bc ff 66 35 3d d7 b7 24 bc
       0.06410969 -0.017068943 0.044287678 -0.010053596
000150 07 68 6c bd f3 0f 01 3e 47 cf 84 3c a7 22 05 bd
       -0.057716396 0.1260374 0.016212119 -0.03250375
000160 6b b4 d6 3c e6 81 17 3d 4d b3 57 3d 31 3b 56 bd
       0.026209077 0.036989115 0.05266123 -0.052302543
000170 08 33 59 bd 42 1f 88 3b 94 89 59 3d 2b 00 18 bd
       -0.053027183 0.004154117 0.05310972 -0.037109535
000180 fb ab a5 3c 14 65 bf 3d f9 c5 ea 3b 8a 00 ef 3c
       0.020223608 0.09345451 0.0071647135 0.029175062
000190 80 0a 7b 3d 59 4c a0 bd 5e ed 50 bd f7 62 4d bd
       0.06128931 -0.07827062 -0.05100762 -0.05014321
0001a0 95 e8 ee ba ea 25 3a 3d 84 41 77 bc 93 9c 2c 3d
       -0.0018227274 0.045446314 -0.015091304 0.04214151
0001b0 b4 c2 82 3a 5e b2 3c bc 38 a4 b9 bd 4f 05 80 3d
       0.0009976239 -0.011517135 -0.09064525 0.062510125
0001c0 a3 22 6d 3d 9b a2 84 3a d1 f7 f4 bd a0 f9 83 3d
       0.05789436 0.0010119261 -0.1196133 0.064440966
0001d0 a1 63 25 bd 14 78 0c 3d 19 13 a8 3c 93 1a 97 3d
       -0.040378217 0.034294203 0.020516919 0.073781155
0001e0 83 5c 9d 3d b8 b0 bb bb 8e f0 88 bc d5 2a af 3d
       0.07683661 -0.0057278536 -0.016716268 0.085530914
0001f0 db e6 6e 3d 6b 9e 86 3d dc 42 9b bd c3 69 6e bd
       0.05832563 0.065731846 -0.07581112 -0.05820633
000200 8d fb 93 3d 78 93 b0 3a a4 0b 32 bd fd 04 74 3d
       0.07225714 0.0013471683 -0.043468133 0.05957507
000210 8e 06 70 bd c9 8f 81 3d c4 2b fe bb 8d 3d ea 3d
       -0.0586 0.06326253 -0.007756682 0.11437521
000220 5a 54 2d 3d dc 7a a9 3c 13 8b 5e bd 8d a4 d0 39
       0.042316772 0.020688467 -0.05433185 0.0003979545
000230 ae 30 c3 3d 44 5d 5e bd 9c 18 9e 3d 41 01 a7 3d
       0.09530769 -0.054288164 0.077195376 0.08154536
000240 18 e3 9e 3c 49 79 68 3d f1 91 35 bd 68 58 92 3d
       0.019395396 0.05675629 -0.044328634 0.071457684
000250 7e 7b 33 3d b2 73 8d bc 1d 7f 89 bc a0 26 9d 3d
       0.043818943 -0.017267082 -0.016784245 0.07673383
000260 f6 82 fe bc 2e f2 1a bd 77 f8 9f 3d 13 5b 70 bd
       -0.031068306 -0.037828617 0.07811063 -0.058680605
000270 f6 36 96 bc f0 9c 59 3c d4 55 41 bd 31 0e 12 3d
       -0.018336754 0.013282046 -0.047200993 0.035658065
000280 8b 14 99 bd 0d 58 21 3d 3c dc 5f bd 54 c5 71 bc
       -0.074746214 0.039390612 -0.05465339 -0.014756519
000290 87 e5 09 bd ac 0e 82 3d 9a d4 af 3c b6 00 4b bd
       -0.03366616 0.06350455 0.021463681 -0.049561225
0002a0 ba 8a a2 3c f3 18 97 bd a4 67 05 bd 05 70 6c 3d
       0.01984154 -0.073778056 -0.032569543 0.057724018
0002b0 ae 4d 1c bc 67 0e f8 b9 a1 ab 3a 3d c5 19 c0 3c
       -0.009540005 -0.00047312977 0.045573834 0.023449788
0002c0 49 d0 64 bc ee 51 83 bb 45 52 e2 bc de 35 d9 3d
       -0.013965675 -0.0040075695 -0.02762712 0.106059775
0002d0 3d 69 00 3c 4d 08 b1 3d e7 e2 a7 bd 38 97 8f bd
       0.007837591 0.086441614 -0.08197575 -0.070112646
0002e0 9f e9 56 3d 2d 3a 8a bd 15 57 12 bd cb 97 aa bd
       0.052468892 -0.067493774 -0.03572758 -0.083297335
0002f0 a9 70 8d 3b b0 98 9c 3d 37 93 a4 bd 5d 38 20 bd
       0.0043164087 0.0764631 -0.080358915 -0.039116252
000300 f6 12 a2 bb 1e 27 14 bd fd a4 b6 bd c7 8a 34 bd
       -0.004946108 -0.036170118 -0.08918188 -0.04407766
000310 04 a1 0c 3c 3b d8 a3 bc 6d 7a 59 bc e6 87 84 3c
       0.008583311 -0.020000568 -0.0132738175 0.016178083
000320 f1 ca 84 bd d1 18 4b bc ad 93 6d bd 71 e3 85 bd
       -0.064840205 -0.012396053 -0.058002163 -0.06537522
000330 09 a3 88 bd 0b a2 a5 3c 4a 41 8c 3d ef 55 2a 3c
       -0.066717215 0.02021887 0.068483904 0.010396465
000340 33 5b 37 3d 63 ce 04 3d d6 07 84 bc 27 3f 43 3d
       0.04476471 0.03242339 -0.016117018 0.04766765
000350 3f 07 80 3d e2 f6 1e 3d 88 f3 e2 3d 60 50 52 3c
       0.06251382 0.038809665 0.11081606 0.012836546
000360 f0 b3 8e 3c ea b6 b1 3d b6 97 95 3c da fd 79 bd
       0.017419785 0.08677466 0.018260818 -0.061033107
000370 3f 4b 60 bd d7 c3 d7 3b 9f 7e fe bc eb 5f b0 bd
       -0.05475926 0.006584625 -0.031066237 -0.08612045
000380 48 2e 62 bd ea 06 3e bd a3 6d 35 bd 84 8b c0 3d
       -0.05521992 -0.046393313 -0.04429401 0.094016105
000390 da 8d 7b 3d 7d 34 8f bc 32 30 a8 bb 3b f6 3c bd
       0.061414577 -0.017481083 -0.0051326985 -0.04613326
0003a0 24 d6 41 ba c8 87 a0 3d 9c b9 6c bd 52 0f aa bd
       -0.0007394275 0.07838398 -0.0577942 -0.08303703
0003b0 8f d3 b6 bd d7 0d 8c bd 50 76 8c bc 74 3b 93 bc
       -0.0892707 -0.06838577 -0.01714626 -0.017972685
0003c0 4d 88 d1 3c cd ab 12 3d 62 fd 9c 3d eb b4 a8 bd
       0.025577689 0.035808373 0.076655164 -0.08237632
0003d0 f1 0f 83 bd a9 20 b6 bd fa 67 8b 3d a6 06 e5 bc
       -0.06399525 -0.08892948 0.06806941 -0.027957272
0003e0 25 04 36 bd be 35 52 3c 8d a4 9a 3d 0e 0e ea bc
       -0.044437546 0.012830196 0.07550917 -0.028571155
0003f0 78 37 dc b9 4d 9d 60 3d c0 a3 10 bd a2 66 a2 3d
       -0.00042002997 0.054837514 -0.035312414 0.07929732

actor.pi_net.fcs.1.bias f4 [128]
000000 b6 0a e0 3b ce 70 3b 3c 0d 13 c5 bc e6 97 a4 bc
       0.0068372143 0.011440469 -0.024056936 -0.020091962
000010 a2 5d 18 bd 8d 9e a4 bd 38 59 0c 3d d5 fb d6 3c
       -0.03719867 -0.08038054 0.034264773 0.02624313
000020 c3 53 70 bd 4e 51 30 bc 6d d6 1a bc e8 d8 60 3c
       -0.05867363 -0.010761572 -0.009450537 0.0137235895
000030 ab e4 89 bb 54 ab 00 3d d7 1b 98 3b e0 af 66 bc
       -0.0042081675 0.03141339 0.0046419906 -0.014080018
000040 6c 01 25 bb e9 18 86 3c 67 36 1c bd ae 21 27 bc
       -0.002517785 0.0163693 -0.03813782 -0.010200901
000050 39 8e 1d 3c 33 a8 59 3d b4 a1 87 3c 3a cd b5 3c
       0.009616428 0.053138923 0.016556598 0.022192586
000060 56 b2 55 3d aa e4 b5 3d 53 4c 10 3d ca 4d 1b 3d
       0.052172028 0.08881505 0.03522904 0.037915982
000070 0e 22 30 bd ab 46 6f 3b 1b f1 63 bd 61 03 b9 bc
       -0.043001227 0.0036510627 -0.055649858 -0.022584619
000080 d0 50 85 3b 97 f2 c2 bc c3 9d 8e bd 9c 26 b4 bd
       0.0040684715 -0.023797316 -0.069636844 -0.08796427
000090 b8 8a bc bc 22 5f ce 3c 6d 4f 44 3d 61 83 f2 bc
       -0.023015365 0.025191847 0.04792731 -0.029603662
0000a0 48 b3 9a 3c 51 40 32 bd ae f1 91 bd b8 da 1e 3d
       0.018884316 -0.04351837 -0.07126175 0.038782805
0000b0 8a 46 38 bd 05 26 a6 3c 58 58 0b 3d 45 be 0b bd
       -0.044989146 0.020281801 0.034019798 -0.034117002
0000c0 70 df 9d 3c 2f 72 1f 3d d2 60 1b bd aa 83 9d 3a
       0.019271582 0.038927253 -0.037934132 0.0012017388
0000d0 7f 60 47 bc d8 42 db ba 0f 27 c7 bc d2 b0 cb bc
       -0.012169003 -0.0016728295 -0.024310617 -0.024864588
0000e0 f3 7e 2d 3c 62 b4 3b 3d 9d ec 0d 3d 5a f7 da 3c
       0.010589349 0.045826323 0.03464948 0.026729275
0000f0 13 77 38 bd e0 ba 1b 3b 06 a6 18 3d 47 3f d3 bc
       -0.045035433 0.002376251 0.037267707 -0.025787009
000100 04 c6 ca bb d8 4e 98 bd 09 18 29 bc 08 cb 57 bd
       -0.006188156 -0.07436913 -0.010320672 -0.05268386
000110 bd 8e fe 3c ec 4c 6c 3b 43 bc 81 3c 59 c4 3c 3d
       0.031073922 0.0036056591 0.01583684 0.04608569
000120 72 6a 08 bd e7 8e 3c 3d 51 29 d4 3c 67 2f 6d bc
       -0.03330464 0.04603472 0.025898607 -0.014476634
000130 2f 73 b8 bc 45 0a 4a 3c 39 89 8b bc ee 22 01 3c
       -0.022515861 0.01233155 -0.017033206 0.007881863
000140 ee 7a 6d bd 14 5e 7c bd 89 05 3a 3c 37 f6 bc bc
       -0.057978563 -0.061613157 0.011353859 -0.023066623
000150 9c 9a 53 bd c2 8b 5f 3b c1 56 13 3d 67 b2 f2 3c
       -0.05166112 0.0034110402 0.035971407 0.029626084
000160 20 f6 d2 3a 5b e8 0f bd 64 9c 5c bc a5 d3 15 3d
       0.001609508 -0.0351337 -0.013465021 0.036578793
000170 30 6a c0 bc bb 51 dc 3c f8 e8 d3 3c f4 ca 53 3d
       -0.023488134 0.02689444 0.025867924 0.051707223
000180 8d c0 73 3d d4 57 98 3b 06 84 1c 3c 8d c7 15 3d
       0.059509803 0.004649142 0.009552961 0.03656726
000190 e5 10 c3 bd 80 07 23 bd 96 00 25 3d 47 9f 17 3d
       -0.09524707 -0.039802074 0.040283762 0.037017133
0001a0 de a8 91 3c 58 a0 fb 3c 2d e2 19 3d 9b 45 cd 3c
       0.017780717 0.030716106 0.037569214 0.025057605
0001b0 71 65 65 3d 05 41 cb 3c 35 2c 58 bc 5e d4 63 3c
       0.056004945 0.024811277 -0.0131941335 0.013905613
0001c0 81 c3 9a bc d8 ce 0e 3c a0 61 4f 3d b6 09 00 3d
       -0.018892052 0.008716308 0.05063021 0.03125926
0001d0 5b af 59 bc 2b 75 63 bc ad 0f c6 bc 19 84 04 3d
       -0.013286437 -0.0138829155 -0.024177397 0.03235254
0001e0 d8 e4 b0 3c 48 aa b0 bc 72 74 45 3d 35 19 26 3d
       0.021593496 -0.021565571 0.048206754 0.040551383
0001f0 6c f5 49 3c 05 50 ad bc 85 a8 3d 3c c6 a8 a1 3c
       0.01232658 -0.02115632 0.011575823 0.019733798

actor.pi_net.fcs.2.weight f4 [2, 128]
000000 07 1c d1 3a 12 e9 a1 ba ce 03 84 3d a4 3d 24 ba
       0.0015953787 -0.0012352786 0.06446038 -0.00062652887
000010 b4 e3 4b 3a 18 14 5f bc 46 a0 3d 3b c5 2f ed bd
       0.0007777766 -0.013615631 0.0028934642 -0.11581377
000020 4a e8 ed 3a 27 b6 86 bb c0 ba 2f b9 57 02 4f ba
       0.0018150893 -0.0041110697 -0.0001675887 -0.0007896772
000030 e2 60 3c ba 0c 75 8a ba cd 83 ac 3b f3 23 d4 3a
       -0.00071860675 -0.0010563447 0.0052647353 0.001618503
000040 19 87 e8 3c 7c 25 74 ba 7c 38 9c bd e7 eb 20 bc
       0.028384732 -0.0009313447 -0.07627961 -0.0098218685
000050 53 d3 07 39 3c 9e 4d 3d 9b 09 d7 bb d3 6f 8e 3a
       0.00012953328 0.050199732 -0.0065624244 0.0010867066
000060 26 08 85 bc f0 a9 86 3d 80 41 4c b9 f8 6c 18 bb
       -0.016239237 0.06575382 -0.00019479357 -0.002325831
000070 1b a1 97 ba 4e 8b dc 3b 1a d0 85 bb c0 8e b2 b9
       -0.0011568399 0.0067304736 -0.0040836455 -0.00034057163
000080 fb 64 a4 3a f3 01 3d bd 05 c6 17 bd 0a dc 2f bd
       0.0012542302 -0.046144437 -0.03705408 -0.042934455
000090 f2 fa 9c 3a 2d d7 1b bd 2f 5e dc b9 02 d7 8c ba
       0.0011976643 -0.038047004 -0.00042031842 -0.001074523
0000a0 33 3f d4 3b 01 5a 44 bc a4 4c f6 bd cc 2a ea ba
       0.0064772605 -0.011984349 -0.12026337 -0.0017865538
0000b0 b2 25 43 ba 8c 34 84 b9 50 77 6b 39 fa 87 cc b9
       -0.00074442767 -0.00025216152 0.00022455794 -0.00039011223
0000c0 7c 67 19 b8 5f f9 a1 3c 2c 88 5c ba de 15 96 ba
       -3.657442e-05 0.01977223 -0.0008412625 -0.0011450609
0000d0 e2 d8 3e 3a 94 40 4b ba bb 99 b0 39 6d 13 c6 3a
       0.0007280243 -0.00077534583 0.00033683874 0.001511199
0000e0 20 39 05 bb 0b 09 8b 39 b0 9e 1c 3d 1e 2c 3c 3a
       -0.0020328239 0.00026518884 0.038237274 0.0007178205
0000f0 b2 a2 09 ba de c8 82 3b 2f 51 b7 39 8f f2 e9 38
       -0.0005250379 0.0039912304 0.00034964966 0.00011155486
000100 e5 56 f4 b9 0d c2 94 bd e4 74 00 be 61 79 75 bc
       -0.00046604048 -0.07263575 -0.1254459 -0.014982552
000110 2c c2 14 3c 1d 80 0e bb 32 59 f7 39 53 a6 16 3c
       0.009079497 -0.0021743842 0.00047177967 0.009194928
000120 52 43 c1 bb 71 0b 8b bd 9d 2a 2c ba a2 3f 08 bb
       -0.005897918 -0.06789292 -0.0006567629 -0.0020789881
000130 0a 2c 1f 3a 88 15 65 bb 9e 8c b3 39 20 ae 59 3c
       0.0006071931 -0.003495546 0.00034246308 0.013286144
000140 ca 2f 84 3b e3 6d 8e b8 9f ae 26 3a a5 a6 60 3c
       0.004034017 -6.791556e-05 0.0006358418 0.013711606
000150 a3 94 49 bc ce 16 03 3c de fe 0a b9 cf 64 77 3a
       -0.012303504 0.0080010425 -0.00013255651 0.0009437324
000160 a9 33 07 ba 31 30 4e bb 48 8d a4 39 05 07 34 3c
       -0.0005157539 -0.003146183 0.0003138578 0.010988002
000170 82 3d 92 38 c6 f3 97 b9 9b 55 cc bd 38 8b 54 3a
       6.973279e-05 -0.0002898259 -0.099772654 0.00081079034
000180 10 91 93 3c 80 7c 77 b7 9c 8c b5 37 68 39 3a 3c
       0.018013507 -1.4751335e-05 2.1642358e-05 0.011366226
000190 72 3a 40 bb 2f f6 0c bb db c1 da bb e6 6b 9f b9
       -0.002933171 -0.0021509042 -0.0066759414 -0.00030407234
0001a0 92 9a a1 bb 1c 15 94 ba 84 49 73 3b 31 29 9b ba
       -0.0049317563 -0.0011297795 0.0037122676 -0.0011837838
0001b0 1f 0a 9b 3c 50 e8 ca 39 ab 8e c1 b9 ee 4f 02 39
       0.018925725 0.0003870153 -0.00036918125 0.00012427542
0001c0 34 3a e1 bb 7b a8 99 ba d1 a2 55 3a c6 3b f4 38
       -0.0068733934 -0.0011723185 0.0008149567 0.0001164596
0001d0 43 78 80 ba 4d 71 a9 ba 6e 90 88 b9 31 88 5d 3b
       -0.0009801466 -0.0012927443 -0.0002604755 0.00338031
0001e0 34 da d5 3a 5e 94 89 3a d5 c1 15 3b c5 1b 89 b8
       0.001631564 0.0010496487 0.0022851129 -6.5378415e-05
0001f0 22 ac e9 bb f9 48 06 3d 38 1d 2a 3b c7 3d 67 3a
       -0.0071311155 0.032784436 0.0025957357 0.0008821156
000200 50 9b 03 bb 59 2b b7 3a 64 6a 9e 3d 5f 82 00 b9
       -0.0020081587 0.0013974711 0.07735136 -0.00012255598
000210 ff 5c 4b ba 94 a8 ff bb 2d a8 a0 ba 02 e7 3a 3d
       -0.0007757693 -0.0078020785 -0.0012257152 0.045630462
000220 f1 e0 87 3d 86 a8 22 ba db 05 b1 3c 0d 7f c7 3a
       0.06634701 -0.00062049215 0.021609237 0.0015220359
000230 9e da 90 3a a6 93 ba 3a 78 6e eb 39 97 65 b8 ba
       0.0011051481 0.0014234676 0.00044904999 -0.0014068362
000240 1a 98 b3 bc 97 0c 24 3a e0 c7 72 3c 20 cb d9 3a
       -0.021923114 0.00062579795 0.014818162 0.0016616322
000250 1c 05 08 3a 40 3d 0e bd c1 c9 01 3a fb 60 72 ba
       0.00051887496 -0.03472638 0.0004951023 -0.00092460186
000260 f4 da 41 bd 18 6a a8 bd 5b 4a d6 39 e0 23 ce 3a
       -0.04732795 -0.08223361 0.0004087266 0.0015727244
000270 44 9f b3 3a 65 bd 37 bb 95 0f 56 3a 1c d5 79 ba
       0.0013704081 -0.0028036472 0.0008165774 -0.0009530352
000280 dc 08 d0 ba 96 95 cc bc 49 a7 82 3c 16 3b 66 3a
       -0.0015871781 -0.024973672 0.015948908 0.0008782608
000290 0a 23 66 ba 3a 3b 28 bd 5b 2b ba 3a 64 6f 62 ba
       -0.0008779025 -0.041072108 0.0014203595 -0.00086378143
0002a0 c3 ca 10 3a 81 d0 24 3b ab a1 77 bd 2f 07 0e 3b
       0.0005523378 0.0025148692 -0.060456913 0.0021671762
0002b0 2c e9 ef 3a 72 5d 97 3a 60 5a 75 ba 3b 6f 65 3a
       0.0018303744 0.0011548235 -0.0009359475 0.00087522314
0002c0 63 4d 3c 3a c3 b5 33 bc 82 15 b3 3a c7 e6 c1 3a
       0.00071831624 -0.010968628 0.0013663026 0.0014793508
0002d0 a3 4e 13 3b 3e 9c 55 3a 62 55 00 3a ee 39 22 bb
       0.002247729 0.0008148587 0.00048955355 -0.0024753767
0002e0 53 2a 2f 3b 40 90 f4 b9 77 be 4b 3b 89 2f b3 ba
       0.0026728108 -0.0004664678 0.0031088868 -0.0013670783
0002f0 89 2b fc 39 6a d7 cf ba 28 6d 35 3a 6c b4 bb b9
       0.00048097622 -0.0015857045 0.00069208676 -0.00035801844
000300 56 5b 4d 3a 6e b0 75 3d 9a 41 2e bd 8e 8f 13 bd
       0.00078337395 0.05998271 -0.04254303 -0.036025576
000310 cc dc 06 bb 6c dd 8f b9 c2 d8 27 b8 9c 7b 1e bb
       -0.0020578383 -0.00027440058 -4.0017774e-05 -0.0024182564
000320 70 a7 7d ba 01 5e 9d bc 37 bf 62 3a ff 06 1b 3a
       -0.0009676134 -0.019209864 0.0008649709 0.0005913823
000330 18 7e b3 ba a7 fd 87 3a 61 bb 0f ba aa 83 40 bb
       -0.0013694195 0.0010375277 -0.0005482939 -0.0029375353
000340 51 46 b6 ba fd 08 4b 3a 65 88 b8 ba ff df b9 bb
       -0.0013906454 0.0007745175 -0.0014078735 -0.0056724544
000350 46 e9 81 bc 4c 95 bd 3c 98 12 22 b9 22 ce fd 38
       -0.015858304 0.02314248 -0.0001545645 0.00012102375
000360 96 d7 04 b8 61 35 e4 39 e3 70 b0 39 fa c1 d8 bd
       -3.1672032e-05 0.0004352732 0.00033653443 -0.10583873
000370 99 2e a1 39 1e 89 46 39 f3 5f a4 3d 92 c1 e7 38
       0.0003074303 0.00018933832 0.08026113 0.000110509936
000380 63 e4 3d bc 80 3c 76 ba 2a de 69 b8 28 ed 1d bb
       -0.011590096 -0.00093931705 -5.5758435e-05 -0.0024097655
000390 dc b8 a7 37 39 97 a4 3d 3c bf 0d b9 0a a7 ea 39
       1.9994033e-05 0.08036656 -0.00013518048 0.00044756412
0003a0 e8 6e a6 39 b0 66 9f 3a c4 28 37 3a 0d 52 a7 3a
       0.0003174462 0.001216134 0.00069869705 0.0012765542
0003b0 8c c3 81 3b 67 b5 4c ba 59 0c 84 b9 5e ba 88 39
       0.0039600786 -0.00078090135 -0.00025186202 0.00026078796
0003c0 d8 33 f6 b8 cf 36 83 3a d3 8b 5a ba d1 52 29 ba
       -0.00011739851 0.0010010841 -0.00083368755 -0.0006459179
0003d0 1a 50 cb 3a da 1c 82 39 bf 35 09 3a 11 09 52 3a
       0.0015511543 0.00024817028 0.0005234144 0.0008012215
0003e0 21 24 46 ba a6 d6 91 ba 08 df 28 3e 4e 52 5d 39
       -0.0007558484 -0.0011126592 0.1649133 0.00021106863
0003f0 d5 64 3b 3b 26 6b 0c bd 56 7d 2f ba d5 31 4d ba
       0.0028594036 -0.034281872 -0.0006694397 -0.0007827555

actor.pi_net.fcs.2.bias f4 [2]
000000 d9 06 8b bd e3 7d 0b 3d
       -0.067884155 0.0340556

critic.v_net.fcs.0.weight f4 [128, 12]
000000 ae 71 17 bd ef 1e b6 be 0b 94 b3 3c c1 61 06 3f
       -0.036973648 -0.35570475 0.021921178 0.5249291
000010 35 2a 5d bf b8 ed 59 bd 7d 06 3f be fa 1f 2d be
       -0.8639253 -0.053205222 -0.18654819 -0.1690673
000020 3f 13 16 be 02 87 97 bc 14 b8 75 3d 97 3d dc bd
       -0.1465578 -0.018496994 0.059990004 -0.10753935
000030 e1 76 e2 be f2 66 12 3f b6 91 6b 3e 57 0a 38 3f
       -0.44231322 0.5718833 0.23004803 0.7189078
000040 1b 9d 27 be 38 7b ec bd 12 16 04 be f2 0e 88 3d
       -0.16368525 -0.115469396 -0.12899044 0.066434756
000050 ec 5a c0 be 82 17 3e be ff f4 64 3e 43 47 10 3e
       -0.37569368 -0.18563655 0.22359084 0.14089684
000060 bb 90 54 be 50 12 95 3e 2c 8d fc be e3 03 9a be
       -0.20758335 0.29115534 -0.49326456 -0.3008109
000070 df 9b 9b be b8 b9 66 be 57 af 52 be f9 c6 e6 bd
       -0.30392358 -0.22531784 -0.205747 -0.1126842
000080 08 9b ba 3e 9b b2 6c 3d 0c 3c 8e 3e 51 4f 4e 3e
       0.36446404 0.05778752 0.27780187 0.20147444
000090 fd 73 b6 3e 9a b3 cb bd a6 1e ad be 41 f2 6a be
       0.35635367 -0.09946366 -0.33812445 -0.22943975
0000a0 af db 2a bf 7b 40 2d 3d 11 30 9c bd a6 e6 82 be
       -0.6674146 0.04229782 -0.076263554 -0.25566596
0000b0 da 62 56 3e e5 31 d8 3d 4d ea 6b bd c0 aa 15 be
       0.20936146 0.105563916 -0.057596494 -0.14615917
0000c0 7e 4a 46 bd 27 a8 76 be 23 91 c2 3e 2c a4 17 be
       -0.048410885 -0.24087583 0.38001356 -0.1480872
0000d0 b2 b7 a4 be 6c 5c e0 bc 8c 1e 81 bd 4b 68 58 3e
       -0.32171398 -0.02738782 -0.063046545 0.21133535
0000e0 91 21 91 be 28 ff 44 3e ba 79 2e 3e bb 18 2b 3e
       -0.28345922 0.1923796 0.17038622 0.16708653
0000f0 c0 fe 39 bf 99 9d a4 be fd 0f 36 be fa a4 68 be
       -0.7265434 -0.32151487 -0.17779537 -0.22719184
000100 e3 4e 0b bf 90 b7 1f be 73 8c 72 be 63 15 6b 3e
       -0.54417247 -0.15597367 -0.2368639 0.22957377
000110 4d 5e a3 be 03 fb 87 be 81 c3 96 3c ec db 77 3e
       -0.31907883 -0.26558694 0.01840377 0.24204987
000120 a7 a9 d3 3e 2f e9 d1 3e 51 8d 20 be e4 84 24 3e
       0.41340372 0.40998217 -0.15678908 0.16066319
000130 34 3f 7f 3f fe bb fd 3d be 57 4d bc 9f 2b 42 be
       0.99705815 0.12389372 -0.012533126 -0.18961953
000140 7d c3 9b 3e 5f e5 3f be 61 94 cb bd 6b e7 3c be
       0.30422583 -0.18739842 -0.099404104 -0.18447654
000150 38 7b 1f 3f 20 09 04 3f 29 b9 84 bc 77 75 b6 bd
       0.6229739 0.51576424 -0.016201572 -0.089091234
000160 a1 c8 73 3f 05 a4 9e bc 86 0d 8a 3d 51 d8 4a be
       0.9522801 -0.01936532 0.06740861 -0.1980908
000170 9c 50 77 3e eb 92 fb 3c ab 56 5a 3e 11 5a 99 3d
       0.24151844 0.030709704 0.21322124 0.07487882
000180 da fa 2e 3f c2 aa 66 be f2 cc 57 be 3e a0 6e 3e
       0.6835152 -0.22526076 -0.21074274 0.23303315
000190 3b b3 28 bf ce 23 17 bd 10 d2 93 3c 9a c6 72 3c
       -0.65898484 -0.03689938 0.018044502 0.014817858
0001a0 a8 0b a1 3e 16 f9 db 3d 58 fd 42 bd 89 95 1c 3d
       0.31454206 0.10740869 -0.04760489 0.038228545
0001b0 2d 2a 27 3f 51 a6 ac 3e 4b 9a 48 3e 7d 95 d6 be
       0.6529873 0.3372064 0.19590108 -0.41910926
0001c0 f1 8e 38 bf 97 39 49 be 1f 36 0e 3d 44 98 09 3e
       -0.7209311 -0.19650875 0.034719583 0.13436991
0001d0 66 ac 8a 3e 00 be 77 be 3b be 40 bd f2 2f 63 be
       0.27084655 -0.24193573 -0.047056418 -0.22186258
0001e0 42 56 b1 bb 88 36 ee 3d d6 15 ef be 3f 9d 87 bd
       -0.005411894 0.11631495 -0.46696347 -0.06621789
0001f0 74 53 59 3f da 93 43 3d f9 8d 2e be dc fd 48 3e
       0.84892964 0.047748424 -0.17046346 0.1962809
000200 9c 4f e9 3e 7d 67 93 3d 5f c0 04 be 1c 8f 18 be
       0.4556855 0.07197473 -0.12964009 -0.14898342
000210 3b b0 6a be b9 71 54 bb 14 14 0c be fa 3c 4f bf
       -0.22918789 -0.0032416417 -0.13679534 -0.8095242
000220 e5 44 1e bf f1 6b 04 3e b7 ad 20 3e 28 c6 c9 bd
       -0.61823875 0.12931801 0.15691267 -0.098522484
000230 01 51 26 3d d9 ea 41 3d 86 e5 8f 3e 0a 59 92 3e
       0.040604595 0.04734311 0.281048 0.28583556
000240 cd 32 02 bf 58 54 99 be 5f 17 4d 3e bf a9 d3 be
       -0.50858766 -0.29947162 0.20028447 -0.41340443
000250 66 1f 6c bf e1 c5 d3 bd 21 7b 09 bd 12 02 45 bd
       -0.9223541 -0.10340477 -0.03356469 -0.048097678
000260 d8 7c 10 be 65 28 4a 3e e3 5d c4 3b e4 89 f7 bc
       -0.14110124 0.19741972 0.0059926375 -0.030217119
000270 99 ec 3c bf 76 2c 4d be 8b 01 4c 3e 8a 2b c5 3e
       -0.7379852 -0.20036492 0.19922464 0.3850978
000280 b9 fb 87 be c4 02 fb bc 1a f7 c4 3c 97 31 24 3d
       -0.26559237 -0.030640967 0.024043608 0.040086355
000290 59 ac c2 be fd 82 69 bd 15 cb 6f be 0d ba 15 be
       -0.38022116 -0.057009686 -0.23417313 -0.14621754
0002a0 06 18 12 bf 7d fb af be 20 96 d4 3d 8a 08 6a be
       -0.57067907 -0.34371558 0.103801966 -0.2285482
0002b0 62 d5 fc be 9c 1c 5e be 97 7a db bd 39 33 01 be
       -0.49381548 -0.21690601 -0.107167415 -0.12617196
0002c0 92 88 dd 3e b7 e4 4e 3e 9a 77 15 3d dc b0 84 3e
       0.43268257 0.20204435 0.036491014 0.25916183
0002d0 36 2f b2 bd d2 e4 e3 3e 91 c6 d3 3d 54 6e a7 3d
       -0.08700411 0.44510514 0.10340608 0.0817534
0002e0 6a 54 3c bf bf eb 41 be e1 03 7c be db 6e ea bd
       -0.73566306 -0.18937586 -0.24610855 -0.11446925
0002f0 7a 95 73 be cd d7 3d be 62 a1 dc bc 4c 17 85 3d
       -0.2378749 -0.18539353 -0.026932422 0.06498584
000300 55 b4 f0 be f5 f8 3e 3e 19 90 82 bd 6d cb 37 3f
       -0.47012582 0.18649657 -0.06375141 0.7179478
000310 0c 00 b2 3f 94 31 bd bd 5b 03 3f be 76 16 fc bd
       1.3906264 -0.09237972 -0.18653624 -0.123089716
000320 2a b2 12 3e 49 d5 25 be bf d2 5c be b4 da 53 3e
       0.14325777 -0.16194643 -0.21564768 0.20688897
000330 a5 84 24 3f 89 2a 51 be 1f a6 93 3e 51 2e 3b 3d
       0.642649 -0.20426382 0.28837678 0.045698468
000340 54 c2 7c bf 68 83 7f be 8b 56 c2 bd 3e 63 56 bd
       -0.9873402 -0.24952471 -0.09489163 -0.05234074
000350 e5 0f 5d 3e b6 34 be bd 97 3e 00 bc 4c 9f 87 3e
       0.21588095 -0.092873976 -0.007827423 0.2648872
000360 23 f4 36 3e 09 bc cf be 44 71 51 bd 2d 9d 6d 3f
       0.17866568 -0.40573147 -0.05113341 0.92817956
000370 6b cd 0b bf 97 78 cf bb 5c 0b 40 3d 27 0b e6 bd
       -0.5461032 -0.006331514 0.046885833 -0.11232596
000380 56 60 ce bd e6 95 d1 3d ad e5 2d bd 94 2f 64 bc
       -0.10076968 0.10233669 -0.042455364 -0.013927359
000390 0c cb 11 bf 9e 20 06 3f ac b5 f4 3d aa 2c 4e 3c
       -0.5695045 0.5239352 0.11948714 0.012583891
0003a0 d0 1a a7 3e 70 b0 9f 3d e5 27 4d be 1d c0 31 bd
       0.32637644 0.07797325 -0.2003475 -0.043396104
0003b0 09 b6 a5 3e 0e ee 09 be b0 95 3f be 44 a1 1e 3e
       0.32365444 -0.13469717 -0.18709445 0.15491205
0003c0 f5 6f 43 bf 6a 12 44 3e ff ad f1 3e 0e de 40 3d
       -0.7634271 0.1914765 0.4720306 0.047086768
0003d0 6b 00 1c 3f e6 d2 0c bc ac 93 2e bd 5c 73 1f be
       0.6093814 -0.008595204 -0.0426213 -0.1557135
0003e0 f1 12 83 3e d6 9a df 3c eb fb f3 bc f1 92 2b 3e
       0.2560039 0.027295511 -0.02978321 0.16755272
0003f0 21 49 3f 3f 56 56 0e 3e 7f 56 dc be 57 f4 fa be
       0.7472096 0.13900122 -0.4303474 -0.49014542

critic.v_net.fcs.0.bias f4 [128]
000000 34 87 b9 3e 85 ff 77 bc b5 5c c8 3e 33 58 5b 3d
       0.36235964 -0.015136604 0.3913323 0.05355091
000010 1f 42 80 be 99 a2 18 be 3f 6a 44 bd c3 83 78 3e
       -0.25050446 -0.14905776 -0.047952887 0.24269013
000020 5d 3a d8 3e ec cc f1 3e 22 ba 21 3e 72 28 8d 3c
       0.42232028 0.47226655 0.1579366 0.0172312
000030 9a b8 ea 3d 0a f9 a4 be f9 cf 9f 3c 1c 14 3c be
       0.11460991 -0.32221252 0.019508349 -0.18367046
000040 21 33 11 3e 26 02 b9 3e e2 52 03 3e 8a d7 9f 3e
       0.1417966 0.36134452 0.12824586 0.3121913
000050 ca db c8 3e de 22 d8 be 51 1a 6c be e0 15 b4 3d
       0.39230186 -0.42214102 -0.23056914 0.08793235
000060 01 e8 72 3e 8d 2e 90 bd fe 2c af be c0 f9 ce be
       0.23721315 -0.07040129 -0.34214014 -0.4042492
000070 6a ff 00 3e 40 d2 fe 3d e4 d4 ac 3d 51 a7 f4 bd
       0.12597433 0.12442446 0.08439043 -0.119459756
000080 3a 31 b1 bd 96 99 91 3e 56 43 af 3d 4e 97 ec 3d
       -0.08651967 0.2843749 0.08557765 0.115522966
000090 17 a8 5b 3e d4 b5 c9 bd 22 12 99 bd c3 c0 93 3d
       0.2145084 -0.09849134 -0.07474162 0.07214501
0000a0 82 71 ad 3e d4 5f e5 be a1 0a c9 3e ea c8 bb 3e
       0.33875662 -0.44799674 0.39265922 0.36676723
0000b0 db d4 11 bd 60 cd 3a be c2 52 3f 3d eb 33 a1 3e
       -0.035603385 -0.18242407 0.046709783 0.31484923
0000c0 69 74 aa 3d ab a7 c3 3d 93 5f de 3d ac 75 9c bd
       0.08322985 0.095534645 0.10858073 -0.07639632
0000d0 c7 2f ea bd 2b ac 2d be ff 15 a2 bc 28 d8 99 be
       -0.11434894 -0.16960208 -0.01978588 -0.30047727
0000e0 38 fc c4 bd 7b e8 c7 be c7 bc 4e 3e 7f d0 5c 3e
       -0.096184194 -0.39044556 0.201892 0.2156391
0000f0 93 1b d6 be 1a b9 8f 3e 23 0d 6f 3d fd ff 91 3e
       -0.41817912 0.2807091 0.058362138 0.28515616
000100 d6 29 b8 3e d5 c6 43 3e 84 aa a4 3e 70 dd 08 be
       0.35969418 0.19118817 0.32161343 -0.13365722
000110 03 9a 8e be 66 c9 a7 3e da 35 f0 be db 61 c1 3e
       -0.27851877 0.32770842 -0.46916085 0.3776997
000120 b6 a3 b1 3e a3 04 a0 3e f8 7f 81 bd 96 f6 d2 be
       0.34695214 0.31253538 -0.06323236 -0.41203755
000130 a3 33 15 3e d1 33 ac be 6d 7a 82 bd 0a ed 99 3e
       0.14570479 -0.33633283 -0.06371007 0.3006366
000140 ed 91 85 be f4 13 aa be d9 20 34 3e 5d ab a6 be
       -0.26087895 -0.33218348 0.17590655 -0.32552615
000150 ef 53 c0 3e 41 61 52 bd 6e c2 62 3d d6 38 37 be
       0.37564036 -0.05136228 0.055361204 -0.17892775
000160 30 b7 88 be 5d 37 99 bd ad be 4f be b9 9e 65 bd
       -0.2670226 -0.07481263 -0.20287581 -0.056059573
000170 fc ab a5 3e 53 c2 64 be 17 92 08 3e e2 e3 52 be
       0.32357776 -0.22339754 0.13336979 -0.20594743
000180 3d 65 e0 be 53 ab 81 bd 67 e2 4e bd 71 db 76 3e
       -0.4382724 -0.063315056 -0.050508883 0.24107148
000190 6c a7 01 bb ef 98 b1 be c9 82 69 3e 7a 21 14 3e
       -0.001978363 -0.34686992 0.22803797 0.14465895
0001a0 27 c9 07 be 8e 1e b4 bd 50 95 f5 be cc f3 35 3e
       -0.13260327 -0.0879489 -0.4796548 0.17768782
0001b0 8b 9d a1 3e 79 b8 b9 3e 3c 27 b9 be 32 10 fb 3d
       0.31565508 0.36273554 -0.36162746 0.122589484
0001c0 50 bc 9a bd 80 24 2e be 9f 58 b9 3e 87 1d 7c be
       -0.07555449 -0.17006111 0.36200425 -0.24620639
0001d0 12 99 63 3e 75 1c db 3e 20 bd a4 be f7 82 89 3e
       0.2222636 0.42795148 -0.3217554 0.2685773
0001e0 d6 8d 51 be 34 6c ef bc 0b 56 bf 3d b2 dc 24 bd
       -0.20464262 -0.0292264 0.09342583 -0.040249534
0001f0 95 3a 9f be 3e 02 08 3e c3 f9 e6 be 04 ad d3 3e
       -0.31099382 0.13282105 -0.45112428 0.41342938

critic.v_net.fcs.1.weight f4 [128, 128]
000000 fc c9 de 3c b6 b0 88 3e 8b ec 07 3d b4 f5 23 be
       0.027195923 0.2669732 0.03318457 -0.16011697
000010 fa 4d 2a 3e 35 43 ae 3e 4e 9f 1f be 1e 97 1c bf
       0.16631308 0.3403565 -0.15588114 -0.61168087
000020 55 c7 20 be d8 2f 00 bf 43 59 26 be 42 33 f1 3d
       -0.15701039 -0.50073004 -0.16244988 0.11777355
000030 a6 1a 84 3e 16 a2 08 3f a1 d6 9f 3d 8b 52 18 3e
       0.2580158 0.53372324 0.07804609 0.14875238
000040 3c de 9c 3d cf 24 4e be e1 af 04 3e 9c 8f 04 be
       0.07659575 -0.20131229 0.12957717 -0.12945408
000050 af 28 24 bd 43 a2 30 3d 5e 9f 90 3d f3 2d 88 be
       -0.04007786 0.043123495 0.07061647 -0.26597556
000060 9a d7 e0 bd 9a e4 b3 3e 85 59 ed 3d ca ee 94 3e
       -0.10978623 0.35135347 0.1158934 0.29088432
000070 06 7b 81 be ba 3a fe bd 6b ad 6d bd 70 69 57 3e
       -0.25289172 -0.12413545 -0.058026712 0.21036315
000080 9c 5a 02 3e 9e 25 d1 3d 21 94 57 be c0 74 06 3e
       0.12729877 0.10212253 -0.210526 0.13130474
000090 4d 51 13 3e 79 d8 e2 bc 3c da 1d be c3 f2 50 3e
       0.14386483 -0.027691113 -0.15415281 0.20405106
0000a0 50 50 83 be bf 90 1e 3e f9 f9 a0 be 17 b5 86 be
       -0.2564721 0.15484904 -0.31440714 -0.26310036
0000b0 d3 4e 5b be af db 73 3e 5d 42 d7 3d 40 05 36 3e
       -0.21416788 0.23814271 0.10510705 0.1777544
0000c0 0c b1 41 be 68 1e a9 bd fd b9 c6 3e 7d ab fb 3e
       -0.18915194 -0.08257753 0.38813773 0.49154273
0000d0 6e 5b 82 be 81 82 cc be 43 95 bf be 4d 3c c9 3d
       -0.2546038 -0.39943317 -0.37418565 0.098259546
0000e0 98 14 bd 3d 29 ea e2 3e e8 61 b7 bc 27 06 b8 3a
       0.092324436 0.44319275 -0.022385553 0.001403992
0000f0 67 97 12 3e 26 cc 47 3e 26 3c 8c 3d 3b 1d 66 bd
       0.14315568 0.1951147 0.0684741 -0.05618022
000100 da 66 cf bb 5f 37 87 be fd 37 46 3d da 9d 74 bd
       -0.0063293995 -0.26409432 0.04839324 -0.05972085
000110 a5 37 80 bd 43 b7 9d bc 33 29 67 3d 52 f1 90 bb
       -0.06260613 -0.019252425 0.056435775 -0.004423299
000120 2f 0a 8d bd 82 b0 eb be 32 fc 3e be ee a5 3b be
       -0.06886708 -0.46033102 -0.18650892 -0.18325016
000130 35 29 9d 3e 96 e6 d0 bd 64 07 42 3e a7 e9 43 be
       0.306955 -0.10200231 0.18948132 -0.191321
000140 25 ff 61 3c aa e3 56 bc 59 4a 94 be 4d a6 d0 3d
       0.013793741 -0.013115803 -0.28962973 0.10187969
000150 ac 1d cf be 0c 4c 5a 3e 94 74 83 be e3 50 ce 3c
       -0.40452325 0.21318072 -0.2567488 0.025185054
000160 d2 47 d5 3e 1f 11 25 3e e4 53 73 3e 88 f7 b0 be
       0.41656357 0.16119812 0.2376247 -0.3456385
000170 ad 3c ab be 24 85 8f 3e 2e 22 99 3d b5 cd c7 3e
       -0.3344473 0.28031266 0.074772224 0.3902413
000180 c9 33 26 3e 8e 90 ba be bb 7f c4 3e 5c 02 8f bd
       0.16230692 -0.3643841 0.383787 -0.06982872
000190 f3 d5 cc 3e 07 51 fa 3d b5 af b9 3e de 03 79 3e
       0.4000698 0.12222486 0.36266866 0.24317881
0001a0 79 c0 3c be 68 f9 55 3c b6 75 a6 3d a1 55 c9 bd
       -0.18432797 0.013059951 0.0812792 -0.098307855
0001b0 42 ae 49 bf c9 5c 65 be 7e da 64 3e 1a 5f ff 3d
       -0.7878152 -0.22398676 0.22348973 0.12469311
0001c0 6b 1c 65 be a8 3f 16 3f a1 83 65 be 4e 4c 70 3e
       -0.22374122 0.5869088 -0.22413494 0.23466608
0001d0 93 31 2b bd a6 2e 99 3b c1 c8 cf 3e d4 6c 4d bd
       -0.041795325 0.0046747504 0.4058285 -0.050152615
0001e0 f7 b6 8a bd bc 31 ab be 80 97 bc be df 21 07 3f
       -0.06773179 -0.33436382 -0.36834335 0.5278606
0001f0 d1 8b cd 3e ea 43 f1 bd 87 63 11 3e 12 4d c7 3e
       0.40145734 -0.11780532 0.14198123 0.38925987
000200 59 5f 07 bd 8b ce fa 3e bc e8 9d be e0 0e 21 be
       -0.033049915 0.48985705 -0.30841625 -0.1572833
000210 80 4b 78 3d a1 2d 8b be ac 91 35 3e ac bf e3 3e
       0.060618877 -0.2718325 0.1773135 0.44482172
000220 91 79 9b 3b 35 70 7b 3e d5 1b 99 be d7 54 2b be
       0.0047447165 0.24554522 -0.29904047 -0.16731583
000230 49 2b 0f 3e ff a6 eb bd f9 3d c9 3d 3a ae db 3c
       0.13981356 -0.11506461 0.098262735 0.026816476
000240 c2 be 92 bd 19 91 10 3d cd af 38 bd 82 f7 e2 3d
       -0.071652904 0.035294626 -0.04508953 0.110823646
000250 57 4d be 3e a8 cc a3 be 93 4b 69 3e f2 a1 ab be
       0.3716838 -0.31992078 0.22782736 -0.33521992
000260 31 dd 57 3e 85 de de be b6 ba 6f be 03 03 9d bc
       0.21080472 -0.43529144 -0.23411068 -0.019166475
000270 11 b3 8c 3e 36 44 bb be a9 ee 96 3e c7 21 33 be
       0.27480367 -0.36575478 0.29478958 -0.17493354
000280 10 1f f4 be 33 9f 0e 3e 1c 41 17 3e 5a 93 ca 3c
       -0.4767995 0.13927917 0.14770931 0.024728466
000290 fd e7 1c bf fa d7 41 3e 1d 81 3e 3e 2c c4 b1 bd
       -0.61291486 0.18930045 0.1860394 -0.08679995
0002a0 07 62 42 3e a1 a8 55 be a1 f4 dd bd d4 d7 a9 bd
       0.18982707 -0.20865108 -0.10837675 -0.08293119
0002b0 56 aa 2c 3e a9 3c 97 be 09 63 31 be b1 47 e1 be
       0.16861853 -0.29538468 -0.17322935 -0.4400001
0002c0 45 0e 6c be 87 90 72 3c 06 de 98 bd 83 5e 7e be
       -0.23052318 0.014804966 -0.074642226 -0.24840741
0002d0 1d 62 db 3e 55 de 9f 3e 55 74 83 3e 47 18 cf bd
       0.42848292 0.31224313 0.25674692 -0.101120524
0002e0 14 ac 5a be 30 02 54 be 19 1c 05 be ba bd 06 be
       -0.21354705 -0.2070396 -0.12999 -0.13158312
0002f0 1f 61 32 be 26 7a af be cd 9f 5b be 4e 0b 0e be
       -0.17419861 -0.3427288 -0.21447678 -0.138715
000300 21 41 b3 3d d6 97 61 3e 68 9c 85 39 29 15 b9 3e
       0.08752657 0.22030577 0.0002548427 0.36148956
000310 1d 27 82 3e 6f e5 0c be f3 af a8 be b5 45 44 3e
       0.25420466 -0.13759397 -0.3294674 0.19167216
000320 18 48 b2 bc 26 9c 6b be 80 2d 12 bd 70 f5 c8 bc
       -0.021762893 -0.23008785 -0.035687923 -0.024531096
000330 5c 96 1c 3e 57 1b dc 3e 61 31 33 be 76 88 f5 bd
       0.15291733 0.4298961 -0.17499305 -0.119889185
000340 e7 f6 53 be 36 26 c7 bd ad d3 e6 3e a7 f2 90 bd
       -0.20699655 -0.09724085 0.4508337 -0.07077532
000350 1d 21 51 3d 45 b6 77 be 50 80 47 3f f2 0b 68 be
       0.05105697 -0.24190624 0.77930164 -0.22660807
000360 34 4a f0 be 3f 6f d6 be 7a 38 cd bd 53 1f 3c 3e
       -0.46931612 -0.4188175 -0.10020538 0.18371324
000370 85 f7 71 3e b9 8f e4 bd 18 7a 0d be 76 ea 2e bf
       0.23629577 -0.111602254 -0.13816106 -0.6832651
000380 b5 14 18 be fe 21 aa 3e e8 81 92 be d2 82 aa be
       -0.14851649 0.3322906 -0.28614736 -0.33302933
000390 59 fb 10 bf 7f 36 65 be 95 cb b8 be a3 86 b8 bd
       -0.56633526 -0.2238407 -0.3609282 -0.09010055
0003a0 8d b6 99 3d 7d 94 ea bd 26 46 b3 3e 09 7f 11 bf
       0.07505522 -0.11454103 0.35014457 -0.56834465
0003b0 77 ac e3 3e 89 29 46 bd 67 ed ec be 36 f5 f2 bd
       0.44467518 -0.048379455 -0.46274874 -0.118631765
0003c0 b6 2f 2b 3e 54 3e a0 be 1f 04 93 3c fc 8a 21 3e
       0.16717419 -0.31297553 0.017946301 0.15775675
0003d0 de 1f a2 be 79 97 96 be 78 e7 9c be f6 41 10 bf
       -0.31664938 -0.2941244 -0.30645347 -0.5635065
0003e0 7f 08 6a 3d e9 00 36 bc ac 83 8d bd bb 4e 3b bd
       0.05713701 -0.011108615 -0.0690988 -0.04572938
0003f0 5b f8 90 3e d7 11 df 3e 4f 8c 8e be e6 b9 9c be
       0.2831448 0.43568298 -0.27841422 -0.3061058

critic.v_net.fcs.1.bias f4 [128]
000000 ed e0 c4 bd 61 31 d4 3d 65 99 d1 bd 7a a2 3c 3e
       -0.09613214 0.10360981 -0.10234336 0.18421355
000010 88 32 86 bd 8d 82 fc bc 98 9c c4 3d fb 2d 33 bc
       -0.06552607 -0.03082397 0.096001804 -0.010936256
000020 34 e9 54 be c6 85 0c 3d 0f 46 22 3e e7 8d cd 3d
       -0.20792085 0.034307264 0.15847038 0.10036831
000030 ae 7a 8b 3d f2 7e fe bd 77 04 59 be 42 b7 73 3d
       0.06810509 -0.12426557 -0.2119311 0.05950094
000040 10 91 e7 bd 97 db 20 be 34 f8 09 3c 3d f6 5d be
       -0.11306965 -0.15708767 0.008420993 -0.21675964
000050 5d df bf bc fc 0e 05 bd fe 7d 04 bd 7e a9 ba 3e
       -0.023421938 -0.032484993 -0.032346718 0.36457437
000060 1a ee bd 3e b5 8b 4a bd bc a0 50 be 55 96 74 3d
       0.3709572 -0.04944964 -0.20373815 0.05971368
000070 47 7a 02 3e a1 eb 9f 3d 8b e8 f7 bd 21 84 bf bc
       0.12741958 0.078086145 -0.12104901 -0.023378434
000080 a3 5c 2d bd 14 c7 0b 3e 11 b7 ba be 0b 0a 9a be
       -0.042324673 0.13650161 -0.36467794 -0.30085787
000090 b0 b7 6d be ad b8 34 bd 52 ec 3a be c5 e6 8f bd
       -0.23214602 -0.044121433 -0.18254212 -0.07026438
0000a0 b3 0a 07 3e 61 90 c3 bd ca fe af 3e 3f 98 4d bd
       0.13187675 -0.095490225 0.34374076 -0.05019402
0000b0 df 96 4e bc 81 5e 8f 3e c7 c5 6e bd a4 68 14 3e
       -0.012609213 0.28001788 -0.058294084 0.14493042
0000c0 3c 04 4c 3d 16 ab 35 3e 80 5c da 3d 8d e0 69 be
       0.049808726 0.17741045 0.10662174 -0.22839566
0000d0 f7 39 09 bd 4a 1c d2 3d 1d 34 48 be 47 f0 7d be
       -0.033502545 0.10259302 -0.1955113 -0.2479869
0000e0 fc 81 25 3e c1 94 33 3e ce 12 9e 3e 83 97 2d be
       0.16162866 0.17537214 0.30873722 -0.16952328
0000f0 17 06 28 be b2 97 22 3d 9b 30 9f bc a1 4b ea 3d
       -0.16408573 0.03969545 -0.019432357 0.11440206
000100 44 58 cb 3d d6 4c b3 bd 55 fa 12 3e a1 ae fd bd
       0.09928945 -0.0875489 0.14353307 -0.123868234
000110 ff 99 9d bc 90 f2 09 be 6c 8f 1d 3d 52 8c b3 bd
       -0.01923847 -0.13471437 0.038466856 -0.08766998
000120 d6 c1 47 bb 2d 05 26 3e 50 27 e6 3d ef 83 26 3e
       -0.0030480525 0.16212912 0.11237967 0.16261266
000130 96 f5 f5 3b bd e6 50 be d0 6f 04 3d 01 35 b9 3d
       0.0075060828 -0.2040052 0.032333195 0.09043313
000140 02 d6 a9 bc d3 c3 9f 3e 72 ed 46 3d 9c 22 77 3c
       -0.02073193 0.3120409 0.04856629 0.015083935
000150 f5 06 2a be 1d ec fa bc 35 36 8f be e9 7e c0 3e
       -0.16604216 -0.030630166 -0.27971044 0.37596825
000160 97 cd 82 bd 0b f7 c5 bc 1c 96 ee bc c1 00 3d 3b
       -0.063868694 -0.02416565 -0.029124312 0.002883956
000170 55 a1 2a 3e 76 61 bb be 2f 80 50 3d 2a 62 27 be
       0.16663106 -0.36597794 0.050903495 -0.1634604
000180 14 47 2b 3b 94 3c b2 be 72 77 cf 3d 0b cc 28 be
       0.0026134895 -0.34811842 0.10130204 -0.16484086
000190 2c 18 3b 3d f6 7a eb 3d 3e 7f 00 be e1 14 81 3d
       0.04567735 0.11498062 -0.12548539 0.063028105
0001a0 11 d9 fc 3d 92 af 6c 3d 9c 33 ac 3d c0 a3 3d be
       0.1234609 0.057784624 0.08408281 -0.18519497
0001b0 94 f3 1d bd ad 29 23 3e df 37 51 be 6b d6 2a 3d
       -0.038562372 0.15933867 -0.2043147 0.04170839
0001c0 c3 f8 94 be 77 c2 df bd 24 3c 95 be 10 93 22 3e
       -0.2909604 -0.10925763 -0.29147446 0.15876412
0001d0 c6 48 92 3e 2c a3 86 be 45 3a 2e 3d d6 99 ad bd
       0.28571147 -0.26296365 0.04253604 -0.084766075
0001e0 a7 08 88 3d 93 7c 95 bd b0 9a 87 be b4 da 2d be
       0.06642275 -0.07299151 -0.26485205 -0.1697796
0001f0 ba 7f 9b be 79 bb 21 3e 0d 73 a3 3e 04 62 27 be
       -0.30370885 0.15794171 0.31923714 -0.16345984
