examples/rl/models/ppo/ppo_model_quadrotor_3D_track.pt (torch, 519658 bytes, 36 tensors)

actor.logstd f4 [4]
00000000: 4f29 f0be 5353 12bf 4372 11bf 1a44 f9be
-0.46906516 -0.5715839 -0.56814975 -0.4868477

actor.pi_net.fcs.0.weight f4 [128, 24]
00000000: 14b1 283e af55 4abd dfcd bd3e c6f9 633e
00000010: b48f 9a3d a8e3 9abd e7f5 1bbf 5d3d 873e
00000020: c614 8bbe 3eac 483c 76da eb3c 2a35 0e3d
00000030: 2e9b 68be c052 87bb f45b 593d 598e ecbc
00000040: d08a 023e 807b 8abc f958 39be 4aa0 2f3e
00000050: 69f0 8d3d 386e c7bd 9600 40be f950 ee3d
00000060: 5774 e33d af2e 14bd 4fc0 353e 1bdc 1e3e
00000070: 8723 b0bd 8352 a7bc 4e57 03bf 08ae 0c3e
00000080: 4ee9 bbbe 425a fcbc 95a8 b63d 6b83 9f3b
00000090: 36e8 d23d b0be 58bd f24e c7bd 2fd4 9f3d
000000a0: 6d3b 9d3d d149 733d 8e3f 3cbe 1389 c23d
000000b0: 42af 1e3e 369c 273e 4dfc 2e3e 16b0 233d
000000c0: d708 3e3e 1409 323d be82 0c3e 5ccf 353d
000000d0: 79de 3f3a 71e2 cfbd 3340 813d 5d9d 093e
000000e0: 5776 293f 559b 8ebd 47f7 843c 3d7f 9d3e
000000f0: f9da 38be ac22 aebd 1727 04be 498a 8dbc
00000100: f68a 7abd 6cfa 2f3e 6b64 ba3c d997 be3d
00000110: 970a 1b3e 4872 07be b390 1f3e 026c d1bd
00000120: da84 b6bd a3bc a43d ef4c cf3e d3d8 9c3e
00000130: 99d5 2a3e 0af4 9a3e 8515 1ebf 1c4c 4bbe
00000140: 1715 14bc 8b43 023a b9fb 7bbd 5ca5 7d3d
00000150: 9ab8 d33d 831d d8bd dcc5 1bbe f2b7 22be
00000160: a23b e53c bd19 d1bc a500 02be 11b5 18bd
00000170: 4602 ccbd 7926 b83b 37bb 1abe 3f02 51bd
00000180: c53d 39be cff7 ffbd 9cb3 993e 6836 473e
00000190: 8364 d0bd f09a bfbe 885e 0ebf fa53 9dbe
000001a0: 3867 743e 1fd2 70bd 36d6 03be 206f 8b3d
000001b0: 55d9 f73d eac3 3d3d e324 f4bc 5c18 913d
000001c0: f9d5 31be 70b4 183e 8e10 c23d c694 133e
000001d0: 82d8 35be a0ec 02bd 6852 2e3e dfa1 093d
000001e0: 1d01 b3bd c0e8 a4bd f513 f5bc fc32 91bd
000001f0: 069a 85bd 4e9c 583e d3d3 8d3e 412a 4cbe
00000200: cf37 37be 8cd2 183d d4d7 86bd 6eaf a8bd
00000210: 6ded c9bb ee13 033e a0f2 e5bd a631 c83d
00000220: fb53 f33d f10f 11be bca7 023e 7ddb fabd
00000230: 6a54 2abe f2d2 433e 031b a8bd d3ac 8abd
00000240: 97fa 263e fb70 553e 2938 b93d 723c 59bd
00000250: b046 d9bc 4bab 04be f17b d7be b21b c73e
00000260: 5af2 87be a26f 0f3e 0195 b0bc 7410 4abe
00000270: cf10 2cbe 82e3 87be b6fe 19bd 2991 933d
00000280: 4200 4e3d 6df6 3b3e e2f2 1b3d 8d43 b33d
00000290: 7b26 3c3e c5cf f83c f322 0b3d 829f a9bd
000002a0: 6020 3a3c c85d 9f3d 9067 253d bedd 443e
000002b0: 667f 313e f3ea 573d 4554 48be 90d1 d8be
000002c0: 950c a4be 1726 98bd d4ab 21be d24e 25be
000002d0: e641 22be 5e39 febd af96 16be 12d6 3ebe
000002e0: b46e 053d 4f06 1c3d 8fab 1e3d 772c 033e
000002f0: 892f e43d 197b eabd 7dcb 8cbd 8930 993b
00000300: f405 a8bd e66d 98bd bc73 6ebd a124 80bd
00000310: a9d6 1e3e b18e 643e 645d b03d 79df 5dbe
00000320: bf96 93be eacc 093d 11a1 90bd 485b 9bbd
00000330: fdbc 8c3d c10a 8a3d 5875 693d 739e c13d
00000340: 85c1 1b3e 6709 21be 4472 3d3e 5514 5d3d
00000350: f536 4fbe 530d 503d 18ef 0fbe ea79 413e
00000360: ac9e 2b3e 5252 a1bd 2d0f 0a3d 3db9 b93d
00000370: a9bd f9bd bd5c 9c3d 87aa ffbe b7f6 c13e
00000380: 61f5 c53e e4b0 8dbb 0eac 09bb 37f3 063e
00000390: e57c 773d 61d5 213e 42ff c9bd 184f 95bd
000003a0: 3a0e ae3b 6d3f 9f3d c870 2fbe 3402 9cbd
000003b0: 1810 26be f312 403e dca8 8ebd 396f fb3d
000003c0: cc38 753c 51c8 30bd e2cc a03e 4e88 753e
000003d0: 3bab 483d 80bd dc3d 8e58 d8be a881 7bbe
000003e0: 289f 993e 7586 5fbe 1e7e e1bd 39af 10be
000003f0: 7719 13bc b0c8 683d 5f37 213d edf3 76be
0.164738 -0.04939812 0.3707113 0.2226325 0.075469404 -0.07562953 -0.6092209 0.26414004
-0.27164286 0.012248097 0.028790694 0.03471867 -0.22715446 -0.0041297376 0.05306621 -0.02887647
0.12748265 -0.016904593 -0.18100347 0.17150989 0.0693062 -0.097378194 -0.18750224 0.11636538
0.111061744 -0.036177333 0.17749141 0.15513651 -0.08600526 -0.020425087 -0.5130509 0.13738263
-0.36701435 -0.030804757 0.08918873 0.004867961 0.10298197 -0.05291623 -0.097318545 0.07804143
0.0767735 0.05939657 -0.18383619 0.09498801 0.15496543 0.16368183 0.17088433 0.03996285
0.1855806 0.04346569 0.13721749 0.044387206 0.0007319223 -0.10150612 0.06311073 0.13438936
0.661962 -0.06963221 0.016231192 0.30761138 -0.18052281 -0.08502707 -0.12905537 -0.017277854
-0.06116768 0.17185372 0.022752961 0.093063064 0.15140758 -0.13227189 0.15582542 -0.10225679
-0.08912058 0.08043792 0.40488383 0.30634174 0.16683044 0.30264312 -0.61751586 -0.19853252
-0.009038231 0.0004969171 -0.06151936 0.061925277 0.10337944 -0.10552504 -0.15212196 -0.15890482
0.027982537 -0.025524968 -0.12695558 -0.037282053 -0.09961371 0.0056198207 -0.1511048 -0.051027533
-0.1808997 -0.124984376 0.30019844 0.19454348 -0.10175421 -0.37422895 -0.55612993 -0.30728132
0.238675 -0.058794137 -0.12874684 0.06808305 0.12102 0.046329416 -0.029802745 0.07084724
-0.1736678 0.14912581 0.09475814 0.14412221 -0.17758372 -0.031963944 0.17023623 0.033601638
-0.08740447 -0.08052206 -0.029916743 -0.070898026 -0.06523518 0.21153376 0.27700672 -0.19937994
-0.17892383 0.03731017 -0.06584135 -0.082365856 -0.0061623366 0.12800571 -0.11227918 0.09775095
0.118812524 -0.14166237 0.12759298 -0.12248895 -0.16633764 0.19123438 -0.08208277 -0.06771245
0.1630653 0.2084388 0.09043915 -0.05303616 -0.026522964 -0.12955968 -0.42086747 0.38888317
-0.26552087 0.14007428 -0.021555426 -0.19732839 -0.16803287 -0.26540762 -0.037596427 0.072054215
0.050293215 0.18355723 0.038073428 0.08753119 0.18374054 0.03037251 0.033968877 -0.08282377
0.011360258 0.07781559 0.040381968 0.19225213 0.17333755 0.0527143 -0.19563396 -0.42347383
-0.3204085 -0.0742914 -0.15788203 -0.16143349 -0.15845451 -0.12413286 -0.14705919 -0.18636349
0.032576278 0.038091954 0.03873783 0.1280993 0.11141879 -0.1144926 -0.0687475 0.0046749753
-0.082042605 -0.074428365 -0.05821584 -0.062569864 0.15511574 0.22320057 0.08611563 -0.2166728
-0.28825948 0.033642687 -0.07061971 -0.0758577 0.06871984 0.067403324 0.056996673 0.0945405
0.1521054 -0.15726243 0.1850062 0.05397447 -0.20235808 0.050793957 -0.14056051 0.18894163
0.16759747 -0.078770295 0.03370588 0.090685345 -0.12194378 0.07634876 -0.4993479 0.3788354
0.38663772 -0.0043240655 -0.0021007094 0.13178717 0.060421843 0.15804054 -0.0986314 -0.072904766
0.0053117545 0.077757694 -0.17132866 -0.07617608 -0.16217077 0.18757229 -0.06965801 0.122770734
0.014967155 -0.043159787 0.31406313 0.23977777 0.048991423 0.10778332 -0.42255062 -0.24561179
0.3000424 -0.21828635 -0.11010383 -0.14129342 -0.008978239 0.056832016 0.039359447 -0.24116488

actor.pi_net.fcs.0.bias f4 [128]
00000000: cb68 6c3c f3f1 373a e5ab cc3b 0966 703c
00000010: f3c3 0d3e a1f1 463c b5dc a8bd c748 25be
00000020: 7385 41be 5c4d 923d 8b26 b63d 5561 2d3e
00000030: 1408 813d ae18 3c3e 158c 17be 9fc9 1a3e
00000040: 770c e53d 1974 463e 09e8 b23b bc21 10bd
00000050: f62d 93be d370 d63c 776b 64bd 0ab1 363e
00000060: 46cd a3bd d978 d7bd 3e42 a7bd c13e b7bd
00000070: 5743 19be b12f 433e 3b15 e73d 765d 87bd
00000080: e336 823d d003 0b3e 8d76 733e 6a00 643e
00000090: 41eb 923d 5913 5cbe becb 98bd 11ff f9bc
000000a0: 7bae 7bbc 721a 553d 15a4 873c 9ddb 5a3d
000000b0: 483c 30be 91f0 d2bd e38e 053e f819 c2bb
000000c0: e3cd 3ebe 157f 523e d0d2 893c f146 49bd
000000d0: 5a01 38be d52b 823d acef 0c3e 5db6 c3bd
000000e0: 273f 2cbc 817c 01bd 9ac7 333e 7f84 2f3d
000000f0: 816b 4ebe bdd4 85bd b540 4a3d 49d4 4b3e
00000100: 6f9f 0fbe a908 1b3c 0ac0 edbd 9574 893e
00000110: 0294 9cbd 2df2 203b 1993 943d 2d92 0fbe
00000120: 3df3 7dbd 93d2 043e 6d4c 823d ae33 46bd
00000130: 2814 08be 7ac4 d4bd 3e78 44bd 3834 dd3d
00000140: b23e b4bc be73 343e 0ccf 013e 7e5b 853c
00000150: 10ff 883d b2e5 6a3e 4a8f fe3d be78 a73d
00000160: 78d7 27bd 888b d33d 81ec 22be ed49 063e
00000170: 53b5 053e df4a 04be 5d13 1f3e fe66 463e
00000180: 5f79 083e 59d6 fbbd 6299 143e ecc7 61be
00000190: 4870 76be 344f 04be d09e f23c 96dc 663e
000001a0: 2e82 293e bd45 463d 3299 fb3b 0bc9 383d
000001b0: 6385 583e cac8 ba3d f660 603d 432e 14bd
000001c0: bcb3 82be c9b7 923d e1ea d8bd 7098 1bbd
000001d0: 0c93 b53d 2ba0 323c 3ff3 b43c b5c0 4e3d
000001e0: 4d36 11be 08d5 06be 5662 babd 0a40 22be
000001f0: 0e3a f5bd 89d8 03be 24bf 6fbd 6230 bebd
0.0144292815 0.0007016949 0.0062460774 0.014672765 0.1384428 0.01214257 -0.082452215 -0.16141044
-0.18898563 0.071436614 0.0889407 0.1693166 0.06300369 0.1836879 -0.14799531 0.15115975
0.11184018 0.19380225 0.0054597897 -0.03518842 -0.28746003 0.026176846 -0.05576655 0.17840973
-0.07998137 -0.10521097 -0.081669316 -0.08947516 -0.14967094 0.19061162 0.11283346 -0.06609623
0.06358125 0.13575673 0.23775692 0.22265783 0.07173777 -0.21491756 -0.07460736 -0.030517133
-0.015361424 0.052027173 0.016557733 0.053432096 -0.17210495 -0.10299791 0.13042788 -0.005923506
-0.18633227 0.2055629 0.016824156 -0.04913992 -0.17969266 0.063560165 0.13763303 -0.095562674
-0.010513104 -0.031612877 0.1755661 0.042850967 -0.20158197 -0.06534717 0.049378116 0.19905199
-0.14025663 0.009462514 -0.11608894 0.26846758 -0.07645418 0.002455841 0.07254619 -0.14020605
-0.06199955 0.12970953 0.06362233 -0.04838913 -0.13288939 -0.103890374 -0.047966234 0.108009756
-0.022002552 0.17622277 0.12676638 0.016278978 0.06689274 0.22939184 0.12429674 0.081773266
-0.04097697 0.10329348 -0.15910532 0.13114138 0.13057451 -0.12919186 0.1553473 0.19375226
0.1332755 -0.12296743 0.14511636 -0.2204892 -0.2406627 -0.12920839 0.029616743 0.22545084
0.16553566 0.04840635 0.0076781744 0.045113605 0.21144633 0.09120329 0.05477997 -0.03617693
-0.2552775 0.071639605 -0.105916746 -0.037987173 0.088659376 0.010902445 0.022088645 0.05047675
-0.1418087 -0.13167202 -0.09100787 -0.15844741 -0.11973964 -0.1287557 -0.058531895 -0.09286572

actor.pi_net.fcs.1.weight f4 [128, 128]
00000000: a22d 193c 1e9e 0abe 18ca c5bb d355 c7bc
00000010: 8ad9 183d bf11 133c 0f57 653c 5531 06bc
00000020: 5723 a53d a5cc 943c dae7 dfbb 3efc c43d
00000030: 58e7 e4bb 8ba7 9f3d 54c0 603b bbdd ed3d
00000040: 8db0 aebc 5c5c 24bc 22aa 053e 8604 d6bd
00000050: 038d 9bbc 23be d3bb 543f 9b3d 788a 88bc
00000060: d61d 703d 8f55 7dbd 47bf 8ebd 2aee 02bc
00000070: 3c13 9bbd ae46 1a3d b879 4d3d d8ea b83d
00000080: 2442 f93d c7cc 313c d0af d3bc 2f6e 0e3d
00000090: b246 31bd 48a2 89bd 008a 81bc 49c5 03bd
000000a0: 4af0 9d3c 213c 183d 7c05 9a3c 2dfe b3bd
000000b0: ac5e 32bd cefa 9cbd 8885 ae3b a22c b13d
000000c0: 12b3 8b3d 50a7 2abd 7e5a 73bc 8f98 66bd
000000d0: cc27 c5bd 3eda ac3c aa85 2cbd b375 973c
000000e0: 32e5 913d b2d8 92bc 57ce 36bd cb17 1dbd
000000f0: 304f ab3d 13f7 b63c fada 09bd e61e 2bbd
00000100: dd9d 61bd 6ab6 523d 32da 883c 941c 013d
00000110: 6e7b 9a3c e56f cb3d b2e7 8c39 fa20 2cbc
00000120: 4ec2 58bc 803f 8bbd 458e 62bc d4a5 5e3d
00000130: ea43 133d 0d06 703c 2d31 b33d ce3e 00bd
00000140: a9c0 bfbd e39d 813d 26a2 a6bd 2303 5cbd
00000150: 820f ac3d c145 d13d 468a 70bd fd12 083c
00000160: c7e2 ce3b f7f6 cd3c 1525 0b3c 74ac 8bbd
00000170: 5d90 bb3c 5a3a 5fbd 1a40 d4bd 217f 6abd
00000180: d9e9 0dbd a700 c93c dd89 293c 22c3 81bd
00000190: b24c cc3c 38b3 babd ee58 9ebd 1b85 f0bd
000001a0: da89 0fbd d272 95bb 5b6d a5bc 1c0c b73c
000001b0: cf1a 93bd ead8 58ba c703 e4bc 814a 3c3d
000001c0: 20be 9d3c 6a6a ac3b bb87 f83d 8dda 1a3d
000001d0: a64a dc3d 0b42 2dbd 9be1 ff3c 712f 02bc
000001e0: 9c01 dabc 57bc b2bc 5942 913d 98b1 46bb
000001f0: fd98 b93d c085 8fbc 7e8e acbb 648c 0bbc
00000200: 9523 ae3d 8f2b 6f3b c001 6ebd 586d cbbc
00000210: d7a3 1abd c299 3ebd ad30 4bbd 3933 933b
00000220: fe68 a93c 3119 8d3d b28b 4ebd 83cc b8bc
00000230: 8248 47bd 03b8 9d3d 446d 50bd 1438 48bd
00000240: 7b51 3abb 41f9 c63c 9f27 ae3c b2fa 04bd
00000250: 0784 893d 0cd9 783c dceb b63c 9700 9fbd
00000260: 6c55 303c 94a0 853d 9183 01bd 003a 67bd
00000270: cb66 a9bd e7f0 b13d f952 a43d 05e1 10bd
00000280: c516 6f3d 3ae7 043d 959c a5bd 0dfa dc3b
00000290: df67 043e 87a6 e83c 784c 0e3d c171 bbbd
000002a0: 1f3b 9f3c d1bd 893d 2ca6 ce3d 28fe 45bd
000002b0: 681c 9e3c 5f79 49bd 66c7 a53d 1221 66bd
000002c0: 4143 45bd 4ffe 85bc e36f ad3c 6aed 80bd
000002d0: 939e 7ebb c266 b7bd be1d d03d 3cb8 b1bc
000002e0: 5c89 c7bc 02c1 7d3c 4584 7dbc 7f94 543d
000002f0: 98b7 11bd 2dec 90bc 3ef7 5bbd 408f f53b
00000300: 04e0 823d 245c f83c 2f08 42bd 2bc8 9bbd
00000310: 05ef 483d 4910 3b3d 0925 93bd 278e 41bd
00000320: 08cf 28bd f2cf 63bd 0e46 91bd 765f 263d
00000330: fe3b 043d 8f99 ab3d 7411 eb3b 5983 2dbc
00000340: ff99 9cbc 003d 69bb f234 4abc e2ed 113d
00000350: 2ad4 a4bd cdf1 1f3d f0c6 0dbd 18d1 e3ba
00000360: 67d5 b1bd 16b5 0d39 354c 9a3c cc8a f13b
00000370: fb8b 58bd fac6 20bb 80ec bdbd 81d0 2c3d
00000380: 6e82 bbbc 5a0f c4bd 0918 ebbd 5703 b4bd
00000390: dcc7 4fb9 b559 7cbc e980 933b cb4a 123c
000003a0: c4f7 8bb8 7aa8 d83c de65 743d df4f 9cbd
000003b0: c65b c93c bf8e 8abd 6cf2 4f3d f6ba a7bc
000003c0: 8d22 acbc f7dd 533d 5239 7abd 89a2 cdbd
000003d0: 85ec 24bd b05a b4bd de5e d5bc 9a7a 5bba
000003e0: c640 97bd 9c7e b7bc 6073 7fbd 5ee1 1ebd
000003f0: b6de 34bd d253 efbd 281a 553c c32a 52bd
0.009349259 -0.1353688 -0.0060360543 -0.024332916 0.037316836 0.008976399 0.013997807 -0.008190473
0.08063381 0.018163988 -0.006833059 0.09618424 -0.006985586 0.07795628 0.0034294324 0.11614557
-0.02132442 -0.010031786 0.13053182 -0.104500815 -0.018988138 -0.006461875 0.07580438 -0.01666759
0.058622204 -0.061849173 -0.06970077 -0.007991353 -0.07572028 0.03766506 0.05016491 0.09029168
0.121708184 0.010852045 -0.02584067 0.034773048 -0.04328031 -0.06720406 -0.015812874 -0.032170568
0.019279618 0.03716672 0.018801443 -0.087887146 -0.043547317 -0.07665025 0.0053259768 0.08651091
0.06821264 -0.041663468 -0.014853118 -0.056297835 -0.09626731 0.02110016 -0.04211966 0.01848874
0.07123794 -0.017925594 -0.044630375 -0.03835277 0.08364713 0.022334611 -0.033656098 -0.041777514
-0.05508219 0.051443495 0.016705606 0.031521395 0.018857684 0.099334516 0.00026875507 -0.010505909
-0.01322992 -0.06799221 -0.013827865 0.054357365 0.03595344 0.01464988 0.08749614 -0.031309895
-0.09362919 0.063289426 -0.08136396 -0.05371393 0.084013954 0.102183826 -0.058725618 0.008305308
0.006313655 0.025142176 0.008492728 -0.06820002 0.022895986 -0.054499008 -0.10363789 -0.057250146
-0.034646843 0.024536444 0.010347811 -0.06336047 0.024938915 -0.091162145 -0.07731806 -0.11744138
-0.035043575 -0.004560807 -0.020193746 0.022344641 -0.07182848 -0.0008272069 -0.027833832 0.04596949
0.019255698 0.005261709 0.121352635 0.037806083 0.107564256 -0.04229931 0.031235507 -0.007945881
-0.026612096 -0.021818323 0.07092733 -0.0030318256 0.09062383 -0.017519832 -0.00526601 -0.008517358
0.085028805 0.0036494469 -0.058107138 -0.024832413 -0.037753906 -0.046533354 -0.049606968 0.00449219
0.020679947 0.068895705 -0.050426193 -0.022558456 -0.048653133 0.07701113 -0.050885454 -0.048881605
-0.0028429914 0.024288775 0.021259127 -0.032465644 0.06714635 0.015188467 0.022329263 -0.077637844
0.010762554 0.065247685 -0.031619612 -0.056451797 -0.08271559 0.086885266 0.08023638 -0.035370845
0.058371324 0.032447077 -0.08086506 0.0067436756 0.12930249 0.028399719 0.034740895 -0.09152556
0.01943737 0.06725658 0.100902885 -0.048338085 0.019300655 -0.049188014 0.08094673 -0.056183882
-0.04815984 -0.016356615 0.021171516 -0.06295283 -0.0038851842 -0.08955146 0.10161923 -0.021694295
-0.02435749 0.015487911 -0.01547343 0.05189943 -0.03557548 -0.017690742 -0.053702585 0.0074938834
0.06390384 0.030317374 -0.047371086 -0.076065384 0.04905607 0.045669828 -0.07184798 -0.047254708
-0.041213065 -0.055618234 -0.0709344 0.040618382 0.032283776 0.08378898 0.0071737114 -0.010590398
-0.0191164 -0.0035589337 -0.012341725 0.035627253 -0.080482796 0.03904896 -0.03461355 -0.001738104
-0.086832814 0.00013514268 0.018835166 0.007371282 -0.05286787 -0.0024532662 -0.092736244 0.042191032
-0.022889342 -0.095732406 -0.11479194 -0.087896995 -0.00019815512 -0.015402247 0.0045014513 0.008928965
-6.6741864e-05 0.026447523 0.05966746 -0.07632422 0.024579894 -0.06765508 0.0507683 -0.020474892
-0.021012569 0.051725354 -0.06108982 -0.10040767 -0.040264625 -0.0880636 -0.026046213 -0.0008372456
-0.073854014 -0.02239924 -0.06236589 -0.038789146 -0.044157706 -0.11685909 0.013006724 -0.051310312

actor.pi_net.fcs.1.bias f4 [128]
00000000: e8ab 97bc 6062 61bd f4a9 e03c dd31 613c
00000010: 32b6 1fbd 2198 9e3c 15a0 dabc 1c5e f5bd
00000020: a574 53bd 21ce c1bd ffcb 9ebc beff 7c3c
00000030: 9297 a4bc 97a3 0d3c 617c 2f3c afb0 733c
00000040: a6d4 93bc f2eb a7bc 2846 debc d0cc 423c
00000050: b140 22bd 354b 143d 8978 ca3d a8f3 babd
00000060: 259c 573c 0ae5 86bd 13c9 cd3c 4a1c 83bd
00000070: 1e7e fe3c c950 273c 6da6 e1bc b099 a83d
00000080: f834 b8bd 26fd 8f3b 121a 1cbd a4e2 50bd
00000090: 71d7 0a3e 6e6b 943c b884 3739 4626 03bc
000000a0: 7fb4 bc3b 4242 c6bb ee16 36bc 9e0b 3dbd
000000b0: 03d5 38bd d3a6 62bd 3084 d43d 4e61 e6bc
000000c0: ab4d 033c 4cf2 923d db56 98bb 99e6 323c
000000d0: ad9a 33bc 0717 0abd f25a 8c3d 990d 143d
000000e0: fda0 7b3c 7772 74bc bc7f b63b d1f3 8bbd
000000f0: ecee 0ebc 604d 04bd 0258 153e 4e74 f239
00000100: 7060 6dbc 7860 05bd 32c9 ac3d 535a 85bd
00000110: 49eb a33c 496b 95bd 2123 f0bc 975e 4bba
00000120: d99a e3bb ff74 ec3c 2193 dbbd bc22 d63b
00000130: 6155 abbd 4f35 27bd a78e 6e3d 5ef6 29bd
00000140: 02fc 1ebd aff9 613d 0231 aa3b 891f 9d3d
00000150: 6ec2 bf3d 9fa1 d23a 5890 a3bd e0aa 103d
00000160: fe6e 95bd 3425 853d 1e91 b33c 4002 f139
00000170: effa 7fbc 72e1 ca3c f3c6 673d 4a10 2e3d
00000180: 3398 a03d 0f70 713d 6ad7 993c 1f55 953d
00000190: 50fe c3bc 9384 733c bb7b 063d f6a1 2c3c
000001a0: 13d9 86bd 3bfb 923d b841 863c 57dc c43c
000001b0: 96b8 ae3c 890c 063d 2439 b43c e959 a63d
000001c0: 08c9 7cbc 0f0c febc aa10 9abc 95ad 20bc
000001d0: c9c9 c73d 06c9 f6bc 039e 88bd e9ef 403c
000001e0: 6457 26be a796 903d 9993 8bbd d031 af3b
000001f0: 7e17 913c 61ce 34bc 07d1 773c 8bd6 bc3c
-0.018514588 -0.05502546 0.02742479 0.0137447985 -0.038992114 0.01935965 -0.026687661 -0.119808406
-0.051624913 -0.09463144 -0.019384382 0.015441833 -0.020091806 0.00864496 0.010710807 0.014873668
-0.018045735 -0.02049825 -0.027133062 0.011889651 -0.039612476 0.036204536 0.098862715 -0.09128505
0.013159786 -0.065866545 0.025120294 -0.0640188 0.031065997 0.010212132 -0.027545178 0.082324386
-0.08994478 0.0043941913 -0.0381108 -0.05099739 0.13558747 0.018117633 0.00017501682 -0.008004731
0.0057588215 -0.006050379 -0.011113865 -0.046153657 -0.04512502 -0.055334877 0.10376775 -0.02812257
0.008014123 0.07175121 -0.004649026 0.010919237 -0.010962171 -0.033713367 0.06853284 0.03614578
0.015358207 -0.014919869 0.0055694263 -0.06833614 -0.008723956 -0.032300353 0.14584354 0.0004624449
-0.0144883245 -0.032562703 0.084368125 -0.065113686 0.020009654 -0.07295854 -0.029313626 -0.00077579304
-0.0069459495 0.028864382 -0.10721422 0.0065349024 -0.08365894 -0.040822323 0.058241513 -0.04149472
-0.038814552 0.055169757 0.0051938305 0.076720305 0.093632564 0.0016069895 -0.07986516 0.03531921
-0.07296561 0.065012366 0.021919783 0.00045968778 -0.015623792 0.024765704 0.056586217 0.042496003
0.0784153 0.058944758 0.018779475 0.07291626 -0.023924977 0.014863151 0.032832842 0.010536661
-0.06584372 0.07176825 0.016388759 0.024030847 0.021328252 0.0327268 0.021999903 0.08122618
-0.015428789 -0.03101161 -0.018806774 -0.00980701 0.09755284 -0.030125152 -0.06670763 0.011775949
-0.16244274 0.07059985 -0.068152614 0.0053465143 0.017711397 -0.011035533 0.01512552 0.02305152

actor.pi_net.fcs.2.weight f4 [4, 128]
00000000: 9e30 52bc efb2 19bc 34e6 553c 9510 7f3c
00000010: 212e a8bb 7eed 133d 3d88 143e 1263 10be
00000020: 2ed7 f03b c259 65bd eca4 2dbc 1de5 acbb
00000030: 560f c7bc 7c1e 543c a1d4 803a 258e deba
00000040: 4c26 8fbc 3243 543b 8a2c b2bb a00e 3738
00000050: dbd4 0f3d d804 c93b b314 e53d 71df bbbd
00000060: f50f b9bb bb23 94bb 47b4 b8bd 3b5b 3f3c
00000070: 8db1 76bc 73e4 c33b 6764 13ba 6680 083d
00000080: 856a 01be 3008 91bc 9d5f 223c cd16 bebd
00000090: 5a82 37bd e39d 853c 276c 053e a0ba 9a3b
000000a0: 8c4d b039 dcc1 a13b 3a35 1c3d d93d 99bd
000000b0: acd8 94bc 39a3 d5bd 2d52 8c3d 2b7d 08bb
000000c0: 5062 cabb a8a8 cb3c 320e 10bc 234a 15bb
000000d0: be69 183b 94e3 3f3c 9495 533d 3da5 9a3b
000000e0: fe6e 513b 3340 013c 547f 29bd 88dd b9bd
000000f0: a9c9 e0bb d3b5 41bd 10af df3d 19be 09bb
00000100: a3b2 593d 4173 40be 0124 073e ea16 44bc
00000110: 101b c73b b80a 6f3c 058c 873b 7fd2 6ebe
00000120: 2dca 63bc df61 833b 3c9a f1bc c412 783b
00000130: 3f23 64bc 5026 253c 2db5 aabd e81e c6bd
00000140: f898 aa3b 3f6e ab3d c855 d7ba c53c 45bc
00000150: 470a 513d 0148 363b 8689 17be 5829 653c
00000160: 6439 203e f620 483c 72b9 0e3b 0141 ef3c
00000170: 4986 87bc 68a8 cdbd 1664 463d cd09 af3c
00000180: 3b8a bb3d ed97 453e 2fe4 0e3d 49b0 103e
00000190: 628c e53a 36a0 6dbb 16b0 59bc 0d22 3f3c
000001a0: 40ef 3ebc 6018 723d 10c1 8db9 9b20 6cbc
000001b0: 71ca a03b ffe3 683b 3389 b5bb 8968 87bc
000001c0: 93f1 8d3b ce4b 423b 4642 b4bc 944c a7ba
000001d0: 3043 1dbd e436 8ebc b85c 5cbd 6e76 163e
000001e0: 4923 16bd fd26 09be 51db 6b3c 2a6f aebb
000001f0: 39cf aabc 4c4f 7b3a 5093 4e3c d374 aebd
00000200: c0c8 483c 8b09 a2ba 309d 9abc 27bb 383c
00000210: 26c9 cebb 614e 343c fdaf 933e 2cdd a2bd
00000220: 58a7 39bc 0667 32bd 8f35 83bc 5c46 2d3c
00000230: f8a9 26bd e554 35bc b762 9fbc d092 a73a
00000240: 4e91 e2bc e30b b03b 6349 a4bd 9aaf b33a
00000250: 6f69 64bd fd6d 25bb d2b3 543b d41a a6bd
00000260: c1c5 e63b 2e1a 7fbd 6061 1f3e 01b4 6fbc
00000270: 20dc 273d ca7c 23bc 0675 1ebb bdc4 9e3d
00000280: 0f31 fbbd d245 6b3c 1387 8b3b 4da1 9fbd
00000290: 6777 083d c57b 0b3d e785 1bbe df30 183c
000002a0: a939 8c39 c4b9 4bbc 0018 8c3c bd1b babb
000002b0: 83aa 52bc b2cb 573e 1b02 063d 236d c0bc
000002c0: 6f97 d73b 5eca a5bc 3985 1d3c c527 4abc
000002d0: 6e6a a03b efa4 a5bc d5a3 5c3d b9de 473c
000002e0: 090d 2c3c e14e fdbb 1a93 123c 90ec 8cbd
000002f0: f6d4 41bb 9676 80bd 67d6 993d 3205 473b
00000300: 946a 70ba b179 7e3d ca9c 593d 406c cabc
00000310: 5789 2a3c 6cae e6bd 606e 91bc 8f52 e9bd
00000320: b56c 8dbc 5993 653c 2201 61bd 38c8 a03d
00000330: f4f0 a7bc 6c70 a8bc 13b7 dc3d 3c91 47bd
00000340: fb5f 85bc 3e6f 0dbd 87f6 53bc bf72 8c3c
00000350: ee03 c93c 6b05 9aba 88d1 19be 8609 0ebc
00000360: 9040 4b3e 8eec bf3d 3558 4dbc 164e 7a3c
00000370: d67a 33bd a189 073c b493 203d c82d bf3c
00000380: 30d3 053d 59e1 0b3e 934c 8ebc 73b4 56bd
00000390: 0848 8fbc 1959 5f3c 3dad a73c caa2 d1bd
000003a0: 326f b2bc 2650 973c d0ba 543c 7d29 823c
000003b0: b373 02bb 4d7f 943d 3c11 223b fe4b 2b3d
000003c0: 474a 9d3b 2f92 31bc f609 95bc 4a55 9fb9
000003d0: e35e 903d cbe5 30bc 513d 0bbd 0688 8ebc
000003e0: 0cb0 eabd 75e0 ed3d 288b bebc 48e6 113c
000003f0: 9780 113d 4f76 30bc f794 97bc 3703 9a3d
-0.012828974 -0.00938104 0.013055373 0.015567918 -0.005132452 0.036115162 0.14505096 -0.14100292
0.00734987 -0.055993803 -0.0105984025 -0.005276336 -0.024299305 0.012946721 0.0009828993 -0.0016979618
-0.017474316 0.0032388684 -0.0054374384 4.364422e-05 0.035115104 0.0061346106 0.11185589 -0.091734774
-0.005647654 -0.004520861 -0.0901876 0.011679466 -0.01505698 0.005978161 -0.0005622566 0.033325575
-0.1263829 -0.0177041 0.009910491 -0.09281693 -0.044802047 0.016310638 0.13029538 0.0047219545
0.00033627113 0.00493644 0.0381367 -0.074825 -0.018169723 -0.10431523 0.06851611 -0.002082656
-0.0061762705 0.024860695 -0.008792447 -0.0022779785 0.0023256387 0.011711974 0.05165632 0.004719405
0.0031957026 0.007888841 -0.041381195 -0.09075457 -0.0068599773 -0.04729254 0.109220624 -0.0021017848
0.053148877 -0.18793966 0.13197328 -0.011968354 0.006076224 0.014589958 0.0041365647 -0.23322485
-0.013903183 0.00400947 -0.02949249 0.0037852982 -0.013924419 0.010079935 -0.08335338 -0.09673864
0.0052062236 0.08370637 -0.0016428763 -0.012038414 0.051035192 0.0027813914 -0.14798555 0.013986908
0.15646893 0.01221489 0.0021778014 0.029205801 -0.016543524 -0.100418866 0.048435293 0.021366978
0.09157225 0.19296236 0.03488558 0.14129747 0.0017513151 -0.0036258823 -0.013286611 0.011665833
-0.011653721 0.059105277 -0.00027037458 -0.014412071 0.0049069454 0.0035536287 -0.005540037 -0.016529338
0.0043317764 0.0029647234 -0.022004258 -0.0012763911 -0.038394153 -0.017360158 -0.05379936 0.14693615
-0.036654744 -0.13393779 0.014395551 -0.0053233104 -0.020850765 0.00095867063 0.012608364 -0.08518376
0.012254894 -0.0012362463 -0.018873781 0.011275089 -0.0063106 0.011005015 0.28845206 -0.079523414
-0.011331402 -0.043555282 -0.01601675 0.010575857 -0.04068944 -0.011067604 -0.01945625 0.0012784842
-0.027657177 0.0053725108 -0.0802181 0.001370895 -0.05576461 -0.002524256 0.0032455814 -0.08110586
0.007042617 -0.062280826 0.1556449 -0.014630319 0.040981412 -0.0099784825 -0.0024178638 0.077523686
-0.122652166 0.014359908 0.0042580455 -0.077944376 0.033316996 0.034053583 -0.15187798 0.0092889955
0.0002674584 -0.012434427 0.017101288 -0.005679576 -0.012858036 0.21073797 0.03271685 -0.02348954
0.0065793316 -0.020238098 0.009614282 -0.012338583 0.0048955 -0.020220248 0.05386718 0.012199097
0.010501155 -0.0077303504 0.008946205 -0.06881058 -0.0029576398 -0.062726185 0.07511597 0.0030368087
-0.0009171155 0.062127773 0.05312804 -0.02470982 0.010408721 -0.11263737 -0.017752826 -0.113927
-0.01726375 0.014012181 -0.05493272 0.07850689 -0.020500638 -0.02056142 0.10777106 -0.04872249
-0.016281119 -0.034529917 -0.012937195 0.017144559 0.024538007 -0.0011750882 -0.15021336 -0.008669263
0.19848847 0.09371291 -0.012533237 0.015277406 -0.043818317 0.008272559 0.03920336 0.02333726
0.032672107 0.13660182 -0.017370498 -0.052418184 -0.017490402 0.013632082 0.020468349 -0.10236128
-0.021781538 0.018470835 0.012983993 0.015888924 -0.0019905388 0.07250843 0.002472951 0.04182052
0.0048001143 -0.010838076 -0.018193226 -0.0003039039 0.07049348 -0.010796974 -0.033994023 -0.017398845
-0.114593595 0.116150774 -0.023259714 0.008905001 0.035523023 -0.0107703945 -0.01850365 0.075201444

actor.pi_net.fcs.2.bias f4 [4]
00000000: 55da 6a3d 66f0 053e e4ee 8d3d c928 85bd
0.057337124 0.13079986 0.069303304 -0.0650192

critic.v_net.fcs.0.weight f4 [128, 24]
00000000: 0f38 1cbf ae5c d8bd 6bbd a2be 8ca0 97be
00000010: 80c7 5c3e ba60 82be ccb4 3c3e 6f4b dabd
00000020: 4af3 2abf c3e3 02bc 3f0d fa3c cfb0 be3d
00000030: 82a9 8d3e 1305 483e b182 4d3d cae7 bc3d
00000040: e60b cdbe 7f16 0dbf 88ca f53d cd6b 49bc
00000050: 7238 3e3d 13d3 973d 65c7 8cbd 35c6 91bd
00000060: acec a63d 9be0 cebe 942a 1bbf 2875 dc3d
00000070: e65b b73e 240e 37be 02ea 443d 48d1 c2be
00000080: 4f65 96be 2bf9 5ebd 35e7 c5bd 4335 9ebc
00000090: 0fb1 dd3c ffa0 bb3d e50d 933d 3a33 ecbe
000000a0: 846a e2be ce09 49be 391b 093d adbc 4fbe
000000b0: a318 a8b8 78b3 3e3e 0475 e33c 5709 3bbe
000000c0: 8a7b d33e 27f6 913d 285d d63e 77de 46bd
000000d0: fca6 603f e2ac 043f 1656 65bf d576 91be
000000e0: ec02 06be c14a 123d 1ad1 2d3b db3c 89bd
000000f0: ecf9 11bf e546 ccbe e4bf 8a3e 6f1f 913d
00000100: f40c 433c d073 853e 4725 243e c1bd 093e
00000110: 6899 42be 9858 293e 33b4 e6bd 2f5f f3bd
00000120: 557f 5cbd 1cda 40bb 6f08 ecbe 8a7d b4be
00000130: 7a69 0b3e 92fc fbbe d22f 1a3f 4ef1 cd3d
00000140: ef04 e0bd 0470 173d ab08 2e3d f4fa 4c3d
00000150: 63ca 013e 23a5 a3be 691c 2b3e 81f0 acbe
00000160: 79da dbbe 99c1 23bc 7fdb 073e 68fa e03d
00000170: 5550 1fbe 3284 49bc 5ad5 68bd 9844 aa3d
00000180: c528 a7be aa73 2f3d b3ef eabe e6ea 593d
00000190: 13cb c8be 8051 9fbe c8d2 bbbe 7218 d4be
000001a0: 5f3c bd3d 37cb dd3b 3429 1c3c 7406 27bd
000001b0: 2666 933e 2d5d 25bc 646e 3cbe a13b 8c3d
000001c0: 3315 d2bd b805 06be 70f5 28be c78e 993d
000001d0: 67ef 553d 10e6 31bd 0f6d 4cbe be08 03be
000001e0: 1272 0c3f 0a64 883e 43df 0ebe 1978 66bb
000001f0: 98c5 cabe b75b 91bc a943 2f3f 042c 533e
00000200: 3806 5b3f 6657 2ebd c2f9 89bd 170e 343d
00000210: ee3d a5bd 013a 613e 6662 32ba 2684 b03d
00000220: 0cdb 8a3d 5d8b 943e 2ea9 503e de01 993d
00000230: 09ed eabd b2c9 78bc c15d 4e3d 383b 1c3d
00000240: dba6 50bd 636d bfbe 8814 2a3f 6545 ed3e
00000250: 45c5 133f 78a5 2fbd b6df c73e 89a5 043e
00000260: f69f 18be 03eb ea3b 6055 eebc 4761 cbbd
00000270: 57e3 fc3d 9373 e23e 2361 793d 6fbd 0a3e
00000280: 926e 2b3e 1dcd e93e 8b26 da3d 358f e4bd
00000290: 3f0b 70bd 9a13 1ebe bba6 0cbe d471 01be
000002a0: 6473 e0bb 630a 70be e1bb 5d3e 8665 61bb
000002b0: 36b3 013f 347e a03e d3f6 0ebe 2123 053e
000002c0: 6a27 46be 50ca 033d 6506 9bbd f932 4cbd
000002d0: eeaa 233f 8b61 ccbe 5df7 9a3d 1b81 103e
000002e0: 41a3 f73c fa4a 76be 7995 da3d ee6c 3e3b
000002f0: ec6b 27bd bad7 07be 33ca 443e 8faa 69bd
00000300: 97fb 70be fb1d 9fbe 7e69 f93e aad1 c43e
00000310: 433b 3d3f d544 973d 7fcc 02bf 8fad 6fbd
00000320: 564c eabe 9c4c 9f3d 75a5 5b3d 4d38 08bc
00000330: f8f7 05be 8a82 243e d6ba 033a 2944 ff3e
00000340: 12e5 6c3e 9c9b e33d 1dcd 393d fc20 b03d
00000350: bda1 383e 2443 bc3c 9cf7 303e 8f12 e1bd
00000360: b784 d1be a9f5 10bd 11b7 943d 219c e43e
00000370: 4557 2b3c aa92 203f 2613 31bf 49a2 82be
00000380: 7224 c2be 2137 39bd d326 13be 7837 8dbd
00000390: 9d2a 5ebf 9bf4 48bf 76c5 623e c7c1 66be
000003a0: d2de a2bb 2530 9cbd 017b 2e3e b4a5 fe3d
000003b0: 91f9 2ebd f898 353d 41b5 13be 67c9 2b3e
000003c0: 4a56 353e d7d4 1b3e db8a c8be 94c2 a9bb
000003d0: dc43 d73d 6229 a5bd 2bcf 263f 3b58 2b3e
000003e0: e134 903e 33df 1d3c b0b8 063d 431d edba
000003f0: 3414 ce3d b7f1 c7be 7116 a23e 2b57 c1be
-0.6102304 -0.10564552 -0.3178514 -0.29614675 0.21560478 -0.25464422 0.18428344 -0.10658919
-0.6677748 -0.007988873 0.030523894 0.09311067 0.27668387 0.19533186 0.050173465 0.09223898
-0.4004814 -0.5511245 0.120015204 -0.012293768 0.04644055 0.07413306 -0.06873969 -0.07117883
0.0815061 -0.40405735 -0.60611844 0.10764533 0.358123 -0.17876488 0.04807473 -0.38050294
-0.29374167 -0.054436844 -0.0966324 -0.019312507 0.027061967 0.09161567 0.071803845 -0.46132833
-0.4422189 -0.19632646 0.033473227 -0.20286818 -8.015453e-05 0.1862315 0.027765758 -0.18265282
0.4130519 0.07127028 0.41867948 -0.048552003 0.877548 0.518263 -0.8958448 -0.28410974
-0.13087052 0.035715822 0.002652234 -0.067010604 -0.57021976 -0.39897838 0.27099526 0.070860736
0.011904944 0.2606492 0.16029845 0.13451292 -0.19003832 0.16537702 -0.11264839 -0.11883389
-0.05383237 -0.0029426878 -0.46100184 -0.3525203 0.13614455 -0.49216133 0.6022922 0.10055791
-0.10938441 0.03697206 0.042488735 0.050044015 0.1267486 -0.31961927 0.16710056 -0.3377724
-0.4294012 -0.009994888 0.13267325 0.10985261 -0.15557988 -0.012299584 -0.056844093 0.083138645
-0.32648292 0.042834915 -0.45886 0.053202532 -0.39217433 -0.31116867 -0.3668425 -0.414249
0.092400305 0.00676861 0.009531308 -0.04077764 0.2878887 -0.010093016 -0.18401486 0.06847311
-0.1025795 -0.13088119 -0.16499877 0.07497936 0.052230265 -0.043432295 -0.19963478 -0.12796304
0.5486156 0.26638824 -0.13952355 -0.0035166799 -0.39603877 -0.017743928 0.68462616 0.2062226
0.85556364 -0.04256382 -0.06737091 0.04395875 -0.08068453 0.21994783 -0.00068048236 0.08618955
0.06780061 0.29012576 0.20377037 0.07471059 -0.11470992 -0.015184807 0.05038238 0.038142413
-0.050940376 -0.37388143 0.6643758 0.46342006 0.57722884 -0.042882413 0.39037865 0.12953772
-0.1490477 0.007169129 -0.029093444 -0.099306636 0.12348049 0.442288 0.060883652 0.13548826
0.16741398 0.45664302 0.10651883 -0.11160127 -0.058604475 -0.15437165 -0.13735478 -0.12641078
-0.006849693 -0.23441462 0.21653701 -0.0034392788 0.5066408 0.31346285 -0.13961343 0.13001682
-0.19350973 0.032175362 -0.07569579 -0.0498533 0.63932693 -0.3991817 0.07566712 0.1411175
0.030229213 -0.24052039 0.10673041 0.0029056626 -0.040874407 -0.13265887 0.19217758 -0.057047423
-0.23533474 -0.3107756 0.48713297 0.3844121 0.7391855 0.073861755 -0.51093286 -0.058515128
-0.45761365 0.07778284 0.05362459 -0.008314204 -0.13082874 0.16065422 0.0005025094 0.4985669
0.23134258 0.111136645 0.045361627 0.08600041 0.18030448 0.022981234 0.17281955 -0.10989868
-0.40921566 -0.03539053 0.0726148 0.44650367 0.010457818 0.6272379 -0.69169843 -0.2551444
-0.3791843 -0.04521859 -0.14370279 -0.068953454 -0.8678377 -0.7849824 0.22145638 -0.22534858
-0.00497041 -0.0762637 0.1703911 0.12433949 -0.042718474 0.044335335 -0.14424612 0.16776048
0.17708698 0.1521791 -0.39168438 -0.005180666 0.1051099 -0.08064534 0.65159863 0.16732876
0.28165343 0.009635734 0.032890975 -0.0018090386 0.10062447 -0.390516 0.31657746 -0.37761816

critic.v_net.fcs.0.bias f4 [128]
00000000: a2d5 99be 654d 9fbe 66bf 0b38 f661 eebe
00000010: d8e2 f7be 26e2 953e 50f2 b33e 3d3c 63be
00000020: 1935 d83e 1878 273d 5467 e6be 423e dbbd
00000030: 3ad4 f3be d8fc 9a3e 1e0e 98be e879 d0be
00000040: 44fa f43e 9a4e abbd 7227 863e 8be2 afbe
00000050: 8160 09bf 37a8 aabe e1ca 0ebf a3cb f83e
00000060: 24db c33e fed8 46bf 050f a63e 845b 0b3e
00000070: 369c 96be 0b30 81be 7718 113d 4a31 13bf
00000080: 9d86 15bf 5fad 56be 755e 05bf 01a6 12bf
00000090: 8e53 9cbe 9031 bfbe 0bba 26be 77c1 febe
000000a0: bf3f 09bf 6650 47be 96b9 07bd b3de 153f
000000b0: 8ae4 0abd 82f8 fc3e 9ae8 003f 2b1d 29bf
000000c0: a848 853e d62c 93be 9a7b f5be bcd8 d9be
000000d0: 1dfd 813e cfd8 3b3d 268c 203d 847e b7bd
000000e0: 6833 103f a016 02bf 3f16 fd3e de93 92be
000000f0: 80f5 23bf 435f 493e 36fd 203f 5ef0 8c3e
00000100: 9ffe 1abf 7626 1ebf 6375 b0be 25d7 f4bd
00000110: f36e 0bbf 9258 84be df08 83be fdd8 ff3c
00000120: 4a2e 093f bd48 4dbd 34c5 923d 209d 12bf
00000130: 91d1 a33d 94cf b13e be24 36bd a3e1 f2be
00000140: 9a90 133e 6588 303e 9fa3 f23e f3fe a4be
00000150: 09fc 103f b53c 0e3f a59d c93e d9bd 57be
00000160: d433 bdbe bab2 c0be 3737 f5be ff63 b4be
00000170: 5fe1 0e3d 581d 443e 7bad ca3e 5db9 97be
00000180: 8470 09bf 226e bebe b4a6 98be dace fd3e
00000190: 8ea6 c6be fc6e e3be 7a78 cc3e 3422 fd3e
000001a0: f922 86be 50bb d3be 64fb 493e 0feb d53e
000001b0: 802c b4bd 1ff6 84be 70c4 293f fbf4 913d
000001c0: 7110 29be 318a bb3e 4a8e 01bf efe5 7fbe
000001d0: 13ac c1be 9411 d8be 455b 0a3f 2bea 493d
000001e0: d929 af3e 33bd dbbe 1018 d93c 59c6 56be
000001f0: cfd7 b63e a079 023e 0fbd 9fbe 7908 f73e
-0.300458 -0.31113735 3.3318436e-05 -0.46559113 -0.48415256 0.292741 0.35145807 -0.22190948
0.4222801 0.040886015 -0.45000708 -0.10705234 -0.47622854 0.3027103 -0.2969827 -0.40718007
0.47847188 -0.083646014 0.2620197 -0.34352526 -0.5366288 -0.33331463 -0.5577832 0.48592862
0.3825313 -0.77674854 0.32433334 0.13609129 -0.29416054 -0.25231966 0.035423722 -0.57497084
-0.5840853 -0.20964573 -0.52097255 -0.5728455 -0.30532497 -0.373425 -0.16281907 -0.49756977
-0.53612894 -0.19464263 -0.033135973 0.5854294 -0.033909358 0.49408346 0.5035492 -0.6606013
0.26031995 -0.28745145 -0.47945863 -0.42548168 0.25388423 0.04586106 0.039196156 -0.08959678
0.5632844 -0.50815773 0.49431035 -0.2862844 -0.6404648 0.19665246 0.6288637 0.27527136
-0.6054477 -0.61777437 -0.3446456 -0.11955098 -0.5446617 -0.25848824 -0.25592706 0.031231398
0.53586257 -0.050118197 0.0716652 -0.57271004 0.07998956 0.34728682 -0.044468634 -0.47437772
0.1441063 0.1723953 0.47390458 -0.3222576 0.56634575 0.5556138 0.39378086 -0.21068515
-0.36953604 -0.37636358 -0.47893688 -0.3523254 0.0348829 0.19151819 0.3958548 -0.29633608
-0.5368731 -0.371934 -0.29814684 0.49571878 -0.38798946 -0.44420612 0.39935666 0.49440157
-0.26198557 -0.41353846 0.19724804 0.41780898 -0.0879755 -0.25969025 0.66315365 0.071268044
-0.16510178 0.3662887 -0.5060774 -0.24990056 -0.37826595 -0.4220091 0.54045516 0.049295586
0.34211615 -0.42917785 0.026500732 -0.20974101 0.35711524 0.12741709 -0.31198928 0.48248652

critic.v_net.fcs.1.weight f4 [128, 128]
00000000: 64b3 dc3e 9a55 1a3e 254b 0a3f 0a34 d5ba
00000010: e66f b93e 7cc0 37bf 2310 0f3e 4288 263f
00000020: eded a03d 9ed6 d03e 6de0 59be e248 883e
00000030: 1262 0e3f 88d0 5cbf 71a2 ef3d 2802 ea3b
00000040: 000c 92be 8ca2 fbbe c8e8 153e debf b83d
00000050: eb08 c73e f30e 6f3f 44ea 613e e5ec 1abf
00000060: 01d7 76be 82a5 303f 8346 403d 595f 253e
00000070: 6a4b 1e3e abbd ffbd 8923 533e 9f4f c83e
00000080: 770e 413e 9ad4 f93e 518f 113f 764a 3c3f
00000090: b983 eb3d 7ab5 20be bd97 323f cc13 023f
000000a0: 42d3 3f3f 0f67 053f 013a c13b ec6d 0dbe
000000b0: 5270 8fbe c100 97bd ca58 18be 08f1 083f
000000c0: 70bf 9d3c aa98 2f3e b329 243d f5b8 403e
000000d0: 91b1 8d3e 8629 8fbe 6315 1dbf a7a9 d13d
000000e0: c805 24bf 5901 823e ba0f e7be c484 9abc
000000f0: b672 e03e 0372 f2be ef49 75be 6b52 eabd
00000100: fbd2 1b3f d3ed cabd 2da5 b73d 35c1 6dbe
00000110: 1990 c53e 9380 4e3e d542 f53e 3905 09bd
00000120: 7e64 fbbd 105f f1bd 976c 933e dfc6 0d3e
00000130: d6b4 263d 40cc cabe f649 a93e 7585 aa3e
00000140: 8e98 733d beea aabe 9c5d 9fbe 9fb2 e13c
00000150: 61a4 bfbe 634c 09bf 15d5 b3bd 3df9 93be
00000160: 31cd 203f b971 fb3e 1e4f 89bd 1d6d 523c
00000170: 3490 16bf 52b1 04bd cb06 e7be f5db ab3e
00000180: f643 e03d 6540 d33d af1f 883e 125d edbe
00000190: f1d9 07bd f5f4 0a3e 6e27 79be 1cb0 0fbd
000001a0: d2fd 5dba 0066 f63e 57b6 723e d33d a63c
000001b0: a099 71be 9319 c63e 90cc 90be 92aa 5b3d
000001c0: 9f05 023f 7b7e cf3c 0183 f33e c28a 993d
000001d0: de4b 343f ba32 bf3e 2e6a 8ebe 36a1 81be
000001e0: bc11 cdbe 853c 7a3e 1d74 43be e82a f3bd
000001f0: 85fa 2fbf 3c2c 42be 4ae7 c23e 7640 9dbe
00000200: 5c8f f4bc a4bb 15bf b0c2 b7be c216 debd
00000210: 3fb9 813d bf27 b7be 62e7 293e 408e 923e
00000220: c10b b23c aa18 fabc 5d0a 12be 634f a23d
00000230: 2e68 b5bc c666 c9bd 9f20 9f3e a0c2 0e3f
00000240: 558d a2be 5b34 073f a99c 49be 7e00 f23c
00000250: da95 063e 90e2 be3d 41e8 453e 31f5 89be
00000260: b39f 15be 1b62 36bc 7001 223e db66 313e
00000270: 408b e33e 6fa9 c73e 9f05 023f 243c df39
00000280: ba0d 863d a039 603f 3cb5 bc3e 2112 ba3d
00000290: 7b0b 193e e3c4 78bd 9b3a 51bd c988 41be
000002a0: 9807 1ebe e0ff f13a 6a5b 1ebf b899 23bf
000002b0: a038 973e 912e 16be bed5 41bf c588 3d3e
000002c0: 729e a3be 82bd 483f 40d2 ab3e fce5 2e3e
000002d0: fee9 1e3f 801b fd3e 105d 9cbe 45a3 b6be
000002e0: a063 343e 96d8 e33e 91a3 c73d 0998 403f
000002f0: 7cc1 233f 4596 8bbd 2f37 60bd 46ec 193f
00000300: b212 1fbe 8d45 103e 246c 0e3f 4dd8 d53d
00000310: f780 a93e 3c9d a53d 5c93 bdbe ca07 c5be
00000320: f13e 0dbf da29 dbbd 260a 633e 89ab 3c3f
00000330: c3c1 0fbf 0970 72bd c7ad 043e cfb9 463e
00000340: 64a0 d0be 0f45 0abd edb8 eb3d c5d4 ffbe
00000350: 3372 0fbe 8cdc 48bf a81e ecbc 4380 813d
00000360: c1af 1fbc 0845 7bbe 1b40 a3be cdbf 6abe
00000370: 7c70 88be 555a 153e b037 4dbe a992 27be
00000380: a788 f33e efe3 083e a79b 3b3d 73a8 fdbd
00000390: f082 a0ba 33d9 5c3e 1926 a63d d987 fdbe
000003a0: 29e2 00bf cb59 af3e 66ba 2d3f 6e5f fd3b
000003b0: cdc0 923e a867 8f3e ffb5 593d 1aa8 fbbe
000003c0: c292 ea3c 4b38 16bf 5116 88be 2903 9b3e
000003d0: 082c 153d 2bf2 0b3f 38c7 2ebf ccc9 7d3b
000003e0: 5960 f2be 8bad 133e b810 1fbc ff76 e03e
000003f0: b173 bd3d b666 663e 6008 043e d8fe 02bf
0.43105614 0.15071717 0.5402091 -0.0016266119 0.36218184 -0.7177808 0.13971 0.6505166
0.07857881 0.4078874 -0.21277018 0.26618105 0.55618393 -0.86255693 0.11700905 0.0071413703
-0.2852478 -0.4914745 0.1463958 0.09020971 0.3887399 0.93382186 0.22062021 -0.6051772
-0.24105455 0.69002545 0.046942245 0.16149653 0.15458456 -0.12487348 0.20619024 0.39123246
0.18853174 0.48795015 0.5685931 0.7355112 0.114997335 -0.15694228 0.69762784 0.5081146
0.7493173 0.5211038 0.005896807 -0.13811463 -0.2801538 -0.07373191 -0.1487762 0.53492785
0.019256324 0.1714808 0.04007883 0.18820556 0.27674535 -0.27961367 -0.6136076 0.10237437
-0.6407132 0.25391653 -0.45129186 -0.018862136 0.43837517 -0.4735261 -0.23953985 -0.11441501
0.60868806 -0.099086426 0.08967052 -0.23218234 0.385865 0.20166235 0.4790255 -0.033452246
-0.12275027 -0.1178571 0.28793785 0.13845395 0.040699802 -0.39608955 0.3306424 0.33304945
0.05947166 -0.3338222 -0.31126106 0.027550993 -0.374301 -0.5363218 -0.087808765 -0.2890109
0.628131 0.491102 -0.067045435 0.012843397 -0.58813787 -0.03239567 -0.4512237 0.3356625
0.109504625 0.10315017 0.26586673 -0.4636007 -0.03316683 0.13570006 -0.24331447 -0.03508006
-0.0008468303 0.48124695 0.2370237 0.020293152 -0.2359376 0.38691387 -0.2828107 0.053629465
0.5078983 0.025328865 0.47560886 0.07497169 0.70428264 0.3734339 -0.27815384 -0.25318307
-0.40052593 0.24437149 -0.19087262 -0.11873418 -0.6874164 -0.18962187 0.38067085 -0.30713242
-0.029853515 -0.5848944 -0.35890722 -0.108441845 0.06334161 -0.3577251 0.16592172 0.28624153
0.02173412 -0.030529339 -0.14261766 0.07925298 -0.022144403 -0.098340556 0.31079575 0.55765724
-0.31748453 0.52814263 -0.19688667 0.02954125 0.13143101 0.09320557 0.19326879 -0.2694488
-0.14611702 -0.011131789 0.15820861 0.17324392 0.44442177 0.38996455 0.5078983 0.00042578683
0.06545587 0.8758793 0.3685702 0.09085489 0.14945786 -0.06073464 -0.05108128 -0.18899836
-0.15432584 0.0018463098 -0.61858237 -0.6390643 0.2953539 -0.14666201 -0.7571677 0.18509205
-0.31956822 0.78414166 0.33558846 0.1707992 0.62075794 0.49435043 -0.3053975 -0.3567144
0.17616129 0.4450118 0.09747995 0.7523199 0.6396711 -0.06815771 -0.054740127 0.6012615
-0.15534475 0.14089032 0.5563376 0.10441647 0.33106205 0.08086631 -0.3702649 -0.38482505
-0.55174166 -0.10701342 0.2217184 0.7369924 -0.5615503 -0.059188876 0.12956916 0.19406818
-0.40747368 -0.033757266 0.11509881 -0.49967018 -0.14008407 -0.7846153 -0.028823212 0.06323292
-0.009746493 -0.24538052 -0.31884846 -0.22924729 -0.2664832 0.1458524 -0.20040774 -0.1636454
0.47565195 0.133682 0.04580274 -0.12385645 -0.0012246054 0.2156723 0.08112735 -0.49517706
-0.50345093 0.34248194 0.67862546 0.0077323234 0.2866272 0.2800877 0.05315208 -0.4915169
0.028634433 -0.58679646 -0.26579526 0.30275849 0.036418945 0.54666394 -0.68272734 0.0038725017
-0.47339132 0.1442167 -0.009708576 0.43840787 0.09250582 0.22500119 0.1289382 -0.5117011

critic.v_net.fcs.1.bias f4 [128]
00000000: 6cc8 45be 533f f3bd c72f 063e 4998 883e
00000010: 5df5 253e abc5 133e 0677 c73d 8851 dcbd
00000020: dbe2 bf3e cf3f 153e 2018 acbd 14f4 5bbd
00000030: d021 0fbe cc96 48be ff04 693e d772 a8bd
00000040: 63e8 943d f1d0 523e a611 b9bd eaec 6a3e
00000050: 8c40 9e3b 4788 03bd c9f5 81bc d865 473d
00000060: 5920 58be d90d afbd 697b 98bc cd14 07be
00000070: 6869 1cbe 950f 39bd 27b0 c1be bae2 103e
00000080: d0d4 4dbc 05c1 65bd 323d a03d 20b2 4cbe
00000090: 84d4 1c3e 1dc3 c6bc d8d0 88bd eb75 c1bd
000000a0: f0e5 5bbe f804 cdbd 0a3e e73d b6ef e5bd
000000b0: 2496 f43d 8534 b43b 8ae5 eebd 6dd5 5cbd
000000c0: 9525 3f3f 7578 2fbd ad22 1c3e 56c1 5a3e
000000d0: 6e27 83bd 9185 81be f03f 903e 23c2 18be
000000e0: 56d4 7d3d d776 c4bd 1f50 1c3e 3fd0 ad3d
000000f0: d648 62be 229d 83bd fded bb3d d52b f33d
00000100: 2a93 103e c212 b8be 3854 5abd b57e 7f3d
00000110: bd12 f63d b529 0c3e 17b6 953d 6867 ab3d
00000120: 83dd 13be 94fe 54be 5441 2fbe 397a 0ebd
00000130: 7961 e73b 0589 4fbe 5dde 853d dd8c 4e3d
00000140: b902 40be 522d d2bc 34e6 1bbe 5709 9d3c
00000150: c6d3 083e b689 31be 618a e13e 29c2 78be
00000160: 9ccd 343d c89b a73c 147d a7bd 07ce 023e
00000170: b728 f1bd 2787 af3d aa7f 1cbe f586 95bd
00000180: f123 4a3e af0c 4c3d 96f9 0d3e ffd0 743d
00000190: a9a5 2b3e 8d2f 173a b1ba c7bd ed57 e6bd
000001a0: a434 573d 620e 89bd f905 d43e 0aa8 863e
000001b0: 8ed5 cabd 19f7 1b3e 1f5a 7abd af31 44be
000001c0: f697 89bc 54a6 99bd f1d1 a63d d2ad 96bd
000001d0: 0d18 83be 5a2d 23bd ea4a dabe ac62 82be
000001e0: 027a c33d 34ec cfbc b88e 83bb e194 653c
000001f0: 998c ecbe 890b 2bbc 2554 873d 7490 0e3d
-0.19314736 -0.118773125 0.13104163 0.26678684 0.1620688 0.14430873 0.09739499 -0.10757738
0.37477764 0.14575122 -0.08403039 -0.053699568 -0.13977742 -0.19588774 0.22755812 -0.08225029
0.07270887 0.20587517 -0.09036569 0.22941938 0.004829472 -0.032112386 -0.01586427 0.04868111
-0.2110609 -0.08547563 -0.018613534 -0.13191529 -0.15274584 -0.045180876 -0.37829706 0.1414899
-0.0125629455 -0.05609228 0.07824172 -0.19989824 0.15315443 -0.02426296 -0.06680459 -0.09446319
-0.21474433 -0.10010713 0.1129113 -0.11227362 0.119426996 0.005499425 -0.11664875 -0.053914476
0.7466672 -0.042839486 0.15247603 0.21362814 -0.06404005 -0.25297216 0.2817378 -0.14917807
0.061970077 -0.095929794 0.15264939 0.084869854 -0.22098097 -0.06426455 0.09176252 0.11873595
0.14118639 -0.3595181 -0.053302974 0.062376697 0.12015293 0.13687785 0.073101215 0.083693326
-0.14439969 -0.20800239 -0.17114764 -0.03478453 0.00706118 -0.20267113 0.06536553 0.050427306
-0.18751039 -0.025656376 -0.15224534 0.019169493 0.13362035 -0.17337689 0.44050887 -0.24292816
0.044141397 0.020460024 -0.08178154 0.12773906 -0.11775344 0.085707 -0.15283075 -0.07301132
0.19740273 0.049816784 0.1386474 0.059769627 0.16762413 0.00057672785 -0.097524054 -0.11247239
0.052540436 -0.066921964 0.41410807 0.2630008 -0.099040136 0.15230979 -0.061121102 -0.19159578
-0.016796093 -0.07502428 0.08145512 -0.07357372 -0.25604287 -0.039838172 -0.4263528 -0.25465906
0.095447555 -0.025381185 -0.004014816 0.014012546 -0.46201017 -0.010439762 0.06607846 0.03480573

critic.v_net.fcs.2.weight f4 [1, 128]
00000000: e5b5 7fbf 015b 8bbf 132a 8b3f 2eed 46bf
00000010: 28d7 9d3f 931c 15bf 0663 943f 5e72 9c3f
00000020: 09a5 ccbe 65de 88bf c2a7 84bf feab 94bf
00000030: f8b8 ca3f f206 293f 5520 743f d1e7 8fbf
00000040: 0cbb 173f 961d 333f 1ce1 3b3f 427a 1dbf
00000050: e688 9bbf a1cf f83e 6214 21bf 7241 a03f
00000060: 3bee 4e3f 8ee9 74bf 7a51 443f bf29 a23f
00000070: 3ca0 6dbf b3ba 833f d3a5 443f 92f0 8c3f
00000080: 2830 db3f c769 3bbf 1e4c 53bf b4fd 95bf
00000090: 40f7 af3f 07a0 813f 3316 f33e 9304 1c3f
000000a0: 16ab b9bf 8108 96bf 9c48 283f efc8 83bf
000000b0: 6315 823f a7cf 92bf b41d 67bf 2062 8a3f
000000c0: d8d2 14bf 4cf9 623f b1fa cc3f 025f 8b3f
000000d0: 69f9 53bf 5aa7 333f 70ce 19bf ab88 38bf
000000e0: 53a9 893f 7f7e 503f a922 853f ca8e 22bf
000000f0: 2b99 84bf 6be7 93bf ae85 5b3f cf5f 983f
00000100: 0499 9b3f b578 713f f203 a7bf 037c 2b3f
00000110: 596c a3bf 7671 a9bf ef80 81bf 16de 733f
00000120: 5e2e 95bf d600 b43f 496e 263f d504 013f
00000130: c66f 89bf b216 793f 1560 8bbf 7dc8 773f
00000140: cd17 80bf 82ba 8a3f 5854 963f 73c2 26bf
00000150: 5679 293f c2d4 b33e 4658 12bf 2bcc 9d3f
00000160: 787b 99bf 7d1f 9abf 4489 663f e892 863f
00000170: f4e5 33bf e3a2 8d3f 6bd2 80bf 38af 6d3f
00000180: edc2 37bf 277d 833f 5e4d 813f e8df 06bf
00000190: 2d78 833f 1d57 a33f 11ce 7bbf 60a4 7fbf
000001a0: 0d0a 7bbf 693b 783f fcc8 3dbf ec8e 8d3f
000001b0: f606 68bf 35bf 58bf 7653 88bf fc3d ed3e
000001c0: 2f51 7ebf 8357 47bf 34bf 8abf cc0a 623f
000001d0: d9cd 7bbf 6279 55bf 878f 56bf 8bd9 653f
000001e0: 1f38 873f 26be 5fbf 4a73 91bf d0a8 883f
000001f0: 534c 9a3e d774 78bf 79e0 563f f9bb 3abf
-0.99886924 -1.0887147 1.0872215 -0.7770566 1.2331285 -0.58246726 1.159272 1.2222402
-0.39969662 -1.069287 -1.0363696 -1.1614988 1.5837698 0.6602622 0.95361835 -1.124262
0.59269786 0.6996702 0.73390365 -0.61514676 -1.2151153 0.48595908 -0.62921727 1.2519972
0.8083226 -0.95668876 0.76686823 1.266899 -0.92822623 1.0291351 0.7681553 1.1010916
1.7124071 -0.7320828 -0.8253802 -1.1718049 1.374733 1.0126961 0.47477874 0.6094448
-1.4505336 -1.1721345 0.65735793 -1.0295695 1.0162777 -1.146962 -0.902797 1.0811195
-0.5813422 0.88661647 1.6014005 1.0888369 -0.82802445 0.70177233 -0.60080624 -0.7208354
1.0754799 0.8144302 1.0401202 -0.6349913 -1.0359243 -1.1554998 0.85750854 1.1904238
1.2156072 0.9432481 -1.3048079 0.669861 -1.276744 -1.323775 -1.0117472 0.9526075
-1.1654775 1.4062755 0.6501203 0.50398 -1.0737236 0.97300255 -1.0888697 0.96790296
-1.0007263 1.0838168 1.174449 -0.65140456 0.6620077 0.3512326 -0.57165945 1.2327932
-1.1990805 -1.204086 0.900532 1.0513582 -0.70272756 1.1065334 -1.0064214 0.9284549
-0.7178181 1.0272568 1.0101736 -0.52685404 1.027105 1.276096 -0.9836131 -0.9986019
-0.9806221 0.9696565 -0.741348 1.1059241 -0.9063562 -0.8466676 -1.065047 0.46336353
-0.99342626 -0.7786791 -1.08396 0.88297725 -0.98360974 -0.8338834 -0.83812755 0.8978507
1.0564002 -0.8739952 -1.1363308 1.0676517 0.30136356 -0.97053283 0.8393627 -0.72943074

exp_avg f4 [4]
00000000: b12f 71bc 0ce1 983c 6aee 843a eabe 24bb
-0.014720843 0.018661998 0.0010141854 -0.0025138208

exp_avg_sq f4 [4]
00000000: 6f6c b73b 243a b13b 8a02 a93b e294 a43b
0.005597643 0.005408542 0.0051577734 0.005022631
