examples/rl/models/ppo/ppo_model_quadrotor_2D_stab.pt (torch, 464235 bytes, 36 tensors)

actor.logstd f4 [2]
-1.6549566 -1.6733768
00000000: 9ed5 d3bf 3631 d6bf

actor.pi_net.fcs.0.weight f4 [128, 6]
0.166538 -0.2016299 0.5017768 0.5539203 0.03945088 -0.21471737 -0.26039144 0.09117647
-0.4406589 0.5115 0.1715961 -0.062085886 -0.22521324 0.16335167 0.19557528 0.18303654
1.1261442 0.092666134 -0.33436283 0.26909634 0.16319768 -0.35134864 -0.72222906 0.18370412
0.08734642 -0.08056695 0.06628483 0.40241686 -0.19709802 -0.067007385 -0.23343427 -0.083453126
-0.41132814 -0.13348001 0.6340781 0.09934024 0.34336597 -0.15652834 0.104343146 0.65130323
-0.32746118 -0.11967919 -0.23315579 0.1260467 0.3934839 0.63167566 0.6999392 0.082302734
0.16524091 -0.08992687 0.29149395 0.15775678 -0.3835441 -0.14196423 0.20880531 0.24964926
0.25527787 -0.16245264 -0.14097947 0.31818053 -0.26682255 -0.28883436 -0.0204133 -0.42180884
0.05454664 0.16669369 0.17991327 0.20897429 0.19174843 -0.28163594 0.71998435 -0.14849474
0.01681946 0.42251638 0.2836744 0.5878948 0.90023243 0.30577096 -0.17040862 -0.22295721
0.2009827 0.21709554 0.10424766 0.015136453 0.052358143 -0.141231 -0.2344866 -0.23235075
0.4564213 -0.070809215 -0.3099447 -0.18322904 -0.14771166 0.016882958 -0.7404951 -0.13960822
-0.23656549 -0.20756617 0.43913212 0.48978764 -0.74237734 -0.23082462 -0.31370103 -0.36596215
0.09614847 -0.13793957 -0.63580585 -0.018667754 -0.07617359 -0.04777917 -0.1028134 0.29231492
-0.73450667 -0.010899622 0.19105902 0.3112601 -0.2120966 -0.21867122 0.50119144 0.14804606
0.13328974 -0.008799841 0.32681438 0.07059821 -0.51842606 0.23493548 0.014037698 -0.061627127
-0.31328976 -0.2941247 -0.85272807 -0.10285694 -0.13122602 -0.043263797 -0.24303214 0.13644406
0.44809166 -0.19342484 0.22730942 -0.20338587 -0.35509658 0.38534275 -0.63031226 -0.094393566
0.101298586 0.20663 -0.14185278 0.016912736 -0.06007631 -0.037812788 -0.47276527 -0.04904122
0.03710886 0.24347478 -0.5786188 -0.3570893 -0.15190637 -0.4552538 -0.017472472 0.4361653
-0.34588864 0.19510445 0.08173426 0.24865569 0.37567544 0.35505602 -0.21800874 -0.022649745
0.38182446 0.41746026 -0.25067648 0.47250727 0.49675155 0.006684473 -0.4731657 -0.5079164
-0.24114381 -0.2945424 -0.69586015 -0.16256733 -0.42632446 -0.44782737 -0.06605382 -0.39930403
-0.43538675 -0.027669355 0.115922794 0.23268612 0.051959675 -0.10386841 -0.13342994 0.1062892
0.317777 0.263014 -0.11285115 -0.15071923 0.36482793 0.24245135 -0.2334039 -0.40079308
-0.13197382 0.03827637 -0.73706347 0.017491873 0.19368148 0.049702097 0.075047545 0.33389404
0.5049512 -0.1886192 0.2504858 0.23412724 -0.43879184 -0.02030797 -0.43331203 0.29433554
0.2103868 -0.06774937 -0.25259686 -0.22089718 -0.21364534 0.14980753 -0.24012223 0.1099499
-0.0030414208 0.09462413 -0.5705496 -0.07804543 0.37790582 0.5040928 -0.17548327 -0.24203315
0.46841022 0.32405022 -0.39326024 -0.25415987 -0.26797643 0.4932107 -0.346972 0.23816901
0.20385036 0.14768562 0.2027368 0.39017993 0.21217646 0.23254398 -0.12473889 0.005575341
0.04284516 -0.6051603 -0.5063272 -0.24153692 -0.1552768 -0.04136815 0.10005927 -0.25556305
00000000: f088 2a3e 1278 4ebe 7274 003f b9cd 0d3f
00000010: 3f97 213d dfde 5bbe 0752 85be bbba ba3d
00000020: 0b9e e1be aaf1 023f e3b6 2f3e c54d 7ebd
00000030: 4d9e 66be a945 273e e344 483e ee6d 3b3e
00000040: 7e25 903f bec7 bd3d 9b31 abbe ffc6 893e
00000050: 4b1d 273e f8e3 b3be 01e4 38bf ef1c 3c3e
00000060: aee2 b23d 4900 a5bd 57c0 873d 9509 ce3e
00000070: 10d4 49be 2b3b 89bd 6509 6fbe 79e9 aabd
00000080: 9a99 d2be fcae 08be f152 223f e572 cb3d
00000090: aacd af3e f748 20be dcb1 d53d cfbb 263f
000000a0: fea8 a7be 5d1a f5bd 64c0 6ebe 6312 013e
000000b0: b976 c93e 7fb5 213f 372f 333f 568e a83d
000000c0: ea34 293e 942b b8bd b23e 953e fe8a 213e
000000d0: e45f c4be 125f 11be 0fd1 553e 0ea4 7f3e
000000e0: c8b3 823e fc59 26be ec5c 10be 8fe8 a23e
000000f0: f79c 88be 19e2 93be cb39 a7bc 54f7 d7be
00000100: 4c6c 5f3d c0b1 2a3e 2f3b 383e 5bfd 553e
00000110: b359 443e 9632 90be e550 383f 010f 18be
00000120: f7c8 893c 1154 d83e c53d 913e 4680 163f
00000130: a275 663f 038e 9c3e 997f 2ebe e54e 64be
00000140: 69ce 4d3e 4b4e 5e3e cc7f d53d e3fe 773c
00000150: 7e75 563d dc9e 10be 411d 70be 5bed 6dbe
00000160: 0db0 e93e 6c04 91bd 12b1 9ebe 65a0 3bbe
00000170: ba41 17be 214e 8a3c 1691 3dbf 75f5 0ebe
00000180: 393e 72be 3a8c 54be edd5 e03e 72c5 fa3e
00000190: 710c 3ebf 4a5d 6cbe 6c9d a0be 645f bbbe
000001a0: 7de9 c43d 0840 0dbe 2cc4 22bf 1eed 98bc
000001b0: e600 9cbd 17b4 43bd d58f d2bd 4daa 953e
000001c0: a108 3cbf 5494 32bc faa4 433e 7c5d 9f3e
000001d0: da2f 59be 59eb 5fbe 154e 003f 6399 173e
000001e0: 1b7d 083e 352d 10bc 3754 a73e cb95 903d
000001f0: 92b7 04bf ed92 703e 5ffe 653c ba6c 7cbd
00000200: 8467 a0be 8397 96be 634c 5abf a9a6 d2bd
00000210: 1d60 06be 6135 31bd 6bdd 78be feb7 0b3e
00000220: 456c e53e 2911 46be cdc3 683e 6344 50be
00000230: 38cf b5be a54b c53e 255c 21bf 6a51 c1bd
00000240: a275 cf3d d196 533e db41 11be 948c 8a3c
00000250: 9412 76bd 95e1 1abd 4a0e f2be 72df 48bd
00000260: 76ff 173d 7451 793e 5d20 14bf 69d4 b6be
00000270: 588d 1bbe 0717 e9be 6e22 8fbc 0f51 df3e
00000280: 5118 b1be 76c9 473e 4b64 a73d 999f 7e3e
00000290: 8858 c03e e7c9 b53e af3d 5fbe f58b b9bc
000002a0: 7f7e c33e 5abd d53e ab58 80be 79ec f13e
000002b0: 3856 fe3e 6c09 db3b c642 f2be cf06 02bf
000002c0: 67ee 76be 43ce 96be e423 32bf 0d78 26be
000002d0: 3347 dabe a149 e5be 3a47 87bd 9471 ccbe
000002e0: 03eb debe d8aa e2bc ee68 ed3d 4545 6e3e
000002f0: abd3 543d f6b8 d4bd dca1 08be 27ae d93d
00000300: abb3 a23e c5a9 863e 811e e7bd 2456 1abe
00000310: baca ba3e 2b45 783e 6f01 6fbe c034 cdbe
00000320: 2524 07be afc7 1c3d 31b0 3cbf 1e4b 8f3c
00000330: 7054 463e 6d94 4b3d 87b2 993d 29f4 aa3e
00000340: 7b44 013f 6425 41be ad3f 803e 0dbf 6f3e
00000350: 53a9 e0be e65c a6bc 13db ddbe 26b3 963e
00000360: a36f 573e 2fc0 8abd 6054 81be df32 62be
00000370: d8c5 5abe 2567 193e 9ae2 75be 6a2d e13d
00000380: 9352 47bb 4cca c13d 8a0f 12bf 48d6 9fbd
00000390: df7c c13e 3a0c 013f e3b1 33be 8ad7 77be
000003a0: 77d3 ef3e e9e9 a53e 6859 c9be 3e21 82be
000003b0: 3534 89be 1d86 fc3e 50a6 b1be 94e2 733e
000003c0: 26be 503e e63a 173e 3c9a 4f3e aac5 c73e
000003d0: c944 593e 0220 6e3e 1a77 ffbd 5ab1 b63b
000003e0: 687e 2f3d c9eb 1abf a99e 01bf 7455 77be
000003f0: e200 1fbe a671 29bd e0eb cc3d 29d9 82be

actor.pi_net.fcs.0.bias f4 [128]
-0.37118924 0.33074963 -0.12989815 0.40100604 0.08950065 0.3827057 -0.26356173 -0.34735337
-0.14460534 -0.23128274 0.017373398 -0.20446807 0.2680007 -0.08701194 0.121518604 0.056395736
-0.40484056 -0.29828453 0.027829997 -0.21560028 -0.19404063 -0.047327384 0.1430388 0.118687235
0.24394308 -0.21809381 0.30887777 -0.41590452 -0.28077406 -0.048224747 0.22073096 -0.14281975
-0.1954473 0.09657314 0.087460235 0.4071793 -0.035547655 0.2241677 -0.18382931 0.18590222
-0.30482712 -0.111410975 0.31505668 0.19832125 -0.017598538 -0.20790288 0.046152595 0.018079992
0.42338318 -0.006170014 -0.06711136 -0.12830903 -0.08381577 -0.0040885014 0.17642264 -0.019978365
0.22168805 -0.18932669 -0.28177574 0.11631068 -0.015856322 -0.3971424 0.12982729 0.0059499703
-0.3865809 -0.37661833 -0.11233243 0.1784843 -0.10830073 0.0026157207 0.26726973 -0.060890876
0.06937899 0.31005278 0.24928711 -0.2904517 -0.09146209 0.25608665 0.24456927 0.04999755
0.17665155 -0.008368113 -0.27519408 -0.101725616 0.27969596 -0.3065843 0.082055025 0.34245834
-0.0073569417 0.067531615 0.1097881 0.37601578 -0.23600869 -0.15775108 -0.012509301 -0.0145614715
-0.008116861 0.23759353 -0.37114742 -0.3846672 -0.19885561 -0.18698344 0.32078338 0.41246545
-0.32864162 0.09293581 -0.2542606 0.096845664 -0.070147716 -0.28985605 0.173073 -0.12943836
0.0931752 0.12172682 0.023439571 -0.17223047 -0.11557656 -0.15283158 0.039457027 -0.12928852
-0.21910349 -0.43252885 0.08381354 0.17263706 0.27855498 -0.113340855 0.28367206 -0.16627227
00000000: 840c bebe 0458 a93e 0504 05be aa50 cd3e
00000010: 1e4c b73d 00f2 c33e 90f1 86be 4dd8 b1be
00000020: 6c13 14be 62d5 6cbe a852 8e3c 1460 51be
00000030: 6337 893e 5133 b2bd bfde f83d 37ff 663d
00000040: 4347 cfbe c0b8 98be bcfb e33c 52c6 5cbe
00000050: 96b2 46be 5cda 41bd c378 123e 4b12 f33d
00000060: 37cc 793e fc53 5fbe 3a25 9e3e 70f1 d4be
00000070: 9ec1 8fbe 5087 45bd 4c07 623e 573f 12be
00000080: 5623 48be 23c8 c53d 5a1e b33d ce79 d03e
00000090: 6b9a 11bd 388c 653e c03d 3cbe 275d 3e3e
000000a0: 4d12 9cbe 702b e4bd 1c4f a13e ba14 4b3e
000000b0: cf2a 90bc 7ee4 54be 810a 3d3d 7e1c 943c
000000c0: aec5 d83e d42d cabb ae71 89bd 7163 03be
000000d0: 9aa7 abbd d6f8 85bb 23a8 343e aba9 a3bc
000000e0: 3102 633e dbde 41be e944 90be 4b34 ee3d
000000f0: 1ee5 81bc 4056 cbbe 72f1 043e f8f7 c23b
00000100: efed c5be 1ed4 c0be 8c0e e6bd 97c4 363e
00000110: c6cc ddbd 836c 2b3b 94d7 883e b668 79bd
00000120: 9216 8e3d 3dbf 9e3e 1f45 7f3e 16b6 94be
00000130: 7a50 bbbd ca1d 833e 5e70 7a3e 3bca 4c3d
00000140: 25e4 343e 691a 09bc 3de6 8cbe 8555 d0bd
00000150: 4f34 8f3e 9ef8 9cbe 770c a83d b356 af3e
00000160: 8012 f1bb 044e 8a3d 95d8 e03d 2485 c03e
00000170: 43ac 71be 8089 21be d0f3 4cbc 3d93 6ebc
00000180: 95fc 04bc b84b 733e 0907 bebe 19f3 c4be
00000190: cea0 4bbe 9678 3fbe b83d a43e ac2e d33e
000001a0: b743 a8be 2155 be3d 722e 82be 0557 c63d
000001b0: 9ba9 8fbd 0368 94be 0c3a 313e 7d8b 04be
000001c0: a4d2 be3d e94b f93d 5804 c03c 2f5d 30be
000001d0: 67b3 ecbd e27f 1cbe b19d 213d 3664 04be
000001e0: aa5c 60be 6c74 ddbe 6fa6 ab3d c5c7 303e
000001f0: c29e 8e3e 401f e8bd 773d 913e 4743 2abe

actor.pi_net.fcs.1.weight f4 [128, 128]
-0.03067851 -0.0092286505 0.039497845 0.04922021 -0.031752862 -0.049156923 -0.044392 -0.008834456
0.058819663 0.09885613 -0.014485681 -0.00517214 0.038885914 0.11695354 0.0012115353 -0.01815723
-0.014177839 0.13036732 -0.100668065 0.01861338 -0.047545273 -0.019527191 -0.071527556 -0.084852576
-0.086961344 0.010521947 -0.06680366 -0.05745359 0.008217024 0.08217724 -0.0616755 -0.038765866
-0.022691457 0.07738932 0.0071346746 -0.02113842 -0.06939232 -0.052481033 0.04587785 -0.054911945
0.0010484001 -0.08303092 -0.00024781935 0.005864539 -0.06990677 -0.033100974 0.109417945 -0.08216985
-0.01097568 -0.04872203 -0.04960351 -0.07435023 -0.09302428 -0.0055776844 -0.1007467 -0.017404078
-0.06890881 0.0068709743 0.04424854 -0.06999 0.04393562 -0.042765506 0.007714251 0.06115447
0.0601276 -0.042029537 -0.07242811 0.03868338 0.06239625 0.034913857 0.013340174 0.035502706
-0.040117882 -0.067248896 -0.15971875 -0.033967633 -0.024848867 0.07328826 -0.007180153 -0.0061996016
0.08108185 -0.048461366 -0.049005803 -0.06664713 -0.099064425 -0.09189678 -0.07923169 0.064042926
0.05913654 0.012947756 0.049737297 -0.12194876 -0.0446076 -0.046220474 0.03174406 0.096089825
0.022922479 0.06164105 -0.010136937 -0.040312886 0.12246564 0.033206332 -0.027414888 -0.0011904183
0.024520405 -0.042437516 -0.0499356 -0.0050994703 -0.012359509 -0.04997205 0.006811688 -0.06263192
-0.007186837 -0.03735841 -0.018397236 -0.037548404 0.008841032 -0.028269244 0.06392016 -0.077824324
-0.068884045 0.008664322 0.008999038 0.061321706 -0.012721645 0.03095461 0.0024311624 0.006497993
0.052608863 0.017597996 -0.01310991 0.04417569 -0.0084862355 0.029990425 0.0061743166 -0.0859352
-0.0344744 0.021785894 0.003634633 -0.06936699 -0.029516798 -0.083678044 -0.03150742 0.0077612004
-0.005346113 -0.049312927 -0.016286122 -0.008509341 -0.085806 -0.0069001648 -0.024019314 -0.07487673
-0.058568288 0.042317867 0.08906382 -0.08524265 -0.026263924 -0.03796875 0.052008543 -0.05968989
-0.0033993514 -0.020735187 0.07710732 -0.029141307 0.01893273 0.01966531 0.006878668 0.015649753
-0.04234303 -0.014218378 0.0006903379 -0.022917833 0.061465595 -0.056292515 -0.06818373 -0.05130625
-0.037463702 0.01641001 -0.0005414984 -0.013387401 -0.044020675 -0.010181571 -0.03597668 -0.110509835
0.0292641 -0.051279306 9.121852e-05 -0.03850441 -0.00073769427 -0.00023721045 0.0069656256 0.044992954
0.030637152 0.02289845 -0.01548464 0.041552365 0.045779377 -0.016404504 -0.018760568 0.08072937
0.083720356 -0.026862873 0.08594451 0.06855957 -0.0017398002 -0.035455234 -0.0035328204 -0.067825094
0.09306375 0.035821464 -0.009921244 -0.023061598 0.0042955456 -0.019594433 -0.089773506 -0.08346545
-0.05821903 -0.014238004 -0.004498291 -0.05626966 0.0021176487 -0.027130315 -0.050409596 -0.030001119
0.04391346 0.015476793 -0.06850946 0.07607427 -0.07454443 -0.095996596 0.0047137532 -0.029200496
0.018092513 0.009402926 -0.09705639 0.015252206 0.01826322 -0.06986539 0.03801072 0.037167564
0.03606761 0.08402662 -0.040252183 0.00045719752 -0.073328756 -0.0653922 0.0762413 0.095562376
-0.023580672 0.018840328 -0.024088059 -0.06053354 0.05274564 -0.0593068 -0.0071694558 0.045424756
00000000: 8051 fbbc c433 17bc 7ec8 213d 229b 493d
00000010: 4a0f 02bd c558 49bd 63d4 35bd 65be 10bc
00000020: e3ec 703d 1575 ca3d 5a55 6dbc 0e7b a9bb
00000030: d646 1f3d 5685 ef3d 61cc 9e3a 79be 94bc
00000040: 2b4a 68bc 037f 053e 0f2b cebd 167b 983c
00000050: d5be 42bd 7df7 9fbc 0a7d 92bd 30c7 adbd
00000060: ca18 b2bd 3f64 2c3c 5bd0 88bd 7554 6bbd
00000070: b2a0 063c 8a4c a83d 739f 7cbd f5c8 1ebd
00000080: 6fe3 b9bc 4b7e 9e3d fdc9 e93b 7b2a adbc
00000090: 901d 8ebd 5af6 56bd 6aea 3b3d 59eb 60bd
000000a0: 786a 893a 1d0c aabd c0ed 81b9 522b c03b
000000b0: 482b 8fbd e394 07bd 8416 e03d ab48 a8bd
000000c0: 57d3 33bc c090 47bd 0d2d 4bbd ef44 98bd
000000d0: 8483 bebd 02c5 b6bb 4954 cebd ff92 8ebc
000000e0: 1020 8dbd e925 e13b f53d 353d eb56 8fbd
000000f0: d6f5 333d e22a 2fbd d4c7 fc3b 1c7d 7a3d
00000100: 5c48 763d 2a27 2cbd 3055 94bd 7772 1e3d
00000110: 3693 7f3d d501 0f3d bf90 5a3c 496b 113d
00000120: a652 24bd cab9 89bd 508d 23be a521 0bbd
00000130: da8f cbbc 2818 963d 7d47 ebbb 0726 cbbb
00000140: 3e0e a63d 6d7f 46bd 4fba 48bd 4a7e 88bd
00000150: 4ae2 cabd 6134 bcbd 3944 a2bd f028 833d
00000160: 2839 723d d322 543c 56b9 4b3d 45c0 f9bd
00000170: 75b6 36bd ae51 3dbd 0f06 023d beca c43d
00000180: ecc7 bb3c 537b 7c3d 6515 26bc 201f 25bd
00000190: 44cf fa3d 5d03 083d 3095 e0bc cf07 9cba
000001a0: 04df c83c f6d2 2dbd 4689 4cbd 7519 a7bb
000001b0: 8a7f 4abc 7eaf 4cbd 9534 df3b 2a45 80bd
000001c0: 8f7f ebbb 2205 19bd cdb5 96bc 5bcc 19bd
000001d0: fad9 103c e794 e7bc 93e8 823d 5c62 9fbd
000001e0: 1413 8dbd cdf4 0d3c b370 133c 782c 7b3d
000001f0: 726e 50bc 8694 fd3c 2354 1f3b 1eed d43b
00000200: 647c 573d ac29 903c f3ca 56bc 91f1 343d
00000210: da09 0bbc 7bae f53c ec51 ca3b cbfe afbd
00000220: 0735 0dbd 5578 b23c 0633 6e3b 4810 8ebd
00000230: 36cd f1bc 655f abbd ed0d 01bd ab51 fe3b
00000240: 722e afbb 5afc 49bd 796a 85bc c36a 0bbc
00000250: 0ebb afbd c71a e2bb 27c4 c4bc f958 99bd
00000260: 4de5 6fbd 8055 2d3d 1867 b63d b393 aebd
00000270: 7127 d7bc 1f85 1bbd e906 553d 637d 74bd
00000280: a7c7 5ebb d7dc a9bc 71ea 9d3d c0b9 eebc
00000290: d018 9b3c 2519 a13c 7366 e13b e933 803c
000002a0: e36f 2dbd 33f4 68bc cbf7 343a 2ebe bbbc
000002b0: 59c3 7b3d fb92 66bd e9a3 8bbd 8126 52bd
000002c0: 8a73 19bd 496e 863c 58f3 0dba d456 5bbc
000002d0: 064f 34bd 9bd0 26bc 495c 13bd fb52 e2bd
000002e0: 44bb ef3c 400a 52bd 924c bf38 cdb6 1dbd
000002f0: d361 41ba b2bb 78b9 e73f e43b 884a 383d
00000300: c4fa fa3c 8895 bb3c 4ab3 7dbc d032 2a3d
00000310: 2883 3b3d bd62 86bc c3af 99bc 7155 a53d
00000320: 9475 ab3d 870f dcbc ad03 b03d f668 8c3d
00000330: 020a e4ba 8239 11bd e486 67bb e2e7 8abd
00000340: 3598 be3d 87b9 123d b78c 22bc adeb bcbc
00000350: a6c1 8c3b 8184 a0bc 2cdb b7bd efef aabd
00000360: 1477 6ebd 8446 69bc 6666 93bb 047b 66bd
00000370: 40c8 0a3b 6540 debc 4b7a 4ebd e8c4 f5bc
00000380: 9ade 333d 6092 7d3c b04e 8cbd d4cc 9b3d
00000390: c0aa 98bd dd99 c4bd d475 9a3b e135 efbc
000003a0: c036 943c bb0e 1a3c 80c5 c6bd 63e4 793c
000003b0: c09c 953c 9615 8fbd 21b1 1b3d 043d 183d
000003c0: a1bb 133d 2616 ac3d 79df 24bd 03b4 ef39
000003d0: 632d 96bd 59ec 85bd 6624 9c3d 35b6 c33d
000003e0: 412c c1bc 0857 9a3c 5254 c5bc 04f2 77bd
000003f0: d00b 583d b0eb 72bd c1ed eabb 4f0f 3a3d

actor.pi_net.fcs.1.bias f4 [128]
0.022377001 -0.073390596 0.076713644 0.08807031 -0.004966617 -0.05593482 0.043746088 -0.04084312
-0.04351936 -0.024157222 0.029127823 0.039104737 0.13929382 -0.04916863 0.026907535 0.09116506
0.022085203 -0.021192634 0.009361255 0.02194678 0.034295514 0.07557403 0.099496104 -0.06504333
0.032480013 -0.0059866435 0.036410455 -0.11286116 0.03886738 -0.08531208 -0.04030735 0.15542585
0.014856937 0.07959587 -0.059531905 0.007606459 -0.060417064 -0.03679238 0.104791485 0.05922947
-0.07069291 0.07388793 0.025958076 -0.065025896 -0.074239425 -0.07357454 0.10329805 -0.0458875
-0.043588962 0.044094592 0.072073005 -0.08437348 -0.08124779 0.03823019 -0.020061042 -0.06063814
0.026205832 -0.02877756 0.07178687 -0.012163605 0.055612136 -0.027281988 0.09353038 0.06794262
-0.0051535317 -0.045965336 0.010176042 -0.035927877 0.02129492 0.02730855 0.095524326 0.011187472
0.08803927 -0.06071034 -0.051668946 0.029758913 0.035497695 -0.039653044 0.08997361 0.02687404
-0.06675037 -0.016156968 0.09056975 -0.057248 0.09627315 -0.058895696 -0.013123112 0.021796973
0.038513362 0.03152041 0.008125826 -0.061701685 0.05398203 -0.063463025 0.047289774 0.028421145
0.07749715 -0.039740298 0.041747883 0.0718777 -0.015643142 -0.0039648204 0.04838811 0.0174002
-0.00037981448 -0.056271154 0.015287868 -0.07658112 -0.05270358 -0.055703077 0.060145225 0.06971335
0.06526644 -0.025526391 0.061852377 0.0028841803 0.08222856 -0.011436279 -0.04987536 -0.033386957
-0.05173195 0.02944303 0.01336683 -0.07340826 -0.034412593 -0.050013058 -0.096096404 0.019444048
00000000: f94f b73c cf4d 96bd 0b1c 9d3d 355e b43d
00000010: 01bf a2bb e91b 65bd 192f 333d 1e4b 27bd
00000020: 5b41 32bd 5ee5 c5bc 799d ee3c 4a2c 203d
00000030: 0aa3 0e3e 0c65 49bd 316d dc3c bfb4 ba3d
00000040: 07ec b43c 2d9c adbc f35f 193c bcc9 b33c
00000050: 7479 0c3d 8fc6 9a3d 9dc4 cb3d 7035 85bd
00000060: c309 053d 9b2b c4bb 2123 153d c023 e7bd
00000070: 6733 1f3d 1ab8 aebd 5219 25bd f427 1f3e
00000080: 836a 733c 2903 a33d bad7 73bd 9a3f f93b
00000090: e277 77bd 9bb3 16bd eb9c d63d 9a9a 723d
000000a0: 72c7 90bd 8e52 973d 08a6 d43c 4c2c 85bd
000000b0: d70a 98bd 40ae 96bd ee8d d33d 88f4 3bbd
000000c0: 578a 32bd 889c 343d 039b 933d 01cc acbd
000000d0: 3e65 a6bd 4297 1c3d 0e57 a4bc b35f 78bd
000000e0: 9dad d63c ebbe ebbc ff04 933d db49 47bc
000000f0: 8dc9 633d 7a7e dfbc db8c bf3d 8025 8b3d
00000100: f5de a8bb 2646 3cbd 6ab9 263c 1c29 13bd
00000110: af72 ae3c 2eb6 df3c 42a2 c33d a94b 373c
00000120: ef4d b43d 68ab 78bd d1a2 53bd f7c8 f33c
00000130: 0866 113d 3b6b 22bd 1644 b83d f226 dc3c
00000140: 6bb4 88bd 9e5b 84bc a27c b93d e17c 6abd
00000150: db2a c53d 9d3c 71bd 5202 57bc 918f b23c
00000160: 30c0 1d3d 8c1b 013d 2f22 053c e8ba 7cbd
00000170: 431c 5d3d e7f8 81bd ecb2 413d 76d3 e83c
00000180: d3b6 9e3d b9c6 22bd d4ff 2a3d 9e34 933d
00000190: 0c26 80bc 53eb 81bb 9c32 463d dd8a 8e3c
000001a0: d621 c7b9 957c 66bd f779 7a3c 90d6 9cbd
000001b0: b6df 57bd e928 64bd d75a 763d dfc5 8e3d
000001c0: 69aa 853d b91c d1bc eb58 7d3d 8404 3d3b
000001d0: 7267 a83d 3b5f 3bbc 1b4a 4cbd c3c0 08bd
000001e0: e2e4 53bd 8232 f13c 8c00 5b3c 1257 96bd
000001f0: 38f4 0cbd 7eda 4cbd 31ce c4bd 2049 9f3c

actor.pi_net.fcs.2.weight f4 [2, 128]
0.007661691 -0.0007419061 0.1667745 0.0018857025 0.00089809584 -0.0027157215 0.0005708544 0.00803505
0.0028364563 0.00013924977 -0.004163768 -0.0040107043 0.19176193 0.07582348 0.0012393949 -0.002568415
0.0007956885 0.00051917124 -0.004932892 0.0056278356 -0.001552568 0.0004852378 -0.0050808843 -0.06644496
-0.0012953278 -0.0024648127 -0.00039190752 -0.31911123 0.029513996 -0.0008003323 -0.0006582022 0.13267654
-0.00085050624 0.0018561691 -0.00010196901 0.0016418623 0.0009552209 -0.0009548664 0.0017994066 -0.0038478395
0.0005050053 0.00395794 0.0017088583 -0.00041541518 0.0020495492 0.0096525075 -0.00011466845 0.0012294913
0.0072193434 -3.0033581e-05 -0.003131716 0.0034235516 -0.0015348548 -0.0014680302 0.0042955996 -0.0008232436
-0.07649617 0.013161281 0.0028583845 0.0004463464 -0.062461067 0.0076233223 0.10439884 0.018309377
0.0018556403 -0.000107592816 0.005402474 -8.105158e-05 -0.003789081 -0.0007734706 -0.018064233 -8.735707e-05
-0.17561479 0.003052472 -0.050988242 -0.002026014 -0.00467845 0.0037697705 -0.09537727 0.06967396
-0.0051162196 0.0017266438 0.10749821 -0.005639884 0.0010198256 0.0002903407 0.0034900208 0.016731966
0.0017613808 0.048646934 0.00052071526 0.0034947603 0.000879944 0.0032707774 0.0032893107 0.0015850823
0.042314008 0.00080705027 0.0025518474 -0.0010612909 -0.00012231185 0.0041565127 0.058286414 -0.003469627
-0.0023593828 0.00087547826 -0.0026186306 0.00027185015 -0.001426984 0.0028690777 0.0034557232 0.0011303535
0.0009840942 0.0040364265 0.0012603423 0.0022556074 -0.00061376765 0.17968498 0.00016980364 0.0037358718
0.0034118274 -0.00092617946 -0.0024277675 -9.664174e-05 0.0012238787 -0.0011592791 0.0032132925 0.0001929705
0.0011208218 0.0018497095 -0.10005866 0.008588958 0.0015930778 -0.001598709 0.00075834827 -0.0027857271
-0.0006655239 0.0029692345 -0.0042513376 0.0015882481 0.19381781 0.034149587 0.00011831739 -0.0047149463
-2.2228596e-06 0.0005315124 -0.0061798454 -0.002784409 -0.0016709148 0.00034599402 0.0013824713 -0.08583162
-0.0016475172 -0.00040585373 -0.0035151823 0.11907499 -0.0007662757 -0.0010969972 -0.00056815136 0.22602576
-0.00087475294 0.000527018 -0.0009833808 -0.0005144451 -0.0014115847 -0.00012801259 0.0011969683 -0.0034826547
-1.3203127e-05 0.003152799 0.0039752135 -0.00051612 -0.0011783344 -0.015630271 0.00047329866 0.001369855
3.2880023e-05 0.0026693384 -0.0021758378 -0.00072405476 -0.0003788847 0.00015374133 0.0012134381 -0.0026888088
0.009621258 -0.17071304 0.0039957734 -0.0007160554 -0.114194684 -0.008287518 0.1594804 0.011677599
0.005827266 -0.0045421654 0.001963137 0.0024756987 0.0001277126 0.00023493059 0.0033488085 0.002051513
0.06786943 -0.005396278 0.14838436 -0.0007932859 -0.002987711 -0.0006417241 0.109923445 0.110747464
-0.0056589325 -0.00024238511 0.06566093 -0.0031641764 0.0023272412 -0.0002992266 0.0024278518 0.023204995
-5.925841e-05 -0.011381791 -0.00023805084 -0.00018990294 0.0018145473 0.0010866583 0.0034014399 0.0026539834
0.02948472 -0.00021685686 0.0010433554 -0.00073986006 0.0012300581 -0.0014244786 0.18715689 -0.00043480366
-0.00026561745 0.001642773 -0.000115039 0.00012724422 0.0007919137 -0.0002939338 0.00077571115 0.0007267662
0.0006714803 -0.0054881675 0.0011787621 0.0006861804 -0.00067118305 -0.124878205 0.0014338078 0.0012647934
-0.0056080543 -0.00013775271 0.000674696 -0.008785383 0.0032885626 -0.00027819286 -0.0039407723 0.00070948503
00000000: ec0e fb3b 7a7c 42ba efc6 2a3e ad29 f73a
00000010: 316e 6b3a 3ffa 31bb 64a5 153a 71a5 033c
00000020: d7e3 393b 9303 1239 3870 88bb 3a6c 83bb
00000030: 3d5d 443e 5749 9b3d 3173 a23a da52 28bb
00000040: c095 503a fe18 083a 19a4 a1bb b569 b83b
00000050: 8a7f cbba 8467 fe39 8c7d a6bb 4c14 88bd
00000060: fdc7 a9ba b288 21bb f078 cdb9 8c62 a3be
00000070: 56c7 f13c 64cd 51ba 348b 2cba 5cdc 073e
00000080: 82f4 5eba b34a f33a 32d8 d5b8 c233 d73a
00000090: ca67 7a3a 0050 7aba 11da eb3a 092c 7cbb
000000a0: 5562 043a 9bb1 813b c5fb df3a 15cc d9b9
000000b0: bb51 063b 8d25 1e3c 287a f0b8 e226 a13a
000000c0: 3e90 ec3b a0f0 fbb7 7a3d 4dbb aa5d 603b
000000d0: 2e2d c9ba eb6a c0ba 1ac2 8c3b f1ce 57ba
000000e0: 06aa 9cbd 6aa2 573c bc53 3b3b 9a03 ea39
000000f0: 2dd7 7fbd 10cd f93b 0fcf d53d 8cfd 953c
00000100: f538 f33a 74a3 e1b8 3d07 b13b 3cfa a9b8
00000110: 3b52 78bb bcc2 4aba 71fb 93bc 7833 b7b8
00000120: 5dd4 33be fb0b 483b 0cd9 50bd e0c6 04bb
00000130: af4d 99bb 410e 773b 2855 c3bd 39b1 8e3d
00000140: f6a5 a7bb 8d50 e23a 0628 dc3d c7ce b8bb
00000150: abab 853a de38 9839 d5b8 643b 7a11 893c
00000160: 22de e63a 0242 473d 9c80 083a 5908 653b
00000170: 0bac 663a 8a5a 563b 7a91 573b 89c2 cf3a
00000180: 7451 2d3d 3a90 533a e53c 273b 031b 8bba
00000190: d640 00b9 5b33 883b bcbd 6e3d ae62 63bb
000001a0: e09f 1abb 5a80 653a 559d 2bbb 1c87 8e39
000001b0: a309 bbba 2307 3c3b 6a79 623b 5f28 943a
000001c0: b9fc 803a 0044 843b 1232 a53a d0d2 133b
000001d0: 40e5 20ba 57ff 373e 510d 3239 87d5 743b
000001e0: f798 5f3b daca 72ba 2e1b 1fbb 24ac cab8
000001f0: 8e6a a03a f4f2 97ba 1a96 523b 2058 4a39
00000200: 8ae8 923a f471 f23a 8eeb ccbd b3b8 0c3c
00000210: d2ce d03a c68b d1ba e4cb 463a bf90 36bb
00000220: 8e76 2eba 7d97 423b ce4e 8bbb c32c d03a
00000230: 2d78 463e 70e0 0b3d 2a21 f838 d67f 9abb
00000240: 702c 15b6 3255 0b3a 4d80 cabb a27a 36bb
00000250: 9902 dbba 8866 b539 0a34 b53a 7dc8 afbd
00000260: 81f1 d7ba c4c8 d4b9 f95e 66bb 97dd f33d
00000270: e4df 48ba 1ec9 8fba feef 14ba 4c73 673e
00000280: ad4f 65ba 9427 0a3a c9e4 80ba d4db 06ba
00000290: ec04 b9ba 1e3b 06b9 97e3 9c3a 403d 64bb
000002a0: 0083 5db7 319f 4e3b 8242 823b 3a4c 07ba
000002b0: 5772 9aba 0e0b 80bc 1225 f839 b58c b33a
000002c0: a8e8 0938 11f0 2e3b 8098 0ebb 7ece 3dba
000002d0: 0ba5 c6b9 a035 2139 3a0c 9f3a ba36 30bb
000002e0: 7ba2 1d3c 66cf 2ebe faee 823b aab5 3bba
000002f0: e7de e9bd 5fc8 07bc d44e 233e 6653 3f3c
00000300: a6f2 be3b 72d6 94bb f9a7 003b 553f 223b
00000310: 97ea 0539 b357 7639 af77 5b3b ad72 063b
00000320: 21ff 8a3d 43d3 b0bb 12f2 173e 84f4 4fba
00000330: 79cd 43bb 6039 28ba 8b1f e13d 91cf e23d
00000340: 916e b9bb c228 7eb9 3d79 863d 125e 4fbb
00000350: a184 183b 84e1 9cb9 981c 1f3b 6718 be3c
00000360: 3c8c 78b8 b17a 3abc 499d 79b9 af20 47b9
00000370: 1bd6 ed3a 346e 8e3a b1ea 5e3b 74ee 2d3b
00000380: f189 f13c 1264 63b9 33c1 883a 2bf3 41ba
00000390: e739 a13a 92b5 baba 0ea6 3f3e 5cf6 e3b9
000003a0: 9242 8bb9 5152 d73a 1841 f1b8 dc6c 0539
000003b0: 6e98 4f3a 201b 9ab9 1859 4b3a 7484 3e3a
000003c0: 4806 303a 16d6 b3bb b180 9a3a cae0 333a
000003d0: 55f2 2fba 25c0 ffbd 9bee bb3a 6dc7 a53a
000003e0: c5c3 b7bb b671 10b9 15de 303a 91f0 0fbc
000003f0: ed84 573b 6ada 91b9 9821 81bb bcfc 393a

actor.pi_net.fcs.2.bias f4 [2]
-0.006470387 -0.037883535
00000000: 8a05 d4bb c42b 1bbd

critic.v_net.fcs.0.weight f4 [128, 6]
-0.8180793 0.114721045 0.5404345 0.0028151616 -0.29747567 0.3055184 -0.54141283 0.44173518
-0.29101282 -0.75535464 0.50739914 0.2374071 0.52249855 0.93673044 0.42342377 -0.028704364
0.7344474 0.007272672 0.3138173 -0.012340366 0.038490012 0.69611716 0.34368616 0.059091315
0.45546415 0.6608036 0.25391904 0.45543683 0.50742996 0.030883828 0.030749949 0.3093092
0.6636841 -0.28715116 -0.5171563 0.018771136 -0.2819845 -0.06887434 0.33697543 -0.60836875
-0.75812596 -0.02819983 -1.1245687 -0.17882563 -1.2450055 -0.24243703 -0.027492449 -0.121939994
0.54173523 0.6035715 -0.35592204 -0.7209868 0.8691474 0.47207108 0.16385138 0.16423553
-0.4268596 0.5883727 0.8984752 -0.032222122 0.30211782 0.55924565 0.015260515 -0.76456296
1.9925077 -0.08231137 -0.5017134 -0.062653914 0.095209084 -0.21163894 -1.0675666 -0.093252435
0.26604417 0.19664434 0.5185361 0.08580519 -0.589801 -0.07980922 -0.18924855 -0.3545349
-0.23903355 -0.71003896 -0.998931 0.045805335 0.7140393 -0.16342174 -0.20048535 -0.6093398
-0.21236375 -0.027757915 0.7217557 0.012868574 -0.4355046 -0.27743992 -0.27541345 -0.17050076
-0.5188562 -0.09294769 0.25671083 0.05227866 -0.13083269 -7.086027e-06 -0.6306992 -0.07236753
0.3121932 0.361872 0.07964177 0.22434327 -0.9319498 -0.07749293 0.2853173 0.18838535
-0.697002 0.09966551 0.38755825 0.37406057 -0.098177195 -0.5471289 1.3708771 0.3441818
-0.42747086 -0.043183852 0.6265058 0.17185318 0.48054478 0.043254536 0.48858503 0.8696301
-0.7467001 -0.4071759 1.0636132 0.5571069 0.6490454 0.3916876 -0.16120306 -0.46005315
0.5968548 -0.11729919 0.12827505 0.22379905 -0.26509225 -0.5216589 0.81967705 -0.0056020827
0.048744734 0.180533 0.48484576 0.15873365 0.4614147 0.022605859 0.68420225 0.62048846
1.2832587 1.2065964 0.7131681 -0.013441546 -0.24008426 -0.26131535 0.5300037 -0.35729596
0.38205275 -0.2635149 0.3001326 -0.1071916 0.099738486 0.2954155 -0.30123234 0.14668511
0.34881398 0.44398028 -0.74790794 -0.41800573 1.646027 0.0133811645 -0.13954201 -0.5636714
0.23510915 -0.44212624 -0.037931986 -0.16424797 -0.53832763 -0.093305156 0.29222947 -0.28603098
-0.46907258 0.008129515 0.3778726 -0.7701409 0.44459963 -0.20818466 -0.30296072 0.015025624
-0.35778418 0.2728466 0.61987364 1.118526 -0.80139947 0.14985003 0.584139 -0.30005944
1.4891578 -0.20195311 0.08861653 -0.25790244 0.09970123 0.04238967 -0.571954 -0.22259018
-1.6704676 -0.09076339 -0.028686477 -0.15539525 -0.61131126 0.02880506 0.24497217 -0.008093992
0.5583161 0.24509226 -0.4407776 -0.14700109 -0.66840273 0.13464294 0.57887894 0.08014241
-0.8164265 -0.55895144 1.4854325 0.013206962 0.2479741 -0.0034005335 -0.55872536 0.14652696
-0.4128946 -0.025128359 0.19113384 -0.5820289 0.20907806 0.41132113 -0.4069609 -0.13425902
-0.039456822 0.47877598 -0.1329359 -0.83785135 0.6967289 -0.059030894 0.047449075 -0.07026318
-0.29259616 -0.008384511 0.012424573 -0.010591479 -0.5224418 -0.809661 -1.3468637 -0.86159086
00000000: a56d 51bf def2 ea3d ea59 0a3f 937e 383b
00000010: bb4e 98be e86c 9c3e 089a 0abf 1d2b e23e
00000020: a2ff 94be ec5e 41bf e9e4 013f d91a 733e
00000030: 77c2 053f 91cd 6f3f 00cb d83e 6a25 ebbc
00000040: bf04 3c3f 984f ee3b a9ac a03e 3f2f 4abc
00000050: b4a7 1d3d bc34 323f a2f7 af3e bc09 723d
00000060: 9932 e93e 6d2a 293f ad01 823e 042f e93e
00000070: eee6 013f 1500 fd3c 51e7 fb3c c75d 9e3e
00000080: 34e7 293f 7a05 93be 5b64 04bf edc5 993c
00000090: 4660 90be fd0d 8dbd 0b88 ac3e 0ebe 1bbf
000000a0: 8b14 42bf 5403 e7bc def1 8fbf 111e 37be
000000b0: 575c 9fbf 6a41 78be d837 e1bc adbb f9bd
000000c0: 29af 0a3f a983 1a3f 6a3b b6be 9792 38bf
000000d0: 7280 5e3f 4db3 f13e a8c8 273e 5c2d 283e
000000e0: 578d dabe 989f 163f 7902 663f 58fb 03bd
000000f0: 30af 9a3e b92a 0f3f 3d07 7a3c 66ba 43bf
00000100: 7e0a ff3f dd92 a8bd 4a70 00bf b250 80bd
00000110: fbfc c23d e1b7 58be 06a6 88bf 22fb bebd
00000120: f136 883e 225d 493e c8be 043f a2ba af3d
00000130: 33fd 16bf 0473 a3bd 5fca 41be 9985 b5be
00000140: 36c5 74be 1dc5 35bf f1b9 7fbf 609e 3b3d
00000150: 48cb 363f 0758 27be 084c 4dbe b1fd 1bbf
00000160: e275 59be 9164 e3bc fbc4 383f b6d6 523c
00000170: 75fa debe 9b0c 8ebe fe02 8dbe c097 2ebe
00000180: c3d3 04bf 5c5b bebd 9a6f 833e 2622 563d
00000190: 01f9 05be 82c4 edb6 8175 21bf 6d35 94bd
000001a0: cad7 9f3e 4947 b93e 391b a33d 3eba 653e
000001b0: 4394 6ebf 9db4 9ebd 1c15 923e 17e8 403e
000001c0: b96e 32bf 6e1d cc3d 096e c63e de84 bf3e
000001d0: 2011 c9bd a410 0cbf e778 af3f 9938 b03e
000001e0: 76dd dabe 8de1 30bd af62 203f 48fa 2f3e
000001f0: f709 f63e ab2b 313d d127 fa3e 14a0 5e3f
00000200: bd27 3fbf 5c79 d0be 7a24 883f 8f9e 0e3f
00000210: d727 263f 478b c83e 6a12 25be 168c ebbe
00000220: 7acb 183f 8f3a f0bd 895a 033e 942b 653e
00000230: 2cba 87be 708b 05bf 5bd6 513f ad91 b7bb
00000240: 8fa8 473d a5dd 383e b43d f83e 138b 223e
00000250: 8c3e ec3e ec2f b93c e127 2f3f 55d8 1e3f
00000260: d241 a43f c071 9a3f 2f92 363f ee39 5cbc
00000270: a6d8 75be 20cb 85be 53ae 073f 7fef b6be
00000280: 6b9c c33e 6deb 86be fbaa 993e 4587 dbbd
00000290: b143 cc3d b340 973e 203b 9abe 9f34 163e
000002a0: bf97 b23e 6251 e33e e576 3fbf d904 d6be
000002b0: 03b1 d23f ac3c 5b3c 1ae4 0ebe c54c 10bf
000002c0: 74c0 703e 5f5e e2be 925e 1bbd 9f30 28be
000002d0: d7cf 09bf c616 bfbd 1a9f 953e a772 92be
000002e0: 482a f0be a831 053c 8478 c13e f427 45bf
000002f0: 90a2 e33e 5c2e 55be ab1d 9bbe 092e 763c
00000300: 7d2f b7be 8db2 8b3e 0ab0 1e3f dc2b 8f3f
00000310: 8428 4dbf 4972 193e 228a 153f 64a1 99be
00000320: b99c be3f cccc 4ebe 957c b53d ca0b 84be
00000330: 2930 cc3d caa0 2d3d 946b 12bf aeee 63be
00000340: e2d1 d5bf 28e2 b9bd e7ff eabc ef1f 1fbe
00000350: e57e 1cbf 97f8 eb3c fcd9 7a3e aa9c 04bc
00000360: ceed 0e3f 77f9 7a3e 9aad e1be 7487 16be
00000370: 711c 2bbf d7df 093e 6931 143f b421 a43d
00000380: 5401 51bf 7117 0fbf a722 be3f 0362 583c
00000390: ecec 7d3e 7cdb 5ebb a008 0fbf 2a0b 163e
000003a0: ec66 d3be fdd9 cdbc 97b8 433e d9ff 14bf
000003b0: 8f18 563e af98 d23e 2e5d d0be 327b 09be
000003c0: 7a9d 21bd 2022 f53e 5920 08be 6d7d 56bf
000003d0: d35c 323f 61ca 71bd f659 423d 24e6 8fbd
000003e0: 2acf 95be 305f 09bc 7090 4b3c e287 2dbc
000003f0: bfbe 05bf f145 4fbf 0866 acbf 3891 5cbf

critic.v_net.fcs.0.bias f4 [128]
0.6182106 -0.68398637 0.77445316 -0.18629499 -0.6983309 -0.9447417 -0.45594972 -0.43104282
-0.9021772 0.17454655 0.5157997 -0.29696658 -0.8771434 0.75271016 0.48416552 0.45055
-0.45160598 -0.08777105 -0.29605645 0.53927565 -0.9093114 -0.80184424 0.6737624 0.6911512
-0.80706406 0.10954416 -0.59544307 -0.39188224 -0.41850024 -0.70765793 -0.6848359 -0.5409068
0.5357992 0.41224656 0.8553608 0.98548084 0.52704066 -0.6397698 0.29140466 -0.48395258
0.59986794 -0.5662983 0.1268278 -0.8320294 0.7328587 0.619882 -0.23690394 -0.4102754
-0.83337826 -0.73854864 0.64215237 -0.20544069 0.49263173 -0.08921872 -0.35425925 0.92718846
-0.9888256 0.8132232 0.63482136 0.63941157 -0.70270216 -0.3865375 -0.51824015 -0.6100046
0.5446204 -0.87296385 -0.7828351 0.66451603 -0.721601 -0.7326103 -0.40907502 0.7041383
0.5141348 0.9759177 -0.5688109 0.22153665 -0.2239341 0.65829486 -0.38119876 -0.7693354
0.9565157 -0.93663466 -0.45514646 -0.1264157 0.7466979 0.82953495 0.23833585 -0.8328535
-0.15834117 0.5284235 0.73283035 -0.7042009 0.06697695 0.34797186 0.974078 0.16747388
0.6764369 -0.5813347 -0.6036088 0.60596204 -0.5941207 -0.52799505 -0.020566693 -0.17277539
0.7663068 0.23340197 -0.3767689 0.20238325 0.62367296 0.37141564 0.109643824 -0.5356223
-0.75315636 -0.67576087 0.6005562 0.65218854 0.5850315 -0.93336797 -0.515805 -0.8149839
0.607947 0.47946313 -0.66158724 0.5655264 0.741931 0.6055208 -0.6341712 0.45388108
00000000: 0d43 1e3f bb19 2fbf 9042 463f 1dc4 3ebe
00000010: d0c5 32bf 98da 71bf 3e72 e9be a5b1 dcbe
00000020: 16f5 66bf 55bc 323e 730b 043f 010c 98be
00000030: 788c 60bf 9db1 403f 8be4 f73e 7dae e63e
00000040: e638 e7be 4fc1 b3bd b694 97be f80d 0a3f
00000050: a2c8 68bf aa45 4dbf b17b 2c3f 49ef 303f
00000060: c09b 4ebf b058 e03d f56e 18bf caa4 c8be
00000070: aa45 d6be 1229 35bf 6851 2fbf de78 0abf
00000080: 232a 093f fb11 d33e edf8 5a3f 7948 7c3f
00000090: 23ec 063f f4c7 23bf fe32 953e a2c8 f7be
000000a0: f290 193f edf8 10bf 26df 013e e1ff 54bf
000000b0: a19c 3b3f 96b0 1e3f f296 72be 9e0f d2be
000000c0: 4758 55bf 8611 3dbf 1964 243f 0b5f 52be
000000d0: 3a3a fc3e 4eb8 b6bd 7861 b5be 395c 6d3f
000000e0: ad23 7dbf 652f 503f a783 223f 7ab0 233f
000000f0: 4ae4 33bf 3ee8 c5be 63ab 04bf 4329 1cbf
00000100: 3e6c 0b3f 8f7a 5fbf e267 48bf b91d 2a3f
00000110: d8ba 38bf 598c 3bbf 4872 d1be 6842 343f
00000120: 579e 033f bed5 793f 979d 11bf 81da 623e
00000130: fb4e 65be 0386 283f 7c2c c3be 2af3 44bf
00000140: 37de 743f 4ac7 6fbf f508 e9be 1e73 01be
00000150: 9827 3f3f 675c 543f 500e 743e e335 55bf
00000160: 3024 22be c346 073f c59a 3b3f 8346 34bf
00000170: 362b 893d 5e29 b23e 2d5d 793f 467e 2b3e
00000180: f82a 2d3f 5ad2 14bf 1b86 1abf 5420 1b3f
00000190: 4b18 18bf af2a 07bf 7b7b a8bc 08ec 30be
000001a0: af2c 443f ed00 6f3e dae7 c0be 8e3d 4f3e
000001b0: 08a9 1f3f 312a be3e f18c e03d 8b1e 09bf
000001c0: dbce 40bf aafe 2cbf 0dbe 193f d4f5 263f
000001d0: a0c4 153f 34f1 6ebf cc0b 04bf c9a2 50bf
000001e0: 6aa2 1b3f 317c f53e c85d 29bf 57c6 103f
000001f0: 31ef 3d3f 6903 1b3f 0b59 22bf 1a63 e83e

critic.v_net.fcs.1.weight f4 [128, 128]
0.2705786 -0.056121215 0.032900363 -0.27133918 -0.6230207 -0.53068465 -0.3393373 -0.118142605
-0.3992048 0.1347242 0.35099715 -0.027072046 -0.85493475 0.8095327 0.37358928 0.4468903
-0.30377194 -0.28928018 -0.15301062 0.24004708 -0.6892642 -0.41628996 0.25438488 0.72449493
-0.8796741 0.07668077 -0.7275513 -0.26436675 -0.25786343 -0.29878843 -0.21344215 -0.38365236
0.23952076 0.1010274 0.9900933 0.89445055 0.4292164 -0.44250256 0.10295489 -0.33633423
0.35073525 -0.24233553 -0.009135919 -0.11865063 0.5107864 0.52042073 -0.037841655 -0.036235463
-0.21073243 -0.35631633 0.6318995 -0.043569468 0.0835113 0.20064397 -0.042387884 0.7316684
-0.8152028 0.5478276 0.5576002 0.33739236 -0.4053069 -0.518645 -0.341072 -0.3382009
0.54338443 -0.19379528 -0.74741536 0.46572816 -0.2963066 -0.1753234 0.1396181 0.13221747
0.4298551 0.04526232 -0.145687 0.043358795 -0.124137014 0.7813239 0.091467164 -0.7643056
0.7601852 -0.97362137 -0.3517856 0.13215335 0.31441423 0.5972866 0.0022705318 -0.06683567
-0.09886406 0.45654905 0.8751336 -0.6207078 -0.13584106 0.2034478 0.9898418 0.38674238
0.25916427 -0.395892 -0.5143064 0.38586184 -0.636946 -0.09253095 -0.14070119 -0.20075332
0.72614706 0.33585384 -0.40173823 0.13448897 0.36063027 0.11484 -0.08120328 0.021619236
-0.67158127 -0.1966274 0.5451529 0.46315774 0.6406046 -0.27043343 -0.45039445 -0.16724235
0.39576033 0.061559938 -0.26447296 0.66522515 0.53139156 0.397035 -0.24585429 0.071747266
0.27825117 -0.46218166 0.31909627 -0.015970493 -0.40295506 -0.1436814 -0.3372694 -0.45606676
-0.43950433 0.033173304 0.2824197 -0.25550824 -0.4390348 0.41991448 0.1417489 0.101434976
-0.32671016 0.08956581 -0.39907637 0.26080367 -0.10630295 -0.4683167 0.3713645 0.08897899
-0.03464987 0.49671435 0.099805005 -0.40998855 -0.33948314 -0.532002 -0.39363506 0.008827544
0.33874792 0.68966013 -0.2574399 0.1473282 0.11890636 -0.32425556 -0.23663658 -0.07252151
0.1435018 -0.5802395 -0.31437838 -0.31076926 0.06954513 -0.06790078 -0.18879296 -0.2821105
-0.43825036 -0.3056366 -0.18463528 -0.70600224 0.47017983 -0.53054005 -0.06282392 0.37324527
-0.15739527 0.16967931 0.03775837 0.17868723 -0.072110325 0.18073976 -0.4389273 0.013803794
-0.099607185 -0.61495805 -0.11301879 0.45419854 -0.32050687 -0.5878178 -0.21351892 0.32274726
0.33519122 0.46913877 -0.20580573 0.4682164 -0.22262277 0.22826353 0.1231642 -0.06297278
0.17172617 -0.013036217 -0.014692511 0.008434637 0.3535948 0.25908005 0.24494332 -0.34545323
0.15246929 -0.26161683 0.11901401 -0.11749164 0.65986085 -0.38816264 0.22260611 0.14780349
0.107661806 -0.24121857 -0.051981833 0.06405828 -0.21292958 -0.40389314 0.2865546 0.5843596
0.098688275 0.14119972 0.030856123 -0.11862157 0.6154265 0.3876425 -0.47928187 -0.52491105
-0.4104717 -0.533992 0.23524034 0.13286972 -0.14045721 -0.21879898 -0.28257662 -0.42932606
0.2876433 0.2231783 -0.18437248 0.33336076 0.09985093 0.036484584 -0.174894 0.3994497
00000000: 4789 8a3e 5cdf 65bd 88c2 063d f8ec 8abe
00000010: 497e 1fbf f3da 07bf 9ebd adbe c0f4 f1bd
00000020: 9264 ccbe 24f5 093e e6b5 b33e 32c6 ddbc
00000030: 01dd 5abf 893d 4f3f 1847 bf3e cece e43e
00000040: ff87 9bbe 881c 94be d1ae 1cbe e7ce 753e
00000050: 9e73 30bf f523 d5be bc3e 823e 8078 393f
00000060: 5232 61bf cf0a 9d3d cd40 3abf 145b 87be
00000070: ad06 84be ccfa 98be 9490 5abe 156e c4be
00000080: ee44 753e 74e7 ce3d c176 7d3f b6fa 643f
00000090: 41c2 db3e b28f e2be 03da d23d 0034 acbe
000000a0: 9293 b33e ce26 78be d2ae 15bc 1aff f2bd
000000b0: e6c2 023f 4b3a 053f daff 1abd a36b 14bd
000000c0: 3eca 57be 186f b6be 2ac4 213f e675 32bd
000000d0: f907 ab3d 9d75 4d3e eb9e 2dbd 9f4e 3b3f
000000e0: 21b1 50bf 6e3e 0c3f e3be 0e3f b1be ac3e
000000f0: 6384 cfbe ebc5 04bf fda0 aebe ab28 adbe
00000100: 3e1b 0b3f 4572 46be 9d56 3fbf ec73 ee3e
00000110: 80b5 97be fa87 33be 0cf8 0e3e 0464 073e
00000120: f815 dc3e fc64 393d f92e 15be fe98 313d
00000130: 8c3b febd d804 483f 2353 bb3d 88a9 43bf
00000140: 7f9b 423f 403f 79bf 3e1d b4be 3553 073e
00000150: e7fa a03e c6e7 183f 34cd 143b 24e1 88bd
00000160: 3e79 cabd ccc0 e93e c108 603f b5e6 1ebf
00000170: eb19 0bbe 9f54 503e 4666 7d3f 1903 c63e
00000180: 2eb1 843e 5bb2 cabe 96a9 03bf af8f c53e
00000190: e50e 23bf de80 bdbd f913 10be 4792 4dbe
000001a0: c6e4 393f 09f5 ab3e a2b0 cdbe 7ab7 093e
000001b0: 88a4 b83e 3c31 eb3d e84d a6bd d31a b13c
000001c0: c0ec 2bbf b158 49be 248f 0b3f 0323 ed3e
000001d0: aafe 233f 4076 8abe 1a9a e6be 9441 2bbe
000001e0: 19a1 ca3e 4626 7c3d 0069 87be 324c 2a3f
000001f0: 4709 083f 2c48 cb3e 3ac1 7bbe 3bf0 923d
00000200: f076 8e3e 13a3 ecbe 9660 a33e 8dd4 82bc
00000210: 2050 cebe 3821 13be 93ae acbe 9581 e9be
00000220: b606 e1be bbe0 073d 5199 903e fad1 82be
00000230: 2bc9 e0be 08ff d63e a026 113e 24bd cf3d
00000240: 8e46 a7be 486e b73d bd53 ccbe 0f88 853e
00000250: 5cb5 d9bd 35c7 efbe 7d23 be3e 9e3a b63d
00000260: 06ed 0dbd 5851 fe3e 9166 cc3d 05ea d1be
00000270: bcd0 adbe 4831 08bf 898a c9be 67a1 103c
00000280: 5e70 ad3e 918d 303f 2acf 83be 34dd 163e
00000290: 2d85 f33d d304 a6be dc50 72be 2886 94bd
000002a0: 23f2 123e 938a 14bf 34f6 a0be 261d 9fbe
000002b0: ad6d 8e3d 900f 8bbd f152 41be ca70 90be
000002c0: 5a62 e0be 677c 9cbe 0811 3dbe 90bc 34bf
000002d0: 69bb f03e 79d1 07bf d4a9 80bd 011a bf3e
000002e0: 3a2c 21be 6ac0 2d3e 85a8 1a3d c9f9 363e
000002f0: 94ae 93bd d813 393e 14bb e0be 4f29 623c
00000300: dafe cbbd e46d 1dbf 6576 e7bd b68c e83e
00000310: 7a19 a4be 3a7b 16bf b4a4 5abe 213f a53e
00000320: 2f9e ab3e f532 f03e bdbe 52be 0fba ef3e
00000330: 39f7 63be eabd 693e 833d fc3d dff7 80bd
00000340: fcd8 2f3e db95 55bc dcb8 70bc 6f31 0a3c
00000350: 610a b53e 24a6 843e 6cd2 7a3e 3fdf b0be
00000360: e920 1c3e a4f2 85be 9ebd f33d 759f f0bd
00000370: a4ec 283f 41bd c6be dbf2 633e cc59 173e
00000380: cb7d dc3d 0002 77be e7ea 54bd fd30 833d
00000390: 360a 5abe 15cb cebe 49b7 923e 9798 153f
000003a0: 141d ca3d a996 103e fbc5 fc3c deef f2bd
000003b0: 978c 1d3f 1479 c63e 6f64 f5be 9260 06bf
000003c0: 5929 d2be b3b3 08bf d8e2 703e 000f 083e
000003d0: 04d4 0fbe d70c 60be e2ad 90be a0d0 dbbe
000003e0: fc45 933e da88 643e 24cc 3cbe 43ae aa3e
000003f0: a57e cc3d dc70 153d 6a17 33be ac84 cc3e

critic.v_net.fcs.1.bias f4 [128]
0.301414 0.56772697 0.22943947 0.34935614 0.3225357 -0.23385492 -0.024773978 0.19203088
0.27434134 0.2891135 -0.3670655 0.02621205 -0.5092796 0.4393054 0.14542045 -0.03876473
0.22124875 -0.0970852 0.19244815 0.050020058 -0.09690376 -0.0662474 0.272696 -0.38440707
-0.18215804 -0.07180727 0.10820374 -0.07438606 -0.37953684 0.11181025 -0.48549804 0.12313038
0.13210277 0.020027915 -0.10291377 -0.033673275 -0.41898245 -0.37706286 -0.019690767 0.19446781
-0.17810708 0.18618128 0.19620667 -0.36179549 0.8512829 -0.33515257 0.06285115 -0.079576336
0.11239007 -0.27331173 0.052650288 0.06020279 0.021656914 0.1337241 -0.4177328 0.2976651
0.08201762 0.31322682 0.434882 0.05325369 0.17298168 0.25489768 0.23374441 -0.091515176
0.12336982 0.07651121 0.0016779128 0.075233266 -0.24468017 0.0047014602 0.26715013 0.22255044
0.436087 -0.21131976 0.3618929 -0.26765665 -0.20799905 -0.06361182 0.44880253 0.20992267
0.3136224 -0.30429065 0.34076002 0.10213662 -0.109475315 -0.35106593 -0.24058525 -0.26715404
0.3816538 0.16221638 0.31593418 0.12962568 -0.23706079 -0.032201048 0.4103568 -0.23779066
-0.39047617 -0.22253957 0.10783333 0.129347 -0.171089 -0.09822496 -0.21281017 -0.21210022
-0.11105089 -0.7302826 0.07916528 -0.041983005 -0.1249118 -0.009553961 0.2766514 -0.4732393
-0.44145268 -0.44070968 0.41388655 0.05917738 -0.27700078 -0.06789753 0.06594873 -0.21485682
0.1451318 -0.19072251 -0.0033603758 0.16266914 -0.0058568204 -0.33803833 -0.068312034 0.2849077
00000000: f052 9a3e 8e56 113f 2ef2 6a3e cfde b23e
00000010: 6623 a53e aa77 6fbe ccf2 cabc bea3 443e
00000020: 7876 8c3e af06 943e 02f0 bbbe a7ba d63c
00000030: 2660 02bf a3ec e03e 19e9 143e c4c7 1ebd
00000040: 088f 623e 9bd4 c6bd 2111 453e d5e1 4c3d
00000050: 7b75 c6bd b8ac 87bd cf9e 8b3e 01d1 c4be
00000060: a387 3abe b10f 93bd ec99 dd3d b857 98bd
00000070: a752 c2be c6fc e43d 3393 f8be c82b fc3d
00000080: f345 073e 9511 a43c 74c4 d2bd fdec 09bd
00000090: de84 d6be 620e c1be 884e a1bc 9222 473e
000000a0: b461 36be 4ea6 3e3e 67ea 483e 423d b9be
000000b0: aded 593f 1e99 abbe 1bb8 803d ebf8 a2bd
000000c0: c42c e63d 84ef 8bbe d4a7 573d 3397 763d
000000d0: d769 b13c f8ee 083e 13e1 d5be 8f67 983e
000000e0: dbf8 a73d 445f a03e daa8 de3e 8b20 5a3d
000000f0: 1c22 313e f381 823e b25a 6f3e 4f6c bbbd
00000100: 51a9 fc3d e9b1 9c3d 69ed db3a e613 9a3d
00000110: 708d 7abe b50e 9a3b e7c7 883e 43e4 633e
00000120: cc46 df3e 3564 58be 074a b93e 4b0a 89be
00000130: b4fd 54be ea46 82bd 72c9 e53e f8f5 563e
00000140: 1d93 a03e fccb 9bbe 1978 ae3e 012d d13d
00000150: 9834 e0bd eabe b3be fb5b 76be 6ac8 88be
00000160: 2068 c33e 0d1c 263e 20c2 a13e 98bc 043e
00000170: 10c0 72be 3fe5 03bd 491a d23e 657f 73be
00000180: 7eec c7be 6ae1 63be b9d7 dc3d 8a73 043e
00000190: f431 2fbe 2b2a c9bd e9ea 59be cd30 59be
000001a0: a66e e3bd cdf3 3abf 6821 a23d 5ff6 2bbd
000001b0: c2d1 ffbd 3888 1cbc 41a5 8d3e 6c4c f2be
000001c0: 1606 e2be b3a4 e1be f0e8 d33e fb63 723d
000001d0: 0cd3 8dbe dc0d 8bbd 2110 873d 6d03 5cbe
000001e0: 6e9d 143e c34c 43be c039 5cbb bd92 263e
000001f0: 92ea bfbb 5c13 adbe 2ee7 8bbd 6cdf 913e

critic.v_net.fcs.2.weight f4 [1, 128]
1.0294265 -0.95308316 1.171571 0.6552835 1.0105981 -0.65137744 0.7216746 -0.9449062
-0.85343707 0.627802 -1.1838485 0.84163123 -0.7832207 0.92248446 0.8063708 -0.8458267
1.3743677 -1.2341895 -1.0763087 0.9338727 0.92592084 -1.3910877 1.076419 -0.9941513
1.4234585 -0.97768587 -0.8786206 1.0056889 -0.7229171 1.456537 -0.77264017 -1.1423216
-1.1361313 -0.99273527 -0.95035934 -0.8774933 1.1399695 -0.7570889 0.5218235 1.0705358
1.2774973 -0.68105704 -1.0900106 1.0102478 -1.0297809 -1.1189185 1.1406069 0.97887033
-1.4015422 -0.8392493 0.9313633 -0.9956682 -0.700009 -0.950902 0.8117127 0.8067195
-0.6600201 1.1361241 -1.2586522 -1.1484802 -1.1029987 -1.4102737 0.80669993 0.88967997
-0.8099375 -1.2512441 -0.9565642 -0.75280714 -0.9113268 -0.75523496 -1.187904 -1.1018729
-1.6034563 -0.88242793 0.9575876 -1.0515124 -1.0783926 -1.0845529 1.0941781 0.49125576
-1.2269888 -1.0491172 0.60723495 1.1700507 -1.2522895 -0.6446493 0.8324801 -1.1588681
-1.066455 -0.99100274 1.1636006 0.98176795 -1.0584273 1.134633 0.8787367 0.66167265
0.9962681 1.2408196 -0.69395995 0.8803318 -1.0935422 0.9178565 1.1167593 -0.84557676
-0.83067566 1.2723132 0.88713294 -1.7338619 -0.9564454 -0.7872934 1.2756661 1.3514827
0.8779815 -0.8278636 0.8784121 -0.9279811 1.0050323 -1.136911 0.84678197 -0.3459213
1.0146612 -1.2904214 1.0967863 -0.6239762 -1.3061572 0.93150926 -0.84305686 0.32678097
00000000: 3fc4 833f 42fd 73bf 0af6 953f a9c0 273f
00000010: 475b 813f acc0 26bf abbf 383f 5fe5 71bf
00000020: da7a 5abf a2b7 203f 5988 97bf 2575 573f
00000030: 2781 48bf f127 6c3f 516e 4e3f 1988 58bf
00000040: 48eb af3f ecf9 9dbf 7cc4 89bf 4812 6f3f
00000050: 2609 6d3f 290f b2bf 19c8 893f b380 7ebf
00000060: e333 b63f 9f49 7abf 48ed 60bf 6aba 803f
00000070: 1811 39bf ce6f ba3f bfcb 45bf 9837 92bf
00000080: c06c 91bf e623 7ebf c04a 73bf 67a3 60bf
00000090: 85ea 913f 94d0 41bf 3a96 053f 5107 893f
000000a0: 0885 a33f c159 2ebf 7885 8bbf cd4f 813f
000000b0: dccf 83bf b938 8fbf 68ff 913f 3f97 7a3f
000000c0: bc65 b3bf 0bd9 56bf d36d 6e3f 1ce4 7ebf
000000d0: ca33 33bf 506e 73bf 67cc 4f3f 2b85 4e3f
000000e0: 14f7 28bf 846c 913f 841b a1bf 6601 93bf
000000f0: 102f 8dbf d983 b4bf e383 4e3f 11c2 633f
00000100: 1058 4fbf c428 a0bf 64e1 74bf f8b7 40bf
00000110: b74c 69bf 1457 41bf 3d0d 98bf 2c0a 8dbf
00000120: 0e3e cdbf cce6 61bf 7624 753f f597 86bf
00000130: c508 8abf a1d2 8abf 070e 8c3f e085 fb3e
00000140: f80d 9dbf 7949 86bf c073 1b3f 39c4 953f
00000150: 064b a0bf bd07 25bf 6a1d 553f ca55 94bf
00000160: 9981 88bf 5bb2 7dbf ddf0 943f 2555 7b3f
00000170: 8c7a 87bf a73b 913f e3f4 603f 6163 293f
00000180: 6d0b 7f3f 2dd3 9e3f 5ca7 31bf 6d5d 613f
00000190: 31f9 8bbf a5f8 6a3f f8f1 8e3f b877 58bf
000001a0: 29a7 54bf 29db a23f 251b 633f 30ef ddbf
000001b0: 9bd9 74bf 0f8c 49bf 0749 a33f 63fd ac3f
000001c0: 65c3 603f deee 53bf 9edf 603f 2b90 6dbf
000001d0: e6a4 803f 4d86 91bf b4c6 583f 991c b1be
000001e0: 6be0 813f 872c a5bf 7e63 8c3f e7bc 1fbf
000001f0: 2930 a7bf 6477 6e3f 93d2 57bf d64f a73e

exp_avg f4 [2]
0.014674084 -8.669938e-05
00000000: 926b 703c 60d2 b5b8

exp_avg_sq f4 [2]
0.0045876196 0.0043559712
00000000: be53 963b 89bc 8e3b
