walkthroughs/tutorial_models/tutorial_results/ppo/seed222_Feb-04-10-33-22_v0.5.0-54-g5fb9629/model_best.pt (torch, 146986 bytes, 30 tensors)

actor.pi_net.fcs.0.weight f4 [64, 4]
0.296422 -0.3285672 0.51069885 -0.3060411 0.34940723 0.45386872 0.14394474 0.31125796
0.21456093 -0.041568045 -0.2755358 -0.17614533 0.41637695 -0.29458898 -0.019659422 -0.2285163
-0.2311842 0.1272076 0.4370271 0.5167185 0.43459493 0.16336372 -0.31697768 -0.42646757
0.22917709 -0.2048262 0.27597386 -0.056902632 0.04257248 0.180685 -0.0047849123 0.20472933
-0.393755 -0.22066616 -0.14048523 0.44518456 0.42056528 -0.5124755 0.30636093 -0.33147782
0.17155842 -0.09194948 -0.00960502 -0.0018399669 -0.34189668 0.06678875 -0.051610738 0.16734862
-0.35755944 -0.060865596 0.33823454 -0.031655088 0.034923505 -0.36543962 -0.26069564 0.01767575
-0.015811156 0.34348682 -0.065443695 -0.413212 -0.4910363 -0.4873504 0.4140337 0.29122186
0.37877113 -0.21908467 0.00406456 -0.27440226 0.016997404 -0.02259601 -0.104629345 -0.46534342
-0.25978792 0.20167385 -0.062544934 0.36638907 -0.054554325 -0.43729395 -0.3244874 0.019291079
-0.10648312 0.44368082 -0.42689046 0.48344874 0.29920694 0.0153751075 0.3023099 0.29342467
-0.19686975 0.26472235 0.44627622 0.519864 0.3050117 0.24259685 0.5011709 -0.10413955
-0.40638286 0.038686678 0.477721 -0.05591963 -0.4416225 -0.12277803 -0.22560276 -0.14175498
-0.16765952 0.008085547 0.33699933 -0.2891824 0.0127841635 0.27279472 -0.36297125 -0.34485933
-0.11985928 -0.030090645 0.3139452 0.40015665 0.114503235 0.05221527 -0.26529238 -0.36423647
-0.3487927 0.48615316 0.2996125 -0.49249342 -0.08652364 -0.34048632 0.39515716 -0.130317
-0.40466708 0.21594577 -0.4979567 -0.22502154 -0.3349702 0.02556198 -0.13590825 0.11028625
0.39313364 0.48868337 0.2419423 0.015711041 0.38649932 -0.4285507 0.08270843 -0.1069251
-0.39823106 0.3123371 0.13184966 0.16790523 -0.029416941 0.4920809 0.41282138 0.12526812
-0.148384 0.15177388 0.0849284 -0.3588491 0.19411847 -0.3261711 -0.013161949 -0.05276253
-0.07746129 -0.29530156 -0.47828406 -0.0455574 -0.09921133 0.1601105 -0.43142223 -0.2950511
0.41391492 -0.017345488 0.0065679653 -0.2778055 0.052644603 0.4986284 -0.40786654 -0.26715595
-0.43953648 -0.03273345 -0.22776723 -0.23210578 0.118216656 -0.100673884 -0.12744418 -0.49663082
-0.16680948 0.48070198 0.36688656 0.020240745 -0.48337072 -0.06979737 0.31650943 0.10747191
-0.217962 0.19393888 -0.08157375 -0.14561012 0.3251521 0.49065286 0.4009626 -0.35393608
0.2742891 0.27295035 0.2355653 0.37305427 0.45859185 -0.45772144 -0.44955692 0.48486024
0.19955638 0.042733677 -0.30339846 0.25784418 -0.34239575 -0.44616535 0.47949353 -0.4743241
0.49084654 -0.28848043 0.43239647 0.31310245 0.40866658 -0.26650047 0.07736554 -0.1876006
-0.47893524 0.12380819 -0.16935419 -0.17335963 0.022212014 0.08734632 -0.3104295 -0.12608095
0.023277832 0.046392336 -0.5089253 -0.2164065 0.18865591 0.3281281 0.36225408 0.38964564
0.1786146 0.2038978 0.21225204 -0.088036805 0.38349283 -0.2875027 0.36945376 0.17915304
0.09708006 0.43664518 0.3423663 0.3072026 -0.4139122 0.38483134 -0.10328111 0.40258902
00000000: a0c4 973e f639 a8be 29bd 023f 6bb1 9cbe
00000010: 81e5 b23e 7b61 e83e 4066 133e 345d 9f3e
00000020: dcb5 5b3e 4143 2abd 0713 8dbe 715f 34be
00000030: 5c2f d53e 5ed4 96be cc0c a1bc 2d00 6abe
00000040: 8dbb 6cbe b642 023e 04c2 df3e aa47 043f
00000050: 3a83 de3e d248 273e e64a a2be f559 dabe
00000060: 66ad 6a3e f6bd 51be 724c 8d3e bc12 69bd
00000070: 7b60 2e3d 7d05 393e c1ca 9cbb 91a4 513e
00000080: 419a c9be 4ff6 61be 5cdb 0fbe 3bef e33e
00000090: 5554 d73e 9831 03bf 57db 9c3e 76b7 a9be
000000a0: 03ad 2f3e 0250 bcbd 605e 1dbc 0b2b f1ba
000000b0: 150d afbe 8ac8 883d c865 53bd 705d 2b3e
000000c0: 0812 b7be 344e 79bd 142d ad3e c4a8 01bd
000000d0: f30b 0f3d e71a bbbe e679 85be bccc 903c
000000e0: 6686 81bc 81dd af3e 5807 86bd 8690 d3be
000000f0: 1c69 fbbe fe85 f9be 3afc d33e 081b 953e
00000100: 4aee c13e bb57 60be 0030 853b 747e 8cbe
00000110: 243e 8b3c 441b b9bc e947 d6bd 7e41 eebe
00000120: ec02 85be 9783 4e3e 8f17 80bd 5997 bb3e
00000130: 5b74 5fbd fee4 dfbe 3623 a6be 5308 9e3c
00000140: d213 dabd 222a e33e 6391 dabe 9886 f73e
00000150: a731 993e e0e7 7b3c 5dc8 9a3e c23b 963e
00000160: 3998 49be b089 873e 517e e43e cf15 053f
00000170: 7e2a 9c3e 4f6b 783e bc4c 003f 1e47 d5bd
00000180: 6a11 d0be ec75 1e3d d997 f43e fb0b 65bd
00000190: 581c e2be 0c73 fbbd 6904 67be 3828 11be
000001a0: f0ae 2bbe 3e79 043c 2d8b ac3e b70f 94be
000001b0: ab74 513c c0ab 8b3e 5ed7 b9be 6791 b0be
000001c0: c878 f5bd a880 f6bc 6dbd a03e 55e1 cc3e
000001d0: ac80 ea3d aedf 553d 67d4 87be 347d babe
000001e0: f594 b2be 11e9 f83e cf66 993e 1928 fcbe
000001f0: 4e33 b1bd 3954 aebe 0a52 ca3e d271 05be
00000200: 8630 cfbe e320 5d3e 2ef4 febe 0c6c 66be
00000210: 3781 abbe 5c67 d13c 882b 0bbe c2dd e13d
00000220: d048 c93e b534 fa3e b9bf 773e 71b4 803c
00000230: 3de3 c53e ff6a dbbe 0a63 a93d 8cfb dabd
00000240: f1e4 cbbe a6ea 9f3e 9903 073e 59ef 2b3e
00000250: ccfb f0bc 07f2 fb3e 535d d33e 4946 003e
00000260: faf1 17be 9d6a 1b3e f1ee ad3d 12bb b7be
00000270: fec6 463e e6ff a6be 37a5 57bc 861d 58bd
00000280: 06a4 9ebd c431 97be a6e1 f4be 659a 3abd
00000290: 4f2f cbbd 02f4 233e 60e3 dcbe f010 97be
000002a0: a8ec d33e 2018 8ebc 1638 d73b 863c 8ebe
000002b0: dea1 573d 394c ff3e e2d3 d0be aac8 88be
000002c0: ed0a e1be 8313 06bd d03b 69be 23ad 6dbe
000002d0: 931b f23d 1c2e cebd ba80 02be 6546 febe
000002e0: 1bd0 2abe 921e f63e 8ed8 bb3e ebcf a53c
000002f0: 5e7c f7be ecf1 8ebd 860d a23e 3c1a dc3d
00000300: 6e31 5fbe ea97 463e 2310 a7bd d21a 15be
00000310: 567a a63e da36 fb3e f84a cd3e 1c37 b5be
00000320: 9f6f 8c3e 26c0 8b3e 0838 713e f800 bf3e
00000330: 8dcc ea3e 775a eabe 532c e6be 9a3f f83e
00000340: 8258 4c3e 8209 2f3d 0b57 9bbe 2704 843e
00000350: 7f4e afbe c96f e4be 2d80 f53e 9cda f2be
00000360: 3d50 fb3e b5b3 93be 1263 dd3e f74e a03e
00000370: bf3c d13e c072 88be d371 9e3d 5f1a 40be
00000380: 0037 f5be 268f fd3d 2f6b 2dbe 3085 31be
00000390: f8f5 b53c a1e2 b23d 9ef0 9ebe 5d1b 01be
000003a0: 27b1 be3c e405 3e3d ee48 02bf aa99 5dbe
000003b0: 042f 413e 6800 a83e 5e79 b93e a27f c73e
000003c0: bfe6 363e 96ca 503e 9958 593e a44c b4bd
000003d0: 2c59 c43e 8e33 93be 0b29 bd3e e573 373e
000003e0: e9d1 c63d f58f df3e a34a af3e a949 9d3e
000003f0: 4dec d3be 9d08 c53e 0c85 d3bd 2620 ce3e

actor.pi_net.fcs.0.bias f4 [64]
0.43424 -0.41670218 0.30127287 0.38837403 -0.3541284 0.13533099 -0.38563022 -0.4291476
-0.4278268 0.14473596 0.23715773 0.2332972 -0.1783798 0.042930968 0.022792146 0.5001245
-0.2708818 0.20396224 -0.44842625 0.053481534 -0.254329 -0.42115083 -0.15808451 0.1975309
-0.27657345 -0.19973092 0.17911398 0.39083958 -0.28740343 0.076874316 0.048991162 -0.48588073
-0.17325166 -0.1444349 -0.17804588 0.08493189 -0.25976282 -0.10531823 -0.4823416 0.048955563
-0.19788276 -0.06607354 -0.08818423 0.09737205 0.13252045 -0.16138308 0.33901218 0.3485377
-0.43922448 -0.3754512 0.13069557 0.37206495 0.03964486 -0.4865057 -0.2186596 0.40421647
0.07880092 -0.0785006 0.15396702 -0.22067773 -0.10082309 -0.01336112 -0.22904243 0.14149202
00000000: b554 de3e fd59 d5be 7040 9a3e f6d8 c63e
00000010: 5150 b5be 3594 0a3e 5371 c5be 3cb9 dbbe
00000020: 1d0c dbbe aa35 143e 7ad9 723e 76e5 6e3e
00000030: 32a9 36be 62d8 2f3d 98b6 ba3c 2908 003f
00000040: 05b1 8abe 7adb 503e 2098 e5be 740f 5b3d
00000050: 6937 82be 15a1 d7be e8e0 21be 8a45 4a3e
00000060: 099b 8dbe 4386 4cbe a869 373e 201c c83e
00000070: 8b26 93be 4870 9d3d f5aa 483d 5cc5 f8be
00000080: e268 31be bee6 13be a951 36be c5f0 ad3d
00000090: a2ff 84be 16b1 d7bd 7af5 f6be a185 483d
000000a0: c7a1 4abe 9051 87bd ef99 b4bd ff6a c73d
000000b0: 71b3 073e 9b41 25be 0193 ad3e 8973 b23e
000000c0: 08e2 e0be 243b c0be 0fd5 053e 4c7f be3e
000000d0: a662 223d 4617 f9be 4de8 5fbe 76f5 ce3e
000000e0: 6062 a13d ecc4 a0bd 88a9 1d3e 58f9 61be
000000f0: 567c cebd 99e8 5abc 198a 6abe 49e3 103e

actor.pi_net.fcs.1.weight f4 [64, 64]
-0.018733243 0.0064941505 -0.08317031 0.042285547 -0.06723412 -0.036112666 0.09465814 0.011211871
-0.054908503 -0.008513246 -0.10258956 0.058024865 -0.0005100738 -0.05041621 0.053778376 0.09534993
-0.040576305 -0.043611635 0.11598315 0.081653655 -0.05134055 0.05152806 0.078290686 0.029670535
-0.039727096 -0.10135166 0.08064733 0.11461906 -0.11752816 -0.057932563 0.05271538 -0.10316303
-0.0135028865 -0.030157793 0.07688177 -0.013030328 0.08767057 0.10441709 -0.05859048 -0.11214461
-0.04992024 -0.0662637 -0.035505448 0.10682446 -0.10577407 -0.075435586 -0.055228386 0.117833786
0.03431324 -0.07786608 0.026716717 -0.053293947 0.008328478 -0.09031325 0.08670134 0.019585468
-0.020528287 0.07004285 0.09712619 0.03232311 0.1164538 0.0690736 0.055942528 -0.005083015
0.017030397 -0.0469735 -0.06677151 0.12408851 -0.10411622 -0.012927262 0.082328506 0.009352401
-0.016967772 -0.10796278 0.05204922 0.065534346 -0.10979545 -0.04247913 -0.1214485 -0.03791494
-0.04310639 -0.056159858 -0.074034475 0.1333895 -0.009234763 -0.085208826 0.06655639 0.10423307
0.0491435 -0.055575218 -0.11490416 0.040050052 -0.10138372 -0.12009325 -0.122862406 -0.10751093
-0.0040377537 -0.044406187 0.11260795 0.070339166 0.02325761 0.08520371 0.124663204 0.007922746
0.09022994 -0.04946567 0.10954519 -0.091259405 -0.09585617 -0.12658073 0.025481516 0.123900354
0.05720848 -0.07002646 -0.085377574 -0.021481793 -0.09794593 0.07290974 0.10435455 0.047317922
-0.113857165 -0.02271125 -0.022746898 0.080014296 -0.018193483 0.0021336242 0.1222303 -0.08509743
-0.09163386 -0.100830495 0.103477165 -0.028646208 -0.060359303 0.06249735 0.08473891 0.08323051
-0.01223628 -0.10675707 0.07163932 0.10743207 -0.044962153 0.13215196 -0.0041041155 0.017037058
-0.036825143 0.060990606 0.11467518 -0.07823656 -0.080289684 -0.07501148 -0.0766379 -0.09918155
-0.104642205 -0.0030828011 -0.114072256 0.11111199 -0.092613526 -0.1210623 0.05998383 -0.022555605
0.018425431 0.003765865 -0.027200805 0.02884442 -0.069165654 0.0855282 0.06393787 -0.114599705
-0.093239576 0.120673925 -0.014847097 -0.00041306388 0.028455526 0.019274632 0.009772676 0.12227164
-0.006323937 0.0065864203 0.02939852 -0.052502137 -0.024546456 -0.0028217607 -0.09616483 -0.09546765
-0.090026766 -0.05172752 -0.002449186 -0.041369673 0.09550391 -0.012406068 -0.054077636 -0.10248424
0.045053553 -0.010801608 0.10468584 -0.07619455 0.087962106 -0.042373694 0.046775118 -0.118362725
-0.10327877 0.013953438 -0.05267612 0.09752921 0.080941364 0.13738665 -0.06644451 0.064919315
-0.08102548 0.09426383 -0.05545555 -0.04813508 -0.11614191 -0.1205781 0.12792462 0.0029041015
0.027405215 0.052875966 -0.010835954 -0.009700568 0.031503536 -0.08594335 0.008677259 -0.035134118
0.05034469 0.10321605 -0.064351134 0.10289416 -0.014130949 0.065421484 -0.025499368 0.11176988
-0.030887853 -0.11577256 0.0037160271 -0.009635796 0.014277248 0.028942293 -0.011178343 0.05014371
0.102885224 0.116705894 0.108803004 -0.085573174 0.0051035406 0.045641415 0.002547631 0.03239615
-0.028672777 -0.09603504 0.036834694 0.11961118 0.039990023 -0.06949098 0.02320035 -0.10672701
00000000: 7576 99bc e2cc d43b 3255 aabd 9c33 2d3d
00000010: 0bb2 89bd e0ea 13bd 20dc c13d ffb1 373c
00000020: bde7 60bd 247b 0bbc 7a1a d2bd 7bab 6d3d
00000030: 79b6 05ba 3a81 4ebd b746 5c3d d346 c33d
00000040: 5733 26bd 1da2 32bd 9388 ed3d 083a a73d
00000050: 784a 52bd 160f 533d de56 a03d 9f0f f33c
00000060: e1b8 22bd 7691 cfbd 6d2a a53d 66bd ea3d
00000070: 9bb2 f0bd b24a 6dbd 15ec 573d 2447 d3bd
00000080: 363b 5dbc 7a0d f7bc 3074 9d3d 287d 55bc
00000090: a18c b33d a1d8 d53d 92fc 6fbd 13ac e5bd
000000a0: 2a79 4cbd 43b5 87bd 296e 11bd c8c6 da3d
000000b0: 13a0 d8bd f97d 9abd 2937 62bd d752 f13d
000000c0: 0a8c 0c3d 4078 9fbd 04dd da3c c14a 5abd
000000d0: 2b74 083c 27f6 b8bd 7990 b13d b471 a03c
000000e0: f02a a8bc a072 8f3d 19ea c63d 3d65 043d
000000f0: 547f ee3d 7676 8d3d fe23 653d 6c8f a6bb
00000100: 5583 8b3c 4967 40bd 80bf 88bd 1e22 fe3d
00000110: e23a d5bd decc 53bc d99b a83d d03a 193c
00000120: ffff 8abc 971b ddbd 9031 553d df36 863d
00000130: 70dc e0bd 99fe 2dbd feb9 f8bd b24c 1bbd
00000140: 5390 30bd e107 66bd 639f 97bd 4297 083e
00000150: 674d 17bc f781 aebd b74e 883d 2678 d53d
00000160: b24a 493d d7a2 63bd df52 ebbd 860b 243d
00000170: 45a2 cfbd 73f3 f5bd 499f fbbd b12e dcbd
00000180: 224f 84bb 43e3 35bd ff9e e63d fb0d 903d
00000190: be86 be3c 487f ae3d 6c4f ff3d 68ce 013c
000001a0: 7aca b83d 849c 4abd 3b59 e03d 36e6 babd
000001b0: 3d50 c4bd 619e 01be 9dbe d03c 78bf fd3d
000001c0: 7053 6a3d 086a 8fbd 70da aebd 96fa afbc
000001d0: e097 c8bd b451 953d d7b7 d53d 70d0 413d
000001e0: f22d e9bd f20c babc b457 babc 89de a33d
000001f0: 800a 95bc 46d4 0b3b e153 fa3d 9047 aebd
00000200: 88aa bbbd 3880 cebd d6eb d33d 74ab eabc
00000210: 513b 77bd 39fd 7f3d 988b ad3d c274 aa3d
00000220: ae7a 48bc 73a3 dabd a3b7 923d 5805 dc3d
00000230: 3c2a 38bd d852 073e d17b 86bb 4d91 8b3c
00000240: f6d5 16bd 49d1 793d d2da ea3d 7d3a a0bd
00000250: eb6e a4bd 9e9f 99bd 55f4 9cbd b21f cbbd
00000260: a74e d6bd d208 4abb b79e e9bd af8e e33d
00000270: 29ac bdbd 83ef f7bd 9bb1 753d 88c6 b8bc
00000280: eef0 963c bbcc 763b 39d4 debc 224b ec3c
00000290: b9a6 8dbd 6929 af3d dcf1 823d 40b3 eabd
000002a0: 64f4 bebd e423 f73d 3d41 73bc 7f90 d8b9
000002b0: 901b e93c d5e5 9d3c 931d 203c 8e69 fa3d
000002c0: 0739 cfbb e6d2 d73b 2ad5 f03c 7b0c 57bd
000002d0: a615 c9bc 4aed 38bb 11f2 c4bd 8b84 c3bd
000002e0: f45f b8bd 3ce0 53bd 8682 20bb 3f73 29bd
000002f0: 8e97 c33d d242 4bbc 8380 5dbd 42e3 d1bd
00000300: 138a 383d 3af9 30bc 8865 d63d e30b 9cbd
00000310: 7a25 b43d 0a90 2dbd 4497 3f3d 2868 f2bd
00000320: d283 d3bd f69c 643c eac2 57bd 65bd c73d
00000330: 96c4 a53d 16af 0c3e 0f14 88bd 6bf4 843d
00000340: b0f0 a5bd 650d c13d 5c25 63bd 4a29 45bd
00000350: cfdb edbd a7f1 f6bd acfe 023e bd52 3e3b
00000360: e780 e03c 7894 583d 4989 31bc 22ef 1ebc
00000370: da09 013d 1103 b0bd 102b 0e3c cbe8 0fbd
00000380: 3c36 4e3d f062 d33d 87ca 83bd 2cba d23d
00000390: 7f85 67bc b3fb 853d 0de4 d0bc 9be7 e43d
000003a0: 8608 fdbc 2a1a edbd 9788 733b 75df 1dbc
000003b0: 1eeb 693c 6318 ed3c 5e25 37bc 7e63 4d3d
000003c0: 7db5 d23d 8003 ef3d 1cd4 de3d fd40 afbd
000003d0: 9a3b a73b 7ef2 3a3d 28f6 263b d3b1 043d
000003e0: 2ce3 eabc 05ae c4bd fadf 163d b5f6 f43d
000003f0: 94cc 233d 4951 8ebd a90e be3c b193 dabd

actor.pi_net.fcs.1.bias f4 [64]
0.036279965 0.091687486 -0.086109236 0.0133891385 -0.019167492 -0.051983736 -0.0010080134 0.12273448
0.11859819 0.014630857 -0.08158525 0.06502968 0.09657581 -0.10707082 -0.01889844 -0.13294908
-0.033031993 -0.10414953 -0.07159977 -0.009444831 0.099721774 0.09416152 -0.039612472 -0.02204568
-0.041617483 0.03842308 -0.023119511 -0.049193017 -0.11362332 0.03716283 0.019129248 -0.084490284
-0.074086376 0.10524925 -0.07271266 -0.065305345 -0.07384847 0.029891582 -0.06888855 -0.07913315
-0.05908922 -0.044286624 0.06661794 0.06779997 -0.044309467 0.07382016 -0.0030355891 0.06535472
-0.057595614 0.10648974 0.014789866 -0.07101663 -0.038998447 -0.035168152 -0.08016748 0.0065211905
0.0074637355 -0.08783328 0.059724465 -0.017225081 0.06486357 0.061125655 0.028215664 -0.087461606
00000000: 4d9a 143d a6c6 bb3d 0a5a b0bd 1e5e 5b3c
00000010: 2505 9dbc e6ec 54bd 511f 84ba 375c fb3d
00000020: 9ce3 f23d 43b6 6f3c 2b16 a7bd 482e 853d
00000030: 8ac9 c53d f247 dbbd e7d0 9abc ce23 08be
00000040: 8e4c 07bd 594c d5bd e6a2 92bd 7ebe 1abc
00000050: ee3a cc3d c1d7 c03d b040 22bd 2499 b4bc
00000060: 1877 2abd 8561 1d3d 2165 bdbc 9e7e 49bd
00000070: 58b3 e8bd 0d38 183d f1b4 9c3c 3e09 adbd
00000080: 99ba 97bd eb8c d73d 60ea 94bd cfbe 85bd
00000090: de3d 97bd 31df f43c 7115 8dbd 9010 a2bd
000000a0: 8a07 72bd e465 35bd fd6e 883d b6da 8a3d
000000b0: d87d 35bd 062f 973d bcf0 46bb b2d8 853d
000000c0: 61e9 6bbd 4b17 da3d 3251 723c 2b71 91bd
000000d0: d6bc 1fbd 7b0c 10bd d92e a4bd b6af d53b
000000e0: 5a92 f43b efe1 b3bd a4a1 743d 9d1b 8dbc
000000f0: 31d7 843d e55e 7a3d 8924 e73c 121f b3bd

actor.pi_net.fcs.2.weight f4 [1, 64]
-0.0051396675 0.017443066 0.0012867425 0.06981587 -0.113601096 -0.106720746 -0.028547525 0.06108282
0.068846315 0.10796534 -0.106715135 -0.0028929396 -0.031471465 -0.11892364 0.11073787 -0.046406765
-0.0232469 -0.10938597 0.06242424 -0.102676034 0.053922158 -0.06305755 0.083621114 -0.11142002
-0.11848874 0.049610894 0.01531107 0.11812459 0.032802224 0.08602024 0.039053746 0.034583986
-0.072843224 -0.112758145 -0.024445098 0.117455214 -0.03270835 -0.069731824 -0.12060737 0.009279797
-0.07515931 0.11510818 -0.090710156 0.1058543 0.092600994 0.060889453 -0.012069459 0.108688645
0.08994985 0.02519857 -0.1201772 0.067718476 0.1055999 0.085658886 -0.07931147 0.08248016
-0.062058955 -0.06748468 -0.021049695 0.066594355 0.100874454 0.047534753 0.011142344 0.028983193
00000000: a86a a8bb c3e4 8e3c eaa7 a83a 9ffb 8e3d
00000010: b1a7 e8bd 6890 dabd 80dc e9bc fb31 7a3d
00000020: 4cff 8c3d ef1c dd3d 778d dabd 7997 3dbb
00000030: 39e8 00bd 3d8e f3bd 89ca e23d 0515 3ebd
00000040: 4870 bebc c005 e0bd 8fb0 7f3d d047 d2bd
00000050: 7bdd 5c3d 5124 81bd 8c41 ab3d 2e30 e4bd
00000060: 39aa f2bd cb34 4b3d 48db 7a3c 4eeb f13d
00000070: a05b 063d 612b b03d d2f6 1f3d f0a7 0d3d
00000080: d42e 95bd beed e6bd 1641 c8bc 5c8c f03d
00000090: 31f9 05bd 8fcf 8ebd ff00 f7bd 4a0a 183c
000000a0: 20ed 99bd d6bd eb3d 3fc6 b9bd 24ca d83d
000000b0: 97a5 bd3d 3867 793d fbbe 45bc 2798 de3d
000000c0: a137 b83d 3b6d ce3c 771f f6bd fcaf 8a3d
000000d0: c344 d83d ed6d af3d 0d6e a2bd 5ceb a83d
000000e0: 8831 7ebd 6835 8abd 6970 acbc 9f62 883d
000000f0: 4497 ce3d cdb3 423d 618e 363c 296e ed3c

critic.v_net.fcs.0.weight f4 [64, 4]
0.1725785 0.5275115 -0.7449575 -0.32660502 0.1410399 -0.007984746 -0.60660803 -0.5217041
-0.6211034 -0.3210015 -0.0036819903 0.040628728 0.04312183 0.26052806 -0.8680648 -0.62118834
-0.4799156 0.18351601 -0.4964927 -0.5574748 0.007555089 -0.5119387 -0.77118593 -0.24928078
0.0019409348 0.11460858 0.45594072 0.6334265 -0.46915573 -0.3389575 0.78778416 0.84154755
0.30779096 -0.45949224 0.77642137 0.64797384 -0.38969967 -0.14996605 -0.2801942 -0.4589934
-0.22137403 0.009231461 0.7123316 0.29797027 0.3003509 -0.426581 0.4172838 0.7027616
0.32902557 -0.4626999 0.70089525 0.7627946 -0.017932855 -0.40565678 0.8856082 0.71493655
-0.47920957 0.44563693 -0.6944801 -0.7184526 0.09042612 -0.1105485 -0.07557235 -0.46630305
-0.4724048 0.25460124 -0.74386626 -0.13654447 -0.56055105 -0.476662 0.6596697 0.10657781
-0.33646816 -0.013119117 -0.13550647 -0.65461904 0.15372267 -0.20239474 -0.13739309 0.6036309
-0.15825304 -0.5725773 0.047597717 0.7122442 0.18335658 0.29726416 -0.7188954 -0.80129695
-0.19665009 -0.56720454 0.68005866 0.41505405 -0.19684403 -0.250214 0.8181633 0.38028383
0.40187612 0.4302955 0.26023588 0.18292165 0.031768303 -0.008590317 0.38260567 0.24359831
-0.6275251 -0.32288367 -0.642302 -0.9045816 -0.24163415 0.01404344 -0.025637856 -0.73282814
0.5685484 -0.0627626 0.5743717 0.2535299 0.27305967 -0.10369549 0.74128604 0.897501
0.21537778 -0.2873763 -0.13497326 -0.40210965 -0.23293792 0.14543504 -0.024944358 -0.5582302
0.5087147 0.060234312 0.87387305 0.7040272 -0.5879237 -0.019024933 -0.7887201 -0.37402272
-0.014725097 -0.18573582 0.94607675 0.7308407 -0.6061083 0.094951086 -0.9054685 -0.9234612
0.42790464 0.38126382 0.86783737 0.6565769 -0.17869218 -0.7146539 0.27478158 0.19405219
0.22077723 0.1862162 -0.97992176 -0.8645324 0.067269094 -0.008213891 0.8479264 0.75023955
-0.154958 0.2984725 -0.28932092 -0.38815537 -0.34753126 0.082513355 -0.781731 -0.61123633
-0.05455564 0.18404399 0.28326136 0.7083017 -0.04368283 -0.17782435 0.57774264 0.5734544
-0.43139875 -0.73263067 0.21212915 0.85093707 -0.31645334 -0.05934852 -0.07590938 -0.84726137
0.2523557 -0.08019394 -0.11061777 -0.4949831 -0.050341632 -0.069791146 0.14130804 0.13497013
0.3503759 0.053343143 0.5993367 0.20353054 -0.19854318 0.3182025 -0.8567989 -0.50990397
-0.098061986 -0.28609812 0.2196616 -0.25161973 0.26014373 0.52515316 -0.33772543 -0.51425296
-0.20827146 -0.10269302 -0.9185245 -0.8296707 0.5155476 -0.2854487 0.8638551 0.40599892
-0.2983691 0.30559176 0.6221258 0.8685316 0.5364204 -0.13813932 0.07842661 0.87401146
0.16290827 0.14714658 0.251295 0.52750546 0.2715475 -0.2711206 0.78758556 0.84734166
-0.52288127 -0.6377067 -0.0868871 -0.43567953 0.4941684 0.04303937 -0.62807375 -0.6619858
-0.30810302 -0.4297593 0.46184942 0.27161926 -0.63526523 -0.05035769 -0.40693104 -0.26269743
0.582877 0.35060316 -0.032023195 -0.5324275 0.33531004 -0.08445117 0.17585553 0.77575237
00000000: 6bb8 303e fe0a 073f 89b5 3ebf c638 a7be
00000010: c36c 103e 74d2 02bc aa4a 1bbf 668e 05bf
00000020: a200 1fbf 4f5a a4be 8c4d 71bb 4f6a 263d
00000030: 84a0 303d ef63 853e 7f39 5ebf 3306 1fbf
00000040: 7fb7 f5be 9feb 3b3e 4b34 febe abb6 0ebf
00000050: ae90 f73b 6a0e 03bf 716c 45bf 7643 7fbe
00000060: f766 fe3a e7b7 ea3d 1071 e93e 3d28 223f
00000070: 2e35 f0be d68b adbe 39ac 493f a96f 573f
00000080: c796 9d3e 9142 ebbe 8dc3 463f 9de1 253f
00000090: b786 c7be b390 19be 9d75 8fbe 2f01 ebbe
000000a0: e0af 62be 8e3f 173c 5d5b 363f 8f8f 983e
000000b0: 98c7 993e d368 dabe 39a6 d53e 2fe8 333f
000000c0: 0a76 a83e 00e7 ecbe df6d 333f 8246 433f
000000d0: ece7 92bc 3fb2 cfbe 38b7 623f 1506 373f
000000e0: f55a f5be 862a e43e 73c9 31bf 82ec 37bf
000000f0: 5431 b93d 4167 e2bd adc5 9abd 46bf eebe
00000100: 0bdf f1be 185b 823e 056e 3ebf 50d2 0bbe
00000110: 4680 0fbf 0b0d f4be 1de0 283f 7845 da3d
00000120: 8e45 acbe 91f1 56bc 35c2 0abe 1d95 27bf
00000130: 7a69 1d3e 9140 4fbe c6b0 0cbe 8e87 1a3f
00000140: 160d 22be 6d94 12bf d3f5 423d a355 363f
00000150: d4c1 3b3e 0233 983e 8709 38bf cc21 4dbf
00000160: a45e 49be 5134 11bf 5318 2e3f f781 d43e
00000170: 7b91 49be 0d1c 80be 2673 513f 90b4 c23e
00000180: b5c2 cd3e b14f dc3e a33d 853e d04f 3b3e
00000190: 7b1f 023d 67be 0cbc e4e4 c33e d671 793e
000001a0: 7ca5 20bf 0251 a5be e76d 24bf a992 67bf
000001b0: f16e 77be 7516 663c 7b06 d2bc a09a 3bbf
000001c0: 638c 113f ae89 80bd 060a 133f acce 813e
000001d0: 7ace 8b3e 4d5e d4bd ecc4 3d3f a0c2 653f
000001e0: fe8b 5c3e fd22 93be 6e36 0abe 51e1 cdbe
000001f0: 4787 6ebe ecec 143e 1c58 ccbc 2de8 0ebf
00000200: 203b 023f 41b8 763d 25b6 5f3f 203b 343f
00000210: 2b82 16bf 2dda 9bbc 8fe9 49bf e87f bfbe
00000220: 8941 71bc 8831 3ebe 1632 723f 6018 3b3f
00000230: ea29 1bbf b775 c23d c9cc 67bf f467 6cbf
00000240: 5116 db3e 0335 c33e 972a 5e3f 6c15 283f
00000250: 15fb 36be 8ff3 36bf 2cb0 8c3e 9eb5 463e
00000260: 6d13 623e 76af 3e3e 27dc 7abf ff51 5dbf
00000270: 61c4 893d 8e93 06bc b411 593f b30f 403f
00000280: 4fad 1ebe 63d1 983e df21 94be 4dbc c6be
00000290: 9eef b1be c3fc a83d 861f 48bf fc79 1cbf
000002a0: bc75 5fbd 0776 3c3e a207 913e 4353 353f
000002b0: c4ec 32bd 9617 36be f1e6 133f e8cd 123f
000002c0: 4ce0 dcbe af8d 3bbf 6238 593e 03d7 593f
000002d0: 2c06 a2be 6f17 73bd 6176 9bbd 1fe6 58bf
000002e0: c434 813e b83c a4bd 928b e2bd 6d6e fdbe
000002f0: 0733 4ebd a9ee 8ebd 0eb3 103e 9c35 0a3e
00000300: 7864 b33e 577e 5a3d 216e 193f 4f6a 503e
00000310: e74e 4bbe 70eb a23e 2c57 5bbf 1189 02bf
00000320: b9d4 c8bd 747b 92be f8ee 603e 4dd4 80be
00000330: 8f31 853e 7070 063f 59ea acbe 15a6 03bf
00000340: 1d45 55be b850 d2bd 6c24 6bbf 4d65 54bf
00000350: edfa 033f 5526 92be 9c25 5d3f 17df cf3e
00000360: d6c3 98be 8676 9c3e a343 1f3f 1658 5e3f
00000370: d952 093f 6574 0dbe 219e a03d 37bf 5f3f
00000380: 6dd1 263e 98ad 163e bda9 803e 990a 073f
00000390: 4608 8b3e 52d0 8abe 359f 493f 62eb 583f
000003a0: 8cdb 05bf bf40 23bf ddf1 b1bd 6311 dfbe
000003b0: a403 fd3e 0d4a 303d 71c9 20bf e777 29bf
000003c0: aebf 9dbe 6909 dcbe 8777 ec3e ae11 8b3e
000003d0: bea0 22bf dd43 4ebd 4459 d0be 4780 86be
000003e0: 6d37 153f 4282 b33e c12a 03bd 2b4d 08bf
000003f0: c2ad ab3e bcf4 acbd 7913 343e b597 463f

critic.v_net.fcs.0.bias f4 [64]
-0.35672462 0.43322816 0.3660767 -0.2166841 0.13169292 0.5819077 0.2585368 0.15044981
0.508844 0.12830172 0.25005898 -0.30111223 0.2988064 0.28640345 0.42379606 0.12617731
0.5522375 0.19948 0.5288929 0.4757689 0.13658373 -0.47156695 0.43696356 -0.21047083
-0.23805943 0.34783974 0.43321553 -0.4741517 -0.39790794 -0.49069574 0.15659203 -0.5124197
-0.48727766 0.28905925 -0.37498698 0.5656658 -0.40449107 0.14998628 -0.22327536 -0.44226015
-0.45179954 -0.5340769 0.5448858 0.3699374 0.22804089 -0.120548375 0.17311572 -0.2801406
-0.3147018 -0.11873697 0.40634668 -0.16994265 0.5555525 -0.13624322 -0.42680374 -0.12893495
-0.39089096 0.060761895 0.16385642 -0.28308433 0.48539084 0.27952033 -0.5078087 0.093739994
00000000: 9ca4 b6be 15d0 dd3e 686e bb3e 70e2 5dbe
00000010: 82da 063e e7f7 143f ef5e 843e 840f 1a3e
00000020: 9a43 023f 8761 033e bb07 803e 622b 9abe
00000030: 27fd 983e 79a3 923e ccfb d83e a034 013e
00000040: 705f 0d3f 7c44 4c3e 8665 073f fb97 f33e
00000050: 9bdc 0b3e 3971 f1be b0b9 df3e aa85 57be
00000060: dac5 73be 0d18 b23e 6dce dd3e 03c4 f2be
00000070: 97ba cbbe 793c fbbe a959 203e f02d 03bf
00000080: 757c f9be 93ff 933e 4bfe bfbe 79cf 103f
00000090: 7419 cfbe 0196 193e 4ca2 64be ec6f e2be
000000a0: 4552 e7be 44b9 08bf a37d 0b3f 6f68 bd3e
000000b0: 8d83 693e 11e2 f6bd 3f45 313e 976e 8fbe
000000c0: 9820 a1be 5e2c f3bd ac0c d03e 7205 2ebe
000000d0: b038 0e3f 5883 0bbe 0586 dabe 8607 04be
000000e0: dc22 c8be 77e1 783d fac9 273e 6ef0 90be
000000f0: 2685 f83e 4a1d 8f3e c0ff 01bf c1fa bf3d

critic.v_net.fcs.1.weight f4 [64, 64]
0.23401722 0.21252681 -0.078479744 0.4033625 0.20110397 0.080678165 -0.42479393 -0.5562246
-0.15389244 0.22543481 -0.35202387 -0.18018486 -0.44462082 -0.28427303 0.11818564 0.34274042
0.10559382 -0.23250273 0.16633044 -0.20517814 -0.34731263 0.37571907 -0.24444865 -0.23455429
0.04936911 -0.18315819 0.036556453 0.24304126 -0.00028982872 -0.20043218 0.17704345 0.034376543
-0.04426155 0.1191421 -0.07671062 0.07213043 -0.14720453 -0.21128412 0.3299973 -0.20827949
0.056923192 0.32546964 -0.3197868 -0.28081447 -0.3428285 0.4367968 0.19649485 -0.14967841
-0.021905111 0.3694934 -0.0003910188 0.31983584 -0.0030132064 -0.23082069 -0.13479061 -0.40950048
-0.021277435 -0.6004619 0.16409671 0.4269 -0.06291843 0.18723027 0.065305874 -0.50118214
-0.12790729 0.13738336 0.1906468 0.15377799 0.3531492 0.08190899 -0.05170206 -0.23147686
-0.078857996 0.28203884 0.0025775067 -0.17266603 -0.17393571 -0.15245639 0.30846614 0.41342646
0.1423658 -0.009823122 0.17162922 0.011691841 -0.111367516 0.09806143 -0.08887931 -0.1793959
-0.0888411 0.119698025 0.12245039 -0.014676997 -0.09570221 -0.27465785 0.30202717 0.04791513
-0.17006886 0.30297297 -0.14227135 0.25803962 -0.29285887 -0.0048309783 0.062442698 -0.15885766
-0.15305394 0.07336577 0.09057499 0.06187182 -0.1946098 0.27578613 0.18122333 -0.12599754
-0.24057323 0.11000841 0.0024436305 0.15038833 0.25612637 -0.43352726 -0.29155535 -0.3170394
-0.070498504 -0.34898412 0.2014699 0.032382473 0.12576066 0.050858725 -0.033623215 -0.28920087
0.013127048 -0.24398595 0.028000174 -0.13210244 -0.2917151 -0.1504426 -0.011116736 0.119818754
-0.10798779 -0.3418533 0.097046904 0.3037645 0.081119396 -0.048516467 -0.21346997 -0.33971813
-0.1509921 -0.012137884 -0.24772057 0.06395785 0.11418885 -0.0769382 0.012892004 0.12588653
0.21155275 0.06697847 -0.12782626 0.059464164 0.2055558 0.118947625 -0.38391092 0.015000406
0.12453679 -0.24949999 0.121359326 -0.2653557 0.28002936 -0.11021075 -0.16817155 0.24801807
-0.09356846 0.102243856 0.0015108802 0.028332878 0.07599801 -0.09335596 -0.23156288 0.037210576
0.26881474 -0.20163344 -0.1747234 0.050578482 -0.17470865 0.341682 0.19767839 0.35017896
0.17790477 0.08324007 -0.22732642 0.008058574 0.06388457 -0.15638697 -0.00426266 0.15857969
-0.18777798 -0.06876213 0.087024055 -0.24451354 -0.24291134 -0.062359054 0.21280894 0.37937984
0.12086627 -0.30854505 0.15206276 0.20839676 0.33641747 0.2451019 -0.117653675 -0.33825827
0.06328098 0.12789334 -0.034215633 0.21357834 0.36082473 -0.1719733 0.18104495 0.24927418
0.12763673 0.13844909 -0.14072108 -0.06726065 0.03582628 -0.042700097 -0.2861425 -0.13459459
0.15038818 -0.14536132 -0.014605613 0.015593782 0.14034551 0.26280814 -0.41666606 -0.039605267
-0.2050656 -0.27772844 0.045742515 0.31792852 0.33713627 -0.4242387 -0.25998455 0.0053969864
-0.058119282 -0.5139744 0.03590551 -0.44538546 0.06262103 0.25799364 0.06593312 0.24966574
0.17430738 0.57904136 -0.10967906 -0.38325948 0.15668023 -0.03290168 -0.12748003 0.4947212
00000000: 36a2 6f3e a1a0 593e fdb9 a0bd 8885 ce3e
00000010: 33ee 4d3e 983a a53d 977e d9be bc64 0ebf
00000020: fb95 1dbe 62d8 663e 793c b4be 6182 38be
00000030: 57a5 e3be 3c8c 91be 500b f23d ac7b af3e
00000040: 9341 d83d 3215 6ebe 8752 2a3e 381a 52be
00000050: f6d2 b1be 405e c03e bf50 7abe 002f 70be
00000060: 4437 4a3d d28d 3bbe 38bc 153d cfdf 783e
00000070: 27f4 97b9 183e 4dbe e14a 353e 6bce 0c3d
00000080: 994b 35bd c600 f43d 751a 9dbd 1eb9 933d
00000090: c9bc 16be dd5a 58be 68f5 a83e 3847 55be
000000a0: 4b28 693d f5a3 a63e 18bb a3be eac6 8fbe
000000b0: 3887 afbe d5a3 df3e f235 493e 4c45 19be
000000c0: 5972 b3bc 3d2e bd3e a801 cdb9 86c1 a33e
000000d0: 3779 45bb 425c 6cbe 8d06 0abe 0caa d1be
000000e0: 044e aebc dfb7 19bf f808 283e a392 da3e
000000f0: 61db 80bd 4bb9 3f3e 16bf 853d 794d 00bf
00000100: 21fa 02be 39ae 0c3e ea38 433e fa77 1d3e
00000110: f9cf b43e e7bf a73d 8ac5 53bd 4508 6dbe
00000120: 4d80 a1bd 6567 903e 63eb 283b 5dcf 30be
00000130: 341c 32be 871d 1cbe 46ef 9d3e a2ac d33e
00000140: 57c8 113e 29f1 20bc 92bf 2f3e 238f 3f3c
00000150: a714 e4bd 6ed4 c83d 5b06 b6bd 8fb3 37be
00000160: 53f2 b5bd 3d24 f53d 45c7 fa3d ca77 70bc
00000170: 85ff c3bd f49f 8cbe 4ea3 9a3e a842 443d
00000180: 8826 2ebe 461f 9b3e 95af 11be c51d 843e
00000190: 99f1 95be 2f4d 9ebb eac3 7f3d 95ab 22be
000001a0: 2cba 1cbe cb40 963d 617f b93d 4e6d 7d3d
000001b0: cb47 47be d733 8d3e 9c92 393e 8005 01be
000001c0: d458 76be 174c e13d 5125 203b 66ff 193e
000001d0: ff22 833e 49f7 ddbe be46 95be fd52 a2be
000001e0: 8561 90bd 0cae b2be 204e 4e3e 7ca3 043d
000001f0: 67c7 003e 3d51 503d 7fb8 09bd 2312 94be
00000200: d412 573c 74d7 79be 9f60 e53c dd45 07be
00000210: ae5b 95be a00d 1abe f822 36bc 8963 f53d
00000220: b428 ddbd 6507 afbe 87c0 c63d 0587 9b3e
00000230: ed21 a63d 34b9 46bd df97 5abe 89ef adbe
00000240: ac9d 1abe fadd 46bc 76aa 7dbe 55fc 823d
00000250: d8db e93d c691 9dbd fc38 533c 66e8 003e
00000260: 49a1 583e 022c 893d e3e4 02be b290 733d
00000270: 387d 523e d09a f33d f98f c4be 43c4 753c
00000280: 250d ff3d ed7c 7fbe 3d8b f83d b4dc 87be
00000290: 0260 8f3e 2cb6 e1bd 2a35 2cbe 73f8 7d3e
000002a0: d2a0 bfbd 3a65 d13d ba08 c63a 5a1a e83c
000002b0: d8a4 9b3d 6931 bfbd d21e 6dbe 1e6a 183d
000002c0: 16a2 893e ff78 4ebe b1ea 32be 622b 4f3d
000002d0: d3e6 32be f1f0 ae3e 346c 4a3e a84a b33e
000002e0: ab2c 363e c579 aa3d 42c8 68be 1c08 043c
000002f0: ead5 823d e823 20be c9ad 8bbb b762 223e
00000300: df48 40be 29d3 8cbd ab39 b23d c261 7abe
00000310: c0bd 78be 356c 7fbd 96ea 593e 133e c23e
00000320: bc88 f73d 9ef9 9dbe 57b6 1b3e f665 553e
00000330: e93e ac3e fefb 7a3e 69f4 f0bd 3030 adbe
00000340: 7599 813d 79f6 023e b125 0cbd 48b4 5a3e
00000350: 05be b83e c519 30be d963 393e bb41 7f3e
00000360: 34b3 023e 99c5 0d3e 3019 10be f4bf 89bd
00000370: 94be 123d 4ce6 2ebd 4581 92be 2ad3 09be
00000380: 5cff 193e 99d9 14be 624c 6fbc 107d 7f3c
00000390: bcb6 0f3e ca8e 863e 4155 d5be 2239 22bd
000003a0: b7fc 51be 6c32 8ebe 815c 3b3d 87c7 a23e
000003b0: 209d ac3e d135 d9be b21c 85be 34d9 b03b
000003c0: 7c0e 6ebd d493 03bf a811 133d 9009 e4be
000003d0: 743f 803d be17 843e f207 873d 60a8 7f3e
000003e0: a27d 323e 0e3c 143f 6a9f e0bd 963a c4be
000003f0: c870 203e e9c3 06bd 208a 02be 194c fd3e

critic.v_net.fcs.1.bias f4 [64]
-0.05906754 0.07160468 4.9266077e-05 0.0012442422 -0.17325337 0.16138913 -0.04690118 0.15806538
-0.07733386 0.056585815 -0.18678692 -0.15609248 -0.17300041 0.06334561 0.11559686 -0.13951777
0.10972895 -0.034091316 -0.017395595 0.023882978 -0.15540661 0.084043436 0.1458856 0.14340343
0.0011390509 0.17414689 -0.05607221 0.14140616 0.18476006 0.011089118 0.10636817 0.14259991
-0.12190935 0.040679 -0.023508998 -0.008782601 0.04113643 -0.0826584 0.0240962 0.14661448
0.07727791 -0.091016985 0.177172 -0.1742429 -0.012495265 -0.037269004 -0.060469124 -0.03862949
0.14531678 -0.15712988 -0.18373421 -0.030703992 -0.040952533 -0.041302126 0.04521957 0.11873843
-0.11668806 0.097132355 -0.15060498 -0.16101685 -0.01474171 0.16678353 -0.009738668 -0.017709086
00000000: cef0 71bd 79a5 923d 0ca3 4e38 d715 a33a
00000010: 5569 31be 3143 253e 741b 40bd e4db 213e
00000020: 3761 9ebd 87c6 673d 1245 3fbe b5d6 1fbe
00000030: 0527 31be 58bb 813d 0cbe ec3d bfdd 0ebe
00000040: 92b9 e03d 56a3 0bbd 3581 8ebc 3ca6 c33c
00000050: e922 1fbe f71e ac3d 0963 153e 59d8 123e
00000060: 354c 953a 9053 323e f9ab 65bd c7cc 103e
00000070: be31 3d3e 22af 353c 8ed7 d93d b605 123e
00000080: 9cab f9bd 069f 263d f195 c0bc e6e4 0fbc
00000090: ac7e 283d cf48 a9bd 6565 c53c 1b22 163e
000000a0: e243 9e3d 1d67 babd 946c 353e bb6c 32be
000000b0: f1b8 4cbc 62a7 18bd 79ae 77bd f539 1ebd
000000c0: eccd 143e a8e6 20be d224 3cbe f086 fbbc
000000d0: d8bd 27bd 6b2c 29bd 2838 393d 222d f33d
000000e0: 26fa eebd 54ed c63d 3138 1abe 9ae1 24be
000000f0: 3787 71bc 4dc9 2a3e ef8e 1fbc a512 91bc

critic.v_net.fcs.2.weight f4 [1, 64]
-0.3315579 0.42989048 -0.41371238 0.33712494 -0.44905066 0.47216988 -0.3143367 0.36256
-0.4200724 0.39968914 -0.3981253 -0.387726 -0.36011618 -0.38380358 0.37767157 -0.36720243
0.39230925 -0.41535762 0.30574197 -0.37969935 -0.44231713 0.43696183 0.39459828 0.44169983
-0.37781307 0.40116936 0.34888408 0.35196567 0.3673976 -0.43562475 0.32242113 0.43522185
-0.37280607 -0.39457297 0.38120458 0.32523575 0.4323143 -0.3816805 -0.4297646 0.399784
0.35978308 -0.3798872 0.3928782 -0.40725958 0.39194262 0.37236372 -0.36575505 -0.42237374
0.4382362 -0.34697884 -0.42855403 -0.35644206 -0.34453386 -0.43647665 0.33582354 0.33088908
-0.3501314 0.34318656 -0.35346764 -0.34779522 -0.41490626 0.34386718 0.3387094 0.46167028
00000000: f5c1 a9be 9b1a dc3e 1cd2 d3be a49b ac3e
00000010: f8e9 e5be 40c0 f13e bdf0 a0be 77a1 b93e
00000020: bb13 d7be 0ea4 cc3e 14d7 cbbe 0684 c6be
00000030: 2661 b8be e781 c4be 2b5e c13e f501 bcbe
00000040: c2dc c83e c1a9 d4be 368a 9c3e f467 c2be
00000050: 6477 e2be 76b9 df3e c908 ca3e 7b26 e23e
00000060: b770 c1be 1266 cd3e efa0 b23e d834 b43e
00000070: 8a1b bc3e 350a dfbe 6214 a53e 66d5 de3e
00000080: 70e0 bebe 7805 cabe 3f2d c33e 4d85 a63e
00000090: 4d58 dd3e a06b c3be 1b0a dcbe 7db0 cc3e
000000a0: 7d35 b83e 9380 c2be 5527 c93e 5484 d0be
000000b0: b4ac c83e 75a6 be3e 3f44 bbbe 5f41 d8be
000000c0: 7f60 e03e 36a7 b1be 6f6b dbbe 937f b6be
000000d0: be66 b0be de79 dfbe 10f1 ab3e 4b6a a93e
000000e0: 6c44 b3be 26b6 af3e b6f9 b4be 3712 b2be
000000f0: 986e d4be 5c0f b03e 526b ad3e 0c60 ec3e

exp_avg f4 [64, 4]
4.3776312e-05 0.00020467957 -0.00023850639 -0.00073426316 -6.426499e-05 -0.00025269482 0.00019420807 0.00055608264
8.4481515e-05 0.00033282698 -0.00030342018 -0.00089446426 -2.6779006e-05 -0.00010881347 9.800438e-05 0.00028255675
4.2579253e-05 0.00016152096 -8.919253e-05 -0.00020343246 -1.867328e-05 -6.724011e-05 4.5737153e-05 0.000120149045
-4.849367e-05 -0.00027067238 0.00019126605 0.0004949739 -7.006462e-05 -0.00030618976 0.00033388217 0.0010172876
-8.712059e-05 -0.00032664574 0.0002533049 0.0006917262 8.538775e-05 0.00034366484 -0.00026484835 -0.0007467723
5.2407777e-05 0.0002751815 -0.00014692366 -0.0003415433 1.3807286e-05 8.2041275e-05 -5.6298863e-06 3.1013722e-05
-6.345472e-05 -0.0003334414 0.00023592182 0.0006222864 4.7479196e-05 0.0002602164 -0.00012781897 -0.00027755584
-2.8045562e-05 -0.00010086644 7.3230534e-05 0.00020388202 -5.4817807e-05 -0.00019408156 0.00012942233 0.0003825883
-3.816438e-05 -0.0001568979 7.75527e-05 0.00018676002 -7.3673604e-05 -0.00027234966 0.00018064528 0.00046666784
-3.665734e-05 -0.00013840792 0.000108963395 0.00031038135 5.7288107e-05 0.00034641783 -0.00018367804 -0.00041199586
1.0588205e-05 4.168154e-05 -2.9488903e-05 -7.502066e-05 -3.1952495e-05 -0.00012188281 9.563381e-05 0.00027183973
6.746349e-05 0.00024199266 -0.0001643327 -0.00043236432 3.5978464e-05 0.00018687498 -0.00012040949 -0.0003039297
-6.591544e-05 -0.00032572297 0.00030495835 0.0008782858 7.204607e-05 0.00034560135 -0.00011399332 -0.00016762907
8.395974e-05 0.00036125243 -0.00029392724 -0.0008277592 -0.00014002412 -0.000526593 0.00036576527 0.0009494279
-9.078002e-05 -0.00033493355 0.00021747571 0.0005679074 -7.016108e-05 -0.00025482182 0.00017803028 0.00047814805
-3.4098055e-05 -0.00012365148 8.977755e-05 0.00024689932 -5.611443e-06 -4.0382256e-05 2.0802483e-05 4.8579423e-05
4.171668e-05 0.00015182371 -0.00010376849 -0.00028549065 -1.1074096e-05 -4.397326e-05 6.737319e-05 0.00021461002
-1.25529095e-05 -5.6633777e-05 4.042107e-05 0.00011625694 -1.2369871e-05 -6.891852e-05 3.2553315e-05 6.251045e-05
-0.00010637098 -0.00044281533 0.00039466278 0.0011517692 -3.170357e-05 -0.0001263584 9.268013e-05 0.00025388988
-8.098921e-05 -0.00033003822 0.00013968177 0.00031949693 2.2025934e-05 0.000121413024 -9.769169e-05 -0.00026914495
6.168822e-05 0.00031732893 -0.00010010876 -0.00013399303 -6.983069e-05 -0.00025186638 0.00017861315 0.00049041794
-2.3482884e-05 -9.210746e-05 4.9175378e-05 0.000121802426 -0.00010960443 -0.000402029 0.00029016624 0.0007902044
8.883244e-05 0.0003475136 -0.00026353743 -0.0007353544 -4.298296e-05 -0.00014856517 0.000111546935 0.00031870548
3.3801345e-05 0.00020491992 -3.4124998e-05 3.87968e-05 -5.3925e-05 -0.00025266738 6.86456e-05 8.774948e-05
1.0710545e-05 6.7075074e-05 1.97233e-05 0.0001225303 -7.4270065e-05 -0.00029781807 0.00012840472 0.00031039724
-5.2670424e-05 -0.00019110681 0.00013810437 0.0003791728 6.4371045e-05 0.00023965 -0.00014093213 -0.00038364544
-3.97899e-05 -0.00018650907 9.823479e-05 0.00023123357 1.3927652e-05 6.236257e-05 -2.4108602e-05 -3.757027e-05
2.3627816e-05 8.8348184e-05 -6.0071794e-05 -0.00015070097 4.1193423e-05 0.00017292646 -0.00016615482 -0.00049107015
2.4711286e-05 0.00010104584 -7.963336e-05 -0.00022701421 -6.368399e-05 -0.00027054694 0.00015930385 0.00040872954
-1.1620652e-05 -4.43167e-05 3.3934266e-05 8.6341424e-05 5.794056e-05 0.00021288292 -0.00014505802 -0.00039093752
-3.9087092e-05 -0.00018952544 8.8707784e-05 0.00019764694 -4.3468586e-05 -0.00016958246 0.00011509406 0.00030664005
7.415353e-05 0.0002770477 -0.0002009178 -0.00055314763 -3.233392e-05 -0.0001195639 8.632142e-05 0.00023568593
00000000: 759c 3738 419f 5639 9217 7ab9 917b 40ba
00000010: 01c6 86b8 207c 84b9 55a4 4b39 13c6 113a
00000020: ab2b b138 487f ae39 5e14 9fb9 7b7a 6aba
00000030: 7aa3 e0b7 c932 e4b8 b387 cd38 2024 9439
00000040: 2097 3238 f45d 2939 e00c bbb8 7c50 55b9
00000050: 90a4 9cb7 4203 8db8 e5d5 3f38 87f8 fb38
00000060: af65 4bb8 08e9 8db9 978e 4839 23c1 013a
00000070: a8ef 92b8 1888 a0b9 e80c af39 8256 853a
00000080: 83b4 b6b8 a641 abb9 02ce 8439 f654 353a
00000090: 3312 b338 ea2d b439 58db 8ab9 0ac3 43ba
000000a0: 6cd0 5b38 3c46 9039 850f 1ab9 2a11 b3b9
000000b0: d8a5 6737 930d ac38 5be8 bcb6 bb14 0238
000000c0: fe12 85b8 bfd1 aeb9 c861 7739 ef20 233a
000000d0: 6624 4738 a76d 8839 2507 06b9 ea84 91b9
000000e0: 6343 ebb7 4288 d3b8 5893 9938 2ac9 5539
000000f0: 2cec 65b8 5f82 4bb9 8bb5 0739 2296 c839
00000100: b112 20b8 f684 24b9 caa3 a238 03d5 4339
00000110: 3781 9ab8 27ca 8eb9 996b 3d39 19ab f439
00000120: 85c0 19b8 9821 11b9 4783 e438 aeba a239
00000130: a348 7038 6a9f b539 b399 40b9 2601 d8b9
00000140: ffa3 3137 36d3 2e38 f05e f7b7 6954 9db8
00000150: bb04 06b8 569b ffb8 038f c838 b685 8e39
00000160: 2f7b 8d38 69bf 7d39 b950 2cb9 f5ae e2b9
00000170: 95e7 1638 dff3 4339 5a84 fcb8 c158 9fb9
00000180: 153c 8ab8 ccc5 aab9 d1e2 9f39 c33c 663a
00000190: 7017 9738 d431 b539 b30f efb8 96c5 2fb9
000001a0: 8b13 b038 7b66 bd39 3f1a 9ab9 fbfd 58ba
000001b0: 70d3 12b9 0f0b 0aba 2fc4 bf39 07e3 783a
000001c0: 2761 beb8 059a afb9 310a 6439 9fdf 143a
000001d0: 7123 93b8 9b99 85b9 a4ad 3a39 f2af fa39
000001e0: 8204 0fb8 71a8 01b9 f546 bc38 4472 8139
000001f0: ee49 bcb6 1e60 29b8 fe80 ae37 c2c1 4b38
00000200: f2f8 2e38 de32 1f39 499e d9b8 e8ad 95b9
00000210: e1ca 39b7 ee6f 38b8 b54a 8d38 f008 6139
00000220: 569a 52b7 0e8a 6db8 cb89 2938 f8ce f338
00000230: 3188 4fb7 5988 90b8 db89 0838 0b18 8338
00000240: 7c13 dfb8 ab29 e8b9 beea ce39 f6f6 963a
00000250: 73f9 04b8 137f 04b9 445d c238 861c 8539
00000260: c0d8 a9b8 fb08 adb9 8a77 1239 2782 a739
00000270: 55c4 b837 1f9f fe38 d4df ccb8 061c 8db9
00000280: 9c5e 8138 2b5f a639 7bf1 d1b8 7b80 0cb9
00000290: 1172 92b8 ef0c 84b9 1a4a 3b39 648f 003a
000002a0: 1cfd c4b7 d129 c1b8 a941 4e38 2e70 ff38
000002b0: 6edb e5b8 6bc7 d2b9 7421 9839 b825 4f3a
000002c0: 8e4b ba38 7c32 b639 652b 8ab9 ccc4 40ba
000002d0: 9a48 34b8 29c8 1bb9 4eee e938 ed17 a739
000002e0: ebc5 0d38 c6df 5639 7021 0fb8 bfb9 2238
000002f0: 872d 62b8 7178 84b9 d3f5 8f38 2506 b838
00000300: 71b1 3337 a8aa 8c38 7773 a537 7a7b 0039
00000310: 70c1 9bb8 7724 9cb9 61a4 0639 d0bc a239
00000320: 70ea 5cb8 d863 48b9 1cd0 1039 b6cb c639
00000330: f1fe 8638 8f4a 7b39 2ec7 13b9 0524 c9b9
00000340: 14e4 26b8 a691 43b9 6703 ce38 4a77 7239
00000350: cfaa 6937 a6c8 8238 d43c cab7 c594 1db8
00000360: 5934 c637 9247 b938 99f5 7bb8 7c05 1eb9
00000370: 1ac7 2c38 9853 3539 d839 2eb9 29bb 00ba
00000380: 154b cf37 93e8 d338 d600 a7b8 aa0a 6eb9
00000390: 158e 85b8 32d8 8db9 cd0a 2739 c04a d639
000003a0: 52f6 42b7 b2e0 39b8 a454 0e38 3312 b538
000003b0: 3405 7338 5339 5f39 b71a 18b9 bff6 ccb9
000003c0: 72f1 23b8 59bb 46b9 a108 ba38 723f 4f39
000003d0: 0a52 36b8 f2d1 31b9 a75e f138 88c4 a039
000003e0: e082 9b38 b640 9139 76ad 52b9 1c01 11ba
000003f0: 489e 07b8 61be fab8 7607 b538 7622 7739

exp_avg_sq f4 [64, 4]
1.6765014e-08 8.0827725e-08 5.972942e-07 8.042197e-06 2.7022011e-08 1.1422814e-07 3.8386767e-07 5.3392614e-06
4.7803805e-08 2.0111315e-07 7.866546e-07 1.0904026e-05 1.23169706e-08 5.9412432e-08 3.7942692e-07 5.2862174e-06
4.7038977e-09 1.8094164e-08 2.2865322e-08 2.712582e-07 3.4683736e-09 1.26089965e-08 2.4444073e-08 3.3703725e-07
5.2044154e-08 2.2468244e-07 1.3821332e-06 1.8527044e-05 4.079527e-08 1.8908815e-07 1.1316146e-06 1.5432506e-05
6.222218e-08 2.3932856e-07 7.809449e-07 1.0811198e-05 5.405941e-08 2.2692187e-07 7.9464365e-07 1.1045084e-05
5.228324e-08 2.1919706e-07 1.151068e-06 1.5430036e-05 3.5136731e-09 1.543845e-08 8.084502e-08 1.0755859e-06
7.532033e-08 3.356812e-07 2.124481e-06 2.8636608e-05 1.9045418e-08 7.973158e-08 3.2048138e-07 4.2207034e-06
2.3100228e-09 9.058718e-09 1.2520192e-08 1.7164342e-07 3.0670495e-08 1.3460254e-07 3.6638144e-07 5.207882e-06
1.0596111e-08 4.4311246e-08 1.18543e-07 1.6303549e-06 2.0514607e-08 7.7567236e-08 1.3651908e-07 1.7744303e-06
8.949374e-09 3.6297052e-08 1.1033153e-07 1.5353671e-06 4.9774535e-08 2.1522094e-07 1.2945212e-06 1.715e-05
1.0182662e-09 3.5789016e-09 9.050312e-09 1.1942966e-07 8.266614e-09 3.4474162e-08 1.1729691e-07 1.6439417e-06
8.82005e-09 3.6212388e-08 3.3440752e-08 4.042707e-07 2.1045436e-08 8.3925876e-08 3.9525582e-07 5.2828846e-06
6.046125e-08 2.6902077e-07 1.6689885e-06 2.2493818e-05 1.2845479e-07 5.501516e-07 2.5895272e-06 3.6032034e-05
7.5417034e-08 3.272191e-07 1.5911668e-06 2.200457e-05 1.1731895e-07 4.4767188e-07 1.290687e-06 1.7597014e-05
7.050693e-08 2.589875e-07 5.725935e-07 7.683683e-06 1.262836e-08 4.9715837e-08 6.516404e-08 8.2663524e-07
1.905353e-09 8.139076e-09 8.842446e-09 1.1872946e-07 1.7050258e-09 7.587185e-09 6.7342306e-08 9.1576914e-07
2.3585361e-08 9.0014574e-08 1.9768642e-07 2.7386639e-06 1.3376795e-09 6.3162218e-09 6.448035e-08 8.707538e-07
3.1869523e-09 2.0846482e-08 2.5515976e-07 3.4450825e-06 3.6039054e-08 1.7441876e-07 1.4225947e-06 1.9405168e-05
1.0154785e-07 4.428392e-07 2.0129978e-06 2.786863e-05 4.8557913e-09 1.9773854e-08 4.4253404e-08 6.0665207e-07
6.811984e-08 3.0572033e-07 1.0502907e-06 1.4834885e-05 3.948191e-09 1.831893e-08 1.5739971e-07 2.106831e-06
1.1490738e-07 5.0188123e-07 2.591335e-06 3.593664e-05 1.2857166e-08 5.1422365e-08 7.010448e-08 9.1554506e-07
2.008503e-09 8.819709e-09 1.9452154e-08 2.6510304e-07 4.4477318e-08 1.7472975e-07 3.9048768e-07 5.274925e-06
7.921083e-08 3.1422172e-07 9.477388e-07 1.3186608e-05 2.9888951e-09 1.265654e-08 9.970669e-09 1.2586324e-07
4.653441e-08 1.9225489e-07 1.0085186e-06 1.36266635e-05 7.8431114e-08 3.415514e-07 1.6724706e-06 2.3316623e-05
1.597869e-08 7.180068e-08 4.692131e-07 6.4929454e-06 3.522937e-08 1.5166582e-07 4.4833445e-07 6.146639e-06
3.221481e-08 1.2216569e-07 2.419393e-07 3.3195513e-06 1.9278168e-08 8.171257e-08 1.800168e-07 2.500313e-06
3.9077428e-08 1.7296473e-07 9.2813093e-07 1.2917472e-05 5.646911e-09 2.3056142e-08 7.943398e-08 1.1256728e-06
1.0688244e-09 4.331255e-09 4.5452824e-09 5.554779e-08 9.305134e-09 3.758858e-08 1.2733706e-07 1.7096371e-06
1.0097218e-08 4.0684412e-08 1.3893617e-07 1.9413642e-06 3.7080774e-08 1.5708598e-07 5.997933e-07 8.272786e-06
2.742738e-10 1.2154024e-09 2.4227713e-09 3.185223e-08 1.2812362e-08 4.99695e-08 9.506841e-08 1.2768337e-06
1.4092018e-08 5.6012077e-08 1.7335508e-07 2.2549227e-06 3.7581767e-08 1.4469904e-07 4.4919983e-07 6.272075e-06
3.2344776e-08 1.3108497e-07 3.730953e-07 5.1738384e-06 1.830329e-08 7.097087e-08 1.8386045e-07 2.5817235e-06
00000000: a802 9032 8393 ad33 bf55 2035 f9ec 0637
00000010: 081e e832 964d f533 5f16 ce34 e827 b336
00000020: d750 4d33 90f1 5734 7e2a 5335 6ff0 3637
00000030: 9c9a 5332 a92c 7f33 0ab4 cb34 4360 b136
00000040: ec9f a131 7d6d 9b32 6069 c432 71a1 9134
00000050: 4658 6e31 f49e 5832 16f9 d132 0cf2 b434
00000060: 2787 5f33 3d40 7134 bc81 b935 866a 9b37
00000070: e036 2f33 2808 4b34 fbe1 9735 0e75 8137
00000080: 019f 8533 117d 8034 20a2 5135 be61 3537
00000090: f32e 6833 cfa7 7334 7f4f 5535 464e 3937
000000a0: 088e 6033 6e5c 6b34 657e 9a35 c06f 8137
000000b0: 3175 7131 839d 8432 059d ad33 da5c 9035
000000c0: cabf a133 ac37 b434 4e92 0e36 a638 f037
000000d0: 5199 a332 e638 ab33 a00e ac34 919f 8d36
000000e0: 5abe 1e31 aaa0 1b32 6318 5732 fc4c 3834
000000f0: 91ba 0333 4487 1034 15b3 c434 5ebf ae36
00000100: 300a 3632 bb50 3e33 b491 fe33 91d2 da35
00000110: 1938 b032 0a93 a633 1496 1234 f628 ee35
00000120: c3bf 1932 08e5 1b33 66ef ec33 d012 ce35
00000130: aec7 5533 7b17 6734 69bf ad35 58dd 8f37
00000140: 0ff3 8b30 b4f0 7531 b17b 1b32 933c 0034
00000150: f404 0e32 be10 1433 a9e4 fb33 68a5 dc35
00000160: fd86 1732 f187 1b33 7fa0 0f33 8b0a d934
00000170: 67c7 b432 bd3a b433 8c33 d434 a243 b136
00000180: ecd6 8133 ef6d 9034 0202 e035 1bb1 bc37
00000190: 62ed 0934 21ae 1335 bdc7 2d36 1a21 1738
000001a0: f4f4 a133 a7ac af34 1390 d535 7496 b837
000001b0: c6f0 fb33 8e57 f034 ab3b ad35 4d9d 9337
000001c0: 9869 9733 f90a 8b34 53b4 1935 2be9 0037
000001d0: 1df4 5832 2487 5533 4ff0 8b33 f1e5 5d35
000001e0: 53ef 0231 09d4 0b32 7de9 1732 36f8 fe33
000001f0: 4356 ea30 cb58 0232 d39d 9033 2dd3 7535
00000200: c298 ca32 094e c133 a143 5434 e3c9 3736
00000210: 6ad9 b730 1306 d931 7378 8a33 bfbd 6935
00000220: 7501 5b31 e611 b332 e4fc 8834 1132 6736
00000230: 5cc9 1a33 dd47 3b34 fbef be35 48c8 a237
00000240: 8512 da33 5bbf ed34 0a17 0736 6dc7 e937
00000250: fed7 a631 2adb a932 2211 3e33 d0d8 2235
00000260: 4749 9233 e221 a434 b7f7 8c35 59e3 7837
00000270: a8a8 8731 c15b 9d32 b401 2934 1563 0d36
00000280: 00c3 f633 04b9 0635 cce6 2d36 acba 1638
00000290: 6ae2 5c32 7ddb 5c33 588c 9633 c7c3 7535
000002a0: f505 0a31 7e85 1732 bd17 a732 7c53 8e34
000002b0: 5407 3f33 599d 3b34 38a4 d134 43ff b036
000002c0: 9d1a aa33 4eb2 a834 1d68 7e35 0d3c 5d37
000002d0: 3365 4d31 0d70 5932 774b 2b32 0625 0734
000002e0: 20dd 4733 9f6e 4e34 6f5c 8735 139e 6437
000002f0: f66d a833 785e b734 a779 e035 1198 c337
00000300: 8341 8932 d730 9a33 28e8 fb34 fadd d936
00000310: 1a4f 1733 95d9 2234 9eb2 f034 3a3f ce36
00000320: 8f5c 0a33 a62c 0334 e2e3 8134 75c5 5e36
00000330: 2499 a532 f679 af33 a44a 4134 0dcb 2736
00000340: 16d6 2733 2fb8 3934 ac24 7935 1fb8 5837
00000350: c106 c231 fe0c c632 4b95 aa33 d315 9735
00000360: eae5 9230 1fd2 9431 ba2c 9c31 7193 6e33
00000370: 6adc 1f32 1571 2133 25ba 0834 af76 e535
00000380: 0978 2d32 fcbc 2e33 7c2e 1534 6248 0236
00000390: be42 1f33 77ab 2834 7b01 2135 58cb 0a37
000003a0: 9bc8 962f 2c0b a730 d87d 2631 e6cd 0833
000003b0: 5d1d 5c32 0c9e 5633 6928 cc33 ac5f ab35
000003c0: 5a19 7232 ee91 7033 7b23 3a34 4753 1736
000003d0: 9769 2133 925e 1b34 8e29 f134 b774 d236
000003e0: 75eb 0a33 5dc0 0c34 d44d c834 ef9a ad36
000003f0: 5c39 9d32 a668 9833 2d6b 4534 ac41 2d36

exp_avg f4 [64]
-0.0002682912 0.00018530023 -0.00029846595 0.00014253902 -0.00027929843 6.525756e-05 0.00054141216 0.0003684347
0.00043475133 -0.00028076736 -0.0004460576 -7.38631e-05 0.00056782394 -0.00042690936 4.060602e-05 -0.00014786926
5.47058e-05 0.0003359697 0.00011294446 -0.0006947273 -7.406928e-05 0.000103282 -0.00026514402 -0.00032544555
0.0005580087 -0.00043080334 -0.0004260534 0.0007745087 0.00035746777 0.00022579254 7.332289e-05 7.4552394e-05
-5.0688857e-05 5.8089812e-05 1.6543436e-06 0.000183682 0.00045843975 0.00011020394 -3.1806332e-05 -0.00020970782
-0.00044942382 0.00014606584 3.9537816e-05 0.00035031812 -0.00028504682 3.5949906e-05 -0.00043335385 0.00019952479
-0.00011598083 1.0306082e-05 0.00011099409 2.7376855e-05 0.00019992625 -8.768104e-05 -0.00013996597 -0.00019991166
-7.116535e-05 0.00019186463 8.9257686e-05 -0.00016949655 0.00023035168 0.00015834931 -0.00021261058 7.686332e-05
00000000: 6fa9 8cb9 274d 4239 6c7b 9cb9 8776 1539
00000010: cd6e 92b9 e3da 8838 8eed 0d3a 782a c139
00000020: 56ef e339 f533 93b9 d6dc e9b9 f3e6 9ab8
00000030: 05da 143a ced2 dfb9 6250 2a38 5a0d 1bb9
00000040: e873 6538 1725 b039 98dc ec38 5c1e 36ba
00000050: a455 9bb8 1a99 d838 0703 8bb9 90a0 aab9
00000060: 5447 123a 72dd e1b9 eb5f dfb9 6608 4b3a
00000070: 836a bb39 b9c2 6c39 edc4 9938 0359 9c38
00000080: bf9a 54b8 76a5 7338 d00a de35 c39a 4039
00000090: be5a f039 4a1d e738 ca67 05b8 04e5 5bb9
000000a0: a5a0 ebb9 4029 1939 68d5 2538 e7aa b739
000000b0: 5672 95b9 ebc8 1638 c533 e3b9 8737 5139
000000c0: bc3a f3b8 49e8 2c37 80c5 e838 59a7 e537
000000d0: 4ba3 5139 66e1 b7b8 d4c3 12b9 619f 51b9
000000e0: 9b3e 95b8 452f 4939 db2f bb38 e2ba 31b9
000000f0: 8f8a 7139 920a 2639 38f0 5eb9 ae31 a138
