walkthroughs/tutorial_models/tutorial_results/ppo/seed222_Feb-04-10-34-20_v0.5.0-54-g5fb9629/model_best.pt (torch, 146922 bytes, 30 tensors)

actor.pi_net.fcs.0.weight f4 [64, 4]
0	0x3e9a8456	0.3017909
1	0xbeb47da4	-0.35252106
2	0x3f054611	0.5206004
3	0xbea12186	-0.3147089
4	0x3eac379b	0.33636174
5	0x3eed3389	0.4632838
6	0x3dab9973	0.083788775
7	0x3e8c885a	0.27447778
8	0x3e690bfe	0.22758481
9	0xbd6943e1	-0.0569495
10	0xbe6b359d	-0.2296967
11	0xbe1ff0f2	-0.15619257
12	0x3ec77b43	0.3896123
13	0xbe90a41d	-0.28250208
14	0xbd43d0fa	-0.047806717
15	0xbe782e6b	-0.24236457
16	0xbe3f9778	-0.18710124
17	0x3e006590	0.12538743
18	0x3f2ed2d2	0.68290436
19	0x3f37c5b6	0.7178606
20	0x3ec96165	0.3933212
21	0x3e2a3fe6	0.16625938
22	0xbf0fd4e0	-0.56184196
23	0xbf1e51ec	-0.6184375
24	0x3e6a9229	0.22907318
25	0xbe351770	-0.17684722
26	0x3e928b43	0.28621873
27	0xbd0991e7	-0.03358641
28	0x3d10a24a	0.03531102
29	0x3e4bbebe	0.19896981
30	0xbccdc927	-0.025120331
31	0x3e4f5c21	0.20249988
32	0xbed027e7	-0.40655443
33	0xbe575181	-0.21027185
34	0xbe4c4dc3	-0.19951539
35	0x3ed226a8	0.41045117
36	0x3ee115cf	0.4396195
37	0xbf06ab2a	-0.52604926
38	0x3ebc98de	0.36835378
39	0xbe9a8737	-0.30181286
40	0x3e32901d	0.17437787
41	0xbdebdef2	-0.11517133
42	0xbbfc2b57	-0.007695596
43	0xbc836d4a	-0.016043324
44	0xbeb6c90b	-0.3570026
45	0x3d30253a	0.043004252
46	0xbd9a40f1	-0.07531918
47	0x3e15013b	0.1455125
48	0xbeb7df9b	-0.35912785
49	0xbd0bd624	-0.034139767
50	0x3eae6f8c	0.3406948
51	0xbc651878	-0.013982885
52	0x3d324282	0.043520458
53	0xbecbc3b9	-0.39797762
54	0xbe8456a0	-0.2584734
55	0xbb2bcd0e	-0.0026214751
56	0xbd438e03	-0.047742855
57	0x3eb4302a	0.35192996
58	0xbe95454b	-0.2915443
59	0xbf15dbed	-0.58538705
60	0xbf0394c2	-0.5139886
61	0xbef3d627	-0.47624323
62	0x3ebc0fa0	0.3673067
63	0x3e8bacc7	0.27280256
64	0x3ec1b6da	0.37834817
65	0xbe4dfbc9	-0.2011558
66	0xbcaef0d0	-0.021355063
67	0xbe9487b0	-0.2900977
68	0xbc8b5200	-0.017006874
69	0xbc9acc62	-0.018896285
70	0xbe9924f5	-0.29911008
71	0xbf1d1e82	-0.61374676
72	0xbe8ab2ef	-0.2708964
73	0x3e559fcc	0.20861739
74	0xbe0a57e0	-0.13510084
75	0x3ea51bc3	0.32247743
76	0xbd3a3977	-0.04546496
77	0xbeee8cc0	-0.4659176
78	0xbea56066	-0.3230011
79	0x39bc073b	0.0003586354
80	0xbd872e0c	-0.066005796
81	0x3ed20f25	0.4102718
82	0xbecad1be	-0.39613146
83	0x3f017e9d	0.5058382
84	0x3e98c344	0.29836476
85	0x3cd6e0b9	0.026230203
86	0x3e889efa	0.2668379
87	0x3e8a8fed	0.27062932
88	0xbe212e83	-0.15740399
89	0x3e844341	0.2583256
90	0x3f38f17c	0.72243476
91	0x3f3ffb85	0.74993163
92	0x3e9a0ea1	0.30089286
93	0x3e5a07fa	0.21292105
94	0x3efd9e00	0.49534607
95	0xbe0403d0	-0.1289208
96	0xbed0f65e	-0.40812963
97	0x3d8832d7	0.06650322
98	0x3ef64435	0.48098913
99	0xbd1cecba	-0.038311698
100	0xbed779b9	-0.42085055
101	0xbe0c1362	-0.13679269
102	0xbe4aa45f	-0.19789265
103	0xbe0bc44d	-0.13649102
104	0xbe1f0070	-0.1552751
105	0xbc0a67a0	-0.008447558
106	0x3ebc8354	0.36818945
107	0xbe903a4f	-0.28169486
108	0xbc823369	-0.015893655
109	0x3e8e1c4d	0.27755967
110	0xbef7fe48	-0.4843619
111	0xbedbbd0d	-0.42917672
112	0xbe092045	-0.13391216
113	0xbca659b1	-0.02030644
114	0x3e783328	0.24238265
115	0x3eb3fab5	0.35152212
116	0x3da86bb9	0.082236715
117	0x3d67be40	0.05657792
118	0xbef5045b	-0.47854885
119	0xbf0737ec	-0.52819705
120	0xbec24a36	-0.37947243
121	0x3efeaeea	0.49742824
122	0x3d9ace4c	0.07558879
123	0xbf2a3492	-0.66486466
124	0xbd6b09fe	-0.057382576
125	0xbea3b00d	-0.31970254
126	0x3ed5079d	0.4160737
127	0xbdf6723f	-0.120335095
128	0xbec083f4	-0.37600672
129	0x3e53fb98	0.20701444
130	0xbee680be	-0.45020097
131	0xbe4cf4e9	-0.20015301
132	0xbeac13d8	-0.3360889
133	0x3d7dd336	0.061969005
134	0xbe1b3bfb	-0.151596
135	0x3df99b59	0.12187833
136	0x3ec88c85	0.39169708
137	0x3f01cfde	0.50707805
138	0x3e8042f5	0.25051084
139	0x3d0ea7ec	0.03482811
140	0x3ecc1290	0.39857912
141	0xbedeecde	-0.4354009
142	0x3db78d46	0.08962493
143	0xbdf73bd3	-0.120719574
144	0xbed27f03	-0.41112527
145	0x3ea878fc	0.32904804
146	0x3dc8396b	0.097765766
147	0x3e202e39	0.15642633
148	0xbd4d4afd	-0.050120343
149	0x3f02af86	0.5104908
150	0x3eb11b7a	0.34591275
151	0x3db851ea	0.08999999
152	0xbe26999d	-0.16269536
153	0x3e294a54	0.1653226
154	0x3d26c684	0.040716663
155	0xbec25343	-0.3795415
156	0x3e4cd285	0.20002182
157	0xbebb9f47	-0.36644956
158	0xbc9ffaf4	-0.019528843
159	0xbdaaf7ce	-0.08348046
160	0xbd6b9e35	-0.057523925
161	0xbe9ef396	-0.31045216
162	0xbeeaf8ac	-0.45892847
163	0xbd40c6ba	-0.04706452
164	0xbe02f531	-0.12788846
165	0x3e28c4fa	0.1648139
166	0xbf237fcc	-0.6386688
167	0xbee706ea	-0.45122463
168	0x3ed52063	0.41626272
169	0x3b5c31a7	0.003359893
170	0xbcda308e	-0.02663448
171	0xbe9e494f	-0.30915305
172	0x3cc3592b	0.02384623
173	0x3f015ac9	0.5052915
174	0xbf0ec885	-0.5577472
175	0xbebeaedc	-0.37242782
176	0xbed9addb	-0.42515454
177	0xbd38073f	-0.044928785
178	0xbe40ee66	-0.18840942
179	0xbe585bce	-0.2112877
180	0x3dbbc06e	0.091675624
181	0xbdbdf826	-0.09275846
182	0xbec045d5	-0.37553278
183	0xbf3152fa	-0.6926724
184	0xbe29cd42	-0.16582206
185	0x3eebaf12	0.46032006
186	0x3eba97b4	0.36443865
187	0x3be87c30	0.0070948824
188	0xbeffc74a	-0.49956733
189	0xbd48f6a5	-0.049063344
190	0x3e9e736c	0.30947435
191	0x3df7305a	0.12069769
192	0xbe4cffd3	-0.20019464
193	0x3e3344d9	0.17506732
194	0xbdb5be05	-0.08874134
195	0xbe2d6d75	-0.16936286
196	0x3ea0cb05	0.31404892
197	0x3f01b4c9	0.5066648
198	0x3ebb6544	0.36600697
199	0xbebf6373	-0.3738056
200	0x3e7a6670	0.2445314
201	0x3e91caad	0.28474942
202	0x3e33ae5d	0.17546983
203	0x3eab676d	0.33477345
204	0x3ef0a9a6	0.4700443
205	0xbef392fd	-0.4757308
206	0xbec3b1d9	-0.38221624
207	0x3f06a1d9	0.5259071
208	0x3e379e73	0.17931537
209	0x3d6a0df4	0.057142213
210	0xbea81ef9	-0.3283613
211	0x3e84d01e	0.2594003
212	0xbe9ad0c3	-0.30237398
213	0xbee5cfc5	-0.44885078
214	0x3f04f845	0.5194133
215	0xbeef5918	-0.4674766
216	0x3f082640	0.53183365
217	0xbe980a95	-0.29695573
218	0x3f31004b	0.6914107
219	0x3f052b20	0.5201893
220	0x3ed5feb9	0.417959
221	0xbe926a74	-0.28596842
222	0x3dee7c1b	0.11644765
223	0xbe33a69e	-0.17544028
224	0xbef2d0f0	-0.47425032
225	0x3dd3f25a	0.10348959
226	0xbe520f49	-0.20513643
227	0xbe4c7a92	-0.19968632
228	0x3c42dbcb	0.011893223
229	0x3dcf6c52	0.10128082
230	0xbeb2dca0	-0.3493395
231	0xbe103169	-0.14081348
232	0xbc73f6c3	-0.014890376
233	0x3d663880	0.056206226
234	0xbf3ef38f	-0.7459039
235	0xbecb8528	-0.39750028
236	0x3e64f7f3	0.2236021
237	0x3ea61c96	0.32443684
238	0x3f1017b0	0.56286144
239	0x3f0a855a	0.5410973
240	0x3e2b8274	0.16748983
241	0x3e5eab1b	0.21744959
242	0x3e44361d	0.19161268
243	0xbdccdb12	-0.10002722
244	0x3ebfc2a5	0.3745319
245	0xbe86e8fc	-0.26349628
246	0x3ecc73d9	0.39932135
247	0x3e47b5ef	0.19502996
248	0x3e01548b	0.12629907
249	0x3eddc0fc	0.43311298
250	0x3efa9b56	0.48946637
251	0x3ed1ef3c	0.41002834
252	0xbee578a0	-0.44818592
253	0x3ec6e6b6	0.38847893
254	0xbe3e6e5f	-0.1859679
255	0x3eb73af4	0.35787165

actor.pi_net.fcs.0.bias f4 [64]
0	0x3edb1859	0.42792013
1	0xbed50985	-0.41608825
2	0x3e98b193	0.29822978
3	0x3ec26bf2	0.3797298
4	0xbeac7aef	-0.3368754
5	0x3e083a18	0.13303411
6	0xbec494c1	-0.3839474
7	0xbed9b3a1	-0.42519858
8	0xbeda8763	-0.42681417
9	0x3e111591	0.14168383
10	0x3e6ffa50	0.2343533
11	0x3e5d6dce	0.21623918
12	0xbe3407aa	-0.17581049
13	0x3d1fb43f	0.038990255
14	0x3cedfdf1	0.029051753
15	0x3f015cbe	0.5053214
16	0xbe8566f1	-0.260551
17	0x3e4a8215	0.19776185
18	0xbee3f89e	-0.44525617
19	0x3d4f0ebf	0.050551172
20	0xbe6620a4	-0.22473389
21	0xbed2ff67	-0.41210482
22	0xbe1d51fa	-0.15363303
23	0x3e45b0c9	0.1930572
24	0xbe8be31c	-0.27321708
25	0xbe4d5cad	-0.20054884
26	0x3e369810	0.17831445
27	0x3ec3a7a3	0.38213834
28	0xbe92d588	-0.28678536
29	0x3d9ef2a9	0.077611275
30	0x3d550c6c	0.0520138
31	0xbeeb4f62	-0.45959002
32	0xbe334a0e	-0.17508718
33	0xbe0e65e8	-0.13906062
34	0xbe240539	-0.16017617
35	0x3da6b6c2	0.08140327
36	0xbe83c379	-0.2573507
37	0xbdcf3120	-0.10116792
38	0xbef2740c	-0.47354162
39	0x3d316e22	0.04331792
40	0xbe4bf9b2	-0.1991947
41	0xbd767f4f	-0.060180005
42	0xbda9a8ce	-0.0828415
43	0x3dc77448	0.09738976
44	0x3e03c842	0.12869361
45	0xbe163dd7	-0.14672028
46	0x3eab9ee0	0.3351965
47	0x3eb20920	0.34772587
48	0xbede885f	-0.43463418
49	0xbebc6055	-0.36792246
50	0x3e07ed35	0.13274081
51	0x3eb93aaf	0.36177585
52	0x3d2b642b	0.041843574
53	0xbef9ea42	-0.48811537
54	0xbe5541ca	-0.20825878
55	0x3ecd705a	0.4012478
56	0x3d7e73eb	0.062122267
57	0xbd99b60e	-0.07505427
58	0x3e149495	0.14509805
59	0xbe5ca325	-0.2154661
60	0xbdbc6058	-0.091980636
61	0xbc1fd654	-0.00975569
62	0xbe65e96f	-0.22452329
63	0x3e1388aa	0.14407602

actor.pi_net.fcs.1.weight f4 [64, 64]
0	0xbcd73537	-0.026270492
1	0x3ba3f786	0.0050038723
2	0xbdab9594	-0.08378139
3	0x3d1e720c	0.038682982
4	0xbdc29070	-0.095002055
5	0xbb427215	-0.002967005
6	0x3dbfefbf	0.093719
7	0x3c6864e8	0.014184214
8	0xbd61737a	-0.055041768
9	0xbcbe14f7	-0.023203356
10	0xbdd8752a	-0.10569222
11	0x3d829fde	0.063781485
12	0x395a567d	0.0002082232
13	0xbd7735fc	-0.060354218
14	0x3dad3fc1	0.08459426
15	0x3dc37f82	0.095458046
16	0xbd360e2f	-0.04444712
17	0xbc9faa37	-0.019490344
18	0x3df0bf0e	0.11755191
19	0x3d9a9894	0.07548633
20	0xbd5173ba	-0.051135756
21	0x3d426803	0.047462475
22	0x3cf03a9d	0.029324824
23	0x3cba362d	0.022730911
24	0xbd20b608	-0.0392361
25	0xbdcc47d4	-0.09974638
26	0x3d92f0e5	0.07174853
27	0x3e008458	0.12550485
28	0xbe02c29a	-0.12769547
29	0xbcd6b20d	-0.026207948
30	0x3d9d7a2f	0.0768932
31	0xbdd5f714	-0.10447517
32	0xbb00d4a3	-0.0019657991
33	0xbca2b5e4	-0.019862123
34	0x3da0ce4c	0.07851848
35	0xbd0ed68a	-0.03487257
36	0x3dbd9631	0.09257162
37	0x3dd4d0f1	0.10391415
38	0xbd77a7c4	-0.06046273
39	0xbe09e0d6	-0.13464674
40	0xbd431b31	-0.047633354
41	0xbd05f162	-0.032700904
42	0xbd1b9381	-0.037982468
43	0x3e04d6fd	0.12972637
44	0xbdcc2409	-0.09967811
45	0xbd369b58	-0.04458174
46	0xbd5fad5c	-0.054608688
47	0x3df40c30	0.11916387
48	0x3d0b12b8	0.0339534
49	0xbdaa8eef	-0.08328044
50	0x3c71f8b2	0.014768766
51	0xbd56a164	-0.052400008
52	0x3ccaa764	0.024738021
53	0xbdc1cde5	-0.094630994
54	0x3d6b283a	0.05741141
55	0x3c683dce	0.014174892
56	0xbc82db74	-0.015973784
57	0x3d95e503	0.07319071
58	0x3df91fdb	0.12164279
59	0x3bb8a646	0.0056350557
60	0x3de07ff0	0.10961902
61	0x3d6425e6	0.055700205
62	0x3d24210b	0.040070575
63	0xbb01c8d0	-0.0019803531
64	0x3c7b414e	0.015335394
65	0xbcfa3dae	-0.03054699
66	0xbdaa9d63	-0.083308004
67	0x3de9a730	0.114088416
68	0xbd45784d	-0.04821043
69	0xbdc9887c	-0.098404855
70	0x3db6dd2a	0.089289024
71	0x3c90b934	0.017666437
72	0xbae8fc0f	-0.0017775315
73	0xbdf2bbed	-0.1185225
74	0x3d4d608b	0.0501409
75	0x3d8bdcb3	0.068292044
76	0xbdc65585	-0.0968428
77	0xbd9bc8bd	-0.07606647
78	0xbe68affe	-0.22723386
79	0xbcdef0b7	-0.027214391
80	0xbd63d88b	-0.055626433
81	0xbdf28567	-0.11841851
82	0xbd7eaad7	-0.062174644
83	0x3dc94aec	0.09828743
84	0x3c709df2	0.014686095
85	0xbd853ea1	-0.06506086
86	0x3e2e0a7f	0.16996191
87	0x3de83247	0.11337715
88	0x3d767ed5	0.06017955
89	0xbd963d0d	-0.07335863
90	0xbe00bac3	-0.12571244
91	0x3c0f2b8a	0.008738408
92	0xbd87c807	-0.06629949
93	0xbe5e72f8	-0.21723545
94	0xbe57f4e6	-0.21089515
95	0xbdd1f3ad	-0.102515556
96	0xbd3a6ba6	-0.045512818
97	0xbd2baf0a	-0.041914977
98	0x3e0306f1	0.12795617
99	0x3d8ce18a	0.06878956
100	0x3d10951a	0.035298444
101	0x3dfca1d6	0.12335555
102	0x3def2445	0.1167684
103	0xbbe76e3b	-0.007062701
104	0x3d92d5db	0.07169696
105	0xbe1d1e18	-0.15343511
106	0x3d8ae91b	0.067827426
107	0xbe2baef7	-0.16765963
108	0xbe0d2d89	-0.13786902
109	0xbe522bb1	-0.2052448
110	0x3cf46c53	0.02983681
111	0x3e0624bb	0.13099949
112	0x3d588037	0.05285665
113	0xbd9692e7	-0.07352238
114	0xbd0f367d	-0.034964073
115	0xbc027515	-0.007962485
116	0xbd9a03ac	-0.075202316
117	0x3d8e4e19	0.0694849
118	0x3e2f6f2f	0.17132257
119	0x3d2f0020	0.04272473
120	0xbe28d765	-0.16488416
121	0xbd903fc1	-0.0704341
122	0xbdbec3c8	-0.09314686
123	0x3e1322bb	0.14368717
124	0xbc3bec60	-0.01146993
125	0x3dae71e2	0.08517815
126	0x3e2ddbf3	0.16978435
127	0xbd6bdc63	-0.057583224
128	0xbdca0ade	-0.09865354
129	0xbdd87730	-0.10569608
130	0x3ddab9df	0.10679983
131	0xbcf00687	-0.029299987
132	0xbdcddae6	-0.10051517
133	0x3df5aad4	0.119954735
134	0x3dad58b3	0.08464184
135	0x3dad8724	0.08473042
136	0xbc703e08	-0.014663227
137	0xbde56608	-0.112011015
138	0x3d8b0828	0.06788665
139	0x3dda3eea	0.10656531
140	0xbd416574	-0.047215894
141	0x3e169664	0.14705807
142	0x3d755653	0.05989678
143	0x3c2407d7	0.010011635
144	0xbcf165de	-0.02946752
145	0x3dcf756f	0.101298206
146	0x3de97987	0.114001326
147	0xbd7a1549	-0.061055455
148	0xbdb56009	-0.08856208
149	0xbda92592	-0.08259119
150	0xbe1bf5d4	-0.15230495
151	0xbde61c6b	-0.11235889
152	0xbdda1be6	-0.106498525
153	0x3c1b7896	0.009489199
154	0xbdf464bb	-0.11933275
155	0x3e034cec	0.12822312
156	0xbde176d7	-0.11008995
157	0xbd7210cd	-0.059098054
158	0x3de0ddf7	0.109798364
159	0xbcb3bac2	-0.021939639
160	0x3d3a4e65	0.04548492
161	0x3c4a041a	0.012330079
162	0xbd05c746	-0.032660745
163	0x3c9d95c3	0.019236451
164	0xbd8d421a	-0.068973735
165	0x3d8b695d	0.06807206
166	0x3d8d8e71	0.06911934
167	0xbdecf28b	-0.11569699
168	0xbda0b95b	-0.07847854
169	0x3e41ea36	0.18937
170	0x3ba74afd	0.005105375
171	0x3d354621	0.044256333
172	0x3d3de36a	0.046359457
173	0x3da02f31	0.07821501
174	0x3b68276d	0.003542389
175	0x3deebd68	0.1165722
176	0xbaeea148	-0.0018206025
177	0x3bd63b05	0.0065377974
178	0xbb82ad65	-0.0039879554
179	0xbd73b526	-0.05949893
180	0xbcceae27	-0.025229527
181	0xb9882491	-0.00025967186
182	0xbe10b9ad	-0.1413333
183	0xbdcc7d7d	-0.099848725
184	0xbd8e440e	-0.06946574
185	0xbcd6ea7f	-0.026234863
186	0x3d2f268c	0.04276137
187	0xbdacc329	-0.08435661
188	0x3db697b8	0.08915657
189	0xbd553bde	-0.052059047
190	0xbdaab1a2	-0.08334662
191	0xbdefd2a3	-0.11710098
192	0x3d5b5475	0.05354734
193	0xbc49c14b	-0.012314151
194	0x3ddd4934	0.10804978
195	0xbd908f82	-0.07058622
196	0x3de70dc2	0.11281921
197	0xbd8e74cf	-0.06955873
198	0x3d497129	0.049180184
199	0xbdfbc2be	-0.122930035
200	0xbdd71692	-0.10502352
201	0x3d0d8884	0.03455402
202	0xbd526864	-0.051369086
203	0x3db11b84	0.08647826
204	0x3da4118b	0.080111586
205	0x3e26587c	0.16244692
206	0xbdb329cf	-0.08748209
207	0x3d7910ab	0.06080691
208	0xbd918af4	-0.07106581
209	0x3d9a77c2	0.07542373
210	0xbd71d8a4	-0.059044495
211	0xbcdb2136	-0.026749235
212	0xbdf804c0	-0.12110281
213	0xbdf3eab2	-0.11909999
214	0x3e2eaa8b	0.17057244
215	0x3b971ddb	0.0046117133
216	0x3cdc8f82	0.026923899
217	0x3d73b507	0.059498813
218	0x3b39c28a	0.0028344714
219	0xbc93b043	-0.018028384
220	0x3d1c3e16	0.038145147
221	0xbdde7f26	-0.108640954
222	0xbbc97b28	-0.0061487146
223	0xbcfeddf7	-0.0311117
224	0x3d41fbf4	0.04735942
225	0x3dbc43f2	0.09192647
226	0xbd9417a8	-0.072310746
227	0x3e0708f3	0.13187008
228	0xbcb60cd6	-0.022222918
229	0x3d67c7db	0.05658708
230	0xbc99f014	-0.018791236
231	0x3e147819	0.14498939
232	0xbccf9753	-0.025340712
233	0xbe0d16ea	-0.13778272
234	0x3c6e1eb4	0.014533687
235	0xbcccaf18	-0.024985835
236	0x3c85d454	0.016336598
237	0x3bd40303	0.0064700856
238	0xbc8b2535	-0.016985515
239	0x3d34c548	0.044133455
240	0x3ddcd66f	0.107830875
241	0x3e019cac	0.12657422
242	0x3de477fd	0.111556984
243	0xbdbc5d2f	-0.09197461
244	0xbcac1599	-0.021006392
245	0x3d61ff37	0.055175032
246	0x3cd7a8f2	0.026325677
247	0x3d1e80c6	0.038697027
248	0xbcbb7bd2	-0.02288619
249	0xbdb57bd3	-0.08861508
250	0x3c9ca2b3	0.01912055
251	0x3e100e10	0.14067864
252	0x3d463c99	0.048397634
253	0xbd8b684f	-0.06807005
254	0x3d092e10	0.033491194
255	0xbdefd550	-0.11710608

actor.pi_net.fcs.1.bias f4 [64]
0	0x3d0dd964	0.034631148
1	0x3db7fdd7	0.08983963
2	0xbdb77679	-0.08958144
3	0x3c542f86	0.012950784
4	0xbc8f12f2	-0.017465089
5	0xbd4ed936	-0.050500117
6	0xbb1827e0	-0.0023217127
7	0x3df9ad24	0.12191227
8	0x3df40ea5	0.11916856
9	0x3c8be6c2	0.017077807
10	0xbda5ec75	-0.08101741
11	0x3d77748c	0.060413882
12	0x3dc6501c	0.096832484
13	0xbddafc5b	-0.10692664
14	0xbca0473d	-0.019565219
15	0xbe075f73	-0.13220005
16	0xbd04602d	-0.032318283
17	0xbdd365c7	-0.10322147
18	0xbd925976	-0.071459696
19	0xbbff665f	-0.007794186
20	0x3dcbd6cd	0.099530794
21	0x3dc1d656	0.094647095
22	0xbd1ffa0e	-0.03905683
23	0xbcb2f322	-0.02184445
24	0xbd26c42d	-0.04071443
25	0x3d1983a7	0.03747907
26	0xbcb9f842	-0.022701386
27	0xbd40c2a6	-0.04706063
28	0xbddea844	-0.10871938
29	0x3d1168b0	0.03550023
30	0x3c98d613	0.018656766
31	0xbdb1e60c	-0.08686456
32	0xbd9a02b5	-0.075200476
33	0x3dd72305	0.10504726
34	0xbd936942	-0.07197811
35	0xbd87fb87	-0.06639772
36	0xbd94faa6	-0.0727437
37	0x3cf91b83	0.030408626
38	0xbd8d2dea	-0.06893523
39	0xbd9f7634	-0.07786217
40	0xbd6660c3	-0.056244623
41	0xbd36743b	-0.04454444
42	0x3d8701b8	0.06592125
43	0x3d8cd2d9	0.068761535
44	0xbd355574	-0.044270948
45	0x3d968bf5	0.073509134
46	0xbb5c7653	-0.0033639863
47	0x3d874185	0.06604294
48	0xbd690959	-0.05689368
49	0x3dd93219	0.106052585
50	0x3c75cd44	0.015002552
51	0xbd8f9bbb	-0.07012125
52	0xbd210287	-0.03930905
53	0xbd18784c	-0.0372241
54	0xbda350f6	-0.079744264
55	0x3bd33eec	0.00644671
56	0x3ac33d30	0.0014895555
57	0xbdb343ed	-0.0875319
58	0x3d794199	0.060853574
59	0xbc904b1e	-0.017613944
60	0x3d84a793	0.06477275
61	0x3d80e051	0.06292785
62	0x3cdeaecb	0.027182957
63	0xbdb928d5	-0.09040991

actor.pi_net.fcs.2.weight f4 [1, 64]
0	0xbc1fc485	-0.009751444
1	0x3d8bc711	0.06825078
2	0xbd3565d3	-0.04428656
3	0x3e0aeca5	0.13566835
4	0xbe0b1a05	-0.13584144
5	0xbdf01a02	-0.117237106
6	0xbd0017eb	-0.03127281
7	0x3d8273aa	0.063697174
8	0x3daa49b3	0.08314838
9	0x3df6144a	0.120155886
10	0xbdde3645	-0.10850195
11	0xbcb4ff16	-0.02209429
12	0xbdbcc2c3	-0.09216835
13	0xbe47bbba	-0.19505206
14	0x3de79fca	0.11309774
15	0xbd0a719e	-0.03379976
16	0xbd261686	-0.040548824
17	0xbdfd5797	-0.12370222
18	0x3d96300c	0.07333383
19	0xbde56196	-0.11200254
20	0x3d580652	0.052740403
21	0xbd81d249	-0.06338937
22	0x3dd9d690	0.10636628
23	0xbdbb42d4	-0.09143606
24	0xbe1dbe80	-0.15404701
25	0x3d602261	0.054720286
26	0x3c0bfcff	0.008544206
27	0x3e13e339	0.14442147
28	0x3d6f3588	0.05840066
29	0x3dd7ef95	0.105437435
30	0x3d0ea96a	0.034829535
31	0x3d36d388	0.044635326
32	0xbda4514d	-0.080233194
33	0xbdee6a08	-0.116413176
34	0xbd147caa	-0.0362517
35	0x3de5964d	0.11210308
36	0xbd00cc65	-0.031444926
37	0xbd7863df	-0.06064212
38	0xbdd6cf1a	-0.1048872
39	0x3c826bd5	0.015920559
40	0xbda22e48	-0.07918984
41	0x3deb77ba	0.114974454
42	0xbe08bf07	-0.13354121
43	0x3e05236b	0.13001792
44	0x3dbe68a2	0.09297301
45	0x3d33ad4e	0.043866448
46	0xbce84a50	-0.028355747
47	0x3e2815ba	0.16414538
48	0x3de368a8	0.11103946
49	0x3d943f86	0.07238679
50	0xbdf461b5	-0.11932699
51	0x3d9b683f	0.07588243
52	0x3dc3440c	0.09534463
53	0x3dfb8b3f	0.122824185
54	0xbda5bedd	-0.08093045
55	0x3dcffe20	0.10155892
56	0xbddeb397	-0.10874098
57	0xbd765bd1	-0.060146157
58	0xbcbe617d	-0.023239845
59	0x3d6a4219	0.057191942
60	0x3dffda51	0.124928124
61	0x3d8797c5	0.066207446
62	0x3d674538	0.056462497
63	0x3ce50564	0.027956672

critic.v_net.fcs.0.weight f4 [64, 4]
0	0x3e2338af	0.15939592
1	0x3e0b910f	0.13629554
2	0xbfaa27b3	-1.3293365
3	0xbedadddd	-0.42747393
4	0x3ea293d1	0.317534
5	0xbe42165a	-0.18953839
6	0xbf84b914	-1.0368981
7	0xbf293acb	-0.66105336
8	0xbf07f829	-0.5311304
9	0xbdf53790	-0.11973488
10	0x3e2c1a69	0.1680695
11	0x3d10d4fc	0.035359368
12	0x3d33ff70	0.043944776
13	0xbe3b123a	-0.18268672
14	0xbfd4f4fe	-1.6637266
15	0xbf4c8336	-0.7988771
16	0xbebe1162	-0.37122637
17	0xbe385b74	-0.18003637
18	0xbf9bf35d	-1.2183644
19	0xbf47e3dd	-0.78082067
20	0x3e392e04	0.1808396
21	0xbf0b1c71	-0.54340273
22	0xbf875a5a	-1.0574448
23	0xbeba7ae4	-0.36421883
24	0xbbf7fd6d	-0.0075680525
25	0x3f0e4d7a	0.5558697
26	0x3f9bad39	1.2162238
27	0x3f4a5ec5	0.79050857
28	0xbee5bdd9	-0.44871405
29	0x3e0489d7	0.12943207
30	0x3fcfbddb	1.6229814
31	0x3f857abb	1.0428079
32	0x3ea4a751	0.32158902
33	0xbdb00337	-0.08594363
34	0x3fa4d041	1.2876054
35	0x3f3c9f1d	0.7368029
36	0xbe84bcfc	-0.25925434
37	0xbf02542c	-0.50909686
38	0xbf73b438	-0.95196867
39	0xbf28fcf0	-0.6601095
40	0xbe53a334	-0.20667726
41	0x3ef1d7f1	0.47235063
42	0x3fc63fc6	1.5488212
43	0x3ef9ac3f	0.48764226
44	0x3e355825	0.17709406
45	0xbddf5837	-0.109054975
46	0x3f8e4507	1.1114815
47	0x3f6d4110	0.926774
48	0x3ea7b39a	0.32754213
49	0xbd313b95	-0.043269712
50	0x3fbc022a	1.468816
51	0x3f6fe730	0.9371214
52	0xbc7a8e7e	-0.015292762
53	0x3d11f38f	0.035632666
54	0x3fdecaba	1.7405617
55	0x3f6c562d	0.92318994
56	0xbeace6b8	-0.33769774
57	0x3e7940f3	0.24341182
58	0xbfa11e6b	-1.2587408
59	0xbf6a3407	-0.9148564
60	0x3e701e2e	0.23449013
61	0xbed69109	-0.41907528
62	0xbf451e38	-0.76999235
63	0xbf30fb57	-0.69133514
64	0xbe463fa0	-0.19360209
65	0x3e90e006	0.28295916
66	0xbf6882e8	-0.9082475
67	0xbe4e9719	-0.20174827
68	0xbf09e962	-0.5387174
69	0xbd9f2656	-0.07770984
70	0x3fb241a6	1.3926284
71	0x3e7972f3	0.24360256
72	0xbe26efd0	-0.16302419
73	0xbdf52135	-0.11969224
74	0xbef5c975	-0.48005262
75	0xbf467f67	-0.7753815
76	0x3e3fd71f	0.18734406
77	0x3e258a7a	0.16166106
78	0x3ec9f99c	0.3944825
79	0x3f338dae	0.7013806
80	0xbe1c0d9e	-0.1523957
81	0xbe0e7be9	-0.13914455
82	0x3f632f71	0.88744265
83	0x3f6d4074	0.9267647
84	0x3e4b132c	0.19831532
85	0xbd94ee2e	-0.07271992
86	0xbfaf07d2	-1.3674262
87	0xbf6e0637	-0.92978233
88	0xbe4ca129	-0.19983353
89	0xbe5c1121	-0.21490909
90	0x3fa15a99	1.2605773
91	0x3f07dff3	0.53076094
92	0xbea9a9b9	-0.331373
93	0x3dd5ecf4	0.10445586
94	0x3fc7db79	1.5613853
95	0x3f1c3e88	0.61032915
96	0x3e53fde4	0.2070232
97	0x3f127916	0.5721601
98	0x3f3079e6	0.68936
99	0x3ea8822a	0.32911807
100	0x3d7a3541	0.061085943
101	0x3ecc59de	0.39912313
102	0x3f6e6de7	0.9313645
103	0x3ea85b42	0.32882124
104	0xbf03f1cc	-0.5154083
105	0xbf172b94	-0.5905087
106	0xbfad44ab	-1.3536581
107	0xbf94e179	-1.1631309
108	0xbe78c48f	-0.24293731
109	0xbeb42369	-0.35183266
110	0xbf2ab164	-0.66676927
111	0xbf5abdce	-0.8544587
112	0x3ec627c1	0.38702205
113	0x3d668bc3	0.05628563
114	0x3f796554	0.9742024
115	0x3ecad169	0.39612892
116	0x3e0f157c	0.1397304
117	0x3de50c2f	0.111839645
118	0x3fabe142	1.3428118
119	0x3f8e1ea9	1.1103107
120	0x3ebe1184	0.37122738
121	0xbf1b0532	-0.605548
122	0xbf5b148f	-0.85578245
123	0xbf237c60	-0.63861656
124	0xbe716cf4	-0.23576719
125	0xbe4d1eee	-0.2003133
126	0xbee8f642	-0.4550038
127	0xbf212a1d	-0.62954885
128	0x3ebc4c12	0.36776787
129	0x3e88c598	0.26713252
130	0x3fb766a6	1.4328201
131	0x3f65e2e7	0.8979935
132	0xbede71c2	-0.43446165
133	0xbe921019	-0.28527907
134	0xbfb3c718	-1.4045134
135	0xbf12e357	-0.57378143
136	0xbdf73071	-0.12069786
137	0x3df5d7ab	0.12004026
138	0x3fd85eda	1.6903946
139	0x3f7c978c	0.9866874
140	0xbee9b830	-0.45648336
141	0xbdd1df80	-0.10247707
142	0xbfbeeb53	-1.4915565
143	0xbf91bf39	-1.1386482
144	0x3e953426	0.2914135
145	0x3f1aec7d	0.605171
146	0x3fbb70a5	1.4643751
147	0x3f5d4e62	0.8644773
148	0xbe3bbfbc	-0.1833486
149	0xbeca1ccb	-0.39475092
150	0x3f85d67d	1.0456082
151	0x3eb6d92b	0.3571256
152	0x3e5f1350	0.21784711
153	0xbe892896	-0.26788777
154	0xbfecca6e	-1.8499277
155	0xbf89b220	-1.0757484
156	0xbd74de7b	-0.059782486
157	0x3e810115	0.25196138
158	0x3fc40ef6	1.5317066
159	0x3f7d0167	0.98830265
160	0xbe3ef7f4	-0.18649274
161	0xbd9de907	-0.07710462
162	0xbf3e180d	-0.7425545
163	0xbeebeeea	-0.46080714
164	0xbebf0c91	-0.37314275
165	0xbe9d5bb4	-0.30734026
166	0xbfa406f6	-1.2814624
167	0xbf2fd172	-0.68678963
168	0xbd2482b0	-0.040163696
169	0x3f0efc1a	0.55853426
170	0x3f34c2e6	0.7060989
171	0x3f45b872	0.77234566
172	0xbd2c5778	-0.042075604
173	0x3e628df6	0.22124466
174	0x3f968a7e	1.1761014
175	0x3f2f2326	0.6841301
176	0xbed9bc1c	-0.4252633
177	0xbea2c3b7	-0.31789944
178	0x3f7df811	0.99206644
179	0x3f8534bc	1.0406718
180	0xbea1169b	-0.3146256
181	0xbf07c598	-0.5303588
182	0xbf610ef2	-0.8791343
183	0xbf8471d6	-1.034724
184	0x3ebf79a2	0.37397486
185	0xbedbd2ec	-0.42934358
186	0xbf6a2ce4	-0.9147475
187	0xbf44025d	-0.76566106
188	0xbea08929	-0.31354645
189	0xbd86c15b	-0.065798484
190	0x3ecbc1a9	0.39796188
191	0x3e6bbe49	0.23021807
192	0x3e26361b	0.16231577
193	0x3e452b6b	0.19254844
194	0x3f839859	1.0280868
195	0x3eb507c2	0.3535748
196	0xbe53b985	-0.20676239
197	0xbe237fdc	-0.15966743
198	0xbfd83ec8	-1.6894159
199	0xbf3297d0	-0.697629
200	0x3e1411f0	0.14459968
201	0xbe48d95a	-0.19614163
202	0x3d67fc42	0.056637056
203	0xbeab9854	-0.33514655
204	0x3e771a6a	0.2413117
205	0x3dc29630	0.09501302
206	0xbf9512f2	-1.1646407
207	0xbf358282	-0.70902264
208	0xbd80f0a4	-0.062958986
209	0xbe802fbc	-0.25036418
210	0xbfb5831d	-1.4180638
211	0xbf825a41	-1.0183793
212	0x3ed17f50	0.40917444
213	0x3dd159bc	0.102221936
214	0x3fca320d	1.5796524
215	0x3f1c9ba7	0.61175007
216	0xbedd9da8	-0.43284345
217	0x3f0f606c	0.56006503
218	0x3fa4cd71	1.2875196
219	0x3f8cc0a7	1.0996293
220	0x3ee6cecd	0.4507965
221	0x3e7df770	0.24801421
222	0x3f4d2987	0.8014149
223	0x3f8c2824	1.094975
224	0x3b6d7ecd	0.003623891
225	0x3ebeb601	0.37248233
226	0x3f48372e	0.782092
227	0x3f346b4e	0.70476234
228	0x3e8acaef	0.2710795
229	0x3e50606f	0.20349286
230	0x3fd230af	1.6421107
231	0x3f877f48	1.0585718
232	0xbebd5e30	-0.36985922
233	0xbf73a10f	-0.9516763
234	0xbf532202	-0.82473767
235	0xbf308583	-0.6895372
236	0x3f00b1ad	0.5027111
237	0xbebe3f3e	-0.37157625
238	0xbfb11144	-1.3833394
239	0xbf53f805	-0.8280032
240	0xbe93d7a6	-0.28875464
241	0xbdbdd520	-0.09269166
242	0x3f650b9d	0.89470845
243	0x3eaa3acf	0.33247992
244	0xbee751e7	-0.45179674
245	0xbe8a8f38	-0.27062392
246	0xbf7bdbcf	-0.98382276
247	0xbee9457f	-0.45560834
248	0x3f145a3c	0.57950187
249	0x3d03d47b	0.03218506
250	0xbedb73b7	-0.4286172
251	0xbf17f01c	-0.5935075
252	0x3ead4736	0.33843392
253	0x3ecae16d	0.3962511
254	0x3f85ce5e	1.0453603
255	0x3f7f19a4	0.996485

critic.v_net.fcs.0.bias f4 [64]
0	0xbeaaa51b	-0.3332909
1	0x3ec9a551	0.3938394
2	0x3eb69747	0.3566229
3	0xbe3fdc55	-0.18736394
4	0x3df319c8	0.11870152
5	0x3f12a621	0.5728474
6	0x3e6c2cc0	0.23063946
7	0x3e12f458	0.14351022
8	0x3ef325a2	0.4748965
9	0x3e01b24c	0.12665671
10	0x3e5c65b4	0.21523172
11	0xbe81aece	-0.25328678
12	0x3e8adcf6	0.27121705
13	0x3e75e7aa	0.24014154
14	0x3eb837a7	0.3597996
15	0x3e017607	0.1264268
16	0x3f1123ae	0.5669507
17	0x3e430be9	0.19047512
18	0x3f009215	0.50222903
19	0x3ee973b6	0.45596093
20	0x3e00da7e	0.12583348
21	0xbedbf3bf	-0.429594
22	0x3ecf87ae	0.40533203
23	0xbe44a1bb	-0.1920232
24	0xbe779fb6	-0.24182019
25	0x3ea6b1d8	0.3255756
26	0x3eaeac63	0.34115896
27	0xbee0c428	-0.43899655
28	0xbec619d3	-0.38691577
29	0xbed03beb	-0.40670714
30	0x3e1f3a48	0.15549576
31	0xbefb9d58	-0.4914348
32	0xbed60e06	-0.41807574
33	0x3e870126	0.26368064
34	0xbe945849	-0.28973606
35	0x3ef84bad	0.48495236
36	0xbeb8d393	-0.36098918
37	0x3e083239	0.13300408
38	0xbe3d5e37	-0.18492971
39	0xbeb69857	-0.356631
40	0xbedfe942	-0.4373265
41	0xbefca11c	-0.49341667
42	0x3f036033	0.51318663
43	0x3eb00aac	0.34383142
44	0x3e5f65eb	0.21816222
45	0xbdf3f2a9	-0.11911518
46	0x3e1cfecc	0.15331572
47	0xbe99d433	-0.30044708
48	0xbea224dd	-0.3166875
49	0xbde9d787	-0.11418062
50	0x3ee165f9	0.4402311
51	0xbe25da9a	-0.16196671
52	0x3ef64f1f	0.4810724
53	0xbe00bf21	-0.1257291
54	0xbeb51b89	-0.3537257
55	0xbde20309	-0.11035735
56	0xbeb51ac8	-0.35371995
57	0x3d6ef1df	0.058336135
58	0x3e21462d	0.15749426
59	0xbe800106	-0.2500078
60	0x3eedb5d7	0.46427795
61	0x3e8c5119	0.27405623
62	0xbeffd915	-0.49970308
63	0x3db1df7c	0.086852044

critic.v_net.fcs.1.weight f4 [64, 64]
0	0x3ea51e39	0.3224962
1	0x3e9fd876	0.31219834
2	0xbd5dbcc4	-0.0541351
3	0x3f2c5b12	0.6732646
4	0x3eec64e7	0.46170732
5	0x3e2a59d4	0.16635829
6	0xbf1e52fc	-0.61845374
7	0xbf653371	-0.8953162
8	0xbe6718ac	-0.22568005
9	0x3f043c02	0.51654065
10	0xbf0d21b0	-0.5512953
11	0xbe9647d8	-0.29351687
12	0xbf1d225a	-0.6138054
13	0xbefa0053	-0.48828372
14	0x3e5d71ea	0.21625486
15	0x3f1408c6	0.5782589
16	0x3e2040d3	0.15649728
17	0xbec611c7	-0.38685438
18	0x3e67ffeb	0.22656219
19	0xbe693c70	-0.22776961
20	0xbf0c0d34	-0.54707646
21	0x3ef2b242	0.47401625
22	0xbe9ef87b	-0.3104895
23	0xbedc4af7	-0.43025944
24	0xbde7e174	-0.11322299
25	0xbe843792	-0.25823647
26	0x3e432231	0.19056012
27	0x3e97dbe7	0.2965996
28	0xbdba49b3	-0.09096088
29	0xbe9eb848	-0.3099997
30	0x3ed57d2e	0.41697067
31	0x3d7a793f	0.061150786
32	0xbe283e95	-0.16430123
33	0x3e97c392	0.29641396
34	0xbe687ffe	-0.22705075
35	0x3e328200	0.17432404
36	0xbe9ed49d	-0.31021586
37	0xbe9c2c68	-0.3050263
38	0x3f2357e5	0.6380599
39	0xbeae0db3	-0.33994827
40	0x3dbf3517	0.09336298
41	0x3ecd1607	0.40055868
42	0xbec0f706	-0.37688464
43	0xbec77c73	-0.38962135
44	0xbef41957	-0.47675583
45	0x3f43f7d2	0.7655002
46	0x3ecb214a	0.39673835
47	0xbe4ba59d	-0.19887395
48	0xbe138836	-0.14407429
49	0x3f4f69c2	0.8102075
50	0x3d03e59b	0.03220139
51	0x3f0679ba	0.5252949
52	0x3dd75b35	0.10515443
53	0xbf048d8f	-0.517785
54	0xbe8d1c78	-0.27560782
55	0xbf1f1679	-0.62143666
56	0xbdfae8ad	-0.12251411
57	0xbf877079	-1.0581199
58	0x3ef44565	0.47709194
59	0x3f1df03d	0.616947
60	0xbdbb9c47	-0.09160667
61	0x3ea3829c	0.31935585
62	0x3da9c109	0.08288772
63	0xbf67c590	-0.9053583
64	0xbcf2c3ab	-0.029634317
65	0x3e446700	0.19179916
66	0x3e245953	0.160497
67	0x3eb1a71c	0.34697807
68	0x3f15195f	0.5824184
69	0x3dd45086	0.10366921
70	0xbe5016ce	-0.203212
71	0xbef970c6	-0.48718852
72	0xbe232028	-0.15930235
73	0x3f050d2b	0.5197322
74	0xbe0f0189	-0.1396543
75	0xbe8acaeb	-0.2710794
76	0xbea664cf	-0.32498786
77	0xbe9b6834	-0.30352938
78	0x3ec27406	0.37979144
79	0x3f205b0c	0.62638927
80	0x3e19ec31	0.15031506
81	0xbe244285	-0.16041
82	0x3e49f0e6	0.19720802
83	0xbd4f6c8c	-0.050640628
84	0xbea83a5e	-0.3285703
85	0x3e4d2469	0.2003342
86	0xbe2ebe87	-0.17064868
87	0xbeb8ea22	-0.3611613
88	0xbe0e4f5f	-0.13897465
89	0x3d2e6700	0.042578697
90	0x3e5a1c17	0.21299778
91	0x3d80ecae	0.06295143
92	0xbe035ce2	-0.128284
93	0xbeb35cb8	-0.35031676
94	0x3f019550	0.5061846
95	0x3dd437ac	0.10362181
96	0xbe74e47b	-0.23915283
97	0x3ecfc224	0.40577805
98	0xbe81c11e	-0.2534265
99	0x3ea69619	0.3253639
100	0xbec426f4	-0.3831097
101	0xbe271c7d	-0.16319461
102	0x3e907db6	0.2822091
103	0xbe7b3385	-0.24531372
104	0xbdb9200b	-0.09039315
105	0x3e1a18bf	0.15048502
106	0x3cbd995c	0.023144417
107	0xbd368ebd	-0.04456972
108	0xbec14191	-0.37745336
109	0x3ef93084	0.48669827
110	0x3ebd1000	0.3692627
111	0xbe114474	-0.14186269
112	0xbe956de3	-0.291854
113	0x3ebd2e40	0.36949348
114	0xb9f43678	-0.0004657989
115	0x3eb4956b	0.35270247
116	0x3ea38778	0.31939292
117	0xbf349f16	-0.70555246
118	0xbec57918	-0.3856895
119	0xbf04d604	-0.5188906
120	0xbdf95a90	-0.121754766
121	0xbf1fde7b	-0.62448853
122	0x3eb96256	0.36207837
123	0x3e3e94f3	0.18611507
124	0x3d86ecd1	0.06588138
125	0x3deb898b	0.115008436
126	0x3cd55117	0.026039643
127	0xbf052cbb	-0.5202138
128	0x3d1e8e50	0.03870994
129	0xbea3b4d9	-0.31973913
130	0xbca368ab	-0.01994737
131	0xbe1b9a72	-0.15195635
132	0xbebffa86	-0.37495822
133	0xbe653087	-0.22381793
134	0xbb939f69	-0.004505087
135	0x3e323ed6	0.17406783
136	0xbe0d36ad	-0.13790388
137	0xbeee0f57	-0.46496078
138	0x3dc5d68c	0.09660062
139	0x3ebba373	0.3664814
140	0x3d9988d1	0.07496799
141	0xbd38ff42	-0.045165308
142	0xbe8bb82c	-0.2728895
143	0xbef59c11	-0.47970632
144	0xbe5a6ec7	-0.2133132
145	0xbcaa7ba0	-0.020810902
146	0xbe9d88e0	-0.3076849
147	0x3ccb2942	0.024799947
148	0x3e09262d	0.13393469
149	0xbd7316a0	-0.05934775
150	0xbc8dbd37	-0.017302139
151	0x3e818d07	0.25302908
152	0x3e99459c	0.2993592
153	0x3d0928aa	0.033486046
154	0xbe463faa	-0.19360223
155	0x3db7556b	0.08951839
156	0x3e8a3a0b	0.26997408
157	0x3e3e378d	0.18575878
158	0xbf0fbeb1	-0.56150347
159	0x3d5d9e04	0.054105774
160	0x3e43d626	0.1912466
161	0xbea90642	-0.33012587
162	0x3e4890a1	0.19586422
163	0xbea8dd6b	-0.32981429
164	0x3eb82833	0.3596817
165	0xbe09f4ec	-0.13472337
166	0xbe522f28	-0.20525801
167	0x3ea3c1b9	0.31983736
168	0xbd5c4bff	-0.053783413
169	0x3e06577e	0.13119313
170	0xbce1d7da	-0.027568746
171	0x3c32d375	0.010914673
172	0x3dab7bcb	0.08373221
173	0xbe027311	-0.12739207
174	0xbebb7ff8	-0.3662107
175	0x3dfb36eb	0.12266334
176	0x3eb208b4	0.34772265
177	0xbe75925d	-0.23981614
178	0xbe7c9bf6	-0.2466887
179	0x3d1f4e4a	0.03889302
180	0xbe79c70e	-0.2439234
181	0x3ee27bc2	0.44235045
182	0x3e9148e3	0.2837592
183	0x3ed64b58	0.41854358
184	0x3e7fbfbb	0.24975483
185	0x3e1355d1	0.14388205
186	0xbeb00c78	-0.34384513
187	0xbb5fb68f	-0.0034135913
188	0x3cd89870	0.026439875
189	0xbe707046	-0.23480329
190	0x3d00171e	0.031272046
191	0x3e49797d	0.1967525
192	0xbe8c060f	-0.27348372
193	0xbe2d1aa3	-0.16904692
194	0x3d805361	0.06265903
195	0xbf0337b3	-0.51256865
196	0xbf028f62	-0.51000035
197	0xbe169b4f	-0.14707683
198	0x3ecfc96e	0.40583366
199	0x3f3a085d	0.7266901
200	0x3e423692	0.1896613
201	0xbf1b0899	-0.60559994
202	0x3eb2ac24	0.34896958
203	0x3ea5d606	0.3238985
204	0x3f0134ce	0.504712
205	0x3ee252af	0.44203708
206	0xbe5e11d9	-0.21686496
207	0xbf14d308	-0.5813451
208	0x3c45484b	0.012041162
209	0x3e9079a0	0.28217793
210	0xbdc338c3	-0.09532311
211	0x3e712e37	0.23552786
212	0x3f102d79	0.56319386
213	0xbe8946c5	-0.26811805
214	0x3e7abf89	0.24487127
215	0x3ee64a1a	0.4497841
216	0x3e9493eb	0.29019102
217	0x3e585e2b	0.21129672
218	0xbe95e150	-0.29273462
219	0xbdf52d40	-0.119715214
220	0x3e01d47e	0.12678716
221	0x3d895bb2	0.067069426
222	0xbf08729b	-0.53299874
223	0xbe23ed60	-0.1600852
224	0x3e8a1086	0.2696573
225	0xbea57be1	-0.32321075
226	0x3e0ad80f	0.13558982
227	0xbdb0bb85	-0.086295165
228	0x3e9a9def	0.3019862
229	0x3eb7c5b9	0.35893038
230	0xbf39d7f0	-0.7259512
231	0x3dbb208f	0.091370694
232	0xbe7570a7	-0.23968755
233	0xbeb30b32	-0.3496948
234	0x3dceae00	0.100917816
235	0x3ed95fd6	0.4245593
236	0x3ef426d7	0.47685882
237	0xbf425e16	-0.75924814
238	0xbeeeb8b4	-0.46625292
239	0x3d6b5547	0.057454374
240	0x3d8387c1	0.064223774
241	0xbf73f951	-0.953023
242	0x3ab497c0	0.0013778135
243	0xbf277600	-0.6541443
244	0xbd370b12	-0.04468829
245	0x3f0cd013	0.55004996
246	0x3e5448e8	0.20730937
247	0x3ef139c3	0.4711438
248	0x3e8d9438	0.27652144
249	0x3f8411a0	1.0317879
250	0xbed93b97	-0.42428276
251	0xbf126eca	-0.572003
252	0x3e3c27ca	0.18374553
253	0xbe2aa687	-0.16665088
254	0xbe1442fd	-0.14478679
255	0x3f647ee0	0.89256096

critic.v_net.fcs.1.bias f4 [64]
0	0xbd367352	-0.04454357
1	0x3d5415b9	0.05177853
2	0xbd4e968c	-0.05043654
3	0xbc69383c	-0.014234599
4	0xbe75aaa0	-0.2399087
5	0x3e5a5312	0.21320751
6	0x3bcc92df	0.0062430943
7	0x3de20865	0.110367574
8	0xbe08e1db	-0.13367407
9	0x3ddfdaef	0.1093043
10	0xbe75fa1a	-0.24021187
11	0xbe08d559	-0.13362636
12	0xbe04ed65	-0.12981184
13	0x3d9c6ef8	0.07638353
14	0x3e272b25	0.16325052
15	0xbdc7d686	-0.09757714
16	0x3da5fa8d	0.081044294
17	0xbdd7e740	-0.10542154
18	0xbd05e3e7	-0.032688048
19	0x3cecaa68	0.02888985
20	0xbe533f02	-0.20629504
21	0x3e13e7f3	0.1444395
22	0x3e49b394	0.1969741
23	0x3e574578	0.21022594
24	0x3c39a88d	0.01133169
25	0x3e658734	0.22414857
26	0xbd91f380	-0.07126522
27	0x3dc584af	0.09644448
28	0x3e628b0c	0.22123355
29	0xbd2cb6fd	-0.0421667
30	0x3dba6df1	0.09103001
31	0x3e413265	0.1886688
32	0xbe0b1f82	-0.13586238
33	0x3cfcacdc	0.030844145
34	0x3ced5e8a	0.028975744
35	0xbcb0ac5a	-0.021566559
36	0x3db54def	0.08852755
37	0xbe0d1342	-0.13776878
38	0xbcaf05fc	-0.021365158
39	0x3e3a607c	0.18200868
40	0x3d8ba2fc	0.06818196
41	0xbd6e185d	-0.058128703
42	0x3e66f7c5	0.22555454
43	0xbe64a139	-0.22327127
44	0x3d9b5515	0.075845875
45	0xbd813c8a	-0.06310375
46	0xbcadd32b	-0.021218857
47	0xbdb86811	-0.09004224
48	0x3e3b6788	0.18301213
49	0xbe168af9	-0.14701451
50	0xbe708220	-0.23487139
51	0x3c876e67	0.016532136
52	0x39f5d7d8	0.00046890858
53	0xbdcf5186	-0.10122971
54	0x3d04b956	0.032403313
55	0x3dda31d3	0.106540345
56	0xbdd9c8a5	-0.10633973
57	0x3e2832f3	0.16425686
58	0xbdfc0799	-0.12306137
59	0xbe5f088f	-0.21780609
60	0xbb3af01d	-0.0028524466
61	0x3e1d3ece	0.1535599
62	0xbcc00040	-0.02343762
63	0x3d45e815	0.048317034

critic.v_net.fcs.2.weight f4 [1, 64]
0	0xbf1bb116	-0.60817087
1	0x3f35613a	0.7085148
2	0xbf3289fe	-0.6974181
3	0x3f1d4ceb	0.6144549
4	0xbf3eb9a5	-0.7450202
5	0x3f4606ac	0.7735393
6	0xbf1187a5	-0.568476
7	0x3f25761c	0.64633346
8	0xbf34cff7	-0.7062983
9	0x3f2a7f18	0.6660018
10	0xbf2e697d	-0.6812971
11	0xbf2411aa	-0.64089453
12	0xbf268a07	-0.65054363
13	0xbf32ed75	-0.6989358
14	0x3f1efd06	0.62104833
15	0xbf26bd25	-0.6513236
16	0x3f2ca8e2	0.67445195
17	0xbf3e4fa3	-0.74340266
18	0x3f11688f	0.5680017
19	0xbf237c91	-0.6386195
20	0xbf37116a	-0.71510947
21	0x3f3d94a0	0.7405491
22	0x3f29e6c3	0.6636774
23	0x3f3c2c47	0.7350506
24	0xbf2a193d	-0.6644476
25	0x3f2ad59d	0.667322
26	0x3f1e504d	0.6184128
27	0x3f1fb568	0.6238618
28	0x3f212569	0.6294771
29	0xbf4093bc	-0.75225425
30	0x3f15d9af	0.58535284
31	0x3f386af8	0.7203822
32	0xbf21ec66	-0.6325134
33	0xbf2f0231	-0.6836272
34	0x3f24649c	0.6421602
35	0x3f138491	0.57624155
36	0x3f411b66	0.7543243
37	0xbf2aadc4	-0.66671395
38	0xbf38852f	-0.7207822
39	0x3f361154	0.7112019
40	0x3f1ee96d	0.6207493
41	0xbf2bc021	-0.6709004
42	0x3f2aa09f	0.6665134
43	0xbf2e3802	-0.6805421
44	0x3f3ff296	0.7497953
45	0x3f1f5615	0.62240726
46	0xbf2737f0	-0.6531973
47	0xbf2deb96	-0.679376
48	0x3f40bb76	0.7528604
49	0xbf19014a	-0.5976759
50	0xbf384966	-0.71987
51	0xbf21f819	-0.6326919
52	0xbf1baf32	-0.608142
53	0xbf40557c	-0.7513044
54	0x3f1713d5	0.59014636
55	0x3f131d50	0.574666
56	0xbf1a6ecd	-0.6032532
57	0x3f211ca0	0.62934303
58	0xbf15c9e8	-0.5851121
59	0xbf1eab11	-0.61979777
60	0xbf315e7a	-0.69284785
61	0x3f1e9539	0.61946446
62	0x3f1caf1f	0.61204714
63	0x3f4488bd	0.76771146

exp_avg f4 [64, 4]
0	0xb9dd0bbf	-0.00042161156
1	0xba91c0ed	-0.0011120118
2	0xba936a5e	-0.001124691
3	0xbb1ee33c	-0.002424433
4	0x39704f81	0.00022917801
5	0x3a21cee0	0.00061724894
6	0x3a28af74	0.0006434836
7	0x3abcee4d	0.0014414281
8	0xb9f210e0	-0.0004617041
9	0xba9f7528	-0.0012165653
10	0xbaa25aa1	-0.0012386629
11	0xbb2ce50b	-0.0026381637
12	0x383aebd2	4.456548e-05
13	0x38d72f65	0.00010260827
14	0x38cf037b	9.8711775e-05
15	0x395caf67	0.00021046177
16	0xba460afe	-0.00075547385
17	0xbaf3ecd2	-0.0018610007
18	0xbb013dbf	-0.0019720641
19	0xbb8d078c	-0.004303878
20	0x3a4b014e	0.000774403
21	0x3b01e50a	0.0019820356
22	0x3b0be000	0.0021343231
23	0x3b964629	0.0045860005
24	0x3990dbee	0.0002762968
25	0x3a3fdf91	0.0007319386
26	0x3a37d293	0.0007012274
27	0x3ab75695	0.0013987595
28	0x39cf3b1e	0.00039526162
29	0x3a89c58b	0.0010511143
30	0x3a8cbd8e	0.0010737644
31	0x3b183f88	0.0023231227
32	0x39a7dfa4	0.00032019347
33	0x3a5a7a14	0.0008334231
34	0x3a6128c1	0.00085891417
35	0x3af8a2d6	0.0018969427
36	0xba2337ea	-0.00062262884
37	0xbad91eb9	-0.0016564942
38	0xbadeda17	-0.0017002252
39	0xbb6abead	-0.0035819218
40	0xb99a528b	-0.00029434668
41	0xba4d3943	-0.0007828662
42	0xba4bf117	-0.00077797606
43	0xbacf95f0	-0.0015837532
44	0xb6bad71d	-5.5682744e-06
45	0xb7e2a1d7	-2.7016662e-05
46	0xb7bb6a81	-2.2341732e-05
47	0xb79bfdad	-1.8595567e-05
48	0x39c45ac2	0.00037451653
49	0x3a82151f	0.0009924507
50	0x3a7dd3f9	0.00096827705
51	0x3b013cff	0.0019720194
52	0xba2426a6	-0.00062618626
53	0xbadc44b9	-0.0016805149
54	0xbad85da2	-0.0016507397
55	0xbb5b223c	-0.0033437153
56	0x3a328410	0.000680984
57	0x3aecc662	0.0018064494
58	0x3b001f05	0.001954974
59	0x3b88913f	0.0041677053
60	0x391e4ddf	0.00015097063
61	0x39e454a6	0.00043550617
62	0x39e337e6	0.00043338462
63	0x3a56568b	0.0008176348
64	0x383ef829	4.5530647e-05
65	0x3905a591	0.00012745547
66	0x390d62ff	0.00013483687
67	0x39937015	0.00028121533
68	0x3a382ec5	0.0007026012
69	0x3aec83fc	0.0018044706
70	0x3afe3820	0.0019395389
71	0x3b8949f5	0.0041897246
72	0x395f5c39	0.00021301293
73	0x3a12c160	0.0005598273
74	0x3a18e69a	0.0005832702
75	0x3aa98696	0.0012933786
76	0xba3f9e3c	-0.00073096505
77	0xbb005f97	-0.0019588226
78	0xbafe528b	-0.0019403262
79	0xbb81dc26	-0.0039630113
80	0x37cecf7c	2.4653731e-05
81	0x38a43625	7.8302146e-05
82	0x38b06a9d	8.412192e-05
83	0x394f06a1	0.00019743528
84	0x3856f787	5.1252104e-05
85	0x3918baa9	0.00014565386
86	0x3926481a	0.00015857854
87	0x39b272ac	0.00034036243
88	0xba9e1af9	-0.0012062482
89	0xbb4cd31d	-0.0031253763
90	0xbb61c3b0	-0.0034448914
91	0xbbefee05	-0.0073220753
92	0xb99fe1e0	-0.00030495133
93	0xba56a255	-0.00081876415
94	0xba515f18	-0.00079868874
95	0xbacc6b2f	-0.0015595908
96	0x39a6616a	0.00031734566
97	0x3a5aee4c	0.0008351549
98	0x3a52c3b0	0.0008040024
99	0x3ad94741	0.0016577021
100	0xb9d2d275	-0.00040211124
101	0xba8b8faf	-0.001064768
102	0xba8a9ca0	-0.0010575242
103	0xbb08e50b	-0.0020888473
104	0xba1d8388	-0.00060086744
105	0xbacf8cee	-0.0015834847
106	0xbad1f2ae	-0.0016017759
107	0xbb5d68f3	-0.0033784478
108	0x3a569ed6	0.00081871205
109	0x3b07aae9	0.0020701236
110	0x3b0dc8ce	0.0021634581
111	0x3b9d72b0	0.0048049316
112	0x3925ef20	0.00015824707
113	0x39dc1648	0.0004197827
114	0x39e6fdd2	0.0004405813
115	0x3a7f7e6a	0.0009746315
116	0x3a5951c1	0.00082900753
117	0x3b0eb872	0.0021777418
118	0x3b1b0240	0.0023652464
119	0x3ba52094	0.005039284
120	0x3a0d9e7a	0.0005402338
121	0x3abb5430	0.0014292058
122	0x3acb9f48	0.001553514
123	0x3b5849a5	0.003300288
124	0xb7e14c1b	-2.685753e-05
125	0xb86be247	-5.6239103e-05
126	0xb8582cab	-5.1540013e-05
127	0xb8da2588	-0.00010402041
128	0xb86f82d4	-5.7103884e-05
129	0xb91f81ee	-0.00015211824
130	0xb916e383	-0.0001438987
131	0xb99385d2	-0.0002813773
132	0x39936251	0.00028111276
133	0x3a4134b4	0.0007370219
134	0x3a3f4953	0.0007296998
135	0x3ac46a76	0.0014985341
136	0x38d14265	9.9782636e-05
137	0x399301f9	0.00028039495
138	0x398bc873	0.00026661492
139	0x3a145881	0.000565894
140	0xb9fbdfce	-0.00048041198
141	0xbaa93f28	-0.0012912499
142	0xbaa70aeb	-0.0012744343
143	0xbb29d907	-0.0025916712
144	0x3a0a9f77	0.00052880443
145	0x3ab6bcd0	0.0013941769
146	0x3ab96013	0.0014143012
147	0x3b45c7d2	0.0030178917
148	0x394de30f	0.0001963491
149	0x3a095b2d	0.00052397215
150	0x3a0b3b4f	0.0005311267
151	0x3a95a80d	0.0011417881
152	0x3976a804	0.00023522979
153	0x3a2ae89a	0.00065196457
154	0x3a2f8fb4	0.00066971336
155	0x3aa9e676	0.001296236
156	0xba37d310	-0.0007012347
157	0xbaf6dcde	-0.0018834134
158	0xbaf1ba20	-0.001844231
159	0xbb7414c4	-0.0037243823
160	0xb9bff4e4	-0.00036612817
161	0xba819a4f	-0.0009887906
162	0xba806abd	-0.0009797435
163	0xbafd19a6	-0.0019310012
164	0x3a4d63d7	0.00078350067
165	0x3b0a1f93	0.0021075949
166	0x3b17869a	0.0023121
167	0x3b9f0fcf	0.0048541795
168	0x374efae2	1.233697e-05
169	0x37cf4420	2.4708046e-05
170	0x381dadac	3.759346e-05
171	0x38ae0317	8.297542e-05
172	0x3a63180c	0.0008662946
173	0x3b146c50	0.0022647567
174	0x3b1cf1a0	0.002394773
175	0x3ba96faf	0.0051707844
176	0xb940ab13	-0.00018374277
177	0xba018507	-0.0004940782
178	0xba02c6d1	-0.00049887324
179	0xba8d3b58	-0.0010775132
180	0x3a07a6ba	0.00051746855
181	0x3abe3cb4	0.001451394
182	0x3ad6bba8	0.001638283
183	0x3b5f09ef	0.003403302
184	0xb90bb927	-0.00013325048
185	0xb9bd7c8e	-0.0003614169
186	0xb9b56aa6	-0.0003460247
187	0xba2c75ca	-0.0006578831
188	0x399ea133	0.0003025621
189	0x3a59f841	0.0008314886
190	0x3a4ce71d	0.0007816421
191	0x3ac01712	0.0014655313
192	0xb917f3e8	-0.00014491344
193	0xb9ca9fe2	-0.00038647564
194	0xb9b57606	-0.00034610945
195	0xba247063	-0.00062728504
196	0x38903566	6.876401e-05
197	0x394f0f06	0.00019746655
198	0x396cc73e	0.00022580937
199	0x3a008f1d	0.0004904138
200	0x3781d425	1.5476786e-05
201	0x38218731	3.8511298e-05
202	0x3805abcb	3.1869666e-05
203	0x38a3f955	7.8188874e-05
204	0xb8ec80a0	-0.00011277315
205	0xb9a304e6	-0.00031093432
206	0xb9a8913f	-0.00032151674
207	0xba2b17ed	-0.00065266975
208	0x3a127cb3	0.00055880396
209	0x3ac3415b	0.0014896797
210	0x3ac1df40	0.0014791265
211	0x3b43f29d	0.0029899247
212	0xb94c0b5f	-0.00019459192
213	0xba04f346	-0.0005071651
214	0xba0073d8	-0.00049000746
215	0xba6970dc	-0.0008905062
216	0xba3adf23	-0.0007128587
217	0xbaf12d81	-0.0018400402
218	0xbb021b19	-0.0019852577
219	0xbb8c5910	-0.004283078
220	0xb9b2f96d	-0.00034136642
221	0xba68b9ce	-0.0008877785
222	0xba6e8844	-0.00090992847
223	0xbafe5835	-0.001940495
224	0x3760b0bd	1.33925905e-05
225	0x37fff52e	3.051254e-05
226	0x386a0456	5.5793986e-05
227	0x38da0a8d	0.00010397015
228	0x39911569	0.00027672507
229	0x3a42a8c0	0.00074256584
230	0x3a485b41	0.00076429924
231	0x3acc7c5e	0.0015601029
232	0x39fd317d	0.00048292792
233	0x3aa323a6	0.0012446537
234	0x3aaf53c2	0.0013376402
235	0x3b3be175	0.0028668318
236	0xba385e9f	-0.00070331426
237	0xbaf02088	-0.0018320242
238	0xbb0230f9	-0.0019865616
239	0xbb8baeaa	-0.004262765
240	0x3715b244	8.922598e-06
241	0x3810187d	3.4355082e-05
242	0x388a1c90	6.585673e-05
243	0x3939f6af	0.00017734872
244	0xb8f386ab	-0.00011612227
245	0xb9a4cdba	-0.00031433796
246	0xb9b73484	-0.00034943607
247	0xba36dfa4	-0.0006976074
248	0xba19d91a	-0.00058688375
249	0xbac7f634	-0.0015255869
250	0xbad83928	-0.0016496526
251	0xbb66db79	-0.003522603
252	0x394a6116	0.00019300389
253	0x3a0a2027	0.00052690733
254	0x3a0c4694	0.0005351093
255	0x3a8f5103	0.0010934178
