examples/mpsc/models/ppo_model_cartpole_stab.pt (torch, 153194 bytes, 30 tensors)

actor.pi_net.fcs.0.weight f4 [64, 8]
0.18895304 -0.23984951 0.17773823 0.18776517 0.28375536 -0.27107278 -0.23731104 0.16823441
-0.29068485 0.3934126 0.017091895 0.06024083 -0.29087546 0.112669654 0.15203202 0.05609307
0.33747634 0.12401042 -0.444964 0.26986194 0.11295815 -0.16866398 -0.3247634 0.20155074
0.28344882 -0.2784686 0.013471069 0.10262329 -0.16704379 -0.077360116 -0.23607814 -0.16714875
-0.3475057 0.010183912 0.3716803 0.15200461 0.33089828 -0.31050923 -0.04350191 0.3442302
0.08052498 -0.057702288 -0.42887163 0.16557002 0.24927114 0.28350523 0.29598033 0.06921768
0.40461746 -0.00405934 0.4121981 -0.026452927 -0.11771085 -0.17574726 0.18824278 0.14304957
0.2845964 -0.17889759 -0.3493676 0.30899853 -0.20994672 -0.2016378 -0.09459696 -0.11427182
-0.02450515 0.24152921 0.20430748 0.2712624 0.33033282 -0.22910163 0.26989755 -0.17711395
-0.024116643 0.30491802 0.67590076 0.42692658 0.18397982 0.32861555 -0.12738721 -0.022503255
0.025828479 0.08314163 0.060015578 0.20681913 0.23844634 -0.25459844 -0.19523199 -0.10873684
-0.091734424 -0.15264602 -0.35784674 -0.087228164 -0.17375968 0.009733815 -0.26172116 -0.088382274
-0.11076995 0.008430323 0.5040264 0.21425405 -0.13361686 -0.3241458 -0.2528923 -0.27124047
-0.12592974 -0.15610476 -0.3181731 0.05838277 0.0402209 -0.053003665 -0.12816359 0.30133912
-0.33832958 -0.01142244 0.3946976 0.32084513 -0.30894563 -0.05536317 0.2948578 0.05819974
0.083953336 -0.16683617 0.3578618 -0.15249869 -0.18760708 0.32069525 0.09365763 -0.002440682
-0.28515485 -0.12813422 -0.51276565 -0.2855075 -0.014834605 0.06835014 -0.28969264 0.34362
0.22385536 -0.31617826 0.10848799 -0.2803886 -0.29898727 0.33122766 -0.14217152 -0.1172814
0.073992826 0.181908 -0.06070859 -0.064391315 0.05757695 -0.18317896 -0.2571719 0.092057355
0.037445046 0.15096384 -0.33493498 -0.41136461 -0.056929443 -0.3421022 -0.027836222 0.17271146
0.08510134 0.24432226 0.3000309 0.19805074 0.26938325 0.052606724 0.05883582 -0.14345497
0.23776059 0.27661946 -0.38707787 0.31028646 0.10809559 -0.049340386 -0.3235786 -0.35332617
-0.5086124 -0.34045607 -0.37101567 -0.08990624 -0.31307063 -0.29556614 -0.039349057 -0.2974609
0.048334185 0.13872825 0.26540667 0.20759946 0.13698833 -0.198307 -0.11907416 0.008097295
0.28050196 0.11737791 -0.3041328 -0.005454084 0.089005254 0.122794084 -0.13137585 -0.31026572
-0.253763 -0.004409824 -0.37242365 0.10948184 0.24636595 -0.0038611991 0.18548112 0.24766344
0.20253515 -0.34517625 0.45226312 0.08693881 -0.36208856 0.08797771 -0.24345794 0.3272565
0.1937699 -0.18903984 -0.35774225 -0.005985488 -0.13709745 0.15138549 -0.3293595 0.26212317
0.0111801 -0.00816974 -0.49027798 -0.035330456 0.22457193 0.34444162 -0.22898716 -0.14819236
0.09485037 0.1827592 -0.39307517 -0.099119976 -0.25632426 0.3248847 -0.12065121 0.21264513
0.32185206 0.11022836 0.35507762 0.26531976 -0.029045047 0.18606636 -0.047046505 0.005562794
0.0652909 -0.31522834 -0.47213176 -0.38945025 -0.1350962 -0.022235876 0.1411291 -0.28295705
00000000: e87c 413e 1c9b 75be 0301 363e 8345 403e
00000010: 6248 913e 0dca 8abe aa01 73be a445 2c3e
00000020: a5d4 94be 606d c93e 4d04 8c3c 17bf 763d
00000030: a1ed 94be 59bf e63d 48ae 1b3e d9c1 653d
00000040: b3c9 ac3e 2df9 fd3d 52d2 e3be 582b 8a3e
00000050: 9a56 e73d 40b6 2cbe 6347 a6be 5163 4e3e
00000060: 3420 913e 7093 8ebe c2b5 5c3c 292c d23d
00000070: 870d 2bbe fb6e 9ebd 78be 71be 0b29 2bbe
00000080: 44ec b1be 6cda 263c e14c be3e 19a7 1b3e
00000090: 806b a93e 11fb 9ebe 0f2f 32bd f13e b03e
000000a0: 48ea a43d 3c59 6cbd 1095 dbbe 308b 293e
000000b0: ef40 7f3e 9927 913e bc8a 973e 00c2 8d3d
000000c0: 052a cf3e 3604 85bb a10b d33e cfb3 d8bc
000000d0: 6312 f1bd 17f7 33be b7c2 403e 967b 123e
000000e0: 9fb6 913e ee30 37be 4fe0 b2be 0e35 9e3e
000000f0: 46fc 56be 247a 4ebe 0dbc c1bd 5807 eabd
00000100: 06bf c8bc 6f53 773e fb35 513e e8e2 8a3e
00000110: 6221 a93e 9e99 6abe 0330 8a3e 5c5d 35be
00000120: 4490 c5bc 371e 9c3e d507 2d3f 1f96 da3e
00000130: 3565 3c3e 4c40 a83e cb71 02be bf58 b8bc
00000140: 3f96 d33c 2946 aa3d e5d2 753d 65c8 533e
00000150: 472b 743e ba5a 82be e5ea 47be 6cb1 debd
00000160: 42df bbbd 3d4f 1cbe b037 b7be aea4 b2bd
00000170: 0fee 31be 947a 1f3c 5100 86be c401 b5bd
00000180: 5bdb e2bd 561f 0a3c e007 013f 6a65 5b3e
00000190: dcd2 08be 70f6 a5be 197b 81be 08e0 8abe
000001a0: baf3 00be edd9 1fbe 96e7 a2be c522 6f3d
000001b0: acbe 243d 5f1a 59bd 513d 03be 1f49 9a3e
000001c0: 8939 adbe 3025 3bbc ce15 ca3e d045 a43e
000001d0: 1f2e 9ebe 7ec4 62bd 9af7 963e da62 6e3d
000001e0: baef ab3d 1ad7 2abe a939 b73e 9e28 1cbe
000001f0: 121c 40be 2b32 a43e 92cf bf3d d9f3 1fbb
00000200: d1ff 91be 9e35 03be 9c44 03bf 0a2e 92be
00000210: d80c 73bc 28fb 8b3d 9852 94be f6ee af3e
00000220: 573a 653e 1ee2 a1be f42e de3d 188f 8fbe
00000230: dc14 99be ac96 a93e 6995 11be 3b31 f0bd
00000240: 8d89 973d 1746 3a3e 92a9 78bd 98df 83bd
00000250: cfd5 6b3d 4493 3bbe 09ac 83be 9188 bc3d
00000260: fa5f 193d 4496 1a3e 997c abbe 629e d2be
00000270: d92e 69bd 0528 afbe ca08 e4bc 46db 303e
00000280: 9d49 ae3d 9d2f 7a3e a69d 993e d0cd 4a3e
00000290: 9aec 893e 267a 573d d4fd 703d dce5 12be
000002a0: 8377 733e 11a1 8d3e 122f c6be dedd 9e3e
000002b0: 3861 dd3d 2519 4abd 18ac a5be 2be7 b4be
000002c0: 6c34 02bf 4250 aebe c4f5 bdbe c320 b8bd
000002d0: cb4a a0be 7254 97be 7a2c 21bd cc4c 98be
000002e0: 11fa 453d c70e 0e3e 62e3 873e f494 543e
000002f0: ab46 0c3e fd10 4bbe 27dd f3bd 84aa 043c
00000300: f49d 8f3e d463 f03d 4bb7 9bbe 2cb8 b2bb
00000310: 6348 b63d 777b fb3d 6487 06be 26db 9ebe
00000320: 39ed 81be 4980 90bb 50ae bebe 0438 e03d
00000330: 5b47 7c3e 2c0c 7dbb c3ee 3d3e 7c9b 7d3e
00000340: 6065 4f3e f1ba b0be 088f e73e fa0c b23d
00000350: ac63 b9be a82d b43d 0a4d 79be 2a8e a73e
00000360: 9e6b 463e a993 41be fe29 b7be ea21 c4bb
00000370: 4663 0cbe cc04 1b3e cfa1 a8be 0235 863e
00000380: bd2c 373c 60da 05bc b705 fbbe abb6 10bd
00000390: 2ff6 653e a75a b03e 9c7b 6abe bdbf 17be
000003a0: e940 c23d 3a25 3b3e 2641 c9be 6aff cabd
000003b0: ef3c 83be 4a57 a63e fb17 f7bd a5bf 593e
000003c0: cbc9 a43e 68bf e13d bccc b53e fed7 873e
000003d0: e1ef edbc 2e88 3e3e d6b3 40bd 1948 b63b
000003e0: 3cb7 853d 9c65 a1be 41bb f1be 0666 c7be
000003f0: a956 0abe 0328 b6bc 2684 103e bfdf 90be

actor.pi_net.fcs.0.bias f4 [64]
0.1801045 0.0902907 0.25372708 -0.24634852 -0.011608771 -0.14439175 0.07020594 -0.23130767
-0.19586714 0.0029977649 -0.17581314 0.16783498 0.19828075 -0.15556619 -0.10116451 -0.027610268
-0.127155 0.0014130637 -0.25827247 0.27745473 0.21629952 0.11850642 0.30911446 -0.00392929
-0.17167187 -0.1672033 -0.04396623 0.28619748 0.0403038 0.15877238 -0.12421299 0.15113528
0.3340011 -0.2996144 -0.289124 -0.08604577 -0.13973726 -0.21915762 0.07824493 -0.20834997
0.28817487 -0.03003993 -0.021919487 0.21409063 -0.121329114 -0.20631635 0.034123335 0.21080396
-0.19659133 -0.23468389 -0.24916637 -0.22853458 0.29582608 -0.05280347 0.13215795 -0.07733481
0.22882026 0.14826335 0.18225469 0.0749263 0.106740445 0.20091723 -0.24139892 0.35160476
00000000: 506d 383e 55ea b83d 84e8 813e c942 7cbe
00000010: b732 3ebc 6edb 13be 22c8 8f3d ebdb 6cbe
00000020: 6591 48be 2676 443b 5c08 34be efdc 2b3e
00000030: 1c0a 4b3e be4c 1fbe 572f cfbd ee2e e2bc
00000040: ec34 02be 8d36 b93a 4a3c 84be 8c0e 8e3e
00000050: 9f7d 5d3e 7eb3 f23d 4044 9e3e 46c1 80bb
00000060: c0ca 2fbe 5837 2bbe ef15 34bd 7a88 923e
00000070: 9915 253d 3a95 223e 6163 febd 35c3 1a3e
00000080: 3102 ab3e 0f67 99be 1008 94be c438 b0bd
00000090: 4917 0fbe db6a 60be e13e a03d b259 55be
000000a0: a88b 933e 4d16 f6bc 7f90 b3bc 933a 5b3e
000000b0: 667b f8bd 9844 53be e9c4 0b3d fedc 573e
000000c0: 3d4f 49be f950 70be 7825 7fbe f804 6abe
000000d0: 8476 973e 7448 58bd 6a54 073e b661 9ebd
000000e0: dc4f 6a3e 59d2 173e f9a0 3a3e f672 993d
000000f0: bc9a da3d 3fbd 4d3e 4731 77be 8a05 b43e

actor.pi_net.fcs.1.weight f4 [64, 64]
0.00312087 -0.0023651782 -0.14804697 0.068662845 0.0007727421 0.09745873 -0.045139335 -0.1070021
-0.07948349 0.1397854 -0.10417613 -0.11702453 0.11419241 0.07098418 0.058528047 0.16137454
-0.14347413 0.07964795 0.00050828996 -0.06969045 0.053455885 -0.15239555 0.08319381 -0.08535867
0.08639493 -0.043500334 -0.066309035 -0.06722065 0.017016185 0.011283616 0.09997894 0.030312188
-0.06490365 -0.0873546 -0.039972425 -0.10553854 -0.07408282 -0.02732729 -0.14542091 -0.03695989
-0.10447051 0.0024317615 0.07296525 0.0088981595 -0.1035363 -0.07902805 0.04046438 -0.031284623
0.10589847 0.03766714 0.09540145 0.0932019 -0.066515766 0.009046698 0.14523593 -0.15521057
0.032150403 -0.13815981 0.0037087435 -0.034333356 0.031972516 -0.116762005 0.070100754 -0.14862037
-0.055410706 -0.01815503 -0.008510273 -0.055499576 -0.10088315 0.06819756 -0.19723822 0.07870129
-0.09023358 -0.2559172 -0.04411717 0.06614632 -0.14236654 -0.04382584 -0.15619396 -0.004675388
0.16111714 0.065761976 0.120537445 0.110749334 -0.08679737 0.046130013 0.10743049 -0.024936195
-0.0521177 0.16953114 -0.08112762 -0.0054011904 0.12473188 -0.060244486 -0.14993937 0.0648291
-0.08212951 -0.0773688 0.11165202 0.08698278 0.14310817 0.05657411 0.09839465 0.005121974
-0.04038724 -0.12800208 0.08083925 -0.032789126 0.015656376 0.111260556 -0.08483558 -0.040874224
0.059916902 -0.00025940235 -0.034197994 -0.061875183 0.04913711 -0.07765322 -0.02833694 -0.080729656
0.05610511 -0.03238808 -0.053045172 -0.07641789 -0.05852516 0.0034738672 -0.08160121 0.028944174
-0.082443215 0.0805479 -0.06340051 -0.0073045804 0.0365117 0.0598109 0.04872068 0.03844449
0.028558195 -0.23624337 0.020993607 -0.06320499 -0.12866682 -0.04940711 -0.13905287 -0.037694957
0.104589485 -0.12232612 -0.03379506 -0.032446966 0.0454365 -0.025073223 0.075295486 -0.051685404
0.17864908 0.13696238 0.042848527 0.027273457 -0.088351764 0.08569877 0.13263932 0.006879418
-0.016553743 -0.048214536 -0.04965831 -0.107511595 -0.030445635 -0.11851366 0.025315516 0.007928506
0.099567525 0.052640166 -0.14983147 -0.025058862 -0.02136845 0.14338046 -0.060117964 0.016243879
0.06841034 0.14768924 -0.09426342 -0.06783524 -0.056917638 0.047690455 -0.13035093 0.13291804
0.052374374 -0.049241673 0.044126566 -0.032617133 0.049041655 0.09808746 0.100307286 0.11677227
-0.0863349 0.110622086 -0.029972062 0.111376315 0.04982907 0.10506966 -0.082252145 -0.09945031
-0.014826178 -0.09567495 -0.032684516 -0.052788693 0.110560685 -0.09644433 -0.016613815 0.009459495
-0.112608105 -0.11745162 0.009801611 -0.06813627 -0.031513594 -0.0366546 0.017284293 0.0424371
0.108458385 -0.104361 0.11426683 -0.11381583 -0.09560393 -0.031631805 0.057876334 -0.010488663
-0.09877329 0.002790552 0.066389814 0.13233575 -0.060343053 0.081817076 -0.08174764 0.057677492
-0.08485215 -0.06666872 0.12865071 0.045779113 -0.0056392904 -0.02279277 0.0056242542 0.0344351
0.11911651 -0.00047756868 -0.011398621 -0.053977735 -0.010728706 -0.051004317 0.045631114 -0.051617727
0.110530086 -0.014093948 -0.097972974 0.061007828 -0.042191636 -0.10294959 0.063624375 -0.05555006
00000000: 8387 4c3b 1b01 1bbb a099 17be 1b9f 8c3d
00000010: d891 4a3a 7198 c73d 06e4 38bd eb23 dbbd
00000020: 3dc8 a2bd e723 0f3e 4b5a d5bd 8faa efbd
00000030: b6dd e93d 2760 913d 1bbb 6f3d 5e3f 253e
00000040: e2ea 12be 771e a33d c33e 053a deb9 8ebd
00000050: 8ff4 5a3d 940d 1cbe 8461 aa3d 87d0 aebd
00000060: d3ef b03d 682d 32bd 08cd 87bd fbaa 89bd
00000070: 8765 8b3c eade 383c c2c1 cc3d 4451 f83c
00000080: 34ec 84bd f8e6 b2bd 20ba 23bd 9724 d8bd
00000090: bcb8 97bd 7bdd dfbc 38e9 14be 4163 17bd
000000a0: a2f4 d5bd 305e 1f3b ce6e 953d 96c9 113c
000000b0: d70a d4bd 75d9 a1bd fabd 253d 4e24 00bd
000000c0: 4ce1 d83d dc48 1a3d d661 c33d a3e0 be3d
000000d0: 6b39 88bd 9a38 143c bab8 143e 85ef 1ebe
000000e0: 24b0 033d c479 0dbe 640e 733b 22a1 0cbd
000000f0: 9df5 023d eb20 efbd fc90 8f3d f02f 18be
00000100: 56f6 62bd dcb9 94bc ac6e 0bbc 8653 63bd
00000110: d39b cebd 2aab 8b3d d1f8 49be 242e a13d
00000120: 62cc b8bd 9407 83be 35b4 34bd b977 873d
00000130: 89c8 11be b982 33bd 4ff1 1fbe ff33 99bb
00000140: e4fb 243e 37ae 863d 56dc f63d 8cd0 e23d
00000150: d2c2 b1bd d3f2 3c3d 8404 dc3d fe46 ccbc
00000160: 5f79 55bd 9299 2d3e 3d26 a6bd 78fc b0bb
00000170: 6e73 ff3d ecc2 76bd b589 19be 1fc5 843d
00000180: 8433 a8bd 8973 9ebd d0a9 e43d 0724 b23d
00000190: f38a 123e 41ba 673d 2283 c93d 3bd6 a73b
000001a0: 176d 25bd fa12 03be 0c8f a53d e44d 06bd
000001b0: cd41 803c 93dc e33d 47be adbd bb6b 27bd
000001c0: 6d6b 753d 6500 88b9 3213 0cbd d570 7dbd
000001d0: ff43 493d a708 9fbd df22 e8bc 9755 a5bd
000001e0: 79ce 653d 5da9 04bd e545 59bd fc80 9cbd
000001f0: 14b8 6fbd d2a9 633b 891e a7bd 551c ed3c
00000200: fdd7 a8bd 4cf6 a43d 20d8 81bd 435b efbb
00000210: 4b8d 153d 46fc 743d 568f 473d f877 1d3d
00000220: e0f2 e93c c8e9 71be c9fa ab3c 9e71 81bd
00000230: 3cc1 03be 1c5f 4abd e063 0ebe 0766 1abd
00000240: 0333 d63d 1e86 fabd b06c 0abd 1ce7 04bd
00000250: a01b 3a3d 5c66 cdbc 8534 9a3d 13b4 53bd
00000260: c9ef 363e de3f 0c3e f081 2f3d 966c df3c
00000270: c5f1 b4bd d682 af3d 9ad2 073e be6c e13b
00000280: b79b 87bc 9b7c 45bd 8366 4bbd 0a2f dcbd
00000290: 2069 f9bc 4ab7 f2bd 7c62 cf3c 90e6 013c
000002a0: 0fea cb3d 379d 573d 6c6d 19be 3e48 cdbc
000002b0: e30c afbc 54d2 123e 413e 76bd e211 853c
000002c0: b81a 8c3d d93b 173e 2e0d c1bd 34ed 8abd
000002d0: 7822 69bd 1157 433d b77a 05be ab1b 083e
000002e0: 8386 563d a3b1 49bd 0fbe 343d 8b99 05bd
000002f0: e7df 483d 14e2 c83d e86d cd3d 4d26 ef3d
00000300: 5ad0 b0bd d58d e23d f887 f5bc 4419 e43d
00000310: 9119 4c3d c32e d73d d073 a8bd 9bac cbbd
00000320: 7fe9 72bc 3af1 c3bd 33e0 05bd f538 58bd
00000330: a46d e23d 9b84 c5bd b219 88bc fffb 1a3c
00000340: 149f e6bd 7a8a f0bd f096 203c 078b 8bbd
00000350: 6614 01bd 2223 16bd ca97 8d3c 86d2 2d3d
00000360: 6e1f de3d 38bb d5bd ba04 ea3d 4618 e9bd
00000370: fecb c3bd 5a90 01bd bc0f 6d3d a4d8 2bbc
00000380: a749 cabd b2e1 363b 62f7 873d 0683 073e
00000390: 472a 77bd b68f a73d 4f6b a7bd 3c3f 6c3d
000003a0: f7c6 adbd 9c89 88bd 03bd 033e e182 3b3d
000003b0: ccc9 b8bb e7b7 babc aa4b b83b d20b 0d3d
000003c0: 5bf3 f33d 2f62 fab9 48c1 3abc c217 5dbd
000003d0: 74c7 2fbc e7e9 50bd b1e7 3a3d 1c6d 53bd
000003e0: 995d e23d 4dea 66bc 0ea6 c8bd 58e3 793d
000003f0: 23d1 2cbd 3cd7 d2bd 7f4d 823d 7688 63bd

actor.pi_net.fcs.1.bias f4 [64]
-0.07539181 0.015189534 -0.113026865 0.075755544 -0.06056813 -0.08649124 -0.02978586 0.10074595
0.016318295 -0.12776864 0.05569862 0.046305176 -0.027763775 -0.118074 -0.0582388 0.09140006
0.10204923 0.0116172265 -0.11492037 0.021057602 0.111076415 -0.1176715 0.05063794 0.0665025
0.11312938 -0.024195775 -0.041341897 -0.11146779 -0.005713563 -0.03765928 -0.042657346 -0.0015022773
-0.09259911 -0.076725475 -0.059616398 0.106554665 -0.052428946 -0.038496017 0.017455403 0.047272004
-0.108148485 0.069568 0.08250203 0.026224947 0.06865332 0.02986973 -0.061208703 0.07907066
-0.11636031 -0.053221695 0.094487354 0.13201712 -0.024491623 0.10329688 -0.10083382 -0.10277611
0.06068243 0.014290209 -0.07278819 0.031714644 0.017163377 0.046313286 0.008614757 -0.07721699
00000000: 0567 9abd 86dd 783c a17a e7bd b925 9b3d
00000010: 4a16 78bd 5222 b1bd 7a01 f4bc e553 ce3d
00000020: f2ad 853c c8d5 02be 3c24 643d 7faa 3d3d
00000030: db70 e3bc c8d0 f1bd cf8b 6ebd f42f bb3d
00000040: 30ff d03d 2e56 3e3c 5f5b ebbd fe80 ac3c
00000050: 087c e33d c1fd f0bd bb69 4f3d 7632 883d
00000060: 60b0 e73d 3836 c6bc 1f56 29bd 3a49 e4bd
00000070: d738 bbbb 9e40 1abd 78b9 2ebd 10e8 c4ba
00000080: 9aa4 bdbd 3f22 9dbd 5330 74bd 5539 da3d
00000090: bcbf 56bd 00ae 1dbd a2fe 8e3c 4aa0 413d
000000a0: f47c ddbd ab79 8e3d d3f6 a83d b3d5 d63c
000000b0: 1d9a 8c3d 5db1 f43c fab5 7abd ccef a13d
000000c0: 504e eebd fefe 59bd 9682 c13d 7f2f 073e
000000d0: a8a2 c8bc 518d d33d f681 cebd 487c d2bd
000000e0: 248e 783d 7b21 6a3c f911 95bd 37e7 013d
000000f0: 369a 8c3c 00b3 3d3d e924 0d3c f123 9ebd

actor.pi_net.fcs.2.weight f4 [1, 64]
0.07996693 -0.118252076 -0.014684065 -0.0009680423 0.1626527 0.020803867 0.0012781051 0.0048678042
-0.09418644 -0.09196932 0.11952563 -0.03109835 -0.05660988 -0.028224401 -0.07038676 0.12311638
0.014589494 0.16277291 0.09411341 -0.00017028842 0.10788582 -0.04791663 -0.05057893 -0.061609298
0.09563434 -0.094044454 0.08283951 0.11035569 0.015103642 -0.22083634 -0.07939422 0.09340649
-0.12238622 -0.12772939 -0.13257442 -0.15234503 -0.02389749 0.10190488 0.09988668 0.1253862
-0.1101787 0.002235726 0.050969876 0.0059695076 -0.08028262 0.10543333 -0.100316375 -0.10641447
0.042968802 0.08935857 -0.02265285 0.17089371 0.055175778 -0.03250697 -0.076930396 -0.07123721
0.088103496 0.049628973 -0.011064175 0.047569644 0.08423967 -0.025817929 0.10989213 0.14819953
00000000: b4c5 a33d 252e f2bd 6f95 70bc 38c4 7dba
00000010: 6e8e 263e df6c aa3c 1786 a73a 1a82 9f3b
00000020: d2e4 c0bd 695a bcbd dac9 f43d f8c1 febc
00000030: c3df 67bd dc36 e7bc ef26 90bd 7124 fc3d
00000040: c608 6f3c f1ad 263e 88be c03d 738f 32b9
00000050: 3ef3 dc3d 3a44 44bd da2b 4fbd 085a 7cbd
00000060: f0db c33d 619a c0bd c3a7 a93d 2a02 e23d
00000070: 4475 773c ec22 62be 7099 a2bd e74b bf3d
00000080: a0a5 fabd 7ecb 02be 97c1 07be 5600 1cbe
00000090: abc4 c3bc 81b3 d03d 6391 cc3d 3d65 003e
000000a0: 5fa5 e1bd 4285 123b cac5 503d dc9b c33b
000000b0: 376b a4bd 6eed d73d ac72 cdbd d4ef d9bd
000000c0: 0e00 303d a001 b73d 7892 b9bc c3fe 2e3e
000000d0: ffff 613d 0726 05bd af8d 9dbd d0e4 91bd
000000e0: 9b6f b43d c047 4b3d 8346 35bc 63d8 423d
000000f0: d985 ac3d 1f80 d3bc 200f e13d 9ec1 173e

critic.v_net.fcs.0.weight f4 [64, 8]
0.4351572 0.3579296 1.0744953 -0.10693119 0.625637 0.12932082 0.2997578 -0.19870861
-0.47860083 -0.54431635 -0.76488954 -0.35222024 0.25478166 -0.16634868 -0.28735852 0.2710822
-0.4422446 -0.07706544 0.9251883 0.67655987 -0.9352906 0.19035737 -0.08591492 0.05333376
-0.48773327 0.20141311 -0.8555938 0.101800255 0.067612916 0.22515824 0.061603013 -0.23968457
-0.15579116 -0.097203605 0.6347379 0.6220849 -0.72994024 0.16784805 -0.29580227 0.28640115
-0.5474493 0.62965167 0.99227214 0.53423357 -0.49027315 0.31184006 0.19958821 0.03904037
0.4993399 0.4535172 1.4547558 0.31477463 0.41293857 0.007720291 -0.31684673 -0.060784984
-0.468797 -0.09482571 -1.4494784 -0.4210925 0.19963385 -0.14997417 -0.0072603 0.25549892
0.50036854 0.014388393 2.030083 0.5310932 -0.35267818 -0.09408732 0.34506038 0.24162363
-0.40958273 -0.16557315 -0.51452684 -0.05926222 -0.11048974 -0.079084136 -0.23917848 0.17657481
-0.03382221 -0.46230868 0.4987303 0.15959056 -0.67548144 0.11884075 -0.33261773 -0.04101217
-0.57131743 0.04683203 -1.3885757 -0.23656383 -0.07030032 0.14778678 -0.13913862 -0.24030304
-0.3086217 -0.3517224 -1.5094086 -0.4486217 0.15697093 0.2731583 -0.16965526 0.07366308
0.6139042 0.30766314 0.62721485 0.23046285 0.24708539 -0.31566313 0.034063376 -0.066342175
0.16093116 -0.0041251522 1.4033203 0.14812729 0.10680402 -0.19009194 0.2765613 -0.012540626
0.10161062 0.07746291 0.9300866 0.09413678 0.106817305 -0.0033013204 0.068666406 0.33960083
0.45180205 0.196058 1.5218086 0.49259755 0.2600825 0.07249983 0.13280717 -0.0043741264
0.003308197 0.10147241 1.0439672 0.23662046 -0.00011600347 -0.23303503 -0.09045784 -0.10253405
0.5630518 -0.018828131 1.0060512 0.12213001 0.09405977 0.29964817 0.32322964 -0.038598463
0.2196348 0.041788522 -1.4838496 -0.6292426 -0.5695529 0.19668122 -0.2819134 0.015968302
-0.25756523 -0.40471908 -1.5555634 -0.16054991 -0.6566805 0.14058405 -0.18121661 0.3435116
0.49443054 0.06389959 0.48969397 -0.3165483 0.453371 0.27420422 -0.007765093 0.03930088
-0.71482503 -0.36437762 1.1124107 0.39046305 0.98450434 -0.12122454 0.15415694 -0.012206317
0.30215862 0.24737488 0.8958499 -0.17674917 0.6521757 -0.319971 -0.18333153 0.12684605
0.93130225 -0.024083314 -0.14808334 0.21024726 0.20706585 -0.31193805 0.056858417 -0.0254658
-0.5823646 0.08867 -0.99862206 -0.20601954 -0.21099727 -0.3209698 0.29282638 0.12818003
-0.03818932 0.3655735 0.33981013 0.1279848 0.15483505 0.18770209 -0.28859535 0.039064903
-0.09680314 -0.020971917 1.0279486 0.019872349 0.003922515 0.2938928 0.037796367 0.1881032
-0.3486725 -0.24574506 -1.4375278 -0.48102948 -0.26334238 -0.17379144 -0.33053565 0.003524193
0.48081836 0.1701639 1.8803408 0.5225311 0.011501527 0.35182816 -0.1705867 -0.32132584
0.22796041 0.15900098 1.2923336 0.32252508 0.06185106 0.11914914 0.25381747 -0.0007831306
-0.42106575 -0.18054532 -1.5291402 -0.5832515 0.03876685 -0.26145494 0.1013214 0.0608026
00000000: edcc de3e 8c42 b73e 1089 893f bdfe dabd
00000010: bf29 203f ad6c 043e db79 993e 457a 4bbe
00000020: 2b0b f5be 5158 0bbf cdcf 43bf 3656 b4be
00000030: be72 823e 4f57 2abe a820 93be 49cb 8a3e
00000040: e26d e2be 7cd4 9dbd 24d9 6c3f 0733 2d3f
00000050: 346f 6fbf 0bed 423e 29f4 afbd 8074 5a3d
00000060: 2db8 f9be 3d3f 4e3e 3208 5bbf a77c d03d
00000070: a478 8a3d e28f 663e 7153 7c3d df6f 75be
00000080: b887 1fbe af12 c7bd 2f7e 223f f540 1f3f
00000090: 5ddd 3abf 5ce0 2b3e 6573 97be 2ca3 923e
000000a0: a325 0cbf da30 213f 8c05 7e3f 88c3 083f
000000b0: 1505 fbbe 80a9 9f3e da60 4c3e cce8 1f3d
000000c0: 7ba9 ff3e 6833 e83e 7035 ba3f 242a a13e
000000d0: af6c d33e 7ffa fc3b bc39 a2be adf9 78bd
000000e0: 2906 f0be fb33 c2bd 8288 b9bf 7099 d7be
000000f0: d16c 4c3e d492 19be d0e7 edbb c1d0 823e
00000100: 2718 003f 4bbd 6b3c e1ec 0140 b9f5 073f
00000110: 3c92 b4be dab0 c0bd c1ab b03e 2f6c 773e
00000120: d4b4 d1be 028c 29be 08b8 03bf f1bc 72bd
00000130: 7248 e2bd ddf6 a1bd 34eb 74be 07d0 343e
00000140: 2889 0abd b9b3 ecbe 9459 ff3e b56b 233e
00000150: 5aec 2cbf c762 f33d df4c aabe 61fc 27bd
00000160: dc41 12bf f1d2 3f3d d9bc b1bf ca3d 72be
00000170: 9df9 8fbd 6b55 173e 5b7a 0ebe 0012 76be
00000180: aa03 9ebe f514 b4be 4d34 c1bf beb1 e5be
00000190: fdbc 203e 68db 8b3e 1cba 2dbe abdc 963d
000001a0: d328 1d3f 0686 9d3e 2791 203f 74fe 6b3e
000001b0: f403 7d3e 999e a1be 0a86 0b3d 68de 87bd
000001c0: 23cb 243e 492c 87bb 00a0 b33f aeae 173e
000001d0: 11bc da3d 76a7 42be 7199 8d3e 3377 4dbc
000001e0: 3b19 d03d e0a4 9e3d 281a 6e3f c9ca c03d
000001f0: 08c3 da3d f75a 58bb f9a0 8c3d 29e0 ad3e
00000200: 9952 e73e 6ec3 483e a0ca c23f bf35 fc3e
00000210: 8929 853e ca7a 943d 9afe 073e d554 8fbb
00000220: 56ce 583b c4d0 cf3d b8a0 853f a24c 723e
00000230: e446 f3b8 bca0 6ebe f641 b9bd 5ffd d1bd
00000240: 2a24 103f 743d 9abc 49c6 803f 4c1f fa3d
00000250: 69a2 c03d 7c6b 993e 5b7e a53e 6c19 1ebd
00000260: f2e7 603e 712a 2b3d c9ee bdbf 0b16 21bf
00000270: 38ce 11bf cd66 493e f456 90be f5cf 823c
00000280: 97df 83be 5737 cfbe b41c c7bf 3267 24be
00000290: 371c 28bf 44f5 0f3e d990 39be c1e0 af3e
000002a0: 0026 fd3e cadd 823d 2bb9 fa3e 9e12 a2be
000002b0: 3e20 e83e 7f64 8c3e 5272 febb f6f9 203d
000002c0: c6fe 36bf b48f babe 7963 8e3f c6ea c73e
000002d0: 7a08 7c3f 9244 f8bd 51db 1d3e 01fd 47bc
000002e0: 89b4 9a3e d74f 7d3e 6b56 653f bcfd 34be
000002f0: fdf4 263f 3dd3 a3be 43bb 3bbe eee3 013e
00000300: d369 6e3f 5f4a c5bc 29a3 17be 0f4b 573e
00000310: 1209 543e 58b6 9fbe 5fe4 683d a79d d0bc
00000320: d915 15bf 9e98 b53d b2a5 7fbf c9f6 52be
00000330: ab0f 58be 2756 a4be 57ed 953e a041 033e
00000340: 686c 1cbd 732c bb3e 98fb ad3e 730e 033e
00000350: 148d 1e3e fa34 403e c5c2 93be 8502 203d
00000360: ba40 c6bd 4ccd abbc d293 833f 56cb a23c
00000370: 7188 803b 1e79 963e 5dd0 1a3d 209e 403e
00000380: 3485 b2be 98a4 7bbe e900 b8bf 7f49 f6be
00000390: d0d4 86be 62f6 31be f83b a9be 26f6 663b
000003a0: d32d f63e 723f 2e3e 02af f03f 99c4 053f
000003b0: e770 3c3c d222 b43e 48ae 2ebe d284 a4be
000003c0: 746e 693e 27d1 223e 306b a53f 0222 a53e
000003d0: 8957 7d3d 7704 f43d 5df4 813e 014b 4dba
000003e0: ee95 d7be dfe0 38be deba c3bf f84f 15bf
000003f0: fdc9 1e3d 6cdd 85be 9881 cf3d 260c 793d

critic.v_net.fcs.0.bias f4 [64]
0.7335536 0.4187746 -0.7879013 0.063755654 -0.6571194 -0.32243627 0.5499196 -0.25403014
-0.27505648 -0.49538702 -0.6553888 0.0402923 0.09855335 0.50987387 0.15894735 -0.016980914
-0.32545838 0.14769934 -0.3687191 -0.63442045 -0.35973287 0.3690405 0.61783206 0.46898794
0.23579682 0.12744795 -0.34156892 0.15714408 0.15830304 0.2769614 0.032529123 -0.36709583
-0.24207225 -0.03760294 -0.050235085 -0.14599589 0.15645495 0.2560977 -0.39533967 -0.21027863
0.666218 0.5814017 0.3734836 -0.18081187 0.76254207 0.08910634 -0.5643021 -0.112707265
-0.5609631 0.31204295 0.39147827 0.27408102 0.67665917 -0.39350975 0.504367 0.09777257
0.6044467 -0.41308004 0.09459041 0.21825963 -0.13905504 -0.28416193 -0.10204442 0.81765664
00000000: 2bca 3b3f a069 d63e e6b3 49bf 5392 823d
00000010: fa38 28bf 5e16 a5be 88c7 0c3f 3d10 82be
00000020: 34d4 8cbe 5ea3 fdbe 8fc7 27bf 8a09 253d
00000030: 57d6 c93d 1887 023f 18c3 223e 8f1b 8bbc
00000040: 7ba2 a6be 7f3e 173e c0c8 bcbe 6169 22bf
00000050: e82e b8be e0f2 bc3e 3e2a 1e3f 301f f03e
00000060: b974 713e b781 023e 1fe2 aebe 61ea 203e
00000070: 311a 223e e2cd 8d3e 423d 053d fcf3 bbbe
00000080: cae1 77be 8a05 1abd 4ec3 4dbd f27f 15be
00000090: ba35 203e 3d1f 833e f669 cabe 4853 57be
000000a0: 438d 2a3f bed6 143f 3e39 bf3e bf26 39be
000000b0: f535 433f 637d b63d 1a76 10bf 11d3 e6bd
000000c0: 479b 0fbf 18c4 9f3e d76f c83e 5954 8c3e
000000d0: 8939 2d3f 1c7a c9be 321e 013f fc3c c83d
000000e0: 05bd 1a3f 3a7f d3be 9eb8 c13d 747f 5f3e
000000f0: 7264 0ebe ac7d 91be aafc d0bd f251 513f

critic.v_net.fcs.1.weight f4 [64, 64]
-0.42294115 -0.16191131 0.675736 0.13918592 0.51638335 0.2789722 -0.44057903 0.4114514
-0.003145644 0.3265192 0.2545532 0.59821784 -0.098365605 -0.31681982 -0.45842913 -0.34157932
-0.19063014 -0.16051279 -0.10390741 0.47186127 0.5273286 -0.32223174 -0.34242284 -0.64304686
-0.51747763 0.32260317 0.33565614 0.06673432 0.26255998 -0.25929248 -0.36813638 0.3706021
0.10892584 -0.61313945 0.27279827 -0.4651909 0.24757883 -0.4401632 0.23971775 0.08379143
-0.3377974 -0.46288323 -0.19350515 0.23853534 -0.24064416 -0.0022375067 0.27996346 0.039476413
0.65184844 -0.26427865 -0.3866629 -0.38254064 -0.31712377 0.15813455 -0.41272247 -0.39396796
-0.11026166 0.27892515 0.5320546 0.09125599 -0.5561451 0.06633753 0.23542412 -0.609029
-0.059448052 0.059318114 0.42387468 0.0787148 0.13353121 0.34481454 -0.16787681 -0.19204529
0.065679096 0.17616762 0.22024637 0.12261741 -0.110669 -0.37494278 0.31308073 0.04571043
-0.28877565 0.7596256 -0.35721827 -0.19222996 0.010382913 -0.39281428 0.28861278 -0.41129756
-0.75827885 -0.002898152 -0.07284383 0.9632936 -0.053273723 0.36874554 -0.07703341 -0.20640843
0.011383869 -0.06795877 0.43024746 0.14102606 0.07496153 0.3718294 0.10588884 0.59023196
-0.5073663 0.1891661 -0.27210864 0.63106006 -0.07160297 0.33578968 -0.23153211 -0.38948354
0.28584626 0.053928733 -0.14065816 0.6948166 0.27391177 -0.027287913 0.5227923 -0.05806628
-0.2580322 -0.19469489 -0.3454165 0.09969155 -0.015249372 -0.3317795 -0.47502685 -0.13532802
0.21611345 0.32925794 -0.71745765 -0.05433303 -0.5286667 -0.6588759 -0.17057584 0.5145437
-0.4899491 -0.050460182 -0.26989102 0.2174008 0.3496356 -0.115248084 -0.20724426 -0.08792649
-0.40947637 0.15367539 0.00017608824 0.20257962 -0.0060499143 -0.18773764 0.2313361 0.08665589
0.104154974 0.18420418 -0.0054457826 -0.09010585 0.53470427 -0.43158734 -0.10582105 0.39458644
-0.4754156 -0.42928424 -0.2954234 -0.29047382 0.3775097 -0.17429869 -0.65859497 -0.07097685
0.20437485 -0.21691397 0.55871415 -0.1870141 0.35875934 -0.21628073 -0.24972562 -0.03504245
-0.572527 0.15951379 0.29401758 -0.20952679 0.25442332 -0.6856894 0.2627262 -0.54015714
0.38938326 -0.4672174 0.06852168 -0.09910405 -0.39196622 -0.055774853 -0.4066573 0.21177566
0.3951967 0.2501702 -0.7055878 0.20318308 -0.35545075 -0.4554695 0.09804467 0.32354552
-0.80271786 0.12677103 -0.24925174 0.511976 0.47202387 -0.07214388 -0.30969673 -0.26327378
-0.49138764 -0.25330064 -0.29931492 -0.17971742 -0.18342672 -0.06486362 0.24499542 0.13641058
0.03840559 0.20996666 -0.1899764 -0.22629535 0.54718596 -0.41916212 -0.36680377 0.22114083
-0.61471695 -0.50513655 -0.6196817 -0.4883386 0.487379 -0.2935946 -0.69291633 -0.20200221
0.09250882 0.15913647 0.6087228 -0.07766012 0.5134533 -0.42143443 -0.4935182 -0.064358816
-0.47944996 -0.118398756 0.39334592 -0.34738395 0.34947667 -0.5765775 0.0918715 -0.4640664
0.42073914 -0.20888127 0.17378579 -0.41096568 -0.34280807 -0.2016002 -0.31240413 0.27481335
00000000: be8b d8be 14cc 25be 09fd 2c3f c186 0e3e
00000010: b331 043f 72d5 8e3e 9393 e1be c2a9 d23e
00000020: 2627 4ebb 862d a73e cc54 823e ce24 193f
00000030: e873 c9bd 3536 a2be 39b7 eabe 7ce3 aebe
00000040: 8c34 43be 775d 24be 68cd d4bd cd97 f13e
00000050: 02ff 063f 8ffb a4be 0c52 afbe b89e 24bf
00000060: 6a79 04bf 3e2c a53e 1fdb ab3e 01ac 883d
00000070: 436e 863e fcc1 84be 5f7c bcbe 8fbf bd3e
00000080: 8314 df3d b5f6 1cbf 37ac 8b3e 802d eebe
00000090: 4e85 7d3e 125d e1be 9278 753e d79a ab3d
000000a0: c8f3 acbe 08ff ecbe 3726 46be 9c42 743e
000000b0: 6c6b 76be 22a3 12bb 5f57 8f3e 05b2 213d
000000c0: 8adf 263f 884f 87be aef8 c5be 5edc c3be
000000d0: 0c5e a2be 06ee 213e 5c50 d3be 2bb6 c9be
000000e0: ddd0 e1bd 47cf 8e3e bb34 083f 6ce4 ba3d
000000f0: 865f 0ebf f9db 873d 0513 713e 53e9 1bbf
00000100: cd7f 73bd 8df7 723d 1a06 d93e 3a35 a13d
00000110: 68bc 083e 888b b03e e6e7 2bbe 85a7 44be
00000120: c382 863d 4965 343e 4488 613e d61e fb3d
00000130: 6ea6 e2bd 80f8 bfbe 1e4c a03e dc3a 3b3d
00000140: 67da 93be d376 423f 50e5 b6be eed7 44be
00000150: 181d 2a3c f41e c9be 0ec5 933e 9895 d2be
00000160: 901e 42bf ecee 3dbb 252f 95bd 699a 763f
00000170: 8c35 5abd 37cc bc3e b1c3 9dbd bb5c 53be
00000180: 6883 3a3c f82d 8bbd 6549 dc3e 2369 103e
00000190: 6e85 993d 6c60 be3e 40dc d83d 7119 173f
000001a0: c2e2 01bf c2b4 413e d351 8bbe 278d 213f
000001b0: 94a4 92bd a0ec ab3e c116 6dbe 636a c7be
000001c0: 715a 923e 60e4 5c3d b108 10be 80df 313f
000001d0: 2a3e 8c3e e78a dfbc b7d5 053f e8d6 6dbd
000001e0: cc1c 84be 195e 47be 6eda b0be 152b cc3d
000001f0: 81d8 79bc 01df a9be b836 f3be 6e93 0abe
00000200: d84c 5d3e 7f94 a83e 4eab 37bf 508c 5ebd
00000210: b356 07bf 17ac 28bf 6fab 2ebe 23b9 033f
00000220: 9cda fabe 56af 4ebd 282f 8abe 519e 5e3e
00000230: 7003 b33e 3007 ecbd d737 54be ce12 b4bd
00000240: e3a6 d1be 155d 1d3e 54a4 3839 0871 4f3e
00000250: 5c3e c6bb 4c3e 40be 5fe3 6c3e a578 b13d
00000260: 344f d53d 05a0 3c3e 8972 b2bb 6a89 b8bd
00000270: 61e2 083f 04f9 dcbe b5b8 d8bd 3c07 ca3e
00000280: ac69 f3be 25cb dbbe bc41 97be fcb8 94be
00000290: f448 c13e 5b7b 32be ae99 28bf 505c 91bd
000002a0: a447 513e b21e 5ebe e407 0f3f a080 3fbe
000002b0: 4eaf b73e b278 5dbe 13b8 7fbe ac88 0fbd
000002c0: 2191 12bf 9557 233e 7989 963e 318e 56be
000002d0: c643 823e 5789 2fbf 0c84 863e bd47 0abf
000002e0: 3e5d c73e 1e37 efbe 1855 8c3d 10f7 cabd
000002f0: ccaf c8be 2c74 64bd 6335 d0be b8db 583e
00000300: 3957 ca3e 4f16 803e 67a1 34bf 3a0f 503e
00000310: a4fd b5be 4c33 e9be a5cb c83d c2a7 a53e
00000320: eb7e 4dbf 44d0 013e d93b 7fbe dc10 033f
00000330: 1dad f13e 2cc0 93bd 9290 9ebe d2cb 86be
00000340: 2997 fbbe 9fb0 81be ce3f 99be d807 38be
00000350: 37d4 3bbe 38d7 84bd 14e0 7a3e 37af 0b3e
00000360: 2e4f 1d3d 8001 573e 2c89 42be f8b9 67be
00000370: 6114 0c3f 6b9c d6be b4cd bbbe be72 623e
00000380: 175e 1dbf a150 01bf 76a3 1ebf 8407 fabe
00000390: be89 f93e 0852 96be f762 31bf abd9 4ebe
000003a0: 4475 bd3d acf4 223e 42d5 1b3f 450c 9fbd
000003b0: ad71 033f 41c6 d7be 6bae fcbe 8ece 83bd
000003c0: 777a f5be 0c7b f2bd a364 c93e 4fdc b1be
000003d0: 9bee b23e 959a 13bf 2027 bc3d 1c9a edbe
000003e0: 1f6b d73e f9e4 55be e7f4 313e 186a d2be
000003f0: 8a84 afbe 4870 4ebe 6ff3 9fbe 56b4 8c3e

critic.v_net.fcs.1.bias f4 [64]
-0.20662735 0.07439343 0.17420344 0.3003715 -0.16289912 -0.19425482 -0.31493312 -0.08486277
-0.17220056 -0.20120755 -0.09453905 -0.41064498 -0.114929035 -0.2201627 0.15421309 0.17590244
-0.15471964 -0.038873192 -0.35622215 0.27911696 0.38271713 -0.0429378 0.1500417 0.2952668
-0.2096929 -0.0736502 -0.03034213 -0.08330467 0.01627214 0.13401638 0.3511201 0.18067469
0.12226439 -0.035186622 0.24107566 -0.2780713 -0.35973722 -0.31675348 -0.19843136 0.30422816
-0.20619798 -0.12126997 -0.11189947 0.17645396 -0.1038825 0.080155276 0.17946719 -0.1668439
0.13176413 0.3500701 0.11684737 -0.23614717 0.3675145 -0.40176263 -0.05753537 -0.037323393
0.1389346 0.055851392 -0.2011705 0.19631328 -0.0198634 0.20034182 -0.068461835 0.2597932
00000000: 1f96 53be 955b 983d 6362 323e 4bca 993e
00000010: 07cf 26be bcea 46be ea3e a1be 88cc adbd
00000020: 5855 30be 5a09 4ebe b09d c1bd 0f40 d2be
00000030: ea5f ebbd 5572 61be 09ea 1d3e c51f 343e
00000040: d36e 1ebe 7f39 1fbd c062 b6be 6be8 8e3e
00000050: 80f3 c33e 8cdf 2fbd 88a4 193e 362d 973e
00000060: bcb9 56be ebd5 96bd 0f90 f8bc a49b aabd
00000070: 274d 853c 973b 093e 04c6 b33e c902 393e
00000080: c165 fa3d d91f 10bd 8adc 763e 5d5f 8ebe
00000090: 7a2f b8be 832d a2be 9731 4bbe cbc3 9b3e
000000a0: 9025 53be 645c f8bd 8d2b e5bd 59b0 343e
000000b0: 59c0 d4bd 7328 a43d 3fc6 373e 21d9 2abe
000000c0: 2ded 063e 633c b33e ad4d ef3d 90d0 71be
000000d0: dc2a bc3e d5b3 cdbe 35aa 6bbd 6ae0 18bd
000000e0: df44 0e3e 6ec4 643d a4ff 4dbe 5906 493e
000000f0: 92b8 a2bc 6826 4d3e b835 8cbd 9d03 853e

critic.v_net.fcs.2.weight f4 [1, 64]
-0.9540678 -1.3028591 1.0506892 1.1691263 -0.9174996 -1.1344541 -0.9218569 1.0259427
-0.9735758 -1.3035634 -1.1693714 -1.2729133 -1.1337596 -1.170239 1.0843407 -1.0413277
-1.541703 -1.2787267 -1.2026347 1.445238 0.9883811 1.0788156 1.2334666 1.1668172
-1.127723 -1.2727349 -0.99849546 -1.3643061 1.0129734 1.0051782 1.3962953 1.1931019
1.2898997 -1.1587567 1.5653181 -1.3234066 -1.1428643 -1.7806313 -1.1226863 -1.1579775
-1.3937095 -1.0924882 -1.0555235 0.8953369 -0.9381405 1.129828 0.97699946 -1.2596555
0.9529332 1.0208249 1.2238418 -1.4020245 -1.20876 -0.9399466 -1.6106334 0.91204226
1.5484911 1.1638005 1.2313321 0.95148206 -1.0005152 -1.5462718 -0.9183465 1.0573051
00000000: ca3d 74bf 16c4 a6bf fc7c 863f eea5 953f
00000010: 41e1 6abf cb35 91bf d0fe 6bbf 1752 833f
00000020: 433c 79bf 2adb a6bf f6ad 95bf d3ee a2bf
00000030: 091f 91bf 64ca 95bf adcb 8a3f 3a4a 85bf
00000040: 8656 c5bf 51ad a3bf efef 99bf 8ffd b83f
00000050: 8b06 7d3f a116 8a3f 3ce2 9d3f 445a 953f
00000060: 3a59 90bf fae8 a2bf 669d 7fbf 95a1 aebf
00000070: 1da9 813f aea9 803f ceb9 b23f 90b7 983f
00000080: 6f1b a53f 2452 94bf 585c c83f 6365 a9bf
00000090: 6149 92bf baeb e3bf 2fb4 8fbf 9b38 94bf
000000a0: 1365 b2bf a7d6 8bbf 651b 87bf cd34 653f
000000b0: fa29 70bf 349e 903f a31c 7a3f 643c a1bf
000000c0: 6ef3 733f 64aa 823f d9a6 9c3f 8a75 b3bf
000000d0: a6b8 9abf 57a0 70bf 3c29 cebf 9a7b 693f
000000e0: f534 c63f 6af7 943f 4a9c 9d3f 5494 733f
000000f0: e210 80bf 3cec c5bf c218 6bbf c655 873f

exp_avg f4 [64, 8]
-0.0005873943 0.0059430674 -0.00033641353 -0.0021938984 0.0012240288 0.0 0.0 0.0
-0.007094406 0.02557566 -0.0015836026 -0.008098665 0.0012227916 0.0 0.0 0.0
-0.01138476 0.043036066 -0.001679653 -0.0138402665 0.008144049 0.0 0.0 0.0
0.0006912733 -0.0018588497 0.00034338137 0.00057705026 0.0007316251 0.0 0.0 0.0
0.020861018 -0.06294499 0.0011792931 0.01984007 -0.012170378 0.0 0.0 0.0
-0.02075576 0.0751383 -0.0028255708 -0.02462415 0.012099659 0.0 0.0 0.0
0.02668486 -0.09563033 0.0031704898 0.031213395 -0.017529009 0.0 0.0 0.0
-0.008619124 0.0183711 -0.0011985445 -0.0051147584 -0.0004425806 0.0 0.0 0.0
-0.0012279485 0.0007860457 -1.8868815e-05 1.2973817e-05 -0.00028743214 0.0 0.0 0.0
0.0633976 -0.1989762 0.00742791 0.06413061 -0.031079648 0.0 0.0 0.0
-0.0021070316 0.00582209 -0.00023905684 -0.0016588863 0.0010012254 0.0 0.0 0.0
-0.008989926 0.036584742 -0.0015641242 -0.012488507 0.006089296 0.0 0.0 0.0
0.018841093 -0.06796576 0.0022528907 0.022561848 -0.0121091185 0.0 0.0 0.0
-0.003323752 0.015427175 -0.00068783754 -0.0053410158 0.0027095687 0.0 0.0 0.0
0.020250114 -0.07919363 0.003096144 0.026274526 -0.014414218 0.0 0.0 0.0
0.025982723 -0.09616365 0.0049349032 0.031948447 -0.013056073 0.0 0.0 0.0
-0.03414967 0.14121696 -0.0061740964 -0.047378957 0.024580814 0.0 0.0 0.0
0.003344161 -0.0068004383 0.0004282076 0.0019524641 0.00037980592 0.0 0.0 0.0
-0.004761878 0.01583991 -0.00040202145 -0.005147313 0.0028265044 0.0 0.0 0.0
-0.0061028777 0.03905129 -0.003643609 -0.014099168 2.8522729e-05 0.0 0.0 0.0
0.0026316114 -0.012249366 0.00080487924 0.0043136626 -0.0013436587 0.0 0.0 0.0
-0.0069719856 0.0191569 -0.0005138999 -0.0056958543 0.0037756213 0.0 0.0 0.0
-0.026781898 0.101962864 -0.003164007 -0.034821555 0.01711966 0.0 0.0 0.0
0.0057362155 -0.026168013 0.0011472272 0.009098713 -0.004774052 0.0 0.0 0.0
-0.006271674 0.019714864 -0.00057541335 -0.0062156543 0.0032540471 0.0 0.0 0.0
-0.0319666 0.12251112 -0.0045284196 -0.04098968 0.021542862 0.0 0.0 0.0
0.006040356 -0.019736798 0.0026525483 0.0062432094 0.0044906363 0.0 0.0 0.0
-0.0014999786 0.0069454573 -0.00020024252 -0.0023145096 0.0017209908 0.0 0.0 0.0
-0.02265472 0.09199623 -0.0040685865 -0.031067217 0.015544789 0.0 0.0 0.0
-0.013759668 0.05500128 -0.0025563415 -0.018752147 0.007381039 0.0 0.0 0.0
0.01800298 -0.07232259 0.0030746988 0.024264146 -0.01226742 0.0 0.0 0.0
-0.03358538 0.11617945 -0.004475626 -0.03814401 0.0187331 0.0 0.0 0.0
00000000: 5dfb 19ba 10be c23b a960 b0b9 82c7 0fbb
00000010: 976f a03a 0000 0000 0000 0000 0000 0000
00000020: 3178 e8bb 0c84 d13c e390 cfba 43b0 04bc
00000030: 1446 a03a 0000 0000 0000 0000 0000 0000
00000040: 2587 3abc 9646 303d cd27 dcba 49c2 62bc
00000050: 9e6e 053c 0000 0000 0000 0000 0000 0000
00000060: 9136 353a a5a4 f3ba de07 b439 3045 173a
00000070: 88ca 3f3a 0000 0000 0000 0000 0000 0000
00000080: bae4 aa3c 4ee9 80bd 8392 9a3a a487 a23c
00000090: 4466 47bc 0000 0000 0000 0000 0000 0000
000000a0: fc07 aabc 1ce2 993d 362d 39bb 96b8 c9bc
000000b0: a63d 463c 0000 0000 0000 0000 0000 0000
000000c0: 359a da3c d6d9 c3bd fec7 4f3b 3cb3 ff3c
000000d0: ff98 8fbc 0000 0000 0000 0000 0000 0000
000000e0: 3a37 0dbc fd7e 963c 7b18 9dba b499 a7bb
000000f0: 2a0a e8b9 0000 0000 0000 0000 0000 0000
00000100: 1df3 a0ba a20e 4e3a 7948 9eb7 1faa 5937
00000110: 7db2 96b9 0000 0000 0000 0000 0000 0000
00000120: 9ad6 813d 6bc0 4bbe d365 f33b e956 833d
00000130: bf9a febc 0000 0000 0000 0000 0000 0000
00000140: 2016 0abb 3bc7 be3b 55ab 7ab9 fd6e d9ba
00000150: 8d3b 833a 0000 0000 0000 0000 0000 0000
00000160: 7c4a 13bc e2d9 153d 4d03 cdba 989c 4cbc
00000170: b888 c73b 0000 0000 0000 0000 0000 0000
00000180: a358 9a3c a231 8bbd 3ca5 133b a0d3 b83c
00000190: 5365 46bc 0000 0000 0000 0000 0000 0000
000001a0: 4ed3 59bb 43c2 7c3c ff4f 34ba b003 afbb
000001b0: 0593 313b 0000 0000 0000 0000 0000 0000
000001c0: 91e3 a53c 4530 a2bd ade8 4a3b ad3d d73c
000001d0: 9d29 6cbc 0000 0000 0000 0000 0000 0000
000001e0: b8d9 d43c 73f1 c4bd f8b4 a13b 60dc 023d
000001f0: 24e9 55bc 0000 0000 0000 0000 0000 0000
00000200: 86e0 0bbd 2e9b 103e 1350 cabb 7010 42bd
00000210: b45d c93c 0000 0000 0000 0000 0000 0000
00000220: b629 5b3b 36d6 debb 0d81 e039 d3e9 ff3a
00000230: b020 c739 0000 0000 0000 0000 0000 0000
00000240: 8709 9cbb b3c2 813c 68c6 d2b9 caaa a8bb
00000250: e03c 393b 0000 0000 0000 0000 0000 0000
00000260: a6fa c7bb 3ff4 1f3d 9dc9 6ebb 3200 67bc
00000270: 1844 ef37 0000 0000 0000 0000 0000 0000
00000280: 1d77 2c3b 91b1 48bc 88fe 523a a059 8d3b
00000290: b41d b0ba 0000 0000 0000 0000 0000 0000
000002a0: 4175 e4bb eeee 9c3c 3db7 06ba 4aa4 babb
000002b0: 6a70 773b 0000 0000 0000 0000 0000 0000
000002c0: b665 dbbc e8d1 d03d 3b5b 4fbb 0ca1 0ebd
000002d0: 873e 8c3c 0000 0000 0000 0000 0000 0000
000002e0: ddf6 bb3b 4d5e d6bc 8f5e 963a c512 153c
000002f0: a76f 9cbb 0000 0000 0000 0000 0000 0000
00000300: 9d82 cdbb 1181 a13c 56d7 16ba b0ac cbbb
00000310: da41 553b 0000 0000 0000 0000 0000 0000
00000320: 69ef 02bd 1ce7 fa3d 2363 94bb cbe4 27bd
00000330: a87a b03c 0000 0000 0000 0000 0000 0000
00000340: 2eee c53b 11af a1bc 60d6 2d3b d693 cc3b
00000350: 3026 933b 0000 0000 0000 0000 0000 0000
00000360: ee9a c4ba b896 e33b 31f8 51b9 07af 17bb
00000370: de92 e13a 0000 0000 0000 0000 0000 0000
00000380: 6496 b9bc 8568 bc3d c751 85bb ad80 febc
00000390: 92af 7e3c 0000 0000 0000 0000 0000 0000
000003a0: 3b70 61bc 0649 613d 4b88 27bb 1a9e 99bc
000003b0: a5dc f13b 0000 0000 0000 0000 0000 0000
000003c0: fc7a 933c de1d 94bd e380 493b 9ac5 c63c
000003d0: 4afd 48bc 0000 0000 0000 0000 0000 0000
000003e0: d390 09bd 7eef ed3d 46a8 92bb e53c 1cbd
000003f0: 2876 993c 0000 0000 0000 0000 0000 0000

exp_avg_sq f4 [64, 8]
5.0199396e-05 0.000102045226 2.8839836e-06 3.2278185e-05 3.0671315e-05 0.0 0.0 0.0
0.008547023 0.0072413487 0.00015114786 0.002026888 0.0053014043 0.0 0.0 0.0
0.0060164765 0.01698811 0.00017873092 0.00521517 0.004080727 0.0 0.0 0.0
0.00042608436 0.00036496733 5.68312e-06 9.02838e-05 0.00017040053 0.0 0.0 0.0
0.0096035525 0.020724507 0.00018980137 0.0056314934 0.009163309 0.0 0.0 0.0
0.022899015 0.04087184 0.00054126914 0.012962761 0.016604042 0.0 0.0 0.0
0.021412142 0.06338241 0.0006796787 0.020252122 0.020090263 0.0 0.0 0.0
0.012165233 0.02110357 0.00023977122 0.0070573324 0.009083837 0.0 0.0 0.0
0.0002130094 0.00019937234 4.10529e-06 6.0225913e-05 5.2782387e-05 0.0 0.0 0.0
0.21602057 0.46916133 0.0048260046 0.15416814 0.16177443 0.0 0.0 0.0
0.0002538065 0.0006303399 1.2049364e-05 0.00021740777 0.00013795105 0.0 0.0 0.0
0.0057506487 0.013071202 0.00016428664 0.0043826806 0.0044976403 0.0 0.0 0.0
0.014173951 0.027006693 0.00029656474 0.007504619 0.011461337 0.0 0.0 0.0
0.0008789801 0.0023115885 3.4593293e-05 0.0007955426 0.0007661511 0.0 0.0 0.0
0.016395146 0.038360532 0.00045014595 0.010788274 0.012881152 0.0 0.0 0.0
0.060172655 0.112704955 0.0014183458 0.036739137 0.0398419 0.0 0.0 0.0
0.058538318 0.15203004 0.0017871405 0.048013564 0.045443058 0.0 0.0 0.0
0.0014481794 0.0018238878 2.8111439e-05 0.0006113645 0.0009261504 0.0 0.0 0.0
0.0012917984 0.0010623405 1.5857891e-05 0.0002476454 0.00075569924 0.0 0.0 0.0
0.019407984 0.018770115 0.00039811025 0.004675011 0.013106713 0.0 0.0 0.0
0.0010061299 0.0030425517 3.558436e-05 0.0011049687 0.0008693933 0.0 0.0 0.0
0.002739404 0.005162392 5.9640137e-05 0.0014883332 0.0015293319 0.0 0.0 0.0
0.016801564 0.029019644 0.00044505484 0.007290752 0.017705832 0.0 0.0 0.0
0.002437373 0.006900727 7.667895e-05 0.002243745 0.0019785257 0.0 0.0 0.0
0.0019809185 0.002448775 2.8285807e-05 0.00062463206 0.0015021863 0.0 0.0 0.0
0.039284058 0.094328225 0.00116049 0.029086279 0.031985104 0.0 0.0 0.0
0.019853096 0.021775028 0.00034580444 0.006630149 0.012940202 0.0 0.0 0.0
0.00017767107 0.0007342406 7.633288e-06 0.00027940466 0.0001503964 0.0 0.0 0.0
0.030729426 0.068775296 0.00077712495 0.022060296 0.021543106 0.0 0.0 0.0
0.015074487 0.017576097 0.00028737087 0.0046565523 0.010826018 0.0 0.0 0.0
0.01637786 0.046233285 0.000521628 0.015570511 0.01468223 0.0 0.0 0.0
0.065340824 0.13575888 0.0015320932 0.045470167 0.047838997 0.0 0.0 0.0
00000000: 318d 5238 1d01 d638 768a 4136 7062 0738
00000010: 13a5 0038 0000 0000 0000 0000 0000 0000
00000020: d008 0c3c d648 ed3b 727d 1e39 8ad5 043b
00000030: 67b7 ad3b 0000 0000 0000 0000 0000 0000
00000040: dd25 c53b a62a 8b3c b769 3b39 04e4 aa3b
00000050: 9fb7 853b 0000 0000 0000 0000 0000 0000
00000060: 1364 df39 1659 bf39 a1b1 be36 bf56 bd38
00000070: 8bad 3239 0000 0000 0000 0000 0000 0000
00000080: 3858 1d3c 71c6 a93c 6b05 4739 6488 b83b
00000090: b421 163c 0000 0000 0000 0000 0000 0000
000000a0: b796 bb3c 3b69 273d f5e3 0d3a c361 543c
000000b0: 3305 883c 0000 0000 0000 0000 0000 0000
000000c0: 8468 af3c a3ce 813d 772c 323a c7e7 a53c
000000d0: 5694 a43c 0000 0000 0000 0000 0000 0000
000000e0: af50 473c 65e1 ac3c 196b 7b39 3241 e73b
000000f0: 60d4 143c 0000 0000 0000 0000 0000 0000
00000100: 475b 5f39 9b0e 5139 2cc0 8936 159b 7c38
00000110: a862 5d38 0000 0000 0000 0000 0000 0000
00000120: 7f34 5d3e ea35 f03e 7623 9e3b 41de 1d3e
00000130: 32a8 253e 0000 0000 0000 0000 0000 0000
00000140: 5511 8539 653d 253a a027 4a37 f4f7 6339
00000150: f4a6 1039 0000 0000 0000 0000 0000 0000
00000160: f06f bc3b 9828 563c 5c44 2c39 979c 8f3b
00000170: f160 933b 0000 0000 0000 0000 0000 0000
00000180: dc39 683c 243d dd3c 3f7c 9b39 4fe9 f53b
00000190: 55c8 3b3c 0000 0000 0000 0000 0000 0000
000001a0: 5b6b 663a 057e 173b 4418 1138 f68b 503a
000001b0: 88d7 483a 0000 0000 0000 0000 0000 0000
000001c0: 1d4f 863c ef1f 1d3d 9101 ec39 4dc1 303c
000001d0: 780b 533c 0000 0000 0000 0000 0000 0000
000001e0: 9a77 763d dbd1 e63d cae7 b93a c77b 163d
000001f0: 4331 233d 0000 0000 0000 0000 0000 0000
00000200: e0c5 6f3d c3ad 1b3e 7c3e ea3a dfa9 443d
00000210: 8022 3a3d 0000 0000 0000 0000 0000 0000
00000220: d6d0 bd3a 850f ef3a dbd0 eb37 fa43 203a
00000230: e7c8 723a 0000 0000 0000 0000 0000 0000
00000240: 9051 a93a 3b3e 8b3a 9006 8537 67d6 8139
00000250: 1e1a 463a 0000 0000 0000 0000 0000 0000
00000260: 7efd 9e3c c9c3 993c 74b9 d039 d630 993b
00000270: 8abd 563c 0000 0000 0000 0000 0000 0000
00000280: 1ee0 833a 8c65 473b 6a40 1538 99d4 903a
00000290: ffe7 633a 0000 0000 0000 0000 0000 0000
000002a0: 9387 333b 4829 a93b 1c26 7a38 2d14 c33a
000002b0: dd73 c83a 0000 0000 0000 0000 0000 0000
000002c0: 6fa3 893c 9bba ed3c 4056 e939 43e7 ee3b
000002d0: d20b 913c 0000 0000 0000 0000 0000 0000
000002e0: 55bc 1f3b 7e1f e23b b3ce a038 cb0b 133b
000002f0: 27aa 013b 0000 0000 0000 0000 0000 0000
00000300: 4cd2 013b a17b 203b 4f47 ed37 59be 233a
00000310: 02e5 c43a 0000 0000 0000 0000 0000 0000
00000320: 52e8 203d 282f c13d 951b 983a 5946 ee3c
00000330: d002 033d 0000 0000 0000 0000 0000 0000
00000340: f6a2 a23c 8b61 b23c 164d b539 b941 d93b
00000350: 2403 543c 0000 0000 0000 0000 0000 0000
00000360: 374d 3a39 0d7a 403a b910 0037 0f7d 9239
00000370: bab3 1d39 0000 0000 0000 0000 0000 0000
00000380: 47bc fb3c 10da 8c3d f9b7 4b3a cbb7 b43c
00000390: 2b7b b03c 0000 0000 0000 0000 0000 0000
000003a0: fbfa 763c bffb 8f3c 44aa 9639 fe95 983b
000003b0: 9c5f 313c 0000 0000 0000 0000 0000 0000
000003c0: dd2a 863c 1d5f 3d3d ddbd 083a 751b 7f3c
000003d0: bc8d 703c 0000 0000 0000 0000 0000 0000
000003e0: 69d1 853d 6004 0b3e 84d0 c83a ed3e 3a3d
000003f0: d3f2 433d 0000 0000 0000 0000 0000 0000

exp_avg f4 [64]
0.0017486127 0.0017468459 0.0116343545 0.0010451783 -0.017386254 0.017285235 -0.025041427 -0.0006322538
-0.00041061727 -0.044399485 0.0014303218 0.008698989 -0.017298741 0.0038708146 -0.020591743 -0.018651534
0.035115447 0.0005425809 0.0040378636 4.075261e-05 -0.0019195128 0.0053937463 0.02445666 -0.0068200775
0.004648637 0.030775523 0.0064151953 0.0024585587 0.022206841 0.010544343 -0.017524881 0.026761578
-0.00042562402 -0.0047820774 -0.0013961485 0.0012818457 0.0067760176 -0.008447033 0.01683385 0.010142257
0.004955193 -0.03552043 -0.009618076 -0.0329516 0.006838631 0.026911564 -0.010323848 -0.0027024706
-0.002696367 0.032031532 0.0031633198 0.0009985557 -0.0009229578 0.0019826407 -0.010083068 0.00800611
0.0025881124 0.020936249 -0.0021183107 0.007948287 0.017006358 0.0011936795 0.0016038415 -0.004401474
00000000: b531 e53a 6cf6 e43a 059e 3e3c 5dfe 883a
00000010: 9e6d 8ebc c499 8d3c ae23 cdbc d6bd 25ba
00000020: 1e48 d7b9 3cdc 35bd a379 bb3a 3486 0e3c
00000030: 17b6 8dbc 7ead 7d3b 04b0 a8bc 1acb 98bc
00000040: 37d5 0f3d fd3b 0e3a 0e50 843b c8ed 2a38
00000050: 2998 fbba 06be b03b 5559 c83c f57a dfbb
00000060: 9853 983b f31c fc3c 8f36 d23b c51f 213b
00000070: 1feb b53c 2ec2 2c3c 5790 8fbc 193b db3c
00000080: 4a26 dfb9 f9b2 9cbb f8fe b6ba 9b03 a83a
00000090: 5b09 de3b 6d65 0abc 24e7 893c b62b 263c
000000a0: 2c5f a23b df7d 11bd 2295 1dbc 42f8 06bd
000000b0: 9816 e03b a475 dc3c 5b25 29bc ef1b 31bb
000000c0: 88b5 30bb 7f33 033d b34f 4f3b f8e1 823a
000000d0: a6f2 71ba 31ef 013b 7433 25bc 0f2c 033c
000000e0: 529d 293b 7f82 ab3c 5bd3 0abb 8839 023c
000000f0: eb50 8b3c 3d75 9c3a fe37 d23a 3d3a 90bb

exp_avg_sq f4 [64]
6.25944e-05 0.0108192125 0.008328019 0.00034775632 0.018700637 0.033885796 0.0410005 0.018538432
0.00010771917 0.3301514 0.0002815325 0.009178848 0.023390505 0.0015635724 0.026288075 0.08131004
0.09274103 0.001890101 0.0015422449 0.026748413 0.0017742708 0.003121083 0.03613436 0.0040378044
0.003065682 0.065275684 0.026408581 0.00030693103 0.043965448 0.0220939 0.02996375 0.09763032
0.0020861644 0.0006174212 0.00022098813 0.00040317612 0.003641947 0.011251399 0.026445623 0.029981187
0.0020169618 0.06986144 0.011266433 0.09609532 0.011687602 0.08114124 0.008522065 0.0015359578
0.0029521526 0.06873752 0.004020221 0.00016101578 0.0013385974 0.00047481118 0.017215017 0.013597333
0.00023070684 0.035607096 0.00031955805 0.005911773 0.026397128 0.00061280944 0.0004460412 0.007907367
00000000: 1d45 8338 1143 313c 3e72 083c 1053 b639
00000010: 1432 993c d5cb 0a3d 24f0 273d e9dd 973c
00000020: 4ae7 e138 9b09 a93e a79a 9339 e162 163c
00000030: 729d bf3c c9f0 cc3a 175a d73c e185 a63d
00000040: 02ef bd3d 44bd f73a 2725 ca3a 7d1f db3c
00000050: a68e e83a 158b 4c3b 9f01 143d 8f4f 843b
00000060: 9ce9 483b 42af 853d cf56 d83c 96eb a039
00000070: 1d15 343d 44fe b43c 8a76 f53c 68f2 c73d
00000080: 08b8 083b 6fda 213a 0db9 6739 6261 d339
00000090: bbad 6e3b ca57 383c 7ea4 d83c 1b9b f53c
000000a0: 012f 043b 8413 8f3d d896 383c a0cd c43d
000000b0: 5b7d 3f3c 612d a63d 22a0 0b3c 3152 c93a
000000c0: e778 413b 42c6 8c3d 0fbc 833b 58d6 2839
000000d0: e073 af3a 14f0 f839 8206 8d3c 59c7 5e3c
000000e0: e5e9 7139 bfd8 113d 5b8a a739 8cb7 c13b
000000f0: ca3e d83c f2a4 203a a3da e939 e78d 013c
