examples/mpsc/models/sac_model_cartpole_track.pt (torch, 257970 bytes, 65 tensors)

actor.net.fcs.0.weight f4 [64, 8]
000000 1b 9f 16 3e 21 70 20 3e 34 fb a0 3f 8a 8b 98 3e
       0.14709131 0.15667774 1.2576661 0.2979396
000010 4a ad 52 3e ae 33 7e be aa 01 73 be a4 45 2c 3e
       0.20573917 -0.24824402 -0.23731104 0.16823441
000020 2c 50 14 3d 1f f8 00 3e 1a df 21 3f f0 f3 9a 3e
       0.03620927 0.1259465 0.6323105 0.30264235
000030 4e 16 a0 bd 24 4a 98 3d 48 ae 1b 3e d9 c1 65 3d
       -0.07816754 0.07436016 0.15203202 0.05609307
000040 79 48 9c bd 93 f9 c8 3d 11 e7 e7 be e9 c6 ed 3d
       -0.076310106 0.098132275 -0.45293477 0.11610205
000050 24 25 b4 bd 86 b9 1b bd 63 47 a6 be 51 63 4e 3e
       -0.087961465 -0.038018726 -0.3247634 0.20155074
000060 22 72 1b 3f fb 6a 81 be de 8e 12 3f 3d 98 0c be
       0.6072103 -0.25276932 0.5724925 -0.1372995
000070 9c 84 15 bf ff 26 56 3c 78 be 71 be 0b 29 2b be
       -0.5840547 0.013070821 -0.23607814 -0.16714875
000080 cf a1 37 3e 8f 3d 73 3e 33 57 96 3f f8 1e b5 3e
       0.17932819 0.23753951 1.1745361 0.3537519
000090 b2 87 81 bd 57 4e 72 bd 0f 2f 32 bd f1 3e b0 3e
       -0.0632471 -0.059156742 -0.04350191 0.3442302
0000a0 70 97 b0 be 82 66 91 be a2 43 92 bc a9 36 38 3d
       -0.34490538 -0.2839852 -0.017854515 0.044974003
0000b0 db 62 db 3d bc 2e 2e bd bc 8a 97 3e 00 c2 8d 3d
       0.107122146 -0.042525038 0.29598033 0.06921768
0000c0 87 72 6d 3e ee f5 70 3e ee b7 15 3f c3 51 75 3e
       0.2318822 0.23531315 0.5848378 0.23956971
0000d0 5e a8 c5 be ed ed 36 be b7 c2 40 3e 96 7b 12 3e
       -0.38605016 -0.17864199 0.18824278 0.14304957
0000e0 0e 1d f6 3d a4 1f 9c 3e e9 93 88 3f f3 29 06 3f
       0.120172605 0.3049289 1.0670139 0.5240776
0000f0 31 f2 3c bd a8 6c c3 bd 0d bc c1 bd 58 07 ea bd
       -0.04612941 -0.09542209 -0.09459696 -0.11427182
000100 88 6f cb 3e e5 6c 7d 3e 78 6b 80 3e c5 af 8d 3d
       0.3973353 0.24748571 0.25081992 0.06918291
000110 77 87 09 bd 81 f4 94 be 03 30 8a 3e 5c 5d 35 be
       -0.033576455 -0.29092792 0.26989755 -0.17711395
000120 66 6f 08 3d 20 9e 62 3d a7 10 82 3f 09 cd 70 3e
       0.033309363 0.05532658 1.0161332 0.23515715
000130 c2 63 02 3e 03 03 30 3e cb 71 02 be bf 58 b8 bc
       0.12733367 0.17188649 -0.12738721 -0.022503255
000140 3d 4f 1c 3e 37 d9 84 3e 22 b7 88 3f 92 2b c8 3e
       0.15264602 0.25946972 1.0680888 0.39095742
000150 05 bb 97 bd 60 98 a6 bd e5 ea 47 be 6c b1 de bd
       -0.07408718 -0.08134532 -0.19523199 -0.10873684
000160 f4 f7 e3 bd f2 ec 1b 3e 13 e1 fa be 81 96 3e bd
       -0.11131278 0.15227106 -0.48999843 -0.04653025
000170 11 03 15 be 44 06 1e be 51 00 86 be c4 01 b5 bd
       -0.14551951 -0.15432078 -0.26172116 -0.088382274
000180 62 8f f5 3d 5e a4 90 3e bb c0 fd 3e c0 3b ae 3e
       0.11990239 0.28250402 0.49561104 0.3402996
000190 05 0f e2 be 4a be ed 3c 19 7b 81 be 08 e0 8a be
       -0.44152084 0.029021401 -0.2528923 -0.27124047
0001a0 0f 4a f2 bd e3 64 31 bc 9e 4d ad 3d fd 8c 92 3e
       -0.11830532 -0.010827276 0.0846207 0.2862319
0001b0 c8 21 cd bc 92 77 53 be 51 3d 03 be 1f 49 9a 3e
       -0.025040522 -0.20651081 -0.12816359 0.30133912
0001c0 01 82 c1 3d cb fc 8e 3e 58 86 a5 bd d1 f4 45 3e
       0.094486244 0.2792724 -0.08082265 0.19331671
0001d0 95 f1 ed bd 5a 0b 72 be 9a f7 96 3e da 62 6e 3d
       -0.11618344 -0.23637143 0.2948578 0.05819974
0001e0 69 34 0d 3e fd 1d 03 be 15 f8 3a 3e ca ad 40 bd
       0.13789524 -0.12804408 0.18258698 -0.04704074
0001f0 b4 88 a7 bd 4a 45 da 3a 92 cf bf 3d d9 f3 1f bb
       -0.08180371 0.001665273 0.09365763 -0.002440682
000200 02 9e a5 bc f3 0b 81 bd 7c 36 bb bf f0 d8 d1 be
       -0.020216946 -0.06301107 -1.4626002 -0.40985823
000210 b6 97 c3 bd 4b fc 99 bc 98 52 94 be f6 ee af 3e
       -0.09550421 -0.01879706 -0.28969264 0.34362
000220 c5 2f 18 3d 1c 5e f3 bd 07 d5 85 bf 4b 95 b4 be
       0.03715493 -0.11883184 -1.0455636 -0.35270151
000230 02 89 8a bd f8 ac d1 3d 69 95 11 be 3b 31 f0 bd
       -0.067644134 0.10238069 -0.14217152 -0.1172814
000240 8c bf 8f bd 3b be f4 3d c2 ac 11 bd 11 4f a2 bc
       -0.070189565 0.11950346 -0.035565145 -0.019813092
000250 d0 ed f1 bd 0d c5 a2 bd 09 ac 83 be 91 88 bc 3d
       -0.11812937 -0.07947741 -0.2571719 0.092057355
000260 5f 52 c8 bd b5 eb 8f 3d 8f 35 61 be c3 ff 7f 3d
       -0.09781336 0.070273794 -0.21993087 0.062499773
000270 fe 66 d8 bc 47 e7 17 be ca 08 e4 bc 46 db 30 3e
       -0.026416298 -0.14834319 -0.027836222 0.17271146
000280 3e a1 67 3e e2 ac 71 3e fe 67 b5 3f b1 e5 99 3e
       0.22620103 0.23601106 1.4172361 0.30058053
000290 03 9d 2f bd 2c a6 b3 bd d4 fd 70 3d dc e5 12 be
       -0.042874347 -0.08771929 0.05883582 -0.14345497
0002a0 b0 f3 2c 3e 6d 11 ab 3e 19 45 66 3f 2e b7 02 3f
       0.16889834 0.33411732 0.89949185 0.5106076
0002b0 66 b1 c1 bd 1d e6 8b bd 18 ac a5 be 2b e7 b4 be
       -0.09457664 -0.06831 -0.3235786 -0.35332617
0002c0 85 fe 9c be b2 6c fe bd cb fb 05 bf 7f 7f 79 bd
       -0.30662933 -0.12423076 -0.5233733 -0.060912605
0002d0 f3 86 cd bc 5e 4a e8 3d 7a 2c 21 bd cc 4c 98 be
       -0.025088763 0.113423094 -0.039349057 -0.2974609
0002e0 89 1a 0f 3e 5b fe 5f 3e 21 87 dd 3f 02 a2 da 3e
       0.13974966 0.21874373 1.7306863 0.42701727
0002f0 35 85 4d bc f2 7c 19 be 27 dd f3 bd 84 aa 04 3c
       -0.012543966 -0.14989069 -0.11907416 0.008097295
000300 fd db ac 3e be 2a 22 3e 2e 97 69 3e 62 88 46 3d
       0.33761588 0.15836617 0.22811577 0.04846991
000310 2a c8 86 be b8 3a 0e be 64 87 06 be 26 db 9e be
       -0.26324588 -0.13889587 -0.13137585 -0.31026572
000320 77 28 16 be de d3 8c 3c 00 2f 82 bd 72 c0 82 bd
       -0.14663874 0.01719087 -0.06356621 -0.06384362
000330 00 ba db 3e 79 bb 7b 3e c3 ee 3d 3e 7c 9b 7d 3e
       0.42915344 0.24583234 0.18548112 0.24766344
000340 49 b8 07 3d 93 4f c0 3d c7 66 8e 3f 51 66 87 3e
       0.033134732 0.093901776 1.1125115 0.2644525
000350 97 81 31 be 1e 0d 9b 3c 0a 4d 79 be 2a 8e a7 3e
       -0.17334591 0.018927153 -0.24345794 0.3272565
000360 b6 1b 41 3d a4 db 23 bc 24 32 78 be 57 0f 3f 3d
       0.047145568 -0.010001097 -0.24237877 0.04664549
000370 ce 3e 10 bd cf 8d 57 3d cf a1 a8 be 02 35 86 3e
       -0.035216145 0.052625474 -0.3293595 0.26212317
000380 86 db 3c bd 22 79 df bc 15 f8 f5 bd 5e 93 8a 3c
       -0.04610779 -0.02727944 -0.120102085 0.016915973
000390 04 36 ac 3d 13 18 40 3c 9c 7b 6a be bd bf 17 be
       0.0840874 0.01172449 -0.22898716 -0.14819236
0003a0 a4 2b 58 3d 60 84 04 bd 6c 13 ad be 93 b9 2f 3e
       0.052775994 -0.032352805 -0.3380388 0.17160635
0003b0 ba 45 c1 bd 86 63 05 3e fb 17 f7 bd a5 bf 59 3e
       -0.094371274 0.13026246 -0.12065121 0.21264513
0003c0 0d d2 82 3e aa fd 40 3e a0 52 71 3f 84 3f 6c 3e
       0.2555088 0.18846765 0.942667 0.23071104
0003d0 56 18 56 be 02 17 8a 3e d6 b3 40 bd 19 48 b6 3b
       -0.20907721 0.2697068 -0.047046505 0.005562794
0003e0 cc e8 6d be bb 89 51 be cc 1e d0 bf f4 29 e1 be
       -0.23233336 -0.20462696 -1.6259398 -0.4397732
0003f0 b3 68 32 3e c0 16 3f 3e 26 84 10 3e bf df 90 be
       0.17422752 0.18661022 0.1411291 -0.28295705

actor.net.fcs.0.bias f4 [64]
000000 2e 73 93 3d b8 33 be be 4b a0 87 be 67 e9 b4 be
       0.07199703 -0.37148833 -0.2648948 -0.35334322
000010 a0 9d 2d bf 8a f5 10 bf 75 e4 97 be e0 03 4a bf
       -0.6781864 -0.5662466 -0.29666486 -0.7891216
000020 48 7c 0c bf f6 d2 f8 bc 13 ff 2a bf ba 40 b8 be
       -0.5487714 -0.030374032 -0.6679546 -0.35986882
000030 53 86 d9 be 84 00 46 bf 5c a1 12 bf 70 e1 04 bf
       -0.42485294 -0.77344537 -0.57277465 -0.5190649
000040 73 50 83 bf 91 fa 4f be e4 0c e3 be b0 e5 8c be
       -1.0258926 -0.20310427 -0.44345772 -0.27518988
000050 e9 02 65 3e 0b ca 84 bf 72 86 2e be 92 c0 3b be
       0.22364391 -1.0374159 -0.17043474 -0.18335178
000060 2b 75 04 bf 86 4f e0 be fe f8 89 be f5 fe 4d be
       -0.51741284 -0.43810672 -0.26947778 -0.2011679
000070 27 d2 84 be e0 61 e8 be dd 13 01 bf 99 a0 ae 3e
       -0.25941584 -0.45387173 -0.50420934 0.341069
000080 d7 6d 95 be 5a 67 0c bf 1a 29 71 bf 4d 27 b5 bf
       -0.29185364 -0.548452 -0.9420334 -1.4152619
000090 17 ea f8 be d3 5e 26 bf 85 83 59 be 1a f3 0b bf
       -0.48616096 -0.6498844 -0.21241577 -0.5466782
0000a0 be 8f c5 be 4a fb 69 bf 5b b9 a0 be e0 96 0f bf
       -0.3858623 -0.9139906 -0.31391415 -0.5608959
0000b0 70 ca a8 be d5 44 3b bf 25 df 0e bf 3a 89 c0 be
       -0.32966948 -0.73151904 -0.5580924 -0.37604696
0000c0 03 ac 83 bf ec e4 16 bf bc e4 37 bf 30 1b c0 be
       -1.0286869 -0.5894306 -0.71833396 -0.37520742
0000d0 aa f5 1c bf 89 75 18 bf c9 d1 97 be 35 01 d7 be
       -0.61312354 -0.59554344 -0.2965224 -0.41993108
0000e0 e8 0d 00 be bf a0 09 bd 04 9e 6d be 08 be 5b bd
       -0.12505305 -0.033600565 -0.2320481 -0.053648025
0000f0 e3 5d 09 bf e2 07 ee bd 61 c0 84 bf da f5 72 be
       -0.53658885 -0.11622597 -1.0371209 -0.23726597

actor.net.fcs.1.weight f4 [64, 64]
000000 f8 93 97 3d 38 d5 dc 3d 19 bc 76 bd 1e cc aa 3d
       0.0740127 0.10782856 -0.060237978 0.083397135
000010 77 20 2c bf 4c 56 6b 3e 2b f1 7b be b2 51 46 bf
       -0.6723704 0.22982138 -0.24603717 -0.7746841
000020 b4 3a 01 be e5 a0 9e bd 27 a7 36 bf ca 7c 3f be
       -0.1262005 -0.07745532 -0.71348804 -0.18699947
000030 54 b0 72 3e 94 30 4d be 1c a8 dc 3e 22 be 95 3c
       0.23700076 -0.20038062 0.43097007 0.018279139
000040 e6 77 85 3f 57 e5 fa bd ee 7e 81 3a 26 47 5e 3d
       1.0427215 -0.12250774 0.0009879747 0.05426707
000050 7c ac c2 3d 58 fe 7d 3f e3 58 4c 3e c5 90 be 3e
       0.09505555 0.9921622 0.19955783 0.37219825
000060 b1 80 9e 3e 0f 2f 80 3c ec 7b 99 bd 87 0a 9a bd
       0.3095756 0.01564744 -0.07494339 -0.07521539
000070 6e b8 0b 3d b2 7a ef 3b 30 0f a7 3e cc d2 e4 3c
       0.034111433 0.0073083276 0.32628775 0.027932547
000080 44 2c 46 3e d0 44 59 be d1 7b 2a bb 33 a1 d6 bf
       0.19352823 -0.21217656 -0.0026013742 -1.6767944
000090 3a 0c d4 bd f6 91 b3 be 46 5a 6e 3d be 06 a6 3d
       -0.103538945 -0.35072297 0.05819156 0.08106755
0000a0 3a 70 27 be 45 fb 64 bf 8f f0 9d 3c b8 d1 17 3d
       -0.16351405 -0.89445907 0.019279746 0.037065238
0000b0 0a 08 2d bd ef ee 36 3e 77 6b 13 bd e7 2d be bd
       -0.042243995 0.17864583 -0.03599116 -0.09286099
0000c0 c2 fa 6f 3f c7 a7 eb be fe e2 07 3f 58 1e 60 3e
       0.93742 -0.4602644 0.5308074 0.21886575
0000d0 48 77 0e 3c 55 75 3a 3e 64 82 b0 3d 62 59 81 bd
       0.008695431 0.18208821 0.0861862 -0.063158765
0000e0 72 74 7e 3c ed c3 7c be a4 be 83 bd b9 72 01 3d
       0.015530692 -0.24684115 -0.06432846 0.03160355
0000f0 d0 b3 69 3d 89 71 13 3d 36 9c aa 3f 6e 5d 9f 3c
       0.05705625 0.035996947 1.3328922 0.01945373
000100 ab c4 75 ba f0 26 71 3c 7c 49 20 3d 8b dd df 3c
       -0.0009375314 0.014718756 0.03913258 0.02732732
000110 a2 e4 b3 3c 54 a1 98 3e ea 6b 4c be da 07 90 3e
       0.021959607 0.29810584 -0.19963041 0.2813099
000120 a4 90 99 3d 5d 81 90 bd 2d 77 55 3d fa 52 3b be
       0.07498291 -0.07055924 0.052115608 -0.18293372
000130 d1 f5 03 3e 62 ce cf 3e ec 09 1e 3e 9a e6 c2 bd
       0.1288674 0.40587145 0.15433472 -0.0951664
000140 62 69 58 be a9 37 0d 3e dd a3 16 3e 08 6c c5 3d
       -0.2113395 0.13790764 0.14710946 0.09639746
000150 15 05 a3 bd f3 ca b8 be db 96 5b 3d 73 e2 62 3c
       -0.07959954 -0.36092338 0.053610664 0.013847935
000160 fb ff 0b 3e a0 39 1d 3d c9 30 b6 3d 0f 87 ea bd
       0.13671868 0.038385034 0.08896024 -0.11451542
000170 9e 94 b2 3d ad 5d bf bd 16 19 05 be 37 16 e7 ba
       0.08719753 -0.09344039 -0.12997851 -0.0017630522
000180 c9 92 22 be 4a d0 38 3d 63 dd 9d be 7a b2 08 3f
       -0.15876307 0.045120515 -0.30832967 0.53397334
000190 f3 4f 04 bd 2b 67 61 3e 76 3e 07 3e cd 40 6c be
       -0.032302808 0.22012012 0.1320742 -0.23071595
0001a0 8b 79 3b 3b b5 c4 a9 3e dc 66 06 3e 7b 54 ef bd
       0.002860638 0.33157888 0.13125175 -0.11686035
0001b0 df c8 3b bd 63 dd 09 3d f1 c4 f0 bd 13 ed c6 3b
       -0.045845862 0.033658396 -0.117563136 0.006070742
0001c0 f8 84 47 be 58 bb d8 3d 16 0f 86 bd 9e ef c3 bd
       -0.19484317 0.10582608 -0.06545846 -0.09567188
0001d0 64 db af bd e4 9e 8c 3d 11 60 69 3c 38 94 4f bb
       -0.08586767 0.068662435 0.014244095 -0.0031674039
0001e0 d5 b8 9f 3c 54 65 91 bc 44 c8 e6 3d 65 40 36 be
       0.019497314 -0.017748512 0.112686664 -0.17798002
0001f0 69 5f 9e bd ac 8a e3 bd 22 a6 ee be cc ba 90 bc
       -0.07733042 -0.11110434 -0.46611124 -0.017667197
000200 0e e2 5d bd 4c c6 64 bd e8 15 af 3d fd 57 d1 bd
       -0.05417066 -0.055853173 0.085491 -0.102218606
000210 b4 69 2a ba 87 b4 ad bd 2d b8 49 3c 65 92 53 bd
       -0.00065007363 -0.084816985 0.012311977 -0.051653285
000220 0e 80 ad 3d b7 75 89 bd 66 f4 b4 bd b9 12 2d be
       0.0847169 -0.067119054 -0.08835678 -0.16901673
000230 9b 4d d3 3c 5e 38 14 bd 27 64 f8 3d 11 e9 23 be
       0.025793841 -0.03618657 0.121284775 -0.16006877
000240 e6 50 0b 3e 63 f6 98 3d 16 e8 fb bc 63 5c b2 3c
       0.13605079 0.074688695 -0.030750316 0.021772569
000250 4b 76 01 3d 38 46 2f be e9 31 75 3d 3c a8 9a bc
       0.031606954 -0.1711663 0.05986205 -0.018879049
000260 20 52 09 3d 79 40 a1 3d 68 b1 93 3b 24 4a b3 bd
       0.033525586 0.07873625 0.0045072325 -0.087543756
000270 93 d5 df bd bc 4f 75 3e 7f 7c 85 3e 87 bb c0 bb
       -0.10929408 0.23956198 0.26071545 -0.00588173
000280 77 d9 8e 3d fd 56 13 be b8 05 04 3d 44 82 02 be
       0.06975072 -0.14388652 0.032232016 -0.12745005
000290 b6 21 ec 3d 98 26 02 bc 70 52 1d bb 26 1d ef bd
       0.11529867 -0.007943772 -0.0024005435 -0.116754815
0002a0 04 f2 24 bd be 3a 14 3e f6 1c 0a be eb ef 9c 3d
       -0.040269867 0.14475533 -0.1348761 0.07662948
0002b0 a0 d1 45 be c0 21 a5 3d 64 8a c4 3d 7d 80 f3 bd
       -0.19318247 0.08063078 0.095967084 -0.118897416
0002c0 61 56 1f 3d 10 f4 02 3e 6c f5 71 3d 63 87 b0 bd
       0.038900737 0.12788415 0.059071943 -0.08619573
0002d0 56 96 d7 be 5c f8 7f 3e 52 a2 a8 bd 1f 8a 16 be
       -0.42106885 0.24997085 -0.08234085 -0.14701127
0002e0 57 60 48 3b 6f 10 01 bc 85 49 fb bd ca 43 1c bb
       0.0030575 -0.007877453 -0.12269882 -0.0023844116
0002f0 eb 50 40 3e 71 ed 35 be b8 3b 34 bc 1a 23 31 be
       0.18780868 -0.17766358 -0.011000566 -0.17298546
000300 9b 7b 68 be 48 43 82 bc 2a a8 30 bc c2 70 8f 3d
       -0.22703402 -0.015901223 -0.010782281 0.07003929
000310 ef 2b 63 3f 56 f3 95 3c 21 83 9f 3d fe 11 3d 3f
       0.8873891 0.018304508 0.07788683 0.7385558
000320 05 44 6f 3e 46 7b 9e bd b6 cb 37 3f 39 e0 57 3d
       0.23365791 -0.07738356 0.71795213 0.05270407
000330 7f 01 04 bd 76 62 1a 3e 56 ca 82 be 42 03 09 3d
       -0.03222799 0.15076622 -0.25544995 0.033450373
000340 7d d5 b0 bf 46 14 15 3e e4 11 4a bc 3d a5 91 bd
       -1.3815151 0.14558515 -0.012333367 -0.07111595
000350 4b 0a 56 be 1d 48 8d bf 26 65 1c bc 24 08 c0 be
       -0.20902364 -1.1037632 -0.0095456 -0.3750621
000360 82 5c 12 3d 90 ca 44 bc df 3d 5c bc 3a f0 e3 bd
       0.035732754 -0.012011185 -0.013442486 -0.11129804
000370 3c 6b 5f bd 77 c0 ae 3c 34 bb cd bd 57 e0 75 3e
       -0.054545626 0.021332009 -0.10045472 0.2401136
000380 6c 2d ba be 44 1d 26 3e dd bb ea bc e8 07 d9 3f
       -0.3636278 0.16222101 -0.028654033 1.6955538
000390 bc 4a fd bc 4a 82 e8 3e f9 e7 96 be fe 54 05 3d
       -0.030919425 0.45411903 -0.29473856 0.032551758
0003a0 b2 b0 18 be 84 20 8e 3f 6d f7 aa 3d f3 f7 50 3e
       -0.14911154 1.1103673 0.08347974 0.20407085
0003b0 38 ec d7 bc b0 d7 cd be b1 83 44 3e 6d 06 91 3d
       -0.026357755 -0.4020362 0.19190861 0.07081304
0003c0 b3 ba 63 bf c6 da e4 3e 92 a3 80 be 3c 6d 66 bc
       -0.88956755 0.4469816 -0.25124794 -0.014064129
0003d0 7f c3 2b 3c 7d 92 ce bd 7b 28 9a 3d 04 06 87 bd
       0.010483622 -0.10086534 0.07527252 -0.06592944
0003e0 0d a8 fe 3d f7 2a b4 3d e1 da 63 bd 9e 3b c4 3d
       0.12434397 0.087972574 -0.05562866 0.095816836
0003f0 4e e4 a8 bd 98 13 d8 bd 17 a5 82 bf 42 c5 8c bd
       -0.08246671 -0.10550612 -1.0206631 -0.068735614

actor.net.fcs.1.bias f4 [64]
000000 a5 25 25 bd 9f fc 04 3d 98 e0 69 3c 23 c2 38 3c
       -0.040319104 0.03246748 0.014274739 0.011276755
000010 b3 cc 1d 3b 06 13 26 3c 64 55 2e 3d cf fa 15 bd
       0.002407831 0.0101363715 0.042561904 -0.036616143
000020 63 f0 07 bd 5b cf f9 bd ca f8 8a 3b ed ee 5b 3d
       -0.033188235 -0.12197753 0.0042410837 0.053694654
000030 20 a3 41 3b f0 81 56 bd d6 8f 2c bd 82 38 c0 ba
       0.0029546693 -0.05237001 -0.04212936 -0.0014665278
000040 40 10 24 3e 41 42 72 bc d6 3d 4f bb 1d df 40 3c
       0.16021824 -0.014786304 -0.003162255 0.011771944
000050 4b c2 df 3c 54 8e 15 be 16 0e 11 3d 91 1c 3c bc
       0.027314326 -0.14605075 0.035413824 -0.01148142
000060 e8 20 46 bc 93 bb 62 bb d8 6d 1f bd a1 92 c5 bd
       -0.012092806 -0.0034596666 -0.038923115 -0.09647108
000070 09 1c 42 bc 11 f7 e9 3c 70 54 a6 3c f3 c5 33 3e
       -0.011847504 0.028560193 0.020303935 0.1755598
000080 bc 37 3a bd da 01 9d bd 3c 8e 4d bd 06 6b 1b 3c
       -0.04546331 -0.07666369 -0.050184473 0.009485966
000090 cc 89 25 bd ef 55 a2 3d 8f 4a 87 bc e9 52 48 3d
       -0.040414616 0.07926547 -0.016515044 0.048907194
0000a0 93 a5 b2 bd 9a 8c 24 bd eb e8 8c 3d e7 3f e4 3c
       -0.08722987 -0.04017315 0.06880363 0.027862502
0000b0 06 1f 2a 3b 69 2b 92 3b e8 f4 81 3c 15 7c 5d bc
       0.0025958433 0.0044607413 0.01586385 -0.013518353
0000c0 25 67 25 be 42 d9 25 3c 9d d9 8f bb f4 cc 80 3d
       -0.16152628 0.010122599 -0.004389955 0.06289092
0000d0 c2 2c 7d bc eb 84 7f 3e 39 9a 53 bd 08 7b 8c 3c
       -0.015452566 0.24953048 -0.05166075 0.01714851
0000e0 de 6a a5 3b d6 68 03 bd 64 35 f3 bc f6 09 7b 3d
       0.00504814 -0.0320824 -0.029688545 0.061288796
0000f0 92 3c 8b 3d bd 03 b2 bc 92 75 50 bd d5 8b 74 3c
       0.06798662 -0.021730298 -0.050893374 0.014925917

actor.mu_layer.weight f4 [1, 64]
000000 5b 7f 21 3c a7 53 a5 bb 11 39 5f 3b 2f 98 e7 bd
       0.009857024 -0.0050453725 0.0034061114 -0.113083236
000010 6f b3 9b 3d 51 25 5e 3a 4f db 16 3c a8 50 34 3a
       0.076025836 0.00084741885 0.009207561 0.0006878474
000020 cc e9 c0 be 34 a9 91 be 2f db 9e 3b 98 04 49 bb
       -0.37678373 -0.28449404 0.004847906 -0.0030672904
000030 27 d9 55 3a 5a a6 45 bc e6 40 45 be 9e d7 2c ba
       0.00081576634 -0.012063587 -0.19263038 -0.0006593409
000040 b9 f3 6c bd 7d 11 d7 3a d6 33 30 3c 8f 31 58 ba
       -0.05784962 0.001640841 0.010754546 -0.0008247131
000050 41 04 e6 3b e8 47 b3 bd 92 7e 13 bc c4 dd eb be
       0.00701955 -0.087539494 -0.009002345 -0.4606763
000060 1a 2e 86 3b 3c ca c5 3a 37 cc 97 3b 43 01 7d 3b
       0.004094851 0.0015090178 0.0046324986 0.0038605488
000070 58 8e 13 3c 56 51 bd bb 00 01 64 3b 5e 7c 1c 3d
       0.009006105 -0.0057775183 0.0034790635 0.038204543
000080 7a 89 84 bb b2 d2 dc be 79 2b 61 bd 49 5c 3f bd
       -0.004044709 -0.43129498 -0.0549731 -0.04671887
000090 e5 f9 20 bd 92 0c 80 3c 29 9c cf 3b 9b ef 9b 3e
       -0.039300818 0.015630994 0.0063357544 0.30456242
0000a0 38 11 3f be 0f 08 bf be d8 41 9b 3e e0 de 0c bc
       -0.18658912 -0.37310836 0.30323672 -0.008598059
0000b0 64 9d 18 be a6 10 86 3c 03 7a da 3b 2e fe 86 bd
       -0.1490379 0.01636536 0.006667377 -0.0659145
0000c0 df 25 20 3e f0 8c 87 3c b8 cb db bb f8 b3 83 b8
       0.15639447 0.016546696 -0.006707635 -6.2800886e-05
0000d0 b0 2b bf 3a d9 c8 31 be 47 10 58 3b 23 f4 3b 3c
       0.0014585163 -0.17361774 0.0032968686 0.011471781
0000e0 1c bd 34 3c 9f 40 23 bc 03 c4 9a 3b 7e e1 fd 3d
       0.011031415 -0.009964137 0.0047230734 0.12396525
0000f0 0d 37 95 3b c1 0b ff 3a bf 97 ec b8 25 92 25 3b
       0.0045536817 0.0019458459 -0.00011281622 0.002526411

actor.log_std_layer.weight f4 [1, 64]
000000 3f 26 1f bc 0f ed 60 3b 00 7e 0d 3b f3 4c b9 bb
       -0.009713708 0.0034320985 0.0021589994 -0.005654925
000010 f2 d4 a2 bc f7 55 3d b9 48 50 f1 3c f3 2e 8f bc
       -0.01987693 -0.00018056469 0.029457226 -0.017478442
000020 32 76 ca 3d c7 78 8e 3e c4 02 43 3a dd 72 8b bb
       0.09885825 0.2782652 0.0007439072 -0.004255636
000030 2e 02 ee 3b b5 45 fc bb 5f cb 19 3e 64 34 d8 bc
       0.0072634434 -0.0076987394 0.15018986 -0.02639217
000040 f2 6e e9 be ab 36 ee bb db 98 94 3b 38 71 9d 3a
       -0.45592457 -0.0072697005 0.0045348234 0.0012011891
000050 be f2 a4 39 23 e7 ef 3e b1 77 d8 3a ad 64 d3 3b
       0.00031461375 0.4685603 0.0016515163 0.0064512105
000060 6d 7a 03 bc e9 36 07 3d 11 fa f9 bb 8f 24 33 bc
       -0.008024794 0.03301135 -0.007628687 -0.010934009
000070 fc 09 9a bc 8a 60 44 bb b1 8c e1 ba aa cd 21 bf
       -0.018803589 -0.0029964768 -0.0017208067 -0.63204443
000080 74 75 e2 3a 6c 6e b2 bd 0a ae 01 bd 09 d5 a4 3d
       0.0017277435 -0.087124676 -0.031660117 0.08048446
000090 f3 2c 54 bc ac d2 ba 3c 7d c7 7b ba 56 79 15 3e
       -0.01295017 0.022805534 -0.0009604616 0.14597067
0000a0 32 3e fa bd 47 eb d4 3b 61 84 d1 3d b4 44 ea 3a
       -0.12218894 0.006497774 0.102303274 0.0017873258
0000b0 39 e4 8d bd bb 3f e9 3b 02 ad 2b 3d a0 45 76 3d
       -0.06928296 0.007118193 0.04191304 0.060124993
0000c0 b4 15 da 3e 37 43 d8 3b e5 34 46 bc c6 23 8b 3b
       0.42594683 0.0065998095 -0.012097572 0.004246208
0000d0 1c 95 88 3a 35 e0 34 bf f5 04 94 bb a8 8b 34 3c
       0.0010420415 -0.7065461 -0.0045171925 0.011019625
0000e0 f2 d9 cb bb cd 08 df bb 7e c3 c5 3b 53 d2 2f bd
       -0.0062210495 -0.006806469 0.0060352674 -0.04292519
0000f0 32 42 01 3c a2 b2 ab bb fb 6d c1 bb 05 8b ee ba
       0.007889317 -0.0052398006 -0.0059030033 -0.001819939

q1.q_net.fcs.0.weight f4 [64, 9]
000000 5d 05 ae be 90 da a5 3e 9f 6e 2c bf 09 a7 1d be
       -0.33988467 0.32393312 -0.67356294 -0.1539575
000010 9f 1f 68 bd a9 a5 f2 3c b3 45 69 3e f6 6a 82 3d
       -0.05667078 0.029620009 0.22780494 0.063680574
000020 f3 bc 8c 3e 85 07 ce 3b d5 2b cf 3b bb 73 35 3e
       0.27487907 0.0062875175 0.006322364 0.17719929
000030 83 3b 4a 3d 48 db 40 be 05 e0 e5 3d 2a 1a a2 3e
       0.04937316 -0.18833649 0.11224369 0.31660587
000040 83 66 55 be 58 ba fd 3c 8f 8b 02 bc d3 dc b2 bc
       -0.20839886 0.030972645 -0.007967844 -0.021833813
000050 7b 32 13 c0 3d 1b 13 bf 9f 6e fe bd c5 6f 8a bd
       -2.299956 -0.5746344 -0.12423443 -0.067595996
000060 c8 bb 8d 3e fe ba 16 3e bd c1 22 3f 63 2b 3f be
       0.27682328 0.1471977 0.6357687 -0.18668894
000070 f8 e7 59 be 72 3b 1e c0 73 43 12 bf 67 18 33 be
       -0.21279895 -2.4723783 -0.5713417 -0.17489778
000080 0c b6 41 bb 56 db 83 be 5b 7b d3 bd 4f 04 ee 3e
       -0.0029557971 -0.25753278 -0.103262626 0.46487662
000090 7d 17 08 3e 1c ae e5 be a6 08 6b 3f 51 23 1e 3e
       0.1329021 -0.44859397 0.9181007 0.1544316
0000a0 22 e7 1e 3e dd b5 8f 3e 10 36 ee 3d e3 32 27 be
       0.15517858 0.28068438 0.11631405 -0.16328005
0000b0 46 fc 67 bf 36 89 1e be ec 50 4a bc 85 ce 6b 3e
       -0.90619314 -0.1548203 -0.012348395 0.23028
0000c0 36 93 f1 bd b8 00 eb 3d 9e 7c 74 bd b0 1d a5 3d
       -0.117956564 0.114747465 -0.059689157 0.08062303
0000d0 8e 85 37 be 56 15 6f 3f dd db 7b 3d 3e d1 53 3e
       -0.17922041 0.9339193 0.061488975 0.20685288
0000e0 52 a2 be bb 95 86 57 3e 17 f7 0a bf b7 74 74 be
       -0.00581769 0.21047433 -0.5428328 -0.23872648
0000f0 56 fb 4b bb 0b 96 84 3d c7 05 db bb 41 72 22 bc
       -0.003112515 0.06473931 -0.0066840383 -0.009914936
000100 71 f5 eb bd 35 3a b3 be da 82 f3 3d 7c 87 84 3e
       -0.115214236 -0.35005346 0.11890192 0.25884616
000110 be b2 09 3d 86 37 00 3e 56 22 87 bb ed bb 97 bd
       0.033617727 0.1252118 -0.004123966 -0.07408891
000120 a9 6c 9b be ce b4 00 be 31 54 d4 3e 95 73 9c 3d
       -0.3035634 -0.12568972 0.41470483 0.07639233
000130 4b 38 f5 3c a4 7f 02 bf f0 fa c5 bd b4 77 97 3e
       0.02993407 -0.50976014 -0.09667003 0.29583514
000140 f4 76 31 be 36 0c 62 be 72 1d c8 bc ad 6e c8 be
       -0.17330533 -0.2207497 -0.024428103 -0.3914694
000150 53 52 4d 3e 90 a5 08 3f 86 06 ae 3d 4b 87 61 3d
       0.20050935 0.5337763 0.08497338 0.055060666
000160 e6 d0 26 be ce b5 33 be d1 2d 82 be 01 48 c6 bc
       -0.16290626 -0.17549822 -0.2542558 -0.024204256
000170 e4 a6 84 be 4a f6 99 be 8a b0 c7 b8 f7 30 2e 3d
       -0.25908577 -0.30070716 -9.5219424e-05 0.042527165
000180 a2 dc 8f be b6 c0 de bd 39 3c 01 bd fc 7b 14 bf
       -0.28098017 -0.108766004 -0.031551573 -0.58001685
000190 a7 bd 59 be 70 e1 f9 3e e7 bb 8d 3e 45 58 d5 3e
       -0.21263753 0.48804808 0.2768242 0.41668907
0001a0 fc 70 da 3d 2b 1e 5e be 08 c4 33 be 53 6e e3 be
       0.10666081 -0.21691196 -0.17555249 -0.44420108
0001b0 8a d4 bf bd cf 11 10 3d bb 11 be bd 46 17 32 bd
       -0.093667105 0.035173234 -0.092807256 -0.043479227
0001c0 8a 26 db be 16 cd 98 3e 0b ca 99 3e 6c 9a 8f 3e
       -0.4280284 0.29843968 0.3003696 0.28047502
0001d0 3c af b7 3d fc 25 3e 3d 31 1c 02 3e 57 2d 0f 40
       0.0896897 0.046422943 0.12706067 2.2371423
0001e0 b7 48 16 3f fe 76 f3 3c 50 14 c9 bd 82 b6 95 3e
       0.58704704 0.029719826 -0.098183274 0.29240805
0001f0 b2 74 9a be 8c 51 0c bf d3 44 ec 3d ae fa 67 3e
       -0.30167156 -0.5481193 0.11536565 0.2265422
000200 6e 12 a7 bf 43 cf ef be 49 29 88 3e bc 8a c7 bd
       -1.3052499 -0.46837816 0.26593998 -0.09743258
000210 04 94 96 be a0 92 5b 3d e7 55 63 3f 84 87 0f 3f
       -0.29409802 0.05360663 0.8880295 0.56066155
000220 5f 6b 0e 3f 94 47 e3 3f e1 09 0a 3f a7 51 60 3d
       0.55632585 1.7756219 0.53921324 0.05476537
000230 56 db aa bd 47 5a 8d 3e d6 7f f7 3d 76 b2 a9 bd
       -0.08342616 0.2760794 0.1208493 -0.08285992
000240 1f 3f e9 bb 93 e8 73 3e 0d 6b fe be e4 c7 33 3e
       -0.0071181203 0.23819189 -0.49691048 0.17556721
000250 05 98 03 be 4f 6c 2a be d6 db 16 3d ab 21 88 bd
       -0.1285096 -0.16642879 0.036830746 -0.06647047
000260 0d 03 c6 3b a8 3b 38 bb 0f 33 0a be 17 61 b5 3d
       0.006042844 -0.002811173 -0.1349604 0.08856409
000270 19 c8 f5 bd fc f8 51 bf 6b 8f c2 3e 36 55 33 be
       -0.12001056 -0.82020545 0.38000044 -0.17512974
000280 16 c1 ad bc 09 2b 71 3c a3 dc c7 bd 35 40 60 be
       -0.021210235 0.014719733 -0.0975888 -0.21899493
000290 e1 db ac bf 7b 31 ea be 6a 02 ad 3d 63 8d 29 3d
       -1.3504602 -0.45740876 0.08447726 0.041394603
0002a0 b2 2d 8b 3e f2 4f 92 3e 17 49 c5 3e 96 64 2c be
       0.271833 0.28576618 0.38532326 -0.16835245
0002b0 23 c3 27 be 4b 2d dd bf d7 d7 a5 be fb 4c 0a 3f
       -0.16383033 -1.7279447 -0.32391235 0.5402371
0002c0 5e bb f2 3e f8 be 86 3e f6 b9 95 be 9f 08 a5 3e
       0.47408575 0.26317573 -0.2924344 0.3223314
0002d0 32 8d 78 3d 51 83 9d 3d a1 e3 9a 3e 68 8d c0 3d
       0.06068153 0.07691062 0.30251792 0.09401971
0002e0 d5 95 ca bd 76 03 be 3d 6b ff 99 be 36 15 78 3e
       -0.098918594 0.09278004 -0.3007768 0.24226841
0002f0 89 94 bf bd 43 27 ed 3d 53 07 70 be 2c 0c 8a bc
       -0.09354503 0.11579754 -0.23440294 -0.016851507
000300 f9 81 6c bc 2a bd 80 bb 4d ed e4 bd 50 97 d8 bd
       -0.014435285 -0.0039288 -0.11178074 -0.105757356
000310 30 06 25 be 9a 5f 9c bd 3b 94 ab be 9c f4 08 3e
       -0.16115642 -0.07635422 -0.33511528 0.13374561
000320 30 7b 28 3f c0 cd 33 3e ed 91 a7 3e c0 f4 c7 bd
       0.6581297 0.17558956 0.3272852 -0.09763479
000330 56 d5 96 39 56 5e 99 3c f4 de d6 bd 2d 01 48 be
       0.00028769177 0.01872174 -0.10491744 -0.19531699
000340 b0 a8 36 be 7c cb 4a 3f a5 bc fa 3e d1 cc 20 3e
       -0.17837787 0.7921674 0.4897205 0.15703131
000350 ff fe 09 be 18 c9 25 3e 88 80 51 be 06 c2 5f bf
       -0.1347618 0.16189992 -0.20459187 -0.8740543
000360 38 18 2d bd c1 37 d6 3e ca c2 c4 3f ee d9 4c 3f
       -0.042259425 0.41839412 1.5371945 0.80020034
000370 af 56 d3 bd e5 50 f9 bd ab 1f 2b be c0 12 7a be
       -0.10319268 -0.121736325 -0.16711299 -0.24421215
000380 fd 6f 07 bf 14 96 f8 3d e6 06 83 be 02 bb e5 bf
       -0.52905256 0.12138 -0.255912 -1.7947695
000390 ea df 1e bf 6c 61 ad 3c 6d 96 09 3e 2b b1 67 bc
       -0.62060416 0.021164618 0.13436289 -0.014141361
0003a0 a0 2d 25 3e ac 92 ec 3e 17 47 3a 3d eb f5 68 be
       0.16130686 0.46205652 0.045477953 -0.2275006
0003b0 f9 0f d7 3e 94 5e b6 3d 2f b4 fb 3d 51 bb 53 bf
       0.42004374 0.08904758 0.12290227 -0.827077
0003c0 e0 69 06 3e 6e 58 04 3e 87 6a a3 be dd 55 c8 3e
       0.13126326 0.12924358 -0.3191721 0.39128008
0003d0 f6 a4 15 3e 63 90 96 3d c9 f1 26 3e 58 d9 72 be
       0.14613709 0.07351758 0.16303171 -0.23715723
0003e0 9d 59 10 bd 16 c0 0f 3e 76 72 fd bd 1a e1 57 bf
       -0.035241712 0.14038119 -0.12375347 -0.8432785
0003f0 ad ff 32 be 25 1c e0 bd e4 aa e6 bf 7f 16 ac be
       -0.17480345 -0.10942868 -1.8020902 -0.33610913

q1.q_net.fcs.0.bias f4 [64]
000000 d6 57 ae be c8 04 43 3f 5d 3f 4e bf de 6f b5 be
       -0.34051389 0.7617917 -0.80565435 -0.3543691
000010 e2 83 26 bf bb a0 37 be 11 31 6c 3e 33 b7 59 3f
       -0.6504499 -0.17932408 0.23065592 0.85045165
000020 70 de 14 bf fa c4 38 be 69 d9 36 3f 94 ed ec be
       -0.5815191 -0.1804389 0.7142549 -0.46275008
000030 d3 56 ff 3e bf 13 40 bf 27 d9 54 bf 67 11 4c bf
       0.4987093 -0.7503013 -0.8314385 -0.79714054
000040 06 ff dc 3d 16 c4 73 be ac a9 1f 3f 2d 56 99 bb
       0.10790829 -0.2380527 0.62368274 -0.0046794624
000050 97 6e f6 3e d3 fb ae 3e 01 98 58 3c ef 56 66 bf
       0.48131248 0.34176502 0.013219834 -0.899764
000060 86 b7 2c bf 7e d6 28 bf 92 17 1d 3e 94 67 33 be
       -0.67467535 -0.6595229 0.15341023 -0.1751998
000070 3d 5a 73 3d 08 50 37 bf ee 3b d2 3e d2 b3 f4 be
       0.05941223 -0.71606493 0.41061348 -0.47793442
000080 bd 0f 44 be 3e c3 3f 3f c6 68 98 3e 35 7d ed 3e
       -0.19146629 0.7490729 0.29767436 0.46384588
000090 5e 9e 83 bf f2 4e 97 3e 47 28 50 bf e2 e7 38 bd
       -1.0282705 0.29552418 -0.8131146 -0.045143016
0000a0 a3 f6 a2 3b b4 53 2e bf 66 42 98 3e 00 61 2c 3f
       0.004973249 -0.6809647 0.29738158 0.6733551
0000b0 55 ca c1 be 79 6e 76 bf 68 b1 9e bb a0 92 15 3f
       -0.3784968 -0.9626232 -0.004842926 0.58426857
0000c0 e5 cf 39 3f 50 ad cd 3e 2b 0a ff 3e c1 04 2c 3f
       0.72582847 0.4017129 0.49812445 0.67194754
0000d0 e4 c2 7b bb c0 7b 46 3f ce 47 fe be b8 46 e7 bd
       -0.0038415724 0.7753258 -0.49664158 -0.112927854
0000e0 de 73 61 bf c6 5a 77 bf f3 27 e2 be 3e 4f 07 bf
       -0.88067424 -0.96622884 -0.44171104 -0.5285529
0000f0 36 20 45 3a 50 51 06 3d dd 5a ef bd 91 54 4e 3d
       0.00075197534 0.03279239 -0.11687253 0.050373618

q1.q_net.fcs.1.weight f4 [64, 64]
000000 f8 34 2e 3e 88 36 6e 3e 97 12 9b bf 61 df 9a bf
       0.17012393 0.2326299 -1.2115048 -1.209942
000010 e5 c8 8c bd c3 e1 68 3e 39 ef 41 3e ee 34 47 3e
       -0.06874255 0.22742371 0.18938912 0.19453785
000020 c9 09 ad be 48 f3 05 3d 95 cf 4e 3e e8 ba d1 bd
       -0.33796528 0.032702714 0.20196374 -0.10240728
000030 36 47 33 3e d3 53 6b c0 3a 1f 49 3e b4 53 a2 bf
       0.17507634 -3.6769912 0.19640818 -1.2681794
000040 66 81 27 3e dc 37 bf bc 9c 60 af 3e 9f d6 0b be
       0.16357955 -0.023342066 0.34253395 -0.1365609
000050 57 61 00 3e b3 8a 40 3e 79 07 4b bc 84 f4 03 bf
       0.12537132 0.1880291 -0.012391918 -0.51544976
000060 40 06 c8 bf 90 69 94 bf 88 53 78 3b af a6 68 bd
       -1.5626907 -1.1594715 0.0037891585 -0.056799587
000070 c8 ad 5a be b1 67 de bf 31 1a b2 3d 0b cd 97 be
       -0.21355355 -1.7375394 0.08696402 -0.29648623
000080 87 79 41 bf fa 9c e5 3e 72 12 53 3e bf d6 78 3e
       -0.7557606 0.44846326 0.20612505 0.24300669
000090 ae c6 8d c0 35 e6 90 3e a7 f9 d8 be 12 ee 7c 3d
       -4.430503 0.28300634 -0.4237797 0.06175048
0000a0 8a 22 86 bd 12 8d 26 c0 d3 7b 51 3e 7a 49 aa 3e
       -0.065495566 -2.6023602 0.20457391 0.33259183
0000b0 69 60 09 be e2 43 8d bf 10 92 36 bd 65 76 65 3d
       -0.13415684 -1.1036341 -0.04457289 0.056021113
0000c0 0d cb af 3e 26 5b 76 3e 69 ea b7 3e d6 fe 9e 3e
       0.34334603 0.24058208 0.35921028 0.310538
0000d0 c4 87 19 bf 9b 9c c8 3e 0c 4e 57 be 77 04 91 be
       -0.59972787 0.3918198 -0.21025866 -0.2832372
0000e0 b7 d0 2e c0 cf 80 a4 c0 d1 37 7d bf 3a 2f 9b 3d
       -2.731489 -5.1407237 -0.98913294 0.07577367
0000f0 b9 9e 69 3e c1 c9 07 be 36 f6 77 bd dc 87 7a 3e
       0.22814454 -0.13260557 -0.06053754 0.24465889
000100 ff 1f e7 3d 4e 53 32 be e3 23 6e be a8 c5 10 be
       0.112854 -0.1741459 -0.23255877 -0.141379
000110 3c 8c 89 3c cd 54 fe bd 1b 05 4b 3e 44 ec 6f be
       0.016790502 -0.12418518 0.19826166 -0.23429972
000120 31 49 1d bf 39 6c 3c 3e ac d9 01 3d d3 1d 27 be
       -0.61439806 0.18400659 0.03170173 -0.16319971
000130 b8 9b 87 bd 8f 43 58 c0 6f 12 22 bf 09 ad a5 3e
       -0.06621498 -3.3791234 -0.6330938 0.32358578
000140 6c 64 f9 3d d0 7a 65 bf ae 68 ab be 32 65 1f 3e
       0.12177357 -0.8964052 -0.33478302 0.15565947
000150 c5 77 7a 3d f4 4d 97 be be 59 b4 3e 89 45 a5 bf
       0.061149377 -0.2955166 0.35224718 -1.2911845
000160 d7 fb 22 c0 54 c8 6f bf 48 e3 d2 be f4 46 39 be
       -2.546621 -0.9366505 -0.41189027 -0.18093473
000170 d5 f3 cb be a0 32 14 bf cb 57 30 3e e0 92 11 bf
       -0.39834467 -0.5788975 0.1722099 -0.5686474
000180 55 03 46 3d 3b 3e 4f 3e 97 4e 3e 3e ce d0 ca be
       0.04834302 0.20238583 0.18584667 -0.3961243
000190 b6 f6 03 bf 85 32 94 bf 2d 00 82 3f 92 d8 25 3f
       -0.51548326 -1.1577917 1.0156304 0.64783585
0001a0 cb 8a 82 3e eb f8 b4 bf f1 22 a3 3d 8c 5d 5c 3e
       0.25496516 -1.4138464 0.07965649 0.2152006
0001b0 ae f2 8f be e1 17 b5 3e cf 38 c1 3e 0f 38 8a be
       -0.28114837 0.3536978 0.37738654 -0.26995894
0001c0 b7 fa 87 3c 18 be 9c 3e 64 9b 06 3e 61 5b b9 bd
       0.016599042 0.3061378 0.13145214 -0.09050632
0001d0 0e 79 e3 3e c4 0a 90 bd e4 87 05 be 45 4d e1 bd
       0.44428295 -0.070333034 -0.1304012 -0.11001066
0001e0 d2 5e 12 3d fd 41 5f c0 07 21 88 be 8d b8 2e 3f
       0.03573496 -3.4884026 -0.26587698 0.6825035
0001f0 1e 8f 32 be 33 d6 90 3c 8c 18 d7 3e be e4 43 bd
       -0.17437407 0.017680263 0.42010915 -0.047825567
000200 12 1e 69 3d 73 2b 69 3b 8c 2d 63 3d d4 fd 46 3b
       0.056913443 0.0035578876 0.05546336 0.0030363696
000210 b2 41 b8 bd ce 5a e6 bd 50 16 52 bb a3 b1 d9 bd
       -0.089969054 -0.11247788 -0.0032056756 -0.10629585
000220 e3 2f c4 bd c9 33 99 3d dc 71 9d bd d4 1b 1e bd
       -0.09579446 0.0748058 -0.076877326 -0.038600758
000230 f5 9b fe bd 3c ca 6e bd 78 0e a8 3c ae 0d c9 bd
       -0.1243209 -0.058298334 0.020514712 -0.09817062
000240 d2 d9 08 be e5 63 85 3d 18 1b 22 bc ad 85 5c 3d
       -0.13364342 0.06513194 -0.009894155 0.05383842
000250 f0 df fb bd 0e b0 5d 3b 17 0b d6 3d 50 6b db bd
       -0.12298572 0.003382686 0.10451334 -0.107138276
000260 30 86 14 bc de 59 ac bd 28 fe 03 be c0 d4 31 3d
       -0.009065196 -0.08415578 -0.12889922 0.043415785
000270 0f d5 00 be 18 31 06 be 34 43 b6 bd d1 f7 66 bd
       -0.12581275 -0.13104665 -0.08899537 -0.05638868
000280 16 21 9f 3d 34 8b 66 bd 28 02 9f bd 6d 6e df bd
       0.077699825 -0.0562851 -0.07764083 -0.10909734
000290 40 4a 82 bb a5 15 d1 3d de b4 b4 bd 8b cb 8e 3d
       -0.0039761364 0.102092065 -0.0882356 0.069724165
0002a0 6e 7d 81 3d 49 48 cc bd e9 4b 4c bd d7 34 55 bd
       0.06322752 -0.09974725 -0.04987708 -0.052052345
0002b0 f7 3d 91 3d 28 f8 61 3a b9 09 a4 bd 95 92 d3 bd
       0.07091897 0.0008620047 -0.08009667 -0.10330693
0002c0 10 40 1a 3c 79 b8 c4 3d 67 f3 df bd 38 8b 78 bc
       0.009414688 0.09605498 -0.10935097 -0.015169911
0002d0 ff ad a2 3d 21 07 5f bd 23 fe 08 bd 98 49 28 3d
       0.07943343 -0.054450158 -0.03344549 0.04108581
0002e0 c6 54 ea bd 4e 64 8d bc cc be dc 3d c7 4d a2 bd
       -0.114419505 -0.017259743 0.10778579 -0.07924991
0002f0 9a ed 5e bd 64 c2 5a bd 50 d5 2a 3d 52 83 a9 bd
       -0.054425813 -0.05340804 0.041707337 -0.082770005
000300 1b 00 3e 3e 1f 8a 2e be ec 07 8a 3e da 15 14 3f
       0.18554728 -0.17044877 0.2695917 0.5784584
000310 fc 3d 39 3f f3 0a a3 3f 8b 5b 45 bf 67 f2 ed 39
       0.72360206 1.2737716 -0.7709281 0.00045384766
000320 2d 8c 12 3e 25 9a 79 bf a9 b7 a3 3d c8 a8 45 be
       0.14311285 -0.9750083 0.07994015 -0.19302666
000330 f6 e1 e7 3d 59 61 43 3f b0 d3 27 3f 65 bf ab bf
       0.113223955 0.76320416 0.65557384 -1.3417784
000340 ef 9c f6 3e 47 71 43 bf af ba ef 3e f3 8b b2 3e
       0.48166606 -0.7634472 0.46822116 0.34872398
000350 5f c4 8f be a5 4b a7 be 6e e7 4c be d2 d7 13 c0
       -0.28079507 -0.326749 -0.20010158 -2.3100476
000360 58 b9 28 be 8b 42 5f 3e 48 be c0 bd 78 b7 54 3f
       -0.16476953 0.21802728 -0.09411293 0.8309245
000370 2a 90 e9 3e 51 af 5c bf a9 59 b0 3e 3a 08 2b 3e
       0.456178 -0.8620501 0.34443405 0.16702357
000380 f4 87 34 bf 01 58 8d be 0c a2 9b bd 12 e5 1b be
       -0.7051995 -0.27606204 -0.07599267 -0.15224102
000390 6a 5b 1d be 63 f6 48 be 56 53 d5 bf bd 38 0b be
       -0.15366903 -0.19625239 -1.6666057 -0.13595863
0003a0 c1 a1 71 bf c0 67 96 be d0 e9 97 be f0 da fa 3d
       -0.9438744 -0.2937603 -0.29670572 0.1224879
0003b0 46 69 eb be 3f 1a 01 3f df 6a 5e c0 9a 1d 18 bf
       -0.45978755 0.50430673 -3.475273 -0.5942017
0003c0 98 8a 9e be c8 be f9 be d3 a5 56 3e 30 61 d3 3d
       -0.30965114 -0.48778367 0.20961694 0.103212714
0003d0 26 66 93 3e f4 bd 21 be fb 7c 19 3f 86 38 66 c0
       0.2878887 -0.15795118 0.5995633 -3.5972
0003e0 2e c3 2e 3e 64 d7 6b 3e 6a e0 95 c0 27 29 f0 3d
       0.17066643 0.23031384 -4.6836443 0.11726599
0003f0 c9 6e a9 be 0e bf 37 bc 7d d2 c7 be e4 6c c1 be
       -0.33092335 -0.011214985 -0.39027777 -0.3777839

q1.q_net.fcs.1.bias f4 [64]
000000 9f a6 fa 3e 0e 75 ca bb 4e ec bc 3d 27 12 d2 bc
       0.48955247 -0.006178505 0.09224759 -0.025643421
000010 9f 49 70 3c 9e 5b f7 bd ff f0 10 be 30 c2 72 bd
       0.01466599 -0.120780215 -0.14154433 -0.059267223
000020 9f fa b6 3e 2c b7 0b bd b9 77 1a 3f 82 cc 0e 3f
       0.35738084 -0.034110233 0.6033893 0.55780804
000030 76 be ed bd bd 74 47 be 11 12 02 3f 1e 4c d8 3e
       -0.11608593 -0.19478126 0.5080882 0.42245573
000040 13 fe df 3e 8e 7d 9e 3e 97 65 60 bd a6 68 03 3f
       0.4374853 0.30955166 -0.054784384 0.51331556
000050 6c 5f de bd da 38 ac bc 40 78 4e be e3 0a a8 3e
       -0.10858044 -0.021023203 -0.20163059 0.32820806
000060 c9 41 1a 3e 66 c2 dc bb 59 52 94 3e 5b a3 68 be
       0.15064158 -0.0067370413 0.28969076 -0.22718565
000070 5e 30 a0 bc 36 e5 f3 3e 42 5b e0 3e a8 2d ce 3e
       -0.019554313 0.47635812 0.43819624 0.40269208
000080 85 a1 2c 3f d9 ea 4e 3d 86 c5 9b 3c 83 f0 0a 3f
       0.6743396 0.050516937 0.019015085 0.5427324
000090 76 df 46 be 87 33 98 3e fc b0 6f 3e a1 51 dc 3e
       -0.19421181 0.29726812 0.23407358 0.43031028
0000a0 17 d7 08 3f f1 f4 8a be e4 e0 14 3f 23 9f 13 bd
       0.534532 -0.2714 0.58155656 -0.036040436
0000b0 12 e6 21 3f 8e 0c ab 3e 1f ec 1b 3f b2 0e 06 3f
       0.63241684 0.33408016 0.6090717 0.52366173
0000c0 be 8b f2 3d e2 07 c6 bc 77 1d ba 3e 5d be 0c 3f
       0.1184306 -0.02417368 0.36350605 0.5497797
0000d0 91 c2 3a be 70 32 50 be 2a e3 dd bc 3a 50 0e be
       -0.18238284 -0.2033174 -0.02708586 -0.13897792
0000e0 4a bf 8f bd e7 ac 90 be 1b 5c 00 3f 20 bb be bd
       -0.07018907 -0.28256914 0.5014054 -0.09313035
0000f0 ae 47 8a 3d 4e 2d 21 3f 4c 9a 2a 3f 4b a9 20 be
       0.06751953 0.62959754 0.6664169 -0.1568958

q1.q_net.fcs.2.weight f4 [1, 64]
000000 ea 8f bc 3f 1b f4 86 bf ff 0e c0 bd b5 d2 4e bf
       1.4731419 -1.0543245 -0.0937786 -0.80790263
000010 e2 77 5e bf 50 85 36 bf 36 64 ab bc 7f 86 c5 bb
       -0.86901677 -0.7129717 -0.020921808 -0.006027996
000020 3f 72 eb 3e 5f 29 ff be b1 a1 07 40 59 25 00 40
       0.459856 -0.4983625 2.1192439 2.0022795
000030 78 c3 54 3d 17 3c 28 be 18 ad 12 3f c8 b4 7c 3f
       0.051944226 -0.16429172 0.5729537 0.9871335
000040 f8 b9 68 3f 36 9c ff 3f a9 97 7b bf b3 cd bf 3f
       0.90908766 1.9969547 -0.9827829 1.498465
000050 94 ee 66 be 54 dd 5d bf 47 7e 1f bf a7 78 dd 3e
       -0.22551948 -0.86665845 -0.6230206 0.43256113
000060 3c db 91 bf f9 8a 3d bf 85 21 a7 3e 34 74 82 bf
       -1.139503 -0.7404018 0.3264276 -1.0191712
000070 c8 ae 94 bf a6 c4 ce 3e 21 9e d6 3f 84 3b 16 3f
       -1.1615839 0.40384406 1.6767007 0.58684564
000080 d4 39 f2 3f 4a 9a 2e 3f 05 f9 88 bd 14 3e 3b 3f
       1.8923898 0.68204176 -0.06688122 0.731416
000090 fe 16 09 bf 7a c4 13 3f 42 45 17 3f 7a 0e cc 3e
       -0.5355071 0.57721674 0.59090054 0.39854795
0000a0 3f a6 28 3f 1c 64 86 bf 3e 79 06 40 2c 6e aa bf
       0.6587867 -1.0499301 2.10115 -1.3314872
0000b0 2e 26 57 3f e9 c5 20 3f 7b 5f 36 3f 2b a4 38 3f
       0.8404263 0.62801987 0.7123944 0.721255
0000c0 19 1b 58 bf 38 55 de bc 5e c6 0e 3f 3d 33 bf 3f
       -0.8441635 -0.027140245 0.55771434 1.4937512
0000d0 dc dc d1 bf d7 6d 8e be 85 84 8c bd 37 ec 46 bf
       -1.6395526 -0.27818176 -0.068612136 -0.77704185
0000e0 e6 de 02 bf ca 7a bd bd db a6 48 3f 0b f3 f4 be
       -0.51121366 -0.09251936 0.783796 -0.47841677
0000f0 19 13 06 bf fa 33 76 3f 8d e7 e1 3f 85 aa e3 bf
       -0.5237289 0.9617306 1.7648789 -1.7786413

q2.q_net.fcs.0.weight f4 [64, 9]
000000 99 8b 2c bd f0 a2 88 bd a7 12 b7 be b0 b0 eb bd
       -0.04212532 -0.06671703 -0.35756418 -0.1150831
000010 64 11 4d 3e 85 88 13 3f 6e 60 7b be 5b 9d 1e 3e
       0.20026165 0.5763019 -0.24548504 0.15489714
000020 92 da 7b 3d ba b3 2c bc 10 6c 26 bc df 93 0d c0
       0.06148774 -0.010540897 -0.0101576 -2.2121503
000030 df f5 11 bf 11 58 3b bd 7b de 81 bd e3 f7 60 be
       -0.57015795 -0.045738284 -0.06341263 -0.21969561
000040 9e 51 61 be b8 92 1f 3f 9d e6 73 bc 37 f0 4b be
       -0.2200379 0.6233325 -0.014886525 -0.19915853
000050 a5 f0 56 bf ce b6 8f be b8 8e 19 3f 16 26 dc bc
       -0.83960944 -0.28069156 0.59983397 -0.02687363
000060 b6 5c a3 3e 73 26 04 3e 25 c4 5d 3e c1 3c e2 3d
       0.3190667 0.12905292 0.21656854 0.11046744
000070 04 67 99 3e 41 a9 26 40 df 40 45 3f d1 ca 6e be
       0.29961407 2.6040804 0.7705211 -0.23319556
000080 51 9e 7d bd 3c e4 98 be 16 71 3e bd c5 bf 1d bf
       -0.06191856 -0.2986163 -0.046494566 -0.6162074
000090 bb 81 44 be d1 f5 d4 bd db c9 12 c0 d6 17 0a bf
       -0.19190113 -0.10398448 -2.2935703 -0.5394262
0000a0 58 02 0e bf e3 49 7a 3d 7e 62 11 be ab 1c 55 be
       -0.55472326 0.06110562 -0.14197728 -0.20811717
0000b0 fb d6 fc 3e 16 9e 62 3d 0d d1 fa bc 4b 48 8e 3e
       0.49382767 0.055326544 -0.030617261 0.2778953
0000c0 49 86 15 3e 33 25 ac bd 04 64 50 3e b3 77 80 be
       0.14602007 -0.08405533 0.20350653 -0.25091323
0000d0 b6 1a 0b be 34 bf 31 be 0d 46 11 3e 5a dc fd 3d
       -0.13584408 -0.17358094 0.14186879 0.12395544
0000e0 6c 76 04 40 be 3f fc 3e d4 72 22 be b3 c6 02 bf
       2.069728 0.4926738 -0.15864116 -0.5108444
0000f0 fb bf eb 3d f8 6b 4f be dc 6a e5 be c4 f0 0f bd
       0.11511227 -0.2025603 -0.4480809 -0.03514172
000100 51 76 ba bd 71 e0 b8 be a5 4a 87 be 71 fa 4f be
       -0.09104598 -0.36108735 -0.26424137 -0.2031038
000110 17 62 b7 3e 2b 88 a3 bd ec f4 96 be d2 c3 32 3e
       0.35817024 -0.07984956 -0.29483736 0.17457512
000120 8b 9f 20 3e 81 f9 ac bd 32 3b 4a be 1f e2 9c 3e
       0.15685861 -0.084460266 -0.19749144 0.30641267
000130 db 69 07 3f 2d ed 5a bc 7e 59 a8 3e 10 8d 75 be
       0.528959 -0.013362211 0.32880777 -0.23979592
000140 1a 34 97 3d 20 7a a2 3d 31 0c 70 3e 5c 34 cc 3f
       0.073829845 0.0793345 0.2344215 1.5953479
000150 0f 5b bf 3e 4b 15 05 3e f2 97 74 3e 88 32 95 be
       0.3737416 0.12996404 0.23886088 -0.29140115
000160 80 55 95 be 60 a2 40 be e4 70 fb bb 66 d5 ca bd
       -0.29166794 -0.18811941 -0.0076733697 -0.09903984
000170 2d db ad bd 4f 6f 6f 3d 6d 25 c6 3e 0f 33 72 be
       -0.0848907 0.05845576 0.3870043 -0.2365229
000180 df ed a2 be db 28 11 be 13 76 c6 bd 02 a8 d0 3d
       -0.31822106 -0.14175741 -0.096904896 0.10188295
000190 e1 9f 86 3e c3 f5 1d 40 4a 8c 2e 3f 61 00 7a bc
       0.26293853 2.468125 0.68182814 -0.015258879
0001a0 72 cf af bd 3e e9 8c 3e 0b 80 64 be 08 ca 0d bf
       -0.08584489 0.275217 -0.2231447 -0.553864
0001b0 f7 77 14 bd 46 1d 81 3d 2d 9a cb 3d 0f b7 29 3c
       -0.03624722 0.063044116 0.09941516 0.010358586
0001c0 06 87 36 bf e4 20 81 be bb 01 0d 3e a6 94 f3 bd
       -0.7129978 -0.25220406 0.13770191 -0.11893587
0001d0 ae 45 88 bc 9e d6 65 3d dc f4 a4 3d ad 51 52 3e
       -0.016634788 0.056112878 0.08054516 0.2053897
0001e0 c9 4e ac 3d fc f2 4f 3e 0c 0e 2d bf 66 f8 41 be
       0.084134646 0.20307535 -0.6759956 -0.18942413
0001f0 ab a7 e6 bc 08 0e bf bc d8 29 a5 be f8 b3 23 be
       -0.028156122 -0.02332212 -0.32258487 -0.15986621
000200 3c df 90 3f a5 25 24 3f 98 35 f3 3c 77 b2 a6 bd
       1.1318126 0.6411994 0.029688641 -0.08139508
000210 16 6e f1 3c 26 ec f4 bd 97 c7 6d bf 12 41 98 3c
       0.029471438 -0.11959104 -0.92882675 0.018585715
000220 cb 6d 18 3e 9e 66 25 40 08 2f 37 3f c9 aa 42 3c
       0.14885633 2.5843883 0.7155614 0.011881539
000230 50 ff 9e bd 00 7b 93 bb ce 98 81 3e bf 49 2f bf
       -0.07763541 -0.0045007467 0.25311893 -0.684719
000240 c8 a0 d0 bd 99 b6 ef bc 8d a0 61 bf f5 45 c9 bd
       -0.101869166 -0.029261874 -0.88135606 -0.09827796
000250 41 99 12 3e f2 b2 fa 3d 78 40 2f be 43 8d 51 3e
       0.14316274 0.12241162 -0.17114437 0.20464043
000260 76 9b 8c 3e 1d c6 06 be 27 4e 32 be d8 51 fb bf
       0.27462357 -0.13161512 -0.17412625 -1.9634352
000270 40 a5 d4 be 9a 04 00 3f 9c 36 16 be 46 a5 c6 3d
       -0.41532326 0.5000702 -0.1466927 0.09699492
000280 26 e4 e6 3d bc 78 bd 3e f7 82 4c be 94 4b b8 be
       0.112739846 0.37006176 -0.19971834 -0.35995162
000290 e6 91 34 bf 1c 7f b7 3c 22 08 cb 3d 7c 97 d7 bd
       -0.70535123 0.022399478 0.099136606 -0.1052694
0002a0 8f fd 9e 3e 1b 2b ac bd a0 15 14 bf 8f eb 88 bd
       0.31052825 -0.08406659 -0.578455 -0.06685554
0002b0 11 bc 4f be 65 d2 b9 bf aa a1 e4 be e6 3c 1f 3b
       -0.20286585 -1.4517332 -0.4465459 0.0024297773
0002c0 76 34 8b 3d 8b 13 f6 3d fe ba 8d 3e 09 d1 b5 3e
       0.067971155 0.12015446 0.27681726 0.35511044
0002d0 b1 bd ad 3e ce 3a 6d be b8 d5 18 be d7 5f c1 bd
       0.33933786 -0.23166963 -0.14925277 -0.09442108
0002e0 fe 8a 1b bf f9 e7 30 be 0b 98 34 3d ab d6 57 bb
       -0.6075896 -0.1727599 0.044090312 -0.0032934349
0002f0 c0 6f 6f bd c8 ec 1c 3e f7 19 b1 bd fb 2b d3 3f
       -0.058456182 0.153247 -0.086475305 1.6497797
000300 96 03 d8 3e 5b 9c 08 3f 77 3e 90 bd be 7d 57 3e
       0.42190236 0.5336358 -0.07043164 0.2104406
000310 04 9c 8c 3e 53 c1 42 bf 18 66 ab 3e 25 a2 cf 3e
       0.2746278 -0.7607624 0.3347633 0.40553394
000320 9b 2a 97 bf a4 c4 1c be ae 21 d5 3e 84 06 ce bd
       -1.1809877 -0.15309387 0.41627258 -0.100598365
000330 7b e2 a8 3e 43 1d 84 3e 9f 5a 28 3f 87 98 72 3e
       0.3298529 0.25803575 0.65763277 0.23690997
000340 d9 4e 7b be a1 8c f1 bf 8e f9 d8 be ad 66 7a bd
       -0.24541797 -1.8871042 -0.42377895 -0.061133076
000350 db 1b 4f 3e 4e c1 3f 3e 36 01 4b 3e 54 fc a9 3e
       0.2022547 0.18726084 0.1982468 0.33200324
000360 59 ab f8 3d 19 aa 6c 3e b2 48 04 40 e7 e0 e7 3e
       0.12142057 0.23111762 2.066937 0.45288774
000370 9c cd 90 3e 96 a1 93 be c6 a2 9b 3e 9b 11 5a 3e
       0.28281868 -0.28834218 0.30397624 0.21295778
000380 9b cf b3 be 13 d7 78 3d 1d 0d c9 3d a4 0a 62 3f
       -0.35119328 0.060751986 0.09816954 0.88297486
000390 df 1b 2a 3e a3 7d c0 3e 43 f1 9b bc d0 67 4f 3e
       0.16612194 0.37595853 -0.019035941 0.20254445
0003a0 48 db 81 be 11 8c e5 bd 0f 17 2d bf 73 28 e5 be
       -0.2536261 -0.11208356 -0.6761331 -0.44757423
0003b0 27 88 73 bf 4f 54 b7 be 5e 64 26 3f 6c 73 81 3e
       -0.95129627 -0.3580651 0.649969 0.25283372
0003c0 d6 ef 96 bd 3a 3c 95 3e 99 86 c4 bb 9c 98 30 be
       -0.07369964 0.29147512 -0.0059974906 -0.17245716
0003d0 2a 0e a5 be 0b 61 57 bf 30 48 0d 3e 51 50 c8 be
       -0.3223737 -0.8413245 0.13797069 -0.39123777
0003e0 63 f8 83 3e cb 56 1c 3d 33 cc 1f be f4 75 a6 be
       0.25775442 0.03816871 -0.1560524 -0.32511866
0003f0 c1 01 98 3d 4f 04 5c be 47 25 f1 3d 15 96 c1 bb
       0.074222095 -0.21486019 0.11774688 -0.0059077838

q2.q_net.fcs.0.bias f4 [64]
000000 6a ba b0 3d 04 a9 65 bf 28 37 c7 3e 29 12 cb be
       0.08629306 -0.8971102 0.38909268 -0.39662293
000010 bd a8 23 be 1a 4c 4d 3f d7 be 9a bc 19 21 21 3f
       -0.15982337 0.80194247 -0.018889828 0.6294113
000020 7e 99 91 be e1 22 06 be 1a fe 4e 3f a6 b1 3d bf
       -0.28437418 -0.13099243 0.8085648 -0.74099195
000030 d7 0e e4 3e ec 37 43 3f cf 0f 87 bf af 30 7c bf
       0.44542572 0.76257205 -1.0551699 -0.98511785
000040 05 4e c2 bc ed 62 cc be f8 79 09 bf d4 61 27 3f
       -0.023718843 -0.39919224 -0.53701735 0.6538365
000050 38 ae cc 3e c8 a5 09 bf 1b 41 11 bf 43 7d 1a bf
       0.39976668 -0.5376859 -0.5673997 -0.60347384
000060 3e 94 14 bd 8d a6 9b 3e 05 f7 6b 3c 4b d3 9b be
       -0.036274187 0.30400506 0.014402156 -0.3043464
000070 a9 d8 4f 3f c2 78 28 bf d3 b8 e7 3e 98 ae f6 be
       0.8118997 -0.6580926 0.45258197 -0.4818008
000080 be 44 7a bf 07 d0 59 3f 72 9a 83 bf 3e 7e e0 be
       -0.9776114 0.8508305 -1.0281508 -0.43846315
000090 a8 e0 2d bf 17 24 bf bd dc 4d f8 3e 9e 09 3a be
       -0.67920923 -0.093330555 0.48496902 -0.18167731
0000a0 01 22 c6 3e ed 8b 08 bf ff 50 1c bf 61 1b f2 3c
       0.38697818 -0.5333851 -0.6106109 0.02955407
0000b0 22 7c a2 3c af 0f ef 3d f1 3d 1c 3f 0f ce 3b bf
       0.019834582 0.11672913 0.61032015 -0.73361295
0000c0 70 30 d7 3b 6f 9f f3 be ec 80 26 be 65 da 43 3f
       0.0065670535 -0.47582576 -0.16260117 0.7650512
0000d0 d6 ef 1b 3f bf f2 84 3e ce 0b d4 3e 5d bb 7e 3b
       0.60912836 0.2596645 0.41415256 0.0038869001
0000e0 ac 77 0f 3f a6 81 47 bf 5d 30 28 be 86 02 8d bd
       0.5604198 -0.779322 -0.16424699 -0.06885247
0000f0 95 9e 1e bf c4 e6 82 3e df 85 06 3c d5 d2 88 3d
       -0.61960727 0.25566685 0.008210628 0.06680838
